model_scripted.pt (torch, 781487 bytes, 26 tensors)

weight f4 [12, 3, 5, 5]
0	0x3db4443c	0.08802077
1	0xbdeb92e4	-0.115026265
2	0x3ddf4314	0.10901466
3	0x3dc2c4c9	0.0951019
4	0x3d925041	0.071442135
5	0x3daadb9d	0.08342669
6	0x3dc646ed	0.09681497
7	0xbd10e535	-0.03537484
8	0x3ca96d9e	0.020682152
9	0x3d280a41	0.041025404
10	0xbb3688d4	-0.0027852552
11	0xbd6c8f9c	-0.057754144
12	0xbcd99401	-0.026559832
13	0xbdd7c841	-0.10536242
14	0x3d892abc	0.06697604
15	0x3d4a647f	0.049412247
16	0xbd20d857	-0.039268818
17	0xbd195a28	-0.037439495
18	0x3d24029a	0.040041544
19	0x3db000ac	0.08593878
20	0x3d6ed90b	0.058312457
21	0x3d004718	0.0313178
22	0x3c59b264	0.013287161
23	0x3d359fa8	0.044341713
24	0xbdc3919d	-0.09549258
25	0xbdc93895	-0.09825245
26	0x3dddfa9c	0.108388156
27	0x3d574a3e	0.052561037
28	0xbdafb3e0	-0.0857923
29	0xbca0813c	-0.019592874
30	0x3d1140a9	0.035462055
31	0xbcc13921	-0.023586811
32	0x3d2a779d	0.04161798
33	0x3d65dd3d	0.056119192
34	0xbdb047d7	-0.08607452
35	0x3b5e4b29	0.003391931
36	0x3d01d101	0.031693462
37	0x3cf38a90	0.029729158
38	0x3db16eff	0.08663749
39	0xbdc3b8ad	-0.095567085
40	0x3ca1efbe	0.019767638
41	0x3d442d74	0.04789491
42	0x3dc42b88	0.095786154
43	0x3d767bc8	0.06017664
44	0xbd4a42d8	-0.049380153
45	0x3da8c64c	0.08240947
46	0xbdc6fca2	-0.09716155
47	0xbce1f5a5	-0.027582953
48	0xbb9a1b55	-0.0047029653
49	0xbcd9ea2b	-0.026600918
50	0xbc95bd67	-0.01827879
51	0xbd2f52ec	-0.04280369
52	0xbbf72bcf	-0.007543064
53	0xbcc5f714	-0.024165668
54	0xbd1ce60f	-0.03830534
55	0x3dda7779	0.10667319
56	0x3c98a32c	0.018632494
57	0xbdebb024	-0.115082055
58	0x3bd24740	0.006417185
59	0xbd9a1761	-0.075239904
60	0x3d451e1d	0.04812442
61	0xbdbb684f	-0.09150755
62	0x3da87fe1	0.08227516
63	0xbd9b22f3	-0.075750254
64	0xbdcbbe16	-0.099483654
65	0xbd96a567	-0.07355767
66	0x3da1cbce	0.07900201
67	0x3d3bff62	0.04589785
68	0xbd869b05	-0.065725364
69	0xbdb4cb65	-0.08827857
70	0x3dc84287	0.09778314
71	0x3dc70fef	0.09719836
72	0xbd530984	-0.051522747
73	0xbdd942dc	-0.106084555
74	0x3d751725	0.059836525
75	0xbc60276d	-0.013681275
76	0xbdc6b544	-0.097025424
77	0x3dc03bf9	0.09386439
78	0xbde335ed	-0.1109427
79	0xbbb02aa9	-0.0053761792
80	0x3d426c98	0.047466844
81	0xbddf9738	-0.109175146
82	0xbd8ff2a8	-0.07028705
83	0xbd96042d	-0.07325015
84	0x3dd1e8a3	0.1024945
85	0xbd343f5b	-0.044005733
86	0xbdaf83a6	-0.08570032
87	0xbd67d951	-0.056603733
88	0xbd47842e	-0.04871004
89	0x3d8ff9ca	0.07030065
90	0x3db7267c	0.08942887
91	0x3dd8256f	0.10554015
92	0xbde41e8f	-0.11138641
93	0x3c780da3	0.01513997
94	0xbd81e11e	-0.06341766
95	0xbdb6fed3	-0.089353226
96	0xbc93b50b	-0.018030664
97	0xbd9055e9	-0.07047636
98	0xbd922eaf	-0.071378104
99	0x3c2d9fc6	0.010597175
100	0x3d9a99ac	0.07548842
101	0x3db30695	0.0874149
102	0x3d8fe2a7	0.070256524
103	0xbcdfc704	-0.027316578
104	0x3d65df18	0.056120962
105	0x3da37a05	0.07982258
106	0x3cdd9938	0.0270506
107	0xbae13d9b	-0.0017184498
108	0xbc384d62	-0.011248918
109	0x3d9d2e59	0.07674856
110	0x3dc69637	0.0969662
111	0xbc142561	-0.009042115
112	0xbc95b092	-0.018272672
113	0xbddc376f	-0.107527606
114	0xbdb42750	-0.08796561
115	0x3c9cb183	0.019127613
116	0x3b7c45ed	0.0038493827
117	0xbddb6122	-0.10711886
118	0x3d955e9b	0.07293435
119	0xbdb78670	-0.08961189
120	0x3d736ec6	0.059431814
121	0xbc26920f	-0.010166659
122	0xbddd69b3	-0.10811176
123	0x3c94e553	0.018175757
124	0xbc204fac	-0.00978462
125	0xbde4bcec	-0.111688465
126	0x3dbfc675	0.093640245
127	0x3dd72143	0.10504391
128	0x3d3bb072	0.04582257
129	0x3c274188	0.010208495
130	0xbb1c2408	-0.0023825187
131	0x3d8b8b51	0.06813682
132	0xbd2a1873	-0.041527223
133	0x3d11e2ee	0.035616808
134	0x3ce57618	0.028010413
135	0x3dac4c8b	0.08413037
136	0xbdd8f031	-0.10592688
137	0xbdc819fd	-0.09770582
138	0x3daa47f8	0.08314508
139	0x3d1b6de3	0.037946593
140	0x3cb54f25	0.022132466
141	0x3c86150a	0.016367454
142	0xbd98b238	-0.074558675
143	0xbdcf5e6a	-0.1012543
144	0xbd940075	-0.0722665
145	0x3da5ce1c	0.08095953
146	0x3b36f620	0.0027917698
147	0x3cd08d0e	0.025457885
148	0xbd6f4208	-0.05841258
149	0xbde662f7	-0.11249345
150	0x3d8bb8cc	0.068223566
151	0x3dd802f4	0.10547438
152	0xba9d2774	-0.0011989907
153	0x3cf55b7b	0.029950848
154	0xbd6eb79f	-0.058280583
155	0xbc4540d6	-0.012039384
156	0x3dc009f8	0.093769014
157	0x3daf3fcd	0.08557091
158	0xbde5bcc4	-0.11217645
159	0xbd9e597b	-0.07731911
160	0xbdac4f11	-0.08413518
161	0xbd8e59de	-0.069507346
162	0x3c2af851	0.01043518
163	0xbdd535ea	-0.10410674
164	0xbdc47df0	-0.09594333
165	0x3d93d43b	0.07218214
166	0xbd4e7630	-0.05040568
167	0xbde24557	-0.11048382
168	0xbdd9c714	-0.10633674
169	0x3d687814	0.05675514
170	0x3a237a9e	0.0006236228
171	0xbdc85076	-0.09780972
172	0x3cfaf506	0.030634414
173	0x3db22696	0.08698766
174	0x3c951f87	0.01820351
175	0x3d2b2d1b	0.041791063
176	0x3c63a6b3	0.013894725
177	0x3d494b8e	0.04914432
178	0xbd4ce073	-0.05001874
179	0xbd8a7252	-0.06760086
180	0xbd486799	-0.048926923
181	0xbc2f1913	-0.0106871305
182	0xbc874e37	-0.016516788
183	0x3d58269a	0.05277119
184	0xbc659df0	-0.014014706
185	0xbda97f98	-0.0827629
186	0xbd508da2	-0.05091632
187	0xbddf339a	-0.10898514
188	0x3d9603da	0.073249534
189	0xbd7d5a91	-0.06185395
190	0xbd144855	-0.036201794
191	0x3dc6c6e0	0.09705901
192	0x3da41217	0.08011263
193	0xbdddd7a5	-0.108321466
194	0xbd3de73f	-0.04636311
195	0xbced735d	-0.028985674
196	0x3c92becc	0.017913245
197	0xbdcbe70e	-0.099561796
198	0x3d7eea62	0.062235244
199	0xbcd0e5e7	-0.025500251
200	0xbc8c1941	-0.017101886
201	0xbd2e6b28	-0.04258266
202	0xbd06db8e	-0.032924227
203	0x3d9dba6c	0.07701573
204	0x3d758709	0.059943233
205	0x3be98b93	0.0071272342
206	0xbd7f8ce8	-0.062390238
207	0xbd5d1430	-0.05397433
208	0xbddd1900	-0.10795784
209	0xbd2df07c	-0.042465672
210	0xbc851fb7	-0.016250474
211	0x3ade66f4	0.0016967938
212	0x3b9b6638	0.00474241
213	0xbd63e935	-0.055642325
214	0x3b98be2c	0.004661342
215	0x3d4c7513	0.04991634
216	0xbd6196b6	-0.05507537
217	0xbc460ec3	-0.01208848
218	0xbc7affe0	-0.015319794
219	0x3d929b1d	0.07158492
220	0x3da2b043	0.079437755
221	0x3cfa129f	0.030526457
222	0xbd6bffc6	-0.05761697
223	0xbd00c935	-0.031441886
224	0x3d092480	0.033482075
225	0xbc0fe5c8	-0.008782811
226	0x3d858e49	0.06521279
227	0x3dccba79	0.09996504
228	0xbdd81d1b	-0.105524264
229	0x3de5b09e	0.11215328
230	0xbd27f383	-0.041003715
231	0x3bfd6beb	0.007733812
232	0xbd6a7f0c	-0.057250068
233	0xbd41f6c6	-0.047354482
234	0x3d45fc1c	0.048336133
235	0xbd1e9295	-0.03871401
236	0xbbdcd451	-0.0067391773
237	0xbdaacdd7	-0.08340042
238	0xbda3ccd4	-0.07998052
239	0x3cb2ee28	0.021842077
240	0x3d784e9a	0.060621835
241	0xbcb9e34e	-0.022691395
242	0xbdbef85d	-0.09324715
243	0x3d63dd52	0.05563099
244	0x3dc76a9b	0.0973713
245	0x3d254518	0.040349096
246	0x3d04a1f5	0.032381017
247	0x3cb7ecb4	0.022451736
248	0x3cd44d82	0.025915865
249	0xbceb77ac	-0.028743587
250	0x3d79115a	0.060807563
251	0x3d4c3887	0.049858596
252	0xbd4933d2	-0.049121685
253	0xbd83c13c	-0.06433341
254	0x3d6c4e19	0.057691667
255	0xbcc59be2	-0.024122182

bias f4 [12]
0	0x3deaa141	0.11456538
1	0x3b5b658e	0.003347728
2	0xbd2f2505	-0.042759914
3	0x3cf37ff2	0.029724095
4	0x3d432746	0.047644876
5	0xbd7744f9	-0.06036851
6	0xbd8712e5	-0.06595401
7	0x3d79ec14	0.061016157
8	0x3db0965a	0.08622427
9	0x3de726ec	0.11286721
10	0xbd7bbce0	-0.061459422
11	0xbde00930	-0.109392524

weight f4 [12]
0	0x3f800013	1.0000023
1	0x3f800004	1.0000005
2	0x3f800012	1.0000021
3	0x3f80000d	1.0000015
4	0x3f800002	1.0000002
5	0x3f7ffd21	0.9999562
6	0x3f80000a	1.0000012
7	0x3f7fffde	0.999998
8	0x3f7ffc24	0.9999411
9	0x3f7ffea1	0.9999791
10	0x3f800021	1.0000039
11	0x3f7ffe8c	0.9999778

bias f4 [12]
0	0x378da356	1.6884569e-05
1	0x3773b6e0	1.4526508e-05
2	0x37be1e01	2.2663737e-05
3	0x369001cb	4.291743e-06
4	0xb83241fa	-4.2499953e-05
5	0xb88fbd75	-6.8540605e-05
6	0x37aa929f	2.0333855e-05
7	0xb754c96c	-1.2683082e-05
8	0xb7a83ec1	-2.0056383e-05
9	0x38877e66	6.460845e-05
10	0x380ade84	3.3108998e-05
11	0xb7d191c6	-2.4982623e-05

running_mean f4 [12]
0	0x3e562afb	0.20914833
1	0xbe263c20	-0.16233873
2	0xbeab67c5	-0.33477607
3	0x3dd818a4	0.10551575
4	0x3e227fe5	0.158691
5	0xbb253509	-0.0025208613
6	0x3d05dfa7	0.032683995
7	0xbd7d70f3	-0.061875295
8	0x3ed5d3e4	0.41763222
9	0x3eb2d4a5	0.3492786
10	0x3d35a615	0.04434784
11	0xbdede90b	-0.11616715

running_var f4 [12]
0	0x3c4c7230	0.012478396
1	0x3cf21c93	0.02955464
2	0x3d6f4428	0.05841461
3	0x3b9084fc	0.004410384
4	0x3c082bca	0.008311221
5	0x3b6b70cb	0.0035925384
6	0x3c450577	0.012025229
7	0x3c3ffef4	0.0117185
8	0x3d942668	0.07233888
9	0x3d19d5eb	0.037557524
10	0x3c164bee	0.0091733765
11	0x3b723eac	0.0036963625

weight f4 [12, 12, 5, 5]
0	0xbd6b7f0b	-0.057494204
1	0xbcae1955	-0.021252314
2	0x3d327680	0.04357004
3	0xbb513b08	-0.0031926055
4	0x3b0ca9f4	0.0021463605
5	0x3d3777d1	0.044792
6	0x3cb7e3df	0.022447525
7	0x3ce3d286	0.027810346
8	0x3d054541	0.03253675
9	0xbaabb9ab	-0.0013101598
10	0xbd2c311f	-0.042039033
11	0xbd44d35d	-0.048053134
12	0x3ce2db81	0.027692558
13	0x3b7656bc	0.0037588319
14	0xbd584c78	-0.0528073
15	0xbd3a1105	-0.045426387
16	0x3c3c528a	0.011494288
17	0x3ce0b95e	0.02743214
18	0xbcd9cbb6	-0.026586395
19	0xbd087d09	-0.033322368
20	0x3d15e9ab	0.036599796
21	0xbd6c7247	-0.05772617
22	0xbb75eac6	-0.003752397
23	0xbd5f40a0	-0.05450499
24	0x3c0e77e7	0.008695579
25	0xbd01530c	-0.03157334
26	0x3d49d8af	0.04927891
27	0xbb13ff69	-0.0022582656
28	0xbd12b0a1	-0.035812978
29	0x3d3f16d6	0.046652637
30	0x3a9068a0	0.0011017509
31	0x3d2d41cd	0.04229908
32	0xbd2818b7	-0.041039195
33	0xbd687163	-0.05674876
34	0x3c03802f	0.008026167
35	0xbc20371b	-0.009778763
36	0xba572366	-0.0008206874
37	0x3c670832	0.014101075
38	0x3b9048fc	0.0044032317
39	0xbceeafb2	-0.029136512
40	0x3d0a43af	0.033755954
41	0x3cb84527	0.022493912
42	0xba5f752e	-0.0008524236
43	0xbc8dbc6f	-0.017301766
44	0x3cbd096b	0.02307578
45	0x3c014d3a	0.007891947
46	0xbd29b27d	-0.041429985
47	0xbd017472	-0.03160519
48	0x3d35070c	0.044196174
49	0xbc05bef5	-0.0081632035
50	0x3bcf8cb4	0.006333912
51	0xbd4a314f	-0.04936343
52	0xbab8a092	-0.001408594
53	0xbd32eedf	-0.043684836
54	0x3cf13427	0.029443813
55	0xbcbd71ba	-0.023125518
56	0xbd64c559	-0.055852268
57	0x3d07e724	0.033179417
58	0x3d14f1de	0.036363475
59	0xbcde2e2b	-0.027121624
60	0xbba2e259	-0.0049708304
61	0xbd00a245	-0.031404752
62	0xbd275143	-0.04084898
63	0x3d119938	0.03554651
64	0x3d622e37	0.055219855
65	0xbd4b5134	-0.04963799
66	0xbd31e58d	-0.043431807
67	0xbd1af163	-0.03782786
68	0xbc869d24	-0.016432352
69	0x3d456c16	0.048198782
70	0xbd38bcf2	-0.045102067
71	0x3d6115de	0.054952495
72	0x3cd1ddc4	0.025618441
73	0x3d6b93ea	0.05751411
74	0xbd08cbf7	-0.03339764
75	0xbd5417a7	-0.05178037
76	0xbcc80ec2	-0.0244211
77	0x3d277d4b	0.040890973
78	0x3d2e447f	0.04254579
79	0xbcc24efc	-0.023719303
80	0xbcfe145e	-0.031015571
81	0x3d40d3a4	0.047076836
82	0xbb46416b	-0.0030251394
83	0x3d548a7c	0.05188988
84	0xbcbfccb4	-0.02341304
85	0x3d18f1d6	0.037340008
86	0x3bc90799	0.006134939
87	0x3b58901e	0.0033044885
88	0xbd0b8d78	-0.034070462
89	0x3cebf8f9	0.028805243
90	0x3d0bdce4	0.034146205
91	0xbd0d9cad	-0.034573246
92	0x3d27aeab	0.04093806
93	0xbcd1e08a	-0.025619764
94	0x3d006921	0.03135026
95	0xbd474a03	-0.048654567
96	0x3cb78283	0.0224011
97	0xbc2ffd2d	-0.010741514
98	0xbc24cedd	-0.010059086
99	0x3d5b66ae	0.05356472
100	0xbd3cb06b	-0.046066683
101	0xbd22a766	-0.039710425
102	0xbcba2832	-0.022724245
103	0xbc9f9fd9	-0.019485401
104	0x3cf2aadd	0.02962249
105	0xbd083f49	-0.03326348
106	0xbbea7109	-0.007154588
107	0xbcd49233	-0.02594862
108	0x3d44f852	0.04808838
109	0xbd3d4bdf	-0.046214934
110	0xbd5ab8aa	-0.053398766
111	0x3c809cc5	0.015699754
112	0x3cd3fa70	0.025876254
113	0x3d275d75	0.040860612
114	0xbd3087ec	-0.043098375
115	0xbb8b420e	-0.0042498177
116	0xbc79e7f5	-0.015253057
117	0xbcadc557	-0.021212263
118	0xbc0e4fb9	-0.008686
119	0xbbbd7219	-0.0057814238
120	0xbb907740	-0.004408747
121	0x3d1a2922	0.037636884
122	0xbd645ce0	-0.055752635
123	0x3ce5cd2a	0.028051931
124	0xbc9c951f	-0.019114075
125	0x3b9d783b	0.0048055924
126	0xbd3d7120	-0.046250463
127	0xbd0dfa83	-0.034662735
128	0xbd4a4ad7	-0.04938778
129	0xbbd47073	-0.0064831316
130	0xbb5d3cb3	-0.0033758103
131	0xbcbf7c77	-0.02337478
132	0xbd079752	-0.033103295
133	0xbd4318fb	-0.047631245
134	0x3ceec47d	0.029146427
135	0x3c9322a7	0.01796086
136	0x3d507302	0.05089093
137	0x3d2a10c0	0.04151988
138	0xbb477736	-0.0030436045
139	0x3c9593aa	0.018258888
140	0x3bf50883	0.0074778213
141	0x3caf1fda	0.021377493
142	0x3d1b3131	0.03788871
143	0x3b365658	0.002782246
144	0xbbe805bb	-0.0070807613
145	0xbcd24cd9	-0.02567141
146	0x3ce35c94	0.027754106
147	0xbd447fd9	-0.047973488
148	0xbb632a39	-0.0034662618
149	0xbb8af29e	-0.004240348
150	0x3d547bfe	0.05187606
151	0x3b614ede	0.0034379284
152	0xbd5d6334	-0.054049686
153	0xbb386987	-0.002813907
154	0xbd1a0470	-0.03760189
155	0x3d0204fa	0.031743027
156	0x3d5379e1	0.051629905
157	0x3d433046	0.04765346
158	0xbc6a1414	-0.014287014
159	0x3d2c7ac1	0.042109255
160	0x3d2ebad8	0.042658657
161	0xbc043aac	-0.008070629
162	0xbd48042c	-0.048832104
163	0x3c85898f	0.016300945
164	0x3cc251d8	0.023720667
165	0xbd1aac83	-0.037762176
166	0x3ce1c7da	0.027561117
167	0xbbe62c72	-0.0070243413
168	0xbb0078bd	-0.0019603216
169	0xbce5ad4e	-0.02803674
170	0xbbd2ab9e	-0.00642915
171	0xbd2f92d9	-0.042864654
172	0xbd411b6e	-0.0471453
173	0x3ca04f8e	0.019569185
174	0x3c00d6ce	0.007863713
175	0xbd11dbd1	-0.035610024
176	0x3bec0787	0.0072030458
177	0x3d055c2c	0.032558605
178	0xbd02c5fd	-0.031927098
179	0xbd006b7f	-0.031352516
180	0x3cc285f0	0.023745507
181	0x3c4a7e62	0.012359234
182	0x3a2245db	0.0006190219
183	0xbd3589df	-0.044320937
184	0xbb6200c1	-0.0034485313
185	0x3cc5bad6	0.024136942
186	0x3c76986b	0.015050988
187	0x3bf458be	0.007456868
188	0xbcdf5291	-0.02726105
189	0x3c93f2c3	0.018060094
190	0x3bb70096	0.0055847866
191	0x3c4fb40e	0.012677206
192	0x3d60f113	0.054917406
193	0x3c4003c9	0.011719652
194	0x3d4cb8bd	0.049980868
195	0xbd12bd9b	-0.035825353
196	0xbd038eef	-0.032118734
197	0xbb98338b	-0.0046448163
198	0x3d29f68e	0.0414949
199	0xbd50b354	-0.05095227
200	0xbb607067	-0.0034246685
201	0xbc5f5b4f	-0.0136326095
202	0x3d56a53e	0.05240368
203	0x3843553b	4.6571e-05
204	0xbc4624c4	-0.012093727
205	0xbca4ab67	-0.020101262
206	0xbd4e0a16	-0.050302587
207	0x3a466344	0.00075678923
208	0xbaf65d04	-0.0018796031
209	0xbd0dbf17	-0.034606066
210	0xbd29015f	-0.041261073
211	0x3d194e8f	0.037428435
212	0xbca68152	-0.020325337
213	0x3d59bc0c	0.05315785
214	0x3bed2acf	0.007237769
215	0xbc2a8b4e	-0.010409189
216	0x3d62f698	0.05541095
217	0x3d276ab9	0.040873263
218	0xbc7562d9	-0.01497718
219	0x3d69b231	0.057054702
220	0xbd12220b	-0.035676997
221	0xbcd39b7e	-0.02583098
222	0x3b4876fa	0.0030588494
223	0x3ca65dcd	0.0203084
224	0x3cd3ebcd	0.025869275
225	0x3cb23aca	0.021756548
226	0x3d19776c	0.037467405
227	0xbbfd880e	-0.0077371662
228	0x3d0d2819	0.03446207
229	0x3cdf3c30	0.02725038
230	0x3d2286fa	0.039679505
231	0xbc916bc7	-0.017751588
232	0xbccac094	-0.024750032
233	0xbd111bfb	-0.035427075
234	0x3d15de8a	0.036589183
235	0x3c159e08	0.009131916
236	0x3a43bdf0	0.00074669626
237	0xbd0fb722	-0.03508676
238	0x3d5912e0	0.052996516
239	0xbc5260b2	-0.012840437
240	0x3d5180ed	0.051148344
241	0x3c524276	0.012833228
242	0x3b77c21c	0.0037804907
243	0x3d2b6822	0.041847356
244	0x3c93e811	0.018054994
245	0xbd6bf4cf	-0.057606515
246	0xbcb2dd50	-0.021834046
247	0xbce23276	-0.027611952
248	0x3d02c0e7	0.031922247
249	0x3cb58c10	0.022161514
250	0x3c978590	0.018496305
251	0xbd5a5311	-0.053301875
252	0x3c1f8c22	0.009738
253	0xbc5bc39d	-0.013413337
254	0x3d62f588	0.055409938
255	0xbd312d8c	-0.043256328

bias f4 [12]
0	0xbccc0f9b	-0.024909785
1	0x3d46c00f	0.048523005
2	0xbd4a9808	-0.049461395
3	0x3d211cdd	0.039334167
4	0xbc72c323	-0.014817032
5	0x3c86019e	0.016358193
6	0x3c94e683	0.018176323
7	0x3d31a2b8	0.04336807
8	0x3d4ae6e7	0.049536612
9	0x3ca8dff2	0.020614598
10	0x3ce87210	0.028374702
11	0xbc985776	-0.018596392

weight f4 [12]
0	0x3f800005	1.0000006
1	0x3f800013	1.0000023
2	0x3f7ffc5e	0.99994457
3	0x3f800027	1.0000046
4	0x3f7ffc29	0.9999414
5	0x3f80001c	1.0000033
6	0x3f80000c	1.0000014
7	0x3f800011	1.000002
8	0x3f80000f	1.0000018
9	0x3f7ff991	0.99990183
10	0x3f80001b	1.0000032
11	0x3f7ffe72	0.9999763

bias f4 [12]
0	0x3883329f	6.255996e-05
1	0x38789b04	5.9272177e-05
2	0x3751ae82	1.24980015e-05
3	0x38b9dc81	8.8625595e-05
4	0xb8c146ff	-9.216181e-05
5	0x382e91a7	4.1620482e-05
6	0x38867d9a	6.413013e-05
7	0x3842a1ea	4.6404e-05
8	0x376d31fe	1.41379405e-05
9	0xb89607ca	-7.154008e-05
10	0x382ecac5	4.1673677e-05
11	0xb8833188	-6.255793e-05

running_mean f4 [12]
0	0xbd38bcc9	-0.045101915
1	0x3da4492e	0.080217704
2	0x3c5f55b8	0.013631277
3	0xbe9f8721	-0.31157783
4	0x3dcaf4c0	0.099099636
5	0x3f20e1ff	0.6284484
6	0xbc3c55d6	-0.011495074
7	0x3ec39dee	0.38206428
8	0xbd3b8e83	-0.045790207
9	0x3de260ad	0.11053596
10	0x3df99703	0.12187006
11	0x3e172589	0.14760412

running_var f4 [12]
0	0x3d331fa2	0.04373134
1	0x3e4fff28	0.20312178
2	0x3da6eadc	0.081502646
3	0x3dd153d8	0.1022107
4	0x3dac4bcf	0.08412897
5	0x3e9b9c64	0.30392754
6	0x3daf0f50	0.085478425
7	0x3e2245d9	0.15846957
8	0x3d718aa0	0.058970094
9	0x3e3cd001	0.18438722
10	0x3d827aa8	0.06371051
11	0x3e800603	0.25004587

weight f4 [24, 12, 5, 5]
0	0x3cf527d8	0.029926226
1	0x3d47cfd2	0.048782177
2	0xbbc76c98	-0.0060859434
3	0x3bea8927	0.007157463
4	0x3c38c61d	0.011277703
5	0x3ca035af	0.019556848
6	0x3c7f2391	0.015572445
7	0xbcb58478	-0.022157893
8	0xbd09cfd7	-0.033645477
9	0x3d4e16d2	0.050314732
10	0x3d599430	0.05311984
11	0x3cc1cff3	0.023658728
12	0x3c0c8c08	0.008578308
13	0xbc24049f	-0.010010867
14	0xbcc72a2c	-0.024312101
15	0xbccbe827	-0.024890972
16	0x3d3b8606	0.04578211
17	0x3d1cf71d	0.038321603
18	0xbbaa64a7	-0.005199987
19	0xbd100264	-0.03515853
20	0x3ca155ba	0.019694198
21	0x3c71cabb	0.014757807
22	0xbd5c3e69	-0.053770456
23	0xbd3f5793	-0.046714377
24	0xbd1622cf	-0.03665429
25	0x3d5dd9ef	0.054162916
26	0xbd2bc2a8	-0.041933686
27	0x3c7ecef6	0.015552273
28	0xbb927b07	-0.0044702324
29	0x3d154016	0.03643807
30	0x3d2612b5	0.040545184
31	0xbc0e258f	-0.008675947
32	0x3c9a98e0	0.018871725
33	0x3cd2a0b0	0.025711387
34	0x3d33d943	0.04390837
35	0x3d5f349b	0.054493528
36	0xbd3ada17	-0.045618143
37	0xbd405c21	-0.04696286
38	0xbd28f20b	-0.041246455
39	0x3b6c387b	0.0036044407
40	0xbc9df179	-0.019280182
41	0xbc7ef8f1	-0.015562282
42	0xbcef0c85	-0.029180774
43	0xbc337c11	-0.010954873
44	0xbd194a71	-0.03742451
45	0x3d375b2c	0.044764683
46	0xbce799c8	-0.02827157
47	0xbd5a7194	-0.053330973
48	0xbc5ab5c2	-0.0133489985
49	0x3d0462e7	0.032320883
50	0x3d1ddd73	0.03854127
51	0x3ae92226	0.0017786666
52	0x3beb6f49	0.007184897
53	0x3c91df74	0.017806746
54	0xbc988c92	-0.018621717
55	0xbd3eae6a	-0.046553053
56	0xbcebfed1	-0.02880803
57	0xbd27ed4f	-0.0409978
58	0xbcfbc743	-0.030734664
59	0xbd20df17	-0.039275255
60	0x3cdca761	0.026935281
61	0x3d2fb085	0.04289295
62	0xbd052b01	-0.032511715
63	0xbc31a03d	-0.010841426
64	0x3ca651db	0.020302704
65	0xbd3f1711	-0.046652857
66	0xbd44f654	-0.04808648
67	0xbd5edb42	-0.05440832
68	0xbd62165b	-0.0551971
69	0x3d255596	0.040364824
70	0x3ca599ad	0.02021488
71	0xbcdf626b	-0.027268609
72	0xbccc6acb	-0.024953267
73	0xbd2efba6	-0.04272046
74	0xbccd3ae9	-0.025052505
75	0xbd10edf8	-0.035383195
76	0x3cb28397	0.021791263
77	0x3cf6e383	0.030137783
78	0x3cab5a10	0.020916969
79	0x3d5ca0fa	0.053864457
80	0x3ce4cccf	0.027929692
81	0x3d1424bd	0.03616785
82	0xbd5c5920	-0.053795934
83	0xbccee21d	-0.025254304
84	0x3d59e747	0.05319908
85	0x3d561f0d	0.052275706
86	0x3d2cb74f	0.042167004
87	0xbd2ecf2f	-0.042678054
88	0x3ac50492	0.0015031269
89	0x3d6525ad	0.055944134
90	0xbcbfd9cd	-0.023419285
91	0x3cbbd46b	0.022928437
92	0xbcccf899	-0.025020884
93	0xbd31b41c	-0.043384656
94	0x3d295a73	0.041346025
95	0xbd1c4c61	-0.038158778
96	0x3c59de11	0.013297574
97	0xbcc6ae7a	-0.024253119
98	0x3ce795d3	0.028269684
99	0xbcc362aa	-0.023850758
100	0xbac1e358	-0.0014792485
101	0xbc2601c2	-0.010132255
102	0x3d69e41a	0.0571023
103	0xbcacd9e0	-0.021099985
104	0x3cdf0c0d	0.027227426
105	0xbd211e92	-0.039335795
106	0x3cb6d853	0.022319948
107	0x3d1b1824	0.03786482
108	0x3d58e07c	0.05294846
109	0x3a84e861	0.0010140055
110	0x3c975fe9	0.01847835
111	0x3a9977a8	0.0011708634
112	0xbd4660f5	-0.04843231
113	0xbd15276a	-0.03641454
114	0xbcef4ba6	-0.029210877
115	0xbca2a6c2	-0.019854907
116	0xbd0068e3	-0.031350028
117	0x3c60fda8	0.013732351
118	0x3b7eec5f	0.0038898212
119	0x3c729d1f	0.014807968
120	0x3c4dd04f	0.012561872
121	0xbcab8a3b	-0.020939937
122	0xbaaeba14	-0.0013330602
123	0xbd0cf720	-0.034415364
124	0x3ca2dd56	0.019880932
125	0x3cb84bfd	0.022497172
126	0xbce7cdc5	-0.02829636
127	0xbd36233a	-0.04446719
128	0x3d0e4b01	0.034739498
129	0xbcaed355	-0.021341005
130	0x3c11c87a	0.008897895
131	0x3d2c3f93	0.042052817
132	0xbd1abdc0	-0.037778616
133	0x3c669806	0.014074331
134	0x3d11e6ae	0.035620384
135	0x3c7a0f95	0.015262504
136	0x3cf4f113	0.02990011
137	0xbaa90de4	-0.0012897816
138	0xbc8e5f22	-0.017379347
139	0xbd4ce6f5	-0.050024945
140	0xbcb28370	-0.02179119
141	0xbd544a72	-0.05182881
142	0xbd442b31	-0.047892753
143	0x3c9ab614	0.01888565
144	0x3d311920	0.04323685
145	0xbd3d0e8d	-0.046156455
146	0xbd3116db	-0.043234687
147	0xbc9ff446	-0.019525658
148	0x3c8c0f0d	0.01709702
149	0xbc88fcde	-0.016722139
150	0x3d59bb26	0.053156994
151	0xbd367458	-0.044544548
152	0x3c59fbe3	0.013304683
153	0xbd39fdcb	-0.04540805
154	0x3d21e82c	0.039528057
155	0xbc7b9e58	-0.015357576
156	0x3b60061a	0.0034183324
157	0x3ca2676f	0.019824712
158	0x3c1552ff	0.009114026
159	0x3d0d609f	0.034515973
160	0xbd1b98f1	-0.037987653
161	0xbc1cf516	-0.009579917
162	0xbd08d09a	-0.033402063
163	0x3b41886c	0.0029530777
164	0x3b1beaeb	0.0023791145
165	0xbc6fa34a	-0.0146263335
166	0x383be59d	4.479812e-05
167	0x3c71ff3b	0.014770324
168	0xba9ed920	-0.0012119152
169	0xbd6aa3b2	-0.05728502
170	0xbca7af64	-0.020469375
171	0x3cdcbcc4	0.02694548
172	0xbcf969f6	-0.030446034
173	0x3befe3cb	0.007320856
174	0x3cda5f75	0.026656846
175	0x3d5017b7	0.050803866
176	0xbca9c2de	-0.020722803
177	0xbcce7661	-0.025202932
178	0xbce7c05a	-0.028289963
179	0xbd58b721	-0.05290902
180	0xbd0eef07	-0.034895923
181	0xbcafeb90	-0.02147463
182	0xbd618261	-0.05505598
183	0x3d302ee9	0.043013487
184	0x3b3a6fae	0.0028447914
185	0xbab39557	-0.0013701123
186	0xbbd31397	-0.0064415443
187	0x3d3b0ffe	0.04566955
188	0xbce479cf	-0.027890114
189	0xbc7d174e	-0.015447451
190	0x3be553d5	0.006998519
191	0x3c876e9e	0.016532239
192	0xba8c52ff	-0.0010705887
193	0xbd43bd21	-0.04778779
194	0x3cda1fbf	0.026626466
195	0xbd536da9	-0.051618252
196	0x3d36b060	0.044601798
197	0xbd250797	-0.04029044
198	0x3ce9c47f	0.02853608
199	0x3d3bf174	0.045884565
200	0xbc3bfd2e	-0.011473937
201	0xbd1b5678	-0.03792426
202	0x3d65faa1	0.05614722
203	0x3c7ae3ed	0.015313131
204	0x3cbf4f38	0.023353204
205	0x3d32c53f	0.04364514
206	0x3d12aa5e	0.035807006
207	0xb90ad9d7	-0.00013241857
208	0x3c1e0224	0.009644065
209	0x3c6c447f	0.014420628
210	0x3c9155e0	0.017741144
211	0xbd5a8fc5	-0.053359766
212	0x3d2d0612	0.042242117
213	0x3d28b5a0	0.041188836
214	0xbd4ca2f9	-0.04996011
215	0x3d5d3c21	0.05401242
216	0xbba33a08	-0.004981283
217	0x3ca62a20	0.020283759
218	0x3ccede19	0.025252389
219	0x3a8604d1	0.0010224824
220	0xbca6fe1d	-0.020384843
221	0xbc2217a9	-0.009893336
222	0xbc764342	-0.015030684
223	0xbc299c1e	-0.010352163
224	0x3d1e5fdd	0.03866564
225	0x3c298899	0.010347509
226	0x3d68d5d9	0.056844566
227	0xbd46dd12	-0.048550673
228	0x3d38b818	0.04509744
229	0x3d327fa8	0.043578774
230	0x3cb79ce9	0.022413688
231	0x3a61c136	0.00086118595
232	0xbd1858dc	-0.037194118
233	0xbc8aa17e	-0.016922709
234	0x3d55d827	0.052208092
235	0xbb33c103	-0.0027428276
236	0x3d10ab89	0.03531984
237	0xbcb78627	-0.022402836
238	0xbceebb8f	-0.02914217
239	0x3d67e62b	0.05661599
240	0xbbf86190	-0.0075799897
241	0x3d4a41c0	0.04937911
242	0x3ccc46d1	0.024936112
243	0xbd230486	-0.039799236
244	0xbc8e23cd	-0.017351056
245	0xbc311299	-0.010807657
246	0xbc840049	-0.016113417
247	0x3d2c1158	0.042008728
248	0x3d1bcb62	0.038035758
249	0xbd39b81c	-0.045341596
250	0x3ca0473e	0.01956522
251	0x3cb59288	0.022164598
252	0xbceecc7d	-0.029150242
253	0xbce3936f	-0.027780263
254	0xbc13bdc0	-0.009017408
255	0xbd09df4f	-0.03366023

bias f4 [24]
0	0x3d2da832	0.04239673
1	0xbcd1e4b1	-0.025621744
2	0x3d58da7e	0.052942745
3	0x3c184e74	0.009296048
4	0x3d6980bb	0.057007533
5	0xbc87e2fc	-0.016587727
6	0x3cbb9ba9	0.022901373
7	0x3c363d40	0.011123002
8	0xbd2b0459	-0.041752193
9	0xbb1d5592	-0.0024007303
10	0xbd6ab856	-0.057304703
11	0x3ca2fd43	0.019896155
12	0xbc7a68e0	-0.015283793
13	0x3d5a346a	0.053272642
14	0x3cf0b52c	0.029383264
15	0xbad160bc	-0.0015974264
16	0x3b0d161c	0.002152807
17	0xbc93a13c	-0.018021218
18	0x3caf683d	0.02141201
19	0xbce530e7	-0.02797742
20	0x3cc878e2	0.024471704
21	0x3ca802e4	0.02050919
22	0x3d394053	0.04522736
23	0xbd4ed11b	-0.050492387

weight f4 [24]
0	0x3f7ffe0e	0.9999703
1	0x3f7ff9c6	0.999905
2	0x3f800044	1.0000081
3	0x3f800005	1.0000006
4	0x3f7ffdba	0.9999653
5	0x3f800003	1.0000004
6	0x3f7ffd61	0.99996
7	0x3f7ffd84	0.9999621
8	0x3f80001c	1.0000033
9	0x3f800016	1.0000026
10	0x3f80000c	1.0000014
11	0x3f800016	1.0000026
12	0x3f80000c	1.0000014
13	0x3f80000d	1.0000015
14	0x3f7ffd02	0.99995434
15	0x3f7ffdf0	0.9999685
16	0x3f7ffebf	0.99998087
17	0x3f800017	1.0000027
18	0x3f7ffe45	0.9999736
19	0x3f7ffff7	0.99999946
20	0x3f800012	1.0000021
21	0x3f7ffcb4	0.9999497
22	0x3f800005	1.0000006
23	0x3f7ffe24	0.9999716

bias f4 [24]
0	0x38496487	4.8015758e-05
1	0xb8aaa495	-8.1368875e-05
2	0x38ba6165	8.887312e-05
3	0x3659fa67	3.2481273e-06
4	0xb8b90386	-8.822144e-05
5	0x384ede9b	4.9321545e-05
6	0xb752ee18	-1.2572411e-05
7	0xb7cef24e	-2.4669946e-05
8	0x385af72b	5.2205443e-05
9	0x38354936	4.3221946e-05
10	0x38b63fff	8.6903565e-05
11	0x382c6c60	4.1108928e-05
12	0x3809a0b3	3.2813008e-05
13	0x37afa328	2.0937601e-05
14	0x36cea791	6.1587857e-06
15	0xb8679d98	-5.5221462e-05
16	0x376e6041	1.4208316e-05
17	0x38787870	5.9239974e-05
18	0xb85d5f8a	-5.2779484e-05
19	0xb6fc7258	-7.5234966e-06
20	0xb7099688	-8.200885e-06
21	0xb88241cb	-6.211138e-05
22	0x36e4774e	6.8088184e-06
23	0xb817b7c7	-3.617236e-05

running_mean f4 [24]
0	0xbdb26afd	-0.08711813
1	0x3e8527e0	0.26006985
2	0x3e22b18c	0.15888041
3	0x3cb567d9	0.022144245
4	0xbda292cf	-0.07938158
5	0xbe18e578	-0.14931285
6	0x3eb03f2b	0.34423193
7	0x3d8b4f34	0.06802216
8	0xbe6b3e1e	-0.22972915
9	0x3e0bee84	0.13665205
10	0xbe22b6fa	-0.15890113
11	0xbed33694	-0.41252577
12	0xbf0631d1	-0.52419764
13	0x3dbd80c3	0.09253075
14	0xbd9f4821	-0.07777429
15	0x3f0b55d7	0.54427856
16	0xbeae1804	-0.34002697
17	0x3bd9f579	0.006651577
18	0xbeb71dae	-0.3576483
19	0xbe87beb8	-0.26512694
20	0x3d7197b6	0.058982573
21	0x3e824ded	0.25450078
22	0x3ecec36c	0.4038347
23	0xbe2bd9bd	-0.1678228

running_var f4 [24]
0	0x3e442bcd	0.19157334
1	0x3e18e0e5	0.1492954
2	0x3e1282b0	0.14307666
3	0x3df64cf2	0.12026395
4	0x3eaa42fc	0.3325423
5	0x3e63d660	0.22249746
6	0x3e2dcb19	0.16972007
7	0x3e598324	0.21241432
8	0x3e14c090	0.14526582
9	0x3e5fa61d	0.21840711
10	0x3e0997fd	0.13436885
11	0x3df694dd	0.12040112
12	0x3e212e91	0.1574042
13	0x3e09c1d5	0.13452847
14	0x3e4dd72f	0.20101617
15	0x3e352a73	0.17691974
16	0x3e22e3f3	0.15907268
17	0x3e779ddf	0.24181317
18	0x3e24ef4a	0.16106907
19	0x3e08a8e5	0.13345678
20	0x3e078c5f	0.13237141
21	0x3e151421	0.1455846
22	0x3e24bd57	0.16087852
23	0x3e6970cc	0.22796935

weight f4 [24, 24, 5, 5]
0	0x3cad407c	0.021148913
1	0x3d058ded	0.032606054
2	0x3c8fa991	0.01753691
3	0x3b14233c	0.002260401
4	0xba98e5ef	-0.0011665205
5	0xbcfbb42b	-0.03072556
6	0x3d0a1a7a	0.033716656
7	0xbd1030b7	-0.035202708
8	0xbcbe5cd5	-0.023237625
9	0xbd02f901	-0.03197575
10	0xbcf848a8	-0.030308083
11	0xbcb6e363	-0.022325223
12	0xbc43a448	-0.011941023
13	0x3c32cc60	0.010912985
14	0x3be01431	0.0068383445
15	0xbcd87de9	-0.026427226
16	0xbcf10215	-0.029419938
17	0x3d0e8f6c	0.034804747
18	0x3c1b7a65	0.00948963
19	0x3cf70d92	0.030157838
20	0x3c4f9394	0.012669463
21	0x3cb8f687	0.02257849
22	0x3d016ebb	0.03159974
23	0xbc4238fb	-0.0118544055
24	0x3c98b357	0.018640203
25	0x3bb32ca2	0.005467967
26	0x3d251190	0.040299952
27	0xbcc38c06	-0.02387048
28	0xbc258c27	-0.010104216
29	0x3c90e58e	0.017687585
30	0xbc9845df	-0.018588005
31	0xbc563cf8	-0.0130760595
32	0x3ca18fb5	0.019721845
33	0x3c95dbe4	0.018293329
34	0x3d1ff7c8	0.039054662
35	0x3b2e7886	0.002662213
36	0xbcf169a5	-0.02946932
37	0x3c8adef4	0.016952015
38	0x3cbb9791	0.022899421
39	0xbc88178c	-0.01661279
40	0xbcee1319	-0.02906184
41	0xbcf8bb32	-0.0303627
42	0xbbbaade6	-0.005697
43	0x3b30a670	0.0026954673
44	0xbc587350	-0.013211086
45	0xbc889cc0	-0.016676307
46	0xbd1f1135	-0.03883477
47	0x3c159aac	0.009131115
48	0xbb8a5f16	-0.004222761
49	0xbc5bbbb5	-0.013411452
50	0xbc67eebd	-0.014156041
51	0xbc9c4994	-0.019078054
52	0x3bc3ed74	0.0059792344
53	0x3cabde85	0.020980129
54	0x3cd15a90	0.025555879
55	0x3beb1baa	0.0071749287
56	0xbcf92b88	-0.030416265
57	0x3b1f6e87	0.0024327354
58	0x3ca4af99	0.020103263
59	0xb9b779fc	-0.00034995365
60	0xbc2297ec	-0.009923916
61	0xbbbe0783	-0.0057992353
62	0x3c8d9711	0.017283948
63	0x3c71dcaa	0.014762083
64	0xbd13797e	-0.036004536
65	0xbb286a70	-0.0025698207
66	0x3c281fc3	0.010261479
67	0x3d1067c0	0.035255194
68	0x3d1422bd	0.03616594
69	0xbc0b70c1	-0.008510769
70	0xbd25f7dc	-0.04051958
71	0x3d0a9b84	0.033839718
72	0x3d0fa1ce	0.03506642
73	0x3bf86d18	0.0075813644
74	0x3bc762e5	0.006084787
75	0xbc863ec1	-0.016387345
76	0xbd18c792	-0.0372997
77	0x3d1b0a50	0.03785163
78	0xbd0acff6	-0.033889733
79	0xbcc60136	-0.0241705
80	0x3d191aad	0.037378956
81	0xbcaf1cbc	-0.021376006
82	0x3d0ff266	0.03514328
83	0xbd1c0f52	-0.038100548
84	0xbb7ea403	-0.0038855083
85	0x3c6760a0	0.014122158
86	0xbce2cb46	-0.027684819
87	0x3c7cc23e	0.01542717
88	0x3cef6707	0.029223932
89	0x3cd6f93d	0.026241893
90	0x3c79f78c	0.015256774
91	0x3ba10b30	0.0049146637
92	0xba8da02b	-0.001080518
93	0xbb14243b	-0.0022604603
94	0xbd130e1d	-0.03590213
95	0xbcfc1eed	-0.030776465
96	0x3ceef596	0.029169839
97	0x3d056b14	0.03257282
98	0x3d0ca97d	0.034341324
99	0x3c2fd2bf	0.010731398
100	0xbcdabbd1	-0.026700886
101	0x3d180be2	0.037120707
102	0x3a11e530	0.00055654626
103	0x3d0209bc	0.031747565
104	0xbd1abe60	-0.037779212
105	0x3c39eeeb	0.011348466
106	0xbc0f1cc5	-0.008734887
107	0xbbf12d63	-0.007360147
108	0x3c5bebad	0.013422889
109	0xbd20e485	-0.039280433
110	0xbb1c14b5	-0.0023816053
111	0xbceec653	-0.029147303
112	0x3c94f948	0.018185273
113	0x3d06ab1e	0.032878034
114	0xbcb113e1	-0.021615924
115	0x3afa94e2	0.0019117857
116	0x3c1e5030	0.009662673
117	0xbc1dc195	-0.009628673
118	0x3ca5de21	0.02024752
119	0x3cb398fd	0.021923536
120	0xbd020502	-0.031743057
121	0xbd1f9381	-0.03895903
122	0xbc0567d5	-0.008142431
123	0x3b706d52	0.0036686254
124	0xbc7d936b	-0.015477042
125	0xbb6667c4	-0.0035157064
126	0xbcffa200	-0.031205177
127	0x3cd3dc9f	0.025862036
128	0x3d0aac43	0.033855688
129	0xbcbbf70b	-0.022944948
130	0x3d0a2378	0.033725232
131	0x3cb1ec55	0.021719137
132	0x3cd29a5a	0.025708366
133	0x3cf4fa8f	0.029904632
134	0x3b037e07	0.0020064132
135	0x3d179bc4	0.037013784
136	0x3c3b30bc	0.011425193
137	0xbd24b192	-0.040208407
138	0xbb2b08b0	-0.0026097707
139	0xbb51d58a	-0.0032018148
140	0x3d0ab8db	0.0338677
141	0xbce5a3a8	-0.028032139
142	0x3d1b2d3b	0.037884932
143	0x3d0e29a6	0.034707688
144	0x3d1e7541	0.03868604
145	0xbbcf6874	-0.0063295905
146	0x3d201b2c	0.039088413
147	0xbd0f9656	-0.03505548
148	0x3b7be64e	0.0038436833
149	0x3d190f5f	0.037368175
150	0xbd129d0e	-0.03579431
151	0x3bf8adf8	0.007589098
152	0x3d24938c	0.040179774
153	0xbb8aaf20	-0.0042323023
154	0xbb99b07e	-0.004690229
155	0xbd0f5e77	-0.035002198
156	0x3d03ec37	0.032207694
157	0xbcce4167	-0.02517767
158	0xbbbf2a8a	-0.0058339285
159	0x3c284476	0.010270229
160	0xbbc6f29e	-0.0060714027
161	0x3d1f7572	0.038930364
162	0x3ca5b7b1	0.020229192
163	0xbad45da3	-0.0016202222
164	0xbd207180	-0.039170742
165	0x3c38c3e4	0.011277173
166	0x3c55e232	0.013054417
167	0xbd0178d6	-0.03160938
168	0x3b83a58d	0.004017538
169	0x3cd86fd0	0.026420504
170	0x3cf0cbf0	0.02939412
171	0x3c52597f	0.01283872
172	0x3cf3218b	0.02967908
173	0xba432e5b	-0.0007445567
174	0x3b883819	0.004157078
175	0xbcc6672d	-0.02421912
176	0x3d0a8cbe	0.03382563
177	0x3d20176b	0.039084833
178	0x3d1aa223	0.037752282
179	0x3ca64497	0.020296378
180	0xbd141cf6	-0.03616043
181	0x3d23cfc4	0.039993063
182	0xbbf8775e	-0.007582589
183	0x3c47fb36	0.012205889
184	0xbcd7b4ef	-0.026331393
185	0x3cde9b0b	0.02717354
186	0x3d18c74a	0.03729943
187	0x3d13b16c	0.036057875
188	0xbd13a68e	-0.03604751
189	0xbcfde4ff	-0.030992983
190	0xbce0d8fc	-0.027447216
191	0x3cd807e1	0.026370944
192	0xbca9935f	-0.020700155
193	0x3d220fc3	0.039565813
194	0x3bd25fa7	0.006420094
195	0x3c4498c1	0.01199931
196	0x3ce3d13d	0.027809734
197	0xbceab67f	-0.028651474
198	0x3cbe06ca	0.023196597
199	0xbd232c73	-0.039837312
200	0xbc17dc84	-0.009268884
201	0xbd0d4ac1	-0.03449512
202	0x3c99d68d	0.018779064
203	0x3cba3e77	0.022734864
204	0x3d00a42f	0.031406578
205	0xba32ea9f	-0.00068251224
206	0xbb5a8fa8	-0.0033349786
207	0x3c95e7ff	0.0182991
208	0x3ccb411b	0.024811318
209	0x3d1c241e	0.03812038
210	0x3cff2bca	0.03114881
211	0x3c10f979	0.008848541
212	0xbcaa64b9	-0.020799981
213	0xbd05b9f5	-0.032648046
214	0xbd1568c1	-0.036476854
215	0xbcce46c7	-0.025180234
216	0xbc34e7c3	-0.011041584
217	0x3c34846d	0.011017901
218	0x3cc504ab	0.024050077
219	0x3cd1afa4	0.025596447
220	0x3b40b903	0.002940715
221	0xbc895cc0	-0.01676786
222	0x3b4e4727	0.0031475516
223	0x3cc9ca70	0.024632663
224	0x3cf22219	0.029557275
225	0x3c0970cc	0.008388709
226	0xbcb2b8ca	-0.02181663
227	0x3d23b44f	0.039966878
228	0x3be2c5cb	0.0069205514
229	0xbcadc272	-0.021210883
230	0x3b3c7d3f	0.0028761176
231	0xbbf43dcc	-0.007453656
232	0xbc53007e	-0.012878535
233	0x3c07c3a2	0.008286389
234	0x3c9835db	0.018580368
235	0xbd1d115f	-0.038346644
236	0x3d0dc89c	0.034615144
237	0x3d0f2eb6	0.034956656
238	0x3c0af3c8	0.008480974
239	0xbccca2e9	-0.024980025
240	0xbc6d74a1	-0.0144931385
241	0x3d15147a	0.03639648
242	0xbd07e67f	-0.033178803
243	0x3c824a36	0.015904527
244	0x3c45b3e0	0.012066811
245	0x3cf47d96	0.02984504
246	0xbaa9b5ca	-0.0012947854
247	0x3d21a719	0.039465997
248	0x3b467962	0.0030284752
249	0xbb2fb648	-0.002681153
250	0xbc98b072	-0.018638823
251	0xbcdca0ed	-0.026932204
252	0xbd13068b	-0.03589491
253	0x3d19bee8	0.037535578
254	0x3cf47867	0.029842569
255	0xbcc15886	-0.023601782

bias f4 [24]
0	0xbca0260f	-0.019549398
1	0x3ca8b472	0.020593856
2	0xbcaf284d	-0.021381522
3	0x3c8440fb	0.016144266
4	0xbacc3c09	-0.0015581857
5	0x3c9b49a6	0.018956017
6	0xbd090011	-0.03344733
7	0x3bf377e2	0.0074300626
8	0xbd1e4065	-0.03863563
9	0xbcdbd7f0	-0.026836365
10	0xbcc60fde	-0.024177488
11	0x3d271030	0.040786922
12	0x3c44a448	0.012002058
13	0xbac524cc	-0.0015040874
14	0xbd09cfd4	-0.033645466
15	0xbd119369	-0.035540972
16	0x3cda6bf7	0.02666281
17	0xbd0cc1c9	-0.034364495
18	0xbbf3cfbc	-0.0074405354
19	0xbb8a8905	-0.00422776
20	0xbcc108b4	-0.02356372
21	0xbc37cff2	-0.011219012
22	0x3bc8c637	0.0061271447
23	0x3d26c543	0.040715467

weight f4 [24]
0	0x3f80002d	1.0000054
1	0x3f7ffaff	0.99992365
2	0x3f800029	1.0000049
3	0x3f800004	1.0000005
4	0x3f800000	1.0
5	0x3f800003	1.0000004
6	0x3f800006	1.0000007
7	0x3f800017	1.0000027
8	0x3f7fffff	0.99999994
9	0x3f80000d	1.0000015
10	0x3f800050	1.0000095
11	0x3f800019	1.000003
12	0x3f7ffd5f	0.9999599
13	0x3f80001a	1.0000031
14	0x3f800000	1.0
15	0x3f80000c	1.0000014
16	0x3f7fffff	0.99999994
17	0x3f800000	1.0
18	0x3f800000	1.0
19	0x3f7ff961	0.99989897
20	0x3f800010	1.0000019
21	0x3f7fffae	0.9999951
22	0x3f800000	1.0
23	0x3f7ffffe	0.9999999

bias f4 [24]
0	0x38b37516	8.557194e-05
1	0xb8d25efd	-0.00010031273
2	0x38ed96de	0.00011329142
3	0x3810dd4a	3.4538367e-05
4	0x37ad41b9	2.0653812e-05
5	0x38850bb6	6.3441155e-05
6	0x384898b3	4.7825928e-05
7	0x37c399e7	2.3317478e-05
8	0x37ff1c4f	3.0411551e-05
9	0x37fdf27f	3.0272871e-05
10	0x388fac93	6.850916e-05
11	0x388bb030	6.660854e-05
12	0xb869d262	-5.5747463e-05
13	0x384a0b91	4.8171325e-05
14	0x38201f10	3.8175902e-05
15	0x360cc2a1	2.0974915e-06
16	0x3811680d	3.46676e-05
17	0x38377827	4.37425e-05
18	0x382ead95	4.1646494e-05
19	0xb8e89583	-0.00011090471
20	0x386bb079	5.619272e-05
21	0x37e74972	2.7571547e-05
22	0x387c4ae2	6.0151222e-05
23	0x383af2cf	4.457199e-05

running_mean f4 [24]
0	0x3e6aba39	0.22922601
1	0x3e21ad21	0.157887
2	0xbeeb043c	-0.45901668
3	0x3f12475a	0.57140124
4	0xbe11f7e3	-0.14254718
5	0x3dd33dfe	0.103145584
6	0xbe232167	-0.1593071
7	0x3ea89bca	0.32931358
8	0xbe2bfb8a	-0.16795173
9	0x3e933ce2	0.28757387
10	0x3e8041d1	0.25050214
11	0xbddf27a5	-0.108962335
12	0xbccc67d6	-0.024951857
13	0x3db9112f	0.09036481
14	0xbe669c99	-0.22520675
15	0xbe98f770	-0.2987628
16	0x3e260889	0.16214193
17	0x3e81b1df	0.25331017
18	0x3e39916a	0.18121877
19	0x3e9ab838	0.30218673
20	0x3dc5670e	0.09638797
21	0x3dfe1864	0.12406996
22	0xbd74a4da	-0.059727527
23	0x3d13d820	0.036094785

running_var f4 [24]
0	0x3e203e7c	0.15648836
1	0x3dad9de7	0.08477383
2	0x3dfabb02	0.122427
3	0x3e27852a	0.16359392
4	0x3e0c9f0f	0.13732551
5	0x3dc8dd08	0.09807783
6	0x3dbde42e	0.092720374
7	0x3dda4c48	0.10659081
8	0x3dd0d0f1	0.101961024
9	0x3df48b13	0.11940589
10	0x3e0eef54	0.13958484
11	0x3de3d97e	0.11125468
12	0x3dc2ccfe	0.095117554
13	0x3e04281c	0.12905926
14	0x3e32f40e	0.17475912
15	0x3dd21c56	0.10259311
16	0x3e0c0fe5	0.13677938
17	0x3dad281d	0.084549166
18	0x3db52538	0.088449895
19	0x3e25f486	0.1620656
20	0x3df76283	0.120793365
21	0x3e0a2abf	0.13492869
22	0x3dfadc2b	0.12249025
23	0x3daec0bb	0.08532854

weight f4 [10, 16224]
0	0x3a52bda5	0.00080391235
1	0xbbd9f36c	-0.0066513326
2	0x39d1e514	0.00040034263
3	0xba98110d	-0.0011601761
4	0xbaee4745	-0.0018179199
5	0xbbebdd5a	-0.007198018
6	0x3aaa523b	0.0012994477
7	0xbbb2146c	-0.0054345634
8	0x3b70d471	0.0036747719
9	0x3bdf2184	0.0068094153
10	0xba8b3cbd	-0.001062296
11	0xb9c810c7	-0.00038159473
12	0x3a3bfef5	0.00071714754
13	0x3bc5f855	0.0060415664
14	0x3b21b892	0.0024676663
15	0x3a2a5e9a	0.0006499082
16	0xba387930	-0.00070371013
17	0x3be99afa	0.0071290703
18	0xbbdc6b8d	-0.0067266882
19	0x3ad8bf5f	0.0016536525
20	0x3b49f2c6	0.003081487
21	0xb91ae563	-0.00014772038
22	0x3a6e4b65	0.0009090214
23	0xbb925128	-0.004465241
24	0xbbd23672	-0.006415182
25	0x3aaf93cc	0.0013395487
26	0xbb897e8d	-0.004195994
27	0xbbf48223	-0.0074618026
28	0xbb8ef869	-0.004363109
29	0xbb923a3f	-0.00446251
30	0x3bc745a3	0.0060812994
31	0x3a7e0a97	0.0009690909
32	0x3ba42c7c	0.0050101858
33	0x3b8054c3	0.0039163544
34	0x3b7a3e8a	0.003818425
35	0x3ab1d6ee	0.0013568082
36	0x3b8b2ccb	0.004247283
37	0xbbdcc4a4	-0.0067373086
38	0xbabc7c1c	-0.0014380249
39	0xbb518b75	-0.0031973992
40	0xbb942819	-0.0045213816
41	0xb81f6313	-3.8000824e-05
42	0xbb47f7e9	-0.0030512756
43	0xbbce115f	-0.006288692
44	0x3be61b66	0.007022309
45	0xba94e957	-0.0011361045
46	0xbbc0b37f	-0.0058807726
47	0xbb72f7b7	-0.003707392
48	0x3b5ecbc5	0.0033995968
49	0xbbccf7c7	-0.0062551233
50	0x3bce9fc5	0.006305667
51	0xbb15a864	-0.0022835964
52	0x39e57aa5	0.0004376966
53	0xbba83c1c	-0.0051341187
54	0x3b3f028c	0.0029145805
55	0x3ba3c93e	0.004998355
56	0xbbdfb2ad	-0.0068267197
57	0xbbb7f0b7	-0.0056134122
58	0xba8ba0d0	-0.0010652784
59	0xbbc8d17a	-0.006128487
60	0x3bab9322	0.0052360455
61	0x3ad5699d	0.0016282086
62	0x3b9e5197	0.0048315036
63	0xb9cc76ac	-0.0003899833
64	0x395622a1	0.0002042153
65	0xbb27060f	-0.002548579
66	0xb9424f87	-0.00018530908
67	0xbb21e696	-0.002470409
68	0x3bd184f4	0.006394023
69	0x3b084bd2	0.0020797146
70	0xbbbde82d	-0.0057955
71	0x3b530f87	0.00322053
72	0x3b17b4b5	0.0023148481
73	0x3bb09715	0.005389104
74	0x39b4ac83	0.00034460807
75	0xbb860f01	-0.004091144
76	0x3bc4ccea	0.006005873
77	0x3b2d8ab2	0.0026480374
78	0x3b9233ac	0.004461726
79	0xbb99c37c	-0.004692493
80	0xba085035	-0.000519994
81	0x39110933	0.00013831705
82	0x3bdfaa5d	0.006825729
83	0x3a9f0e06	0.0012134917
84	0xbb807b0f	-0.0039209197
85	0xbb13781f	-0.0022502018
86	0xbb80cc7d	-0.003930627
87	0x3b2d6b78	0.0026461761
88	0xbb9449f6	-0.0045254184
89	0x3bb601e0	0.0055544227
90	0xbb54bcf6	-0.0032461262
91	0xbb8043c2	-0.0039143274
92	0x3a6496c8	0.0008719978
93	0xbaf5dabe	-0.0018757207
94	0x3a483d7e	0.00076385576
95	0x3bc8ff80	0.0061339736
96	0xbbfd6b6f	-0.0077337543
97	0xbbb3930c	-0.005480176
98	0x3bf036ce	0.007330752
99	0xbb9e38f8	-0.0048285685
100	0xbbfc9a37	-0.0077088135
101	0xbbdcf2d2	-0.0067428136
102	0xbbd47bef	-0.0064845006
103	0xbae92e2d	-0.0017790251
104	0x3b61b18d	0.0034438104
105	0xbb26be0c	-0.0025442867
106	0xbb2a14cb	-0.0025952335
107	0x3bd40965	0.0064708465
108	0xbbce79cb	-0.00630114
109	0xbb93c940	-0.004510075
110	0x3adf671b	0.0017044278
111	0x3b29f7a5	0.002593496
112	0xbbc7774d	-0.00608722
113	0x38c9c4f2	9.621111e-05
114	0x3ac9a303	0.0015383664
115	0x3bb0b32c	0.0053924527
116	0xbb8068a5	-0.0039187246
117	0xbbb7048b	-0.0055852584
118	0x3b432fa9	0.0029783046
119	0x3bf21556	0.0073877973
120	0xbaeb1511	-0.0017935355
121	0x3bcf4e04	0.006326439
122	0x3b3efda1	0.0029142874
123	0xbb4595c2	-0.0030149077
124	0x3b6c635d	0.0036069967
125	0xbba96ad0	-0.0051702037
126	0x3c002977	0.007822386
127	0xbb943f61	-0.004524157
128	0xbb81708f	-0.0039501856
129	0xbbd9d008	-0.0066471137
130	0x3a3d9e56	0.0007233372
131	0x3bc801ce	0.0061037308
132	0x3b6d63de	0.0036222856
133	0x3ba7b1c5	0.0051176273
134	0x3b788ca7	0.0037925632
135	0x3b060cf0	0.0020454489
136	0x3b0b0319	0.0021211563
137	0xbbea12cc	-0.007143354
138	0xbaca07d3	-0.0015413709
139	0x3b05cd8f	0.0020416712
140	0x3b48ead2	0.0030657542
141	0x3b14c2f0	0.00226992
142	0x3b24b182	0.0025130217
143	0xbbd531c4	-0.0065061767
144	0x3b6c3023	0.0036039434
145	0xbb497c83	-0.003074438
146	0x3bdec46c	0.0067983177
147	0x3b5b0d97	0.0033424848
148	0x3be4974c	0.006976044
149	0xbacd050b	-0.0015641762
150	0x3bf69489	0.007525031
151	0xbb9f19d4	-0.004855374
152	0x3a384d58	0.0007030568
153	0x3b5fa16b	0.0034123312
154	0x3a3534c8	0.0006912467
155	0x3bbd3459	0.0057740626
156	0xbb0bb4c5	-0.0021317464
157	0x3bb34fb8	0.0054721497
158	0x3adc7ee9	0.001682249
159	0xbbd4a1ea	-0.006489028
160	0x3b87107f	0.0041218395
161	0x3ace9721	0.0015761593
162	0xba52198a	-0.000801467
163	0xbb69e3d0	-0.0035688765
164	0xbb23211f	-0.0024891568
165	0xba75d535	-0.00093777786
166	0xbb7ab721	-0.0038256126
167	0x3b1e4a32	0.002415311
168	0xbb9ec38a	-0.0048450874
169	0x3b95cbb2	0.0045714015
170	0x3bd9bd5d	0.0066448883
171	0xb9317a04	-0.0001692549
172	0x3af9a0b2	0.0019045083
173	0x3bf8c1c6	0.007591459
174	0xbbbecb04	-0.005822541
175	0x3b323618	0.0027192887
176	0x3b0d66c9	0.0021576157
177	0xbbdf326e	-0.0068114316
178	0x3b360415	0.002777343
179	0xbbaa2e11	-0.00519348
180	0x3b42b30b	0.0029708769
181	0xbbf98161	-0.0076143
182	0x3bbe2b2d	0.005803487
183	0xba396b24	-0.0007073155
184	0xbbe9be2b	-0.0071332655
185	0xbbc3048a	-0.005951469
186	0xbb4aad11	-0.003092591
187	0x394d468f	0.00019576609
188	0x3b286048	0.0025692154
189	0x3b73f16e	0.003722276
190	0xbbdbf092	-0.006712028
191	0x3b954c50	0.0045562163
192	0x3b49e141	0.0030804428
193	0x38388395	4.3991564e-05
194	0xbb9bcc80	-0.004754603
195	0xbbe3bf55	-0.006950299
196	0xbb93050d	-0.004486686
197	0x395f3e34	0.0002129011
198	0x3b7e2c82	0.0038783853
199	0x3b5cc3bc	0.0033686003
200	0xbbc86a17	-0.0061161625
201	0x3bda636e	0.006664685
202	0x3ba0f090	0.00491149
203	0x3a27c9b2	0.00064005994
204	0x3b028bd6	0.0019919774
205	0x3bf340d2	0.0074234987
206	0x3b83696b	0.0040103695
207	0xbba092b0	-0.004900299
208	0xbb457a6f	-0.003013279
209	0x3b326bf4	0.002722499
210	0x3bad6d90	0.005292602
211	0x3bc4eebb	0.006009904
212	0x3be693d2	0.0070366645
213	0x3b9d1e95	0.0047949054
214	0xba79dfe7	-0.000953196
215	0x3b817938	0.003951218
216	0xbbc90c3b	-0.006135491
217	0x3b8b65ef	0.004254095
218	0xbbf1ca02	-0.0073788175
219	0x3b9d455e	0.004799529
220	0xbb1a1f2e	-0.002351712
221	0xbbdbe6df	-0.0067108716
222	0xbb8509e6	-0.004060018
223	0xbbd4d573	-0.0064951717
224	0xbb8ac999	-0.004235458
225	0x3b40544b	0.0029347118
226	0xbb6b883f	-0.0035939363
227	0x3bc9400f	0.0061416696
228	0x3b24a723	0.0025124035
229	0xbb860569	-0.0040900004
230	0xbbaee822	-0.005337731
231	0xbbb49d99	-0.005511951
232	0x3a9afde0	0.0011824928
233	0x3bc184f1	0.0059057404
234	0xbbb638ce	-0.005560971
235	0xbbee37f6	-0.0072698547
236	0x3be60ceb	0.007020583
237	0x3be63f26	0.007026571
238	0x3aa87018	0.0012850789
239	0xbbe49513	-0.006975779
240	0x3b06974e	0.0020536962
241	0xbbf3c4b4	-0.0074392203
242	0xbb0c8c01	-0.0021445754
243	0x3bf149f6	0.007363553
244	0x3b5df3e8	0.0033867303
245	0xbb890352	-0.004181304
246	0xbb9283a4	-0.004471259
247	0xbb21b806	-0.0024676337
248	0x3bd3ca22	0.006463305
249	0x3badf0ac	0.0053082313
250	0x3ae290c5	0.0017285576
251	0x3b71ac14	0.0036876248
252	0x3b28899f	0.0025716794
253	0xbbf38dda	-0.0074326815
254	0x3aff6541	0.0019485132
255	0xbb7abd2a	-0.0038259723

bias f4 [10]
0	0xbb9fc909	-0.00487626
1	0xbb9f5adf	-0.0048631276
2	0xba0ea971	-0.0005442119
3	0xba2bee1e	-0.00065586146
4	0x3b3c2f8f	0.002871487
5	0xbbd4d3d8	-0.0064949803
6	0xbb053265	-0.0020324227
7	0xbb336e3c	-0.0027378937
8	0xbbdbf187	-0.006712142
9	0x3b65ec90	0.003508363
