saved_model.pt (torch, 765965 bytes, 26 tensors)

weight f4 [12, 3, 5, 5]
00000000: d41e b73d 6574 ea3d 00fa 013d 6934 8a3d
00000010: 59c2 a2bd aa30 723d 8475 02bd 9583 94bd
00000020: c931 18bd 094e 773d f355 6f3d 0e06 bf3d
00000030: 36fa 0bbd 1d2a 913d 77a9 4dbd a983 a1bd
00000040: dd82 a9bd bc6b 88bb 5ecb 52bd 2047 be3c
00000050: a995 c93d 5c04 3e3b 1e2c e03d c9c2 ba3d
00000060: 2a41 ddbc 5f8d 52bd ce12 3abb cfe0 7cbd
00000070: ca56 24bd 5f29 6fbd 4e73 543d ba7e b5bd
00000080: 8d6d 7a3d abf0 86bd 4b87 1d3d f3d9 63bd
00000090: b6a1 a03d 050b d8bd 83ab d43d b57e cdbc
000000a0: c925 1b3d 9158 4abd 49ea 5d3d 9c9f c1bd
000000b0: b9cc d2bd 9188 c93d 5760 a73d 92d5 d4bc
000000c0: 934a 913c bcb8 023d 62d0 c4bd 846f e83d
000000d0: 6dc2 2a3d 1106 40bd d867 b9bd 2420 89bb
000000e0: 7de6 b9bd 2c6c 88bb 9102 d2bd 41fa 6f3c
000000f0: 79f5 e43d c0c2 69bd 477a b13d 93e3 e03d
00000100: 573e adbd bad7 eb3d 9022 26bc fdf4 1ebd
00000110: 2f2c e03c ede5 8fbd bdc1 37bc c0ea c3bd
00000120: 6006 81bd a7f0 b0bc 0431 98bd 893d 853d
00000130: e324 933d e648 bc3d 6c2f cf3d 0d7e da3d
00000140: daee 59bd d2aa 443c ab17 debd d560 ebbc
00000150: f3d0 99bd 3a89 8c3d 264e b23d f645 d03d
00000160: 410e b13b 730d bc3d 31dd 34bd 4958 32bd
00000170: 1afe 823c e8a2 ba3d 2cda f1bc e1ff e0bd
00000180: 5edb 0a3d 078c 89bd 0adf 89bd 4c2f a23d
00000190: 426a 6e3d adda 883d b4a6 473d 244d 7ebd
000001a0: 78f2 e9bd d007 debd 573c 01bd e073 b7bd
000001b0: dc14 9a3c 7c10 4f3d bed8 df3d d99d 273d
000001c0: 201a 74bd 8312 51bd bed6 2a3c 1693 ce3d
000001d0: 7631 e0bd a63b ecbd e87a efba e238 0c3c
000001e0: 76ee eabd 3b1e 4bbd 97cb 573d bf2e babd
000001f0: 9c3e 84bd 96b5 a7bd 45e2 e0bd 7a38 37bd
00000200: 549e 133c fc84 1fbd d6f4 c93c c687 813d
00000210: 61f0 bdbd 02a6 eb3b e74b b8bc 1729 93bc
00000220: 5980 67bd f281 babd 5203 58bd 19cc 9d3d
00000230: 3c68 af3d cc15 d13c 5184 913d 99ee c8bc
00000240: ab09 b73d 225e a2bd 6b29 d43d 5238 d3bd
00000250: 65ab a4bc e237 18bd b66f bb3d 7a61 47bd
00000260: a7bb 97bd 2884 1f3d a798 333d f0f6 54bd
00000270: 04ca bcbd c7a4 96bd 9d43 e63d 8600 aabd
00000280: e546 e53d 05a7 ebbd 5ad2 573c 846c 693d
00000290: d7de 5ebd 93aa b7bd 7ec8 b43d cce8 aa3d
000002a0: 8856 d7bd d722 0b3d 932e a23d 911f a5bd
000002b0: ebc8 b3bd b62e 913d 1b3e cc3d ccbb ad3d
000002c0: acca 19bd 98f5 debd 3741 463d 6810 a43d
000002d0: 597b 813d 3487 b93d 9de6 bc3c 3f0a 313d
000002e0: 3b86 02bd 4244 ef3b 5dea 10bc 47ff ac3d
000002f0: a0e0 983d e33b 053b f202 ae3d 0130 803b
00000300: 5ba2 55bd ad68 23bc 9658 8a3a 9336 dabd
00000310: 6705 abbd acd3 babc a467 a93d c8eb 193b
00000320: 746b be3d ffed 503c 1bf0 923d a605 b9bc
00000330: 8cc5 cdbc f863 253d 815d 25bd 2d49 2b3d
00000340: 89fe e7bd 26e8 75bd 9595 b63d cada babc
00000350: a2b3 96bd 86ff a2bd 750e e73d 1efe 453d
00000360: 9448 803d 1d89 453d ab4a 8f3d da41 3a3d
00000370: 46b1 953d 6a16 d7bc 0fa6 903c d3f0 173d
00000380: 29f5 b83c fff7 96bd d0a6 b33d a575 d5bc
00000390: 9ad2 0e3d 9587 c83c 5764 913c a9c0 bd3d
000003a0: 9422 d53d d6ae 3c3d 6a3e 3b3d 0847 8ebd
000003b0: 4cb1 d4bd 036c a83d 7c35 48bd 1861 463d
000003c0: 202c 41bd efa3 d1bd 2094 8c3d 1e73 cdbc
000003d0: 360d d13c c598 47bd b60c bb3d 91a4 2abd
000003e0: e97b a93d 1778 82bd 4a05 c83d 0969 193c
000003f0: 5b92 263d 7999 dd3d cb70 a43d b9ab 10bd
0.08941427 0.11447982 0.03173256 0.06748278 -0.07947225 0.05912844 -0.031850353 -0.0725166
-0.037156854 0.060377154 0.058431577 0.09327327 -0.034174167 0.070881106 -0.050210442 -0.0788644
-0.08276913 -0.0041632336 -0.051463477 0.023227274 0.098429985 0.0028994298 0.10945915 0.091191836
-0.027008612 -0.051404353 -0.0028392556 -0.06173783 -0.04012183 -0.058389064 0.051867776 -0.08862062
0.061139632 -0.065888725 0.038459104 -0.055627774 0.07843344 -0.10548977 0.10384276 -0.025084833
0.03787783 -0.04940087 0.05417851 -0.09454271 -0.10292954 0.09840501 0.08172672 -0.025980745
0.017735755 0.031914458 -0.09610058 0.11349395 0.041689325 -0.046880785 -0.0905301 -0.0041847397
-0.09077165 -0.0041632857 -0.10254396 0.0146470675 0.11179633 -0.057070494 0.08665901 0.10980906
-0.08459156 0.11515756 -0.010140076 -0.038807858 0.027364818 -0.07026277 -0.011215624 -0.095662594
-0.06300044 -0.021599127 -0.07431224 0.065058775 0.0718477 0.09193592 0.10116467 0.106685735
-0.053206302 0.012003617 -0.10844358 -0.028732697 -0.07510557 0.068621114 0.08706312 0.10169594
0.0054033105 0.09182253 -0.044156257 -0.043541227 0.015990306 0.09113103 -0.029522978 -0.10986305
0.03390061 -0.06716161 -0.067319945 0.079191774 0.058206804 0.06682334 0.048742965 -0.062085286
-0.114232 -0.10841334 -0.031551685 -0.08957648 0.018808775 0.05055283 0.10930012 0.04092202
-0.059595227 -0.051043045 0.010427175 0.10086648 -0.10946934 -0.115348145 -0.0018270882 0.008558484
-0.11471264 -0.049589377 0.052684393 -0.09090947 -0.06457254 -0.08188932 -0.109806575 -0.044731595
0.009009916 -0.038945183 0.02465288 0.06324725 -0.09274364 0.0071914205 -0.02249713 -0.01796393
-0.056518886 -0.09106816 -0.05273754 0.07704944 0.08564803 0.025523089 0.071053155 -0.024527835
0.08937391 -0.07928111 0.10359462 -0.103134766 -0.020101259 -0.03716267 0.091521665 -0.048676945
-0.07408839 0.038944393 0.043846752 -0.05199331 -0.09218219 -0.073556475 0.11243365 -0.08300881
0.11195163 -0.11506466 0.01317271 0.056988254 -0.054411735 -0.08968081 0.08827303 0.08345184
-0.105145514 0.033968773 0.079190396 -0.080626614 -0.087785564 0.070889875 0.09972783 0.08483085
-0.0375468 -0.10886687 0.048402037 0.08010942 0.06322355 0.09058991 0.023059184 0.043222662
-0.031866293 0.007301838 -0.008844939 0.08447128 0.07464719 0.0020329885 0.084966555 0.0039119725
-0.052156787 -0.009973687 0.0010554965 -0.106549405 -0.0835064 -0.022806011 0.08271721 0.0023486484
0.09297839 0.012752055 0.07174703 -0.022585701 -0.025118612 0.04037854 -0.040372375 0.041817833
-0.113278456 -0.060035847 0.08915249 -0.022809405 -0.07358481 -0.079588935 0.11282054 0.04833805
0.06263843 0.048226465 0.06996664 0.045472957 0.07309203 -0.026255805 0.017657308 0.037094902
0.022577839 -0.0737152 0.08772051 -0.026057074 0.034868814 0.024478713 0.017748041 0.09265263
0.10406986 0.046065174 0.04571382 -0.06947142 -0.10385379 0.082237266 -0.04887913 0.04843244
-0.04716122 -0.10236346 0.0686419 -0.025079306 0.025518995 -0.048729677 0.09133284 -0.04166085
0.08275587 -0.063705616 0.09766634 0.009363421 0.04066692 0.10820288 0.08029326 -0.035320017

bias f4 [12]
00000000: 83e8 b6bd f124 733d 03bd dbbd db7f 013a
00000010: 9f58 dc3d 03cc ed3b 45d3 10bd 6175 fdbb
00000020: b917 ea3d cac1 b33d cf8f cbbd d278 793d
-0.08931067 0.059361402 -0.107294105 0.00049400114 0.10759091 0.007256986 -0.035357732 -0.00773494
0.11430306 0.08777197 -0.09939539 0.06090624

weight f4 [12]
00000000: dfff 7f3f 35ff 7f3f 0900 803f 0e00 803f
00000010: 0f00 803f 1100 803f 83fd 7f3f 96fc 7f3f
00000020: f2fe 7f3f 1100 803f caff 7f3f c0fc 7f3f
0.99999803 0.9999879 1.0000011 1.0000017 1.0000018 1.000002 0.99996203 0.9999479
0.9999839 1.000002 0.9999968 0.9999504

bias f4 [12]
00000000: 1452 cfb7 31be 39b8 8453 3d38 5028 6238
00000010: e54d 6e38 8a3c 7638 0e6a 80b8 2a86 0a37
00000020: 8782 f235 4be3 7038 da96 4238 c325 a6b8
-2.4714544e-05 -4.4284567e-05 4.513889e-05 5.3920143e-05 5.6816167e-05 5.8707352e-05 -6.12327e-05 8.2566785e-06
1.8068394e-06 5.7432142e-05 4.6393696e-05 -7.9225305e-05

running_mean f4 [12]
00000000: bf1e fabd fe15 b3bd 46a7 0d3e 2c7b a13e
00000010: f2a6 abbd 4b07 13bd eb77 a83a b720 49bc
00000020: cc6c 4f3d 1552 b4be 1164 083e 2fe3 fc3d
-0.122128956 -0.08744429 0.13833341 0.31539285 -0.08381452 -0.035895627 0.0012853121 -0.012275866
0.050640866 -0.35218874 0.13319422 0.12348019

running_var f4 [12]
00000000: fd38 f53b f9bd 6b3c f232 0a3d d58c 7e3d
00000010: 52d6 be3c a7ee 3b3c a2f0 0a3c 6d5c a83b
00000020: 74a5 ef3b b6df df3d dcaa 083d b3c4 d13b
0.0074836 0.014388555 0.03373999 0.062146027 0.023295555 0.011470473 0.008480223 0.005137971
0.0073134247 0.10931341 0.03336607 0.006401622

weight f4 [12, 12, 5, 5]
00000000: a709 1a3d 4ac9 46bd 4331 6a3d c660 903c
00000010: 4036 60bc c81c c8bc d92c c73b 42e2 35bd
00000020: 7ca3 5abc e0a5 6dbc c8b1 29bd 4c65 31bd
00000030: 0c4d 823c 1426 96ba 1ffc 06bd 6cbd d73c
00000040: 9bb5 563d 046a 833b 25c7 a33b 1493 493d
00000050: 5050 033d c7c1 3e3d c940 01b9 88b9 b03c
00000060: 197e 4bbc 1424 c1bb 4e70 1fbd d32d 353b
00000070: 2dd6 23bd 9a21 3c3d 383f d23c 051b 56bd
00000080: e667 48bd e22e 2938 1774 f1bc 5e99 21bc
00000090: 1f20 3bbd 96da 333d fe10 783c da18 c0bb
000000a0: ad4b eb3b fd6c 70bc 6aeb 493d 02eb 63bd
000000b0: 2779 223c 6e70 ffbc 69ca b0bc 65e6 2cbd
000000c0: 5ded 1ebd c695 0d3d ee7e 5cbd 03ff e7bc
000000d0: f14e 0dbd 562b 65bd 866f 60bd ce71 45bc
000000e0: 245b 5fbd 4cbc 24bd bd30 103d 4b79 213c
000000f0: 0909 133d 83f6 14bd 60be 15ba 91ec 62bd
00000100: 2b34 6dbc 9fad af3c 4fa7 77ba 887c 4c3d
00000110: eb2b 60bd 4da5 8f3b 58d7 073b d4e7 b23c
00000120: cca6 bdbc 2394 a1bc 99dd a23c 5aa1 cdbc
00000130: 6c47 95bc 7a38 4e3d a762 95bb a58d b03b
00000140: 8181 0fbd e2a0 bdbc e6ca 253c d130 1bbd
00000150: 6ca7 09bd c1ae 013d 27fb d4ba 137e 2a3c
00000160: 097f 06bc 46c0 fe3c d388 3abd f7e2 9cbc
00000170: ca48 443d 2f52 503d 8931 173c 42e6 063d
00000180: 13d4 64bd 2436 68bd 2823 32bd ff0f 08bd
00000190: 1b87 d6bc 5f25 0a3d 72d3 2cbd 01f0 d1bc
000001a0: da02 463c 4e3a 9b3c 3466 5bbc 24f3 993c
000001b0: f144 1dbd d254 9b3b cf19 38bc 3144 233d
000001c0: 0a50 e93b 9c06 e5bc 0fb3 ddbc a0d3 1a3d
000001d0: 31b1 6a3c 1f2f 073d d360 5d3d 1b55 ffbc
000001e0: e540 3f3b dd6c 07ba f96c 9b3c 9206 49bd
000001f0: 7f3e 0dbd 2dd5 ed3c 7cbb 06bd b1a8 303d
00000200: 7613 213d 5b2a 1bbd 6318 44bd 5f89 ce3c
00000210: 69f1 2cbd 3ade e1bc bed4 5e3d d94e 173d
00000220: a3ae b6bb e255 68bd 5d9f ecbb 043c 16bd
00000230: 5e5b 033c ba50 f3bc e80c 483d 4048 1e3d
00000240: 4ece 72bc 5c88 97bc 2b54 1ebd 2a7f 473d
00000250: a411 5ebd 604e 1e3d 0276 cd3c a8e9 2bbb
00000260: 3bb9 b638 84c7 273d e8f6 07bb f61e d5bc
00000270: c953 0a3d b57f 463d caa8 a23c dfd5 62bd
00000280: 10ed 0d3c 00cf e43c a933 6c3c 8978 93bb
00000290: 0dbc 69bc 6341 dbbb 7907 6a3d ba46 bebc
000002a0: 4bbe 743c 3fdc 5d3d 645e 1bbd 40da 3a3d
000002b0: d6d4 14bc b92b b53c a4a0 1d3d 8753 153d
000002c0: 4ca9 e0bc 8a53 433d 2d08 4ebd 46d3 e6bc
000002d0: 7096 6bbd f4c3 5f3c 3c78 1bbd 6b45 44bc
000002e0: 5b0f 02bd c7fe c9bc 0e27 3fbd 9edc 28bd
000002f0: b86f 603d 9317 523b ee6a 033d 6dc4 4d3c
00000300: 6815 2ebd 5fd8 443d 6559 cdbc 2361 4ebc
00000310: 2da6 83bc d0f0 4bbd 5688 1e3d f960 593d
00000320: 66a6 00bd 046e d63c 1467 4f3d 245a a83b
00000330: fa87 553d 8ae1 05bd df13 763c 9ebe b6bc
00000340: e4b2 0b3d 6471 3fbd 10c3 3b3c 15b0 b8bb
00000350: e988 75bc c741 313d debf 01bd b52a 033d
00000360: a9cb e63c 8926 8b3c 1539 e93b 6d20 12bd
00000370: 1963 bcbc 618d 41bd 0ac3 19bd 28f8 593d
00000380: 2a77 8f3c 205b 553d 0e5b 84bc c58a 603d
00000390: e120 4e3c 3aff 2dbd ff27 003c 395b 8f3b
000003a0: 76a3 4a3d 30ef c23c f04c a3bc 4123 963c
000003b0: 1e49 5a3d b76c f73c f270 4b3d 6e48 19bc
000003c0: 6c4a e33b b880 fa3c a2d2 f33c eee8 4abd
000003d0: dd1b 093d db49 82bc f805 1ebd 3dc9 2ebd
000003e0: f4b8 373d ae83 05bd 4567 8a3c d7da 19bd
000003f0: 5498 1e3d 6837 443d 75f4 e3bb 03e3 e53c
0.03760686 -0.048531808 0.057175886 0.01762427 -0.013684809 -0.024427786 0.0060783443 -0.04440523
-0.013344642 -0.01450488 -0.04142931 -0.043309495 0.01590588 -0.001145544 -0.032955285 0.02633544
0.052419286 0.004010441 0.004998105 0.04921253 0.032059014 0.04657152 -0.00012326533 0.021572843
-0.012420201 -0.0058941934 -0.03892546 0.0027645722 -0.039999176 0.045930482 0.02566491 -0.05227186
-0.04892721 4.0336403e-05 -0.029474301 -0.009863226 -0.04568493 0.04390963 0.01514077 -0.0058623375
0.007180652 -0.014674422 0.049296774 -0.055644043 0.00991658 -0.03118154 -0.021580892 -0.04221191
-0.038800586 0.034566663 -0.053831987 -0.028319841 -0.034499113 -0.05594953 -0.054793857 -0.012051059
-0.054530278 -0.040218636 0.03520273 0.009855579 0.03589729 -0.036367904 -0.0005712267 -0.05540139
-0.01447777 0.021445094 -0.0009447233 0.04992345 -0.054729383 0.004383719 0.002072772 0.02183906
-0.023150824 -0.019723957 0.019881057 -0.025101352 -0.018222533 0.05034683 -0.0045588794 0.005387979
-0.035035614 -0.023148004 0.010119176 -0.03788835 -0.03360693 0.0316608 -0.0016249166 0.010406035
-0.0082089985 0.031097542 -0.045540642 -0.019151194 0.04792098 0.050859626 0.009228119 0.032934435
-0.055866312 -0.056692258 -0.04349056 -0.03321838 -0.02618747 0.033727046 -0.042193837 -0.025627138
0.012085641 0.0189487 -0.013391066 0.018792696 -0.038395826 0.004740336 -0.011236622 0.039859954
0.007120137 -0.027957253 -0.02706292 0.037799478 0.014324472 0.033003923 0.054047417 -0.031168511
0.0029182967 -0.0005166063 0.01897286 -0.04907853 -0.03448343 0.029032314 -0.032893643 0.043129627
0.0393252 -0.03788219 -0.04787482 0.025211988 -0.042222414 -0.027571786 0.054402106 0.03694043
-0.0055750175 -0.05672253 -0.007221146 -0.03667833 0.008017389 -0.02970158 0.048840433 0.03864312
-0.014819695 -0.018497638 -0.038654488 0.048705257 -0.054216042 0.038648963 0.025080685 -0.00262318
8.712938e-05 0.040961757 -0.0020746533 -0.02601574 0.03377131 0.048461635 0.019855876 -0.055379745
0.008662477 0.027930737 0.014416614 -0.004500453 -0.014266026 -0.0066911443 0.057136033 -0.023227084
0.0149379475 0.05416512 -0.037931815 0.045618296 -0.009083947 0.022115575 0.038483277 0.03645661
-0.027424477 0.04768709 -0.050300766 -0.028176915 -0.057516515 0.013657559 -0.03795646 -0.011979441
-0.031752925 -0.02465762 -0.046668105 -0.041226022 0.054794043 0.0032057508 0.032084398 0.012559039
-0.042500883 0.04805791 -0.02506704 -0.012596401 -0.01607045 -0.049790204 0.03870424 0.053070996
-0.03140869 0.026175506 0.050635412 0.0051376987 0.05213163 -0.032685794 0.015019386 -0.02230769
0.03410615 -0.046738997 0.011460081 -0.005636225 -0.014986255 0.04327562 -0.03167712 0.03202315
0.028173285 0.016986148 0.0071174004 -0.035675455 -0.022996472 -0.04725397 -0.03753952 0.053215176
0.017512877 0.052088857 -0.0161567 0.05481984 0.012581081 -0.04247973 0.007822036 0.0043748883
0.049472295 0.023795694 -0.019934148 0.018327357 0.053292386 0.030203206 0.04966826 -0.0093556475
0.006936362 0.030578956 0.029763523 -0.049538545 0.033473838 -0.015904358 -0.03857991 -0.042672385
0.04485412 -0.032596283 0.016894946 -0.037562218 0.03871949 0.047904402 -0.006956632 0.02806235

bias f4 [12]
00000000: d98e 2d3d 91b3 4bbd 779c 513d 9d2e 9dbc
00000010: ec6e 1b3c 2a34 a9bb 4cd8 38bd f754 4c3d
00000020: 704f 0dbd fa02 da3c 45df 26bd a0d5 433d
0.04237256 -0.049731795 0.051174607 -0.019187266 0.009486895 -0.005163689 -0.04512815 0.049885716
-0.034499586 0.026612747 -0.04074027 0.04781115

weight f4 [12]
00000000: 51fd 7f3f fafd 7f3f 1700 803f b2ff 7f3f
00000010: 98ff 7f3f 0000 803f dffb 7f3f 5ffd 7f3f
00000020: 1200 803f 54ff 7f3f 1100 803f 0a00 803f
0.99995905 0.9999691 1.0000027 0.99999535 0.9999938 1.0 0.999937 0.9999599
1.0000021 0.99998975 1.000002 1.0000012

bias f4 [12]
00000000: 285c 2bb8 2281 58b8 f8e7 8e38 f360 fe36
00000010: a691 16b8 678c 5438 657a 96b8 f93b b7b8
00000020: 9e28 25b7 ea0a 53b8 282b 7537 03c8 a2b7
-4.0855404e-05 -5.1618677e-05 6.814295e-05 7.5810763e-06 -3.5898433e-05 5.06755e-05 -7.175355e-05 -8.737291e-05
-9.844223e-06 -5.0316485e-05 1.4613186e-05 -1.9405043e-05

running_mean f4 [12]
00000000: cd58 8dbc b8c9 80be 9b75 d93e 09e4 80be
00000010: 187b 9a3e f63f e63e 6952 2d3d e45f 12be
00000020: 8539 62be ac47 d9bc 04ff 69be 6935 703a
-0.017254258 -0.251539 0.42472538 -0.25173977 0.30172038 0.44970673 0.04231492 -0.14294392
-0.22092254 -0.026523434 -0.22851187 0.0009163232

running_var f4 [12]
00000000: b90f c23d 38fb d03d 1d6f fc3d 18f5 9f3d
00000010: cb17 cb3d 202c dc3d f626 273e e5db 323e
00000020: 1815 cb3e ff46 d53d 01fe 1a3d 008a 4a3d
0.09475655 0.10204166 0.12325881 0.0781042 0.099166475 0.10750604 0.16323456 0.17466696
0.3966453 0.10413932 0.037839893 0.049448013

weight f4 [24, 12, 5, 5]
00000000: 728a 4bbd c03a 4cbd d831 ca3b d492 e6bb
00000010: 3b06 3f3d 05f8 9e3c abd1 45bd 5a0a f43c
00000020: 52ed 623c 3e57 0ebb 2c5d a03c e3dd d5bb
00000030: 1f98 323d 4206 c7bc 30c7 4fbd 0207 533d
00000040: 5e82 54bd d83f df3c 6bd9 3cbd 83f9 5c3c
00000050: 5c8e 853c 4356 353d 33f3 a4bc 59e5 d53c
00000060: ad56 37bd 0071 21bd 7338 6a3d 4664 193d
00000070: ec1e 06bd 5582 5dbd 9b9b 02bd 499d 4bba
00000080: d313 3ebd 8a41 bbbc 0533 b6bc 446e 053d
00000090: 0310 0ebd cc26 703c 6c13 193d 81cc 10bd
000000a0: a6ac 48bc 0a44 6a3d 1dcc 523d fa78 97bc
000000b0: 175e b73c 7660 003d 74e8 ca3c 7c47 2dbd
000000c0: 7cfd b4ba df72 12bc 7568 2dbc e440 ee3c
000000d0: 055d 2c3d eb63 2ebd 6725 32bd bb39 d23c
000000e0: 6121 023d 9282 1f3b e6cd c3bc 3fae 573d
000000f0: c9f3 f43c d3f4 053c cf2a 203d 217a 0d3d
00000100: afe0 8abc aa9c 03bd 3130 613c eda3 e93b
00000110: e2d0 583d fd22 22bd cfb2 963c 2188 a23c
00000120: 53fc 0bbd db4a 39bc 3f61 32bc 6a58 9abc
00000130: 5a6c 0f3d 0fda 40bd ffc3 3c3d 948d 6ebc
00000140: 8df1 24bd ab45 e9bc f605 5fbc edc1 6bbd
00000150: b17b 053d a851 1ebd d7d9 33bc 84f5 263d
00000160: 3205 39bd 1706 293d 2820 3abd 71ad 3e3d
00000170: 2023 1c3d 790e 06bd 576f 053c 813f 673d
00000180: 3336 543c c0e0 b3bc ae1b 2f3d c763 473d
00000190: 42a6 05bd 4656 ac3c df19 eabc 52f0 ba3c
000001a0: 8329 9abc f041 cf3c 351f f2ba d138 61bd
000001b0: c5df 61bd 5be3 adbc 5fea 553d e998 10bd
000001c0: 7973 453d 6a12 063d ccf7 cb3c ca12 4fbd
000001d0: 60da 423d a7eb 0e3d 73c5 4cbd 203b 433d
000001e0: 0af6 5abd b0fb 033d 422e c8bc 4da4 b13c
000001f0: 1f4d 9fbc b06e 3e3d 5e76 3e3d eca9 f33c
00000200: 21b6 613c 409a 0d3d 6997 bc3c 6351 65bd
00000210: 7793 593d de6b cc3c 9803 43bd 7e78 e03b
00000220: 9a94 90bc f64b 41bd 8c77 a83c c509 45bd
00000230: 223a 323d 321f 61bd 7f05 5c3d d825 113d
00000240: c0a3 3d3d 60c0 bcbc d963 543d e282 11bd
00000250: cab0 5cbb fb8e 0ebd 07db 183d 8cc1 a4bc
00000260: a521 423d ad0f 45bd 8020 863c 04de 4abd
00000270: 7b93 11bd 11f6 143d 9b0a 103d d117 f8bc
00000280: d1d0 0b3d 55e2 753b 3ca5 293d 6c28 e0bc
00000290: 8bdb 4bbd e158 e33c 89ab 36bd ffc6 3ebc
000002a0: 3e62 6a3d 5e3d 193d 5196 49bd 3038 7c3c
000002b0: 2568 323d 8b0c c13c eaa8 a2bb e4c1 c83a
000002c0: 3469 263c faa1 04bc 4a62 35bd 7569 3bbb
000002d0: 387f 4ebd 7e57 1a3d b51a 2b3d 43b3 fd3c
000002e0: 5ef5 19bd 94e8 d6bc ecd7 8fbc 8ce7 21bb
000002f0: 680e 20bd dc25 2f3d 5cae debc 31ad de3c
00000300: f188 693d f1c5 acbc fbd2 b7bc b348 5a3d
00000310: a2d9 2e3d 2c1d f73b 60d2 1ebc 8a70 0e3d
00000320: e944 c9bc d139 023b e70b adbc 68d7 22bc
00000330: fc5c 08bd 2b03 5bbd 6a82 86bc c954 443d
00000340: d86b 073d b80b 0fbd 432f 2c3d 429c f73b
00000350: a18e 133c 8047 463c d7fe 5b3d cc72 27bc
00000360: e5ad 5d3d 3f28 423d e58a 383d ad6d 11bd
00000370: 4751 103d 7f37 4ebd 5261 35bb 65b0 f63b
00000380: c142 4fbd 6390 543d e23e 3dbc 8507 f93c
00000390: 6815 123b 9116 403d ee8a 9aba fc5a 20bd
000003a0: b3bf f2bb 0040 dfbc 49f4 1e3d 4c67 ef3c
000003b0: c6e3 923c 5b05 c03c 38ef a5bc a7c1 173d
000003c0: 882a 41bc a08c 403d fd48 adbc a480 0ebb
000003d0: 506d 563d 4e44 55bd 12ee 343d 0dea 41bd
000003e0: 32ab 9fbc 6dd2 21bd 084e 65bd f0e9 0abd
000003f0: c87e 6b3d 2ec4 78bc d313 fb3c 8789 283d
-0.04969258 -0.049860716 0.0061704926 -0.0070365462 0.0466368 0.019405374 -0.048295658 0.029790092
0.013850527 -0.002171948 0.019575678 -0.006526695 0.043602105 -0.024294976 -0.05072707 0.051520355
-0.05188214 0.027252123 -0.046105783 0.013487223 0.016303234 0.04427172 -0.020135498 0.026110338
-0.044760395 -0.039414406 0.05718274 0.037449144 -0.032744333 -0.054079372 -0.03188668 -0.0007767273
-0.046405625 -0.0228584 -0.022241125 0.03257586 -0.03468324 0.014657687 0.037372038 -0.03535128
-0.012248194 0.057193793 0.05146419 -0.018490303 0.022383733 0.031341992 0.024769045 -0.0423045
-0.0013808454 -0.00893852 -0.0105839865 0.029083677 0.042080898 -0.042575758 -0.0434927 0.025662294
0.031770114 0.00243393 -0.023901891 0.05265641 0.029901402 0.008176046 0.039103325 0.0345403
-0.01695284 -0.03213183 0.0137444 0.007130137 0.05293358 -0.03958415 0.01839581 0.019840302
-0.034176182 -0.011309351 -0.010887443 -0.018840987 0.03501544 -0.047082957 0.046085354 -0.014560122
-0.040269423 -0.028475603 -0.013612261 -0.05755799 0.032588664 -0.038652092 -0.01097723 0.040761486
-0.04517097 0.041265573 -0.045440823 0.046552125 0.038119435 -0.032728646 0.008144221 0.056457046
0.012952375 -0.021957755 0.042751007 0.04867914 -0.03262926 0.021037232 -0.02857679 0.022819672
-0.018818622 0.025299996 -0.0018472435 -0.054985825 -0.055145044 -0.021226576 0.052225467 -0.035302076
0.048205826 0.032732405 0.024898432 -0.050555028 0.04757154 0.034892704 -0.04999299 0.047663808
-0.053457297 0.03222245 -0.02443612 0.02168479 -0.019445954 0.04649228 0.046499602 0.029744111
0.013776333 0.034570932 0.023021417 -0.05598582 0.05311915 0.024953779 -0.04761085 0.0068503013
-0.017648984 -0.047191583 0.020564817 -0.04810502 0.04351247 -0.05496139 0.05371618 0.03543648
0.046298742 -0.02304095 0.051853035 -0.03552521 -0.003367471 -0.034804326 0.037318256 -0.020111822
0.047395367 -0.048110653 0.01637292 -0.049528137 -0.03554104 0.03636748 0.035166364 -0.030284794
0.03413469 0.0037518938 0.041417345 -0.027363025 -0.04976992 0.027752342 -0.044597182 -0.011644124
0.057222597 0.03741204 -0.04921562 0.0153942555 0.04355635 0.023565551 -0.004963984 0.0015316573
0.010156918 -0.008095259 -0.04428319 -0.0028596793 -0.050414294 0.037681095 0.041773517 0.030969268
-0.037587516 -0.026233949 -0.017559014 -0.0024704663 -0.03907624 0.042760715 -0.02718275 0.027182193
0.057015363 -0.02109048 -0.02243947 0.053291988 0.04268802 0.0075413194 -0.009693712 0.034775294
-0.024568992 0.0019870887 -0.02112384 -0.009939052 -0.0332918 -0.053469818 -0.016419608 0.04793242
0.033061832 -0.034923285 0.04203726 0.007556469 0.009006173 0.012102008 0.05370983 -0.010220241
0.054120917 0.047401663 0.045054335 -0.035504986 0.035233762 -0.050345894 -0.0027676416 0.007528352
-0.05060077 0.05189551 -0.011550637 0.030399093 0.002229059 0.04689652 -0.0011790672 -0.03914927
-0.0074081062 -0.027252197 0.038807187 0.02922406 0.017930876 0.023440054 -0.02025567 0.037049916
-0.011789925 0.04700911 -0.021152968 -0.0021744156 0.052350342 -0.052067094 0.044172354 -0.04734235
-0.019490812 -0.03950732 -0.05598262 -0.033914506 0.057493955 -0.015183492 0.030649101 0.04114678

bias f4 [24]
00000000: 4a17 2abd be64 c9bc 01e6 0b3d 14c8 d73c
00000010: cd9f 733c ddf1 ce3c 2923 5c3b 6048 083d
00000020: f465 cabb 0145 503d c110 eb3b eb1d b03c
00000030: 9c90 b93c fc2e 323d 15dd 3bbd c6bf 59bd
00000040: 76d3 45bc 116d 07bd d414 2f3c eefb e03c
00000050: b246 d7bc a04c 67bd 22a0 993c 6d34 473b
-0.041526116 -0.02458417 0.034154896 0.026340522 0.014869642 0.025261814 0.0033590293 0.033272147
-0.0061767045 0.050847057 0.007173628 0.021498641 0.022651963 0.04350184 -0.045865137 -0.053161405
-0.012074342 -0.033063 0.010686118 0.02746388 -0.026278827 -0.05646956 0.018753115 0.0030396238

weight f4 [24]
00000000: 0e00 803f 0700 803f 2bfc 7f3f dcff 7f3f
00000010: 3dfd 7f3f 0f00 803f 1500 803f 1b00 803f
00000020: 1200 803f 0500 803f 1400 803f effc 7f3f
00000030: 1400 803f 26ff 7f3f 54fe 7f3f 37fd 7f3f
00000040: f7fe 7f3f 8bfc 7f3f ceff 7f3f 0000 803f
00000050: 0800 803f 1a00 803f 98fc 7f3f 8bfc 7f3f
1.0000017 1.0000008 0.9999415 0.99999785 0.99995786 1.0000018 1.0000025 1.0000032
1.0000021 1.0000006 1.0000024 0.9999532 1.0000024 0.999987 0.9999745 0.9999575
0.9999842 0.99994725 0.999997 1.0 1.000001 1.0000031 0.999948 0.99994725

bias f4 [24]
00000000: 94d6 b938 fd49 de38 f46e aeb8 3e5e abb6
00000010: a1a8 84b8 7920 3338 4c7f fe37 a91b c538
00000020: 0bc5 1f38 5c0b 6538 040e 8138 52e0 1d38
00000030: ebfc f6b2 1f1e 9ab8 e332 25b8 ee8c 43b8
00000040: 5328 f037 4f94 14b8 6726 1638 1918 b8b7
00000050: 0f83 aa37 963b ca38 496e 01b9 ab6e a9b8
8.861456e-05 0.00010599566 -8.317633e-05 -5.1071684e-06 -6.32566e-05 4.2707168e-05 3.0338437e-05 9.398844e-05
3.8092065e-05 5.4608434e-05 6.15381e-05 3.764063e-05 -2.8753183e-08 -7.348903e-05 -3.9386458e-05 -4.6622874e-05
2.8629007e-05 -3.5424073e-05 3.5798552e-05 -2.194573e-05 2.0326608e-05 9.643209e-05 -0.00012343483 -8.0791615e-05

running_mean f4 [24]
00000000: afec f03e 940d 12be bda0 d9be 5f2a d4bc
00000010: 306b 103e dbdf e9bd 38a9 7e3e 61b9 af3e
00000020: 1761 0fbd b567 063e 3858 49be 8018 413e
00000030: 12e9 2f3f 5eba 26bc 8bd0 54be f5d2 4f3c
00000040: b22b 5dbe 5231 13bf ee70 a53e e921 58be
00000050: 50e5 8ebe 8a1d aabd 2116 93bc 23c0 583e
0.47055575 -0.14262992 -0.42505446 -0.02589911 0.14103389 -0.1141965 0.2486924 0.3432112
-0.0350047 0.13125499 -0.19662559 0.18857002 0.6871501 -0.010176269 -0.20782678 0.012684573
-0.215987 -0.5749713 0.3231272 -0.21106686 -0.27909327 -0.083064154 -0.017954888 0.21167044

running_var f4 [24]
00000000: e7c0 2a3e 70f1 d53d d67b 893e be07 393e
00000010: db42 cd3d 7c96 1c3e fa7f 673e 5acd 143e
00000020: 2c2d df3d 5293 053e a581 5a3e bda8 2c3e
00000030: 0928 403e bcc0 e33d 6413 0e3e 3289 233e
00000040: df74 0c3e a6da 223e d660 273e f726 c13d
00000050: d569 ff3d 713b 123e 62bc 173e a235 173e
0.16675149 0.10446441 0.26852292 0.1806936 0.10022517 0.1529178 0.22607413 0.1453146
0.10897288 0.1304448 0.21338518 0.16861244 0.18765272 0.111207455 0.13874584 0.15970305
0.13716458 0.1590372 0.16345534 0.0943126 0.12471358 0.14280488 0.14817956 0.14766553

weight f4 [24, 24, 5, 5]
00000000: 4b30 fcbc 573a 0ebd 09f5 d53c 5631 26bd
00000010: 1cf2 a0bb 53c1 04bd ad7a e73b adb5 1abd
00000020: 7cc9 113c c980 dfbc 1c88 1dbd 05f7 223d
00000030: a80c 343c 20b5 0abd 6330 8dbc 6b7a 7fbc
00000040: 128f 22bd e3e1 b13b 5e01 0a3a 1b12 cb3c
00000050: d91f b13c cc15 013d bceb d1bc f79c 423c
00000060: 2f95 06bd c5cb 673c 2456 1fbd 327a 21bd
00000070: 6ad3 013c d2d2 14bd 53d7 a93c f458 693b
00000080: 117d 763a 12a9 c73c e0c6 0ebd c653 b6bc
00000090: c3d5 ddbc bc1b bf3c 29ba a0bc e81f df3b
000000a0: e39a 7ebc 874b 9a3c 479e 633c 8438 003c
000000b0: c7e0 cfbc 8455 193d 0a67 85bc 3120 23bd
000000c0: 8f22 cebc 05c9 20bd 4f59 e6bc ab27 2d3c
000000d0: 651e 28bc e541 1abd 9129 f43c b470 fb3c
000000e0: d154 3e3c 9d8a e13a 24c3 ef3c d5e5 b3bb
000000f0: ffae 333c ee83 9e3c 1ec5 d73b 8cec 04bd
00000100: e160 a2bc 32ae 8dbc 733b 1bbd 5dfc d73c
00000110: 74ff 1f3d 8174 b2bb 1be8 09bc 8e14 35bc
00000120: 924d 08bd beef 14bd adb8 1a3d 5137 203d
00000130: fa4a ca3c ff11 c0bc 710c 6a3c 357e 96bc
00000140: 45d9 f63b 09fc 5b3c 09b2 2abc 012a 8d3c
00000150: 03ae af3b b0bc 17bd f113 423c 021c fbbc
00000160: a0c8 853a 37aa 833c 24dd 27bc bae6 61bc
00000170: 5edb 19bd 9b1e 3f3c 3fed 94bc 6848 77bc
00000180: 5b11 0e3d b6c5 b93b a5f6 ff3c 5bbf 843c
00000190: 259c 39bc 6e41 f23c efeb 0cbc 374e 09bd
000001a0: 803c ca3c 6054 a1ba c6a0 a53c 0c57 083d
000001b0: 3b66 a83c 090f 10bd efad 0b3d 3b92 023d
000001c0: 7702 e9bc 6f06 20bd 900f bcbb 8870 623c
000001d0: 6eeb 2bbc f546 043d 8e5c c23c 7a72 643c
000001e0: a656 bc3c 4cf4 25bd ee74 e63b 8224 8ebc
000001f0: 5b4c 203d 911f c93c 473f 893c 0da8 c4b8
00000200: df22 9ebc 24e5 783c d4c1 b93c 69fe cd3b
00000210: 4659 21bd b198 babc 49e5 11bc eed8 14bc
00000220: d3ca 87bb 43de 8d3c 699a bcbc 9ac1 6e3c
00000230: 7f21 90bc e2fd 0dbc 7618 74bb 7131 1abd
00000240: b2cc 19bc a029 bc3c d9d6 98bc e33a f8bb
00000250: bf36 0e3d 0d31 9dbc 082c 233d 3780 ff3c
00000260: 739c 58bc c543 383a c8fe 853a 6548 163d
00000270: 31fb 21bd 74d3 9a3c ef44 203d 550b 98bc
00000280: c1db 33bc ff25 03bc 4c7c 2abb de8d dbbc
00000290: e2a7 053d f90d 0ebd f596 4bbb 35a7 943c
000002a0: 6cbb a53a 93c2 063d d465 983c a237 873c
000002b0: a806 eb3b c518 ac3c 40cd 953c 371b 223c
000002c0: ea19 b73c 54dc 033d 1b5a 113d fe87 933b
000002d0: ba86 8cbc 2e37 003d 7c31 adbc aa33 a73c
000002e0: 463f 1abc 9f0c aa3c 878f b9bb a8d3 803c
000002f0: d2b2 65bc 01ac 093d 27d3 48bc c4ba 1e3d
00000300: 343d c93b f0bd 81bb c9a5 373c 8646 f13c
00000310: f644 3a3c 38d4 91bc 0d89 953c 6f32 20bd
00000320: 0fb5 9e3b c751 c73c b1f6 6aba 2b5b ae3c
00000330: fdd4 cbbc c309 f43c 1f1a cdbc 01c8 8fbc
00000340: 312f 0e3c 9db3 27bc e410 abbc 1b1b bfbc
00000350: df5c dcbc 77e7 9c3c 98b1 0f3d 63ef 773c
00000360: 3d56 a43c 8354 b23c 05aa 9ebc c171 ea3c
00000370: 3333 353c c440 2fbb b6ef e73b ddd0 13bd
00000380: 37dc 21bc 0457 b33c ed9e 863c e8ed 12bd
00000390: 157c 193d ee63 38bc 221a 81bc 82ca ef3c
000003a0: f2b9 e33b b6a2 283b 3443 0d3d 88b2 fb3c
000003b0: b12a 3b3c 22a9 1e3d 0234 4cbb 5bfd b5bc
000003c0: dc35 5c3c 9202 10bd 0fb0 d83b bb4b be3c
000003d0: 3d6e 27bd 3280 05bc 73c9 95bc 8281 493c
000003e0: 112d a3bc e04d 123d 8f9a 823c b22a 16bd
000003f0: 2f67 8abc d543 db3c dfa6 f9bc dac3 b03c
-0.030784747 -0.034723606 0.026117818 -0.040574394 -0.004911674 -0.03241093 0.0070641846 -0.037770916
0.008898135 -0.02728309 -0.038459882 0.039786357 0.010989346 -0.03386414 -0.017234987 -0.015593152
-0.039687224 0.005428539 0.0005264486 0.024788907 0.021621631 0.031514928 -0.025625102 0.011878244
-0.032857116 0.014147704 -0.03890051 -0.039423175 0.00792394 -0.036333866 0.020732557 0.0035605999
0.00094027916 0.024372611 -0.03485763 -0.022256743 -0.027079469 0.023328654 -0.019620018 0.0068092234
-0.015539858 0.018834842 0.013892717 0.007825974 -0.025375737 0.03743507 -0.016284484 -0.039825622
-0.025162963 -0.039254207 -0.028118758 0.01056854 -0.010261153 -0.0376605 0.029804977 0.03069339
0.0116169015 0.0017207448 0.029267855 -0.0054900446 0.010967015 0.019350018 0.0065847775 -0.03245215
-0.019821586 -0.017294977 -0.037898492 0.026365453 0.03906198 -0.0054460173 -0.008417155 -0.011052264
-0.0332771 -0.03636145 0.037773777 0.039115254 0.024693955 -0.023446081 0.014285193 -0.018370727
0.0075332248 0.013426789 -0.010418423 0.017231943 0.00536132 -0.03704518 0.011845575 -0.030653004
0.0010206886 0.016072376 -0.010245595 -0.01378792 -0.03756272 0.011665012 -0.018179534 -0.015092947
0.03468452 0.005669321 0.031245539 0.016204527 -0.011328732 0.029572215 -0.008601173 -0.033521857
0.024687052 -0.0012308471 0.020218264 0.03328614 0.02055656 -0.03517059 0.034101423 0.031877737
-0.028443558 -0.039068636 -0.00573916 0.013820775 -0.0104931425 0.032294232 0.023725774 0.013943309
0.022990536 -0.040516183 0.007032982 -0.017351393 0.03913532 0.024551185 0.016753806 -9.37731e-05
-0.019303737 0.01519135 0.022675432 0.0062864316 -0.03939178 -0.022777887 -0.0089047635 -0.009084923
-0.0041440516 0.017317897 -0.023022847 0.014572525 -0.017594097 -0.008666487 -0.0037246025 -0.037644807
-0.009387182 0.022969067 -0.018657135 -0.007575379 0.03472018 -0.019188428 0.039836913 0.031189067
-0.013220894 0.00070291414 0.0010223025 0.036690135 -0.039546195 0.018899657 0.03912824 -0.018560091
-0.010977686 -0.008004664 -0.0026014028 -0.026801046 0.03263081 -0.034681294 -0.003106532 0.018146137
0.0012644357 0.032900404 0.018603243 0.01650602 0.0071724243 0.021007905 0.018286347 0.009894184
0.022351224 0.032192543 0.035486322 0.0045022955 -0.017154086 0.031302623 -0.02114176 0.020410378
-0.0094145 0.020757971 -0.0056628617 0.015725926 -0.014019685 0.0336113 -0.012257374 0.038752332
0.006141329 -0.00395941 0.01120896 0.029452574 0.011368981 -0.01780139 0.018253827 -0.039110597
0.004843361 0.024330987 -0.00089631515 0.021283707 -0.024881834 0.029789811 -0.02503687 -0.017551424
0.0086782435 -0.010235694 -0.020882078 -0.023328355 -0.026899753 0.01915334 0.035081476 0.015132758
0.020060653 0.021768814 -0.019368181 0.028618695 0.01105957 -0.0026741484 0.0070781363 -0.03608786
-0.0098791635 0.021892078 0.016433204 -0.035871416 0.03747185 -0.011254294 -0.015759531 0.029271368
0.0069496566 0.002573175 0.034487918 0.030724779 0.011423753 0.038735516 -0.0031158929 -0.022215536
0.013440575 -0.0351587 0.0066127847 0.02322947 -0.040876616 -0.00814824 -0.018284535 0.0122989435
-0.01991895 0.0357188 0.01594284 -0.03666181 -0.016894905 0.026765743 -0.030475078 0.021577764

bias f4 [24]
00000000: 4279 0d3b bffc f33c a5bf 21bd 517f 1f3d
00000010: ea79 243b c29b 19bd 6312 d2b9 4c5c 98bc
00000020: 494b af3c 148d 253d 845d 9d3c 0691 07bd
00000030: 302d bc3c 3ae0 873c 681c feba 0e90 c93b
00000040: 6271 c83a df62 3c38 92d6 07bd 6000 7fbb
00000050: 345f 20bc 85ea 32bb d971 913c 4606 87bc
0.0021587168 0.029783605 -0.039489407 0.038939778 0.002509708 -0.037502058 -0.0004006802 -0.018598698
0.021398203 0.040417746 0.01920963 -0.03309729 0.022970766 0.016586412 -0.0019387128 0.006151206
0.001529258 4.4914774e-05 -0.033163615 -0.0038910136 -0.009788323 -0.002730043 0.017754482 -0.016482484

weight f4 [24]
00000000: a5fc 7f3f fefe 7f3f a7fe 7f3f ecfd 7f3f
00000010: 97ff 7f3f fcfe 7f3f fffd 7f3f e8fb 7f3f
00000020: 3500 803f 1c00 803f 1f00 803f 1100 803f
00000030: 1900 803f 4efc 7f3f 8efc 7f3f 0000 803f
00000040: 2900 803f 91ff 7f3f 2efd 7f3f 4900 803f
00000050: 2200 803f 30ff 7f3f 66ff 7f3f 1200 803f
0.9999488 0.9999846 0.99997944 0.9999683 0.99999374 0.9999845 0.9999694 0.99993753
1.0000063 1.0000033 1.0000037 1.000002 1.000003 0.9999436 0.9999474 1.0
1.0000049 0.9999934 0.99995697 1.0000087 1.000004 0.9999876 0.9999908 1.0000021

bias f4 [24]
00000000: 1dc1 d6b7 d6aa e335 2f4e 76b7 2c1d 9337
00000010: cf11 1138 2151 bfb7 9367 4bb8 3a89 f6b8
00000020: a2f0 f838 4a81 4636 6432 c638 8b8d 0539
00000030: ca95 e238 d8d1 7db8 478e a8b7 5b60 8038
00000040: fa47 8c38 b1fb 7238 195e bbb7 52a3 a537
00000050: 3bb8 1639 6b22 8d37 d88f 90b8 c82f de38
-2.5600713e-05 1.6962538e-06 -1.4680946e-05 1.753735e-05 3.458728e-05 -2.2806753e-05 -4.8495433e-05 -0.000117557545
0.00011870383 2.9579555e-06 9.450762e-05 0.00012736597 0.0001080442 -6.0515333e-05 -2.0093414e-05 6.121463e-05
6.689127e-05 5.7931702e-05 -2.2335955e-05 1.9745585e-05 0.00014373746 1.6824537e-05 -6.893248e-05 0.00010594685

running_mean f4 [24]
00000000: 1dbb a43c d76b 88be 4360 893e 8461 b5bd
00000010: f600 4ebe bd27 343e 371c 60bd 7a9d 88be
00000020: 2618 67be 9394 65be ec45 e63e a82b 2d3e
00000030: 57d9 9a3e 6e9a b83e a348 2ebe 58d4 1b3e
00000040: 71a8 ee3d 4dc2 dbbd 8413 38bd f87e 293e
00000050: a5e3 8bbe 5b3a ab3c 846b 8d3d 4c4a 34be
0.020108754 -0.26644775 0.26831254 -0.0885649 -0.20117554 0.17593284 -0.054714408 -0.26682645
-0.22567806 -0.22419958 0.4497522 0.16911185 0.30243942 0.3605532 -0.17019896 0.15217721
0.116532214 -0.10730419 -0.044940487 0.16552341 -0.27322116 0.02090185 0.069052726 -0.17606467

running_var f4 [24]
00000000: b384 a13d c34f 403e e320 063e e346 ac3d
00000010: 371f 1c3e cb0d b83d 76d4 573e d92b e63d
00000020: 8a59 263e b9a5 bf3d 2604 333e eb33 d33d
00000030: c5a5 293e dded 013e ebab af3d df91 a33d
00000040: 4bcc 0a3e 50e2 123e e12b ed3d 795b d23d
00000050: b8b9 053e 260b e13d a76d a63d 1deb ad3d
0.078866385 0.18780427 0.13098483 0.08411958 0.15246283 0.08987006 0.21077141 0.11238832
0.16245094 0.09357781 0.17482051 0.10312637 0.16567142 0.12688394 0.085777126 0.07986807
0.13554494 0.14344144 0.11580635 0.10271353 0.13059127 0.109884545 0.08126383 0.0849211

weight f4 [10, 16224]
00000000: 3e6f 973a 5963 a03b a291 d3bb 650c e93b
00000010: 66b4 fc3a a6f6 f73b 0240 173b db16 c83b
00000020: 3009 f93a 35a7 c93b 9593 67ba bb6c 833a
00000030: fbe8 dabb 9859 e4bb 3556 f2bb 149f c6bb
00000040: d910 c2bb 4b44 673b 9d5e cd3a 939b a5bb
00000050: ae03 82bb 3464 733b 850b 7cbb 1bcc 8f3a
00000060: 8cf3 553b 4eb1 b939 60d9 2d39 fe3b 583b
00000070: 38f2 88ba 1dc4 19bb 8faf 7cbb aacc 8d3b
00000080: 822b 643a 4a0d 043b b3d6 883b 25f2 6d3b
00000090: 9749 c7bb e8ad b13a 1b7d d239 5099 acbb
000000a0: 0b5d aabb 7952 f9ba 8fa0 b03b de53 a63b
000000b0: 7235 683b 92a4 ee3b e95f bf3b c3b0 973b
000000c0: db2d babb 4e19 9739 4c7a 983a e566 b9bb
000000d0: bf45 803b de7b e63b ff9d b03b f10d b23b
000000e0: af5c ccbb 78e1 ca3b 7ace 233b 8b5f c9bb
000000f0: b983 2c3b c215 2cbb e62a b5bb c9c6 afbb
00000100: 7f4b efbb 6af1 a138 4565 2dba 9666 dab8
00000110: 2f7f 4c3b b1f1 e33b c8f0 47bb c2d2 95b7
00000120: 957f 873a d84c 323b d523 1fbb 6397 95bb
00000130: d57c 85bb d164 8138 02c5 1a3a b1fd dbbb
00000140: 5f1f e3ba c7c8 9637 d4b1 f6bb dd6e 383a
00000150: cf3d 773b d30c 2f3b c934 bc3a 8052 ccbb
00000160: bca8 ce3b 3f43 d43a d73a a53a c96b b5bb
00000170: 0f87 c1bb f794 89bb 3ba3 9b3b fc98 80bb
00000180: f8b6 4dbb 1cb4 3fba 68a6 06bb 12af 3ebb
00000190: 3258 3fbb 09f0 ce3b 52ac debb 19a4 153b
000001a0: a4a0 123a fd24 f3bb 7af3 b0ba 6292 f13b
000001b0: 826b a2bb 0167 533b edce 71bb de22 e1bb
000001c0: 1011 39bb 59af fd3b 9058 2bba 8956 283b
000001d0: bac8 1ebb 92cd a13b c584 e2bb f491 c3bb
000001e0: 2e67 fbbb 2032 abbb 97d5 f43b 911b c4bb
000001f0: f70e 7b3b d587 6ebb bff7 b13b 938c 633b
00000200: a40f e5bb 9caf 83bb 5b2a 9b3b 385d d4bb
00000210: 473f e83b 7445 f23b 1e62 173b 593b bc3b
00000220: d05d 9e3b ff51 adbb fff9 9b3a 5604 313b
00000230: 7591 edbb 127c d338 cae6 fc3b 3f55 f0b9
00000240: ef57 67bb 446d d0bb 3876 02bb 165a 653a
00000250: c7ab a13b 1443 ecbb c497 ebbb d60f 693b
00000260: 7edc 103a 2016 fbbb f4e4 dbbb 74bd 323b
00000270: cbfa 82bb 0418 2d3a 65b6 cb3b bd0b e53b
00000280: 89bd 4f3b 33b2 1539 7248 b7bb ef22 f9bb
00000290: 8b2c 86bb aa1f c03a 9e31 d3bb ab2e c439
000002a0: f6dc 6d3a 98c8 df3b 693d 8b3b 895c bebb
000002b0: 3f2d a639 4a3b 5cba a2df b0bb 5918 e43b
000002c0: 784c b63b ec4f 3eba b0a6 c03b 75a5 69bb
000002d0: c691 dbba d804 7d3b c0d1 533b b920 2c3a
000002e0: 58da ff3b 7019 55ba 5378 b6b9 c460 b03b
000002f0: 1656 88bb 66a3 e93b f7d0 6d3b d8fd 7d39
00000300: 44ea f6bb 3a99 a03b b566 573b 2484 c13b
00000310: 35ff a13b e45e 88ba 5800 07bb 5af4 883a
00000320: 4c40 b8b9 b75f e5bb 7c9a 4ebb 87ed 133b
00000330: 7a74 a9bb 85ff 83bb 5e28 f9bb cec0 1c3a
00000340: 1f96 313a ae77 cebb b122 d7bb 06a5 97bb
00000350: 3eb2 25bb fbd5 90bb eec6 083a 35db c7ba
00000360: e737 253b bd0d 013b 92a0 c6bb 507d cf3a
00000370: f60a eabb 9204 38bb f5a2 92ba 62ee 253a
00000380: c9d5 e63b 0702 593b e2b4 6cba cfd8 3e3b
00000390: 49c7 003c c7f3 85bb 819c 793b 4506 bd39
000003a0: bed1 493a c1bc e4ba 54d1 75bb f33c eb3b
000003b0: 2e85 743b f541 b6bb 7c84 81bb 3b5e 87bb
000003c0: 9188 bf39 d9e0 4dbb 511d d9bb 7715 2ebb
000003d0: 893f 96bb b8b3 663b 1989 93ba 7c89 b53b
000003e0: e36c c9ba c1cf d33a c931 acbb 41e1 2e3b
000003f0: e61d 9ebb f44c 45ba e218 db3b 6754 9fbb
0.0011553538 0.0048946557 -0.00645657 0.0071120732 0.0019279837 0.0075672446 0.0023078923 0.00610624
0.001899993 0.006153966 -0.0008833942 0.0010026911 -0.0066806055 -0.006968688 -0.0073955306 -0.006061444
-0.0059224186 0.0035288509 0.0015668456 -0.0050539463 -0.003967724 0.0037138583 -0.0038459015 0.0010970862
0.0032646386 0.00035418052 0.00016579544 0.0032994743 -0.0010448163 -0.002346284 -0.003855679 0.0043273764
0.0008703993 0.0020149522 0.0041759848 0.003630766 -0.0060817706 0.0013555856 0.00040147532 -0.0052672997
-0.00519908 -0.0019021771 0.005390234 0.0050759157 0.0035432247 0.007282802 0.005840291 0.004629226
-0.005681736 0.00028819818 0.0011633127 -0.005658018 0.0039145644 0.007033809 0.0053899284 0.005433791
-0.0062366347 0.0061914288 0.0024994896 -0.006145423 0.002632363 -0.0026258086 -0.0055287955 -0.005364273
-0.007302701 7.722045e-05 -0.00066145166 -0.00010414158 0.0031203737 0.006956302 -0.0030508507 -1.7860326e-05
0.0010337705 0.0027206447 -0.0024282832 -0.004565166 -0.004073719 6.169978e-05 0.000590399 -0.006713592
-0.0017328075 1.7974888e-05 -0.007528523 0.0007035563 0.003772605 0.0026710525 0.0014358993 -0.0062354207
0.006306736 0.0016194357 0.0012606037 -0.0055365306 -0.005905993 -0.004198666 0.004749683 -0.003924487
-0.0031389575 -0.000731291 -0.0020545963 -0.002909605 -0.0029196856 0.0063152355 -0.0067954445 0.0022833406
0.00055933953 -0.007420181 -0.0013500296 0.0073721865 -0.0049566636 0.003225744 -0.003689702 -0.0068706116
-0.002823893 0.0077418503 -0.0006536329 0.0025686345 -0.002422853 0.004937836 -0.0069128 -0.0059683267
-0.007672212 -0.005224481 0.007471751 -0.0059847315 0.003830848 -0.003639688 0.005431145 0.003472124
-0.00699039 -0.004018737 0.004735274 -0.006480839 0.0070876214 0.0073935334 0.0023099254 0.0057443795
0.0048329607 -0.0052893157 0.0011900066 0.002701064 -0.007250006 0.00010084374 0.007717942 -0.0004583988
-0.0035300215 -0.0063606817 -0.001990689 0.00087490806 0.0049338075 -0.007210145 -0.0071897227 0.0035562417
0.000552602 -0.0076625496 -0.006710643 0.0027273567 -0.003997182 0.0006603005 0.0062168115 0.0069899247
0.0031698665 0.00014276132 -0.005593353 -0.0076030414 -0.0040946654 0.0014657874 -0.006445124 0.00037418804
0.0009073758 0.0068293326 0.004249264 -0.005809371 0.00031695698 -0.0008401169 -0.005397753 0.0069609103
0.005563315 -0.0007259834 0.0058792457 -0.0035651599 -0.0016751818 0.0038607623 0.0032321066 0.00065661554
0.007808011 -0.00081290957 -0.00034803394 0.005382629 -0.004160653 0.0071300743 0.0036287883 0.00024222524
-0.007535251 0.0049010785 0.0032867615 0.005905645 0.004943753 -0.0010404256 -0.002059957 0.0010448799
-0.0003514312 -0.0069999355 -0.0031525185 0.0022571997 -0.005171356 -0.004028263 -0.007603689 0.0005979658
0.0006774384 -0.006300888 -0.006565415 -0.0046278266 -0.0025283243 -0.0044200397 0.0005217631 -0.0015247824
0.0025210322 0.0019692027 -0.006061622 0.0015830193 -0.00714242 -0.0028078896 -0.0011187481 0.00063297723
0.007044528 0.003311278 -0.0009029639 0.0029120927 0.007860013 -0.0040878984 0.0038087668 0.0003605356
0.00076987955 -0.0017451273 -0.0037508802 0.0071788966 0.0037310827 -0.005562062 -0.003952561 -0.004131106
0.0003653211 -0.0031414537 -0.0066258092 -0.0026563087 -0.0045852107 0.0035202336 -0.0011256068 0.005540071
-0.0015367534 0.0016159938 -0.0052549583 0.0026684555 -0.0048253415 -0.00075264205 0.006686316 -0.0048623565

bias f4 [10]
00000000: b206 93bb 1b80 e53a 9311 c8bb ea94 22bb
00000010: 3f00 e3ba e61d b73b c051 4abb b32b c0bb
00000020: 0378 7eb9 c9b8 ef3b
-0.004486882 0.0017509492 -0.0061056106 -0.0024807998 -0.0017318799 0.005588281 -0.003087148 -0.0058645844
-0.00024268035 0.0073157293
