models/Demo/LOGS/models/best_nnet_epoch_59.pt (torch, 503883 bytes, 26 tensors)

weight f4 [12, 1, 5, 5]
00000000: e4ea 1abe 20b5 37be 7160 fb3c 84fc 3fbe
00000010: 705b 2abc 6548 e4bc 07f3 3c3e cdc9 dd3d
00000020: e2ff 953d c2aa 86bd 6055 0b3d 3b83 b73c
00000030: 9167 603d 56cf ee3d ad56 bb3d 1bfd 9f3d
00000040: ece1 30be afce 5dbc ea3b 313e 7418 303e
00000050: 2634 333e e5b7 2a3d 8bec 393e 6edf e03c
00000060: ed30 dd3a 6c2c 533c f98d 8dbd e724 2fbe
00000070: b743 0b3d 3594 25bd 234a 8cbd 49c3 2b3e
00000080: 78e5 1e3e 4e60 22be 6dd7 c1bc 7410 3ebe
00000090: 4fda 1f3c fe4c abbd 8cc4 1abd 9420 323e
000000a0: e60f a6bb 01c7 c5bd 0bb6 f23d 7948 36be
000000b0: 18d1 233c 889a 2bbd 9753 4f3d 1a36 303b
000000c0: ee60 2b3d 4a21 babc 9185 c9bd 1d70 42bd
000000d0: 13d5 fabc cf0d 21be aa40 1f3d 1c76 45be
000000e0: 3217 55bc 4c90 08be fcea ed3d 68fc 143e
000000f0: 7746 aabd 18a9 41be d07f d1bd 168d da3d
00000100: b1fd 43be 804f a23d dac6 3dbc ab53 dd3d
00000110: ccfb b43d 8c3f 093c dabc 2ebd 629b 0abe
00000120: 0747 253e 015e 733d 8d57 31be 5c28 4abe
00000130: b58c ed3b cc6e 39be 06e4 3b3d da7b a23d
00000140: 9593 fc3d 9dea 153e 51c6 db3c b7fe 253d
00000150: 062a e93d 8068 92bd 1c0c 4a3e 58bc 383e
00000160: f44c bebc bd8c a53d 544f 33bd e653 0b3e
00000170: 8611 0e3e 294b 033d 59de 543d bb8f 333e
00000180: d5c9 cb3d b9bb cfbd 7dc3 d43c e51f 273e
00000190: 7c66 693b 3ed9 b9bd 1766 033e 00ff 2ebe
000001a0: deef 09be 2afd 36be cff7 35be 07bb 30be
000001b0: 53e6 633d 2795 4a3e cf6d 10be a92b 1abd
000001c0: 2ab4 263e ab24 c1bc 3d44 423e 0ccb 133e
000001d0: 1e78 86bd f6ee 83bd ddfe 2f3d 37ce febd
000001e0: 2e9c e53c ea6f 613d 7af4 3d3d 9baa 1b3e
000001f0: 75be ccbc 4dd2 1abe 1fe4 47be ea32 ec3d
00000200: f715 45be 7922 ce3d 24d6 263d 756d e8bc
00000210: b860 25be 769e 8f3c 4cc3 353d ff28 5b3c
00000220: 0d1c 33be 28aa 083e fd7d 3d3d e4ff 623d
00000230: 04b3 983d e607 103d 0a4b 2ebd 00a8 1b3e
00000240: 22ec 0fbe e7e4 373d 4e05 313d f557 1f3e
00000250: ec6d 17be 2dca 11be 1b3d 4b3e dcbf 413e
00000260: 4d87 1b3d 4aa4 3bbd ba73 033d 4b55 c2bc
00000270: 1c93 32be a39b 1fbe 4656 353c 0a3e 0bbe
00000280: aa14 dbbb 45f4 913d 9c27 583c d825 babd
00000290: fa02 84bd aeb1 8dbd 2193 493e fb5f c4bd
000002a0: 1760 b5bd ed8f 373e 9147 0ebe ba61 73bd
000002b0: 817a 8f3d 4469 1b3e 263e 0e3e a466 edba
000002c0: 4ee7 29be e811 053e 6d2e ad3d 12cd 733d
000002d0: a805 18be 43a9 993d 47bb babd 9e05 1e3e
000002e0: 3ffd 92bd b2d3 453e 6e77 ddbc 9766 473e
000002f0: 7fec 16bd ec91 4c3e a6ac 593d c579 573d
00000300: d0e2 01bd c044 483e 6d8d 823c 39af 20be
00000310: accc 9cbd c2a6 cbbd 5755 173e 0a9f cdbd
00000320: 8ac0 27be ca06 96bc 915a c73c 34af 473e
00000330: dfde 253d 192c 49be 10ed 0c3e f9de 01be
00000340: 9263 f33c 7ad9 12be 0f22 40be 881b 19be
00000350: 94f3 19be 904a 3abe df4e 17be 1282 a93d
00000360: 742b 223e b2fd 65bd 9506 2fbe 9c96 42bd
00000370: 9e40 ee3d aa48 fa3d ad2c f7bd 94f5 133e
00000380: d4bf 2bbe 75c3 bb3c 24c6 7a3d d863 aebc
00000390: 9cbe 343e 1699 163e 03a9 15be 4e53 98bc
000003a0: f31f cc3d 103e 43bd c718 67bd a24c d63d
000003b0: 2929 70bd 284f 2fbe bda2 103d 7b57 223d
000003c0: 2d58 443e 041f 033d 3b63 583d 9af0 2d3e
000003d0: 6439 31bd 64ef fa3d 3055 193e 34e8 163e
000003e0: f368 2a3e a16b 45bd 9f7e 09be 70f2 233e
000003f0: 58bb 893c bde0 0bbe 734c 3d3c cf1d a23d
-0.15128666 -0.17940187 0.030685635 -0.18748671 -0.010397777 -0.027866552 0.18452083 0.10829506
0.073241964 -0.06575538 0.034016967 0.022401443 0.05478627 0.1166064 0.091473915 0.07811948
-0.17273682 -0.013538047 0.17308012 0.17196828 0.17500362 0.04167928 0.1815664 0.02745029
0.0016875543 0.012889009 -0.06911845 -0.17103921 0.034000125 -0.040424544 -0.06850078 0.16773714
0.15517223 -0.1585705 -0.023662293 -0.18560964 0.009756639 -0.083642945 -0.037785098 0.1739524
-0.005067813 -0.096570976 0.11851128 -0.17801084 0.009998582 -0.04189542 0.050616827 0.0026887716
0.041840486 -0.022720952 -0.09839929 -0.0474702 -0.03061918 -0.15727924 0.038880028 -0.19283336
-0.0130060185 -0.13336295 0.11617085 0.1454941 -0.08314221 -0.1891216 -0.102294564 0.10671441
-0.19139744 0.0792532 -0.011583054 0.10806974 0.08837089 0.008376967 -0.04266057 -0.13535836
0.16140376 0.05941582 -0.17318554 -0.19741958 0.0072494396 -0.18108672 0.045871757 0.07933779
0.123328365 0.14640279 0.026827963 0.040526118 0.113849685 -0.07148838 0.19731182 0.18040597
-0.023230053 0.08083484 -0.043776825 0.13606223 0.13873872 0.0320541 0.05196986 0.17535298
0.09950606 -0.10143227 0.025972122 0.1632076 0.0035614064 -0.09074639 0.12831913 -0.17089462
-0.13470408 -0.17870012 -0.17770313 -0.17258845 0.055639576 0.1978346 -0.14104389 -0.037639294
0.16279665 -0.023577055 0.18971343 0.14432925 -0.06565879 -0.064420626 0.042967666 -0.12441676
0.028028574 0.05503837 0.04637573 0.152018 -0.02499316 -0.15119286 -0.19520615 0.115331486
-0.1924666 0.10065169 0.040731564 -0.028372506 -0.16150177 0.017531615 0.044375703 0.013376473
-0.1749117 0.1334616 0.04626273 0.055419818 0.074560195 0.035163783 -0.04255203 0.15200806
-0.14054921 0.044896033 0.04321795 0.15560897 -0.14788026 -0.1423728 0.19847529 0.18920845
0.03797083 -0.045810975 0.032092787 -0.023722311 -0.1743893 -0.15586714 0.0110679325 -0.13597885
-0.006685813 0.07126669 0.013193037 -0.09089249 -0.0644588 -0.06918655 0.19685031 -0.09588619
-0.08856218 0.17925997 -0.13894488 -0.05941937 0.07005788 0.15176874 0.13890895 -0.0018112254
-0.16592142 0.12995112 0.08456121 0.059521742 -0.14845908 0.07502987 -0.091177516 0.1543183
-0.07177209 0.19319037 -0.027034488 0.19472729 -0.036846634 0.1997754 0.053143166 0.052606363
-0.031710446 0.19557476 0.015936578 -0.15691842 -0.076562256 -0.09943916 0.14778648 -0.100401
-0.16382042 -0.018313784 0.024335178 0.19500428 0.04049575 -0.19645728 0.13762307 -0.12682714
0.029710565 -0.14340773 -0.18762992 -0.14951909 -0.15034324 -0.18192506 -0.1477618 0.08276762
0.15836889 -0.056150146 -0.17092355 -0.047506914 0.116334185 0.12220891 -0.12069068 0.1444915
-0.16772395 0.02292035 0.061224118 -0.021287844 0.17650837 0.14706835 -0.14615254 -0.01859441
0.09967031 -0.04766661 -0.056420114 0.10463835 -0.058633003 -0.1712004 0.03531145 0.03963421
0.19174261 0.032012 0.05282901 0.16986313 -0.043267623 0.122526914 0.14973903 0.14737016
0.16641597 -0.048198346 -0.13427208 0.16010451 0.016812965 -0.1365995 0.011553871 0.07915842

bias f4 [12]
00000000: c7fc 713d 0da2 2e3e c240 173e cb41 073e
00000010: ad5c b83d 70fa fd3d 154f 43be 87e6 b63d
00000020: 1beb 3b3e 631f 0cbe f0b4 d9bd 4af3 a73d
0.059078958 0.17054005 0.14770797 0.13208692 0.090020515 0.12401283 -0.19073136 0.08930688
0.18351404 -0.13683848 -0.10630214 0.082007006

weight f4 [12]
00000000: 11fe 7f3f 5303 803f ad02 803f 50e6 7f3f
00000010: 32e9 7f3f 1b02 803f 1695 7f3f 4eee 7f3f
00000020: a3fb 7f3f a803 803f 52f7 7f3f 76cf 7f3f
0.9999705 1.0001014 1.0000817 0.99960804 0.999652 1.0000643 0.9983686 0.99973
0.9999334 1.0001116 0.99986756 0.99925935

bias f4 [12]
00000000: 0b78 b2b9 9ed0 223a 7264 e839 c9a3 9a38
00000010: f33d 0cba 704c 583a a4c0 89ba 15ac be38
00000020: d9bd 89b8 0de7 7a3a 8d19 89ba b790 29ba
-0.00034040245 0.0006210896 0.00044325326 7.3737996e-05 -0.00053498073 0.0008251136 -0.0010509682 9.091959e-05
-6.568031e-05 0.00095711724 -0.0010459885 -0.00064684026

running_mean f4 [12]
00000000: 43c9 9e3e 8bbd 1c3d 602b 9cbd 68d1 0a3f
00000010: 0858 ce3c f765 d33c a443 16be 4c94 8a3e
00000020: b4a1 0cbe 787c 663e b59c fb3d a31b 17be
0.31012926 0.0382667 -0.076254606 0.5422578 0.025188461 0.025805457 -0.1467424 0.27066267
-0.1373356 0.22508419 0.12285749 -0.14756636

running_var f4 [12]
00000000: 0e0f 3e3d b5c7 413c fd50 103d a827 e03d
00000010: 6012 063c c3e5 0a3c 4d06 763b da12 d33c
00000020: 3d76 8f3d a678 ab3d c39c 0e3d a463 1a3d
0.046401076 0.011827399 0.035233486 0.10945064 0.008183092 0.008477631 0.0037540377 0.025765825
0.07004974 0.08372621 0.03481747 0.03769268

weight f4 [12, 12, 5, 5]
00000000: 95e2 0d3d c917 4abd 6fe9 843b 2f84 0cbd
00000010: a27d 7b3c e33d 22bb 6f3b 053d 1e38 603d
00000020: 36c3 13bc cfa1 11bc 01e2 8cba 1477 15bd
00000030: 1e0f 473d 85aa a1bb ae26 0d3d 26ea 793c
00000040: 1a00 2dbc 726e e53c df30 febc 316b ff3b
00000050: e718 e2bc 6b4e 9a3b 51b0 6bbb 22e0 6b3c
00000060: dcd6 883a 9972 00bd d45a 233c ab3e 25bd
00000070: 3685 1bbc 9888 e03c ce46 a73b b1be abbc
00000080: 1c03 683d f31e e7bc 76df 82bc 4244 203d
00000090: 1352 1c3c 0842 f93c 2fef 41bd 461c 213d
000000a0: 5086 46bb c879 703c 9f5d 003d cce8 623d
000000b0: 8585 06bd 1114 b4bb b66c 523d 5d09 6c3c
000000c0: c7f6 a9bc 068e a43c 8dd4 9d3a 10a1 5abc
000000d0: 2a08 51bc 86e6 dc3c b2d9 8b3a 2b42 89bc
000000e0: b258 983a f43c bd3c a4bf 043c f9b4 773c
000000f0: f3e8 36bb 6355 f23c 64f0 413d 01d0 25bd
00000100: 5278 263d 82ae 2f3d 09a8 98bc eb74 e7bc
00000110: f314 053c 4a42 c93a b8ce 8a3c 65a9 00bd
00000120: c802 5a3d 85de 4fbd 4617 593d 9bd4 ec39
00000130: 677f b3bc ee02 5dbd 283f b13b 2cda cb3c
00000140: 8d6b f4bc b946 743c 7890 1a3c 7520 ca3c
00000150: 4241 f0b8 0f42 81bc 2dc2 47bb b9f5 003d
00000160: bfc2 c6bc c6d1 82bc b8f9 54bd 32a6 3ebd
00000170: 48fe 92ba 9a15 123d 9cf1 553c e7b1 e43c
00000180: 8c20 223c 3383 dbbb dbde 543d 9f37 3b3c
00000190: 0742 4ebd 8aec b1bc e388 f4bc 0e74 e9bc
000001a0: d9ce 613d 3ed6 513d 34a3 353c 8b2d 6a3d
000001b0: 87da 3e3d f220 cbbc 38a3 5f3d c823 ed3c
000001c0: 9743 4f3c c8bb 6b3d 8f91 89bc b821 0bbd
000001d0: de82 6b3d 76b8 6b3d 6e1d e83c 39ad 59bd
000001e0: 8e55 f13c ee36 4d3c bf2d a0bc 4b6e 023d
000001f0: 4017 85bb c4d7 073d 5896 7b3b b7ec 59bc
00000200: 3f7d 043d 0d14 89bc 20a3 f3bc bdb5 fd3b
00000210: 2da0 0abd 4c5e fa3c 2b4b 203d 9f8e 613d
00000220: fdd3 cbbc 2315 07bd 3e0d 67bd 54f3 3abd
00000230: 5032 3aba d233 493c e294 b73b d8df 49bd
00000240: 0d30 5ebd 82ba 423c d308 363b 122a cf3b
00000250: 3e74 82bc 2c4d fdbc c629 8e3c 2a7d 2abc
00000260: 0423 b5bc f551 b7bb c13e 1cbc c294 d93c
00000270: c23c 43bd e6c6 2fbc ee40 1d3d 490e 173c
00000280: 45fd 093d 6192 483d 21d2 123d 5717 053d
00000290: f5db 523d 0e5e 0cbd 9487 013d 3433 13bd
000002a0: 062c af3c 1759 ad3b 6969 cdbc 29d5 8dbc
000002b0: 1ca0 e4bc d56c 65bc ab4f 5d3c 3a27 2cbd
000002c0: a411 293c 6a98 7a3c 9718 3fbc 82d7 b93b
000002d0: f283 fbbb 9918 8dbb 4f8c 2abd 3f8c ca3c
000002e0: 7fa0 0d3c b666 303d 4708 59bd 843d 33bc
000002f0: 86f5 51bc 16a1 36bc b929 263d c25a 5a3d
00000300: b386 1c3d ca78 443d 103d 4ebd b6d4 ab3b
00000310: 0d16 693d 6b7e 98bc 862d 3cbc 586d 3c3d
00000320: 5874 963c 1baa e4bc 9e63 473d 5703 e7bc
00000330: b592 193d 8ed6 383d dbbb 8ebc 34f0 cebc
00000340: e0db 013d ae83 b3bc c27c 60bd 3efa 32bd
00000350: 7da4 203d ab67 cbbc 89cb 333d c1c8 cfbb
00000360: a06d 30bd 06d5 db3c 9f2e 58bc 5a74 db3c
00000370: 4618 a0bc c079 573d a068 353d d1cd 6dbc
00000380: 8c08 573d a1f4 453d f106 47bd 1129 bcbb
00000390: 9931 cebc 5904 1f3d 2785 0339 5b96 26bd
000003a0: 8130 67bb 3421 323d 88e5 29bb 3577 02bc
000003b0: 83a9 663d 96a4 d2bb 9976 c23c e5ae 18bd
000003c0: e33d 223d 8ee8 623d 9904 c63c aca3 11bc
000003d0: 5df5 5bbc c290 0f3c 0f14 57bd 982e 033d
000003e0: 8913 563b d59e aebc ccf1 bfbc 0f38 393d
000003f0: 930d 05bd f794 46bd 31a9 e83c 5d78 fdbb
0.034639914 -0.04933909 0.0040561478 -0.034305748 0.015349777 -0.0024756126 0.032527383 0.054741018
-0.00901871 -0.008888676 -0.0010748507 -0.036490515 0.0485984 -0.0049336576 0.034460716 0.015253579
-0.010559106 0.028006766 -0.031029163 0.0077947606 -0.027599765 0.004709055 -0.0035963247 0.014396699
0.001044001 -0.03135929 0.009970386 -0.040342968 -0.009492209 0.027408883 0.005104876 -0.020964952
0.05664359 -0.028213 -0.015975695 0.039127596 0.009541052 0.030426994 -0.047347244 0.039333604
-0.0030292459 0.014677472 0.031339284 0.055397794 -0.032842178 -0.005495556 0.051373206 0.014406529
-0.020747555 0.020087253 0.0012041494 -0.013344064 -0.012758294 0.02696539 0.0010669737 -0.016755184
0.0011623113 0.023100354 0.008102331 0.015118831 -0.0027909845 0.029581731 0.047348395 -0.04048157
0.04064209 0.042891033 -0.018634813 -0.028253993 0.00812267 0.0015354839 0.016944274 -0.031411547
0.05322531 -0.05074932 0.05300071 0.0004517183 -0.021911336 -0.053957872 0.00540914 0.024884306
-0.02983644 0.01490944 0.009433858 0.02467368 -0.00011456247 -0.01577857 -0.0030480728 0.03148434
-0.024262784 -0.015969168 -0.051995963 -0.046545215 -0.0011214698 0.035665132 0.013058092 0.027916862
0.009895455 -0.00669899 0.051970344 0.011426835 -0.050355937 -0.021719236 -0.029850429 -0.028497722
0.055128906 0.051229708 0.011086274 0.05717234 0.046595123 -0.024795983 0.054599017 0.028947726
0.012650392 0.05755213 -0.01679304 -0.033967704 0.05749785 0.057548963 0.028334346 -0.053143714
0.029459741 0.012525303 -0.019553063 0.031843465 -0.0040616095 0.033164755 0.0038389172 -0.013301066
0.032346006 -0.016733194 -0.02974087 0.007742612 -0.03384416 0.030562542 0.039134186 0.055067655
-0.024881357 -0.032979142 -0.056409113 -0.045642212 -0.0007102834 0.012280421 0.005602465 -0.04928574
-0.054245044 0.011885287 0.0027776256 0.006322154 -0.01592457 -0.030920587 0.017353904 -0.010405818
-0.022111423 -0.005594487 -0.009536446 0.026560191 -0.047665365 -0.010728573 0.038392 0.009219714
0.033688802 0.048967723 0.035844926 0.03249296 0.0514793 -0.034269385 0.031623438 -0.035937503
0.021383297 0.0052901614 -0.025074678 -0.017313557 -0.027908377 -0.014002998 0.013507764 -0.042029597
0.010319147 0.015295127 -0.0116635775 0.0056714425 -0.007675641 -0.004305911 -0.041637715 0.024725078
0.008644222 0.043066703 -0.05298641 -0.010939959 -0.012814885 -0.011146804 0.040567134 0.05330921
0.038214397 0.047966756 -0.050351202 0.005243863 0.056905795 -0.018614968 -0.011485463 0.046002716
0.018366024 -0.027913144 0.048678987 -0.028199835 0.037493426 0.04512649 -0.01742356 -0.025261022
0.03170383 -0.021913376 -0.05480648 -0.04369568 0.03921937 -0.024829706 0.043895278 -0.0063410704
-0.043073297 0.026834976 -0.013194709 0.02678888 -0.019542824 0.052606344 0.04428923 -0.0145144025
0.052498385 0.048329 -0.048590604 -0.0057422 -0.025170134 0.038822506 0.00012542737 -0.040670734
-0.0035276713 0.043488696 -0.0025924165 -0.0079629915 0.056314003 -0.0064283116 0.023738192 -0.037276167
0.0396098 0.055397563 0.024172114 -0.00888912 -0.013425198 0.00876254 -0.052509364 0.032026857
0.0032665452 -0.021315971 -0.023430727 0.045219477 -0.03248365 -0.048481908 0.02840099 -0.0077352957

bias f4 [12]
00000000: 4823 03bd 6e44 f03c d5c5 19bd 14ef 66bd
00000010: 22c9 463d 431a 61bd d05f 0bbc 6746 033a
00000020: 6411 553d e6d2 debb 0144 07bd 2e48 be3c
-0.03201607 0.029329505 -0.037542183 -0.056380346 0.04853166 -0.054956686 -0.00850673 0.0005007744
0.052018538 -0.0068000434 -0.033023838 0.023227777

weight f4 [12]
00000000: 9fde 7f3f ba02 803f 8101 803f d400 803f
00000010: 4000 803f 6701 803f 9301 803f 2901 803f
00000020: 309b 7f3f 86f1 7f3f 4101 803f 7367 7f3f
0.9994907 1.0000832 1.0000459 1.0000253 1.0000076 1.0000428 1.000048 1.0000354
0.9984617 0.9997791 1.0000383 0.99767226

bias f4 [12]
00000000: 7ef0 5b3a 58d0 e939 d52c 0f3b 63d6 c138
00000010: bd08 e6b9 5822 e339 3567 8d3a d569 9239
00000020: 6cd8 1eba 2b66 d9b9 cbc3 dc39 e7ca b3ba
0.0008390023 0.0004459645 0.002184679 9.24289e-05 -0.0004387553 0.00043322402 0.0010788204 0.0002792614
-0.0006059471 -0.00041465586 0.00042107547 -0.0013717086

running_mean f4 [12]
00000000: c49e 493e 144a c43e 9bc9 873d 5165 943e
00000010: cec1 6dbe ce66 c6be eef6 c0bb 84a6 00bf
00000020: 0839 3a3e 7988 9b3e 779a 4a3c 635f 8ebd
0.1968947 0.38337767 0.0663025 0.28983548 -0.23218462 -0.3875031 -0.0058888113 -0.5025408
0.18185818 0.30377558 0.012365929 -0.06951787

running_var f4 [12]
00000000: af6d 273d 9c6d f93d b438 323d 5fb0 173e
00000010: d8c1 5e3d d98a bc3d d04e b73d cf54 dd3d
00000020: 2cea 1c3d dc35 463d 176d 853d bf11 1d3d
0.040876087 0.121791095 0.043511108 0.14813374 0.054384083 0.092061706 0.08950579 0.108071916
0.03830926 0.048391208 0.06514948 0.038347002

weight f4 [24, 12, 5, 5]
00000000: 3dde 2bbd 8af9 783c b09c 7cbc 3ec6 1fbc
00000010: 9d01 513d 0441 053c d2f5 42bd 578a 6ebd
00000020: 64f7 7ebc 7cec 633d 0e79 073d 7944 703c
00000030: ae35 c93c 5d4f 2d3d 823a 6cbd 3abe 91bc
00000040: f3b3 02bd ce6f b4bc 4ac4 22bd 7d91 6a3b
00000050: 249d 81bc 32ac ac3c e836 86bb c9e6 62bd
00000060: 43dc 67bd 10a1 a13c f2c4 c0bb c87d 52bd
00000070: 69d4 adbc 571d 4ebd 93d0 00bd 0285 503d
00000080: 2bae b7bc e316 bfbc c6dc cfbc 3963 4c3d
00000090: b3a5 70bc 2dd1 b43a 729e 6a3c 236c aebc
000000a0: a51d b6ba 113a c5bc 89ae 5b3c 2ecf edbc
000000b0: 8d7e 3abc 0ea0 93bc 2e78 283d 4a73 963c
000000c0: 805b d4bc 892e 8d3c 8e3e 3ebd 827f 3cbd
000000d0: a1ca 0abd 0a11 abbb ac51 1abc 13b4 673c
000000e0: fdb6 64bc 886f 15bd 60db 933c 62b2 3ebd
000000f0: cd2b 693d f009 a9bc 0949 cc3c 635c b73c
00000100: 24f5 8dbc a121 743b 55c1 523d 00d8 3e3d
00000110: 97a6 1a3c 0669 373c 130c 04bd e596 2fbd
00000120: 841e c9bc 452a c5bc dc0e 16bd 3e01 543d
00000130: 5774 18bd 444d 803c 755d 5bbd be1b cd3c
00000140: 9f3b 303d 4bc4 1a3c 38c2 34bd 6158 7f3b
00000150: 2d33 23bb 7c64 cc3c a7e9 a23b 58dc 46bd
00000160: 9cc6 5bbb de4b 96bc 78c9 cc3b bc46 4cbd
00000170: 12ac 52bd 0f8c 3f3d eec7 0fbd 11d7 ecbb
00000180: 3405 4c3d faa4 47bd f98b 2c3d baaa 5ebd
00000190: 8db0 1ebd f6c8 4c3d aed7 d6bc 3935 f93c
000001a0: 1a16 9a3c ad01 283d 6e65 53bd cd16 debb
000001b0: 698f 273d c59b a7bc 74de edbc 4de4 c23c
000001c0: e523 1d3c 93be c1bc c579 c2bc dbf5 5f3d
000001d0: 2c53 6a3d 53a1 ccbb c44f e6bc bcd1 933c
000001e0: 76a5 c1bc c4f3 e9bc c819 183d 911b e83c
000001f0: d78b b5bb 8afc 0c3d 2a20 633c 7d8e e53c
00000200: 9695 613c 8aa6 99bb bba0 59ba 9f5f 1dbd
00000210: cd6d d2bb 5b2c c33c 0dc6 52bc 774c 39bd
00000220: 412f bb3c 6d47 263d d5c8 403d f18a 59bd
00000230: 6364 84bc 53f2 533d 5c98 e43c 325d a13b
00000240: 963b 2fbd 636f 5fbd a7bc 0c3c 3fbe 343d
00000250: b4c7 05bc 0c5e 5fbb 0f1d 18bd 3333 66bb
00000260: 3fda 683d 045a 253d 1e2c b23b acb6 603d
00000270: 3533 8e3c 1ce0 88bc fc34 a8bc c2ef c0bc
00000280: cff3 c43c 8ae8 823c 75a0 36bd 1d1e 1c3d
00000290: 9c8b f13b 3716 143c 3ce5 39bd 6dfc a33c
000002a0: 24d9 603b 2bd2 ee3b 48ef 03bd 7390 85bc
000002b0: 096e c13b 7e13 9e3a 51a3 2ebd 1e16 403d
000002c0: bc96 44bd 439d ed3c e591 143d 97ca 09bd
000002d0: 9c62 6bbc 4152 d3bc 0b18 61bd 9376 3fbd
000002e0: cc4b 4b3d 99f3 323d f866 eabc ff78 163d
000002f0: a692 673d 4ec5 b03c a613 103d 9e9c 27bd
00000300: 7ffd 1cbd 67cd 08bd b854 363d 0b82 0cbd
00000310: d8f0 62bc 5284 123d dbb2 aa3c 0b55 8a3c
00000320: 27e2 1ebd 5829 0cbd c585 21bd d4eb c93b
00000330: c470 65bc 896a f2bb 1755 2ebd 3fd1 3cbc
00000340: 55ba 1ebd a286 d5bc 1e30 6abd 0c52 663d
00000350: ea86 46ba be72 dabc 127c 55bc 268f af3c
00000360: a531 29bd 77fa 3a3d 66bc 1c3b 2420 83bc
00000370: 705d 2eb8 64e8 90bc 7dec c63c a593 d03b
00000380: 1b8d be3c e13f f53b e914 b0bb 5623 63bc
00000390: cc70 e43c 965f 11bc bef9 f6bb 76c4 bdbc
000003a0: 982a 903c e07e 073c 7e1e 0bbd 95fc 083d
000003b0: 3c16 273d 5bdb 4dbb 6f87 4d3d 47b1 04bd
000003c0: 7221 30bd f4e2 c13c 6834 5e3b 92bc ccbc
000003d0: 6975 27bd 6b94 ff3c 5652 18bd 625a 4a3d
000003e0: 8dec 36bd b71a c7bb 9a51 d53b 8912 65bd
000003f0: 09b5 39bd 5b9b 80ba 06cd 563d dcc1 153a
-0.04195999 0.0151962135 -0.015418217 -0.009751854 0.05102693 0.008133177 -0.047597714 -0.0582374
-0.015561912 0.05564545 0.03307443 0.014664763 0.02456173 0.042312015 -0.057672985 -0.017790902
-0.031909894 -0.022025969 -0.039737977 0.0035792284 -0.015822 0.021078203 -0.004095901 -0.055395875
-0.056606542 0.01973012 -0.0058828527 -0.051389486 -0.02121945 -0.05032095 -0.031448912 0.050908096
-0.022421917 -0.023326343 -0.025373828 0.049899314 -0.014687943 0.0013795249 0.014320003 -0.021291798
-0.0013894333 -0.02407554 0.013408312 -0.029029455 -0.011382711 -0.018020656 0.041130237 0.018365521
-0.025922537 0.017234104 -0.046446376 -0.04602004 -0.03388465 -0.005220537 -0.009418886 0.014142054
-0.013959643 -0.036483318 0.018048942 -0.046556838 0.056926537 -0.020634621 0.02493717 0.02238292
-0.017328806 0.003725149 0.051453907 0.046592712 0.009439132 0.011194473 -0.032238077 -0.042868514
-0.024550684 -0.024068007 -0.036635265 0.051758997 -0.037220325 0.015661843 -0.053555924 0.025037643
0.04302561 0.009446214 -0.044130534 0.003896259 -0.002490233 0.024950258 0.004971701 -0.04854998
-0.0033535128 -0.018346723 0.006249603 -0.049872145 -0.05143363 0.04676443 -0.035102777 -0.0072277864
0.04980965 -0.04874132 0.042125676 -0.054362036 -0.03874259 0.04999634 -0.026225891 0.030420886
0.018809367 0.041017223 -0.051610403 -0.0067776204 0.04090825 -0.020460019 -0.029036738 0.023790503
0.009591077 -0.023650443 -0.023739705 0.054677825 0.057208225 -0.0062448173 -0.028114207 0.018044345
-0.023638468 -0.02855862 0.037133962 0.028333457 -0.005540352 0.034420528 0.013862649 0.028022045
0.013768574 -0.0046890425 -0.0008301844 -0.03842127 -0.0064217807 0.023824861 -0.012864602 -0.04523894
0.02284968 0.04059546 0.04706653 -0.05311102 -0.01616115 0.05174477 0.027904682 0.00492444
-0.042781435 -0.054549586 0.0085899 0.044126745 -0.008165289 -0.0034083156 -0.037137087 -0.0035125732
0.05684876 0.04036905 0.005437388 0.05486171 0.017358402 -0.016708426 -0.020533077 -0.023551825
0.024042038 0.015980024 -0.044586617 0.038114656 0.007371379 0.0090385 -0.04538463 0.020017827
0.0034309113 0.0072882376 -0.03221062 -0.01630423 0.00590301 0.0012060252 -0.04263622 0.046896093
-0.047995314 0.029005652 0.03627195 -0.03364047 -0.014366772 -0.025796058 -0.05495457 -0.04674394
0.049632832 0.043689344 -0.028613552 0.036736485 0.05653634 0.021578457 0.03517499 -0.040920846
-0.03832769 -0.033399012 0.044514388 -0.034303706 -0.013851367 0.03577072 0.020837238 0.016886255
-0.038789894 -0.034219116 -0.039434213 0.006162146 -0.014003936 -0.007397954 -0.042561617 -0.0115244975
-0.03875192 -0.026065174 -0.057174794 0.05623059 -0.00075732043 -0.026666041 -0.013030069 0.021430563
-0.04130711 0.04564902 0.0023916005 -0.016006537 -4.1571853e-05 -0.017688937 0.024282688 0.006365257
0.023260644 0.0074844216 -0.0053735864 -0.013863405 0.027885817 -0.008872887 -0.007537096 -0.023164969
0.017598435 0.008269995 -0.033964626 0.033444006 0.04079269 -0.0031411264 0.050177988 -0.032395627
-0.043000646 0.02366779 0.0033905748 -0.024992261 -0.040883455 0.0311987 -0.037187897 0.049402602
-0.044659186 -0.0060761827 0.006509972 -0.05592588 -0.045338664 -0.0009811925 0.05244162 0.0005712786

bias f4 [24]
00000000: db69 523d c88a ccbc 89c2 28bd 9298 4abd
00000010: 4849 603d 0e1c 64bd 7b04 a33c 687d 143c
00000020: 3283 cf3c ca26 68bd a1cb c8bc baed 01bb
00000030: 592c 6d3c 02ae 0dbc 4c86 ed3a 68b0 14bd
00000040: 4fda 31bd a3f9 733c 45d0 05bc 486d 323d
00000050: 0b83 a53c 7b03 ae3c 40a3 2a3d 33ff f53c
0.051370483 -0.02496852 -0.04120115 -0.04946191 0.054757386 -0.055690818 0.019899597 0.009063102
0.025331113 -0.056677617 -0.02451116 -0.0019825534 0.014475905 -0.008647444 0.0018121689 -0.036301047
-0.043421086 0.014891061 -0.008167331 0.04356125 0.020204088 0.021241894 0.041659594 0.030028915

weight f4 [24]
00000000: a800 803f 2800 803f 1e02 803f bafe 7f3f
00000010: dbc3 7f3f 2489 7f3f b4f3 7f3f 4f00 803f
00000020: dec1 7f3f fde3 7f3f feff 7f3f 93e9 7f3f
00000030: fa03 803f e601 803f 76a0 7f3f 99f3 7f3f
00000040: 6cfb 7f3f 4387 7f3f 39ad 7f3f 2b00 803f
00000050: a904 803f c4c8 7f3f 439a 7f3f da01 803f
1.00002 1.0000048 1.0000646 0.99998057 0.99908227 0.99818635 0.99981236 1.0000094
0.9990519 0.9995726 0.9999999 0.9996578 1.0001214 1.0000579 0.9985422 0.99981076
0.99993014 0.9981577 0.9987369 1.0000051 1.0001422 0.9991572 0.9984476 1.0000565

bias f4 [24]
00000000: 6332 963a 08bb d439 02e3 c53a 5017 22b9
00000010: 619e 08bb c189 7bba f282 a13a 47f0 103a
00000020: 5c80 89ba aa9d 33b9 1b49 9b38 8589 8c3a
00000030: 031f 6e3a 549f cb3a 8a81 58ba ddfc 433a
00000040: dfd9 ed3a e972 32ba 63b8 6d38 b037 2039
00000050: f937 a43a dfdd c0b8 d546 55ba 1ee0 a13a
0.0011459108 0.0004057514 0.0015097561 -0.00015458209 -0.0020846354 -0.0009595417 0.001232235 0.0005528968
-0.0010490525 -0.00017129505 7.404593e-05 0.0010722136 0.00090836006 0.0015535154 -0.0008259049 0.0007476339
0.0018146596 -0.0006807284 5.6676927e-05 0.00015279534 0.0012528888 -9.1966e-05 -0.000813586 0.0012350117

running_mean f4 [24]
00000000: cc99 8fbe cb91 eabd 4a23 1dbe 5ef8 ed3c
00000010: 940d 45bd 1c43 c0be d7f7 b0be 561b 113f
00000020: 36af f5bd a706 21be 7214 b7be d5e6 523e
00000030: 6ff0 823d 4fe0 bfbe 21bc b9bc dc06 d1be
00000040: 41b6 f4be e477 873e e0f9 5cbd 2196 9a3d
00000050: b867 2b3f f411 f1be bf8a b43d 9d37 98be
-0.28047025 -0.11453589 -0.15345493 0.029049095 -0.048108652 -0.375512 -0.34564087 0.56682336
-0.119963095 -0.15725194 -0.35757786 0.20595868 0.06393515 -0.3747582 -0.022672715 -0.40825546
-0.477953 0.26458657 -0.053949237 0.07548166 0.6695514 -0.4708401 0.08815526 -0.2972993

running_var f4 [24]
00000000: bbf9 513e 33c3 ca3d 48e4 b53e 6f31 5a3e
00000010: f955 153e 73e3 2a3e 69e7 353e a99a 6b3e
00000020: 9d5a 453e 700a fb3d 73c8 143e 95e0 1c3e
00000030: f1d3 7b3e 86a8 373e 0cb7 5c3e e2e7 453e
00000040: 8ec5 223e 3465 6c3e 0dbb 893e 784a 553e
00000050: c882 bd3e bb1c 4b3e 0833 043e 90dc 273e
0.20505421 0.099005125 0.35525727 0.2130792 0.14583577 0.16688327 0.17764057 0.23008217
0.19272847 0.1225785 0.1452959 0.15320046 0.24592568 0.1793538 0.21554202 0.19326738
0.15895674 0.23085481 0.2690052 0.20829189 0.3701384 0.19835179 0.12910092 0.16392732

weight f4 [24, 24, 5, 5]
00000000: f853 263d 8c3f f83c e9ed 98b8 1aaf b53c
00000010: f2b2 913a fd59 973c 2c70 233b 4c62 eb3c
00000020: 39d8 e33c de60 f33c 0d69 1f3c 31cd 0ebd
00000030: d34e 09bd 49ed d3bb b930 edbc 0b86 bc3c
00000040: e9f2 2fbc c56a 973b 4106 20bd 0daf 183d
00000050: 9f80 2fbc 5450 d33c 48c5 0dbd bb81 f7bb
00000060: 430b a73c 086e cfbc 0c66 b5bc 8ccd 39bb
00000070: d13e b13c de36 233c a3fd 07bd 06d9 b93b
00000080: 7d3a 14bc 070a 15bd ee9f 9fbc 8371 bfbc
00000090: 1986 c63c 7770 193c b182 bbbb a601 d73c
000000a0: 70da d6bc 907c c6bb 9a45 58bb 938c 1d3d
000000b0: 8165 26bb 00d4 00bd c6c5 d2bb f5bd 3cbc
000000c0: f14c d33c b502 f2bb 0181 22bd d169 09bd
000000d0: a57a 733c 80eb afbc 3474 c23b 1bcb 12bd
000000e0: 9d24 173d 8508 033d 79f3 febc 0134 8bbc
000000f0: 4711 95bb d9fe bebc 9b61 07bd 2cb4 003d
00000100: 9682 14bb c906 39bc 6582 12bc 15ae debc
00000110: 1bb1 163c 877c a9bb e04c 383c 370a 9abb
00000120: 15a3 19bd be6d fd3c e314 883c 7fd4 f9bc
00000130: 3ca6 aabc a02d 06bd a991 26bc 5043 193d
00000140: d33f 3c3b f43a 3a3c aaa2 34bc 21e7 7f3a
00000150: ab8c 933c 4a37 933c dd16 0f3d 0ddb 58bc
00000160: 7d7e 843b 399c 8a3c adc3 803c da40 bfbc
00000170: 184e b1bc 6760 afbc f350 2cbc d4cd 10bd
00000180: e505 0dbd 8209 88bb 0b73 d83b 0fb2 3bbc
00000190: 1427 283c 9327 883c 24c1 c5bb 9060 173d
000001a0: 4891 14bd 4c1e 103d f6bd e83a 7734 133d
000001b0: 068e 25bd 4a8f 283a a587 9abc 2089 56bc
000001c0: eb28 0fbd 6588 17bd 988e febc 7a39 1abd
000001d0: c8b4 483c 1524 803c 80e2 27bd 8f48 70bc
000001e0: 43f6 13bd 50b3 063c 3834 1c3d 1b61 6fbc
000001f0: e73a 103d 67dd c83c 7957 09bd a4f3 17bc
00000200: 92e4 9d3b a873 a2bc 2105 1e3d 79a2 8ebc
00000210: 429a 273d 2fc8 ab3c 050f 0a3d c405 d9bb
00000220: 7283 d7bc 77cb 203d 098e c7bc b650 acbb
00000230: 67e9 08bd 99c4 cd3b 6569 543a ae13 263d
00000240: b79c f43c bd73 6fbc 71f0 e13c f04c efbc
00000250: 9385 943b 53e1 423b a233 ecbc 95e6 263d
00000260: 68f2 f4bb 44b1 bc3c 7a3f 193d 36d4 80bc
00000270: aada c4bb fcd7 91bc 004e 15bd 5a78 d53b
00000280: c8f9 9c3c 03e3 663c 5c84 ea3b 8908 b03c
00000290: 907b 56bb 0b4b e3bc 67c4 b6bc a186 fe3c
000002a0: 7687 10bd 92b3 26bc 5fa4 8dbc 8130 f33c
000002b0: 25fa 06bd f606 533c 5373 55bb da78 95bc
000002c0: 2565 d33a f092 093d 4cd8 23bd 27c7 5abc
000002d0: 17e5 87bc 315b 213c 5f2b e5bb ba22 ae3b
000002e0: f011 e639 56f2 253d bae8 66bc 9ad9 0d3d
000002f0: b793 23bd 37b1 393c 49f3 073d ce94 b33c
00000300: 78eb d7bc 164d f03c 4f75 03bd a50e cbbc
00000310: e3c2 a53c c401 da3c 545a a23a 656a ddbc
00000320: 16eb 8a3c b1b5 b33c 4a92 903c 54c8 803a
00000330: 1351 c2bc ec75 36bc 1137 1b3d d950 04bd
00000340: d239 8eba 92f1 763c 4020 943c 8190 193d
00000350: 2c15 9ebb 8246 e9bc 1b19 e0bc 4fc6 24bd
00000360: edc3 39bc 03f3 77bc a9e3 033d aa9d 9e3c
00000370: 4d2b 05bc e82a 8dbb ab96 8cbc df1a b8bb
00000380: 604d 3f3b 064e 143c fbb6 21bd 0224 07bd
00000390: 1b11 01bd ce31 52bc ee04 3abb 08ed d13c
000003a0: 0c0a 993c 72b6 393c 60a5 b03c e7ff d73b
000003b0: 35fd d63c daa7 45bc a027 5a3c 6107 1f3c
000003c0: 4bc1 9dbc f4c2 d6b9 52f9 843c a7a9 02bd
000003d0: ae09 1ebc 889a 1abd db8c 9cbb 5e1c 1cbd
000003e0: 7546 fdbc 8d6c 593c 1f22 223d b4ba 1e3d
000003f0: a573 2b3c 628c 933c 2306 03bc 80c8 a6bb
0.040607423 0.030303739 -7.292239e-05 0.022178221 0.0011115952 0.018475527 0.0024938686 0.028733395
0.027813064 0.029709276 0.009729636 -0.034863655 -0.03352244 -0.0064674956 -0.028953897 0.023013135
-0.010739067 0.004620882 -0.039068464 0.037276316 -0.010711818 0.02579514 -0.03461197 -0.007553307
0.020391112 -0.025321022 -0.022143386 -0.0028351275 0.021636399 0.009961812 -0.03320087 0.005671623
-0.009047148 -0.036386516 -0.01948544 -0.023369556 0.024233865 0.009365193 -0.0057223667 0.026245903
-0.026227206 -0.0060573295 -0.003300047 0.03846414 -0.002539009 -0.03145218 -0.006432268 -0.011519899
0.025793524 -0.0073855766 -0.03967381 -0.03354818 0.014860784 -0.0214746 0.0059342626 -0.035838228
0.03690015 0.031990547 -0.031121956 -0.01699257 -0.0045491788 -0.02331488 -0.03305207 0.031421825
-0.0022660843 -0.011293122 -0.008942221 -0.027182618 0.009197499 -0.0051723155 0.011248797 -0.0047009247
-0.037509043 0.030936118 0.016611522 -0.030496834 -0.02083122 -0.032758355 -0.010166564 0.03741771
0.0028724566 0.011366595 -0.01102511 0.0009761919 0.018011412 0.0179707 0.034933913 -0.0132358195
0.004043399 0.016920196 0.015718305 -0.023346353 -0.021643683 -0.021408273 -0.010517347 -0.035352543
-0.03442945 -0.004151524 0.006605511 -0.011456027 0.010263223 0.016620433 -0.006034987 0.036957324
-0.036271363 0.035185143 0.0017756808 0.035938706 -0.040418647 0.0006430043 -0.018863508 -0.013094217
-0.03495113 -0.03699531 -0.031073853 -0.03765247 0.012250133 0.015642205 -0.04098749 -0.014665737
-0.036123525 0.008221462 0.038135737 -0.014610554 0.035212424 0.024519635 -0.033530686 -0.009274397
0.0048185075 -0.01983054 0.03857911 -0.017411457 0.040918596 0.020969478 0.03370573 -0.006623002
-0.026307795 0.03925654 -0.02435972 -0.005258645 -0.033425715 0.00627954 0.0008102863 0.04054611
0.029859884 -0.0146149965 0.027580472 -0.029211491 0.004532525 0.0029736354 -0.028833214 0.040747244
-0.007475186 0.023033746 0.03741405 -0.01572619 -0.006007512 -0.017803185 -0.03645134 0.006514591
0.019162074 0.01409221 0.0071568917 0.021488445 -0.0032727458 -0.027745744 -0.022310449 0.031070055
-0.035285436 -0.010174649 -0.017290292 0.029686214 -0.0329534 0.012880078 -0.003256996 -0.018246103
0.0016128166 0.033587396 -0.0400012 -0.013353146 -0.01658873 0.009848402 -0.0069936956 0.0053141983
0.00043882383 0.040514313 -0.014093572 0.03463135 -0.039935794 0.011333755 0.033191 0.021921542
-0.026357397 0.029333632 -0.032094296 -0.024787256 0.02023453 0.02661217 0.0012386539 -0.027028272
0.0169578 0.021937223 0.017647881 0.0009825327 -0.0237203 -0.011136513 0.037894312 -0.032303665
-0.0010850972 0.015072243 0.018081784 0.037491325 -0.004824301 -0.028476004 -0.027355721 -0.040228184
-0.011338216 -0.015133622 0.032199536 0.01936229 -0.0081279995 -0.0043080933 -0.017161688 -0.0056184377
0.0029190406 0.009051805 -0.039481144 -0.032993324 -0.031510454 -0.012829257 -0.0028384286 0.02562572
0.018681549 0.011335002 0.021563232 0.0065917852 0.026243785 -0.012063945 0.013315111 0.009706349
-0.019257208 -0.00040962512 0.016232166 -0.031900074 -0.0096458625 -0.03774503 -0.0047775335 -0.03811299
-0.030917386 0.013270509 0.03958332 0.038752273 0.0104645835 0.018011276 -0.007997069 -0.0050898194

bias f4 [24]
00000000: f472 b6bc dbc7 d7bc 6314 5f3b 5618 943c
00000010: 47a2 be3c a2a5 9d3c b57f 223c 160f f93c
00000020: 5c89 063c 7adc 15bd 9b76 0b3d 4bdd d9bc
00000030: fd32 16bc 7d5b 1abd 17e4 a0bb 213d 19bc
00000040: 7044 f1bc 57cd 12bc 3214 84bc 5d1f d5bb
00000050: 8e9f c3bc 7fb7 0a3d 8263 733c 259d 0f3d
-0.02227161 -0.026340416 0.003403925 0.01807801 0.02327074 0.019244019 0.009918143 0.030402701
0.00821146 -0.036587216 0.034048658 -0.026594779 -0.00916743 -0.037684906 -0.004910003 -0.009352953
-0.029451579 -0.00896009 -0.016122911 -0.006503983 -0.023879793 0.0338664 0.0148552675 0.035061974

weight f4 [24]
00000000: d206 803f a711 803f 9a03 803f 0d00 803f
00000010: 1a0e 803f 2702 803f 550a 803f f324 803f
00000020: d104 803f 9004 803f e502 803f 5812 803f
00000030: dd07 803f 380b 803f 4205 803f 9a0a 803f
00000040: 0907 803f 0d00 803f b511 803f 6106 803f
00000050: 7b02 803f 2519 803f dc02 803f 7f08 803f
1.0002081 1.0005387 1.0001099 1.0000015 1.0004303 1.0000657 1.0003153 1.0011276
1.000147 1.0001392 1.0000883 1.0005598 1.00024 1.0003424 1.0001605 1.0003235
1.0002147 1.0000015 1.0005404 1.0001947 1.0000757 1.0007674 1.0000873 1.0002593

bias f4 [24]
00000000: 27cb 2a3b e04a 123b 375b e23a 29d7 a53a
00000010: d2f2 1e3b f723 e33a bb13 ff3a a0d8 203b
00000020: 5ce0 e13a c197 9b3a 6c6a b83a 6e47 373b
00000030: d775 243b 3e6c 2e3b 2754 da3a d273 0c3b
00000040: 9c2f cc3a 5c3e a13a 68fc 243b 9d45 1f3b
00000050: 60bb c83a 3aa2 2b3b a0b5 af3a e1f0 f93a
0.002606103 0.002232246 0.0017269616 0.0012652624 0.002425362 0.0017329444 0.0019460836 0.002454318
0.0017233002 0.0011870788 0.0014069802 0.002796616 0.0025094652 0.002661481 0.001665716 0.002143134
0.0015578154 0.001230191 0.002517486 0.0024302967 0.0015314631 0.0026189224 0.0013405569 0.001906898

running_mean f4 [24]
00000000: ef58 3e3e 2ae6 e63d 4efa 38bf f442 413e
00000010: 2bea 993e 87bb fbbd c037 963e 1571 8d3e
00000020: 9a73 34be 2f2c 993c 6115 a6be 1f21 1cbc
00000030: 57f9 92be 3324 973e a6f0 413c 2011 f93e
00000040: 29f0 873e 97e1 eabd 1980 053e a4cb 6fbe
00000050: 692c 5dbe 70d4 eabb 7127 1c3e 7be6 6ebe
0.18588613 0.11274369 -0.72256935 0.18873197 0.30061468 -0.122916274 0.2933941 0.27625337
-0.17622223 0.018697826 -0.32438186 -0.009529381 -0.28705856 0.29519805 0.01183716 0.48645878
0.26550415 -0.11468809 0.13037147 -0.23417526 -0.21598972 -0.007166438 0.1524942 -0.23330109

running_var f4 [24]
00000000: 81c6 c73d f367 073e 6441 163e 7407 2b3e
00000010: 3f60 223e 9a88 633e f226 4f3e d368 913e
00000020: 3692 163e 6bd7 2f3e a117 2e3e 966c 303e
00000030: 7050 043e d384 273e 97f2 873d 4225 f03d
00000040: 8c07 ee3d b7ab b43d 5c85 123e ce79 dc3d
00000050: 830e c33d 4d0e e83d 8586 9c3d d42a c73d
0.097546585 0.13223247 0.14673382 0.16702062 0.15857027 0.22220078 0.202297 0.28400287
0.14704213 0.17172019 0.17001201 0.17228922 0.1292131 0.16359262 0.06638067 0.11725856
0.11622533 0.088218145 0.14308685 0.1076542 0.09524252 0.11330853 0.07642845 0.09724966

weight f4 [6, 16224]
00000000: 7413 a73b c3a1 403b 1fe4 94bb cd76 aaba
00000010: 15cf f73b 2175 e83b b1ab d6bb 16ff cebb
00000020: 50bf 5c3a 6bb4 873b a1f7 ae3b 506c 063c
00000030: 4573 68bb 1be9 863a dfdb ff3b 7ce2 3239
00000040: c2c1 c0bb d5f1 073c bd26 4fbb 8d4d 01bb
00000050: ee57 0b3c 9f57 1dba 4847 a4bb 6932 ce3a
00000060: 84e6 63bb 3981 613b 33a5 72ba adcd b93a
00000070: 9851 e8bb bdfe 903b e7b0 a3ba 1db1 c03b
00000080: 085a 32bb c4de f9bb 534c 81ba 0392 54ba
00000090: 0660 a13b 9bf2 a93b f1a7 42bb 6c88 6539
000000a0: 45ad 813b c820 163b 0c73 b8b9 556d d6b9
000000b0: 8270 c9bb e52f d53b b6a9 a83a 08f7 05bb
000000c0: 3437 403b d91a b5bb c953 283a f918 04ba
000000d0: 7410 0dba 5b5d 2e3b 49a9 df3a 508f b83b
000000e0: 6d21 a8bb 80bd d8bb c739 2a39 e8d8 afbb
000000f0: 64d4 85bb 7333 6e3a 063e 4b3b db05 553a
00000100: 6a5b 2e3b 144a 04bb 9735 7a3b 3839 533b
00000110: 2c64 28bb b3b4 ffba e901 d9bb 9cb3 d8ba
00000120: 15cf d239 6300 e0bb 5efa 4cbb 797e a9bb
00000130: 8a3f 98bb e6e0 123b 2f4e a7bb a3b5 773b
00000140: 9982 baba 8e33 85bb c56c 01bb 96da a83b
00000150: a627 1039 ed9c 703b eafa f33b 9fdc aebb
00000160: 9c51 75ba 681d 983b 4167 44bb 56aa 643b
00000170: 973a e4bb 34fc 4b3b c01f 7cba 2080 57ba
00000180: 2e32 dcbb 450e b93b 46d8 e8ba bff7 c4bb
00000190: 9786 983b f8ca cb3b f5b5 7a3a d063 fcba
000001a0: e898 a73b 8ad5 883b 9589 ed39 2313 e73b
000001b0: 2ee6 493b 1c5b cdb7 493c adbb 08b1 6d39
000001c0: 8a3b 0939 3c08 193b 57f9 3d3b cb83 d43b
000001d0: ecc0 be3a 7da3 d0ba 8ba4 cc3b 972e 32bb
000001e0: ec90 6e3b 5f3d adba 8c59 e9ba cae6 8abb
000001f0: c516 9f3b 8220 0dbb 367b 073b 123f 5b3a
00000200: 5fca 8fbb d703 18bb 6968 c2bb 83a9 503b
00000210: a37e 763b b0d6 ef3a d515 90bb 2e67 dfba
00000220: 17fc 453b afcc a73a fa6f 4b3a c85d c0ba
00000230: c1c9 cc3b 38d3 55bb 2b25 f43b 06b5 fabb
00000240: a19a c43b 0f77 8aba 5097 a33b acd7 70bb
00000250: 21d2 dd3b b0fe d0bb df49 00bc 2d73 a33b
00000260: aaaf b4ba 718c 8e3b 2946 edbb 19d6 16ba
00000270: bb1a 97bb a3fa 443b 62e9 943b 5d96 80ba
00000280: 4705 a13b 73d9 06bc 1701 dbbb bba7 dabb
00000290: ab3f 8b3a 42a9 af3b 8b82 ba3b 8958 76bb
000002a0: 25fe f13b 8c1b c8bb b9b5 c6bb d8f0 6a3a
000002b0: eea9 e93b 21ed d538 a809 d73a 2709 db3a
000002c0: 0a2c ca39 9a29 203b f00b 9dbb ce8a 28bb
000002d0: 7d27 d23b af0e d7bb 1d18 cb39 4d90 84bb
000002e0: 7fcf 94bb 214c 723b fe9e 45bb 820e 3bba
000002f0: 063a 98bb 128c f7bb 1e89 d13b 6bd4 2ebb
00000300: e50a fcba 0aca f4ba 06ec e0ba 8d8b bfba
00000310: ea7c 9e3b 5a95 de39 3f47 a03b 311d e6bb
00000320: 0a81 653b 1ec8 9abb 6ab7 5d3a 1a5c d43b
00000330: 9155 ac3a 896c be3a 49b5 52ba e2a6 e53a
00000340: 760e 1d3b cd59 b6b8 c723 e439 2c40 f4ba
00000350: 51aa a73b d04c 81bb e8ed 803b a23b c33a
00000360: 8f5c 34ba 0c2b e9ba 5cc4 5c37 d005 ba3b
00000370: be9e fbbb 23ee bd3a 61e5 8c3b 03ed c83b
00000380: df6d e0bb 33fa c53b 3da3 9abb fda7 aaba
00000390: b270 e8bb f4e4 9e3b a3e5 f6bb 484d f3bb
000003a0: ad9f a6bb 06ad 8339 ffca c63b 8332 d23b
000003b0: e803 05bc b2b3 bd3b 37ad 0db9 3427 70ba
000003c0: 743b a6ba 57df a5b9 7aad 8bba c3ce 473b
000003d0: 240f 0e3b c3b4 29ba 4fcf 80bb 1b28 99bb
000003e0: 2222 d23b 9d8e aabb 1459 bfba bed2 adbb
000003f0: 82d3 a0ba 6efa beba 1893 2d38 e5cb 27bb
0.0050987545 0.0029393292 -0.0045437957 -0.0013005376 0.007562528 0.007094041 -0.006551229 -0.0063170297
0.0008420842 0.0041413805 0.0053395783 0.008204535 -0.0035469097 0.001029286 0.007808193 0.00017059775
-0.0058824727 0.008297403 -0.0031608783 -0.0019730062 0.008504851 -0.0006002131 -0.00501338 0.0015731576
-0.003477485 0.0034409298 -0.0009256184 0.0014175676 -0.007089805 0.0044248984 -0.0012488634 0.0058804885
-0.0027214307 -0.0076254327 -0.0009864665 -0.00081089156 0.004924777 0.0051863915 -0.0029702152 0.00021889963
0.003957423 0.0022907723 -0.0003518093 -0.0004089872 -0.006147445 0.0065059536 0.0012867961 -0.0020441432
0.0029329779 -0.005526882 0.00064211764 -0.00050391216 -0.0005381175 0.0026605937 0.0017064001 0.0056323186
-0.005130938 -0.006614387 0.00016233987 -0.0053664334 -0.004084157 0.0009086646 0.003101231 0.00081261777
0.002660478 -0.0020185756 0.0038178915 0.003223015 -0.0025694473 -0.0019508809 -0.006622542 -0.001653302
0.0004020861 -0.0068359836 -0.003127716 -0.0051725474 -0.0046462463 0.0022411882 -0.0051057558 0.0037797473
-0.0014229595 -0.0040649837 -0.001974867 0.0051530106 0.0001374768 0.0036714629 0.007445683 -0.0053363587
-0.0009358169 0.0046421774 -0.002996877 0.0034891567 -0.0069649923 0.0031125667 -0.0009617768 -0.0008220691
-0.006719849 0.005647453 -0.001776465 -0.006010979 0.0046547162 0.006219264 0.0009563857 -0.0019255821
0.0051146634 0.0041758465 0.0004530667 0.007051842 0.0030807364 -2.448033e-05 -0.0052867276 0.0002266803
0.00013087518 0.0023350855 0.002898773 0.0064854375 0.0014553345 -0.0015917864 0.006245201 -0.0027188414
0.0036402298 -0.0013217143 -0.0017803176 -0.004238938 0.0048550093 -0.0021534269 0.0020672805 0.0008363585
-0.004388138 -0.0023195648 -0.005932857 0.0031839318 0.0037612102 0.0018298235 -0.004397134 -0.00170443
0.0030210072 0.0012802089 0.0007760521 -0.0014676386 0.006249637 -0.0032627117 0.00745072 -0.007650974
0.0059998785 -0.0010564047 0.004992403 -0.0036749644 0.006769434 -0.0063780174 -0.007830112 0.0049880953
-0.0013785262 0.004350238 -0.0072410298 -0.0005753949 -0.004611341 0.0030056618 0.004544423 -0.0009810437
0.004913959 -0.008230555 -0.0066834795 -0.006672827 0.0010623833 0.0053607533 0.0056918315 -0.0037589392
0.0073850327 -0.0061067995 -0.0060641435 0.000896228 0.007130853 0.000102008 0.0016406076 0.0016711102
0.00038561254 0.002443886 -0.004792683 -0.00257175 0.006413399 -0.0065630297 0.00038737143 -0.0040455223
-0.004541337 0.0036971646 -0.0030154581 -0.0007135646 -0.004645589 -0.0075545395 0.0063945195 -0.0026676904
-0.0019229321 -0.0018675935 -0.0017160184 -0.0014613733 0.0048366683 0.00042454415 0.0048913057 -0.007022523
0.003501954 -0.004723563 0.0008457812 0.006480706 0.0013148059 0.0014528196 -0.0008037878 0.0017521048
0.0023964918 -8.695163e-05 0.00043514205 -0.0018634847 0.005116739 -0.0039459243 0.0039346106 0.0014895091
-0.00068802474 -0.0017789318 1.315874e-05 0.0056769624 -0.0076788357 0.0014490526 0.004299805 0.0061317696
-0.006849035 0.006041789 -0.0047191666 -0.0013020035 -0.0070935125 0.0048490707 -0.007534699 -0.007424984
-0.005084953 0.0002511518 0.0060666795 0.006414713 -0.008118607 0.0057892436 -0.00013511335 -0.0009161115
-0.0012682513 -0.00031637654 -0.0010656558 0.003048823 0.0021676505 -0.0006473774 -0.003930963 -0.0046739704
0.0064127604 -0.005204989 -0.0014598691 -0.0053046634 -0.0012270065 -0.0014570483 4.1383406e-05 -0.0025603708

bias f4 [6]
00000000: 198e dabb f22d 0f3b 3e10 3cbb 7ce2 1a3b
00000010: 51e1 f93a c17c ad3b
-0.0066697714 0.0021847454 -0.0028696205 0.002363353 0.0019064342 0.005294413
