models/Demo/LOGS/models/nnet_epoch_7.pt (torch, 765962 bytes, 26 tensors)

weight f4 [12, 3, 5, 5]
000000 3b 81 a3 3d b4 ad de 3d 52 08 cc 3b ac 68 dd bc
       0.07983633 0.10872975 0.006226578 -0.02702745
000010 68 a5 f9 bb d7 c1 25 3a fb 6e 5d bd 4a b4 e1 3c
       -0.007618595 0.0006323135 -0.054060917 0.027551789
000020 0b 1a a9 3d 83 ad d7 3d b3 6b 96 bd 67 46 f2 bc
       0.082569204 0.105311416 -0.07344761 -0.029574586
000030 86 e3 57 3d 56 48 c8 3d 3f 60 18 3d 0c e6 2c 3d
       0.052707218 0.09779422 0.037201162 0.042211577
000040 b9 5a 96 bd ef 2b 21 3d c8 c5 c2 3d c5 ed 92 bd
       -0.07341523 0.03934854 0.0951038 -0.07174257
000050 d3 ea 88 3b 36 9a c0 3d 0d 6f 9e 3c d7 da b9 bd
       0.004178384 0.094044134 0.019340063 -0.090749435
000060 9e 39 4c 3d 02 9e 2c bb 5f 46 a7 3d dc b6 d0 bd
       0.049859636 -0.0026339297 0.08167719 -0.10191128
000070 ed 93 b9 3d 3f b2 91 3d 77 2b 6d 3d 18 5b e3 bd
       0.09061418 0.07114076 0.05790278 -0.11101359
000080 ae 22 e9 bd 17 f9 fc bc 1d bb de 3d 76 25 34 bd
       -0.11383568 -0.030880494 0.10875533 -0.043981038
000090 0f 6d 6a 3d df f1 c8 3c a4 36 23 3d b2 c6 e3 bd
       0.057232913 0.024529396 0.03984703 -0.111218825
0000a0 8b 69 8f 3c fe 81 90 3d f0 aa 4d bd 4d d3 db bd
       0.017506381 0.07056044 -0.050211847 -0.10733662
0000b0 a3 72 66 bd a3 1a 91 bd 2c 62 60 bd 95 73 ea bd
       -0.05626167 -0.07085159 -0.054781124 -0.11447827
0000c0 f4 0b 58 bd 16 c8 3e bd e4 9e 36 3d 49 dd 0d bd
       -0.052745774 -0.046577536 0.044585124 -0.034634862
0000d0 45 8a e1 bd 03 af 91 bd 4b c6 bf 3c 7b b4 23 3d
       -0.11012701 -0.07113459 0.023409983 0.03996704
0000e0 30 f1 52 bd ca 5d 82 3c 0e f5 9f bd d4 7a 2a 3d
       -0.051499546 0.015913863 -0.07810412 0.041621044
0000f0 b3 ac b1 3d 53 41 96 3d 44 50 13 bb a1 2d 02 bb
       0.08675518 0.07336678 -0.0022478262 -0.0019863623
000100 52 08 ff bb 50 34 2c 3d d1 6b d0 bd 42 1a 51 3d
       -0.0077829743 0.042042077 -0.10176814 0.051050432
000110 cb 20 04 3d 56 0a e0 3d b0 1e 58 bd 7d 75 90 3d
       0.032257836 0.109394714 -0.05276364 0.07053659
000120 f0 db 99 bc 96 ff c4 3d 29 33 66 3d 33 60 8b 3b
       -0.018781632 0.09619062 0.056201134 0.004253411
000130 5a be f6 3c 64 39 c2 3d 8d 27 ac bd 12 76 e4 bb
       0.030120064 0.09483603 -0.08405981 -0.006972083
000140 2c 47 62 bc 45 94 c2 bd d1 94 57 bd 12 fd ab 3b
       -0.013810914 -0.095009364 -0.052632157 0.005248674
000150 fb 22 9b 3d db 1f 8f 3c 17 30 cb 3c 8f 0a c6 3d
       0.07575031 0.017471245 0.024803204 0.09669983
000160 a9 5a 05 bd 78 62 d6 3d 36 74 03 bd 03 43 4a bd
       -0.032557163 0.10468 -0.03209325 -0.049380314
000170 71 c3 6b bc 1c 61 3e bd e6 0d 83 bd cc 7f 89 bd
       -0.014389859 -0.04647933 -0.06399135 -0.067138284
000180 68 88 b4 3d 27 68 35 3d fa c5 be bd d2 1f df bc
       0.0881508 0.04428878 -0.09315105 -0.027236853
000190 65 9d 58 3d 81 e8 b7 3b 96 d8 a2 3d 6a a7 8f 3d
       0.052884478 0.0056124334 0.07951467 0.070143536
0001a0 a6 31 84 bc 5d 3c e0 bd 1c 87 e3 3d d5 77 e8 3b
       -0.016136955 -0.109490134 0.111097544 0.007094363
0001b0 d7 ee a0 bd 70 f5 4e 3d 8b 9f 51 3d 14 d6 a6 3d
       -0.07858055 0.050527036 0.051177543 0.08146301
0001c0 cd 23 89 3d 9e 7d d6 3d 0d 2e 2d ba 09 b2 ea 3d
       0.066962816 0.10473178 -0.00066062884 0.11459739
0001d0 09 97 67 bd bd 75 e7 3d 27 23 f1 3c 1d 1e e3 3d
       -0.056540523 0.11301754 0.029435707 0.11089728
0001e0 1e 0d 8c bd ef 92 a4 3d 76 ec 55 3d f8 e3 de bd
       -0.068384394 0.08035838 0.05222746 -0.10883325
0001f0 5a e3 f0 bb 73 e8 f4 bc 00 3e 94 3c 33 16 a2 3d
       -0.007351321 -0.029895997 0.01809597 0.079143904
000200 d3 d8 c2 bd 8f 7a cb 3d 44 94 04 3d b9 7e 54 3d
       -0.09514012 0.099354856 0.03236796 0.051878665
000210 e8 6d e8 bd dc 75 f4 3c d3 b7 92 bc 00 cc f3 bc
       -0.11349088 0.029841356 -0.01790992 -0.02976036
000220 cc 07 26 3c 39 a7 61 3d 3e 21 5d 3d c8 d1 38 bd
       0.010133695 0.055091117 0.05398678 -0.045121938
000230 42 42 b5 bd ef 8f 62 bd f0 1d ef 3c dd 2b 88 3d
       -0.08850528 -0.055313047 0.02918908 0.06648991
000240 99 51 96 bc 25 86 c1 bd c3 e1 31 3d d3 e0 ac 3d
       -0.018349456 -0.09449414 0.043428194 0.08441319
000250 35 23 78 bc de 6a af bd e4 7a e3 bd 20 a2 f5 3b
       -0.015145113 -0.08565305 -0.11107424 0.0074961334
000260 56 ee dd 3c 59 d3 2b 3d cd 31 e1 bb 01 7a 74 bd
       0.027091186 0.041949604 -0.006872392 -0.059686664
000270 52 07 9a 3d 1a b6 3a bd 7a 3e 8b 3d 64 e1 82 3d
       0.075209275 -0.04558382 0.06799026 0.06390646
000280 95 6c 84 3d 4f 88 31 3d 47 97 e9 3d 5f e6 26 3d
       0.06466023 0.043342885 0.11405807 0.040747043
000290 8f 02 a5 3d 0a 9b 15 3d b8 cc a4 bd b1 38 37 bd
       0.08057129 0.03652481 -0.080468595 -0.0447318
0002a0 27 a7 a9 3d 17 9c e7 bd 03 5b b4 bd c1 67 22 3c
       0.08283835 -0.11309069 -0.088064216 0.009912432
0002b0 30 58 bd 3d 0e e3 10 3d 72 08 a6 3d 15 80 c0 bd
       0.09245336 0.035372786 0.081070796 -0.0939943
0002c0 13 2f 6f 3d 46 06 8e bc f0 c7 7d 3d 95 a1 27 bd
       0.058394503 -0.017336976 0.061958253 -0.04092558
0002d0 8f 13 b7 bc f4 66 2e 3d 98 4a 92 bd 2e e1 c1 bd
       -0.022348193 0.042578653 -0.07143134 -0.09466778
0002e0 a0 c2 8c 3d f5 d7 8b 3d 24 23 a6 3c 9c 10 e2 3d
       0.06873059 0.068283 0.020280428 0.11038324
0002f0 eb 9d ec bc 05 ae 2a 3b 4c f3 68 bd fe 4f ae 3d
       -0.028883895 0.0026043665 -0.05687265 0.08511351
000300 4e 75 86 bc f5 b7 58 3d 14 f6 8c 3c 82 dd 9d 3d
       -0.016413357 0.05290981 0.017207183 0.07708265
000310 78 c7 e7 3d 4b 75 b0 3c d2 ce a7 bd 35 54 8c 3d
       0.113173425 0.021540305 -0.08193745 0.06851999
000320 c5 07 a7 3d c1 b3 c8 bd 74 01 ca bc 2c 3e 1e bd
       0.08155779 -0.0979991 -0.024658896 -0.03863351
000330 da 0b 2e 3d ef d4 2a 3d fa 36 b6 bd 4e c0 98 bc
       0.04249177 0.041706976 -0.08897205 -0.018646386
000340 fb 26 32 bd b4 ee 8f 3c b9 8f 9f 3d ba 66 d0 bd
       -0.043494206 0.017569877 0.07791085 -0.101758435
000350 29 66 d5 3a 71 a3 4e 3d 30 f2 55 bd 1c 70 3a bd
       0.0016281056 0.05044884 -0.05223292 -0.045517072
000360 d7 7f b5 3d 60 35 d0 bd 61 c0 2e 3d e8 28 a2 3d
       0.08862274 -0.101664305 0.042663936 0.079179585
000370 54 ee 80 3d 4d b0 19 bd 1c 42 aa bd f6 b7 1c bd
       0.062954575 -0.03752165 -0.083133906 -0.038261376
000380 81 7f b7 bd b2 8f b4 bc 33 46 39 3d 4b 0c 78 3c
       -0.08959866 -0.022041176 0.045232963 0.01513965
000390 5d 9b 5e bd 19 75 d6 bc 32 f5 e1 3d bf 4a 5a 3d
       -0.054347385 -0.026178883 0.110330954 0.05329394
0003a0 c6 d1 5a 3d 71 ec 2e bd b6 6a 8e bd 86 93 9d bc
       0.05342271 -0.042705957 -0.06953947 -0.019235384
0003b0 f4 6a 71 3d 43 ab df 3d 1a 32 56 bd 8a 8d d6 3b
       0.05893989 0.109213375 -0.052293874 0.0065476345
0003c0 fa 17 39 3b d1 ec 5d 3d 53 ca 18 3d a5 f6 c7 3a
       0.002824305 0.054180924 0.037302326 0.0015256001
0003d0 45 42 aa bd 8b 0f 3c bc 67 f5 94 3d 32 60 4f 3d
       -0.08313421 -0.011478315 0.07273369 0.05062885
0003e0 77 44 8c bc df 61 c9 3d 32 77 97 3c 45 2a e7 3d
       -0.01712249 0.098331206 0.018489454 0.11287359
0003f0 3f 2e 22 bd 11 cc 88 3c 3d cb cb bc 7c 7a 2d bd
       -0.039594885 0.016698869 -0.024877185 -0.04235314

bias f4 [12]
000000 a5 14 80 3c 96 d5 88 bd fa c6 d2 3c 4f c8 11 bd
       0.015634844 -0.06681363 0.025729645 -0.03559142
000010 7a 7d 9c 3d f8 4d af bd 19 fa 55 3d 61 32 af 3d
       0.0764112 -0.08559793 0.052240465 0.08554531
000020 f2 42 3c 3c 84 bd a9 3d 4f 43 8f bd 4e a8 18 3d
       0.01149057 0.082881 -0.0699526 0.037269883

weight f4 [12]
000000 07 00 80 3f 3e fd 7f 3f f1 fb 7f 3f f6 fe 7f 3f
       1.0000008 0.9999579 0.9999381 0.99998415
000010 90 ff 7f 3f 00 00 80 3f 0d 00 80 3f 04 00 80 3f
       0.9999933 1.0 1.0000015 1.0000005
000020 02 00 80 3f 16 00 80 3f 15 00 80 3f 08 00 80 3f
       1.0000002 1.0000026 1.0000025 1.000001

bias f4 [12]
000000 b3 15 3e 38 c3 77 de b6 5d 09 52 b8 83 ff 5d 38
       4.531974e-05 -6.6300577e-06 -5.0076622e-05 5.292847e-05
000010 12 ee d0 b7 df 31 75 b6 3f cc 5f b8 f4 a7 ae 37
       -2.4906392e-05 -3.6536874e-06 -5.3357562e-05 2.0820626e-05
000020 b5 38 0a 38 3b 98 ca b6 ab 19 bf 37 75 ea 5b b8
       3.2954576e-05 -6.037791e-06 2.2780927e-05 -5.2432024e-05

running_mean f4 [12]
000000 e5 f7 f9 3d 25 ad 0f 3e 3f 2f 43 3e b2 40 d3 3a
       0.12205485 0.14030893 0.19060992 0.0016117303
000010 e4 46 8b bd b0 ce 83 be 98 4f d5 3e ea 83 c3 3e
       -0.06800631 -0.25743628 0.41662288 0.3818658
000020 ca 28 09 be e1 ad ea 3d cf db ab bc 01 bf 05 3e
       -0.13394466 0.11458946 -0.020978836 0.13061143

running_var f4 [12]
000000 a0 0a 00 3c 44 43 ee 3c ad 79 8b 3c 66 b2 a7 3b
       0.007815033 0.02908481 0.017025793 0.0051177023
000010 99 91 83 3c 64 f3 9b 3c e4 82 ab 3d b8 5b 66 3d
       0.016060637 0.019036956 0.08374575 0.056239814
000020 74 51 8d 3c 2a 35 6c 3b a7 e8 cf 3b 70 ea 31 3c
       0.017250754 0.003604243 0.006344873 0.010859117

weight f4 [12, 12, 5, 5]
000000 93 cd 49 bd 84 a5 1b 3d 48 71 64 3d 6e d0 80 3c
       -0.049268316 0.037999645 0.055772096 0.015724387
000010 1f 37 52 3d a2 86 43 bd fd cb 21 3c f4 27 bc 3c
       0.0513221 -0.047735818 0.009875295 0.02296827
000020 21 55 51 bd c0 b7 64 bd 8f 6c 0b bd a0 19 4b 3d
       -0.051106576 -0.0558393 -0.034039076 0.049584985
000030 10 e5 46 bc e3 47 29 3d 79 2f 93 bb fe b8 df 3b
       -0.012139574 0.041328322 -0.004491743 0.0068274727
000040 d6 bd ad 3c 63 b8 35 bd 35 2c 3f 3d d5 af 94 bc
       0.021208685 -0.044365298 0.04667302 -0.01815025
000050 db e9 be bb b0 c6 70 bc 4f 30 76 3a 2d e6 54 bc
       -0.0058262176 -0.014695808 0.0009391354 -0.012994331
000060 63 17 5c bc 1a f0 58 3b 92 f5 15 3d 09 9b 31 3c
       -0.01343331 0.0033102096 0.036611147 0.010840186
000070 b4 48 48 bd e5 34 83 3c 4a 9c 5a bd 7b 96 26 3b
       -0.04889746 0.016016433 -0.053371705 0.0025419283
000080 58 dd a8 bc 86 7f c9 3c 92 6d 07 bb 99 fb 53 3d
       -0.020613357 0.02459694 -0.0020664674 0.051753614
000090 ce 84 e2 3c 39 79 58 bb 35 48 ef 3b 1d d7 67 3d
       0.027651217 -0.0033031239 0.007302309 0.056601632
0000a0 82 1f b7 3a 4a 08 11 3d 69 30 f0 bb cf a1 57 3c
       0.0013971182 0.035408296 -0.0073299897 0.013161137
0000b0 70 86 5d 3b 8f 48 15 bd 08 cf 61 bd 44 23 53 bd
       0.0033802055 -0.03644615 -0.05512908 -0.051547304
0000c0 ea 94 60 3d 56 8f 65 bd f9 7c 96 bc 2d 93 cd b8
       0.054829516 -0.0560449 -0.018370138 -9.8025754e-05
0000d0 6b 24 6b bd 6b c3 f3 3b 98 09 9a 3c 11 2e 5e bc
       -0.057407778 0.007439067 0.018803403 -0.013560788
0000e0 ed 5e 00 bd e4 5b 5f 3d 5e d6 20 bc 2c 0c 15 bc
       -0.03134053 0.054530993 -0.009816734 -0.00909714
0000f0 b0 38 a2 bc 7a 1c b3 bc 05 48 2d 3d bc 1e ab bc
       -0.019802421 -0.021864165 0.04230501 -0.020888679
000100 dd 05 6f 3b e9 fa 51 3b 59 77 13 3d 8c f9 48 3d
       0.0036472 0.0032040423 0.03600249 0.04906611
000110 d6 59 80 3b 2b fe d1 3c 6d c2 84 bc 4b 29 c4 bc
       0.0039169593 0.025633892 -0.01620599 -0.023945471
000120 18 aa 09 3d 51 93 11 3d 9b 27 a0 bc 9a bc 6b bd
       0.03360948 0.035540882 -0.019550135 -0.05755291
000130 f8 98 fc 3c eb ea c8 3b cb bb 97 3c 76 fc a4 3b
       0.03083466 0.00613152 0.018522164 0.0050349785
000140 b2 23 7f bc ea b7 6a bd f9 05 7a bb 4e ad bc bb
       -0.015572475 -0.0573043 -0.0038150533 -0.005757964
000150 94 08 59 3d ce 39 67 bd 29 40 31 bd e3 d6 2d 3d
       0.052986696 -0.05645161 -0.04327408 0.04244126
000160 b8 34 3a 3d ac 12 af 3c 87 85 45 bd 65 9f 12 bd
       0.045460433 0.021371208 -0.048223045 -0.03579654
000170 4f 70 46 3d e6 34 20 bc 62 8f 29 3d b9 a1 cd bc
       0.04844695 -0.009778237 0.041396506 -0.02510153
000180 85 dd c8 3c 9b 78 ec 3c 42 fd 37 bd ff cb bf 3b
       0.024519691 0.028866103 -0.04491926 0.0058531757
000190 c4 7d 62 3d 5b c7 ca 3c 85 d2 41 3d 80 30 26 bd
       0.05529572 0.024753263 0.047319908 -0.040573597
0001a0 ee 3e 40 3c 1b 7c 12 bd a6 36 87 bb a2 52 7b bc
       0.011733754 -0.035762887 -0.0041263876 -0.015339525
0001b0 bb 93 51 3d 97 c9 40 bc 07 18 8a bb d7 92 6a bb
       0.051166277 -0.011766813 -0.00421429 -0.003579309
0001c0 59 91 03 3d f2 0e 1a 3d da 4c 15 3d 68 21 2c bd
       0.032121036 0.03761191 0.036450244 -0.042024046
0001d0 b7 6d 21 3d 8f d5 15 bd 6a ac 00 3d f1 ea 5c 3d
       0.039411273 -0.03658062 0.031414427 0.053934995
0001e0 c9 92 2c bc 7f 6b 46 bd 5f c4 71 bc 33 f5 4a 3d
       -0.010533043 -0.04844236 -0.014756291 0.049550246
0001f0 8f 25 da bc 0f 5f 4d bc b9 0d b2 3c 25 4d 2b bc
       -0.026629237 -0.012534871 0.02173506 -0.010455404
000200 c7 0c 05 3d 57 13 f1 bc 7a e5 14 3d 89 26 ba 3c
       0.03248289 -0.029428167 0.03635166 0.022723453
000210 59 75 2f bd 76 b7 f8 3b 9d ed 40 3c d1 28 39 bd
       -0.04283652 0.0075902296 0.011775401 -0.04520494
000220 54 9a 1b 3d a4 aa 4d bc 03 11 e2 bb d6 5d d8 3c
       0.037988976 -0.012552891 -0.0068990006 0.026411932
000230 10 ef 2b 3d 70 b0 fd 3c ac 07 a8 3c 80 93 34 bd
       0.041976035 0.030967921 0.02051147 -0.04408598
000240 c8 9c 92 bb 2b c0 8d bc 36 4b 54 3d 78 cc 18 bc
       -0.004474256 -0.017303547 0.05182954 -0.009326093
000250 15 8c c3 3c 22 47 93 3c 1d 16 2a 3d 55 98 49 bb
       0.023870507 0.017978255 0.041524995 -0.0030760963
000260 d0 52 90 bc 0d d0 b3 bc 66 43 36 3d b6 a3 4c 3d
       -0.017617613 -0.021949792 0.04449787 0.049960814
000270 9a d0 66 bd a7 a4 46 3d 4c 25 e9 3b 23 52 91 bc
       -0.05635128 0.04849687 0.007115042 -0.017739361
000280 ee d1 0e 3c 56 6b a4 3b 30 d6 d6 bc 58 5f 6a bd
       0.008717043 0.0050176783 -0.02622518 -0.057219833
000290 dc ee 1d bd f2 9b ee bc ba 80 c4 3c 94 e0 1c 3d
       -0.038557872 -0.029127095 0.023987163 0.038300112
0002a0 0c 93 19 3d 35 53 99 3c 35 79 2b 3c 5f fc 67 bc
       0.03749375 0.018716434 0.01046591 -0.014159291
0002b0 7f d6 38 bd 67 e0 54 bd 2f 61 5f bd 55 f7 f2 3c
       -0.045126434 -0.05197182 -0.05453604 0.029658953
0002c0 39 51 fb bc 3d 93 98 3c 58 72 13 bc 32 40 10 bc
       -0.030678378 0.018624896 -0.00899943 -0.008804368
0002d0 93 60 12 3d a5 f8 6a bc 49 f6 c5 3c 10 be 5d bd
       0.03573663 -0.014341508 0.02416529 -0.054136336
0002e0 09 ce 19 bd 77 cc 2a 3d 7c 57 67 bd 92 70 35 bd
       -0.037550006 0.0416989 -0.056479916 -0.04429681
0002f0 fd 63 55 3c 75 c4 ba bc e6 cb 3c 3d a5 f4 b8 bb
       0.013024327 -0.022798756 0.04609289 -0.0056443983
000300 22 a2 30 bd de 2a 34 3d 1a 7f 3d 3d e2 a8 68 3d
       -0.043123372 0.043986194 0.04626379 0.056801684
000310 79 65 bd 3c ee 84 3c 3d cb a5 75 bc 95 f5 32 3d
       0.023119675 0.04602521 -0.014993141 0.043691237
000320 2e d3 4a 3d 49 7c b0 3b e9 c7 3e 3d 56 12 30 3d
       0.049517803 0.0053859097 0.046577368 0.042986237
000330 b8 66 9f bc a1 56 e8 3a 63 64 aa bc 39 b0 42 bd
       -0.01945816 0.0017726013 -0.020799821 -0.04753134
000340 8c f3 94 bb d1 dd 48 bd ff 4f dc bc fa af 2b 3d
       -0.0045456346 -0.049039666 -0.026893614 0.04191587
000350 0a 7b 22 3d e7 29 df bc 3d ff 2b 3d 76 67 16 3d
       0.03966812 -0.02724166 0.04199146 0.03671976
000360 91 cd 72 3c 8f a1 1f 3d de 1b 5c bd f1 fc a3 bc
       0.014819519 0.038972434 -0.053737514 -0.020018073
000370 6c e2 3f bd 35 69 5f 3d c4 af 69 3d 79 39 dd bc
       -0.046846792 0.054543693 0.05705239 -0.027004944
000380 f3 a0 64 3c a3 2e 25 bd 76 c1 a6 3b 35 16 26 bc
       0.013954389 -0.04032768 0.0050889803 -0.0101371305
000390 21 f9 23 3c cb a8 5e 3d 5e 1a 20 3d 1a e0 69 bd
       0.010008127 0.054360192 0.039087646 -0.057098486
0003a0 e9 57 ea ba 78 b9 35 3d e0 f1 40 3d 19 4e 30 3c
       -0.0017878982 0.04436633 0.04710567 0.010760807
0003b0 b2 94 83 bc b8 33 f6 bc c9 99 0d bd 90 74 0f 3d
       -0.016062114 -0.030053958 -0.03457049 0.035023272
0003c0 71 c3 45 3d 28 55 12 3d ef 89 25 bd 10 a3 0f 3d
       0.04828209 0.035725743 -0.040414747 0.035067618
0003d0 3a 70 06 3d 3e 92 4f bd 5f f6 1d 3d 31 61 da 3c
       0.03282187 -0.050676577 0.038565036 0.026657673
0003e0 b3 2e e7 bc 6b fa 9c 3c 5a 21 33 3d 78 70 71 bc
       -0.02822051 0.019162377 0.04373298 -0.014736287
0003f0 ca 61 5d bd 6c 35 53 3d f5 fd 7b bb 88 3f 1b bd
       -0.054048337 0.05156462 -0.003845093 -0.037902385

bias f4 [12]
000000 f2 18 50 bd eb dd a0 bc 36 fb 84 bc 03 10 69 3c
       -0.05080504 -0.019637069 -0.016233068 0.014225009
000010 82 1e a0 3a 79 f2 cc 3c 32 78 da 3c fc 2b 23 bb
       0.0012216123 0.025017964 0.026668642 -0.0024898043
000020 e5 94 42 bd af 03 d0 3c 4c 22 3d 3d 07 2e a5 3c
       -0.04750528 0.025392381 0.046175286 0.02016355

weight f4 [12]
000000 23 00 80 3f 22 fd 7f 3f 12 00 80 3f 0c 00 80 3f
       1.0000042 0.99995625 1.0000021 1.0000014
000010 30 00 80 3f 34 fa 7f 3f 49 fc 7f 3f 09 00 80 3f
       1.0000057 0.99991155 0.9999433 1.0000011
000020 3f ff 7f 3f 15 00 80 3f 0f 00 80 3f e3 fe 7f 3f
       0.9999885 1.0000025 1.0000018 0.999983

bias f4 [12]
000000 25 a0 2c 39 f1 e5 1d b9 db ae 0d 37 8f 8e fd b6
       0.00016462857 -0.00015058347 8.444967e-06 -7.5565836e-06
000010 7b d3 15 39 c5 d3 34 b9 ce 9c 06 b8 8b 7a 88 b8
       0.0001428853 -0.00017245028 -3.2094125e-05 -6.507811e-05
000020 b4 e8 a9 38 2a 0f ca 38 2b 1a f8 38 7f b5 5a b8
       8.101892e-05 9.634935e-05 0.00011830436 -5.214428e-05

running_mean f4 [12]
000000 9e 34 8a 3e d3 3f 07 be 55 bb ce 3c d6 26 53 be
       0.2699327 -0.13207941 0.025235811 -0.20620283
000010 24 08 e5 3d 8e 27 81 3e e0 6d 92 3e ae 2b 19 3e
       0.11183193 0.2522549 0.28599453 0.14958069
000020 ac ec 23 be 7f f3 13 bf e6 04 5c bd 82 98 1d 3e
       -0.16008252 -0.5779342 -0.05371561 0.15390208

running_var f4 [12]
000000 a0 60 a6 3d 10 3f e8 3d a8 63 d6 3d 4c 0d b6 3d
       0.081238985 0.11340153 0.10468227 0.08889255
000010 b9 10 9f 3d a0 8f 9d 3d 7d 27 4b 3d 40 50 0f 3e
       0.077668615 0.0769341 0.049598206 0.13995457
000020 da 69 00 3d 0a 32 b9 3e ac f3 16 3e f2 d9 20 3e
       0.031350948 0.3617099 0.14741391 0.1570814

weight f4 [24, 12, 5, 5]
000000 81 1f 59 bc 2d c4 00 3d 14 19 8a 3b 42 fa 46 bd
       -0.01325214 0.031437088 0.0042144153 -0.04857851
000010 2e cb 69 bc 1f 2a 88 bc 23 c7 13 bd 26 ef 4c bd
       -0.014269633 -0.016621647 -0.036078583 -0.050032757
000020 93 5b 51 3d 7a 3c 7b bc 28 87 c2 bb 33 cf de 3c
       0.051112723 -0.015334243 -0.005936522 0.02719841
000030 7a 84 60 bd 3d 8c 64 bc f5 67 19 bc fa 2c 3d bd
       -0.05481384 -0.013949451 -0.009363164 -0.04618547
000040 7d 86 54 bd 4c f4 5b bd da f7 b5 bc 74 d9 39 3d
       -0.05188607 -0.053699777 -0.022212911 0.045373395
000050 9c c8 b9 bb 19 d4 00 bb 86 83 e2 bb 25 1c 28 3d
       -0.0056696665 -0.001965767 -0.0069126515 0.041042466
000060 72 3e 33 bd 2c 1c a5 3c dd b0 89 bc 19 a2 ce 3c
       -0.043760724 0.020155035 -0.016807968 0.025223779
000070 cb 82 7c bc f0 db 33 bd 03 b3 ed bc dd db f3 3c
       -0.015412043 -0.04391092 -0.029016024 0.029767925
000080 ef 23 61 bc 26 ae 3b bd aa 20 0b bd 7e cb 80 bc
       -0.013741477 -0.045820378 -0.033966698 -0.015722033
000090 89 c9 d2 3b 9d 44 df 3c fe 0d 39 bd 7b dd 58 bd
       0.0064327163 0.027254397 -0.04517936 -0.052945595
0000a0 45 f8 36 bc 67 23 3a 3d 83 5d 0a bd a7 a1 a6 bc
       -0.0111675905 0.04544392 -0.033780586 -0.020340754
0000b0 6f db ce bb 45 36 36 3c 6e 3f 2f 3d 93 f2 6a 3d
       -0.0063127796 0.011121337 0.0427851 0.057360243
0000c0 6d 6b 53 bd 53 7e fd ba c5 26 f2 3c 35 e9 be 3c
       -0.05161612 -0.0019340016 0.029559502 0.023304561
0000d0 04 6e 68 bd a1 d9 25 3c 2c a7 5b bd 5e dd bc 39
       -0.056745544 0.010122688 -0.053626224 0.00036023086
0000e0 d7 35 46 3d c5 63 2a 3d 6b 9c fa 3c ee ac e4 3c
       0.04839119 0.041599054 0.030592164 0.02791449
0000f0 02 2a 3a bd 84 2e 3c 3d fb 61 db bc f7 d1 c6 3c
       -0.045450218 0.0459428 -0.02678012 0.02427004
000100 b1 54 2e 3d 53 4b 0f bb 82 cb ab bc 5f 63 16 3d
       0.042561237 -0.0021864965 -0.020971064 0.03671586
000110 d5 70 02 3d be 7a 67 bd 3d 4d 07 bc 66 17 56 bd
       0.031845886 -0.05651354 -0.008258161 -0.05226841
000120 70 e2 ec 3c 81 ee 3f 3d d6 07 f6 3c e4 a3 41 3d
       0.028916568 0.046858314 0.030033033 0.04727544
000130 59 c7 2f 3d 10 cd a0 3c fd 76 f8 3c e7 f2 40 3d
       0.042914722 0.019629031 0.030330176 0.04710665
000140 53 9e b7 3b 79 e7 39 3a 36 ce ce 3c 44 21 21 3d
       0.0056035905 0.0007091682 0.025244813 0.039338365
000150 b5 f6 e1 bc 05 8c 09 3d 93 02 19 bd a6 aa 82 bc
       -0.02758346 0.0335808 -0.03735597 -0.015950512
000160 4d 27 5e 3d 38 0b 85 3c 19 0f d6 3c 51 a9 45 3c
       0.0542367 0.016240701 0.026130246 0.012064294
000170 07 0c ec 3a e9 34 3a bd 75 ab a2 3c 32 e6 d7 3c
       0.0018008956 -0.045460615 0.019857148 0.026354883
000180 97 38 24 3d 34 11 4c 3d c3 11 37 bd 19 3d 5d 3c
       0.04009303 0.049821094 -0.044694673 0.013503336
000190 7e 04 25 3d 13 04 c2 3c 4e 67 ce bc b2 b1 52 3c
       0.040287487 0.023683583 -0.025195744 0.012859749
0001a0 1b ca 67 3d 07 73 43 3c b3 50 f2 bc ce 48 17 3d
       0.056589227 0.01192928 -0.029579496 0.036934666
0001b0 77 bb cd bc 07 64 c5 bc db b2 85 3c ad 1d 8c bb
       -0.025113804 -0.024095548 0.016320636 -0.0042759986
0001c0 56 5d 0d bd 21 69 f4 3b c4 44 40 bd 45 32 1c 3d
       -0.03451284 0.0074588214 -0.04694058 0.03813388
0001d0 0f 7b 4a 3c ff ba 29 3d e4 19 62 3c da 98 17 3c
       0.012358441 0.0414381 0.013800118 0.009252751
0001e0 91 19 ac 3c 0c 2b 23 3c 13 dd c7 bc 0e 31 eb 3c
       0.021008285 0.009958994 -0.024397409 0.028709915
0001f0 4e 84 7a ba 1c 1e 42 bd cd d1 26 bd 18 f5 6d bc
       -0.0009556458 -0.047391996 -0.040727425 -0.014523767
000200 c9 f9 f1 3c 5a 38 ab 3c c7 09 43 bb 1a cc 87 3a
       0.029538052 0.020900894 -0.0029760466 0.001036051
000210 ef 7c 0f 3d 02 bf f4 bc 65 8a db bc 32 f9 67 bd
       0.035031255 -0.029876236 -0.02679939 -0.056634136
000220 40 41 15 3d 82 9f 25 bb e0 67 67 3d 2f de 11 bd
       0.03643918 -0.0025272076 0.056495547 -0.03561228
000230 85 6d f4 bc f4 c6 54 bd 3e 5b 0c 3d 47 74 6a 3d
       -0.02983738 -0.05194755 0.034266703 0.057239797
000240 6c df c7 bc d8 30 08 3d cb 91 ef ba cc 67 65 bd
       -0.024398528 0.033249706 -0.0018277703 -0.05600719
000250 8d 5a e2 3c 26 ce c5 bb 9b e4 2e 3d a7 9b 24 bc
       0.027631069 -0.0060365377 0.042698484 -0.010046876
000260 ff 63 65 3d cd 96 4d bd ed 02 84 3c 8a 56 eb bc
       0.056003567 -0.050192643 0.016114676 -0.028727788
000270 79 ce 0e bd 29 c7 ac 3c f0 9d 4a 3d fd 44 f5 bc
       -0.034864876 0.02109106 0.049467027 -0.029940123
000280 aa 62 f2 3b 07 73 44 3c f0 15 11 3d f2 6d 18 3d
       0.0073970156 0.011990315 0.03542131 0.037214227
000290 14 24 3a 3c fb 7c 9a bc ab 1d 4c bd 6e a7 89 bc
       0.011361141 -0.018858423 -0.04983298 -0.01680347
0002a0 90 f2 25 3d 0e d1 89 bc 64 20 bc 3b 22 25 09 bc
       0.04051453 -0.016823318 0.005741166 -0.00837067
0002b0 ce ca 03 3d 26 2b d6 bc db f7 56 3d ce 22 b7 bc
       0.03217583 -0.026143622 0.052482467 -0.022355463
0002c0 22 3a 6a bd 79 cf 0e bb a6 62 07 3d 1a 51 93 3b
       -0.057184346 -0.0021791144 0.033053063 0.004495752
0002d0 56 cd 54 3d ac 98 96 bc c7 cb 3e bc 66 59 c8 3c
       0.051953636 -0.018383346 -0.011645264 0.024456691
0002e0 af 06 e3 bc 0c a4 d4 3a 6e a6 d9 3b 34 61 9e 3c
       -0.027713148 0.0016223206 0.0066421544 0.01933346
0002f0 05 41 33 3d 75 e4 6a bc 9e 8f f5 3b 8d 3e 07 3c
       0.04376318 -0.014336695 0.007493927 0.008254659
000300 b5 56 f7 3c 71 88 22 bd 64 a3 64 3d 7f 6b 31 3d
       0.030192712 -0.039680902 0.055819884 0.043315407
000310 35 07 5d bd 4a dc 90 bc d5 e1 c0 bc db 54 69 bd
       -0.05396195 -0.017683167 -0.023545185 -0.05696569
000320 33 fe 43 bd cd f3 c8 3c 80 60 4b bd d3 99 63 3d
       -0.047849845 0.024530316 -0.049652576 0.05556662
000330 73 9a 67 bd ca 0f c1 bc 52 b5 69 bd 35 a3 ae bc
       -0.05654378 -0.0235671 -0.057057686 -0.021318058
000340 4d 68 9a 3c cd f2 a6 3b f9 35 d6 3c e2 20 0a 3d
       0.018848563 0.005094862 0.026148783 0.033722766
000350 90 09 c8 3c 23 9b 30 bd 0a 19 5a bd 7f 29 ce bc
       0.024418622 -0.0431167 -0.053246535 -0.025166271
000360 e0 2f f4 3c 7b cb e3 3c 3c 43 57 3d c3 79 d9 3c
       0.029807985 0.027806988 0.052554354 0.026547318
000370 1b d5 ef 3c 62 66 3e 3b 47 43 29 3d f5 78 c3 3a
       0.029276421 0.0029052724 0.041323926 0.0014913367
000380 95 5c 64 3d 18 ea 18 3d 4c dc 56 3d d2 85 3c 3d
       0.055752356 0.037332624 0.052456185 0.04602606
000390 c3 d7 08 3d 8c 43 c3 bc 36 f2 17 3d 87 47 7c 3c
       0.03340889 -0.02383592 0.037096225 0.015397913
0003a0 7d 4b aa 3c 41 56 18 bc fa a5 2b bc 84 12 9c 3c
       0.020787949 -0.009297908 -0.010476584 0.019051798
0003b0 0f 29 b3 3c fa b2 f0 bc f4 b6 14 3d 44 03 0b 3c
       0.021870164 -0.029382218 0.03630729 0.008484665
0003c0 af 8b 53 3d 4d a8 b8 3c fd 9c 42 bd f9 73 12 bd
       0.051646885 0.02254119 -0.047512997 -0.03575513
0003d0 bf 3d 40 3d 31 c7 21 3d a5 05 19 3d a2 9f ae bc
       0.046933886 0.039496604 0.0373589 -0.021316353
0003e0 ef 81 38 3d 51 3d d7 3c c8 1d 83 bc c8 75 4a bd
       0.04504579 0.026274355 -0.016005412 -0.04942873
0003f0 53 e0 19 bb 00 e2 9b ba 18 92 9f bc 08 0e 40 3d
       -0.0023479655 -0.0011892915 -0.019478843 0.04688838

bias f4 [24]
000000 34 65 35 bd e4 68 b8 bb 2e 08 1c 3d 06 a3 92 bc
       -0.044285968 -0.0056277383 0.03809374 -0.017900001
000010 5d 02 00 bd 82 e5 0a 3d 9e ce 48 3d 9c 81 58 bd
       -0.031252254 0.033910282 0.04902517 -0.05285798
000020 30 c8 55 3d 11 8c 4c 3d a3 49 56 bd dc 38 46 bd
       0.052192867 0.049938265 -0.05231632 -0.04839407
000030 26 a6 67 bd 4a 6b e9 3a 0d 76 00 3d d3 30 13 bd
       -0.056554936 0.0017808464 0.031362582 -0.035935234
000040 b6 08 b6 3a 4d aa e1 bc 65 6b 4f bd 31 14 20 3d
       0.0013888094 -0.027547026 -0.05063953 0.039081756
000050 84 26 5e 3d 42 52 2f 3d d7 ca d1 3c 17 bb 16 bb
       0.05423595 0.042803057 0.025609417 -0.0022999698

weight f4 [24]
000000 0c 00 80 3f b1 fd 7f 3f e5 fc 7f 3f ab fc 7f 3f
       1.0000014 0.9999648 0.9999526 0.99994916
000010 c6 fe 7f 3f 15 00 80 3f 12 00 80 3f 20 00 80 3f
       0.9999813 1.0000025 1.0000021 1.0000038
000020 b4 fd 7f 3f b8 fd 7f 3f 0d 00 80 3f 4f fd 7f 3f
       0.99996495 0.9999652 1.0000015 0.99995893
000030 56 ff 7f 3f c2 fc 7f 3f 07 00 80 3f 01 00 80 3f
       0.99998987 0.9999505 1.0000008 1.0000001
000040 86 fc 7f 3f d2 fe 7f 3f 81 ff 7f 3f 0c 00 80 3f
       0.99994695 0.999982 0.99999243 1.0000014
000050 1d ff 7f 3f 16 00 80 3f 12 00 80 3f 73 ff 7f 3f
       0.99998647 1.0000026 1.0000021 0.9999916

bias f4 [24]
000000 04 e9 a1 b6 24 b4 6d b4 f5 79 a6 b8 de 89 5b b7
       -4.8253005e-06 -2.213788e-07 -7.938213e-05 -1.3085517e-05
000010 b2 8e 84 b8 c7 c8 c9 38 97 d8 28 38 6a 1a 16 39
       -6.3208296e-05 9.6218246e-05 4.0256036e-05 0.00014314955
000020 ff 69 8d b8 2e 0e ac b8 55 10 ae 38 0b 07 0e b8
       -6.743147e-05 -8.20424e-05 8.3000086e-05 -3.3861998e-05
000030 e4 8a 80 b8 14 f9 e2 b8 cd dc 45 38 f7 35 54 38
       -6.129386e-05 -0.00010822914 4.7174097e-05 5.0594997e-05
000040 41 9b 4d b8 0e 33 14 38 7b a6 d2 b7 be d6 8a 38
       -4.90204e-05 3.5333498e-05 -2.5111474e-05 6.6203516e-05
000050 ab d7 00 37 86 63 d7 38 9a 97 66 38 c2 7e 7f 36
       7.679609e-06 0.000102705366 5.4977463e-05 3.8071744e-06

running_mean f4 [24]
000000 e2 5f a2 3e c8 8b bb 3e 13 c4 57 bc 68 80 fb be
       0.31713778 0.36630082 -0.013169306 -0.49121404
000010 20 1a b3 be 4e 04 ed 3e 98 53 48 be d7 51 55 3e
       -0.3498087 0.46292347 -0.19563138 0.20832
000020 c6 c2 b1 be 49 23 c0 be 90 f2 ca bd 24 0c d0 bd
       -0.34718913 -0.3752692 -0.099095464 -0.10158566
000030 6d 9e 95 3d 51 0b 21 be 6d 52 11 bf 54 b2 50 3e
       0.07305608 -0.15726973 -0.56766397 0.20380527
000040 5c 8c b8 be dd a2 9d be ef cc 24 be 5a ff c0 3e
       -0.36044586 -0.30788317 -0.16093801 0.37694818
000050 24 dc 8a 3c d5 b2 95 3b 80 4a 19 3e 5c e2 ca be
       0.016950674 0.0045684376 0.14969826 -0.39625823

running_var f4 [24]
000000 b5 19 36 3e 44 48 77 3e 05 4d be 3d 64 1f 33 3e
       0.17783244 0.24148661 0.09292034 0.17492443
000010 4a 92 86 3e d5 41 fc 3d b5 8e 04 3e db 29 11 3e
       0.26283485 0.12317244 0.12945063 0.14176123
000020 e5 b3 8f 3e 29 0c 89 3e bd e8 68 3e b5 2b e3 3d
       0.28066936 0.2676709 0.22745033 0.11092321
000030 21 a3 72 3e 44 69 0d 3e ce 25 75 3e 09 14 aa 3d
       0.23695041 0.13809687 0.23940203 0.08304603
000040 e5 65 61 3e 41 e9 d8 3d 87 1b 07 3e 95 cc 72 3e
       0.22011526 0.10591365 0.13194095 0.23710854
000050 d9 4f ed 3d 5c e5 63 3e 62 e2 1a 3e 01 87 2b 3e
       0.11587495 0.22255462 0.1512542 0.16750719

weight f4 [24, 24, 5, 5]
000000 5c 72 77 bc ed aa 05 3d 25 c6 9d 3c 87 7c c3 3c
       -0.015102949 0.03263371 0.019259522 0.02386309
000010 68 ff 0b bc 43 44 13 bd 6e 6c 0b bd b9 9e f9 bc
       -0.00854478 -0.03595377 -0.034038953 -0.030471193
000020 72 fe 72 bc f3 c1 a0 3b 86 c5 8c 3c 07 fc 39 3b
       -0.014831172 0.004905933 0.01718403 0.002837898
000030 02 b3 8c bc 02 15 db 3c c9 4c 44 bc 9b 52 02 bd
       -0.017175201 0.026743416 -0.011981198 -0.03181706
000040 44 0f f4 bc b0 ec 11 3d 74 7a 17 3d 2f 91 9e bc
       -0.029792435 0.035626113 0.036982015 -0.019356338
000050 8e d2 05 bc 0d 05 19 bd cc e0 eb bb 89 d9 28 bb
       -0.008167876 -0.037358332 -0.0071984287 -0.0025764427
000060 90 53 07 3d 83 d4 b0 3c b5 bd 9a bb 2d 12 c4 3c
       0.033038676 0.021585708 -0.004722322 0.023934448
000070 1c 74 82 3b 4e 0e bc bc 22 02 05 bd 15 50 c8 bb
       0.0039811265 -0.02295604 -0.032472737 -0.006113062
000080 b9 3e be 3c 42 af e4 3c 9d fe d4 bc 77 62 0f 3d
       0.023223268 0.0279156 -0.026000315 0.035006013
000090 1c cc d5 ba ba 78 06 bd 29 51 46 3b 0f f9 b6 bb
       -0.001631144 -0.032829978 0.0030260778 -0.0055838893
0000a0 70 8c 55 bc 69 7a f8 bb 4d f7 0d bd 1f 36 e8 bc
       -0.013033971 -0.007582952 -0.034659673 -0.02834612
0000b0 52 cf ff bb 85 38 81 bc 57 2a 35 bc 76 29 6a bc
       -0.007806697 -0.01577402 -0.011057458 -0.014292112
0000c0 36 d0 9f 3c a7 84 d0 3c 74 bf 26 3d e6 72 e2 bc
       0.019508462 0.025453879 0.040709928 -0.027642678
0000d0 ad 90 ae 3c 8c 52 05 3d e2 e3 d7 bc 21 4a 9a 3b
       0.021309221 0.032549426 -0.02635378 0.004708544
0000e0 95 1d b1 3c 8c 04 9f bc 1c 00 de bc 6b 75 1e 3a
       0.021620551 -0.019411348 -0.027099662 0.00060447183
0000f0 86 d8 c8 bc 83 de 81 ba a3 43 c6 3c 6b 12 3a bb
       -0.024517309 -0.0009908233 0.024202174 -0.0028392326
000100 4b e4 52 bb 74 a4 6c bc 13 5f 8a bc 44 ed e4 b9
       -0.003217953 -0.014443506 -0.016891038 -0.00043664325
000110 12 1f 02 3d 7e a1 14 3d 2c b5 e3 bc 12 6c c0 3c
       0.031767912 0.036286823 -0.02779635 0.023489032
000120 e6 53 b8 bc a7 f7 f9 bc fb 46 12 3d ee 81 38 3b
       -0.022500943 -0.030513598 0.035712224 0.0028153616
000130 14 ef 75 3c e8 64 aa bc 39 0d 83 bc af aa 53 bc
       0.015010614 -0.020800069 -0.015997516 -0.012919112
000140 f4 20 00 bd f1 5d 0d 3d 10 38 9e 3c 70 34 82 bc
       -0.031281427 0.034513418 0.019313842 -0.015894145
000150 c5 6c d2 3c 4b 83 5e bc 51 97 12 3d a4 1a 1d 3c
       0.025686631 -0.013581107 0.035788838 0.009588871
000160 6b e4 05 bd 32 b0 90 3c 51 35 3e 3c ab 38 d7 bc
       -0.03268854 0.017662141 0.011609391 -0.026272139
000170 29 c6 3f 39 9a bc 6e bc ca ff 62 3c 57 48 4e 3c
       0.00018289 -0.014571333 0.01385493 0.012590489
000180 ea a8 e2 bc b6 33 d4 bb c5 77 d5 3c 51 fa 9d 3c
       -0.027668435 -0.006475891 0.026058087 0.0192844
000190 59 f5 a9 bb 4b 01 22 bd ff 5b 33 3c c2 d4 26 3c
       -0.0051867184 -0.039552014 0.010947227 0.010182561
0001a0 5d 4a cc bc 5e 34 0b 3d ab 1b fd bc 2e 2e 0e 3d
       -0.024937803 0.033985488 -0.030896982 0.03471201
0001b0 40 e3 7f bc 78 f2 19 3d b4 3d 2f 3c d0 20 e7 bb
       -0.0156181455 0.03758475 0.0106958635 -0.007053472
0001c0 2a 39 b9 3c 74 fd f2 bc 04 51 00 3d ea 01 c3 3c
       0.022610266 -0.029661871 0.031327263 0.023804624
0001d0 8c aa cd bc 30 b0 f9 bb 3e 4f c1 bc f2 77 83 bc
       -0.025105737 -0.00761988 -0.023597356 -0.016048405
0001e0 77 0e aa 3c 37 3b d4 bb 8d 76 1d 3c ef b1 82 bc
       0.02075885 -0.0064767855 0.009610784 -0.015953986
0001f0 01 9c 51 bc 0f 01 e0 3b 36 c5 c7 3c 71 0f 25 3d
       -0.012793542 0.0068360637 0.02438603 0.04029793
000200 89 77 b6 bc f5 b2 b2 bc 55 db 67 3b f9 8e ec 3c
       -0.022273796 -0.021813849 0.0035378535 0.028876768
000210 90 c0 d0 3c 80 08 f6 3c 01 1c 23 bd 36 f2 80 3b
       0.025482446 0.03003335 -0.03982163 0.003935124
000220 8c a2 8f ba 10 7c 1d 3d cc ae f6 bc 30 03 20 bc
       -0.0010958477 0.038448393 -0.030112647 -0.009766385
000230 8a bd 08 bd 92 58 0e bd 96 1d 18 3d 0b 24 c1 bc
       -0.033383884 -0.034752436 0.03713759 -0.023576757
000240 24 b8 ee 3c ce 7a 20 3c f9 16 05 3c cd 58 dc bc
       0.02914054 0.009794904 0.008123153 -0.026897812
000250 09 e6 bb bb b2 43 20 bd c2 f8 70 3c 97 74 5d 3c
       -0.0057342094 -0.03912706 0.014707746 0.013516567
000260 84 4e 2d 3c cf dc a1 3c 09 35 ff 3c 51 7f 4b 3c
       0.010577802 0.01975861 0.031153219 0.012420491
000270 33 12 25 3d 56 48 21 bd 1c ad df bc e0 18 8d bc
       0.04030056 -0.039375626 -0.027304225 -0.017223775
000280 9e f1 fc ba 69 90 f9 bc e7 1b 84 bc 47 ee 58 3c
       -0.0019298082 -0.030464368 -0.016126586 0.0132404035
000290 49 fa b1 bc 29 8a 0f 3d e6 18 f1 bc cd 5a ac bc
       -0.02172579 0.03504387 -0.029430818 -0.021039391
0002a0 55 33 10 3d 18 52 ea bc db 5b f5 3c fd c8 a1 bc
       0.035205204 -0.028603598 0.029951027 -0.019749159
0002b0 2c 25 b7 3c 2f 3d ef bc b1 f5 4d bc fb 72 f3 bc
       0.022356592 -0.02920398 -0.012570784 -0.029717913
0002c0 98 ee a4 3c 52 3f bf 3b 79 9a ad 3b f9 90 f7 3c
       0.020133302 0.005836406 0.0052979556 0.030220496
0002d0 85 fe fc 3c 3a 6d be 3b ae 88 bf 3c e8 14 05 3d
       0.030883083 0.0058113607 0.023380604 0.03249064
0002e0 c2 4b 0e bd 88 62 0f 3d d7 98 af 3c 63 e7 ca 3c
       -0.034740217 0.035006076 0.021435184 0.024768537
0002f0 f4 1d b1 3c 0c 82 ce bc 16 aa 0c bd c6 44 09 3d
       0.021620728 -0.025208496 -0.034341894 0.033512853
000300 98 02 75 3c 3b 28 01 3c 4d 23 3c bc 97 80 fb 3c
       0.014954232 0.007883127 -0.011483026 0.030700965
000310 ea 14 1f 3d 50 4c 30 bc 97 3b 1b bd f3 3d a0 bc
       0.038838305 -0.010760382 -0.037898626 -0.01956079
000320 69 7a 83 bc 75 52 d5 39 64 03 80 3c 7c c0 5d bc
       -0.01604958 0.0004068796 0.015626617 -0.013534661
000330 8b 94 24 3d 82 e2 87 bc eb e1 02 3d c9 7e 0c bd
       0.040180724 -0.0165875 0.031953733 -0.0343006
000340 97 d1 0b 3d 37 61 ae bc ec 7a 21 bd d8 a8 f1 bc
       0.034135427 -0.02128659 -0.039423868 -0.029499456
000350 b4 47 1d bd 1f da 02 bd 0f 47 05 bc 45 44 8e 3c
       -0.03839846 -0.031946298 -0.0081346175 0.017366538
000360 c6 0f 06 3d 31 a4 b1 3c cf da c8 3c ad e6 8d bb
       0.032729886 0.021684738 0.024518399 -0.004330477
000370 f8 23 90 3c 64 ec 08 bd fa b9 12 bd 6b 11 19 3d
       0.017595276 -0.033428565 -0.035821892 0.037370127
000380 0e bd 85 3c b5 44 0a bd 6f 99 95 3b d1 5a 90 3c
       0.0163255 -0.03375693 0.00456541 0.01762143
000390 06 75 cf 3c b3 39 c0 bc a2 bb f9 3c 53 78 dd 3c
       0.025324356 -0.023465013 0.030484978 0.027034914
0003a0 d1 b3 b0 bc 37 62 b2 3b d2 23 12 3d cb 89 52 bb
       -0.021570118 0.005443837 0.035678692 -0.0032125588
0003b0 4d d2 a0 bb 75 56 e7 bb 1a fc 20 3d 67 c6 1f bd
       -0.0049078823 -0.007059867 0.039302923 -0.03900757
0003c0 4a 45 9a bc 5f 6b 2c 3b 82 75 ee 3c ec c5 be 3b
       -0.018831868 0.0026309115 0.029108766 0.005821934
0003d0 8e 9e cd 3c a4 0e 15 bd 26 b9 a3 bc a6 87 0f bc
       0.025100019 -0.036390916 -0.019985747 -0.008760368
0003e0 8c b9 d4 bc ba 94 67 3c ce 46 fc 3c 3d 42 97 bc
       -0.025967382 0.01413458 0.030795481 -0.018464202
0003f0 89 28 fd 3b 2e b3 aa 3c b4 7c a1 bc aa 48 53 bc
       0.0077257794 0.020837393 -0.019712783 -0.012895742

bias f4 [24]
000000 30 87 d8 3c 6b 0b 1c 3d 18 ca 0a 3d 2f 92 0c bd
       0.02643165 0.038096827 0.033884138 -0.0343191
000010 f6 4b 8c 3c 1b 9e 80 bc d4 8e f5 bc 06 40 6f 3b
       0.017126065 -0.01570039 -0.029975332 0.0036506667
000020 c0 e6 ab bc 6b 9b 18 3d 53 89 31 bc e6 90 bf 3c
       -0.020984054 0.037257593 -0.010835963 0.023384523
000030 b1 c5 04 3b 98 4a bd 3c 0f 8f a8 3c 69 6a dd bc
       0.0020259435 0.023106858 0.020576028 -0.02702828
000040 1a ee 31 bc 09 37 bf 3c 16 15 66 3b 80 2c 2d bb
       -0.0108599905 0.023341672 0.0035107783 -0.002642423
000050 25 15 11 bc 04 58 d7 3c f5 44 d1 ba 15 e5 5f 3a
       -0.008855139 0.026287086 -0.0015965985 0.0008540911

weight f4 [24]
000000 0c 00 80 3f 55 f8 7f 3f 09 00 80 3f 07 00 80 3f
       1.0000014 0.999883 1.0000011 1.0000008
000010 1d 00 80 3f d9 fc 7f 3f 3f fe 7f 3f 86 fc 7f 3f
       1.0000035 0.9999519 0.99997324 0.99994695
000020 12 00 80 3f 12 00 80 3f 13 00 80 3f ea fe 7f 3f
       1.0000021 1.0000021 1.0000023 0.99998343
000030 c7 f8 7f 3f 0d 00 80 3f 01 00 80 3f 0a 00 80 3f
       0.9998898 1.0000015 1.0000001 1.0000012
000040 15 00 80 3f 2a 00 80 3f 73 fb 7f 3f 0a 00 80 3f
       1.0000025 1.000005 0.99993056 1.0000012
000050 ac fe 7f 3f 0d 00 80 3f 83 fd 7f 3f 15 00 80 3f
       0.99997973 1.0000015 0.99996203 1.0000025

bias f4 [24]
000000 e0 b2 ac b7 42 a0 16 b9 ef 4f c3 38 17 fe 00 37
       -2.0587293e-05 -0.00014364815 9.3132134e-05 7.688554e-06
000010 5e dd 11 39 0f ac 82 37 18 c3 69 37 a7 83 92 b7
       0.00013910743 1.5577329e-05 1.3933306e-05 -1.7465862e-05
000020 9a 86 0b 39 93 36 56 39 fa 70 59 39 16 b2 92 b6
       0.00013306216 0.00020428961 0.0002073682 -4.371871e-06
000030 da fe 2a b9 1f 1d ac 37 2b 01 0f 39 b2 7b 79 38
       -0.00016307403 2.0517558e-05 0.00013637978 5.9481426e-05
000040 11 11 2a 39 0b 17 2c 39 c9 64 89 b8 1c e3 1f 39
       0.00016218821 0.00016411782 -6.551442e-05 0.00015248026
000050 ef 93 29 b5 e7 b8 2d 39 eb 88 77 37 cc 58 fe 38
       -6.317268e-07 0.00016567447 1.4754226e-05 0.000121282035

running_mean f4 [24]
000000 55 cf 19 bb c3 8a 4c 3e 9e e1 1f 3e 52 da 0f bb
       -0.0023469527 0.19974808 0.1561341 -0.0021950197
000010 8d 04 f9 bd 28 ac a6 be 9e 83 04 3e e7 29 ab bd
       -0.12159071 -0.3255322 0.12940833 -0.083576016
000020 9a f0 ce 3c 05 fb 52 be 21 d1 9a 3c e7 6a ba 3c
       0.025261212 -0.20603569 0.018898549 0.022756053
000030 f5 2c f3 3d 85 60 65 3e 0d 4f 35 be f7 c8 08 be
       0.11873809 0.224001 -0.17705937 -0.13357912
000040 a7 a1 28 3e 12 de 01 3d db cd bf bd 33 8a 07 3e
       0.16467915 0.031705923 -0.09365436 0.13236313
000050 75 98 9c 3d 4c 70 ac 3c c0 f7 1d 3d 55 83 a6 bd
       0.07646266 0.021049641 0.03856635 -0.08130518

running_var f4 [24]
000000 92 8e 23 3e 54 5c 43 3e 7a b2 f5 3d 33 28 da 3d
       0.15972355 0.19078189 0.11996932 0.10652199
000010 57 90 cc 3d 7e 8d 66 3e 1a 03 31 3e ad 79 cc 3d
       0.09988468 0.22514912 0.1728634 0.09984145
000020 61 e6 b6 3d 52 0f fb 3d a0 44 b2 3d 31 32 ab 3d
       0.0893066 0.122587815 0.087044954 0.083591826
000030 b4 86 b2 3d 8c 10 be 3d 5e 7f 3a 3e d9 b3 e3 3d
       0.08717099 0.092805 0.18212649 0.111182876
000040 67 9a b4 3d b1 05 17 3e 76 60 12 3e fc 61 af 3d
       0.088185124 0.14748265 0.1429461 0.08563611
000050 51 4d a1 3d 38 12 31 3e 97 b4 35 3e 6d 4a da 3d
       0.07876075 0.17292106 0.17744671 0.10658727

weight f4 [10, 16224]
000000 53 b7 9a 3b 95 22 ac 3b 26 26 ea 3a 24 36 9e b9
       0.004721561 0.005253146 0.0017864152 -0.00030176446
000010 94 81 ea bb c8 63 70 bb bc 6c ec 3b 39 99 45 bb
       -0.00715656 -0.0036680568 0.0072151106 -0.0030151142
000020 51 43 f7 bb cf cb 56 bb d9 98 17 ba 60 f5 50 3b
       -0.0075458665 -0.0032775288 -0.0005782969 0.0031884536
000030 50 cb d8 3b 6f bd 49 3b c4 11 70 bb 03 9e 87 3a
       0.0066160336 0.0030783077 -0.0036631683 0.0010346774
000040 21 da f4 bb dc d1 5b ba 6c ed fa 3a 1f 84 93 3a
       -0.007472292 -0.00083854585 0.0019144244 0.0011254585
000050 0f 50 aa bb d1 ff 2b 3b c6 d2 b7 bb 7e 9d db bb
       -0.005197532 0.0026245008 -0.005609843 -0.006702124
000060 64 61 90 bb 3c 1f fc 3b 31 43 e8 bb 2b 9b d7 3a
       -0.004406141 0.007694153 -0.007088088 0.0016449442
000070 ad 2c 91 bb 64 e7 12 ba 5e 55 a7 3a 57 53 e8 3b
       -0.0044303746 -0.0005603938 0.001276653 0.007090013
000080 11 4a a2 bb 98 29 7a bb 54 f7 81 ba 03 43 f0 bb
       -0.004952677 -0.0038171764 -0.0009915628 -0.007332207
000090 41 2f 86 bb 8b f4 63 38 89 5a bc ba 36 ff b6 bb
       -0.0040949886 5.4348766e-05 -0.0014370243 -0.0055846227
0000a0 b2 e4 bd bb bb 43 ef 3b 4f 87 a0 3b 73 46 b8 3b
       -0.005795085 0.0073017753 0.0048989425 0.0056236326
0000b0 e6 ca f5 3b b7 d4 89 3b 2a 01 aa bb 2b f3 40 3b
       0.007500994 0.004206266 -0.005188127 0.0029441814
0000c0 53 9f b9 3b 91 3d bc 3b 6f b8 7d 3b c5 5f cd bb
       0.005664745 0.005744644 0.0038714667 -0.00626752
0000d0 45 be 26 bb 9a c1 e1 ba bb e7 8e 3b 98 53 b0 3b
       -0.0025443 -0.0017223835 0.0043611205 0.005381059
0000e0 db fb a9 3b c2 50 b6 bb 53 4d e1 3b bf 4b 85 b9
       0.005187494 -0.0055638263 0.006875673 -0.00025424172
0000f0 3d e9 ab bb 66 8c a6 39 4c e8 98 ba ab e0 cc 3b
       -0.00524631 0.00031766592 -0.001166591 0.0062523684
000100 c0 3f 33 39 a2 75 c0 bb c6 25 3f bb 81 49 99 3b
       0.00017094519 -0.005873398 -0.0029166802 0.004677952
000110 c4 a4 c3 3b 2a dd d5 bb fb ee d5 bb b8 1e 66 3b
       0.0059705693 -0.006526609 -0.006528733 0.0035113525
000120 95 12 d6 3b f6 67 57 bb 79 1e e9 bb 12 9c cd 3b
       0.006532977 -0.0032868362 -0.0071142283 0.0062747085
000130 da 0b 75 3b ec 92 93 ba ae 8e a2 3b 15 0c 32 bb
       0.0037391097 -0.0011258996 0.0049608564 -0.0027167846
000140 d6 7b bc 3b ed c2 ed bb 45 ee 57 3b 4e 54 00 bc
       0.005752067 -0.007255903 0.0032948416 -0.0078326
000150 a9 83 da 3b e9 87 a1 b9 53 67 83 bb e2 6c eb 3b
       0.006668527 -0.00030809574 -0.00401012 0.0071846107
000160 3f 79 18 3b 95 36 e5 3a 66 9d a1 b9 ae e1 d2 bb
       0.0023265628 0.001748758 -0.00030825584 -0.0064355945
000170 47 fd e1 39 af 1d ed bb 30 17 93 3b 5a 0c d6 3b
       0.0004310405 -0.0072362046 0.004488848 0.006532234
000180 8f e8 a0 bb 58 0f e8 bb e0 0f c1 bb 4f 47 9f bb
       -0.0049105356 -0.0070819072 -0.005891785 -0.0048607956
000190 77 3c 8a bb 18 b2 ae 3b 79 ad cd ba 65 05 3d bb
       -0.0042186338 0.005331289 -0.0015691958 -0.0028842327
0001a0 08 ce 85 ba 22 df ee 3b cd e4 61 bb 7e 66 13 bb
       -0.0010208497 0.007289783 -0.0034468651 -0.002249151
0001b0 b3 d4 aa 3b 1c 11 f1 3b 93 2e e6 bb 8a d2 c1 3b
       0.005213344 0.007356776 -0.007024595 0.005914991
0001c0 51 75 15 bb 4a e4 29 3a 77 b8 ea 3b 37 2e 76 3b
       -0.0022805522 0.0006480856 0.007163103 0.0037564167
0001d0 49 3b 92 3b 80 1d 35 bb aa 4b d6 3b 2d de bb bb
       0.0044626337 -0.0027635992 0.0065397816 -0.0057332725
0001e0 8e ee a5 bb 2b 19 ec bb 2f bb 9b bb 48 0a fe 3b
       -0.0050638383 -0.0072051487 -0.0047525386 0.0077526905
0001f0 3a c7 b5 3b 1b 2e 8f 3b 92 23 9c ba c8 8d e4 ba
       0.0055474313 0.00436951 -0.0011912456 -0.0017437274
000200 88 ca f5 bb c4 45 15 bb 06 1d bc bb 45 e0 e0 bb
       -0.0075009502 -0.002277718 -0.0057407646 -0.0068626725
000210 cf f0 c0 3b bd ad ef ba 86 09 36 3b a2 a2 28 bb
       0.0058880816 -0.0018286031 0.0027776673 -0.0025731702
000220 14 a7 85 bb dd 8f e9 bb 8d 60 71 bb 45 fc c8 bb
       -0.004078755 -0.0071277455 -0.003683123 -0.0061335885
000230 82 f3 53 bb 39 38 fb bb 87 74 f0 bb 9a ae 36 bb
       -0.0032341187 -0.0076666144 -0.00733811 -0.0027875067
000240 40 9d ef 3b 53 2f 94 bb 41 c7 dd b8 dd 10 a6 3b
       0.007312447 -0.004522243 -0.00010575215 0.005067928
000250 d0 95 3b bb d1 24 9d ba 76 ed 4d 3b ca 17 bf bb
       -0.002862323 -0.0011989122 0.0031422055 -0.0058316933
000260 48 af f6 3a 97 e3 97 3b b9 6c 70 3b 15 1c 39 bb
       0.0018820548 0.004635285 0.0036685898 -0.0028245498
000270 96 30 b5 bb a5 f4 5c bb 9a 53 88 bb dd 3f 0a bb
       -0.0055294735 -0.0033715155 -0.0041603567 -0.0021095194
000280 56 f5 f1 bb f4 d2 32 3b 37 c8 52 bb d5 a9 f0 39
       -0.0073839827 0.0027286382 -0.0032162794 0.00045902902
000290 d7 e8 5c bb ac f6 a3 bb cd 58 98 3b 2a e1 54 3b
       -0.003370812 -0.005003771 0.0046492578 0.003248284
0002a0 8a f9 af bb 17 df 3d 3a f1 6d fc 3b 6a 30 a7 3b
       -0.0053703235 0.0007243021 0.0077035357 0.005102207
0002b0 e5 64 3e bb 4a df 0a 3b b3 d7 a8 bb ae d1 7c bb
       -0.0029051837 0.002119022 -0.0051526665 -0.0038577127
0002c0 34 f1 d1 3b 6b ee de bb d6 73 a0 3b ec 8a a6 bb
       0.0064069275 -0.006803324 0.004896621 -0.0050824787
0002d0 17 bf eb 3b e4 25 c8 bb d7 1a c5 bb af 41 aa 3b
       0.0071944105 -0.0061080325 -0.0060151624 0.0051958184
0002e0 69 6f a4 39 69 63 81 bb 8b 39 50 bb 2c 2d 0d 3a
       0.00031363525 -0.003948618 -0.003177258 0.0005385454
0002f0 d8 9d 5e bb cd 91 4a 3a 69 e0 e8 bb 1e c7 a0 bb
       -0.0033968594 0.00077274145 -0.00710683 -0.004906549
000300 f6 18 0b bb 9b b2 e8 bb 35 74 f3 3a 7f 26 cc 3b
       -0.0021224595 -0.0071013696 0.0018574061 0.006230175
000310 d1 43 ad 3b 1b 6d b3 bb 7f 16 b5 3b 97 61 af 3b
       0.0052876254 -0.005475653 0.0055263634 0.00535221
000320 01 77 86 3b b7 41 72 bb 4d 57 c9 3b c2 eb 85 3b
       0.004103542 -0.0036965439 0.0061444403 0.0040869424
000330 48 14 7c 3b 18 c2 b6 bb 68 60 81 bb 3b 3e d1 bb
       0.0038464237 -0.005577337 -0.00394826 -0.0063855923
000340 cb 66 27 bb 7a f1 c6 bb 3a bd c0 3b bc 02 31 bb
       -0.0025543447 -0.0060712667 0.0058819326 -0.0027009686
000350 e7 b7 b4 3b d5 c8 d2 3b 76 6e a7 ba ed ea fc ba
       0.005515087 0.0064326325 -0.0012774009 -0.0019296088
000360 d1 05 cc 3b 38 44 f1 3b 9d 63 91 3b 1d 26 72 39
       0.0062262793 0.0073628686 0.0044369237 0.00023093117
000370 f8 a8 95 bb 65 7f 8f 3b 91 06 f4 3b 39 b8 a8 b9
       -0.004567262 0.0043792003 0.007447072 -0.00032180714
000380 d4 7c cb 3b df d7 90 bb 5f 23 f6 bb 05 1a d5 3b
       0.006209949 -0.004420265 -0.007511541 0.006503346
000390 7c bd b3 bb 41 eb 8c 3b c8 9e 21 bb 1b 0a aa bb
       -0.005485235 0.0043005054 -0.0024661291 -0.005189193
0003a0 e8 47 fd 3b f7 2e bb 3b bc ca b9 3b d3 d4 9a 3b
       0.007729519 0.0057123858 0.00566992 0.0047250777
0003b0 43 ef ba ba 6b f2 0d 3b 60 75 62 3b f7 ef ad bb
       -0.0014261979 0.0021659385 0.0034554824 -0.005308147
0003c0 97 32 ff 38 a7 e3 df bb e0 e1 c4 3b e8 8b 57 bb
       0.000121687706 -0.006832558 0.0060083717 -0.0032889787
0003d0 1c c1 df 3b 15 d6 1a 3a d0 77 3d ba 7c 84 f6 3b
       0.0068284404 0.00059065345 -0.0007227631 0.0075231176
0003e0 58 3c 4d bb 0c 20 99 bb 42 8a 50 bb 23 99 80 bb
       -0.0031316485 -0.0046730097 -0.003182069 -0.0039245053
0003f0 dc d7 ef ba b1 1b de b9 f6 7f 4a 3a e0 98 46 39
       -0.0018298584 -0.0004236377 0.0007724756 0.00018939702

bias f4 [10]
000000 17 45 0a 3b ea 2e 78 bb d7 e1 27 bb 7a d1 83 3b
       0.002109831 -0.003786976 -0.0025616789 0.0040227743
000010 15 89 47 39 9b ce bf bb 7c 88 b4 3b 71 ab 4c bb
       0.00019029186 -0.0058534867 0.0055094343 -0.0031230117
000020 a3 0f b9 b8 60 36 9c bb
       -8.8244e-05 -0.004767224
