models/Demo/LOGS/models/nnet_epoch_9.pt (torch, 765965 bytes, 26 tensors)

weight f4 [12, 3, 5, 5]
0.036598586 -0.11155236 0.052117392 -0.08109916 -0.1099808 0.06864822 -0.031770702 -0.08151784
-0.074434094 -0.068155006 0.05343994 0.08164797 -0.09762913 -0.01690927 0.057896122 0.017839644
0.011667133 -0.07058666 -0.085845225 -0.10068104 -0.06161973 0.060795493 0.063066706 0.101240106
0.11340153 -0.0030415764 -0.009779949 0.025266321 0.018070813 -0.06535402 0.055851206 0.09384629
0.10576595 -0.0032418775 0.110085115 0.036288816 0.062198732 -0.008356169 -0.052231874 0.053634614
0.105803005 -0.09189194 -0.102275796 0.09121899 0.095869854 -0.0173317 0.0060232347 -0.0406989
0.04847326 0.09326764 -0.085051 -0.09995575 0.053116918 -0.074204974 0.0026903308 0.0058963015
0.02649648 -0.10923393 0.093073644 0.054052323 -0.08505115 0.10809784 0.10444783 0.09409966
0.002206755 -0.10651103 0.053362384 -0.06263517 0.023159826 0.010666012 -0.078556284 0.07531455
-0.024034986 -0.058983684 0.07923283 0.110906854 -0.06201539 -0.111197256 -0.10623304 -0.012533938
-0.05793405 -0.0067504994 -0.0013600235 -0.08069782 0.030080982 0.035442784 -0.07066472 0.08461397
0.08651698 -0.026621833 -0.035784543 0.011208045 0.036620926 0.09713425 0.049891114 0.08512854
-0.10462536 0.083739646 0.1017108 -0.061111454 -0.025257578 0.101874776 0.010480975 0.012995468
-0.09646397 -0.1121388 -0.014757731 -0.10004078 0.048074856 -0.018302405 0.0022193338 -0.05286052
-0.024567544 -0.08183215 -0.05684295 0.0037785969 -0.013893666 0.007345376 -0.04070164 0.048498623
0.028480511 0.07752277 -0.094935134 0.04008855 -0.047041137 0.05353657 0.10413717 -0.06404473
0.027594445 0.0138844885 0.10387759 -0.0900175 0.036967874 0.05409369 -0.089271136 0.05403934
0.015121692 -0.102205165 -0.09853632 -0.03883883 -0.031112293 0.03256493 -0.05599801 -0.10794146
-0.108558856 -0.061745957 -0.104566336 0.024349283 0.046640713 0.058023077 0.09462783 -0.049877387
-0.08094102 -0.055203095 0.024575459 -0.110302694 -0.0007206958 -0.08924577 0.062235564 -0.016948292
-0.010337643 -0.10026873 -0.0939484 -0.029769357 0.09873391 -0.062796734 -0.051902648 -0.0523681
-0.0108635025 0.08608754 0.115266345 -0.11364846 0.034273878 0.023758836 -0.04080283 0.021228928
0.007429401 0.08803185 0.07119583 0.025942374 0.0971075 0.046055716 0.019673219 -0.021821257
0.05558437 -0.08509268 -0.1062502 -0.040210024 -0.093195 -0.08943236 0.037371922 -0.10073487
-0.02088931 -0.020849586 -0.051320676 -0.09679831 0.10657169 -0.024727158 -0.0026289625 0.005083847
-0.10338983 -0.07063374 -0.10489723 -0.013183326 -0.030893845 -0.022897793 -0.07541478 -0.07291574
-0.0015803394 0.10801047 -0.086924896 -0.034400254 -0.05245649 -0.10917239 0.0070791543 -0.08352902
0.013508489 -0.03631221 -0.11139399 -0.062384076 0.00023080801 -0.050634366 -0.102958545 -0.11429603
-0.014737654 -0.0031424467 0.098669566 0.020246994 0.05371623 0.021011105 0.10505299 -0.08912904
0.022590581 0.018119719 -0.0090590725 -0.044093184 0.09898379 -0.006197745 0.11437838 -0.0029811326
0.030609958 -0.05439537 -0.09209425 0.012069506 0.010458808 -0.06992845 0.108170226 -0.016213102
-0.016792543 0.053363573 -0.06357417 -0.04776045 -0.09054923 -0.008502981 -0.092769295 0.027392007
00000000: 66e8 153d 9075 e4bd 0c79 553d 5117 a6bd
00000010: 9d3d e1bd 7097 8c3d ff21 02bd d3f2 a6bd
00000020: e770 98bd da94 8bbd d7e3 5a3d 0d37 a73d
00000030: c8f1 c7bd 4f85 8abc 7c24 6d3d 7224 923c
00000040: 8127 3f3c bd8f 90bd 9fcf afbd dc31 cebd
00000050: f864 7cbd b204 793d 1e29 813d f956 cf3d
00000060: 103f e83d 2f55 47bb 143c 20bc 51fb ce3c
00000070: 3e09 943c 54d8 85bd 3cc4 643d 7c32 c03d
00000080: d29b d83d ae75 54bb 4e74 e13d 95a3 143d
00000090: 19c4 7e3d 50e8 08bc 17f1 55bd f8af 5b3d
000000a0: 3faf d83d d731 bcbd f975 d1bd 06d1 ba3d
000000b0: 6a57 c43d 36fb 8dbc 8e5e c53b e4b3 26bd
000000c0: e68b 463d 1b03 bf3d 382f aebd 9ab5 ccbd
000000d0: 2091 593d c7f8 97bd 4350 303b c335 c13b
000000e0: 250f d93c 0ab6 dfbd 659d be3d f865 5d3d
000000f0: 4c2f aebd 6662 dd3d bee8 d53d 53b7 c03d
00000100: 359f 103b 7422 dabd 8492 5a3d de46 80bd
00000110: adb9 bd3c 7fc0 2e3c 1ee2 a0bd 843e 9a3d
00000120: 05e5 c4bc e098 71bd d244 a23d 2223 e33d
00000130: d903 7ebd 63bb e3bd b590 d9bd 255b 4dbc
00000140: 414c 6dbd 4b33 ddbb d142 b2ba e644 a5bd
00000150: 646c f63c 742c 113d aab8 90bd 174a ad3d
00000160: d02f b13d 0816 dabc d092 12bd f3a1 373c
00000170: d3ff 153d 52ee c63d a05a 4c3d df57 ae3d
00000180: d245 d6bd b17f ab3d c04d d03d 0150 7abd
00000190: fbe8 cebc b9a3 d03d 65b8 2b3c f2ea 543c
000001a0: e78e c5bd 07a9 e5bd 69ca 71bc 2ee2 ccbd
000001b0: 24ea 443d edee 95bc 3e72 113b 4684 58bd
000001c0: e041 c9bc 9d97 a7bd 27d4 68bd 56a2 773b
000001d0: 42a2 63bc 7bb1 f03b c3b6 26bd 7ea6 463d
000001e0: f64f e93c 42c4 9e3d 5a6d c2bd e433 243d
000001f0: 35ae 40bd 2a49 5b3d de45 d53d e229 83bd
00000200: bf0d e23c c47b 633c c6bd d43d 185b b8bd
00000210: a06b 173d 5891 5d3d c9d3 b6bd 5b58 5d3d
00000220: f9c0 773c f150 d1bd 69cd c9bd 7715 1fbd
00000230: 35df febc ce62 053d 2b5e 65bd 6a10 ddbd
00000240: 1b54 debd 54e9 7cbd e026 d6bd 2678 c73c
00000250: 550a 3f3d 9ba9 6d3d 3ccc c13d 3b4c 4cbd
00000260: 68c4 a5bd a41c 62bd 7952 c93c 61e6 e1bd
00000270: 14ed 3cba 7cc6 b6bd b8ea 7e3d 25d7 8abc
00000280: 385f 29bc b159 cdbd 0568 c0bd dede f3bc
00000290: 0135 ca3d 939b 80bd df97 54bd ef7f 56bd
000002a0: d5fc 31bc aa4e b03d c310 ec3d 86c0 e8bd
000002b0: c462 0c3d e4a1 c23c de20 27bd 4ae8 ad3c
000002c0: 5572 f33b 0b4a b43d 1fcf 913d 1a85 d43c
000002d0: 4ce0 c63d eba4 3c3d bb29 a13c 7ec2 b2bc
000002e0: 70ac 633d 1245 aebd b499 d9bd 44b3 24bd
000002f0: 05dd bebd 5028 b7bd 4d13 193d 154e cebd
00000300: 0f20 abbc c0cc aabc a135 52bd 313e c6bd
00000310: 4242 da3d 9c90 cabc ac4a 2cbb 6696 a63b
00000320: 0cbe d3bd 6ca8 90bd 5cd4 d6bd e1fe 57bc
00000330: 1715 fdbc 2794 bbbc 1073 9abd d954 95bd
00000340: 6423 cfba 9834 dd3d ae05 b2bd 48e7 0cbd
00000350: 9edc 56bd c695 dfbd 40f8 e73b 4311 abbd
00000360: b652 5d3c 1dbc 14bd 8822 e4bd 7286 7fbd
00000370: 0e05 7239 fb65 4fbd eedb d2bd 0914 eabd
00000380: 3376 71bc 82f1 4dbb 4513 ca3d 06dd a53c
00000390: 8d05 5c3d 7b1f ac3c 0626 d73d 4989 b6bd
000003a0: e20f b93c ce6f 943c 816c 14bc 0e9b 34bd
000003b0: 03b8 ca3d 7416 cbbb 363f ea3d 1b5f 43bb
000003c0: bcc1 fa3c aecd 5ebd e99b bcbd 2dbf 453c
000003d0: 6c5b 2b3c a636 8fbd 5a88 dd3d 57d1 84bc
000003e0: 8490 89bc c393 5a3d 2d33 82bd 76a0 43bd
000003f0: e071 b9bd 1650 0bbc d4fd bdbd 3465 e03c

bias f4 [12]
0.10741444 -0.070241325 -0.041784067 0.037433237 -0.05935153 0.006986279 0.096735805 -0.017852059
-0.008810242 -0.09629236 0.041939076 0.09386007
00000000: 1afc db3d afda 8fbd c525 2bbd 9853 193d
00000010: 971a 73bd 28ed e43b 6c1d c63d 7b3e 92bc
00000020: d558 10bc ee34 c5bd 4fc8 2b3d b539 c03d

weight f4 [12]
0.99998146 0.9999965 0.9999348 1.0000051 0.99998504 0.9999313 0.99993753 0.9999999
1.0000017 1.0000005 1.000002 1.0000039
00000000: c9fe 7f3f c5ff 7f3f bafb 7f3f 2b00 803f
00000010: 05ff 7f3f 7ffb 7f3f e8fb 7f3f feff 7f3f
00000020: 0e00 803f 0400 803f 1100 803f 2100 803f

bias f4 [12]
9.539419e-05 7.230184e-06 -0.00013701389 0.00016345721 6.581456e-05 -0.00012616784 -0.00014428605 -5.1217263e-05
8.968946e-05 -7.571189e-05 1.2542068e-05 0.00012995722
00000000: 5e0e c838 cf9a f236 63ab 0fb9 b665 2b39
00000010: ec05 8a38 ec4b 04b9 7e4b 17b9 1ed2 56b8
00000020: aa17 bc38 83c7 9eb8 c66b 5237 2045 0839

running_mean f4 [12]
0.22531605 -0.29722667 -0.68058425 0.0036372168 0.22735369 0.058870688 0.28859535 0.03040205
0.007355853 0.18683004 0.21242861 0.26532853
00000000: 40b9 663e 182e 98be c53a 2ebf 5f5e 6e3b
00000010: 68cf 683e 6422 713d c5c2 933e b80d f93c
00000020: 5e09 f13b 6050 3f3e e386 593e 24d9 873e

running_var f4 [12]
0.011388005 0.031106966 0.23074393 0.0019347594 0.051690575 0.0030552342 0.027924389 0.0033348016
0.012929962 0.04515454 0.016188521 0.023123752
00000000: c194 3a3c 09d4 fe3c 2348 6c3e c197 fd3a
00000010: 7fb9 533d 533a 483b b0c1 e43c b08c 5a3b
00000020: 31d8 533c f8f3 383d ca9d 843c 066e bd3c

weight f4 [12, 12, 5, 5]
-0.047592476 -0.013521552 0.056072846 0.0017548683 -0.0034277018 -0.021972515 -0.0044700126 0.011594292
-0.04453619 -0.0031392984 0.016739396 0.012716603 0.020619541 0.019990373 -0.005850369 0.019454665
0.040582918 -0.018463602 -0.045754705 0.018810898 0.039186563 0.01853636 -0.037559193 0.030004313
0.005414679 0.057313796 -0.045415245 -0.031001918 -0.010755235 -0.046873793 0.04889257 -0.02393844
-0.03376784 0.023569442 0.031254116 0.04585976 0.021451918 -0.022018863 0.036911614 -0.03310203
0.039329436 -0.0071605956 0.021485912 0.015999619 -0.026014388 -0.015292725 0.03249873 -0.0010527382
-0.032251902 -0.024772953 -0.033420045 -0.0389629 -0.015670843 0.050619733 -0.025113663 -0.019315416
-0.015640642 -0.030863866 -0.00815971 -0.0073132403 0.056796722 0.031405248 0.019380618 -0.0006159673
0.005924108 -0.014256591 -0.00927001 0.048014276 -0.008003877 -0.009960105 0.05027145 0.0012118078
0.05751671 0.009491026 0.013993578 -0.037861522 -0.047194608 0.029825412 0.03252427 0.05531967
-0.023250032 -0.052324954 -0.0042682276 0.04267192 -0.051717903 0.05457456 0.052003913 -0.039616104
-0.011080004 0.030511849 0.04109248 -0.057352386 -0.04867023 0.030952461 0.009341623 -0.0046844757
0.052814323 -0.05067585 -0.03973321 -0.028380567 0.056980513 -0.011207556 0.0032951448 0.013520722
0.044373967 0.05151151 0.045574285 0.054585747 -0.0034962452 -0.03168942 0.032666862 0.049081285
-0.0054699187 0.029635292 -0.02349651 -0.011365833 0.016489854 0.05782063 0.027690737 0.005150553
0.017313091 -0.0140682 -0.0090968795 0.025177484 -0.017176136 -0.045329887 -0.025761368 -0.02223545
0.046656203 -0.049565505 -0.045066718 0.036674723 -0.035133716 -0.0106465425 -0.025655678 0.044432618
0.013133976 -0.01953176 -0.016068757 -0.0074661747 -0.025114689 -0.04144818 -0.02997701 0.029395157
-0.031901482 0.05731468 -0.041247137 0.0072552795 -0.002766885 0.007158028 0.00044605476 -0.04790791
-0.003440809 -0.015079257 -0.034208946 -0.05070326 0.043862008 0.000619205 0.0030988383 0.020551376
-0.04765521 -0.026121218 -0.026109146 -0.036898818 -0.0019003985 0.044725254 -0.047837093 0.02003581
-0.02268593 -0.03304683 0.023655932 -0.028887082 0.025394462 0.05583517 -0.03953551 -0.031205362
-0.024207115 0.051673345 -0.010577573 -0.048218165 0.009051563 0.05622422 0.021540953 0.04160873
0.023590552 -0.050049674 -0.048122246 -0.028396154 -0.019325016 0.024800405 -0.046927072 -0.03197364
-0.026136955 0.05093243 0.035341017 0.02033819 0.016509611 -0.0024814087 -0.04865623 0.036946047
-0.005038444 0.041245796 0.0005872048 0.015218204 0.049945936 -0.03301605 -0.007862199 0.05604547
-0.052133113 0.025450964 -0.033038348 0.052042976 0.004602608 -0.016761828 0.02295516 -0.05044531
-0.037319593 0.056355026 0.04349324 0.0049666855 -0.03236552 0.032606542 0.01786303 0.0407477
-0.047480505 0.039427448 0.019377835 -0.056290474 -0.03719428 -0.041094042 0.056949478 0.014665769
-0.021734638 0.019664597 0.03419641 -0.0227449 -0.001962632 0.022006463 0.02741971 0.022343434
-0.020440066 0.005187758 -0.056209527 -0.02139952 0.030111978 -0.05067625 -0.054353636 0.04754466
0.02731169 0.029744098 -0.041081037 -0.0044836183 0.015273526 0.009576115 0.014920571 -0.051607598
00000000: 54f0 42bd 8089 5dbc a4ac 653d 9c03 e63a
00000010: 4ba3 60bb b4ff b3bc 2f79 92bb fcf5 3d3c
00000020: 946b 36bd b0bc 4dbb 0f21 893c 4d59 503c
00000030: 50ea a83c dac2 a33c 74b4 bfbb 645f 9f3c
00000040: 463a 263d fb40 97bc 4969 3bbd 5019 9a3c
00000050: 1782 203d 90d9 973c abd7 19bd 9bcb f53c
00000060: 9f6d b13b dfc1 6a3d 5605 3abd bcf7 fdbc
00000070: ba36 30bc bcfe 3fbd 9343 483d 8c1a c4bc
00000080: 2650 0abd b414 c13c 5104 003d 72d7 3b3d
00000090: efbb af3c e760 b4bc a230 173d ff95 07bd
000000a0: e717 213d 6ea3 eabb 3903 b03c a211 833c
000000b0: 201c d5bc 568e 7abc 631d 053d 08fc 89ba
000000c0: 921a 04bd a6f0 cabc 75e3 08bd 9097 1fbd
000000d0: 2460 80bc a356 4f3d 2bbb cdbc 5d3b 9ebc
000000e0: ce20 80bc 38d6 fcbc 4eb0 05bc e8a3 efbb
000000f0: aea3 683d caa2 003d 1ac4 9e3c de78 21ba
00000100: 051f c23b 7a94 69bc 3de1 17bc 9eaa 443d
00000110: b122 03bc b52f 23bc 70e9 4d3d 86d5 9e3a
00000120: a496 6b3d 4080 1b3c 5245 653c af14 1bbd
00000130: 224f 41bd 6c54 f43c 2b38 053d e196 623d
00000140: da76 bebc b152 56bd 7ddc 8bbb c0c8 2e3d
00000150: 27d6 53bd 9389 5f3d 0e02 553d 7f44 22bd
00000160: e888 35bc fcf3 f93c 9750 283d 56ea 6abd
00000170: 6f5a 47bd 0490 fd3c 9b0d 193c 3b80 99bb
00000180: d553 583d 7b91 4fbd 4abf 22bd 5d7e e8bc
00000190: 6664 693d e69f 37bc 5bf3 573b 0586 5d3c
000001a0: 7ac1 353d bcfd 523d 1aac 3a3d 4e95 5f3d
000001b0: 4321 65bb c4cc 01bd b0cd 053d 7509 493d
000001c0: 013d b3bb b6c5 f23c c17b c0bc c237 3abc
000001d0: bb15 873c 53d5 6c3d afd7 e23c f8c5 a83b
000001e0: 2fd4 8d3c 4f7e 66bc 140b 15bc 0341 ce3c
000001f0: f8b4 8cbc d5ab 39bd 8109 d3bc 1e27 b6bc
00000200: 931a 3f3d 3305 4bbd e197 38bd 3c38 163d
00000210: 5fe8 0fbd d66e 2ebc db2b d2bc fafe 353d
00000220: e32f 573c 1201 a0bc a0a2 83bc d0a6 f4bb
00000230: 52bd cdbc 91c5 29bd 5992 f5bc 1dce f03c
00000240: 21ab 02bd ccc2 6a3d c2f2 28bd b2bd ed3b
00000250: a154 35bb e48d ea3b 75dc e939 163b 44bd
00000260: 327f 61bb fd0e 77bc ae1e 0cbd 39ae 4fbd
00000270: a6a8 333d 2552 223a e115 4b3b 5c5b a83c
00000280: 1c32 43bd 2afc d5bc d9e2 d5bc 3723 17bd
00000290: cb16 f9ba d431 373d d4f0 43bd 2422 a43c
000002a0: d8d7 b9bc 1d5c 07bd 16ca c13c 9aa4 ecbc
000002b0: 0c08 d03c 6bb3 643d fdef 21bd 63a2 ffbc
000002c0: 004e c6bc 6ea7 533d 8f4d 2dbc 6980 45bd
000002d0: 024d 143c 5e4b 663d a776 b03c ea6d 2a3d
000002e0: f940 c13c e300 4dbd d51b 45bd 0d9f e8bc
000002f0: 7f4f 9ebc 382a cb3c 9a36 40bd cbf6 02bd
00000300: 2b1d d6bc 869e 503d bec1 103d 479c a63c
00000310: 2a3f 873c 219f 22bb c14b 47bd bd54 173d
00000320: 8819 a5bb 5af1 283d a6ee 193a c655 793c
00000330: 1c94 4c3d d63b 07bd 74d0 00bc ef8f 653d
00000340: 8889 55bd 8a7e d03c 3853 07bd 042b 553d
00000350: 79d1 963b 1a50 89bc 760c bc3c be9f 4ebd
00000360: 6edc 18bd 87d4 663d f825 323d 94bf a23b
00000370: b591 04bd 708e 053d 7d55 923c 0fe7 263d
00000380: eb7a 42bd ad7e 213d 44be 9e3c d790 66bd
00000390: 0859 18bd 3a52 28bd db43 693d b248 703c
000003a0: d70c b2bc a617 a13c 8911 0c3d 8353 babc
000003b0: 809f 00bb e646 b43c 4d9f e03c 9409 b73c
000003c0: ed71 a7bc 11fe a93b f63b 66bd 0c4e afbc
000003d0: 65ad f63c e691 4fbd eba1 5ebd 30be 423d
000003e0: c4bc df3c e5a9 f33c 9744 28bd 51eb 92bb
000003f0: d03d 7a3c 23e5 1c3c 6975 743c 7d62 53bd

bias f4 [12]
0.009529594 0.009808068 0.05315577 -0.03880567 0.05613601 -0.003627029 0.002965671 0.00041771392
-0.045445625 -0.052107114 -0.030365776 -0.017097214
00000000: 0422 1c3c 05b2 203c ddb9 593d b2f2 1ebd
00000010: dfee 653d 73b3 6dbb b45b 423b 9d00 db39
00000020: 3125 3abd 456e 55bd a6c1 f8bc 750f 8cbc

weight f4 [12]
1.0000019 0.99992424 1.0000062 1.0000006 1.0000021 1.0000018 0.9999391 0.9999244
0.999947 1.0000005 1.0000024 1.0000036
00000000: 1000 803f 09fb 7f3f 3400 803f 0500 803f
00000010: 1200 803f 0f00 803f 02fc 7f3f 0cfb 7f3f
00000020: 87fc 7f3f 0400 803f 1400 803f 1e00 803f

bias f4 [12]
-0.000101180216 -7.289093e-05 0.00013343086 -0.00013442898 1.7282704e-05 1.4944868e-05 -5.080997e-05 -0.00013431201
-6.3136125e-05 -7.390559e-06 0.00011758073 0.00012823015
00000000: b730 d4b8 05dd 98b8 93e9 0b39 81f5 0cb9
00000010: 53fa 9037 b8bb 7a37 ca1c 55b8 1bd6 0cb9
00000020: f367 84b8 6bfc f7b6 ac95 f638 8575 0639

running_mean f4 [12]
0.096628904 0.17712432 0.43665385 0.074872494 0.28791016 -0.045566116 -0.26007158 -0.13507038
0.12366007 -0.18734778 -0.12505871 -0.1445343
00000000: 60e5 c53d 1460 353e 1891 df3e c056 993d
00000010: f668 933e 89a3 3abd 1a28 85be e44f 0abe
00000020: 7e41 fd3d 19d8 3fbe 640f 00be cd00 14be

running_var f4 [12]
0.044172797 0.11130014 0.35909373 0.06054646 0.22662647 0.12909894 0.078319296 0.06690177
0.09090463 0.05500362 0.22430791 0.10884803
00000000: 89ee 343d 54f1 e33d 22db b73e 91ff 773d
00000010: c510 683e 8332 043e de65 a03d cc03 893d
00000020: 352c ba3d 7a4b 613d f9b0 653e b7eb de3d

weight f4 [24, 12, 5, 5]
0.01820511 0.01975114 -0.02452844 0.015586203 -0.05056991 -0.03510889 -0.03849662 -0.054353993
0.016151797 -0.027302243 0.012011915 0.042123612 -0.052389815 -0.04290232 -0.049071833 -0.020114407
-0.03446209 0.05479548 0.021324402 0.03748137 0.053883743 0.035634086 0.044733245 -0.049750686
-0.041315734 0.0059884517 0.02923692 0.024684872 0.04684745 -0.022004422 0.032767694 0.017027179
0.030036638 -0.031548243 0.010433322 0.02062313 -0.0021241 -0.040576648 0.030258669 -0.039884217
0.01885984 0.011519064 -0.0364862 0.03618308 0.0011993663 -0.034382388 0.0034230151 0.043437935
0.007473906 0.05514521 0.040708262 0.015246042 0.046630148 0.040708452 -0.020897882 0.020063164
0.010879644 -0.037180226 -0.011032185 -0.01596125 -0.03042048 -0.038814675 -0.003149473 -0.0046459045
-0.0237003 -0.0060953344 -0.036801994 -0.044689935 0.031213779 -0.011730555 0.0059363153 -0.049317747
0.012932138 0.040981717 0.03671927 -0.047891717 -0.022088127 0.046063356 -0.01842775 -0.003100865
-0.019490782 0.02135736 0.010815363 0.029770222 -0.0347036 -0.02368192 0.034989417 -0.00064784166
0.030794779 0.013373564 0.052792307 0.0076787192 -0.046644833 0.054516483 0.0026463838 0.015759373
-0.04612622 0.056154013 0.042481065 -0.033101436 -0.022304155 0.053553727 0.046875224 -0.011187777
0.0033607767 -0.0461637 0.015343718 0.005187604 0.01262258 0.05345264 -0.010361026 -0.017067447
0.023006545 -0.009657597 0.03872088 0.022039987 -0.024790505 -0.01391131 0.010625447 0.0055219787
0.052999068 -0.02991858 0.01976768 -0.016350161 0.049889736 -0.05309145 0.009326866 -0.05102527
0.0021499984 -0.0151817165 -0.008344044 -0.011710382 -0.04128932 -0.014175696 0.019280666 0.04160872
-0.023384973 -0.05506231 0.020945419 -0.05702032 -0.025951676 -0.0146241505 -0.028520806 0.036363576
-0.017656768 -0.033099238 -0.043009017 0.011927588 -0.03731189 0.02704171 0.05092696 0.020119943
0.04679284 -0.017783267 -0.041442003 -0.03800594 -0.006227581 0.022133144 -0.021803275 -0.04585191
0.04258301 0.04185029 -0.034916133 0.0053742556 0.048878618 0.009091245 -0.04133809 -0.04544418
0.051976748 0.047228627 -0.034878977 0.044110652 -0.052274793 -0.05711682 -0.05335301 -0.024242936
-0.034875527 -0.028593447 -0.024949627 -0.034209732 0.0098551195 0.043637842 0.048064437 0.045961812
0.046378937 0.036511138 0.012794039 0.025221976 -0.027267633 0.03164339 -0.02430611 0.013888122
0.036135357 -0.0007993827 0.023395617 -0.033578925 0.0072422656 0.014146392 0.021788895 0.031023292
-0.026922476 -0.04784363 0.035031576 0.043186117 -0.038145944 -0.038265795 0.045165826 -0.0018825667
0.055538654 0.049116418 -0.042508002 0.032259386 -0.015816236 -0.018414106 0.028683549 -0.018340481
0.01744099 -0.04161846 -0.03170044 -0.0109101925 0.006367042 0.041817345 -0.007961347 0.013502059
0.025741722 -0.021768127 0.009548594 -0.02099969 0.028293803 -0.041931782 0.042162675 0.024026036
0.024285968 0.032685906 -0.051418863 -0.003431077 0.030453889 0.031092355 -0.05672814 0.042343084
-0.036136776 0.006814473 -0.018220143 -0.05749972 0.0048253364 -0.010217261 -0.0069318847 0.04050937
-0.025025874 -0.023888282 0.0076138373 -0.052732013 0.033692546 -0.02276217 0.026057681 0.0059123556
00000000: e222 953c 25cd a13c deef c8bc 465d 7f3c
00000010: 6522 4fbd 57ce 0fbd a2ae 1dbd 4ba2 5ebd
00000020: c650 843c f4a8 dfbc a0cd 443c cf89 2c3d
00000030: b496 56bd 58ba 2fbd 8cff 48bd f8c6 a4bc
00000040: 1f28 0dbd 3a71 603d 83b0 ae3c 1186 193d
00000050: 33b5 5c3d 0cf5 113d 353a 373d 60c7 4bbd
00000060: b03a 29bd c63a c43b 4482 ef3c ee37 ca3c
00000070: 1de3 3f3d 9e42 b4bc 6b37 063d 957c 8b3c
00000080: 650f f63c bb38 01bd 86f0 2a3c d7f1 a83c
00000090: 7c34 0bbb b333 26bd 07e1 f73c a25d 23bd
000000a0: f47f 9a3c 75ba 3c3c 8e72 15bd b634 143d
000000b0: 0e34 9d3a 8cd4 0cbd aa54 603b faeb 313d
000000c0: abe7 f43b f2df 613d b5bd 263d 89ca 793c
000000d0: 41ff 3e3d e8bd 263d 0932 abbc 815b a43c
000000e0: 8940 323c 4b4a 18bd 56c0 34bc 2bc1 82bc
000000f0: 5f34 f9bc 23fc 1ebd 6467 4ebb ac3c 98bb
00000100: 2227 c2bc 5fbb c7bb b0bd 16bd cb0c 37bd
00000110: 0ab4 ff3c 8431 40bc 6c85 c23b 6801 4abd
00000120: 51e1 533c 72dc 273d f266 163d 1b2a 44bd
00000130: 29f2 b4bc eeac 3c3d cbf5 96bc e237 4bbb
00000140: 22ab 9fbc a1f5 ae3c ec32 313c aee0 f33c
00000150: 5d25 0ebd 9600 c2bc 1051 0f3d ebd3 29ba
00000160: 5545 fc3c cb1c 5b3c bf3c 583d c49d fb3b
00000170: a70e 3fbd ad4c 5f3d f46e 2d3b cd19 813c
00000180: d9ee 3cbd c001 663d a000 2e3d 5f95 07bd
00000190: 34b7 b6bc 275b 5b3d 3c00 403d f04c 37bc
000001a0: 7a40 5c3b 2616 3dbd 3864 7b3c c7fc a93b
000001b0: f0ce 4e3c 28f1 5a3d 4bc1 29bc 08d1 8bbc
000001c0: 3978 bc3c e63a 1ebc c999 1e3d 348d b43c
000001d0: 7515 cbbc 43ec 63bc 5b16 2e3c b7f1 b43b
000001e0: 8d15 593d cf17 f5bc d4ef a13c c6f0 85bc
000001f0: 2e59 4c3d 6c76 59bd b6cf 183c e0ff 50bd
00000200: fde6 0c3b bcbc 78bc 75b5 08bc e7dc 3fbc
00000210: fd1e 29bd 2e41 68bc 7df2 9d3c e86d 2a3d
00000220: d891 bfbc 0489 61bd ba95 ab3c 248e 69bd
00000230: 9c98 d4bc 229a 6fbc 77a4 e9bc f9f1 143d
00000240: eda4 90bc 1193 07bd 392a 30bd ee6b 433c
00000250: 5ad4 18bd 9486 dd3c ca98 503d 94d2 a43c
00000260: d9a9 3f3d 37ae 91bc 17bf 29bd 1eac 1bbd
00000270: bc10 ccbb 9150 b53c c89c b2bc 36cf 3bbd
00000280: 866b 2e3d 366b 2b3d 3804 0fbd 861a b03b
00000290: f234 483d 72f3 143c 2152 29bd ad23 3abd
000002a0: 92e5 543d ce72 413d 42dd 0ebd 5fad 343d
000002b0: 181e 56bd 54f3 69bd b088 5abd 1f99 c6bc
000002c0: a4d9 0ebd ce3c eabc 2963 ccbc 811f 0cbd
000002d0: 5e77 213c 98bd 323d 37df 443d 7442 3c3d
000002e0: d7f7 3d3d b48c 153d 179e 513c 519e ce3c
000002f0: 5f60 dfbc 809c 013d 9b1d c7bc 018b 633c
00000300: ab02 143d aa8d 51ba 2aa8 bf3c 0e8a 09bd
00000310: 8750 ed3b 45c6 673c a07e b23c 8f24 fe3c
00000320: 868c dcbc aff7 43bd 457d 0f3d ede3 303d
00000330: ec3e 1cbd 98bc 1cbd cdff 383d 75c0 f6ba
00000340: 807c 633d 4c2e 493d df1c 2ebd 6b22 043d
00000350: 0d91 81bc 2ed9 96bc c3f9 ea3c c73e 96bc
00000360: 68e0 8e3c 1e78 2abd 52d8 01bd aac0 32bc
00000370: 9fa2 d03b aa48 2b3d 4f70 02bc bd37 5d3c
00000380: 4ee0 d23c 1253 b2bc b571 1c3c 8b07 acbc
00000390: 68c8 e73c a9c0 2bbd c5b2 2c3d 40d2 c43c
000003a0: 5ef3 c63c a8e1 053d 969c 52bd ecdb 60bb
000003b0: 6f7a f93c 65b5 fe3c c45b 68bd f16f 2d3d
000003c0: 2804 14bd f14b df3b 6942 95bc d484 6bbd
000003d0: db1d 9e3b 4c66 27bc dd24 e3bb 27ed 253d
000003e0: 1003 cdbc 5cb1 c3bc 7f7d f93b 86fd 57bd
000003f0: 3201 0a3d bb77 babc eb76 d53c 6fbc c13b

bias f4 [24]
-0.04867622 0.030635592 -0.026310032 0.056081012 0.043049198 0.019806428 0.009287452 -0.023952525
0.025931355 -0.032767896 -0.016143024 0.01956529 -0.015614885 0.035955377 0.009455648 0.02590748
0.05129988 -0.007989459 -0.035607122 0.01219054 0.022199202 0.010891273 -0.044863775 0.03123407
00000000: b760 47bd 7ef7 fa3c 2388 d7bc 34b5 653d
00000010: 5b54 303d 1741 a23c 662a 183c 1638 c4bc
00000020: fe6d d43c a137 06bd 603e 84bc 6347 a03c
00000030: 93d5 7fbc f245 133d ddeb 1a3c ec3b d43c
00000040: d31f 523d 38e6 02bc c6d8 11bd d5ba 473c
00000050: 1adb b53c 4f71 323c 14c3 37bd 98de ff3c

weight f4 [24]
0.99994946 0.9999856 0.9999379 1.000001 1.0000036 1.0000025 1.0000291 0.99994105
1.0000006 0.9999941 1.0000021 0.99996585 0.99995214 1.0000005 1.0000002 1.0000011
0.9999918 1.0 1.000004 0.99992126 1.0000015 0.99993485 1.0000002 1.0000001
00000000: b0fc 7f3f 0eff 7f3f eefb 7f3f 0800 803f
00000010: 1e00 803f 1500 803f f400 803f 23fc 7f3f
00000020: 0500 803f 9dff 7f3f 1200 803f c3fd 7f3f
00000030: ddfc 7f3f 0400 803f 0200 803f 0900 803f
00000040: 76ff 7f3f 0000 803f 2200 803f d7fa 7f3f
00000050: 0d00 803f bbfb 7f3f 0200 803f 0100 803f

bias f4 [24]
-7.093889e-05 -5.05221e-05 -5.405111e-06 4.496819e-05 9.00248e-05 -1.6873106e-05 0.0002487377 -0.00010386935
6.759227e-05 9.3043556e-05 -8.268885e-05 -8.979354e-05 -0.00012937243 2.9578643e-05 8.9637535e-05 8.092946e-05
-1.9017556e-05 -5.3512755e-05 7.043937e-05 -0.00011428213 -9.758822e-05 -9.708648e-05 6.662707e-05 0.00010437337
00000000: 07c5 94b8 b1e7 53b8 8d5d b5b6 3a9c 3c38
00000010: b2cb bc38 b88a 8db7 0269 8239 6fd4 d9b8
00000020: 53c0 8d38 6120 c338 3d69 adb8 8a4f bcb8
00000030: 26a8 07b9 a71f f837 c9fb bb38 acb8 a938
00000040: e487 9fb7 e272 60b8 d9b8 9338 c0aa efb8
00000050: 47a8 ccb8 e89a cbb8 23ba 8b38 07e3 da38

running_mean f4 [24]
0.15940481 -0.23284489 0.6748382 0.058762334 0.0045700143 -0.13667904 0.5760765 0.21171331
-0.78366864 -0.034046106 0.23543161 0.4389883 0.08312261 0.44685352 -0.16653618 -0.40787503
-0.26174706 -0.031595804 -0.09664322 0.43325937 0.12933664 -0.07793004 -0.11302937 0.031518534
00000000: 043b 233e e46e 6ebe 32c2 2c3f c6b0 703d
00000010: 0fc0 953b 97f5 0bbe c079 133f 60cb 583e
00000020: 829e 48bf ee73 0bbd fc14 713e 13c3 e03e
00000030: 303c aa3d fcc9 e43e 7688 2abe ffd4 d0be
00000040: b603 86be 9a6a 01bd e1ec c5bd 2cd4 dd3e
00000050: d370 043e c999 9fbd f17b e7bd 9419 013d

running_var f4 [24]
0.25354218 0.10911969 0.69078326 0.20926829 0.09074941 0.11950738 0.30418453 0.13772595
0.421356 0.16498627 0.10990465 0.09595792 0.33372954 0.16657807 0.25262937 0.22497414
0.115179285 0.20496124 0.12513743 0.13844058 0.14843759 0.102480635 0.11503734 0.13866943
00000000: 48d0 813e 257a df3d 2cd7 303f 6d4a 563e
00000010: d4da b93d 49c0 f43d 13be 9b3e 0808 0d3e
00000020: f9bb d73e 29f2 283e b015 e13d 9685 c43d
00000030: 99de aa3e 7193 2a3e a358 813e 9f5f 663e
00000040: 1ee3 eb3d 5ce1 513e 0724 003e 5ec3 0d3e
00000050: 0600 183e 5ee1 d13d b298 eb3d 5cff 0d3e

weight f4 [24, 24, 5, 5]
-0.027018027 0.016218824 0.0048846873 0.004660275 0.035365846 -0.012999571 0.0032038845 -0.016704263
0.011358855 0.007787168 0.022494305 -0.027828863 0.01635015 -0.0028003107 0.022213157 -0.020527104
-0.021920953 -0.012701321 0.0256544 -0.014241462 -0.023245405 0.03360766 0.004078604 -0.017241735
-0.02894339 0.023327118 0.032248937 -0.038779087 0.0030008182 0.0012247345 0.03722185 -0.021323657
-0.008670799 0.009691046 0.017452054 -0.0031327638 0.0069223037 -0.005176546 0.037098296 0.0077697937
0.034604527 -0.005071411 0.009000468 -0.028465845 -0.020070558 -0.009774144 -0.004202482 0.015136114
-0.034508016 -0.021412443 -0.026100285 -0.030189823 0.040342554 0.0053469553 -0.0039892574 -0.006049235
-0.01398611 0.001934295 0.011565743 -0.024293078 -0.016844673 -0.027043443 -0.021480035 0.039346505
-0.012885755 0.0013722287 -0.03968827 -0.026973242 -0.016105052 0.004711192 -0.025743168 0.036437683
0.025382599 0.01593825 0.017182207 -0.01103369 0.03923772 -0.0022700028 0.013083231 0.02421221
0.012360587 0.010764685 -0.032902848 0.0006313246 0.035138763 0.015555348 -0.018301517 -0.018198999
0.019903155 0.015605107 -0.03229184 0.024874162 0.030111898 -0.0077355136 -0.03503969 -0.031024503
-0.01109117 0.025430648 -0.006423653 -0.014163253 0.023561977 -0.024401288 -0.019845042 0.029882887
-0.039198708 0.013426156 0.03956307 -0.020665525 0.0029871385 0.025810119 -0.015457055 0.011209516
-0.00065554 -0.019337663 0.0025656063 -0.02892858 -0.0030088716 -0.011057298 0.033941634 -0.018152528
0.011853897 -0.038261637 -0.016414318 -0.019960819 -0.035141837 -0.021046843 -0.014428579 0.025153276
-0.037756555 -0.036202036 0.008323252 -0.025783846 0.036276776 -0.01526934 0.009398071 0.015707325
0.019709578 -0.035870206 0.030363567 0.0214777 -0.006078112 0.032315534 -0.00065838377 -0.011852618
-0.028899465 0.01493521 0.014440966 0.04047423 0.025503732 0.0071315523 -0.023640333 -0.03983699
-0.016050866 -0.005839514 0.020417146 -0.020893347 0.014843365 -0.011990141 0.036523413 -0.034046307
-0.019608323 -0.025404437 0.032006603 0.032366697 0.021174306 0.006451103 -0.029937845 0.011037524
-0.03937736 -0.04040115 0.03440852 -0.03802054 0.025618618 0.016152168 0.0100231655 -0.038572982
-0.0089821 -0.00600661 -0.03274134 0.0133348 0.031701665 -0.022055756 0.030392809 0.007993553
0.038161103 0.017324105 -0.009470699 0.01604316 -0.020650875 0.005090898 0.009377808 -0.017746624
-0.009455853 0.038156956 0.001441754 -0.035645857 -0.0023078106 -0.010445145 0.024683889 0.006425322
-0.012843203 0.028731426 -0.02230218 0.036544725 -0.0033569841 -0.011757683 0.015852524 0.0038212065
-0.0220312 0.036806878 -0.030345086 -0.008487207 -0.012892985 0.031145766 -0.01536804 -0.027159454
0.033866256 0.032016493 0.040315785 0.01075113 -0.03960347 -0.02933726 0.035587966 -0.0017807255
0.018398037 -0.03710817 0.014467108 0.008687142 0.022048993 0.038705833 -0.02369178 0.005220628
0.01583822 0.024360534 0.0096255 -0.009333063 0.031276613 0.0060664243 0.034291912 0.035630334
0.03889185 0.020743256 0.007382786 0.030969268 0.035215247 -0.038885996 0.018288989 0.035836253
0.03705851 -0.036600456 0.03136509 0.022231398 -0.034990028 0.013923883 -0.034376156 -0.028971734
00000000: e954 ddbc 57dd 843c ba0f a03b 38b5 983b
00000010: c7db 103d 27fc 54bc 43f8 513b 61d7 88bc
00000020: 7e1a 3a3c 802b ff3b fa45 b83c 5bf9 e3bc
00000030: c0f0 853c 6b85 37bb 5ef8 b53c 7528 a8bc
00000040: 9293 b3bc 3419 50bc 2d29 d23c 0555 69bc
00000050: 266d bebc 30a8 093d cfa5 853b 8a3e 8dbc
00000060: b01a edbc 8318 bf3c 7617 043d d2d6 1ebd
00000070: 60a9 443b 4587 a03a f075 183d f3ae aebc
00000080: f80f 0ebc 31c7 1e3c 9cf7 8e3c 0e4f 4dbb
00000090: 7ed4 e23b 04a0 a9bb 62f4 173d c199 fe3b
000000a0: 7abd 0d3d 142e a6bb b376 133c 3431 e9bc
000000b0: 036b a4bc bb23 20bc f9b4 89bb 77fd 773c
000000c0: 4758 0dbd 2669 afbc 44d0 d5bc a650 f7bc
000000d0: 3c3e 253d 8335 af3b 51b8 82bb a938 c6bb
000000e0: ff25 65bc 2c88 fd3a 3e7e 3d3c 4702 c7bc
000000f0: d7fd 89bc 368a ddbc e6f6 afbc cd29 213d
00000100: c61e 53bc 5bdc b33a 2b90 22bd fdf6 dcbc
00000110: beee 83bc 5860 9a3b 56e3 d2bc ae3f 153d
00000120: 2bef cf3c ef90 823c b3c1 8c3c a6c6 34bc
00000130: bbb7 203d 54c4 14bb 0c5b 563c af58 c63c
00000140: 0f84 4a3c 5d5e 303c 23c5 06bd 7a7f 253a
00000150: aaed 0f3d dcdb 7e3c 10ed 95bc 1116 95bc
00000160: f10b a33c 90ac 7f3c 7344 04bd e6c4 cb3c
00000170: 3aad f63c 317a fdbb c785 0fbd 1927 febc
00000180: bdb7 35bc ef53 d03c 827d d2bb fd0c 68bc
00000190: 0c05 c13c 36e5 c7bc 1292 a2bc f5cc f43c
000001a0: d38e 20bd 61f9 5b3c e30c 223d bf4a a9bc
000001b0: dec3 433b be6f d33c 963f 7dbc 1ea8 373c
000001c0: 8bd8 2bba 056a 9ebc bb23 283b a1fb ecbc
000001d0: 7d30 45bb ab29 35bc 6206 0b3d 9cb4 94bc
000001e0: d936 423c 3cb8 1cbd 5277 86bc df84 a3bc
000001f0: e3f0 0fbd 6e6a acbc d965 6cbc 3e0e ce3c
00000200: 9ea6 1abd 9648 14bd 405e 083c a538 d3bc
00000210: f596 143d 412c 7abc 5efa 193c a6ac 803c
00000220: fb75 a13c a3ec 12bd 04bd f83c 00f2 af3c
00000230: e62a c7bb 4b5d 043d 6397 2cba 7c31 42bc
00000240: 92be ecbc d0b2 743c cd99 6c3c 4ec8 253d
00000250: 34ed d03c ccaf e93b 5fa9 c1bc 1d2c 23bd
00000260: 1b7d 83bc 6559 bfbb dc41 a73c 8628 abbc
00000270: 9631 733c 4c72 44bc 9399 153d 2474 0bbd
00000280: a2a1 a0bc f71c d0bc 5b19 033d f192 043d
00000290: bd75 ad3c c663 d33b 3640 f5bc bbd6 343c
000002a0: 284a 21bd ad7b 25bd f3ef 0c3d 6dbb 1bbd
000002b0: 23de d13c 8d51 843c 3438 243c b4fe 1dbd
000002c0: a829 13bc 19d3 c4bb c91b 06bd 347a 5a3c
000002d0: 9bd9 013d 46ae b4bc 57fa f83c 64f7 023c
000002e0: d14e 1c3d 48eb 8d3c fe2a 1bbc f26c 833c
000002f0: 062c a9bc 8cd1 a63b 61a5 193c 5e61 91bc
00000300: b9ec 1abc 784a 1c3d 3df9 bc3a 6401 12bd
00000310: a33e 17bb 1d22 2bbc de35 ca3c 828b d23b
00000320: 4c6c 52bc 2b5e eb3c 10b3 b6bc ecaf 153d
00000330: d900 5cbb 4ca3 40bc 27dd 813c 356d 7a3b
00000340: c67a b4bc cfc2 163d 4296 f8bc ed0d 0bbc
00000350: 193d 53bc 6825 ff3c 3bca 7bbc 817d debc
00000360: 58b7 0a3d ba23 033d 2a22 253d 8225 303c
00000370: 4037 22bd b254 f0bc b0c4 113d 3c67 e9ba
00000380: 7bb7 963c bdfe 17bd 7307 6d3c 8454 0e3c
00000390: 17a0 b43c 028a 1e3d 4415 c2bc cd11 ab3b
000003a0: 28bf 813c be8f c73c 46b4 1d3c b4e9 18bc
000003b0: e81b 003d dbc8 c63b ad75 0c3d 1df1 113d
000003c0: 0f4d 1f3d c3ed a93c 4ceb f13b 43b3 fd3c
000003d0: dd3d 103d ec46 1fbd cad2 953c 09c9 123d
000003e0: aaca 173d 5cea 15bd ae78 003d 9f1e b63c
000003f0: b451 0fbd 0021 643c 03ce 0cbd 2156 edbc

bias f4 [24]
0.015652755 0.01499905 -0.023723956 -0.016644383 -0.028918417 0.02762173 -0.03975001 -0.020408565
0.0028293235 0.011846295 0.037032068 0.031007322 -0.027389841 0.036583193 0.017092485 -0.00073179096
0.0009429862 0.006685399 -0.032958362 0.021030383 -0.009796393 -0.0131365685 -0.023773324 0.029656608
00000000: 353a 803c 93be 753c be58 c2bc cd59 88bc
00000010: 51e6 ecbc f746 e23c e8d0 22bd dd2f a7bc
00000020: 2c6c 393b f616 423c f0ae 173d 1103 fe3c
00000030: a960 e0bc 42d8 153d 8a05 8c3c a9d5 3fba
00000040: bc32 773a 3111 db3b 59ff 06bd e947 ac3c
00000050: 0d81 20bc c33a 57bc 46c0 c2bc 6af2 f23c

weight f4 [24]
0.9999902 0.9999603 1.0000015 1.0000024 1.0000046 1.0 0.9999779 1.0000004
0.99999917 1.0000007 0.9999988 1.0000039 1.0 0.99993217 1.0000155 1.0000013
1.0 0.9999807 1.0000021 0.9999001 1.0000012 1.000005 0.9999979 1.0
00000000: 5cff 7f3f 66fd 7f3f 0d00 803f 1400 803f
00000010: 2700 803f 0000 803f 8dfe 7f3f 0300 803f
00000020: f2ff 7f3f 0600 803f ecff 7f3f 2100 803f
00000030: 0000 803f 8efb 7f3f 8200 803f 0b00 803f
00000040: 0000 803f bcfe 7f3f 1200 803f 74f9 7f3f
00000050: 0a00 803f 2a00 803f ddff 7f3f 0000 803f

bias f4 [24]
9.421132e-06 0.000119479104 1.2938469e-05 0.00013452102 0.00022996134 0.000115059804 9.005838e-05 9.092225e-05
6.943378e-05 0.0001309814 9.359387e-05 0.00025074353 5.872654e-05 -4.6781915e-05 0.00024108862 5.2965876e-05
0.0001624919 0.0001313002 8.982259e-05 -5.085377e-05 1.644193e-05 0.00018767167 9.2442715e-05 0.000121883786
00000000: 740f 1e37 db90 fa38 4d12 5937 360e 0d39
00000010: c721 7139 434c f138 b9dd bc38 83ad be38
00000020: fa9c 9138 0d58 0939 d447 c438 3a76 8339
00000030: 2451 7638 b337 44b8 bccc 7c39 ad27 5e38
00000040: 9662 2a39 a1ad 0939 235f bc38 d24b 55b8
00000050: c7ec 8937 bbc9 4439 cedd c138 dc9b ff38

running_mean f4 [24]
-0.07062345 0.10266478 0.24794275 0.28940013 -0.018482285 0.2564153 -0.17474565 0.193484
0.032652162 0.012973709 0.13768905 0.1808557 -0.12510268 0.14619786 0.29469985 0.01119006
0.19219385 0.08567239 0.033628073 0.36623883 0.030410122 -0.08955062 -0.11886153 -0.4918666
00000000: 07a3 90bd ea41 d23d b4e4 7d3e 412c 943e
00000010: 2968 97bc de48 833e 86f0 32be ab20 463e
00000020: 46be 053d ae8f 543c 5cfe 0c3e 3d32 393e
00000030: eb1a 00be e4b4 153e e6e2 963e 8356 373c
00000040: 77ce 443e 0275 af3d 97bd 093d a883 bb3e
00000050: a61e f93c 5166 b7bd ad6d f3bd f0d5 fbbe

running_var f4 [24]
0.20307109 0.16788836 0.13940929 0.15783785 0.08654533 0.13007411 0.11645547 0.07543553
0.10214968 0.13074774 0.1444858 0.074035734 0.101067364 0.14803362 0.10192382 0.10767734
0.13871157 0.11373423 0.11628556 0.12089783 0.108910896 0.21319488 0.12751411 0.1916318
00000000: def1 4f3e edea 2b3e 4fc1 0e3e 3fa0 213e
00000010: ae3e b13d 2632 053e 3580 ee3d f17d 9a3d
00000020: da33 d13d bce2 053e 16f4 133e 0ca0 973d
00000030: 68fc ce3d 2096 173e 70bd d03d f085 dc3d
00000040: 680a 0e3e 7eed e83d 2027 ee3d 4899 f73d
00000050: ad0c df3d c24f 5a3e 0f93 023e 203b 443e

weight f4 [10, 16224]
0.0052954704 0.00069962884 -0.0051914537 0.005935652 -0.005808894 0.0049660257 -0.004824623 0.00086390594
-0.0009730646 0.000120736084 -0.0065615415 -0.0059146904 0.005967598 -0.005393011 0.0012913162 0.0072504077
-0.00062776 0.0025516762 -0.004025732 0.0025801088 -0.0008096969 -0.0024346497 -9.746298e-05 0.0030705975
0.0036646943 0.006995685 0.0014795888 0.003950045 -0.0071309456 0.00089276285 -0.006578461 -0.00024155062
-0.0025738531 -0.0065425066 0.006474482 -0.0036533836 0.0071253693 -0.004133158 0.00036897915 0.003554149
-0.0051450427 -0.005974107 0.000673879 4.983613e-05 -0.00079818646 -0.004912379 -0.004881952 -0.0062981793
-0.0023293344 -0.004230199 0.003595398 0.0014598019 -0.0025158839 0.0045238067 0.004144684 -0.0066059427
-0.0017113085 7.271652e-05 -0.0051759966 -0.0032662272 0.0038099864 0.0055360696 -0.0007705094 0.0017889966
-0.0029700864 -0.0013340604 -0.006041857 0.004021085 0.002446347 4.8900827e-05 -0.00079201674 -0.0024676754
0.0005678832 0.00021862648 0.0037597315 -0.0015473666 0.0009257032 0.0022711495 -0.005381351 0.0033859496
0.007961454 -0.0031232717 0.003813779 -0.0046922853 -0.0060800877 0.0012956848 0.0017865946 -0.0067453105
0.0035596997 0.008022914 0.004126315 -0.00077552715 -0.0058536394 0.0010221911 -0.0059399726 -0.0040719053
0.0034783697 -0.004184725 0.001727158 0.003886072 -0.0074966126 -0.0032975217 -0.003366725 0.0026483673
0.0034442744 -0.006811963 -0.0056048064 0.0027382998 -0.0066941786 -0.0005595049 -0.0036156846 -0.007399048
0.0026139736 -0.0076006227 0.006170898 0.0047934293 -0.006286869 -0.0015998731 0.0069720275 -0.004631222
0.0076202555 0.0058743707 0.0023771224 -0.0025024747 0.0070795235 0.0031267903 0.006644883 0.0022996904
0.0077221426 0.0004068493 -0.0022843028 -0.0036194227 0.0019813983 0.0008959744 0.0069830203 0.0026344957
0.0064721513 0.004069162 0.00771133 0.0061561405 -0.0063198847 0.0071263453 0.0007033091 -0.004320924
0.005329917 0.0032521645 0.0043713576 0.0038820112 0.0060128123 0.007993042 0.007674112 0.005332343
0.004816531 0.0036035706 0.002936561 -0.0035170023 0.0017720277 0.0062277894 0.0030548559 0.0030568375
0.0059675938 0.0068181716 0.004712301 0.0063409028 0.0026990245 0.0002221498 -0.0006556138 0.0026130797
0.0012847589 -0.0047460697 -0.0063849473 -0.004295253 0.0025347562 0.000103663355 0.004596847 -0.004649444
-0.0024107988 0.004297644 -0.0028610595 0.007472241 0.00072439836 -0.0012591751 0.00037276204 0.0013794608
0.001355404 0.0067133885 -0.0023068856 0.0026267136 -0.00090622046 0.0017579489 0.00662168 0.003308545
0.007177141 0.0034033759 0.0036845412 0.0020544585 -0.0071135005 -0.007233271 0.0027954017 0.0038760365
-0.0040889666 -0.0028524674 -0.005658108 0.0056366306 0.0070215105 -0.00102955 0.006231104 -0.0069819074
0.0078811925 -0.0027549302 -0.005761967 0.0070713405 -0.005396251 0.00089133286 0.0021974028 0.0039354865
0.007028699 0.0046820375 -0.0017742412 0.0054966365 0.001852914 -0.004815033 -0.0016804382 0.0047767246
-0.0005003216 -0.0015181706 0.00080392265 -0.0023581127 -0.004422437 0.00093637797 -0.0026392078 -0.0060725603
0.004134505 -0.00087909 0.005741333 -0.00033939607 -0.0007900194 -0.00021483922 0.007777833 0.0012672205
0.007326904 -0.0058711916 -0.0037260668 0.002084437 -0.005569923 0.0057245963 0.00044717416 0.00078494806
0.0005921666 0.00023115071 0.004679099 0.0007580621 -0.0049692923 0.0027406416 -0.0072169723 0.0019392474
00000000: a085 ad3b 4c67 373a 121d aabb dc7f c23b
00000010: 8958 bebb 0bba a23b df17 9ebb bf77 623a
00000020: 4315 7fba b133 fd38 3302 d7bb 05d0 c1bb
00000030: d78b c33b dbb7 b0bb 6241 a93a d494 ed3b
00000040: 4390 24ba 063a 273b 4aea 83bb 0b17 293b
00000050: d741 54ba a58e 1fbb 0a65 ccb8 143c 493b
00000060: 5e2b 703b 0f3c e53b c3ee c13a 616f 813b
00000070: b5aa e9bb 4d08 6a3a 2190 d7bb c048 7db9
00000080: 17ae 28bb 8662 d6bb e427 d43b 9b6d 6fbb
00000090: ee7b e93b 716f 87bb 8b73 c139 baec 683b
000000a0: bf97 a8bb 71c2 c3bb 41a7 303a 2307 5138
000000b0: 633d 51ba 06f8 a0bb c8f8 9fbb f560 cebb
000000c0: bfa7 18bb 7b9d 8abb c5a0 6b3b d356 bf3a
000000d0: 87e1 24bb 713c 943b 21d0 873b aa76 d8bb
000000e0: fc4d e0ba 627f 9838 689b a9bb 330e 56bb
000000f0: f7b0 793b eb67 b53b 03fc 49ba c47c ea3a
00000100: c8a5 42bb a4db aeba c5fa c5bb 4ec3 833b
00000110: e452 203b dd1a 4d38 589f 4fba b9b8 21bb
00000120: ffdd 143a 193f 6539 d465 763b 02d1 caba
00000130: e4aa 723a 91d7 143b 0b56 b0bb cfe6 5d3b
00000140: c270 023c ceaf 4cbb 98f0 793b bec1 99bb
00000150: 793b c7bb f8d3 a93a 2b2c ea3a c407 ddbb
00000160: da49 693b 8a72 033c 0a36 873b bf4c 4bba
00000170: e3cf bfbb 0bfb 853a 1aa4 c2bb 9e6d 85bb
00000180: 5cf5 633b 0520 89bb ce61 e23a 78ad 7e3b
00000190: 25a6 f5bb 3c1b 58bb 46a4 5cbb 3b90 2d3b
000001a0: 56b9 613b e336 dfbb 86a8 b7bb 0c75 333b
000001b0: d75a dbbb bdab 12ba 1ff5 6cbb b773 f2bb
000001c0: 334f 2b3b a50e f9bb 3f35 ca3b 3312 9d3b
000001d0: 1402 cebb d5b2 d1ba 9b75 e43b 82c1 97bb
000001e0: 56b3 f93b cb7d c03b 7fc9 1b3b 8f00 24bb
000001f0: 59fb e73b d6ea 4c3b 52bd d93b 67b6 163b
00000200: 070a fd3b 644e d539 3eb4 15bb d633 6dbb
00000210: 59da 013b d3df 6a3a d2d1 e43b 81a7 2c3b
00000220: 5714 d43b 9b56 853b 53af fc3b 73b9 c93b
00000230: 0917 cfbb 1e84 e93b 465e 383a 8a96 8dbb
00000240: 96a6 ae3b 4422 553b 9b3d 8f3b 5769 7e3b
00000250: 2007 c53b 3ff5 023c 1e77 fb3b efba ae3b
00000260: fed3 9d3b e229 6c3b 5173 403b 827d 66bb
00000270: 6243 e83a 7c12 cc3b fa33 483b 3955 483b
00000280: ce8b c33b f86a df3b a569 9a3b 59c7 cf3b
00000290: 1ee2 303b e2f0 6839 7fdd 2bba 3440 2b3b
000002a0: 5b65 a83a eb84 9bbb d238 d1bb 32bf 8cbb
000002b0: 271e 263b d765 d938 26a1 963b 5d5a 98bb
000002c0: 7efe 1dbb 40d3 8c3b 9d80 3bbb b3d9 f43b
000002d0: 8de5 3d3a e80a a5ba 466f c339 06cf b43a
000002e0: d0a7 b13a fcfb db3b 1e2f 17bb f124 2c3b
000002f0: 6d8f 6dba fa6a e63a aefa d83b 2dd4 583b
00000300: 392e eb3b 2c0b 5f3b 5878 713b 18a4 063b
00000310: 5e18 e9bb 1305 edbb 0f33 373b 1a05 7e3b
00000320: bdfc 85bb 76f0 3abb a667 b9bb 7cb3 b83b
00000330: b314 e63b f7f1 86ba 4a2e cc3b 7cc8 e4bb
00000340: 1e20 013c 0f8c 34bb e2ce bcbb b4b6 e73b
00000350: 09d3 b0bb 56a8 693a 4d02 103b 41f5 803b
00000360: 0051 e63b c76b 993b a88d e8ba 211d b43b
00000370: 7add f23a 6dc7 9dbb 2642 dcba 1286 9c3b
00000380: 0428 03ba 5afd c6ba 56be 523a 918a 1abb
00000390: 17ea 90bb 4377 753a 8ff6 2cbb 54fc c6bb
000003a0: be7a 873b bb72 66ba cb21 bc3b f8f0 b1b9
000003b0: 4e19 4fba 7746 61b9 31dd fe3b dd18 a63a
000003c0: 8716 f03b 2063 c0bb 0731 74bb 0d9b 083b
000003d0: e783 b6bb 6595 bb3b b372 ea39 f9c4 4d3a
000003e0: a13b 1b3a 0c61 7239 2153 993b b0b8 463a
000003f0: 72d5 a2bb 569c 333b 5a7c ecbb 582e fe3a

bias f4 [10]
0.005889922 -0.000106865315 -0.0058479523 -0.00026840312 -0.0011966794 0.0030220794 -0.007275634 -0.005643812
-0.007267533 -0.0012627557
00000000: 3f00 c13b e11c e0b8 2ea0 bfbb 75b8 8cb9
00000010: e6d9 9cba 140e 463b 7168 eebb baef b8bb
00000020: 7c24 eebb 0d83 a5ba
