models/Demo/LOGS/models/nnet_epoch_9.pt (torch, 765964 bytes, 26 tensors)

weight f4 [12, 3, 5, 5]
0.07983754 0.10873095 0.006230919 -0.027023805 -0.0076153683 0.0006362409 -0.054056305 0.027556375
0.08257025 0.10531236 -0.073446386 -0.029569885 0.0527118 0.097795404 0.037204545 0.04221607
-0.07341397 0.039353706 0.09510517 -0.071741425 0.0041829194 0.09404538 0.019345794 -0.09074773
0.049863894 -0.0026302505 0.08167839 -0.10191008 0.090615325 0.071141884 0.05790669 -0.11101227
-0.11383436 -0.030876717 0.108756274 -0.043977164 0.057237532 0.024533976 0.0398509 -0.11121778
0.017510843 0.0705617 -0.05020668 -0.10733525 -0.05625769 -0.07085024 -0.0547761 -0.11447664
-0.052740194 -0.046573278 0.04458882 -0.0346307 -0.11012581 -0.07113344 0.023413245 0.039970953
-0.051494934 0.015918449 -0.07810308 0.04162387 0.0867564 0.073368005 -0.0022431456 -0.0019824144
-0.0077795456 0.04204657 -0.101766884 0.0510556 0.032263037 0.10939586 -0.05275926 0.070537835
-0.0187759 0.09619232 0.056205392 0.004253673 0.030120883 0.09483662 -0.084059015 -0.006969137
-0.013810712 -0.095009305 -0.05263059 0.0052507245 0.075751 0.01747 0.024800977 0.09669949
-0.03255624 0.10468057 -0.032093868 -0.049382277 -0.014392262 -0.04648089 -0.06399127 -0.06713861
0.08815035 0.04428768 -0.09315125 -0.027236233 0.052884743 0.005613303 0.07951526 0.07014433
-0.016134042 -0.109489895 0.111097604 0.007095845 -0.078579955 0.05052919 0.051176198 0.081462465
0.06696248 0.10473205 -0.0006589269 0.114597216 -0.056542486 0.11301702 0.029434267 0.11089736
-0.06838472 0.08035793 0.05222636 -0.108833455 -0.0073506967 -0.029895721 0.01809679 0.0791445
-0.095139325 0.09935579 0.03236803 0.051878586 -0.11349042 0.029843409 -0.017907685 -0.029761605
0.010131507 0.055089988 0.053987704 -0.045120206 -0.088505454 -0.05531501 0.029186679 0.0664895
-0.018349031 -0.09449447 0.04342694 0.08441289 -0.015145641 -0.08565286 -0.11107261 0.007500353
0.027094867 0.041952234 -0.006870519 -0.059682686 0.07521071 -0.045579974 0.067991234 0.063906886
0.064661615 0.043347046 0.11405918 0.040749554 0.08057139 0.036528558 -0.08046731 -0.044728626
0.08283849 -0.11309109 -0.08806364 0.009914387 0.092453554 0.035372112 0.081070304 -0.093992665
0.058398742 -0.017333295 0.061960883 -0.040923774 -0.022344187 0.042582605 -0.07143011 -0.0946668
0.06873102 0.068284385 0.020284833 0.11038435 -0.02888146 0.0026045851 -0.056868903 0.08511479
-0.016410148 0.052910402 0.017205967 0.07708322 0.11317404 0.021541148 -0.08193775 0.068519495
0.08155942 -0.097997785 -0.024655215 -0.03863088 0.042493578 0.041710954 -0.08897061 -0.018642556
-0.04349089 0.017571043 0.077912234 -0.10175708 0.0016317248 0.05045135 -0.05223273 -0.045513324
0.08862402 -0.101663314 0.042664528 0.07917918 0.06295515 -0.037519794 -0.08313371 -0.03826205
-0.089599155 -0.0220363 0.04523835 0.015145355 -0.054342084 -0.026173864 0.11033211 0.053298555
0.053427767 -0.04270113 -0.069537975 -0.01923129 0.058944378 0.10921498 -0.052289374 0.0065521616
0.002828657 0.054185856 0.037307154 0.0015295295 -0.08313299 -0.01147379 0.07273507 0.05063329
-0.0171189 0.09833235 0.01849433 0.11287501 -0.039589293 0.01670418 -0.024872165 -0.042349085
00000000: dd81 a33d 55ae de3d bd2c cc3b 0761 ddbc
00000010: 578a f9bb 67c9 263a 256a 5dbd e8bd e13c
00000020: 971a a93d 02ae d73d 0f6b 96bd 8b3c f2bc
00000030: 54e8 573d f548 c83d cb63 183d c2ea 2c3d
00000040: 105a 96bd 5a31 213d 80c6 c23d 2bed 92bd
00000050: df10 893b dd9a c03d 127b 9e3c f2d9 b9bd
00000060: 153e 4c3d 4860 2cbb 0047 a73d 3bb6 d0bd
00000070: 8794 b93d d6b2 913d 912f 6d3d 675a e3bd
00000080: fd21 e9bd 2bf1 fcbc 9cbb de3d 6621 34bd
00000090: e771 6a3d 7afb c83c b33a 233d 26c6 e3bd
000000a0: e672 8f3c a782 903d 85a5 4dbd 95d2 dbbd
000000b0: 776e 66bd ee19 91bd e75c 60bd bb72 eabd
000000c0: 1a06 58bd 9fc3 3ebd c4a2 363d ecd8 0dbd
000000d0: a489 e1bd 69ae 91bd 22cd bf3c 95b8 233d
000000e0: 5aec 52bd 6867 823c 82f4 9fbd cb7d 2a3d
000000f0: 57ad b13d f741 963d bd01 13bb 65eb 01bb
00000100: 8feb febb 0639 2c3d 286b d0bd ad1f 513d
00000110: 3f26 043d f00a e03d 181a 58bd 2476 903d
00000120: ebcf 99bc 7b00 c53d a037 663d 6562 8b3b
00000130: 12c0 f63c b439 c23d 2227 acbd 5c5d e4bb
00000140: 5346 62bc 3d94 c2bd 2c93 57bd 450e ac3b
00000150: 5723 9b3d 3f1d 8f3c 6b2b cb3c 620a c63d
00000160: b159 05bd c462 d63d dc74 03bd 1245 4abd
00000170: 86cd 6bbc bf62 3ebd db0d 83bd f87f 89bd
00000180: 2c88 b43d 0067 353d 15c6 bebd 851e dfbc
00000190: ac9d 583d ccef b73b e6d8 a23d d5a7 8f3d
000001a0: 8a2b 84bc 3d3c e0bd 2487 e33d 4384 e83b
000001b0: 87ee a0bd b2f7 4e3d 229e 513d cbd5 a63d
000001c0: a023 893d c27d d63d d6bb 2cba f2b1 ea3d
000001d0: 1899 67bd 7875 e73d 2220 f13c 281e e33d
000001e0: 4a0d 8cbd b392 a43d 4feb 553d 13e4 debd
000001f0: 1dde f0bb dfe7 f4bc b83f 943c 8316 a23d
00000200: 68d8 c2bd 0c7b cb3d 5794 043d a47e 543d
00000210: aa6d e8bd 2a7a f43c 23b3 92bc 9cce f3bc
00000220: 9ffe 253c 0aa6 613d 3622 5d3d f7cf 38bd
00000230: 5942 b5bd fe91 62bd e718 ef3c a62b 883d
00000240: b550 96bc 5186 c1bd 72e0 313d aae0 ac3d
00000250: 6c25 78bc c46a afbd 097a e3bd 85c5 f53b
00000260: 0ef6 dd3c 1bd6 2b3d 1722 e1bb d575 74bd
00000270: 1308 9a3d 11b2 3abd fd3e 8b3d 9de1 823d
00000280: 4f6d 843d ac8c 313d dc97 e93d 01e9 263d
00000290: 9d02 a53d f89e 153d 0ccc a4bd 5d35 37bd
000002a0: 3aa7 a93d 4d9c e7bd b65a b4bd f46f 223c
000002b0: 4a58 bd3d 59e2 103d 3008 a63d 3a7f c0bd
000002c0: 8533 6f3d 8efe 8dbc b2ca 7d3d b09f 27bd
000002d0: 280b b7bc 196b 2e3d f349 92bd abe0 c1bd
000002e0: d9c2 8c3d afd8 8b3d 612c a63c 3111 e23d
000002f0: d098 ecbc b0b1 2a3b 5eef 68bd aa50 ae3d
00000300: 936e 86bc 94b8 583d 87f3 8c3c cfdd 9d3d
00000310: cbc7 e73d 1077 b03c fbce a7bd f353 8c3d
00000320: a008 a73d 10b3 c8bd bcf9 c9bc 6a3b 1ebd
00000330: bf0d 2e3d 1bd9 2a3d 3936 b6bd 46b8 98bc
00000340: 8123 32bd 26f1 8f3c 7390 9f3d 0466 d0bd
00000350: 99df d53a 13a6 4e3d fdf1 55bd 2e6c 3abd
00000360: 8380 b53d db34 d0bd 00c1 2e3d b228 a23d
00000370: a1ee 803d 5bae 19bd 0242 aabd abb8 1cbd
00000380: c37f b7bd 7885 b4bc d94b 393d 3924 783c
00000390: ce95 5ebd 926a d6bc cdf5 e13d 964f 5a3d
000003a0: 13d7 5a3d 61e7 2ebd ed69 8ebd f08a 9dbc
000003b0: a96f 713d 1aac df3d 622d 56bd 84b3 d63b
000003c0: fd60 393b fdf1 5d3d 63cf 183d 7e7a c83a
000003d0: a141 aabd 90fc 3bbc 20f6 943d da64 4f3d
000003e0: ef3c 8cbc 7962 c93d 6c81 973c 032b e73d
000003f0: 6228 22bd 34d7 883c b6c0 cbbc 3c76 2dbd

bias f4 [12]
0.015634844 -0.06681363 0.025729645 -0.03559142 0.0764112 -0.08559793 0.052240465 0.08554531
0.01149057 0.082881 -0.0699526 0.037269883
00000000: a514 803c 96d5 88bd fac6 d23c 4fc8 11bd
00000010: 7a7d 9c3d f84d afbd 19fa 553d 6132 af3d
00000020: f242 3c3c 84bd a93d 4f43 8fbd 4ea8 183d

weight f4 [12]
1.0000008 0.9999579 0.9999381 0.99998415 0.9999933 1.0 1.0000015 1.0000005
1.0000002 1.0000026 1.0000025 1.000001
00000000: 0700 803f 3efd 7f3f f1fb 7f3f f6fe 7f3f
00000010: 90ff 7f3f 0000 803f 0d00 803f 0400 803f
00000020: 0200 803f 1600 803f 1500 803f 0800 803f

bias f4 [12]
4.881075e-05 -5.6000968e-06 -5.2877884e-05 5.483254e-05 -2.5754816e-05 -4.373942e-06 -5.5140037e-05 2.1050662e-05
3.493099e-05 -6.657267e-06 2.2960323e-05 -5.5503002e-05
00000000: 25ba 4c38 77e8 bbb6 32c9 5db8 fefb 6538
00000010: 0c0c d8b7 e0c3 92b6 2a46 67b8 f495 b037
00000020: dd82 1238 7d61 dfb6 eb9a c037 e5cb 68b8

running_mean f4 [12]
0.122626014 0.14111586 0.19158944 0.0019558407 -0.068679444 -0.25848466 0.4179858 0.38320518
-0.13492359 0.11474249 -0.02072819 0.1310517
00000000: 5923 fb3d ad80 103e 0630 443e 902d 003b
00000010: cfa7 8cbd 1a58 84be 3c02 d63e 7833 c43e
00000020: 6929 0abe 1cfe ea3d 2ace a9bc 6b32 063e

running_var f4 [12]
0.008268193 0.030988542 0.018223617 0.005242334 0.01697638 0.020300925 0.08938828 0.06019008
0.018219257 0.003656911 0.0065475777 0.011338821
00000000: 5177 073c afdb fd3c b249 953c e3c7 ab3b
00000010: 0d12 8b3c 204e a63c 3411 b73d e089 763d
00000020: 8d40 953c c9a8 6f3b 108d d63b 76c6 393c

weight f4 [12, 12, 5, 5]
-0.049269665 0.03799928 0.05577298 0.015725128 0.051321823 -0.047737718 0.009874458 0.022968918
-0.0511063 -0.05583978 -0.03404067 0.049584433 -0.01213924 0.041327924 -0.0044925436 0.006825014
0.021206912 -0.044366173 0.04667186 -0.018151788 -0.00582805 -0.01469732 0.00093823916 -0.012995016
-0.013434761 0.003309265 0.036609635 0.010838632 -0.0488983 0.016016716 -0.05337324 0.0025400438
-0.020615138 0.024595885 -0.0020665508 0.051752347 0.027649518 -0.0033049982 0.0073008775 0.05660105
0.0013954664 0.035406005 -0.0073327995 0.013158752 0.0033785254 -0.036447346 -0.055131134 -0.05154998
0.054826766 -0.05604748 -0.018372137 -9.973848e-05 -0.05740873 0.007438476 0.01880274 -0.013562823
-0.03134236 0.054529976 -0.009817369 -0.009097907 -0.019804325 -0.021866284 0.042303167 -0.020890469
0.0036452522 0.0032020228 0.036000002 0.049063455 0.003914442 0.025631055 -0.016208604 -0.023948763
0.03360617 0.03553749 -0.019553483 -0.057552982 0.030833231 0.0061280583 0.018517282 0.005031164
-0.015571519 -0.057304733 -0.0038176319 -0.0057625226 0.052982554 -0.05644934 -0.043273717 0.04243889
0.045456138 0.02136635 -0.04822008 -0.035794854 0.04844622 -0.0097815 0.041392144 -0.02509905
0.024521435 0.028865699 -0.044921715 0.005849032 0.055300068 0.024757858 0.047323793 -0.04056999
0.011736717 -0.035758123 -0.0041211927 -0.015334775 0.051170412 -0.011763254 -0.004209914 -0.0035740295
0.0321262 0.037616827 0.036454704 -0.042020265 0.039416015 -0.03657554 0.031419646 0.053939868
-0.010530199 -0.048438456 -0.014751775 0.049554985 -0.026624447 -0.012531058 0.021739647 -0.010450761
0.03248782 -0.029423384 0.036354814 0.022727696 -0.04283226 0.007594477 0.0117799435 -0.045202654
0.037992544 -0.01254895 -0.0068949265 0.026416535 0.041978005 0.030970637 0.020514453 -0.04408241
-0.0044700233 -0.017301043 0.051832322 -0.009322898 0.023874262 0.017982624 0.04152394 -0.0030776665
-0.017619094 -0.021950418 0.04449818 0.04995931 -0.056353252 0.048494987 0.0071138274 -0.01773955
0.0087154815 0.0050156727 -0.026227327 -0.05722144 -0.038558297 -0.029128838 0.023984887 0.038297728
0.037491772 0.018715601 0.010464675 -0.014161415 -0.04512902 -0.051974412 -0.054537963 0.029657846
-0.030680498 0.01862232 -0.0090018585 -0.008805567 0.035735466 -0.014343701 0.024162425 -0.054138985
-0.037551377 0.041697904 -0.05648182 -0.04429959 0.013021135 -0.022801053 0.046091553 -0.0056466796
-0.043126613 0.04398253 0.046260633 0.056800865 0.023117928 0.046022248 -0.014997081 0.043687385
0.04952153 0.00539043 0.046581924 0.04299099 -0.019453153 0.0017754703 -0.020795908 -0.047527343
-0.0045414343 -0.049035203 -0.026891489 0.04191951 0.03967203 -0.027237654 0.04199585 0.036721103
0.014822158 0.038975753 -0.053733733 -0.020013984 -0.046845015 0.054546583 0.057056244 -0.027000645
0.013959231 -0.040326323 0.005090551 -0.010137315 0.01000559 0.05435586 0.039089747 -0.057096127
-0.0017868755 0.044364687 0.047101814 0.010762659 -0.01605919 -0.030051285 -0.034570534 0.035020273
0.048284788 0.035728835 -0.04041132 0.035069346 0.032820817 -0.050674412 0.03856806 0.026661174
-0.02821818 0.019162094 0.043732997 -0.014737578 -0.054050967 0.05156071 -0.003848749 -0.037902344
00000000: fdce 49bd 22a5 1b3d 3572 643d fcd1 803c
00000010: d536 523d a088 43bd 7bc8 213c 5029 bc3c
00000020: d754 51bd 41b8 64bd 3b6e 0bbd 0c19 4b3d
00000030: aae3 46bc 7847 293d 3036 93bb 5ea4 df3b
00000040: 1eba ad3c 4eb9 35bd fe2a 3f3d 0fb3 94bc
00000050: 3af9 bebb 07cd 70bc 2af4 753a 0ce9 54bc
00000060: 791d 5cbc 41e0 583b fcf3 153d 8494 313c
00000070: 9549 48bd 7d35 833c e69d 5abd dd76 263b
00000080: 14e1 a8bc 4f7d c93c f86e 07bb 45fa 533d
00000090: 3e81 e23c ab98 58bb 333c ef3b 81d6 673d
000000a0: 15e8 b63a e305 113d fb47 f0bb ce97 573c
000000b0: 406a 5d3b d049 15bd 2fd1 61bd 1226 53bd
000000c0: 0892 603d 0b92 65bd 2a81 96bc b02a d1b8
000000d0: 6b25 6bbd 76be f33b 3408 9a3c 9a36 5ebc
000000e0: d960 00bd d35a 5f3d 08d9 20bc 630f 15bc
000000f0: ae3c a2bc ec20 b3bc 1646 2d3d 7d22 abbc
00000100: 2fe5 6e3b 07d9 513b bd74 133d c3f6 483d
00000110: b844 803b 38f8 d13c e8c7 84bc 3230 c4bc
00000120: a0a6 093d c28f 113d a02e a0bc adbc 6bbd
00000130: f995 fc3c e1cd c83b 8eb1 973c 76dc a43b
00000140: af1f 7fbc 5eb8 6abd 3c31 7abb 8bd3 bcbb
00000150: 3c04 593d 6c37 67bd c83f 31bd 67d4 2d3d
00000160: 3730 3a3d 7c08 af3c 6b82 45bd a09d 12bd
00000170: 8b6f 463d 9642 20bc cf8a 293d 869c cdbc
00000180: 2de1 c83c c277 ec3c d5ff 37bd 3da9 bf3b
00000190: 5382 623d fed0 ca3c 98d6 413d b82c 26bd
000001a0: 5c4b 403c 1c77 12bd 120b 87bb b53e 7bbc
000001b0: 1198 513d aaba 40bc 51f3 89bb 443a 6abb
000001c0: c396 033d 1a14 1a3d 8751 153d 711d 2cbd
000001d0: b072 213d 3cd0 15bd e3b1 003d 0df0 5c3d
000001e0: db86 2cbc 6767 46bd 6eb1 71bc 2bfa 4a3d
000001f0: 831b dabc 114f 4dbc 5817 b23c ab39 2bbc
00000200: f311 053d 4f09 f1bc c9e8 143d 6f2f ba3c
00000210: e170 2fbd 17db f83b aa00 413c 6b26 39bd
00000220: 129e 1b3d 1c9a 4dbc d6ee e1bb 7d67 d83c
00000230: 21f1 2b3d 22b6 fd3c ed0d a83c c28f 34bd
00000240: 4679 92bb ebba 8dbc 214e 543d 12bf 18bc
00000250: f593 c33c 4c50 933c 0215 2a3d adb2 49bb
00000260: eb55 90bc 5dd1 b3bc b943 363d 22a2 4c3d
00000270: abd2 66bd aea2 463d 1c1b e93b 8852 91bc
00000280: 61cb 0e3c 835a a43b b1da d6bc 0761 6abd
00000290: 4eef 1dbd 9a9f eebc f47b c43c 14de 1c3d
000002a0: f990 193d 7651 993c 0774 2b3c 4805 68bc
000002b0: 35d9 38bd 1fe3 54bd 3363 5fbd 03f5 f23c
000002c0: ab55 fbbc d68d 983c 887c 13bc 3a45 10bc
000002d0: 5a5f 123d d801 6bbc 47f0 c53c d7c0 5dbd
000002e0: 79cf 19bd 6ccb 2a3d 7b59 67bd 7d73 35bd
000002f0: 9956 553c 46c9 babc 7fca 3c3d c807 b9bb
00000300: 88a5 30bd 0627 343d ca7b 3d3d 06a8 683d
00000310: cf61 bd3c d381 3c3d 51b6 75bc 8bf1 323d
00000320: 16d7 4a3d 34a2 b03b b0cc 3e3d 5217 303d
00000330: 385c 9fbc e6b6 e83a 2e5c aabc 08ac 42bd
00000340: 50d0 94bb 23d9 48bd 8a4b dcbc cbb3 2b3d
00000350: 237f 223d 8021 dfbc d703 2c3d de68 163d
00000360: a3d8 723c 0aa5 1f3d e717 5cbd 5ef4 a3bc
00000370: 8fe0 3fbd 3d6c 5f3d cfb3 693d 7530 ddbc
00000380: 42b5 643c 372d 25bd a3ce a63b fb16 26bc
00000390: 7cee 233c 40a4 5e3d 921c 203d a1dd 69bd
000003a0: 9835 eaba bfb7 353d d5ed 403d dd55 303c
000003b0: 908e 83bc 1d2e f6bc d599 0dbd 6b71 0f3d
000003c0: 45c6 453d 6658 123d 5786 25bd e0a4 0f3d
000003d0: 1f6f 063d f98f 4fbd 8bf9 1d3d 8968 da3c
000003e0: d029 e7bc d3f9 9c3c 5f21 333d e275 71bc
000003f0: 8c64 5dbd 5331 533d 4b3b 7cbb 7d3f 1bbd

bias f4 [12]
-0.05080504 -0.019637069 -0.016233068 0.014225009 0.0012216123 0.025017964 0.026668642 -0.0024898043
-0.04750528 0.025392381 0.046175286 0.02016355
00000000: f218 50bd ebdd a0bc 36fb 84bc 0310 693c
00000010: 821e a03a 79f2 cc3c 3278 da3c fc2b 23bb
00000020: e594 42bd af03 d03c 4c22 3d3d 072e a53c

weight f4 [12]
1.0000042 0.99995625 1.0000021 1.0000014 1.0000057 0.99991155 0.9999433 1.0000011
0.9999885 1.0000025 1.0000018 0.999983
00000000: 2300 803f 22fd 7f3f 1200 803f 0c00 803f
00000010: 3000 803f 34fa 7f3f 49fc 7f3f 0900 803f
00000020: 3fff 7f3f 1500 803f 0f00 803f e3fe 7f3f

bias f4 [12]
0.0001733957 -0.00015763988 8.868577e-06 -7.910239e-06 0.00014845972 -0.00018008723 -3.2295975e-05 -6.8202804e-05
8.3907034e-05 0.00010051828 0.00012551986 -5.328862e-05
00000000: 8ed1 3539 224c 25b9 40ca 1437 38b6 04b7
00000010: daab 1b39 ccd5 3cb9 8a75 07b8 1a08 8fb8
00000020: 3ff7 af38 57cd d238 fb9d 0339 3882 5fb8

running_mean f4 [12]
0.27322662 -0.13257854 0.02584954 -0.20859858 0.113491744 0.25438225 0.28841704 0.15030183
-0.16064167 -0.5841185 -0.054745167 0.15507728
00000000: 5ce4 8b3e abc2 07be 6ac2 d33c de9a 55be
00000010: 5c6e e83d 643e 823e 66ab 933e b9e8 193e
00000020: 407f 24be ca88 15bf 783c 60bd 94cc 1e3e

running_var f4 [12]
0.07967851 0.11166127 0.10218939 0.08684733 0.07752999 0.076190256 0.048945855 0.13712656
0.030821687 0.3638126 0.14746551 0.15755817
00000000: 7d2e a33d aaae e43d ac48 d13d 03dd b13d
00000010: 0bc8 9e3d a309 9c3d 737b 483d e86a 0c3e
00000020: c37d fc3c a545 ba3e 3301 173e ee56 213e

weight f4 [24, 12, 5, 5]
-0.01325154 0.031436674 0.0042125504 -0.048580635 -0.014272284 -0.016620496 -0.03607892 -0.05003568
0.051110703 -0.015335735 -0.005934888 0.027198985 -0.054817468 -0.01395184 -0.009364437 -0.04618358
-0.051884495 -0.053703025 -0.022215573 0.04537065 -0.0056674336 -0.0019645672 -0.006916463 0.041039854
-0.04376329 0.020152064 -0.01681154 0.025221644 -0.015412654 -0.043911193 -0.029018836 0.029764563
-0.01374304 -0.04582111 -0.033967208 -0.015724013 0.0064304913 0.02725528 -0.0451782 -0.052945025
-0.01116769 0.045443878 -0.03377911 -0.020339271 -0.0063120234 0.011123312 0.042787038 0.057362083
-0.051615182 -0.0019329503 0.029558292 0.023304844 -0.05674526 0.010122241 -0.05362451 0.00035815113
0.048391752 0.041599847 0.030591067 0.027914463 -0.045452207 0.04594316 -0.026779296 0.024268785
0.0425605 -0.0021882493 -0.020972725 0.03671466 0.031843934 -0.056514293 -0.008258888 -0.052270703
0.028914308 0.04685545 0.03003269 0.04727782 0.04291644 0.019627538 0.03032763 0.04710612
0.005605595 0.0007119006 0.025243847 0.03933457 -0.027583873 0.033583067 -0.03735232 -0.015950158
0.054233704 0.016240304 0.026131636 0.012067535 0.001801576 -0.04546287 0.019856622 0.026355416
0.040096644 0.04982351 -0.04469355 0.013506012 0.04028994 0.023685217 -0.025196703 0.012857322
0.056587424 0.011931702 -0.029576864 0.036935072 -0.02511616 -0.024097098 0.016322274 -0.004272867
-0.034510944 0.007458234 -0.04694188 0.038134474 0.012361375 0.041440833 0.013801836 0.009253672
0.02100953 0.0099630775 -0.024393288 0.028713135 -0.0009538889 -0.047393974 -0.040728625 -0.014525733
0.029536068 0.020899368 -0.0029781656 0.0010347314 0.035029866 -0.029878693 -0.02680151 -0.0566351
0.036438428 -0.0025284644 0.056492426 -0.035614382 -0.029837051 -0.051947933 0.03426567 0.057236552
-0.024400892 0.033250257 -0.001826937 -0.056006253 0.027628593 -0.006036537 0.04269503 -0.010049175
0.056002818 -0.050194867 0.016111903 -0.02873228 -0.03486762 0.021090304 0.049465388 -0.029942498
0.0073927157 0.011986909 0.035419893 0.037211105 0.011357459 -0.018862147 -0.049835965 -0.016804153
0.040511675 -0.01682695 0.005737971 -0.008374238 0.032174513 -0.026145546 0.05247947 -0.022357486
-0.05718699 -0.002180653 0.033051066 0.004493138 0.051951744 -0.018386368 -0.011647433 0.024455354
-0.027714908 0.0016211596 0.0066392245 0.019330302 0.04376042 -0.0143383015 0.0074939006 0.008252444
0.030189484 -0.03968428 0.055817734 0.04331634 -0.053961623 -0.017685577 -0.02354773 -0.056966703
-0.047848146 0.024532259 -0.049652133 0.055564117 -0.056544118 -0.023566177 -0.057055224 -0.021317586
0.018845387 0.0050921612 0.02614828 0.03372446 0.02441969 -0.043117676 -0.053248387 -0.02516719
0.02980811 0.027806796 0.05255234 0.026544593 0.029274449 0.0029042214 0.041323785 0.0014901428
0.055751033 0.037334867 0.052458446 0.04602679 0.03340828 -0.023833731 0.0370962 0.015398396
0.020786745 -0.009300169 -0.010475459 0.01905053 0.021869926 -0.02938382 0.036305025 0.008485853
0.051644932 0.022540053 -0.047515534 -0.03575804 0.046934813 0.039494105 0.03735636 -0.021319551
0.045043334 0.026276547 -0.016004188 -0.049428936 -0.0023492742 -0.0011923729 -0.019480608 0.046890203
00000000: fd1c 59bc bec3 003d 6f09 8a3b 7dfc 46bd
00000010: 4cd6 69bc b527 88bc 7dc7 13bd 37f2 4cbd
00000020: 7559 513d bc42 7bbc 7379 c2bb 68d0 de3c
00000030: 4888 60bd 4296 64bc 4c6d 19bc fe2a 3dbd
00000040: d684 54bd b4f7 5bbd 6ffd b5bc 93d6 393d
00000050: e1b5 b9bb f8bf 00bb 7fa3 e2bb 6819 283d
00000060: 2341 33bd f115 a53c 5bb8 89bc 9f9d ce3c
00000070: 5b85 7cbc 39dc 33bd e9b8 edbc d0d4 f33c
00000080: 7d2a 61bc ebae 3bbd 3321 0bbd a5cf 80bc
00000090: dfb6 d23b 7746 df3c c70c 39bd e2dc 58bd
000000a0: b0f8 36bc 5c23 3a3d f75b 0abd 8b9e a6bc
000000b0: 17d5 cebb 8d3e 363c 7641 2f3d 81f4 6a3d
000000c0: 716a 53bd 0d5b fdba 3b24 f23c cde9 be3c
000000d0: b86d 68bd c2d7 253c 60a5 5bbd 3bc6 bb39
000000e0: 6e36 463d 9a64 2a3d 1e9a fa3c dfac e43c
000000f0: 182c 3abd e52e 3c3d 4160 dbbc 55cf c63c
00000100: eb53 2e3d bb68 0fbb fece abbc 1c62 163d
00000110: c96e 023d 887b 67bd 4950 07bc ce19 56bd
00000120: b3dd ec3c 80eb 3f3d 1e07 f63c 63a6 413d
00000130: 26c9 2f3d eec9 a03c a671 f83c 59f2 403d
00000140: 24af b73b d79e 3a3a 2fcc ce3c 491d 213d
00000150: 93f7 e1bc 668e 093d bffe 18bd e8a9 82bc
00000160: 2924 5e3d 630a 853c 0312 d63c e9b6 453c
00000170: dc22 ec3a 4637 3abd 5baa a23c 50e7 d73c
00000180: 613c 243d bd13 4c3d 9510 37bd 5248 5d3c
00000190: 1007 253d 8007 c23c 5169 cebc 84a7 523c
000001a0: 37c8 673d 2f7d 433c 2e4b f2bc 3b49 173d
000001b0: 68c0 cdbc 4767 c5bc 4ab6 853c 6803 8cbb
000001c0: 595b 0dbd 3464 f43b 2146 40bd e532 1c3d
000001d0: 5d87 4a3c ddbd 293d 1921 623c b79c 173c
000001e0: 2e1c ac3c 2d3c 233c 6fd4 c7bc cf37 eb3c
000001f0: 670e 7aba 2f20 42bd 0fd3 26bd 57fd 6dbc
00000200: a0f5 f13c 2735 ab3c 542d 43bb d39f 873a
00000210: 7a7b 0f3d 29c4 f4bc d78e dbbc 35fa 67bd
00000220: 7640 153d 98b4 25bb 9a64 673d 63e0 11bd
00000230: d56c f4bc 5bc7 54bd 295a 0c3d e070 6a3d
00000240: 61e4 c7bc 6c31 083d d575 efba d066 65bd
00000250: 5c55 e23c 24ce c5bb fce0 2e3d 4ba5 24bc
00000260: 3663 653d 2299 4dbd 1cfd 833c f55f ebbc
00000270: 59d1 0ebd 93c5 ac3c 389c 4a3d f849 f5bc
00000280: 983e f23b be64 443c 7314 113d ac6a 183d
00000290: a314 3a3c ca84 9abc cc20 4cbd dda8 89bc
000002a0: 92ef 253d acd8 89bc 9705 bc3b 1a34 09bc
000002b0: 6cc9 033d 2f2f d6bc b6f4 563d 0c27 b7bc
000002c0: e83c 6abd 49e9 0ebb 8e60 073d 2c3b 933b
000002d0: 5acb 543d 029f 96bc e0d4 3ebc 9856 c83c
000002e0: 600a e3bc 177d d43a da8d d93b 955a 9e3c
000002f0: 203e 333d 32eb 6abc 658f f53b 4235 073c
00000300: f04f f73c fc8b 22bd 23a1 643d 796c 313d
00000310: dd06 5dbd 58e1 90bc 2be7 c0bc eb55 69bd
00000320: 6bfc 43bd e0f7 c83c 0960 4bbd 3397 633d
00000330: ce9a 67bd db0d c1bc bdb2 69bd 38a2 aebc
00000340: a461 9a3c 25dc a63b eb34 d63c a922 0a3d
00000350: cd0b c83c 299c 30bd fb1a 5abd 6c2b cebc
00000360: 2330 f43c 14cb e33c 1f41 573d 0c74 d93c
00000370: f8d0 ef3c c054 3e3b 2143 293d e550 c33a
00000380: 325b 643d 72ec 183d abde 563d 9686 3c3d
00000390: 1fd7 083d f53e c3bc 2ff2 173d 8e49 7c3c
000003a0: f748 aa3c bc5f 18bc 42a1 2bbc db0f 9c3c
000003b0: 8f28 b33c 56b6 f0bc 94b4 143d 3f08 0b3c
000003c0: a389 533d eba5 b83c a69f 42bd 0677 12bd
000003d0: b83e 403d 92c4 213d fc02 193d 57a6 aebc
000003e0: 5c7f 383d ea41 d73c 371b 83bc ff75 4abd
000003f0: 48f6 19bb 6549 9cba cc95 9fbc f10f 403d

bias f4 [24]
-0.044285968 -0.0056277383 0.03809374 -0.017900001 -0.031252254 0.033910282 0.04902517 -0.05285798
0.052192867 0.049938265 -0.05231632 -0.04839407 -0.056554936 0.0017808464 0.031362582 -0.035935234
0.0013888094 -0.027547026 -0.05063953 0.039081756 0.05423595 0.042803057 0.025609417 -0.0022999698
00000000: 3465 35bd e468 b8bb 2e08 1c3d 06a3 92bc
00000010: 5d02 00bd 82e5 0a3d 9ece 483d 9c81 58bd
00000020: 30c8 553d 118c 4c3d a349 56bd dc38 46bd
00000030: 26a6 67bd 4a6b e93a 0d76 003d d330 13bd
00000040: b608 b63a 4daa e1bc 656b 4fbd 3114 203d
00000050: 8426 5e3d 4252 2f3d d7ca d13c 17bb 16bb

weight f4 [24]
1.0000014 0.9999648 0.9999526 0.99994916 0.9999813 1.0000025 1.0000021 1.0000038
0.99996495 0.9999652 1.0000015 0.99995893 0.99998987 0.9999505 1.0000008 1.0000001
0.99994695 0.999982 0.99999243 1.0000014 0.99998647 1.0000026 1.0000021 0.9999916
00000000: 0c00 803f b1fd 7f3f e5fc 7f3f abfc 7f3f
00000010: c6fe 7f3f 1500 803f 1200 803f 2000 803f
00000020: b4fd 7f3f b8fd 7f3f 0d00 803f 4ffd 7f3f
00000030: 56ff 7f3f c2fc 7f3f 0700 803f 0100 803f
00000040: 86fc 7f3f d2fe 7f3f 81ff 7f3f 0c00 803f
00000050: 1dff 7f3f 1600 803f 1200 803f 73ff 7f3f

bias f4 [24]
-4.662942e-06 -3.7316684e-07 -8.337539e-05 -1.4452082e-05 -6.566356e-05 0.00010081573 4.304875e-05 0.00014896781
-6.899663e-05 -8.406186e-05 8.8257e-05 -3.3802564e-05 -6.181801e-05 -0.00011203883 4.882181e-05 5.3840256e-05
-5.0986597e-05 3.7121546e-05 -2.5518268e-05 6.9988986e-05 8.029498e-06 0.00010844712 5.7773876e-05 7.073228e-06
00000000: 5e76 9cb6 a957 c8b4 d2d9 aeb8 3877 72b7
00000010: dbb4 89b8 086d d338 3e8f 3438 3e34 1c39
00000020: 49b2 90b8 5e4a b0b8 9e16 b938 3ac7 0db8
00000030: 4ba4 81b8 64f6 eab8 05c6 4c38 89d2 6138
00000040: 71da 55b8 f5b2 1b38 1010 d6b7 0dc7 9238
00000050: 6eb6 0637 1b6e e338 3a52 7238 9156 ed36

running_mean f4 [24]
0.31513512 0.3635407 -0.011471061 -0.49210072 -0.34749278 0.46008137 -0.1957263 0.20727158
-0.34608418 -0.37325937 -0.099156104 -0.10050338 0.07257104 -0.15598306 -0.5639128 0.20249252
-0.35997137 -0.3082342 -0.1603033 0.377023 0.015745098 0.005964035 0.14555138 -0.39459875
00000000: 6459 a13e 0222 ba3e 1ef1 3bbc a0f4 fbbe
00000010: 93ea b1be c98f eb3e 7a6c 48be 003f 543e
00000020: f231 b1be da1b bfbe 5b12 cbbd b7d4 cdbd
00000030: 20a0 943d 06ba 1fbe 975c 10bf 335a 4f3e
00000040: 2b4e b8be e0d0 9dbe 8c26 24be 2909 c13e
00000050: ddfb 803c f46d c33b 6c0b 153e d908 cabe

running_var f4 [24]
0.1786011 0.23538886 0.089939214 0.17574385 0.25616068 0.12167618 0.13105823 0.13511488
0.27634853 0.2573235 0.23205602 0.10698384 0.23422176 0.13476068 0.23040135 0.07978018
0.21974075 0.10466586 0.13258818 0.2304517 0.11326509 0.22259259 0.14894177 0.16171664
00000000: 35e3 363e c709 713e 0d32 b83d 32f6 333e
00000010: 7e27 833e 5c31 f93d 2134 063e 8e5b 0a3e
00000020: 8e7d 8d3e e8bf 833e 18a0 6d3e 581a db3d
00000030: d4d7 6f3e b4fe 093e 55ee 6b3e ca63 a33d
00000040: b803 613e 0e5b d63d 32c5 073e 88fb 6b3e
00000050: 87f7 e73d 50ef 633e 3184 183e 0c99 253e

weight f4 [24, 24, 5, 5]
-0.015100236 0.03263757 0.019262422 0.023863481 -0.008547525 -0.03595169 -0.034035787 -0.030468466
-0.014830069 0.0049034306 0.01718551 0.0028396961 -0.017174242 0.026743475 -0.01198402 -0.03181444
-0.029790787 0.03562509 0.03698099 -0.01935881 -0.008163713 -0.037355427 -0.0071988343 -0.0025766315
0.03303758 0.021590747 -0.0047183596 0.023938216 0.0039852825 -0.0229531 -0.032465905 -0.006107029
0.023228325 0.027919734 -0.025998004 0.035013713 -0.0016236297 -0.032823663 0.0030297101 -0.0055823894
-0.013026481 -0.007575777 -0.034653507 -0.028342243 -0.0078047016 -0.015765872 -0.01104957 -0.014285461
0.019513031 0.02545523 0.040713575 -0.027639212 0.02131105 0.03255129 -0.026353663 0.0047119735
0.021623796 -0.019408345 -0.027096942 0.0006038515 -0.024513047 -0.0009879776 0.024204653 -0.0028363008
-0.003217146 -0.014439314 -0.016888145 -0.00043425945 0.03176964 0.03628656 -0.027791373 0.023492811
-0.02249765 -0.030510906 0.035713416 0.0028161532 0.015011955 -0.020797428 -0.01599469 -0.012916914
-0.03128048 0.034514576 0.01931664 -0.015891176 0.025688553 -0.013581254 0.03578887 0.009590309
-0.032685567 0.017664334 0.011611264 -0.026269644 0.00018620517 -0.014567574 0.0138574075 0.0125928065
-0.02766784 -0.006474776 0.026059931 0.019285312 -0.0051900335 -0.03955638 0.010942068 0.010177911
-0.024943715 0.03398171 -0.030902214 0.03470533 -0.0156245 0.037577678 0.010688616 -0.007062036
0.022600077 -0.029671665 0.031317197 0.023794478 -0.025116978 -0.0076320036 -0.023609174 -0.01605907
0.020751601 -0.0064850207 0.009602093 -0.015962845 -0.012801198 0.006842045 0.024392039 0.040304545
-0.022269001 -0.021811126 0.0035450547 0.028884035 0.025490362 0.03003874 -0.03981841 0.003942212
-0.0010886239 0.038455583 -0.030107254 -0.009763687 -0.03337684 -0.03474547 0.037144255 -0.023570755
0.02914403 0.009801238 0.008129008 -0.026891207 -0.0057287645 -0.03912435 0.014712416 0.013520367
0.010582175 0.019763308 0.031157842 0.012425597 0.040304646 -0.039370243 -0.027298927 -0.017218586
-0.0019256809 -0.030460844 -0.016121611 0.013245684 -0.02172158 0.035046585 -0.029427111 -0.021035314
0.035211384 -0.028598672 0.029953267 -0.019746937 0.022360336 -0.02919829 -0.012566344 -0.029713731
0.020136638 0.0058391034 0.0053022853 0.030223578 0.030888127 0.005815085 0.023383798 0.032496102
-0.03473551 0.0350126 0.021440225 0.024773333 0.021627087 -0.025202317 -0.034334645 0.033519138
0.014960158 0.007889759 -0.011476117 0.030707527 0.03884449 -0.010753709 -0.03789215 -0.019553194
-0.016051758 0.0004029162 0.01562009 -0.013542691 0.04017353 -0.016592342 0.031948358 -0.034307927
0.034126036 -0.02129478 -0.039430156 -0.029506098 -0.038405668 -0.03195537 -0.008142685 0.017360562
0.032723516 0.021678017 0.024510052 -0.00433782 0.017587993 -0.033435993 -0.035829302 0.037361536
0.016317211 -0.033761222 0.0045603113 0.017615726 0.025318213 -0.023472352 0.030477941 0.027027272
-0.021577323 0.0054362994 0.035669617 -0.0032213144 -0.0049167937 -0.007068471 0.03929366 -0.039017
-0.018840525 0.0026213604 0.029098876 0.005811738 0.025090018 -0.03639583 -0.019992376 -0.00876808
-0.025975313 0.014126944 0.03079589 -0.01846199 0.0077269934 0.020836473 -0.019714674 -0.012894102
00000000: fb66 77bc f9ae 053d 3acc 9d3c 597d c33c
00000010: eb0a 0cbc 1442 13bd 1c69 0bbd 0199 f9bc
00000020: d1f9 72bc f5ac a03b a0c8 8c3c 321a 3a3b
00000030: ffb0 8cbc 2215 db3c 9f58 44bc dc4f 02bd
00000040: cf0b f4bc 9deb 113d 6179 173d 5e96 9ebc
00000050: 18c1 05bc 0102 19bd 33e4 ebbb b4dc 28bb
00000060: 6a52 073d 14df b03c 789c 9abb 141a c43c
00000070: f996 823b 2408 bcbc f8fa 04bd 791d c8bb
00000080: 5449 be3c edb7 e43c c4f9 d4bc 8a6a 0f3d
00000090: f9cf d4ba 1b72 06bd 1a8e 463b 7aec b6bb
000000a0: 056d 55bc 393e f8bb d6f0 0dbd fe2d e8bc
000000b0: 95be ffbb 6e27 81bc 4109 35bc 910d 6abc
000000c0: cbd9 9f3c 7d87 d03c 47c3 263d a16b e2bc
000000d0: 8394 ae3c 8054 053d a3e3 d7bc e666 9a3b
000000e0: 6324 b13c 40fe 9ebc 68fa ddbc ca4b 1e3a
000000f0: 96cf c8bc 077f 81ba d648 c63c 3be1 39bb
00000100: c1d6 52bb df92 6cbc 0259 8abc 51ad e3b9
00000110: e220 023d 37a1 143d bcaa e3bc ff73 c03c
00000120: fe4c b8bc 02f2 f9bc 3b48 123d 368f 383b
00000130: b4f4 753c 5e5f aabc 4c07 83bc 77a1 53bc
00000140: f61f 00bd 285f 0d3d ee3d 9e3c 362e 82bc
00000150: cd70 d23c e883 5ebc 5a97 123d ac20 1d3c
00000160: 4de1 05bd cbb4 903c 2c3d 3e3c 7033 d7bc
00000170: 1240 4339 d5ac 6ebc 2e0a 633c 0f52 4e3c
00000180: aaa7 e2bc 5c2a d4bb a37b d53c 3bfc 9d3c
00000190: 2811 aabb df05 22bd 5c46 333c 41c1 263c
000001a0: c356 ccbc 6830 0b3d a426 fdbc 2d27 0e3d
000001b0: e7fd 7fbc 0deb 193d 4e1f 2f3c a768 e7bb
000001c0: cc23 b93c fe11 f3bc 7646 003d a3ec c23c
000001d0: 1fc2 cdbc e315 fabb 0768 c1bc 508e 83bc
000001e0: 43ff a93c 4c80 d4bb 1952 1d3c 83c4 82bc
000001f0: 1ebc 51bc 3c33 e03b d0d1 c73c 6116 253d
00000200: 7b6d b6bc 3fad b2bc 2654 683b 369e ec3c
00000210: 2ad1 d03c ce13 f63c a118 23bd ac2d 813b
00000220: 28b0 8eba 9a83 1d3d 7da3 f6bc dff7 1fbc
00000230: 27b6 08bd 4451 0ebd 9324 183d 7517 c1bc
00000240: 76bf ee3c 5f95 203c 882f 053c f34a dcbc
00000250: 5cb8 bbbb db40 20bd 580c 713c 8884 5d3c
00000260: dc60 2d3c a9e6 a13c bb3e ff3c bb94 4b3c
00000270: 7c16 253d b142 21bd 00a2 dfbc fe0d 8dbc
00000280: 2167 fcba 0589 f9bc 7811 84bc 6d04 593c
00000290: 74f1 b1bc 028d 0f3d 2011 f1bc 4052 acbc
000002a0: d039 103d c347 eabc 8e60 f53c 54c4 a1bc
000002b0: 062d b73c 4131 efbc 11e3 4dbc 366a f3bc
000002c0: 97f5 a43c f355 bf3b cbbe ad3b 7097 f73c
000002d0: 1909 fd3c 788c be3b 618f bf3c a21a 053d
000002e0: d246 0ebd 5f69 0f3d 69a3 af3c 72f1 ca3c
000002f0: 4a2b b13c 1775 cebc 7ca2 0cbd 5d4b 093d
00000300: 731b 753c 0c44 013c 5306 3cbc 5a8e fb3c
00000310: 661b 1f3d 5330 30bc cd34 1bbd 052e a0bc
00000320: fa7e 83bc 7f3e d339 68eb 7f3c 2ae2 5dbc
00000330: 008d 243d aaec 87bc 48dc 023d 7886 0cbd
00000340: bec7 0b3d 6472 aebc 8481 21bd c6b6 f1bc
00000350: 434f 1dbd a2e3 02bd e568 05bc bd37 8e3c
00000360: 1809 063d 1996 b13c 4ec9 c83c 4624 8ebb
00000370: b214 903c 2ef4 08bd bfc1 12bd 6908 193d
00000380: acab 853c 3549 0abd aa6e 953b db4e 903c
00000390: 2468 cf3c 1749 c0bc e0ac f93c 4c68 dd3c
000003a0: edc2 b0bc fc22 b23b 4e1a 123d b01c 53bb
000003b0: 0e1d a1bb a29e e7bb 64f2 203d 4ad0 1fbd
000003c0: 7257 9abc 21cb 2b3b c460 ee3c 6470 be3b
000003d0: 9589 cd3c cb13 15bd 0dc7 a3bc fea7 0fbc
000003e0: 2eca d4bc b374 673c aa47 fc3c 993d 97bc
000003f0: b832 fd3b 40b1 aa3c ab80 a1bc c941 53bc

bias f4 [24]
0.02643165 0.038096827 0.033884138 -0.0343191 0.017126065 -0.01570039 -0.029975332 0.0036506667
-0.020984054 0.037257593 -0.010835963 0.023384523 0.0020259435 0.023106858 0.020576028 -0.02702828
-0.0108599905 0.023341672 0.0035107783 -0.002642423 -0.008855139 0.026287086 -0.0015965985 0.0008540911
00000000: 3087 d83c 6b0b 1c3d 18ca 0a3d 2f92 0cbd
00000010: f64b 8c3c 1b9e 80bc d48e f5bc 0640 6f3b
00000020: c0e6 abbc 6b9b 183d 5389 31bc e690 bf3c
00000030: b1c5 043b 984a bd3c 0f8f a83c 696a ddbc
00000040: 1aee 31bc 0937 bf3c 1615 663b 802c 2dbb
00000050: 2515 11bc 0458 d73c f544 d1ba 15e5 5f3a

weight f4 [24]
1.0000014 0.999883 1.0000011 1.0000008 1.0000035 0.9999519 0.99997324 0.99994695
1.0000021 1.0000021 1.0000023 0.99998343 0.9998898 1.0000015 1.0000001 1.0000012
1.0000025 1.000005 0.99993056 1.0000012 0.99997973 1.0000015 0.99996203 1.0000025
00000000: 0c00 803f 55f8 7f3f 0900 803f 0700 803f
00000010: 1d00 803f d9fc 7f3f 3ffe 7f3f 86fc 7f3f
00000020: 1200 803f 1200 803f 1300 803f eafe 7f3f
00000030: c7f8 7f3f 0d00 803f 0100 803f 0a00 803f
00000040: 1500 803f 2a00 803f 73fb 7f3f 0a00 803f
00000050: acfe 7f3f 0d00 803f 83fd 7f3f 1500 803f

bias f4 [24]
-1.7314384e-05 -0.00014504213 9.861333e-05 8.307505e-06 0.0001443666 2.121464e-05 1.7327871e-05 -1.593187e-05
0.00014135159 0.00021635869 0.00021789254 1.4126965e-07 -0.00016432985 2.4360746e-05 0.00014550568 6.30671e-05
0.000171152 0.00017244287 -6.326536e-05 0.00015955942 3.2416865e-06 0.00017627946 2.3844665e-05 0.0001279502
00000000: 5b3e 91b7 7316 18b9 a1ce ce38 7660 0b37
00000010: 1d61 1739 18f6 b137 525b 9137 6ea5 85b7
00000020: c737 1439 58de 6239 157a 6439 e8af 1734
00000030: f54f 2cb9 4e5a cc37 e292 1839 e442 8438
00000040: 4477 3339 c8d1 3439 55ad 84b8 684f 2739
00000050: c08b 5936 a8d7 3839 0706 c837 5f2a 0639

running_mean f4 [24]
-0.0016648049 0.20128143 0.15747456 -0.0016451175 -0.12085606 -0.32793334 0.13016169 -0.08372451
0.024382155 -0.20841494 0.018705374 0.023394095 0.11955828 0.22547416 -0.17785758 -0.13504419
0.1656233 0.033051424 -0.09576608 0.13247488 0.07551942 0.018824518 0.04198723 -0.081568554
00000000: 9535 daba b81c 4e3e 0341 213e fca0 d7ba
00000010: 6283 f7bd e1e6 a7be 1b49 053e c277 abbd
00000020: 16bd c73c ba6a 55be 033c 993c f9a4 bf3c
00000030: f9da f43d b3e2 663e 4c20 36be 0649 0abe
00000040: 2899 293e ee60 073d 0221 c4bd 7fa7 073e
00000050: eda9 9a3d e035 9a3c cdfa 2b3d 6a0d a7bd

running_var f4 [24]
0.16375466 0.18748006 0.120678015 0.105881825 0.10028219 0.22485001 0.17129219 0.100844346
0.09009868 0.12155434 0.086841814 0.08322518 0.08617075 0.09348574 0.18180671 0.11178451
0.08668528 0.1434862 0.14220545 0.08554746 0.07835255 0.17248154 0.17776121 0.10751405
00000000: 4daf 273e c6fa 3f3e 0926 f73d 92d8 d83d
00000010: c060 cd3d 153f 663e 3867 2f3e 7b87 ce3d
00000020: a885 b83d 7bf1 f83d 1fda b13d f771 aa3d
00000030: 4a7a b03d 7475 bf3d 8a2b 3a3e 47ef e43d
00000040: 0d88 b13d 0cee 123e 4e9e 113e 8233 af3d
00000050: 4d77 a03d 009f 303e 0907 363e 5430 dc3d

weight f4 [10, 16224]
0.004724786 0.005256611 0.0017903238 -0.00029924692 -0.0071551353 -0.0036660978 0.007217477 -0.0030123733
-0.0075430013 -0.0032746647 -0.00057532015 0.0031910157 0.0066180746 0.0030796083 -0.0036624367 0.0010340761
-0.0074726203 -0.00083840266 0.0019163392 0.0011277597 -0.005195105 0.0026271348 -0.0056070862 -0.0067005875
-0.004404549 0.007695876 -0.0070858086 0.0016461603 -0.0044308966 -0.0005649628 0.0012713518 0.0070851017
-0.004956908 -0.003820958 -0.0009950963 -0.007335541 -0.004098461 5.026202e-05 -0.0014421473 -0.0055903834
-0.0058011077 0.007295771 0.004894605 0.005619527 0.007497071 0.004204019 -0.005189982 0.002943089
0.0056647924 0.0057431385 0.0038709529 -0.0062670396 -0.0025413504 -0.0017205123 0.004360528 0.0053777676
0.0051840288 -0.005566392 0.0068741967 -0.0002554894 -0.005246994 0.00031618026 -0.0011690322 0.0062491535
0.00016643367 -0.005877999 -0.0029211766 0.004672924 0.0059659025 -0.0065306197 -0.006531484 0.0035099366
0.0065322653 -0.003287514 -0.0071129315 0.0062742387 0.003739813 -0.0011255684 0.004964211 -0.0027160426
0.0057506207 -0.0072589694 0.0032921282 -0.007834841 0.0066661863 -0.00031090586 -0.0040131533 0.0071815914
0.0023233793 0.0017456119 -0.0003117123 -0.006439802 0.00042615616 -0.0072411085 0.0044842884 0.006528096
-0.0049143783 -0.0070853997 -0.0058944067 -0.004862369 -0.0042179157 0.0053312415 -0.0015698544 -0.0028854131
-0.0010175328 0.007289806 -0.0034491054 -0.0022524009 0.005210675 0.0073541193 -0.0070277276 0.005911302
-0.0022842372 0.00064447557 0.00715972 0.0037531892 0.0044592163 -0.0027676017 0.0065354025 -0.0057372055
-0.005067612 -0.0072088847 -0.0047564274 0.00774885 0.0055440897 0.0043670703 -0.0011917982 -0.0017433123
-0.0075015128 -0.0022792441 -0.0057377242 -0.0068649948 0.005885168 -0.0018316205 0.0027750642 -0.0025760178
-0.0040822164 -0.007131593 -0.003687382 -0.0061377645 -0.0032375897 -0.0076699583 -0.007341469 -0.0027911065
0.0073085665 -0.004526031 -0.000109234265 0.0050649466 -0.00286586 -0.001203158 0.003138149 -0.005834531
0.0018801151 0.0046361866 0.0036680482 -0.0028240727 -0.0055269687 -0.003374096 -0.004163244 -0.0021122408
-0.007386569 0.0027258606 -0.0032197933 0.0004550338 -0.0033753805 -0.005007894 0.004646026 0.00324581
-0.005373099 0.00072132575 0.0077003012 0.0050987955 -0.0029086042 0.002116133 -0.005155963 -0.0038617407
0.006403126 -0.0068062227 0.004894269 -0.0050821267 0.007194228 -0.0061075985 -0.0060131275 0.005192997
0.0003111796 -0.0039511574 -0.0031795783 0.00053603644 -0.0033994918 0.00076956785 -0.0071108704 -0.0049106306
-0.0021257084 -0.007103296 0.0018556173 0.006228525 0.0052860095 -0.0054777553 0.005523771 0.0053493297
0.0041005793 -0.0037005558 0.0061406344 0.004084202 0.0038445776 -0.0055788164 -0.003948165 -0.0063852286
-0.0025534579 -0.0060741026 0.005880215 -0.0027031992 0.005513248 0.006430366 -0.0012794008 -0.001932187
0.0062229587 0.0073589887 0.0044336994 0.00022936921 -0.0045684446 0.0043782177 0.007446101 -0.00032328456
0.006207623 -0.0044233133 -0.0075149667 0.0064997612 -0.0054886187 0.0042982856 -0.0024675068 -0.005191261
0.007729855 0.005711765 0.0056703533 0.0047224527 -0.0014279741 0.002164104 0.0034537183 -0.0053099133
0.00012010194 -0.0068343864 0.00600622 -0.0032917387 0.0068260073 0.0005894318 -0.00072335097 0.0075227506
-0.0031319712 -0.0046743467 -0.0031849327 -0.0039282376 -0.001833567 -0.00042705552 0.00076983747 0.00018780305
00000000: 61d2 9a3b a63f ac3b 4ca9 ea3a 3ee4 9cb9
00000010: a075 eabb ea42 70bb 9680 ec3b 3d6b 45bb
00000020: 482b f7bb c29b 56bb 15d1 16ba 5c20 513b
00000030: 6fdc d83b 41d3 493b 7e05 70bb d689 873a
00000040: e2dc f4bb 40c8 5bba ac2d fb3a 56d1 933a
00000050: b33b aabb 022c 2c3b a6bb b7bb 9a90 dbbb
00000060: 0954 90bb b02d fc3b 1230 e8bb f9c3 d73a
00000070: 0e31 91bb 031a 14ba 7da3 a63a 242a e83b
00000080: 8f6d a2bb 0a69 7abb e46d 82ba fa5e f0bb
00000090: 624c 86bb 6fd0 5238 6f06 bdba 892f b7bb
000000a0: 3817 bebb 5d11 ef3b ec62 a03b 0224 b83b
000000b0: fda9 f53b dec1 893b b910 aabb d7e0 403b
000000c0: b99f b93b f030 bc3b d0af 7d3b bd5b cdbb
000000d0: c98c 26bb d082 e1ba c3e2 8e3b fc37 b03b
000000e0: c9de a93b 4866 b6bb f140 e13b 35f3 85b9
000000f0: faee abbb ffc4 a539 363a 99ba b3c5 cc3b
00000100: b384 2e39 3b9c c0bb 3671 3fbb 541f 993b
00000110: 9e7d c33b cffe d5bb 0f06 d6bb f706 663b
00000120: 9d0c d63b 5573 57bb 9813 e9bb 2198 cd3b
00000130: a717 753b cf87 93ba d2aa a23b a2ff 31bb
00000140: b46f bc3b a6dc edbb bfc0 573b b45d 00bc
00000150: 0670 da3b 1401 a3b9 c580 83bb 8e53 eb3b
00000160: d643 183b 04cd e43a 516d a3b9 f904 d3bb
00000170: b66d df39 d246 edbb f0f0 923b a3e9 d53b
00000180: cb08 a1bb a42c e8bb de25 c1bb 8254 9fbb
00000190: 7136 8abb b2b1 ae3b 93c3 cdba 3319 3dbb
000001a0: bc5e 85ba 53df ee3b 630a 62bb 049d 13bb
000001b0: 4fbe aa3b d3fa f03b da48 e6bb 98b3 c13b
000001c0: 24b3 15bb 06f2 283a 169c ea3b 11f8 753b
000001d0: 9e1e 923b a760 35bb ee26 d63b 2bff bbbb
000001e0: 360e a6bb 8238 ecbb cedb 9bbb 11ea fd3b
000001f0: 32ab b53b a419 8f3b 1d36 9cba db7f e4ba
00000200: 40cf f5bb 5f5f 15bb 8503 bcbb c0f3 e0bb
00000210: 5ed8 c03b fc12 f0ba dadd 353b 68d2 28bb
00000220: 1dc4 85bb 23b0 e9bb 01a8 71bb 4d1f c9bb
00000230: be2d 54bb 4654 fbbb b590 f0bb ffea 36bb
00000240: b37c ef3b 1a4f 94bb b314 e5b8 daf7 a53b
00000250: 27d1 3bbb 49b3 9dba 67a9 4d3b 982f bfbb
00000260: 326e f63a 27eb 973b a363 703b 1414 39bb
00000270: 931b b5bb f01f 5dbb d26b 88bb 856d 0abb
00000280: 080b f2bb 5aa4 323b 2b03 53bb 9a91 ee39
00000290: 7d35 5dbb 4219 a4bb b13d 983b a8b7 543b
000002a0: d210 b0bb 5a17 3d3a cf52 fc3b cc13 a73b
000002b0: 489e 3ebb d2ae 0a3b 5af3 a8bb 4215 7dbb
000002c0: 50d1 d13b bc06 dfbb 1b60 a03b f887 a6bb
000002d0: 8fbd eb3b 4022 c8bb c509 c5bb 042a aa3b
000002e0: d225 a339 b678 81bb 7960 50bb cc84 0c3a
000002f0: 02ca 5ebb d3bc 493a 4e02 e9bb 5be9 a0bb
00000300: 784f 0bbb c4c2 e8bb 2f38 f33a a818 cc3b
00000310: 4336 ad3b be7e b3bb c000 b53b 6e49 af3b
00000320: 275e 863b 0685 72bb 6037 c93b c5d4 853b
00000330: 4ff5 7b3b 81ce b6bb 9c5f 81bb 2e3b d1bb
00000340: ea57 27bb 4409 c7bb d2ae c03b 2828 31bb
00000350: 7aa8 b43b d2b5 d23b 91b1 a7ba 7041 fdba
00000360: f6e9 cb3b ac23 f13b 9148 913b d482 7039
00000370: e4b2 95bb 2777 8f3b 6cfe f33b 857e a9b9
00000380: 5169 cb3b 71f1 90bb 1c40 f6bb f3fb d43b
00000390: dfd9 b3bb a2d8 8c3b e5b5 21bb 741b aabb
000003a0: b94a fd3b c229 bb3b 5fce b93b cebe 9a3b
000003b0: dc2a bbba a4d3 0d3b c757 623b c8fe adbb
000003c0: 3ddf fb38 fdf2 dfbb d3cf c43b 36ba 57bb
000003d0: b3ac df3b 1984 1a3a 439f 3dba 6881 f63b
000003e0: c241 4dbb 432b 99bb 4eba 50bb 72b8 80bb
000003f0: 4d54 f0ba 6ce6 dfb9 ebce 493a ffec 4439

bias f4 [10]
0.00211318 -0.0037859723 -0.0025626696 0.0040262328 0.00019267468 -0.0058557624 0.0054531344 -0.003160047
-0.00013509723 -0.0048067216
00000000: 477d 0a3b 131e 78bb 76f2 27bb 7dee 833b
00000010: b708 4a39 b2e1 bfbb 35b0 b23b cb18 4fbb
00000020: e3a8 0db9 b481 9dbb
