models/Demo/LOGS/models/nnet_epoch_7.pt (torch, 765965 bytes, 26 tensors)

weight f4 [12, 3, 5, 5]
0	0x3d15e671	0.03659672
1	0xbde475ff	-0.111553185
2	0x3d5575b5	0.052114207
3	0xbda617f5	-0.08110038
4	0xbde13e54	-0.10998216
5	0x3d8c9759	0.06864805
6	0xbd022354	-0.031771973
7	0xbda6f334	-0.08151856
8	0xbd987157	-0.07443493
9	0xbd8b9574	-0.06815615
10	0x3d5ae2db	0.053439002
11	0x3da736e1	0.08164764
12	0xbdc7f211	-0.097629674
13	0xbc8a8a93	-0.01691178
14	0x3d6d2051	0.057892147
15	0x3c9221ba	0.017838348
16	0x3c3f1f9f	0.011665254
17	0xbd909032	-0.07058753
18	0xbdafd01a	-0.08584614
19	0xbdce3285	-0.100682296
20	0xbd7c662a	-0.06162087
21	0x3d790244	0.060793176
22	0x3d812884	0.06306556
23	0x3dcf5659	0.101238914
24	0x3de83e73	0.11340036
25	0xbb4772a8	-0.003043333
26	0xbc2046be	-0.009782491
27	0x3ccef47e	0.025263067
28	0x3c940132	0.018066976
29	0xbd85d90b	-0.06535538
30	0x3d64c369	0.05585042
31	0x3dc03243	0.09384587
32	0x3dd89b71	0.10576523
33	0xbb54a2b3	-0.003244561
34	0x3de173b4	0.11008397
35	0x3d14a299	0.036287878
36	0x3d7ec304	0.0621977
37	0xbc08ef4d	-0.008357835
38	0xbd55f3c5	-0.05223443
39	0x3d5babcd	0.05363064
40	0x3dd8af07	0.10580259
41	0xbdbc322a	-0.091892555
42	0xbdd1766e	-0.10227667
43	0x3dbad08b	0.09121808
44	0x3dc456c1	0.095868595
45	0xbc8dfdc2	-0.017332915
46	0x3bc54b32	0.006020927
47	0xbd26b72c	-0.04070203
48	0x3d468806	0.048469566
49	0x3dbf027e	0.09326647
50	0xbdae2f91	-0.08505166
51	0xbdccb609	-0.09995658
52	0x3d598dc9	0.053113732
53	0xbd97f96b	-0.074206196
54	0x3b30068d	0.0026859373
55	0x3bc13058	0.0058956556
56	0x3cd90c60	0.026495159
57	0xbddfb66b	-0.10923465
58	0x3dbe9cf5	0.09307281
59	0x3d5d6212	0.054048605
60	0xbdae2f82	-0.08505155
61	0x3ddd623a	0.10809751
62	0x3dd5e875	0.10444728
63	0x3dc0b6ef	0.09409892
64	0x3b105c33	0.0022027611
65	0xbdda22ac	-0.106511444
66	0x3d5a907c	0.053360447
67	0xbd804753	-0.06263604
68	0x3cbdb231	0.023156257
69	0x3c2eaea4	0.010661755
70	0xbda0e251	-0.078556664
71	0x3d9a3e1b	0.07531377
72	0xbcc4eb81	-0.024038078
73	0xbd719cc0	-0.05898738
74	0x3da24435	0.07923166
75	0x3de3236d	0.11090741
76	0xbd7e022e	-0.062013797
77	0xbde3bb2d	-0.11119685
78	0xbdd9907d	-0.10623262
79	0xbc4d570d	-0.012532962
80	0xbd6d4a35	-0.057932097
81	0xbbdd2781	-0.006749094
82	0xbab225fe	-0.0013591645
83	0xbda544d2	-0.08069767
84	0x3cf66b38	0.030080423
85	0x3d112e55	0.035444576
86	0xbd90b896	-0.07066457
87	0x3dad4a1a	0.084613994
88	0x3db12fca	0.08651693
89	0xbcda17dc	-0.026622705
90	0xbd129208	-0.035783798
91	0x3c37a30f	0.01120831
92	0x3d15ff22	0.036620267
93	0x3dc6ee3c	0.09713408
94	0x3d4c5993	0.049890112
95	0x3dae57ea	0.08512862
96	0xbdd645c5	-0.10462526
97	0x3dab7fb0	0.08373964
98	0x3dd04d92	0.10171045
99	0xbd7a519b	-0.06111298
100	0xbccee52d	-0.025255764
101	0x3dd0a401	0.10187531
102	0x3c2bbe3b	0.010482366
103	0x3c54f17b	0.012997027
104	0xbdc58ec8	-0.09646374
105	0xbde5a8b2	-0.11213817
106	0xbc71c48f	-0.014756336
107	0xbdcce20b	-0.10004052
108	0x3d44eab3	0.04807539
109	0xbc95f019	-0.018302964
110	0x3b118e2f	0.0022209992
111	0xbd58833a	-0.052859522
112	0xbcc9422b	-0.024567684
113	0xbda797a3	-0.08183219
114	0xbd68d528	-0.056843907
115	0x3b77af34	0.0037793638
116	0xbc63a126	-0.013893401
117	0x3bf0acc0	0.007344812
118	0xbd26b788	-0.040702373
119	0x3d46a571	0.04849762
120	0x3ce95088	0.028480783
121	0x3d9ec44f	0.07752287
122	0xbdc26d5b	-0.09493514
123	0x3d24329a	0.04008732
124	0xbd40afcf	-0.047042664
125	0x3d5b4b22	0.05353845
126	0x3dd54626	0.104137704
127	0xbd8329ac	-0.06404433
128	0x3ce210e9	0.027595954
129	0x3c637fdc	0.0138854645
130	0x3dd4be1b	0.10387822
131	0xbdb85ae4	-0.09001711
132	0x3d176c8c	0.036968753
133	0x3d5d91e7	0.05409422
134	0xbdb6d3eb	-0.08927139
135	0x3d5d5a3c	0.054041132
136	0x3c77c4fe	0.01512265
137	0xbdd150ee	-0.10220514
138	0xbdc9cd6f	-0.098536365
139	0xbd1f1678	-0.038839787
140	0xbcfedd89	-0.031111496
141	0x3d05630a	0.032565154
142	0xbd655edc	-0.055998668
143	0xbddd1080	-0.10794163
144	0xbdde5433	-0.108559035
145	0xbd7ce92c	-0.061745808
146	0xbdd626d3	-0.10456624
147	0x3cc776de	0.024348672
148	0x3d3f090b	0.046639483
149	0x3d6da801	0.05802155
150	0x3dc1ccb1	0.0946287
151	0xbd4c4863	-0.04987372
152	0xbda5c403	-0.08094027
153	0xbd621a2f	-0.055200752
154	0x3cc956ad	0.024577463
155	0xbde1e5fc	-0.11030194
156	0xba3c2293	-0.0007176783
157	0xbdb6c639	-0.08924527
158	0x3d7eec33	0.062236976
159	0xbc8ad52e	-0.016947355
160	0xbc295b33	-0.010336685
161	0xbdcd59a0	-0.1002686
162	0xbdc06801	-0.09394837
163	0xbcf3de02	-0.029768948
164	0x3dca3502	0.09873392
165	0xbd809ba0	-0.06279683
166	0xbd549859	-0.051903103
167	0xbd568275	-0.052370507
168	0xbc3206f6	-0.010865917
169	0x3db04e65	0.086087026
170	0x3dec10ca	0.1152664
171	0xbde8c081	-0.11364842
172	0x3d0c6091	0.03427178
173	0x3cc29c3d	0.02375614
174	0xbd272394	-0.040805414
175	0x3cadf004	0.021232612
176	0x3bf391e4	0.007433163
177	0x3db44a70	0.0880326
178	0x3d91cf77	0.07119649
179	0x3cd4894e	0.025944378
180	0x3dc6e0b1	0.09710825
181	0x3d3ca805	0.046058673
182	0x3ca12ea1	0.019675555
183	0xbcb2bf21	-0.021819653
184	0x3d63ad61	0.05558527
185	0xbdae44f1	-0.08509243
186	0xbdd999a3	-0.10625007
187	0xbd24b356	-0.04021009
188	0xbdbedcf8	-0.0931949
189	0xbdb7284f	-0.08943235
190	0x3d19130c	0.03737168
191	0xbdce4e13	-0.10073485
192	0xbcab2543	-0.020891791
193	0xbcaad1c7	-0.020851983
194	0xbd52379e	-0.051322572
195	0xbdc63e2a	-0.096798256
196	0x3dda4247	0.10657173
197	0xbcca94f4	-0.02472923
198	0xbb2c7786	-0.0026316359
199	0x3ba68132	0.0050813193
200	0xbdd3bd97	-0.10338896
201	0xbd90a7f3	-0.07063284
202	0xbdd6d3f7	-0.10489648
203	0xbc57f4fe	-0.013180969
204	0xbcfd10e3	-0.030891841
205	0xbcbb8d7b	-0.022894612
206	0xbd9a72c2	-0.075414196
207	0xbd955496	-0.07291524
208	0xbaceef08	-0.001578779
209	0x3ddd34c2	0.108010784
210	0xbdb2058d	-0.08692465
211	0xbd0ce695	-0.034399588
212	0xbd56dcb0	-0.052456558
213	0xbddf95b9	-0.10917229
214	0x3be7f73b	0.0070790327
215	0xbdab1150	-0.083529115
216	0x3c5d5129	0.01350812
217	0xbd14bea3	-0.036314618
218	0xbde422df	-0.11139464
219	0xbd7f886f	-0.062385973
220	0x397216a9	0.0002308736
221	0xbd4f65b0	-0.050634086
222	0xbdd2dc42	-0.10295917
223	0xbdea1477	-0.114296846
224	0xbc7180d8	-0.014740191
225	0xbb4d901c	-0.0031366413
226	0x3dca13fb	0.09867092
227	0x3ca5e5a0	0.020251095
228	0x3d5c0a36	0.053720675
229	0x3cac29c3	0.021016007
230	0x3dd726f6	0.10505478
231	0xbdb6888f	-0.08912765
232	0x3cb91a37	0.022595508
233	0x3c947a1f	0.018124638
234	0xbc14565c	-0.009053793
235	0xbd3494bd	-0.04408716
236	0x3dcab8b2	0.09898509
237	0xbbcaeeb4	-0.0061930064
238	0x3dea3fe7	0.1143797
239	0xbb430820	-0.0029759482
240	0x3cfaceb6	0.030616146
241	0xbd5ec8e8	-0.054390818
242	0xbdbc9b54	-0.09209314
243	0x3c45d10b	0.0120737655
244	0x3c2b6f8a	0.010463605
245	0xbd8f35d5	-0.069926895
246	0x3ddd88fb	0.108171426
247	0xbc84c8ee	-0.016209092
248	0xbc89888f	-0.016788749
249	0x3d5a980d	0.053367663
250	0xbd82324b	-0.06357249
251	0xbd439bcd	-0.047756005
252	0xbdb97135	-0.09054796
253	0xbc0b3d43	-0.008498493
254	0xbdbdfd0a	-0.09276779
255	0x3ce07220	0.027398169

bias f4 [12]
0	0x3ddbfc1a	0.10741444
1	0xbd8fdaaf	-0.070241325
2	0xbd2b25c5	-0.041784067
3	0x3d195398	0.037433237
4	0xbd731a97	-0.05935153
5	0x3be4ed28	0.006986279
6	0x3dc61d6c	0.096735805
7	0xbc923e7b	-0.017852059
8	0xbc1058d5	-0.008810242
9	0xbdc534ee	-0.09629236
10	0x3d2bc84f	0.041939076
11	0x3dc039b5	0.09386007

weight f4 [12]
0	0x3f7ffec9	0.99998146
1	0x3f7fffc5	0.9999965
2	0x3f7ffbba	0.9999348
3	0x3f80002b	1.0000051
4	0x3f7fff05	0.99998504
5	0x3f7ffb7f	0.9999313
6	0x3f7ffbe8	0.99993753
7	0x3f7ffffe	0.9999999
8	0x3f80000e	1.0000017
9	0x3f800004	1.0000005
10	0x3f800011	1.000002
11	0x3f800021	1.0000039

bias f4 [12]
0	0x38c2f8a4	9.296954e-05
1	0x36950135	4.4406866e-06
2	0xb90b3a48	-0.00013277784
3	0x39234b15	0.00015572862
4	0x3882972a	6.2270396e-05
5	0xb8fc0e7d	-0.00012018995
6	0xb911a4a4	-0.00013889611
7	0xb844d2b1	-4.6926263e-05
8	0x38b505a7	8.6318054e-05
9	0xb8985061	-7.2628965e-05
10	0x374d4900	1.2235949e-05
11	0x3902938f	0.00012452736

running_mean f4 [12]
0	0x3e68bc6f	0.22728132
1	0xbe9a5ce0	-0.30148983
2	0xbf31536a	-0.69267905
3	0x3b4ff734	0.0031733038
4	0x3e6e2292	0.23255375
5	0x3d75145d	0.059833873
6	0x3e956ace	0.29183048
7	0x3cff7869	0.031185346
8	0x3bfa8cd6	0.0076461835
9	0x3e44c15e	0.19214389
10	0x3e5c9f20	0.21545076
11	0x3e894544	0.26810658

running_var f4 [12]
0	0x3c33df1d	0.010978487
1	0x3cf22856	0.02956025
2	0x3e5f50db	0.21808188
3	0x3afcf4f7	0.001929908
4	0x3d49cfd7	0.049270477
5	0x3b45d901	0.003018916
6	0x3cddbb91	0.027066978
7	0x3b580c12	0.003296618
8	0x3c544dbb	0.0129579855
9	0x3d2f51ea	0.04280273
10	0x3c7aec50	0.01531513
11	0x3cb7b68d	0.022425914

weight f4 [12, 12, 5, 5]
0	0xbd42f2d4	-0.04759486
1	0xbc5d964a	-0.013524601
2	0x3d65a8c4	0.05606915
3	0x3ae58892	0.0017512015
4	0xbb60da0d	-0.0034309656
5	0xbcb406c6	-0.021975886
6	0xbb92977c	-0.0044736248
7	0x3c3de5f5	0.011590471
8	0xbd366f4a	-0.044539727
9	0xbb4df218	-0.0031424817
10	0x3c8917ca	0.016734976
11	0x3c504743	0.012712303
12	0x3ca8e25a	0.020615745
13	0x3ca3bbee	0.019987073
14	0xbbbfc93c	-0.0058528464
15	0x3c9f52be	0.019448634
16	0x3d26346a	0.04057733
17	0xbc974a9b	-0.018468192
18	0xbd3b6cf5	-0.045758206
19	0x3c9a1498	0.018808648
20	0x3d207acf	0.03917962
21	0x3c97cc80	0.01853013
22	0xbd19dca2	-0.037563927
23	0x3cf5c304	0.030000217
24	0x3bb157ea	0.0054120915
25	0x3d6ac4fb	0.05731676
26	0xbd3a01a0	-0.045411706
27	0xbcfdef49	-0.03099789
28	0xbc3024ec	-0.01075099
29	0xbd3ffaa5	-0.046869893
30	0x3d484717	0.04889592
31	0xbcc411d9	-0.023934292
32	0xbd0a4b16	-0.033763014
33	0x3cc11f6c	0.023574553
34	0x3d000923	0.031258713
35	0x3d3bdb6c	0.045863554
36	0x3cafc599	0.021456527
37	0xbcb45638	-0.022013769
38	0x3d1735d0	0.036916554
39	0xbd079171	-0.033097688
40	0x3d211cac	0.039333984
41	0xbbea77c7	-0.007155392
42	0x3cb00eae	0.021491375
43	0x3c831cb2	0.016004894
44	0xbcd511d7	-0.026009483
45	0xbc7a776f	-0.015287264
46	0x3d052350	0.03250438
47	0xba892ec5	-0.0010466209
48	0xbd0414a8	-0.03224626
49	0xbccae600	-0.024767876
50	0xbd08dfba	-0.033416487
51	0xbd1f93ad	-0.038959194
52	0xbc805784	-0.01566673
53	0x3d4f5b43	0.050624143
54	0xbccdb18c	-0.025109075
55	0xbc9e3295	-0.019311229
56	0xbc801796	-0.015636247
57	0xbcfccc2c	-0.030859075
58	0xbc059aea	-0.00815461
59	0xbbef7a5c	-0.0073082875
60	0x3d68a874	0.056801274
61	0x3d00a7e0	0.031410098
62	0x3c9ecf6c	0.019386016
63	0xba1ffd23	-0.0006103089
64	0x3bc24b62	0.0059293965
65	0xbc697d92	-0.01425113
66	0xbc17c946	-0.009264296
67	0x3d44b0ce	0.048020177
68	0xbc03088b	-0.007997642
69	0xbc23170a	-0.009954223
70	0x3d4defbe	0.050277464
71	0x3a9fa6e6	0.0012180477
72	0x3d6b9d3a	0.05752299
73	0x3c1b9b94	0.009497542
74	0x3c655f52	0.013999777
75	0xbd1b12d2	-0.037859745
76	0xbd414c7a	-0.047192074
77	0x3cf456fe	0.029826637
78	0x3d05393c	0.032525286
79	0x3d6297e7	0.055320647
80	0xbcbe6fa4	-0.023246594
81	0xbd564f29	-0.052321587
82	0xbb8bc830	-0.0042658076
83	0x3d2ecad3	0.042673897
84	0xbd53d491	-0.05171639
85	0x3d5f8ee8	0.054579645
86	0x3d550623	0.052007806
87	0xbd2240cf	-0.039612588
88	0xbc357c3b	-0.011076982
89	0x3cf9fa1c	0.03051477
90	0x3d285608	0.04109767
91	0xbd6ae594	-0.05734785
92	0xbd475655	-0.048666317
93	0x3cfd9755	0.03095595
94	0x3c191e61	0.009345622
95	0xbb99666f	-0.0046814005
96	0x3d585785	0.05281784
97	0xbd4f8d73	-0.050672006
98	0xbd22bbd9	-0.039729927
99	0xbce877e1	-0.028377475
100	0x3d696391	0.05697972
101	0xbc37a98f	-0.0112098595
102	0x3b57b31a	0.003291315
103	0x3c5d7120	0.013515741
104	0x3d35bbe1	0.04436863
105	0x3d52fce1	0.051510695
106	0x3d3aaa01	0.045572285
107	0x3d5f919e	0.05458223
108	0xbb65709c	-0.0035009747
109	0xbd01d1d1	-0.031694237
110	0x3d05cc70	0.03266567
111	0x3d490735	0.04907914
112	0xbbb35c69	-0.0054736626
113	0x3cf2bc12	0.029630695
114	0xbcc0859f	-0.023501216
115	0xbc3a4334	-0.011368562
116	0x3c870ee2	0.016486589
117	0x3d6cd11d	0.057816613
118	0x3ce2ce54	0.027686276
119	0x3ba8a100	0.005146146
120	0x3c8dcb26	0.017308783
121	0xbc6690d8	-0.014072619
122	0xbc151f04	-0.009101633
123	0x3cce3753	0.025172865
124	0xbc8cbda6	-0.017180275
125	0xbd39ad41	-0.045331243
126	0xbcd30d1d	-0.025763089
127	0xbcb62afb	-0.022237292
128	0x3d3f17b4	0.046653464
129	0xbd4b08dc	-0.049568996
130	0xbd389884	-0.045067325
131	0x3d163721	0.03667367
132	0xbd0fe954	-0.03513463
133	0xbc2e7908	-0.010648973
134	0xbcd232b1	-0.025658937
135	0x3d35fe75	0.044432122
136	0x3c572afe	0.013132809
137	0xbca002f6	-0.019532662
138	0xbc83a707	-0.016070856
139	0xbbf4b9c1	-0.0074684327
140	0xbccdc357	-0.02511756
141	0xbd29c864	-0.041450873
142	0xbcf59879	-0.029979931
143	0x3cf0c7bd	0.029392118
144	0xbd02ae7c	-0.031904683
145	0x3d6abe48	0.057310373
146	0xbd28f730	-0.04125136
147	0x3bed9b48	0.007251177
148	0xbb359ef5	-0.0027713154
149	0x3bea66cd	0.007153368
150	0x39e9068a	0.00044446095
151	0xbd443dfc	-0.047910675
152	0xbb61cd95	-0.0034454812
153	0xbc772888	-0.015085347
154	0xbd0c2514	-0.034215048
155	0xbd4fb051	-0.050705258
156	0x3d33a585	0.043859024
157	0x3a210af4	0.0006143295
158	0x3b4ab11f	0.0030928326
159	0x3ca84e9f	0.020545302
160	0xbd433532	-0.047658153
161	0xbcd60403	-0.02612496
162	0xbcd5ed87	-0.026114238
163	0xbd1728fd	-0.036904324
164	0xbaf9d104	-0.0019059484
165	0x3d372d7d	0.044721115
166	0xbd43f5b6	-0.04784175
167	0x3ca41673	0.020030236
168	0xbcb9e3c0	-0.022691607
169	0xbd076150	-0.03305179
170	0x3cc1bf55	0.023650805
171	0xbcecaff7	-0.0288925
172	0x3ccffb82	0.025388483
173	0x3d64adc6	0.055829786
174	0xbd21f4aa	-0.03953997
175	0xbcffa7f3	-0.031208014
176	0xbcc6535b	-0.024209669
177	0x3d53a527	0.051671173
178	0xbc2d5940	-0.010580361
179	0xbd45850c	-0.048222587
180	0x3c143e25	0.00904802
181	0x3d6647a6	0.056220673
182	0x3cb0702b	0.02153786
183	0x3d2a6a1e	0.041605107
184	0x3cc136c3	0.023585683
185	0xbd4d05f8	-0.05005452
186	0xbd4521d6	-0.04812797
187	0xbce8aa11	-0.028401406
188	0xbc9e5b1e	-0.019330557
189	0x3ccb1dd4	0.024794497
190	0xbd403be4	-0.046932116
191	0xbd02fd02	-0.03197957
192	0xbcd629e5	-0.026143024
193	0x3d509796	0.050925814
194	0x3d10baa9	0.035334263
195	0x3ca69242	0.020333413
196	0x3c8733bc	0.016504161
197	0xbb230475	-0.0024874483
198	0xbd47527d	-0.04866265
199	0x3d174e01	0.036939625
200	0xbba53117	-0.0050412524
201	0x3d28eee8	0.041243464
202	0x3a19879b	0.00058566936
203	0x3c795242	0.015217366
204	0x3d4c92d7	0.049944725
205	0xbd073eea	-0.033018984
206	0xbc00db1f	-0.007864743
207	0x3d658dfc	0.05604361
208	0xbd558abb	-0.052134257
209	0x3cd07bfb	0.025449743
210	0xbd075708	-0.033041984
211	0x3d55277c	0.05203961
212	0x3b96bb19	0.0045999405
213	0xbc895540	-0.016764283
214	0x3cbc080e	0.02295306
215	0xbd4ea4cc	-0.05045013
216	0xbd18e08d	-0.037323523
217	0x3d66d0b4	0.05635138
218	0x3d322200	0.043489456
219	0x3ba2a2ae	0.0049632406
220	0xbd049629	-0.032369766
221	0x3d058a68	0.032602698
222	0x3c924d5a	0.01785915
223	0x3d26e248	0.040743142
224	0xbd427f81	-0.04748488
225	0x3d217d71	0.03942627
226	0x3c9ebc19	0.019376801
227	0xbd669284	-0.056292072
228	0xbd185ba6	-0.037196778
229	0xbd2855fe	-0.041097634
230	0x3d6941f5	0.056947667
231	0x3c7040b4	0.014663864
232	0xbcb2112e	-0.021736708
233	0x3ca111ca	0.019661803
234	0x3d0c0d60	0.034192443
235	0xbcba59c8	-0.02274789
236	0xbb00cce0	-0.0019653365
237	0x3cb4413e	0.022003766
238	0x3ce09808	0.027416244
239	0x3cb7008f	0.022339134
240	0xbca77a1d	-0.02044397
241	0x3ba9e21d	0.0051844255
242	0xbd663fe6	-0.056213282
243	0xbcaf570b	-0.02140381
244	0x3cf6a355	0.03010718
245	0xbd4f966f	-0.050680574
246	0xbd5ea618	-0.054357618
247	0x3d42b965	0.047540087
248	0x3cdfb2f8	0.027307019
249	0x3cf39ef5	0.029738883
250	0xbd2845dc	-0.041082248
251	0xbb92f853	-0.004485169
252	0x3c7a34b0	0.015271351
253	0x3c1cd88a	0.009573111
254	0x3c746617	0.014916918
255	0xbd536483	-0.051609527

bias f4 [12]
0	0x3c1c2204	0.009529594
1	0x3c20b205	0.009808068
2	0x3d59b9dd	0.05315577
3	0xbd1ef2b2	-0.03880567
4	0x3d65eedf	0.05613601
5	0xbb6db373	-0.003627029
6	0x3b425bb4	0.002965671
7	0x39db009c	0.0004177139
8	0xbd3a2531	-0.045445625
9	0xbd556e45	-0.052107114
10	0xbcf8c1a6	-0.030365776
11	0xbc8c0f75	-0.017097214

weight f4 [12]
0	0x3f800010	1.0000019
1	0x3f7ffb09	0.99992424
2	0x3f800034	1.0000062
3	0x3f800005	1.0000006
4	0x3f800012	1.0000021
5	0x3f80000f	1.0000018
6	0x3f7ffc02	0.9999391
7	0x3f7ffb0c	0.9999244
8	0x3f7ffc87	0.999947
9	0x3f800004	1.0000005
10	0x3f800014	1.0000024
11	0x3f80001e	1.0000036

bias f4 [12]
0	0xb8c9dbea	-9.625389e-05
1	0xb891e98c	-6.95764e-05
2	0x390765b9	0.00012912498
3	0xb90644d4	-0.00012804876
4	0x3792e930	1.7513143e-05
5	0x3770a10a	1.434261e-05
6	0xb85c0dbb	-5.2464875e-05
7	0xb9075d4d	-0.0001290936
8	0xb87da2c8	-6.0471502e-05
9	0xb6eb51e9	-7.0130814e-06
10	0x38e946ff	0.0001112353
11	0x39006ab4	0.00012246781

running_mean f4 [12]
0	0x3dc4ca0d	0.09608851
1	0x3e346848	0.17617905
2	0x3edc5313	0.4303213
3	0x3d951212	0.07278837
4	0x3e91f08d	0.28503838
5	0xbd39e1fd	-0.045381535
6	0xbe8338df	-0.25629327
7	0xbe091b90	-0.1338942
8	0x3df9414a	0.12170656
9	0xbe3f10cd	-0.18658753
10	0xbe01ab2b	-0.12662952
11	0xbe129e44	-0.14318186

running_var f4 [12]
0	0x3d3a09ce	0.045419507
1	0x3ddef6f6	0.10886948
2	0x3eaf4ad0	0.34236765
3	0x3d741eaa	0.059599556
4	0x3e620c57	0.2207502
5	0x3e015b39	0.12632455
6	0x3da5e799	0.08100814
7	0x3d8fd1ee	0.07022463
8	0x3dbd3ac0	0.09239721
9	0x3d672dde	0.056440227
10	0x3e622e93	0.22088079
11	0x3dda0535	0.106455244

weight f4 [24, 12, 5, 5]
0	0x3c95272a	0.018207151
1	0x3ca1cfe5	0.019752452
2	0xbcc8ed23	-0.024527138
3	0x3c7f60a1	0.015587003
4	0xbd4f2080	-0.050568104
5	0xbd0fcc6d	-0.035107065
6	0xbd1dae3b	-0.038496237
7	0xbd5ea088	-0.054352313
8	0x3c845315	0.016152898
9	0xbcdfa523	-0.027300423
10	0x3c44d57c	0.012013789
11	0x3d2c8a9c	0.042124376
12	0xbd56948a	-0.05238775
13	0xbd2fb830	-0.042900264
14	0xbd48fcf3	-0.049069356
15	0xbca4c48b	-0.02011325
16	0xbd0d2612	-0.034460135
17	0x3d6074b6	0.054798804
18	0x3caeb520	0.021326602
19	0x3d198968	0.037484556
20	0x3d5cb68e	0.053885035
21	0x3d11f882	0.035637386
22	0x3d373e54	0.044737175
23	0xbd4bc4b6	-0.049748145
24	0xbd2938cd	-0.041313935
25	0x3bc42869	0.0059862626
26	0x3cef7c7f	0.029234169
27	0x3cca34b7	0.02468334
28	0x3d3fe225	0.046846528
29	0xbcb4421d	-0.022004182
30	0x3d0635fa	0.03276632
31	0x3c8b776e	0.017024722
32	0x3cf60b34	0.030034639
33	0xbd013aab	-0.03155009
34	0x3c2aecdc	0.010432448
35	0x3ca8f035	0.020622352
36	0xbb0b50e4	-0.0021257931
37	0xbd263570	-0.040578306
38	0x3cf7e046	0.03025831
39	0xbd235d4b	-0.039883893
40	0x3c9a7e23	0.018858975
41	0x3c3cb2cf	0.011517241
42	0xbd157353	-0.036486935
43	0x3d14351c	0.03618346
44	0x3a9d7081	0.0012011678
45	0xbd0cd695	-0.03438433
46	0x3b603080	0.0034208596
47	0x3d31ebdd	0.043437827
48	0x3bf4ef93	0.0074748485
49	0x3d61e2c0	0.055147886
50	0x3d26bde6	0.040708445
51	0x3c79cb65	0.015246247
52	0x3d3f0052	0.046631165
53	0x3d26bf05	0.040709514
54	0xbcab2d2e	-0.020895567
55	0x3ca45a49	0.020062583
56	0x3c323c01	0.010878564
57	0xbd1849ed	-0.037179876
58	0xbc34bb56	-0.0110309925
59	0xbc82bbae	-0.015958633
60	0xbcf935da	-0.030421186
61	0xbd1efd25	-0.038815636
62	0xbb4e5c8e	-0.0031488272
63	0xbb982abd	-0.0046437667
64	0xbcc21fef	-0.023696868
65	0xbbc7c900	-0.006096959
66	0xbd16bf47	-0.03680351
67	0xbd370bb2	-0.044688888
68	0x3cffb991	0.031216415
69	0xbc402195	-0.011726757
70	0x3bc26928	0.0059329458
71	0xbd4a041b	-0.04932032
72	0x3c53e1df	0.01293227
73	0x3d27de62	0.040983565
74	0x3d16695c	0.036721572
75	0xbd442d21	-0.0478946
76	0xbcb4f92a	-0.022091467
77	0x3d3cabed	0.0460624
78	0xbc96f737	-0.018428428
79	0xbb4b2f58	-0.003100356
80	0xbc9fafbd	-0.019492978
81	0x3caeee26	0.021353792
82	0x3c312e1b	0.010814215
83	0x3cf3e03a	0.029770005
84	0xbd0e24da	-0.034703113
85	0xbcc20255	-0.023682753
86	0x3d0f4f71	0.03498787
87	0xba29d8b7	-0.00064791314
88	0x3cfc4752	0.030795727
89	0x3c5b2622	0.013375791
90	0x3d583b32	0.052790828
91	0x3bfb8bc5	0.007676574
92	0xbd3f102c	-0.046646282
93	0x3d5f4d0c	0.054516837
94	0x3b2d7c71	0.0026471878
95	0x3c8110ba	0.015755046
96	0xbd3cf3e2	-0.046131022
97	0x3d65fde8	0.056150347
98	0x3d2dffd0	0.04248029
99	0xbd079471	-0.03310055
100	0xbcb6b749	-0.022304194
101	0x3d5b5b39	0.053553794
102	0x3d400007	0.046875026
103	0xbc375325	-0.011189257
104	0x3b5c3097	0.0033598298
105	0xbd3d1644	-0.046163812
106	0x3c7b63a7	0.015343583
107	0x3ba9fc3a	0.0051875385
108	0x3c4eca0e	0.012621416
109	0x3d5af07a	0.053451993
110	0xbc29c067	-0.010360814
111	0xbc8bd454	-0.01706902
112	0x3cbc75d3	0.023005402
113	0xbc1e3b79	-0.009657734
114	0x3d1e9b59	0.03872237
115	0x3cb48a4b	0.0220386
116	0xbccb1a91	-0.024792941
117	0xbc63f156	-0.013912519
118	0x3c2e1b30	0.010626599
119	0x3bb50b9f	0.005525067
120	0x3d59122a	0.05299584
121	0xbcf51f96	-0.029922288
122	0x3ca1eb71	0.019765588
123	0xbc85f02f	-0.01634988
124	0x3d4c5aef	0.04989141
125	0xbd597094	-0.05308588
126	0x3c18e18e	0.00933112
127	0xbd50fc13	-0.051021647
128	0x3b0d27e8	0.0021538679
129	0xbc78abcb	-0.015177677
130	0xbc08a203	-0.008339408
131	0xbc3fcf35	-0.011707117
132	0xbd291c9c	-0.04128705
133	0xbc68388c	-0.014173638
134	0x3c9df6eb	0.019282779
135	0x3d2a715c	0.041612014
136	0xbcbf8a6a	-0.02338143
137	0xbd6185e2	-0.05505932
138	0x3cab9a9c	0.020947747
139	0xbd698b38	-0.057017535
140	0xbcd491cb	-0.025948426
141	0xbc6f8ce6	-0.014620995
142	0xbce99d55	-0.028517405
143	0x3d14f4f5	0.03636642
144	0xbc909de7	-0.017653419
145	0xbd078e61	-0.033094767
146	0xbd302683	-0.043005478
147	0x3c437afc	0.011931177
148	0xbd18d055	-0.037308056
149	0x3cdd90d7	0.027046604
150	0x3d50988d	0.050926734
151	0x3ca4ce3f	0.020117877
152	0x3d3fa6b6	0.046789847
153	0xbc91b4fc	-0.017786495
154	0xbd29c166	-0.041444205
155	0xbd1babb4	-0.038005546
156	0xbbcc171d	-0.0062283413
157	0x3cb5502e	0.02213296
158	0xbcb29b90	-0.021802694
159	0xbd3bcde9	-0.045850668
160	0x3d2e6cb5	0.04258414
161	0x3d2b6b93	0.041850638
162	0xbd0f037e	-0.03491544
163	0x3bb0255d	0.005375548
164	0x3d483765	0.048880953
165	0x3c14f737	0.009092144
166	0xbd2951c7	-0.041337755
167	0xbd3a2230	-0.04544276
168	0x3d54e741	0.051978353
169	0x3d417416	0.04722985
170	0xbd0edcce	-0.034878545
171	0x3d34ada4	0.04411091
172	0xbd561d0a	-0.052273788
173	0xbd69f34a	-0.057116784
174	0xbd5a89e5	-0.053354163
175	0xbcc6977a	-0.024242152
176	0xbd0ed9a9	-0.034875546
177	0xbcea39ed	-0.028592074
178	0xbccc5fab	-0.024947962
179	0xbd0c1fea	-0.034210123
180	0x3c217daa	0.009856621
181	0x3d32bdd7	0.043638077
182	0x3d44df99	0.0480648
183	0x3d3c4471	0.04596371
184	0x3d3df92e	0.046380214
185	0x3d158e31	0.036512557
186	0x3c519e7e	0.012794135
187	0x3ccea127	0.025223328
188	0xbcdf5d29	-0.027266102
189	0x3d019e82	0.031645305
190	0xbcc71b55	-0.024305025
191	0x3c638724	0.0138872005
192	0x3d140454	0.03613694
193	0xba50f15d	-0.0007970536
194	0x3cbface1	0.023397865
195	0xbd098979	-0.03357837
196	0x3bed4c7d	0.007241784
197	0x3c67cf93	0.014148611
198	0x3cb284fe	0.021791931
199	0x3cfe2b63	0.031026548
200	0xbcdc8775	-0.02692006
201	0xbd43f5fb	-0.047842007
202	0x3d0f7e5e	0.035032623
203	0x3d30e5a5	0.043187756
204	0xbd1c3d89	-0.038144622
205	0xbd1cbb54	-0.038264588
206	0x3d390012	0.045166083
207	0xbaf6b2ed	-0.0018821635
208	0x3d637d3c	0.055539355
209	0x3d492f01	0.049117092
210	0xbd2e1b1d	-0.042506326
211	0x3d0423d9	0.03226075
212	0xbc818ee3	-0.015815204
213	0xbc96d606	-0.018412601
214	0x3ceafd70	0.028685302
215	0xbc9636ab	-0.018336615
216	0x3c8ee5e0	0.017443597
217	0xbd2a7635	-0.041616637
218	0xbd01d497	-0.031696882
219	0xbc32aece	-0.0109059345
220	0x3bd0b8e9	0.0063696993
221	0x3d2b49ef	0.041818555
222	0xbc026a2f	-0.007959886
223	0x3c5d460f	0.013505473
224	0x3cd2e87a	0.02574562
225	0xbcb24973	-0.021763539
226	0x3c1c7dd1	0.009551481
227	0xbcac0254	-0.020997204
228	0x3ce7cd57	0.028296156
229	0xbd2bc04a	-0.041931428
230	0x3d2cb7b1	0.04216737
231	0x3cc4d956	0.024029415
232	0x3cc6fa20	0.02428919
233	0x3d05e425	0.03268828
234	0xbd529afe	-0.051417343
235	0xbb609af1	-0.003427204
236	0x3cf97ff6	0.030456524
237	0x3cfebc78	0.031095728
238	0xbd685808	-0.05672458
239	0x3d2d727e	0.042345516
240	0xbd13ffbc	-0.03613256
241	0x3bdf6364	0.006817268
242	0xbc953a22	-0.018216196
243	0xbd6b802d	-0.057495285
244	0x3b9e3a6d	0.0048287422
245	0xbc275104	-0.010212187
246	0xbbe30717	-0.0069283354
247	0x3d25f150	0.040513337
248	0xbcccf89f	-0.025020896
249	0xbcc3a920	-0.023884356
250	0x3bf9a555	0.007618586
251	0xbd57f929	-0.052727852
252	0x3d0a055c	0.033696517
253	0xbcba704b	-0.022758624
254	0x3cd57e31	0.02606115
255	0x3bc1da97	0.0059159505

bias f4 [24]
0	0xbd4760b7	-0.04867622
1	0x3cfaf77e	0.030635592
2	0xbcd78823	-0.026310032
3	0x3d65b534	0.056081012
4	0x3d30545b	0.043049198
5	0x3ca24117	0.019806428
6	0x3c182a66	0.009287452
7	0xbcc43816	-0.023952525
8	0x3cd46dfe	0.025931355
9	0xbd0637a1	-0.032767896
10	0xbc843e60	-0.016143024
11	0x3ca04763	0.01956529
12	0xbc7fd593	-0.015614885
13	0x3d1345f2	0.035955377
14	0x3c1aebdd	0.009455648
15	0x3cd43bec	0.02590748
16	0x3d521fd3	0.05129988
17	0xbc02e638	-0.007989459
18	0xbd11d8c6	-0.035607122
19	0x3c47bad5	0.01219054
20	0x3cb5db1a	0.022199202
21	0x3c32714f	0.010891273
22	0xbd37c314	-0.044863775
23	0x3cffde98	0.03123407

weight f4 [24]
0	0x3f7ffcb0	0.99994946
1	0x3f7fff0e	0.9999856
2	0x3f7ffbee	0.9999379
3	0x3f800008	1.000001
4	0x3f80001e	1.0000036
5	0x3f800015	1.0000025
6	0x3f8000f4	1.0000291
7	0x3f7ffc23	0.99994105
8	0x3f800005	1.0000006
9	0x3f7fff9d	0.9999941
10	0x3f800012	1.0000021
11	0x3f7ffdc3	0.99996585
12	0x3f7ffcdd	0.99995214
13	0x3f800004	1.0000005
14	0x3f800002	1.0000002
15	0x3f800009	1.0000011
16	0x3f7fff76	0.9999918
17	0x3f800000	1.0
18	0x3f800022	1.000004
19	0x3f7ffad7	0.99992126
20	0x3f80000d	1.0000015
21	0x3f7ffbbb	0.99993485
22	0x3f800002	1.0000002
23	0x3f800001	1.0000001

bias f4 [24]
0	0xb88be63b	-6.67092e-05
1	0xb849d5a7	-4.8121114e-05
2	0xb6a80ff6	-5.0086483e-06
3	0x382cda58	4.1211344e-05
4	0x38b54eb2	8.645411e-05
5	0xb781373a	-1.5403715e-05
6	0x39774d9a	0.00023584664
7	0xb8d05d38	-9.935576e-05
8	0x3887a1a2	6.467408e-05
9	0x38b9423f	8.833827e-05
10	0xb8a54524	-7.8806916e-05
11	0xb8b36cb9	-8.555636e-05
12	0xb902cd9c	-0.00012474362
13	0x37f12256	2.8745428e-05
14	0x38b4cbf2	8.6210566e-05
15	0x38a1c5b0	7.7139004e-05
16	0xb79293cd	-1.7473381e-05
17	0xb8597a42	-5.1850693e-05
18	0x388d03b2	6.724092e-05
19	0xb8e6d12d	-0.00011006217
20	0xb8c37af3	-9.321226e-05
21	0xb8c2307c	-9.259672e-05
22	0x3882cf81	6.237534e-05
23	0x38cf978b	9.898756e-05

running_mean f4 [24]
0	0x3e228986	0.15872774
1	0xbe6b9c0d	-0.23008747
2	0x3f2e2326	0.6802238
3	0x3d6e54fb	0.058186512
4	0x3b54d67e	0.003247648
5	0xbe0c50f3	-0.13702755
6	0x3f140ffc	0.5783689
7	0x3e584863	0.21121363
8	0xbf4933b3	-0.7859451
9	0xbd11d84f	-0.03560668
10	0x3e6d39ef	0.23166631
11	0x3ee0a8b7	0.4387872
12	0x3daa21da	0.08307238
13	0x3ee385f6	0.44438142
14	0xbe2d066b	-0.1689698
15	0xbecfc806	-0.40582293
16	0xbe844a38	-0.25837874
17	0xbd016ea2	-0.03159965
18	0xbdc57641	-0.09641696
19	0x3edeb80c	0.43499792
20	0x3e014341	0.12623312
21	0xbd9f655f	-0.07783007
22	0xbde8d933	-0.113695525
23	0x3cfb523f	0.030678866

running_var f4 [24]
0	0x3e805b2c	0.2506956
1	0x3de19a8f	0.11015808
2	0x3f34cfd1	0.706296
3	0x3e58baaf	0.21164964
4	0x3dbb0844	0.09132436
5	0x3df367cb	0.11885031
6	0x3ea12761	0.31475356
7	0x3e0b7221	0.13617755
8	0x3edf22ff	0.43581387
9	0x3e2ca511	0.16859843
10	0x3de0e9d9	0.10982103
11	0x3dc7431b	0.09729596
12	0x3ea9e97d	0.3318595
13	0x3e2ab076	0.16668877
14	0x3e82c3e1	0.2554007
15	0x3e653dcf	0.2238686
16	0x3de8e029	0.1137088
17	0x3e531550	0.20613599
18	0x3e023812	0.12716702
19	0x3e147abe	0.14499947
20	0x3e1bdbb9	0.15220536
21	0x3dd3454f	0.10315954
22	0x3dee2618	0.116283596
23	0x3e0c1c47	0.13682662

weight f4 [24, 24, 5, 5]
0	0xbcdd51d8	-0.027016565
1	0x3c84da04	0.01621724
2	0x3ba00260	0.0048830956
3	0x3b98a906	0.004658821
4	0x3d10dc23	0.03536619
5	0xbc550246	-0.01300103
6	0x3b51b94c	0.0032001315
7	0xbc88deff	-0.016707895
8	0x3c3a0c8c	0.0113555305
9	0x3bff208f	0.0077858637
10	0x3cb8419a	0.022492219
11	0xbce4010b	-0.027832529
12	0x3c85ea23	0.016346997
13	0xbb37b792	-0.0028033
14	0x3cb5f41f	0.022211133
15	0xbca827da	-0.020526815
16	0xbcb395fd	-0.021922106
17	0xbc501f90	-0.012702838
18	0x3cd226cf	0.025653271
19	0xbc69569c	-0.014241841
20	0xbcbe67ef	-0.023242919
21	0x3d09aa2f	0.033609565
22	0x3b85b029	0.004079838
23	0xbc8d3b69	-0.017240243
24	0xbced15fd	-0.028941149
25	0x3cbf0f21	0.023322644
26	0x3d04141c	0.03224574
27	0xbd1ed798	-0.038779825
28	0x3b44d130	0.0030031912
29	0x3aa0b47d	0.0012260821
30	0x3d187148	0.03721741
31	0xbcaeb69d	-0.021327311
32	0xbc0e1242	-0.008671345
33	0x3c1ecfcc	0.009693097
34	0x3c8efc40	0.017454267
35	0xbb4da02d	-0.003137599
36	0x3be2bb05	0.006919267
37	0xbba99d12	-0.005176195
38	0x3d17f6e5	0.03710069
39	0x3bfea9c4	0.0077717025
40	0x3d0db665	0.034597773
41	0xbba65a47	-0.00507668
42	0x3c137213	0.008999365
43	0xbce93159	-0.028465914
44	0xbca46a24	-0.020070143
45	0xbc203592	-0.009778397
46	0xbb89d368	-0.00420611
47	0x3c7801a7	0.015137113
48	0xbd0d55a0	-0.034505486
49	0xbcaf623c	-0.021409146
50	0xbcd5d853	-0.026104128
51	0xbcf75976	-0.030194025
52	0x3d253b61	0.04033983
53	0x3baf2f83	0.00534624
54	0xbb82a910	-0.003987439
55	0xbbc66207	-0.0060541662
56	0xbc653bb8	-0.013991289
57	0x3afd11d5	0.0019307683
58	0x3c3d7995	0.011564632
59	0xbcc6feb2	-0.02429137
60	0xbc8a0a26	-0.016850542
61	0xbcdd961a	-0.027049113
62	0xbcafff88	-0.021484151
63	0x3d212834	0.03934498
64	0xbc531a30	-0.012884662
65	0x3ab30a5a	0.0013659701
66	0xbd2295fb	-0.039693814
67	0xbcdcff45	-0.02697719
68	0xbc83f192	-0.0161064
69	0x3b9a6415	0.0047116377
70	0xbcd2ed27	-0.025747849
71	0x3d153b89	0.03643373
72	0x3ccfea42	0.025380258
73	0x3c82905d	0.015937978
74	0x3c8cc2e8	0.017182782
75	0xbc34b415	-0.011029263
76	0x3d20bcf6	0.039242707
77	0xbb1477eb	-0.0022654484
78	0x3c566790	0.013086215
79	0x3cc659f2	0.024212811
80	0x3c4a96e4	0.012365077
81	0x3c306f0a	0.010768661
82	0xbd06c075	-0.032898385
83	0x3a266610	0.0006347606
84	0x3d0fefdf	0.03514087
85	0x3c7eec46	0.015559262
86	0xbc95e645	-0.018298278
87	0xbc950f70	-0.018195838
88	0x3ca311b8	0.01990591
89	0x3c7fb31c	0.015606668
90	0xbd043fe3	-0.03228749
91	0x3ccbce8d	0.024878765
92	0x3cf6b7cd	0.03011694
93	0xbbfd5496	-0.0077310307
94	0xbd0f81f3	-0.03503604
95	0xbcfe1d64	-0.031019874
96	0xbc35a082	-0.011085631
97	0x3cd05fac	0.025436245
98	0xbbd256cc	-0.0064190384
99	0xbc67fcff	-0.01415944
100	0x3cc100e6	0.023559999
101	0xbcc7e8a6	-0.024402928
102	0xbca292e4	-0.019845434
103	0x3cf4d2a7	0.029885603
104	0xbd208a9f	-0.0391947
105	0x3c5bf098	0.013424061
106	0x3d220a33	0.039560508
107	0xbca94d1b	-0.02066665
108	0x3b43c320	0.0029870942
109	0x3cd3749e	0.025812443
110	0xbc7d501d	-0.015460995
111	0x3c379897	0.011205814
112	0xba2c5edc	-0.00065754144
113	0xbc9e6c0b	-0.019338628
114	0x3b283fe3	0.0025672845
115	0xbced0875	-0.028934697
116	0xbb458164	-0.0030136937
117	0xbc353573	-0.011060107
118	0x3d0b049f	0.033939954
119	0xbc94b28e	-0.018151548
120	0x3c42277f	0.011850237
121	0xbd1cbc2e	-0.0382654
122	0xbc867bce	-0.016416457
123	0xbca385f7	-0.01996134
124	0xbd0fef38	-0.035140246
125	0xbcac654d	-0.021044398
126	0xbc6c6421	-0.0144281695
127	0x3cce0a0f	0.02515128
128	0xbd1aa72a	-0.037757076
129	0xbd1446d8	-0.036200374
130	0x3c086c3b	0.008326585
131	0xbcd336e2	-0.025783006
132	0x3d1495e6	0.036275767
133	0xbc7a30ad	-0.015270394
134	0x3c19f9b1	0.00939791
135	0x3c80b415	0.01571087
136	0x3ca178af	0.019710867
137	0xbd12edc3	-0.03587128
138	0x3cf8bcdf	0.030363498
139	0x3caff271	0.02147791
140	0xbbc7153e	-0.0060755303
141	0x3d045e6b	0.032316606
142	0xba2cce58	-0.0006592027
143	0xbc4231d7	-0.011852703
144	0xbcecbda3	-0.02889902
145	0x3c74baca	0.014937112
146	0x3c6c9ce0	0.014441699
147	0x3d25c7b3	0.04047365
148	0x3cd0ef4d	0.025504733
149	0x3be9bd08	0.00713313
150	0xbcc1a9ee	-0.0236406
151	0xbd232926	-0.039834164
152	0xbc8372f2	-0.016046021
153	0xbbbf2eaf	-0.0058344225
154	0x3ca747b0	0.020419925
155	0xbcab2d44	-0.020895608
156	0x3c7339b0	0.014845297
157	0xbc445f8c	-0.011985671
158	0x3d159f3a	0.036528803
159	0xbd0b7030	-0.034042537
160	0xbca0a829	-0.019611435
161	0xbcd01c9e	-0.02540427
162	0x3d031c80	0.0320096
163	0x3d0497c8	0.032371312
164	0x3cad7cb2	0.021177623
165	0x3bd34e72	0.0064485604
166	0xbcf54103	-0.029938227
167	0x3c34dfbd	0.0110396715
168	0xbd214664	-0.03937377
169	0xbd2577b4	-0.04039736
170	0x3d0cf02e	0.03440874
171	0xbd1bb8b5	-0.038017947
172	0x3cd1e70c	0.025622867
173	0x3c845c75	0.016157368
174	0x3c245082	0.01002896
175	0xbd1e0011	-0.038574282
176	0xbc1326bb	-0.008981402
177	0xbbc4b7ac	-0.0060033407
178	0xbd06175b	-0.032737117
179	0x3c5a88e3	0.0133383
180	0x3d01d840	0.031700373
181	0xbcb4af1d	-0.022056157
182	0x3cf8fea1	0.030394854
183	0x3c0304bc	0.007996734
184	0x3d1c51d3	0.03816397
185	0x3c8de526	0.01732118
186	0xbc1b34f0	-0.0094730705
187	0x3c836b7d	0.016042465
188	0xbca928ff	-0.020649431
189	0x3ba6e728	0.005093474
190	0x3c19a0bd	0.009376702
191	0xbc915fdc	-0.017745905
192	0xbc1ae6ca	-0.009454438
193	0x3d1c4ced	0.0381593
194	0x3abd6334	0.001444912
195	0xbd1202ab	-0.035647076
196	0xbb1729d1	-0.0023065696
197	0xbc2b1a4f	-0.010443284
198	0x3cca3a63	0.024686044
199	0x3bd2a868	0.006428767
200	0xbc5272ce	-0.012844754
201	0x3ceb592d	0.028729046
202	0xbcb6b983	-0.022305256
203	0x3d15acb7	0.036541667
204	0xbb5bf79b	-0.0033564332
205	0xbc40a1fd	-0.011757371
206	0x3c81d794	0.015849866
207	0x3b7a2a50	0.0038172193
208	0xbcb48315	-0.022035161
209	0x3d16c367	0.036807444
210	0xbcf897af	-0.030345766
211	0xbc0b1aa3	-0.008490237
212	0xbc534e8e	-0.012897147
213	0x3cff1c7b	0.03114151
214	0xbc7bcb9d	-0.015368369
215	0xbcde8294	-0.027161874
216	0x3d0ab224	0.033861294
217	0x3d031dc7	0.03201082
218	0x3d251c09	0.04030994
219	0x3c3019b6	0.010748317
220	0xbd223778	-0.03960368
221	0xbcf05b32	-0.02934036
222	0x3d11c032	0.035583682
223	0xbaea0af9	-0.0017856053
224	0x3c96b2b4	0.01839576
225	0xbd17fe13	-0.03710754
226	0x3c6d0076	0.014465442
227	0x3c0e4ea3	0.008685741
228	0x3cb4a49a	0.022051144
229	0x3d1e8d1d	0.038708795
230	0xbcc214f2	-0.023691628
231	0x3bab019f	0.005218699
232	0x3c81bb57	0.0158364
233	0x3cc793ca	0.024362464
234	0x3c1dc739	0.009630018
235	0xbc18f181	-0.009334923
236	0x3d0017d9	0.031272743
237	0x3bc6ab58	0.0060629062
238	0x3d0c77c8	0.03429392
239	0x3d11f59c	0.035634622
240	0x3d1f4bf0	0.03889078
241	0x3ca9e818	0.020740554
242	0x3bf1e66d	0.007382205
243	0x3cfdbb1a	0.030973006
244	0x3d104381	0.035220627
245	0xbd1f4960	-0.038888335
246	0x3c95c992	0.018284593
247	0x3d12c583	0.035832893
248	0x3d17cd3f	0.037060972
249	0xbd15e620	-0.036596417
250	0x3d007939	0.031365607
251	0x3cb618be	0.022228595
252	0xbd0f55c9	-0.03499392
253	0x3c641c86	0.013922816
254	0xbd0cd054	-0.034378365
255	0xbced59a5	-0.02897341

bias f4 [24]
0	0x3c803a35	0.015652755
1	0x3c75be93	0.01499905
2	0xbcc258be	-0.023723956
3	0xbc8859cd	-0.016644383
4	0xbcece651	-0.028918417
5	0x3ce246f7	0.02762173
6	0xbd22d0e8	-0.03975001
7	0xbca72fdd	-0.020408565
8	0x3b396c2c	0.0028293235
9	0x3c4216f6	0.011846295
10	0x3d17aef0	0.037032068
11	0x3cfe0311	0.031007322
12	0xbce060a9	-0.027389841
13	0x3d15d842	0.036583193
14	0x3c8c058a	0.017092485
15	0xba3fd5a9	-0.00073179096
16	0x3a7732bc	0.0009429862
17	0x3bdb1131	0.006685399
18	0xbd06ff59	-0.032958362
19	0x3cac47e9	0.021030383
20	0xbc20810d	-0.009796393
21	0xbc573ac3	-0.0131365685
22	0xbcc2c046	-0.023773324
23	0x3cf2f26a	0.029656608

weight f4 [24]
0	0x3f7fff5c	0.9999902
1	0x3f7ffd66	0.9999603
2	0x3f80000d	1.0000015
3	0x3f800014	1.0000024
4	0x3f800027	1.0000046
5	0x3f800000	1.0
6	0x3f7ffe8d	0.9999779
7	0x3f800003	1.0000004
8	0x3f7ffff2	0.99999917
9	0x3f800006	1.0000007
10	0x3f7fffec	0.9999988
11	0x3f800021	1.0000039
12	0x3f800000	1.0
13	0x3f7ffb8e	0.99993217
14	0x3f800082	1.0000155
15	0x3f80000b	1.0000013
16	0x3f800000	1.0
17	0x3f7ffebc	0.9999807
18	0x3f800012	1.0000021
19	0x3f7ff974	0.9999001
20	0x3f80000a	1.0000012
21	0x3f80002a	1.000005
22	0x3f7fffdd	0.9999979
23	0x3f800000	1.0

bias f4 [24]
0	0x36a76867	4.989142e-06
1	0x38e88f44	0.000110893074
2	0x37205101	9.555603e-06
3	0x3906b845	0.00012847882
4	0x39663598	0.00021954475
5	0x38dff763	0.00010679548
6	0x38a96f67	8.079298e-05
7	0x38b0bb47	8.427217e-05
8	0x3888f757	6.531056e-05
9	0x3900429e	0.00012231848
10	0x38b41092	8.586155e-05
11	0x397b8f9c	0.00023990724
12	0x3860e44f	5.361839e-05
13	0xb8557857	-5.0895233e-05
14	0x39735586	0.00023206146
15	0x38515e28	4.9917173e-05
16	0x39212107	0.0001536646
17	0x3901a724	0.00012364663
18	0x38afa7f0	8.375931e-05
19	0xb860fa58	-5.3638913e-05
20	0x375d162e	1.3177791e-05
21	0x393a62da	0.00017775167
22	0x38b57249	8.65204e-05
23	0x38f01270	0.00011447526

running_mean f4 [24]
0	0xbd92c7f5	-0.07167045
1	0x3dd60d12	0.10451712
2	0x3e7cd89c	0.24692005
3	0x3e9453c6	0.28970164
4	0xbc9c8053	-0.019104159
5	0x3e82ac76	0.25522202
6	0xbe339146	-0.17535886
7	0x3e439f96	0.19103846
8	0x3d09a5bc	0.033605322
9	0x3c401009	0.011722573
10	0x3e0d07b3	0.13772468
11	0x3e3830fa	0.17987433
12	0xbe005c60	-0.12535238
13	0x3e15371f	0.14571808
14	0x3e96952a	0.29410678
15	0x3c434dbb	0.011920388
16	0x3e44a663	0.19204096
17	0x3daf24aa	0.08551915
18	0x3d08c620	0.03339207
19	0x3ebbb51d	0.36661616
20	0x3cea5355	0.028604189
21	0xbdb6b9a5	-0.08922128
22	0xbdf07222	-0.11740519
23	0xbefb0780	-0.4902916

running_var f4 [24]
0	0x3e508027	0.20361386
1	0x3e2bc64e	0.16774866
2	0x3e0d7077	0.13812433
3	0x3e21d306	0.15803155
4	0x3db0182f	0.08598363
5	0x3e075ef6	0.13219818
6	0x3df12dca	0.11776312
7	0x3d98c1fb	0.07458874
8	0x3dd29473	0.10282221
9	0x3e04a7b9	0.12954606
10	0x3e126dfc	0.14299768
11	0x3d95019d	0.07275698
12	0x3dd15069	0.10220415
13	0x3e142107	0.14465724
14	0x3dcfcdbc	0.101466626
15	0x3ddfff84	0.109374076
16	0x3e0b9a45	0.13633068
17	0x3debb684	0.115094215
18	0x3de9f5b7	0.114238195
19	0x3dfa9a6d	0.12236486
20	0x3dde4d87	0.10854631
21	0x3e5d034f	0.21583293
22	0x3e0335d5	0.12813504
23	0x3e47fd18	0.19530141

weight f4 [10, 16224]
0	0x3bad5119	0.0052892086
1	0x3a3571ee	0.0006921579
2	0xbbaa578d	-0.005198425
3	0x3bc2431c	0.00592841
4	0xbbbe9603	-0.0058162226
5	0x3ba27d86	0.004958811
6	0xbb9e560d	-0.0048320354
7	0x3a608601	0.000856489
8	0xba80810b	-0.0009804083
9	0x38ee64f3	0.000113675276
10	0xbbd73d1d	-0.0065685646
11	0xbbc209da	-0.0059215846
12	0x3bc3539d	0.005960895
13	0xbbb0eea0	-0.00539954
14	0x3aa86fb6	0.0012850675
15	0x3bed5fc4	0.007244082
16	0xba263d6b	-0.00063415495
17	0x3b26cffa	0.0025453554
18	0xbb842094	-0.004032204
19	0x3b28aa3a	0.0025736229
20	0xba5608a1	-0.0008164738
21	0xbb200166	-0.0024414896
22	0xb8da854a	-0.00010419877
23	0x3b48cefa	0.0030640946
24	0x3b6fc52f	0.0036586036
25	0x3be50239	0.0069887904
26	0x3ac121da	0.001473482
27	0x3b812ef9	0.003942367
28	0xbbe9e8d0	-0.007138349
29	0x3a6813de	0.0008853058
30	0xbbd7cfcc	-0.0065860506
31	0xb982977a	-0.0002490839
32	0xbb292909	-0.0025811812
33	0xbbd69e6e	-0.006549648
34	0x3bd3ed2a	0.006467481
35	0xbb6fe2e9	-0.0036603755
36	0x3be9431c	0.0071185958
37	0xbb87a78b	-0.0041398457
38	0x39bdfae6	0.00036235823
39	0x3b687eb8	0.003547592
40	0xbba8cf0e	-0.005151636
41	0xbbc3f808	-0.0059804954
42	0x3a2ef4e2	0.00066740636
43	0x3836224a	4.3424116e-05
44	0xba52dbe8	-0.0008043633
45	0xbba12cfd	-0.004918693
46	0xbba02c8a	-0.004888122
47	0xbbce97a8	-0.0063047
48	0xbb1914c5	-0.0023358327
49	0xbb8ad3e2	-0.004236684
50	0x3b6b407c	0.003589659
51	0x3abe80fd	0.0014534291
52	0xbb254aae	-0.0025221515
53	0x3b93fdda	0.0045163454
54	0x3b879262	0.0041373232
55	0xbbd8b35b	-0.0066131777
56	0xbae14479	-0.0017186544
57	0x388935dc	6.542701e-05
58	0xbba9d709	-0.005183105
59	0xbb56873c	-0.0032734415
60	0x3b793988	0.0038028676
61	0x3bb52ccc	0.005529022
62	0xba4bd055	-0.00077748793
63	0x3ae99610	0.0017821211
64	0xbb43181d	-0.0029769011
65	0xbaafba29	-0.001340692
66	0xbbc630f1	-0.0060483147
67	0x3b838e30	0.004014753
68	0x3b1fe887	0.0024400072
69	0x3832b14c	4.2603628e-05
70	0xba515141	-0.0007984825
71	0xbb2223db	-0.002474061
72	0x3a1331fd	0.0005615054
73	0x395ea545	0.00021233138
74	0x3b75f920	0.0037532523
75	0xbacbad59	-0.0015539333
76	0x3a710cf4	0.00091953506
77	0x3b146f38	0.00226493
78	0xbbb08ed6	-0.005388121
79	0x3b5d68a2	0.003378429
80	0x3c0252d7	0.007954321
81	0xbb4d2878	-0.0031304639
82	0x3b79782d	0.0038066015
83	0xbb99fe3a	-0.0046994956
84	0xbbc7792a	-0.006087442
85	0x3aa8e27a	0.0012884878
86	0x3ae93d8e	0.0017794834
87	0xbbdd42ab	-0.006752332
88	0x3b68d71e	0.003552861
89	0x3c03551e	0.008015899
90	0x3b86fbca	0.004119371
91	0xba4d19e1	-0.00078239857
92	0xbbc007ca	-0.0058603035
93	0x3a852094	0.0010156804
94	0xbbc2d9fb	-0.0059463955
95	0xbb85a2ea	-0.0040782588
96	0x3b638a0b	0.0034719731
97	0xbb89555e	-0.0041910848
98	0x3ae18ce7	0.001720813
99	0x3b7e4116	0.0038796118
100	0xbbf5dd1c	-0.007503165
101	0xbb588c1d	-0.0033042498
102	0xbb5d1024	-0.0033731544
103	0x3b2d20c1	0.0026417228
104	0x3b61469d	0.0034374364
105	0xbbdf751b	-0.00681938
106	0xbbb7e4a3	-0.0056119724
107	0x3b32fce3	0.0027311377
108	0xbbdb979a	-0.006701422
109	0xba14885a	-0.000566607
110	0xbb6d69f1	-0.0036226476
111	0xbbf2adaa	-0.0074059563
112	0x3b2adb54	0.002607067
113	0xbbf94737	-0.0076073664
114	0x3bc9fc1c	0.006164087
115	0x3b9cd900	0.0047866106
116	0xbbce3b45	-0.0062936866
117	0xbad29639	-0.0016066498
118	0x3be43e0e	0.0069654053
119	0xbb97f74e	-0.0046376353
120	0x3bf97e1e	0.0076139113
121	0x3bc047fb	0.0058679557
122	0x3b1b5cf2	0.0023706523
123	0xbb246b62	-0.002508842
124	0x3be7c6ed	0.0070732743
125	0x3b4c81b1	0.0031205232
126	0x3bd987e8	0.0066385157
127	0x3b1648f6	0.0022931672
128	0x3bfcd4a9	0.0077157808
129	0x39d1c656	0.00040011358
130	0xbb162324	-0.002290913
131	0xbb6dafbe	-0.003626808
132	0x3b01615f	0.0019741876
133	0x3a69058f	0.0008889073
134	0x3be4961a	0.0069759013
135	0x3b2c34f7	0.0026276687
136	0x3bd3dbdc	0.0064654183
137	0x3b851f11	0.0040625413
138	0x3bfc7824	0.0077047516
139	0x3bc982ed	0.006149641
140	0xbbcf4d2c	-0.0063263383
141	0x3be94dae	0.007119856
142	0x3a36a5c3	0.00069674494
143	0xbb8dcd27	-0.0043274346
144	0x3bae70f4	0.0053235237
145	0x3b54ba16	0.0032459549
146	0x3b8f0a15	0.0043652155
147	0x3b7e015c	0.0038758134
148	0x3bc4d2e0	0.0060065836
149	0x3c02db22	0.007986816
150	0x3bfb43b4	0.007667983
151	0x3bae8784	0.0053262133
152	0x3b9d9fb7	0.0048102993
153	0x3b6bbee6	0.0035971939
154	0x3b400b70	0.0029303692
155	0xbb66f034	-0.0035238387
156	0x3ae767f5	0.0017654883
157	0x3bcbd6b0	0.006220661
158	0x3b47be21	0.0030478316
159	0x3b47e1d6	0.00304996
160	0x3bc3522c	0.0059607234
161	0x3bdf3228	0.006811399
162	0x3b9a3312	0.004705795
163	0x3bcf9177	0.0063344794
164	0x3b307937	0.0026927718
165	0x3962b996	0.00021622176
166	0xba2d6b5c	-0.0006615424
167	0x3b2adb1a	0.0026070536
168	0x3aa79378	0.0012785038
169	0xbb9bb987	-0.004752341
170	0xbbd16caa	-0.0063911276
171	0xbb8cf071	-0.004301124
172	0x3b25bbd3	0.0025288954
173	0x38cd1273	9.778598e-05
174	0x3b966f07	0.004590872
175	0xbb988bba	-0.0046553286
176	0xbb1e6213	-0.0024167344
177	0x3b8ca1aa	0.004291733
178	0xbb3be555	-0.0028670628
179	0x3bf4a58e	0.0074660247
180	0x3a3c5184	0.00071837776
181	0xbaa5f0ba	-0.0012660243
182	0x39c03883	0.00036663198
183	0x3ab3e49e	0.001372475
184	0x3ab0cb21	0.0013488272
185	0x3bdbc566	0.0067068813
186	0xbb179bde	-0.0023133676
187	0x3b2bbb42	0.0026204144
188	0xba6f30ea	-0.0009124415
189	0x3ae5a03f	0.001751907
190	0x3bd8c9f6	0.0066158725
191	0x3b5875c5	0.003302918
192	0x3beb0007	0.007171634
193	0x3b5eaf59	0.0033979027
194	0x3b711a49	0.0036789349
195	0x3b06443c	0.0020487448
196	0xbbe9489d	-0.007119252
197	0xbbed3434	-0.007238889
198	0x3b36d678	0.002789883
199	0x3b7da6ce	0.003870416
200	0xbb862b9e	-0.004094555
201	0xbb3b4e5f	-0.0028580648
202	0xbbb996ac	-0.0056637134
203	0x3bb883b1	0.005630933
204	0x3be5e368	0.0070156343
205	0xba87ba9b	-0.0010355295
206	0x3bcbfd31	0.006225251
207	0xbbe4ffe0	-0.0069885105
208	0x3c0107ac	0.007875364
209	0xbb34fb3c	-0.0027615568
210	0xbbbd01e5	-0.005768048
211	0x3be783d0	0.007065274
212	0xbbb1056c	-0.0054022577
213	0x3a6813a8	0.00088530267
214	0x3b0fa07d	0.0021915727
215	0x3b80c74e	0.003930009
216	0x3be62468	0.007023383
217	0x3b993fb1	0.004676782
218	0xbae93f9c	-0.0017795446
219	0x3bb3f179	0.0054914323
220	0x3af2367d	0.0018479374
221	0xbb9df2f2	-0.004820221
222	0xbadcf1fb	-0.0016856784
223	0x3b9c59cf	0.004771448
224	0xba048a29	-0.0005055988
225	0xbac7ae19	-0.001523438
226	0x3a51608b	0.00079871033
227	0xbb1ae0b2	-0.0023632464
228	0xbb9116b3	-0.004427755
229	0x3a740998	0.0009309291
230	0xbb2d5531	-0.0026448483
231	0xbbc72ca5	-0.00607832
232	0x3b874cd8	0.0041290335
233	0xba681f07	-0.0008854721
234	0x3bbbf3cd	0.0057358504
235	0xb9b5197f	-0.00034542006
236	0xba50987f	-0.0007957294
237	0xb967386f	-0.000220509
238	0x3bfeace7	0.0077720764
239	0x3aa55f21	0.0012616852
240	0x3befea7b	0.0073216534
241	0xbbc08bfd	-0.005876063
242	0xbb7482c6	-0.0037309392
243	0x3b084675	0.0020793949
244	0xbbb6ad57	-0.005574863
245	0x3bbb6f93	0.005720088
246	0x39e81390	0.00044265063
247	0x3a4c8f24	0.0007803312
248	0x3a19f56f	0.0005873059
249	0x396d4416	0.00022627445
250	0x3b9929bb	0.004674164
251	0x3a45698d	0.0007530682
252	0xbba2fd1e	-0.0049740216
253	0x3b334f3a	0.0027360455
254	0xbbeca632	-0.0072219605
255	0x3afd8469	0.001934183

bias f4 [10]
0	0x3bc0ea69	0.005887319
1	0xb8e31267	-0.00010827631
2	0xbbbfa20f	-0.0058481763
3	0xb98e49ca	-0.00027139328
4	0xba9d18c4	-0.001198553
5	0x3b462989	0.003023716
6	0xbbed7433	-0.007246518
7	0xbbb77f25	-0.0055998736
8	0xbbeccd80	-0.007226646
9	0xba9fc548	-0.0012189532
