models/Demo/LOGS/models/nnet_epoch_8.pt (torch, 765965 bytes, 26 tensors)

weight f4 [12, 3, 5, 5]
0.07983751 0.10873089 0.0062292055 -0.02702518 -0.0076165902 0.0006346855 -0.054058075 0.02755456
0.0825702 0.10531236 -0.073446445 -0.029571852 0.052710082 0.09779534 0.037203297 0.0422144
-0.07341402 0.039351787 0.09510512 -0.07174143 0.0041811625 0.094045304 0.01934348 -0.09074778
0.0498623 -0.002631715 0.08167833 -0.10191012 0.09061529 0.07114186 0.057905193 -0.11101231
-0.113834396 -0.030878155 0.108756274 -0.04397864 0.05723567 0.024532164 0.039849434 -0.1112178
0.01750907 0.07056165 -0.0502086 -0.1073353 -0.056259144 -0.07085028 -0.054778002 -0.11447673
-0.05274235 -0.046574872 0.044587355 -0.034632288 -0.110125855 -0.07113348 0.023412004 0.039969455
-0.051496703 0.015916634 -0.078103125 0.04162281 0.08675634 0.07336794 -0.0022450078 -0.0019840053
-0.007780887 0.0420449 -0.10176694 0.05105368 0.032261025 0.109395854 -0.052760847 0.07053776
-0.018778214 0.09619227 0.056203797 0.0042536096 0.030120505 0.09483661 -0.08405906 -0.0069704135
-0.013810701 -0.095009334 -0.05263124 0.0052499226 0.07575099 0.017470637 0.02480205 0.09669951
-0.03255664 0.10468056 -0.032093417 -0.049381375 -0.014391216 -0.046480265 -0.06399126 -0.06713859
0.088150375 0.0442881 -0.09315124 -0.027236562 0.052884653 0.005612937 0.07951525 0.07014429
-0.016135318 -0.10948993 0.111097574 0.0070952573 -0.07857996 0.050528377 0.05117689 0.0814625
0.0669625 0.10473202 -0.00065968337 0.11459722 -0.056541584 0.11301703 0.029434789 0.11089737
-0.0683847 0.080357954 0.052226778 -0.10883345 -0.007351025 -0.02989581 0.018096412 0.079144485
-0.09513937 0.09935572 0.032368116 0.051878605 -0.11349044 0.029842602 -0.017908582 -0.029760968
0.010132552 0.05509048 0.053987302 -0.04512096 -0.08850545 -0.05531411 0.029187748 0.06648952
-0.018349271 -0.09449445 0.04342749 0.084412895 -0.015145454 -0.08565288 -0.11107266 0.0074986243
0.027093349 0.041951135 -0.006871282 -0.059684154 0.075210646 -0.045581445 0.067991205 0.06390689
0.06466158 0.043345552 0.11405913 0.040748533 0.080571406 0.036527142 -0.08046734 -0.044729803
0.082838506 -0.113091074 -0.08806365 0.009913585 0.09245355 0.035372376 0.081070304 -0.09399272
0.058397036 -0.017334813 0.061959784 -0.04092455 -0.022345737 0.042581122 -0.07143015 -0.09466683
0.068731025 0.06828435 0.020283088 0.1103843 -0.028882436 0.0026044901 -0.05687032 0.08511476
-0.01641144 0.052910134 0.017206432 0.077083215 0.11317404 0.021540826 -0.08193776 0.068519495
0.08155937 -0.09799781 -0.024656733 -0.03863198 0.042492803 0.041709486 -0.088970676 -0.018644135
-0.0434922 0.017570632 0.0779122 -0.10175711 0.0016302643 0.05045033 -0.052232783 -0.04551474
0.08862399 -0.10166336 0.04266426 0.0791792 0.06295514 -0.037520546 -0.08313372 -0.038261786
-0.089599155 -0.02203832 0.04523627 0.01514299 -0.05434417 -0.026175894 0.11033205 0.053296782
0.053425774 -0.04270299 -0.06953803 -0.019232985 0.05894268 0.10921492 -0.05229118 0.006550309
0.002826871 0.054183953 0.037305277 0.0015279357 -0.08313303 -0.011475679 0.07273501 0.050631564
-0.017120378 0.09833229 0.01849231 0.11287499 -0.039591502 0.01670201 -0.024874195 -0.042350687
00000000: d981 a33d 4dae de3d 5d1e cc3b e963 ddbc
00000010: 9794 f9bb 0661 263a 006c 5dbd 1aba e13c
00000020: 911a a93d 02ae d73d 176b 96bd ab40 f2bc
00000030: 87e6 573d ec48 c83d 7c62 183d 02e9 2c3d
00000040: 175a 96bd 572f 213d 79c6 c23d 2ced 92bd
00000050: 2202 893b d39a c03d 3876 9e3c f9d9 b9bd
00000060: 693c 4c3d da78 2cbb f846 a73d 41b6 d0bd
00000070: 8294 b93d d3b2 913d ff2d 6d3d 6c5a e3bd
00000080: 0222 e9bd 2ff4 fcbc 9cbb de3d f222 34bd
00000090: f36f 6a3d adf7 c83c 2939 233d 28c6 e3bd
000000a0: 2e6f 8f3c a082 903d 88a7 4dbd 9cd2 dbbd
000000b0: fd6f 66bd f419 91bd e65e 60bd c772 eabd
000000c0: 5d08 58bd 4bc5 3ebd 3ba1 363d 96da 0dbd
000000d0: aa89 e1bd 6eae 91bd 88ca bf3c 03b7 233d
000000e0: 35ee 52bd 9a63 823c 88f4 9fbd ae7c 2a3d
000000f0: 4fad b13d ee41 963d fb20 13bb 1606 02bb
00000100: d0f6 febb 4637 2c3d 2f6b d0bd aa1d 513d
00000110: 2324 043d ef0a e03d c21b 58bd 1a76 903d
00000120: c5d4 99bc 7400 c53d f435 663d dd61 8b3b
00000130: 47bf f63c b239 c23d 2827 acbd 1168 e4bb
00000140: 4746 62bc 4194 c2bd db93 57bd 8b07 ac3b
00000150: 5623 9b3d 951e 8f3c ab2d cb3c 650a c63d
00000160: 1d5a 05bd c362 d63d 6374 03bd 2044 4abd
00000170: 23c9 6bbc 1762 3ebd da0d 83bd f57f 89bd
00000180: 2f88 b43d 7067 353d 14c6 bebd 361f dfbc
00000190: 949d 583d baec b73b e4d8 a23d cfa7 8f3d
000001a0: 372e 84bc 423c e0bd 2087 e33d 557f e83b
000001b0: 88ee a0bd d8f6 4e3d dc9e 513d d0d5 a63d
000001c0: a323 893d be7d d63d 9aee 2cba f3b1 ea3d
000001d0: 2698 67bd 7975 e73d 3a21 f13c 291e e33d
000001e0: 470d 8cbd b692 a43d bfeb 553d 12e4 debd
000001f0: dee0 f0bb 0fe8 f4bc ed3e 943c 8116 a23d
00000200: 6ed8 c2bd 037b cb3d 6e94 043d a97e 543d
00000210: ad6d e8bd 7978 f43c 05b5 92bc 46cd f3bc
00000220: 0103 263c 8ea6 613d ca21 5d3d c1d0 38bd
00000230: 5842 b5bd 0c91 62bd 251b ef3c a82b 883d
00000240: 3651 96bc 4e86 c1bd 06e1 313d abe0 ac3d
00000250: a324 78bc c76a afbd 107a e3bd 05b7 f53b
00000260: dff2 dd3c f4d4 2b3d 7e28 e1bb 5f77 74bd
00000270: 0a08 9a3d 9cb3 3abd f93e 8b3d 9ee1 823d
00000280: 4a6d 843d 1b8b 313d d597 e93d efe7 263d
00000290: 9f02 a53d 7c9d 153d 10cc a4bd 9936 37bd
000002a0: 3ca7 a93d 4b9c e7bd b75a b4bd 976c 223c
000002b0: 4958 bd3d a0e2 103d 3008 a63d 417f c0bd
000002c0: bb31 6f3d bd01 8ebc 8bc9 7d3d 80a0 27bd
000002d0: 680e b7bc 8b69 2e3d f849 92bd afe0 c1bd
000002e0: dac2 8c3d aad8 8b3d b828 a63c 2a11 e23d
000002f0: dc9a ecbc 18b0 2a3b daf0 68bd a650 ae3d
00000300: 4971 86bc 4cb8 583d 81f4 8c3c cedd 9d3d
00000310: cbc7 e73d 6376 b03c fcce a7bd f353 8c3d
00000320: 9908 a73d 13b3 c8bd ebfc c9bc 913c 1ebd
00000330: ef0c 2e3d 91d7 2a3d 4236 b6bd 96bb 98bc
00000340: e124 32bd 49f0 8f3c 6e90 9f3d 0866 d0bd
00000350: 98ae d53a 01a5 4e3d 0bf2 55bd aa6d 3abd
00000360: 7f80 b53d e134 d0bd b8c0 2e3d b428 a23d
00000370: a0ee 803d 25af 19bd 0342 aabd 64b8 1cbd
00000380: c37f b7bd b589 b4bc ab49 393d 4e1a 783c
00000390: fe97 5ebd d46e d6bc c5f5 e13d ba4d 5a3d
000003a0: fcd4 5a3d 55e9 2ebd f469 8ebd 7e8e 9dbc
000003b0: e16d 713d 12ac df3d 472f 56bd f9a3 d63b
000003c0: 0643 393b feef 5d3d 6bcd 183d 0445 c83a
000003d0: a641 aabd 7d04 3cbc 18f6 943d 0b63 4f3d
000003e0: 0940 8cbc 7162 c93d 2f7d 973c 012b e73d
000003f0: b32a 22bd a7d2 883c f8c4 cbbc ea77 2dbd

bias f4 [12]
0.015634844 -0.06681363 0.025729645 -0.03559142 0.0764112 -0.08559793 0.052240465 0.08554531
0.01149057 0.082881 -0.0699526 0.037269883
00000000: a514 803c 96d5 88bd fac6 d23c 4fc8 11bd
00000010: 7a7d 9c3d f84d afbd 19fa 553d 6132 af3d
00000020: f242 3c3c 84bd a93d 4f43 8fbd 4ea8 183d

weight f4 [12]
1.0000008 0.9999579 0.9999381 0.99998415 0.9999933 1.0 1.0000015 1.0000005
1.0000002 1.0000026 1.0000025 1.000001
00000000: 0700 803f 3efd 7f3f f1fb 7f3f f6fe 7f3f
00000010: 90ff 7f3f 0000 803f 0d00 803f 0400 803f
00000020: 0200 803f 1600 803f 1500 803f 0800 803f

bias f4 [12]
4.7363243e-05 -5.9693443e-06 -5.1716797e-05 5.4035532e-05 -2.5425938e-05 -4.224987e-06 -5.4340508e-05 2.096444e-05
3.402614e-05 -6.406688e-06 2.2839138e-05 -5.4250293e-05
00000000: e5a7 4638 474c c8b6 7dea 58b8 36a4 6238
00000010: c949 d5b7 5dc4 8db6 adeb 63b8 cbdc af37
00000020: 4ab7 0e38 08f9 d6b6 ad96 bf37 cf8a 63b8

running_mean f4 [12]
0.1250269 0.14590892 0.19539742 0.0028734563 -0.07199991 -0.2624898 0.4264934 0.3901792
-0.13840099 0.11547463 -0.019529575 0.13327895
00000000: 0d07 003e 2669 153e 4316 483e 9950 3c3b
00000010: b074 93bd 1065 86be 585d da3e 91c5 c73e
00000020: fdb8 0dbe f67d ec3d 7dfc 9fbc 477a 083e

running_var f4 [12]
0.008351387 0.031233145 0.018346414 0.005278005 0.017150018 0.020528337 0.0900453 0.06054513
0.018428667 0.003677564 0.006581555 0.011362169
00000000: 42d4 083c a7dc ff3c 384b 963c 1df3 ac3b
00000010: 327e 8c3c 0b2b a83c ac69 b83d 2cfe 773d
00000020: b7f7 963c 4903 713b 16aa d73b 6428 3a3c

weight f4 [12, 12, 5, 5]
-0.049268954 0.03799962 0.055772733 0.015724868 0.051322076 -0.047736812 0.0098749 0.022968745
-0.05110628 -0.055839393 -0.03403989 0.04958472 -0.01213929 0.041328195 -0.00449215 0.0068261395
0.021207703 -0.04436578 0.046672422 -0.018151049 -0.0058271885 -0.014696591 0.00093865686 -0.01299468
-0.013434064 0.0033097551 0.036610316 0.010839339 -0.048897807 0.016016647 -0.053372588 0.0025409355
-0.020614272 0.024596417 -0.0020664558 0.05175292 0.027650345 -0.0033041 0.0073015196 0.05660133
0.001396263 0.035407025 -0.0073315273 0.013159788 0.0033792548 -0.03644675 -0.055130225 -0.05154882
0.054828003 -0.056046337 -0.018371196 -9.8921395e-05 -0.05740823 0.007438788 0.018803095 -0.013561878
-0.03134151 0.054530505 -0.0098170275 -0.009097519 -0.01980346 -0.021865344 0.042304028 -0.020889657
0.0036461207 0.0032029536 0.036001094 0.049064603 0.003915568 0.02563231 -0.016207421 -0.023947317
0.033607587 0.03553892 -0.019552013 -0.057552934 0.030833798 0.006129498 0.018519342 0.005032841
-0.015571843 -0.057304412 -0.0038164982 -0.005760615 0.052984245 -0.056450196 -0.04327376 0.04243992
0.045457862 0.021368392 -0.048221204 -0.035795387 0.048446644 -0.009780071 0.041393857 -0.025100026
0.024520868 0.028866023 -0.044920634 0.005850801 0.05529824 0.024755854 0.047322176 -0.04057145
0.01173543 -0.035760168 -0.0041234116 -0.01533679 0.051168747 -0.011764779 -0.00421181 -0.0035762526
0.03212412 0.03761492 0.036452923 -0.042021908 0.039414052 -0.036577526 0.031417575 0.053937957
-0.010531454 -0.048440088 -0.014753692 0.049553074 -0.026626455 -0.012532719 0.02173768 -0.010452752
0.032485798 -0.029425403 0.036353435 0.022725873 -0.042834006 0.0075926776 0.011778043 -0.04520369
0.037991013 -0.012550637 -0.006896683 0.026414573 0.041976977 0.030969424 0.02051315 -0.044083904
-0.0044718264 -0.017302126 0.051831126 -0.009324305 0.023872636 0.017980779 0.04152445 -0.0030769168
-0.017618386 -0.021950055 0.044498187 0.04995999 -0.056352384 0.04849579 0.007114417 -0.0177394
0.008716225 0.005016596 -0.026226379 -0.057220664 -0.038558014 -0.029127998 0.023985932 0.03829879
0.037492644 0.01871603 0.010465297 -0.014160393 -0.045127846 -0.05197329 -0.054537103 0.029658386
-0.030679528 0.018623495 -0.009000743 -0.00880498 0.03573597 -0.01434271 0.02416372 -0.05413787
-0.03755073 0.04169835 -0.05648099 -0.04429837 0.013022579 -0.022800047 0.04609216 -0.0056456234
-0.043125242 0.043984 0.04626191 0.05680127 0.023118746 0.046023488 -0.014995348 0.043688916
0.04951988 0.0053885034 0.046580154 0.04298911 -0.019455267 0.0017742139 -0.020797556 -0.04752896
-0.004543208 -0.049037024 -0.026892442 0.041918 0.03967041 -0.027239371 0.041994072 0.03672045
0.014820997 0.038974367 -0.05373528 -0.02001568 -0.04684588 0.05454533 0.0570546 -0.027002418
0.01395724 -0.0403268 0.0050899745 -0.010137193 0.010006688 0.054357577 0.039088923 -0.057096913
-0.0017872236 0.044365514 0.04710343 0.010761937 -0.016060326 -0.030052267 -0.034570258 0.03502152
0.048283722 0.03572768 -0.040412523 0.035068806 0.032821335 -0.050675277 0.038566943 0.02665978
-0.028219005 0.019162383 0.043733075 -0.014737038 -0.054049842 0.051562354 -0.0038471713 -0.037902273
00000000: 3ece 49bd 7da5 1b3d f371 643d 70d1 803c
00000010: 1937 523d ad87 43bd 55ca 213c f328 bc3c
00000020: d254 51bd d9b7 64bd 696d 0bbd 5919 4b3d
00000030: dfe3 46bc c147 293d e332 93bb cfad df3b
00000040: c7bb ad3c e4b8 35bd 952b 3f3d 82b1 94bc
00000050: 00f2 bebb f8c9 70bc 3210 763a a3e7 54bc
00000060: 8c1a 5cbc 7ae8 583b b3f4 153d 7c97 313c
00000070: 1149 48bd 5835 833c 379d 5abd d385 263b
00000080: 43df a8bc 6d7e c93c 606d 07bb dffa 533d
00000090: fa82 e23c 9989 58bb 9641 ef3b ccd6 673d
000000a0: d002 b73a f506 113d 4f3d f0bb 279c 573c
000000b0: 7d76 5d3b 3049 15bd 3bd0 61bd db24 53bd
000000c0: 5493 603d d890 65bd 317f 96bc 0574 cfb8
000000d0: e424 6bbd 14c1 f33b f308 9a3c a432 5ebc
000000e0: f55f 00bd 615b 5f3d 99d7 20bc c30d 15bc
000000f0: de3a a2bc f31e b3bc fd46 2d3d c920 abbc
00000100: c1f3 6e3b a5e8 513b e275 133d f7f7 483d
00000110: 2a4e 803b dafa d13c 6dc5 84bc 2a2d c4bc
00000120: 1ca8 093d 4291 113d 8b2b a0bc a0bc 6bbd
00000130: 2997 fc3c f5d9 c83b e0b5 973c 88ea a43b
00000140: 0b21 7fbc 08b8 6abd 371e 7abb 8bc3 bcbb
00000150: 0206 593d 5238 67bd d33f 31bd 7bd5 2d3d
00000160: 0632 3a3d c40c af3c 9983 45bd 2f9e 12bd
00000170: fd6f 463d 973c 20bc 9b8c 293d 929e cdbc
00000180: fddf c83c 7078 ec3c b3fe 37bd 13b8 bf3b
00000190: 6880 623d cacc ca3c e6d4 413d 402e 26bd
000001a0: f645 403c 4179 12bd af1d 87bb 2947 7bbc
000001b0: 5296 513d 0fc1 40bc 3903 8abb 905f 6abb
000001c0: 9594 033d 1a12 1a3d a94f 153d 2a1f 2cbd
000001d0: a170 213d 51d2 15bd b7af 003d 0cee 5c3d
000001e0: 1f8c 2cbc 1d69 46bd 78b9 71bc 2af8 4a3d
000001f0: b91f dabc 0956 4dbc 3813 b23c 0542 2bbc
00000200: d40f 053d 8b0d f1bc 57e7 143d 9c2b ba3c
00000210: b672 2fbd ffcb f83b b1f8 403c 8127 39bd
00000220: 779c 1b3d 30a1 4dbc 92fd e1bb 6063 d83c
00000230: 0df0 2b3d 97b3 fd3c 320b a83c 5391 34bd
00000240: 6688 92bb 30bd 8dbc e04c 543d f8c4 18bc
00000250: 8c90 c33c 6d4c 933c 8b15 2a3d 19a6 49bb
00000260: 6f54 90bc 9ad0 b3bc bb43 363d d9a2 4c3d
00000270: c2d1 66bd 86a3 463d 0e20 e93b 3852 91bc
00000280: 7fce 0e3c 4262 a43b b4d8 d6bc 3760 6abd
00000290: 02ef 1dbd d79d eebc 257e c43c 31df 1c3d
000002a0: e391 193d 5c52 993c a376 2b3c fe00 68bc
000002b0: fad7 38bd f2e1 54bd 4c62 5fbd 25f6 f23c
000002c0: a253 fbbc 4d90 983c da77 13bc c342 10bc
000002d0: e15f 123d b0fd 6abc fef2 c53c acbf 5dbd
000002e0: cbce 19bd e4cb 2a3d 9c58 67bd 3572 35bd
000002f0: a85c 553c 2ac7 babc 22cb 3c3d ecfe b8bb
00000300: 18a4 30bd 9128 343d 217d 3d3d 73a8 683d
00000310: 8663 bd3c 2083 3c3d 0caf 75bc 26f3 323d
00000320: 5cd5 4a3d 0b92 b03b d5ca 3e3d 5915 303d
00000330: a760 9fbc bd8c e83a a35f aabc baad 42bd
00000340: 31df 94bb 0cdb 48bd 8a4d dcbc 35b2 2b3d
00000350: 717d 223d 1a25 dfbc fa01 2c3d 2f68 163d
00000360: c4d3 723c 96a3 1f3d 8619 5cbd ecf7 a3bc
00000370: 77e1 3fbd ed6a 5f3d 16b2 693d 2d34 ddbc
00000380: e8ac 643c b72d 25bd cdc9 a63b 7816 26bc
00000390: 17f3 233c 0da6 5e3d b51b 203d 74de 69bd
000003a0: 4641 eaba 9db8 353d 87ef 403d d652 303c
000003b0: f290 83bc 2c30 f6bc 8b99 0dbd ba72 0f3d
000003c0: 27c5 453d 3057 123d 9a87 25bd 4fa4 0f3d
000003d0: aa6f 063d e190 4fbd 5ff8 1d3d 9c65 da3c
000003e0: 8b2b e7bc 6efa 9c3c 7421 333d 9e73 71bc
000003f0: 5e63 5dbd 0c33 533d d320 7cbb 6a3f 1bbd

bias f4 [12]
-0.05080504 -0.019637069 -0.016233068 0.014225009 0.0012216123 0.025017964 0.026668642 -0.0024898043
-0.04750528 0.025392381 0.046175286 0.02016355
00000000: f218 50bd ebdd a0bc 36fb 84bc 0310 693c
00000010: 821e a03a 79f2 cc3c 3278 da3c fc2b 23bb
00000020: e594 42bd af03 d03c 4c22 3d3d 072e a53c

weight f4 [12]
1.0000042 0.99995625 1.0000021 1.0000014 1.0000057 0.99991155 0.9999433 1.0000011
0.9999885 1.0000025 1.0000018 0.999983
00000000: 2300 803f 22fd 7f3f 1200 803f 0c00 803f
00000010: 3000 803f 34fa 7f3f 49fc 7f3f 0900 803f
00000020: 3fff 7f3f 1500 803f 0f00 803f e3fe 7f3f

bias f4 [12]
0.00016974013 -0.00015462555 8.844043e-06 -7.803153e-06 0.00014623695 -0.00017685085 -3.217456e-05 -6.6943714e-05
8.2694314e-05 9.8801174e-05 0.00012251493 -5.276525e-05
00000000: 45fc 3139 fb22 22b9 e060 1437 49ea 02b7
00000010: 2f57 1939 0a71 39b9 2cf3 06b8 2264 8cb8
00000020: 2c6c ad38 7a33 cf38 5a77 0039 4150 5db8

running_mean f4 [12]
0.27228886 -0.13219756 0.025124133 -0.20719847 0.11362617 0.25338444 0.28706276 0.14880967
-0.15945846 -0.58235216 -0.053952157 0.15458424
00000000: 7269 8b3e cc5e 07be 20d1 cd3c d62b 54be
00000010: d6b4 e83d 9bbb 813e e4f9 923e 9061 183e
00000020: 1449 23be 0815 15bf f0fc 5cbd 554b 1e3e

running_var f4 [12]
0.07871513 0.111761406 0.098279074 0.08587502 0.075874396 0.07565284 0.0490701 0.13320222
0.03080901 0.3598193 0.14743243 0.15393943
00000000: 6635 a13d 2ae3 e43d 8a46 c93d 3edf af3d
00000010: 0964 9b3d e0ef 9a3d bbfd 483d 2a66 083e
00000020: 2d63 fc3c 3c3a b83e 87f8 163e 4ca2 1d3e

weight f4 [24, 12, 5, 5]
-0.013251787 0.031436853 0.004213314 -0.04857992 -0.014271162 -0.01662097 -0.03607878 -0.050034497
0.051111493 -0.0153350495 -0.005935528 0.027198717 -0.05481603 -0.013950782 -0.009363828 -0.04618436
-0.05188511 -0.05370174 -0.022214433 0.045371816 -0.005668374 -0.0019650413 -0.006914894 0.04104094
-0.043762155 0.020153346 -0.016810123 0.025222536 -0.015412486 -0.04391105 -0.02901769 0.029765839
-0.013742478 -0.045820903 -0.033966962 -0.01572326 0.006431318 0.027254848 -0.045178693 -0.05294522
-0.011167735 0.045443844 -0.033779744 -0.02033989 -0.0063123 0.0111224335 0.04278616 0.057361335
-0.05161546 -0.0019333266 0.029558824 0.023304677 -0.05674543 0.010122528 -0.053625014 0.00035898562
0.048391417 0.04159949 0.030591603 0.027914574 -0.04545147 0.045942932 -0.026779586 0.02426943
0.042560834 -0.0021875876 -0.020972105 0.03671527 0.031844776 -0.056513976 -0.008258613 -0.052269757
0.028915329 0.04685676 0.030032936 0.0472768 0.042915728 0.019628158 0.030328633 0.04710627
0.0056047514 0.0007108095 0.025244225 0.03933597 -0.027583802 0.03358211 -0.037353743 -0.01595036
0.05423477 0.016240383 0.026131071 0.0120661445 0.0018012255 -0.04546206 0.0198568 0.02635517
0.0400951 0.04982244 -0.044694085 0.013504857 0.040289015 0.023684515 -0.025196346 0.012858302
0.056588132 0.011930777 -0.02957794 0.036934912 -0.025115235 -0.024096537 0.016321568 -0.004274163
-0.03451175 0.0074584 -0.046941396 0.0381343 0.012360115 0.04143961 0.013801123 0.009253279
0.021009061 0.009961376 -0.02439503 0.02871176 -0.000954606 -0.047393154 -0.04072825 -0.01452492
0.029536972 0.020899989 -0.0029772308 0.001035202 0.035030484 -0.029877631 -0.026800571 -0.056634683
0.036438707 -0.002527881 0.05649372 -0.03561344 -0.029837206 -0.0519478 0.03426611 0.05723794
-0.024399888 0.03324991 -0.0018272998 -0.05600663 0.027629634 -0.0060364953 0.042696428 -0.010048184
0.05600307 -0.05019383 0.016113134 -0.028730415 -0.034866486 0.021090645 0.0494662 -0.029941471
0.0073945145 0.011988365 0.03542051 0.037212476 0.011359019 -0.018860584 -0.04983482 -0.016803825
0.04051289 -0.016825397 0.005739333 -0.008372715 0.0321751 -0.02614467 0.05248066 -0.022356594
-0.057186108 -0.0021800734 0.033051837 0.004494235 0.05195247 -0.018385194 -0.011646539 0.024455898
-0.027714163 0.0016216487 0.0066404426 0.019331621 0.0437615 -0.014337631 0.0074938675 0.008253335
0.030190842 -0.039682876 0.05581863 0.043315932 -0.053961843 -0.017684579 -0.023546616 -0.05696623
-0.047848742 0.024531439 -0.049652394 0.055565033 -0.05654397 -0.023566546 -0.057056267 -0.021317845
0.018846663 0.005093372 0.02614852 0.03372373 0.024419276 -0.043117344 -0.053247616 -0.025166806
0.02980804 0.027806863 0.052553188 0.026545744 0.02927535 0.002904627 0.04132392 0.0014906648
0.05575148 0.037333954 0.052457597 0.046026576 0.033408497 -0.023834629 0.03709619 0.015398262
0.02078727 -0.009299214 -0.010475927 0.019051086 0.021870064 -0.029383134 0.036305908 0.008485398
0.051645752 0.0225406 -0.04751455 -0.03575687 0.046934463 0.039495308 0.037357453 -0.0213182
0.04504439 0.026275696 -0.016004706 -0.04942891 -0.0023487855 -0.001191153 -0.01947993 0.046889417
00000000: 061e 59bc eec3 003d d70f 8a3b bdfb 46bd
00000010: 98d1 69bc b328 88bc 58c7 13bd f9f0 4cbd
00000020: 495a 513d dc3f 7bbc d17e c2bb d8cf de3c
00000030: c686 60bd d291 64bc be6a 19bc d02b 3dbd
00000040: 7b85 54bd 5bf6 5bbd 0bfb b5bc ccd7 393d
00000050: c4bd b9bb ecc7 00bb 5696 e2bb 8b1a 283d
00000060: f23f 33bd a118 a53c 62b5 89bc 7e9f ce3c
00000070: a784 7cbc 13dc 33bd 82b6 edbc 7dd7 f33c
00000080: 2128 61bc b3ae 3bbd f120 0bbd 11ce 80bc
00000090: cebd d23b 8f45 df3c 4b0d 39bd 16dd 58bd
000000a0: e0f8 36bc 5323 3a3d a15c 0abd d79f a6bc
000000b0: 69d7 cebb de3a 363c 8a40 2f3d b8f3 6a3d
000000c0: bc6a 53bd ad67 fdba 5925 f23c 73e9 be3c
000000d0: e56d 68bd f6d8 253c e7a5 5bbd 3c36 bc39
000000e0: 1436 463d 3a64 2a3d 3e9b fa3c 1bad e43c
000000f0: 522b 3abd a82e 3c3d dd60 dbbc afd0 c63c
00000100: 4554 2e3d a15d 0fbb b1cd abbc c062 163d
00000110: ab6f 023d 337b 67bd 224f 07bc d018 56bd
00000120: d7df ec3c e0ec 3f3d a207 f63c 51a5 413d
00000130: 67c8 2f3d 3bcb a03c c173 f83c 81f2 403d
00000140: 10a8 b73b 9e55 3a3a facc ce3c c11e 213d
00000150: 6df7 e1bc 658d 093d 3d00 19bd 54aa 82bc
00000160: 4725 5e3d 8d0a 853c d410 d63c 14b1 453c
00000170: 1917 ec3a 6d36 3abd baaa a23c cce6 d73c
00000180: c23a 243d 9d12 4c3d 2511 37bd 7a43 5d3c
00000190: 1806 253d 0706 c23c 9168 cebc a1ab 523c
000001a0: f5c8 673d 4e79 433c 704d f2bc 1049 173d
000001b0: 77be cdbc 1a66 c5bc cfb4 853c 470e 8cbb
000001c0: 315c 0dbd 9865 f43b 9f45 40bd b632 1c3d
000001d0: 1482 4a3c 95bc 293d 1b1e 623c 119b 173c
000001e0: 321b ac3c 0a35 233c 16d8 c7bc ed34 eb3c
000001f0: 863e 7aba 531f 42bd aad2 26bd eef9 6dbc
00000200: 85f7 f13c 7436 ab3c a51d 43bb 9daf 873a
00000210: 207c 0f3d efc1 f4bc df8c dbbc c5f9 67bd
00000220: c140 153d ceaa 25bb f565 673d 66df 11bd
00000230: 286d f4bc 37c7 54bd 9f5a 0c3d 5572 6a3d
00000240: 46e2 c7bc 0f31 083d 0282 efba 3567 65bd
00000250: 8b57 e23c cbcd c5bb 73e2 2e3d 23a1 24bc
00000260: 7a63 653d 0c98 4dbd b1ff 833c 0c5c ebbc
00000270: 29d0 0ebd 4ac6 ac3c 129d 4a3d d147 f5bc
00000280: af4d f23b d96a 443c 1915 113d 1c6c 183d
00000290: 2e1b 3a3c 8381 9abc 991f 4cbd 2da8 89bc
000002a0: d8f0 253d 6ad5 89bc 0411 bc3b b62d 09bc
000002b0: 0aca 033d 592d d6bc f6f5 563d 2d25 b7bc
000002c0: fb3b 6abd 90df 0ebb 5d61 073d 6044 933b
000002d0: 1dcc 543d 8c9c 96bc 20d1 3ebc bc57 c83c
000002e0: d008 e3bc 808d d43a 1298 d93b 595d 9e3c
000002f0: 423f 333d 62e8 6abc 1e8f f53b ff38 073c
00000300: c952 f73c 838a 22bd 13a2 643d 0c6c 313d
00000310: 1807 5dbd 40df 90bc d5e4 c0bc 6c55 69bd
00000320: 0bfd 43bd 28f6 c83c 4f60 4bbd 2998 633d
00000330: a69a 67bd a10e c1bc d5b3 69bd c3a2 aebc
00000340: 5164 9a3c 4de6 a63b 6c35 d63c e521 0a3d
00000350: ef0a c83c d09b 30bd 2c1a 5abd 9e2a cebc
00000360: fe2f f43c 38cb e33c 0342 573d 7676 d93c
00000370: dcd2 ef3c 8e5b 3e3b 4543 293d 6962 c33a
00000380: aa5b 643d 7deb 183d c7dd 563d 5d86 3c3d
00000390: 59d7 083d d740 c3bc 2df2 173d fe48 7c3c
000003a0: 114a aa3c bb5b 18bc 39a3 2bbc 0611 9c3c
000003b0: d928 b33c e6b4 f0bc 81b5 143d 5706 0b3c
000003c0: 7f8a 533d 10a7 b83c 9e9e 42bd cc75 12bd
000003d0: 5a3e 403d d5c5 213d 2104 193d 81a3 aebc
000003e0: 7780 383d 2140 d73c 4d1c 83bc f875 4abd
000003f0: 15ee 19bb 7620 9cba 6094 9fbc 1e0f 403d

bias f4 [24]
-0.044285968 -0.0056277383 0.03809374 -0.017900001 -0.031252254 0.033910282 0.04902517 -0.05285798
0.052192867 0.049938265 -0.05231632 -0.04839407 -0.056554936 0.0017808464 0.031362582 -0.035935234
0.0013888094 -0.027547026 -0.05063953 0.039081756 0.05423595 0.042803057 0.025609417 -0.0022999698
00000000: 3465 35bd e468 b8bb 2e08 1c3d 06a3 92bc
00000010: 5d02 00bd 82e5 0a3d 9ece 483d 9c81 58bd
00000020: 30c8 553d 118c 4c3d a349 56bd dc38 46bd
00000030: 26a6 67bd 4a6b e93a 0d76 003d d330 13bd
00000040: b608 b63a 4daa e1bc 656b 4fbd 3114 203d
00000050: 8426 5e3d 4252 2f3d d7ca d13c 17bb 16bb

weight f4 [24]
1.0000014 0.9999648 0.9999526 0.99994916 0.9999813 1.0000025 1.0000021 1.0000038
0.99996495 0.9999652 1.0000015 0.99995893 0.99998987 0.9999505 1.0000008 1.0000001
0.99994695 0.999982 0.99999243 1.0000014 0.99998647 1.0000026 1.0000021 0.9999916
00000000: 0c00 803f b1fd 7f3f e5fc 7f3f abfc 7f3f
00000010: c6fe 7f3f 1500 803f 1200 803f 2000 803f
00000020: b4fd 7f3f b8fd 7f3f 0d00 803f 4ffd 7f3f
00000030: 56ff 7f3f c2fc 7f3f 0700 803f 0100 803f
00000040: 86fc 7f3f d2fe 7f3f 81ff 7f3f 0c00 803f
00000050: 1dff 7f3f 1600 803f 1200 803f 73ff 7f3f

bias f4 [24]
-4.7558333e-06 -3.702247e-07 -8.180302e-05 -1.3781913e-05 -6.465143e-05 9.894463e-05 4.1876912e-05 0.0001466405
-6.8239475e-05 -8.3304054e-05 8.61069e-05 -3.381371e-05 -6.1622035e-05 -0.000110425164 4.816034e-05 5.257425e-05
-5.0169627e-05 3.6399284e-05 -2.5386238e-05 6.841182e-05 7.911516e-06 0.00010616471 5.6657795e-05 5.7407938e-06
00000000: 4c94 9fb6 4cc3 c6b4 a98d abb8 de38 67b7
00000010: 7995 87b8 7e80 cf38 fea4 2f38 82c3 1939
00000020: ca1b 8fb8 86b3 aeb8 4a94 b438 32d3 0db8
00000030: 143b 81b8 0f94 e7b8 c5ff 4938 2c83 5c38
00000040: 3a6d 52b8 6fab 1838 88f4 d4b7 5178 8f38
00000050: b4bb 0437 bfa4 de38 d8a3 6d38 0ba1 c036

running_mean f4 [24]
0.3223902 0.36358166 -0.0096186865 -0.4943388 -0.34737265 0.46198428 -0.1979751 0.2076727
-0.34472078 -0.37273243 -0.09876598 -0.09907862 0.07257407 -0.15721567 -0.566884 0.20541705
-0.35974023 -0.3099309 -0.1632756 0.37927926 0.014507673 0.0031528457 0.15080985 -0.39768854
00000000: 5410 a53e 6027 ba3e b297 1dbc fa19 fdbe
00000010: d4da b1be 3489 ec3e fcb9 4abe 27a8 543e
00000020: 3e7f b0be c9d6 bebe d145 cabd bbe9 cabd
00000030: b7a1 943d 25fd 20be 4f1f 11bf d958 523e
00000040: df2f b8be 43af 9ebe b831 27be e430 c23e
00000050: 97b1 6d3c f99f 4e3b e66d 1a3e d59d cbbe

running_var f4 [24]
0.175049 0.23220187 0.08859735 0.17413035 0.24964556 0.118523255 0.12830217 0.13469832
0.27360478 0.2514558 0.22562277 0.10540584 0.2312877 0.13554163 0.22495142 0.079275645
0.21030006 0.10205012 0.12862691 0.22393702 0.11225655 0.22672424 0.14704221 0.15669954
00000000: 0c40 333e 54c6 6d3e 8772 b53d 3a4f 323e
00000010: 16a3 7f3e 52bc f23d a561 033e 5bee 093e
00000020: ed15 8c3e d1be 803e a809 673e 04df d73d
00000030: afd6 6c3e 6dcb 0a3e aa59 663e 455b a23d
00000040: e658 573e a7ff d03d c6b6 033e bf4f 653e
00000050: c3e6 e53d 662a 683e 3c92 163e d875 203e

weight f4 [24, 24, 5, 5]
-0.015101366 0.032636154 0.0192613 0.023863308 -0.008546396 -0.035952482 -0.03403711 -0.030469479
-0.0148305185 0.0049044853 0.017184995 0.002839023 -0.017174562 0.026743526 -0.011982851 -0.03181538
-0.02979146 0.03562549 0.036981367 -0.019357733 -0.008165369 -0.03735652 -0.0071986024 -0.0025764378
0.033038013 0.021588663 -0.0047200467 0.023936708 0.00398358 -0.022954332 -0.032468613 -0.0061094696
0.023226282 0.02791807 -0.025998946 0.035010707 -0.0016266281 -0.032826025 0.0030282668 -0.005583023
-0.013029539 -0.00757866 -0.034655944 -0.028343868 -0.007805511 -0.015769206 -0.011052819 -0.014288162
0.019511115 0.025454728 0.04071206 -0.027640702 0.02131026 0.03255056 -0.026353823 0.004710578
0.021622505 -0.019409588 -0.027098022 0.0006040402 -0.024514716 -0.0009891548 0.024203615 -0.0028373979
-0.0032174627 -0.014441058 -0.016889377 -0.00043518012 0.031769037 0.0362866 -0.027793376 0.02349124
-0.022498997 -0.030512042 0.035712916 0.0028158028 0.015011362 -0.02079856 -0.015995884 -0.012917834
-0.03128082 0.034514092 0.019315496 -0.015892388 0.025687741 -0.013581291 0.035788838 0.009589692
-0.03268689 0.017663388 0.011610467 -0.026270647 0.00018482347 -0.014569124 0.013856276 0.012591847
-0.027668115 -0.006475255 0.026059184 0.019284874 -0.005188639 -0.039554626 0.010944181 0.010179947
-0.024941279 0.033983156 -0.030900113 0.034708004 -0.015621899 0.037580498 0.010691536 -0.007058456
0.022604313 -0.029667621 0.031321503 0.023798555 -0.02511244 -0.007627041 -0.023604352 -0.01605474
0.020754527 -0.0064816927 0.00960568 -0.015959226 -0.012798056 0.006839498 0.024389561 0.040302
-0.022271007 -0.021812232 0.0035421182 0.028881066 0.02548712 0.03003649 -0.039819617 0.0039392347
-0.0010915867 0.038452845 -0.030109454 -0.009764771 -0.033379707 -0.03474825 0.03714159 -0.023573224
0.02914262 0.009798589 0.008126548 -0.026893904 -0.0057309335 -0.039125435 0.0147105055 0.013518818
0.010580425 0.019761462 0.031155966 0.012423549 0.040303133 -0.03937235 -0.027301088 -0.017220719
-0.0019274347 -0.03046226 -0.016123658 0.013243527 -0.021723378 0.03504547 -0.029428676 -0.021037025
0.035209004 -0.028600741 0.029952193 -0.019747928 0.022358803 -0.02920063 -0.012568241 -0.029715484
0.020135304 0.005838003 0.0053003947 0.030222362 0.030886061 0.005813608 0.023382574 0.03249397
-0.034737404 0.035010047 0.02143826 0.024771404 0.021624524 -0.025204943 -0.034337536 0.033516616
0.01495779 0.007887025 -0.011478978 0.030704847 0.03884196 -0.010756444 -0.03789475 -0.019556316
-0.016050726 0.0004045916 0.015622806 -0.0135393655 0.04017627 -0.016590325 0.0319504 -0.034304813
0.034129836 -0.021291535 -0.039427735 -0.029503353 -0.038402617 -0.031951655 -0.008139434 0.017363003
0.03272608 0.021680802 0.024513563 -0.0043347925 0.017590983 -0.033433292 -0.035826404 0.037364982
0.016320663 -0.033759657 0.0045623835 0.01761813 0.025320755 -0.023469359 0.03048077 0.027030397
-0.021574369 0.0054394705 0.035673387 -0.0032178257 -0.0049132574 -0.0070649106 0.039297584 -0.039013162
-0.01883708 0.0026252137 0.02910294 0.005815993 0.025094097 -0.03639421 -0.019989701 -0.00876487
-0.025971947 0.014130062 0.030795649 -0.018462889 0.007726418 0.02083672 -0.019713916 -0.012894829
00000000: b86b 77bc 7dad 053d e0c9 9d3c fc7c c33c
00000010: 2f06 0cbc e942 13bd 7f6a 0bbd 219b f9bc
00000020: b4fb 72bc ceb5 a03b 8cc7 8c3c e70e 3a3b
00000030: abb1 8cbc 3d15 db3c b853 44bc d850 02bd
00000040: 380d f4bc 09ec 113d c679 173d 1c94 9ebc
00000050: 0ac8 05bc 2603 19bd 41e2 ebbb 74d9 28bb
00000060: de52 073d b5da b03c 9faa 9abb ea16 c43c
00000070: b188 823b b90a bcbc cffd 04bd f231 c8bb
00000080: 0b45 be3c 70b4 e43c befb d4bc 6367 0f3d
00000090: 9534 d5ba 9574 06bd e375 463b cbf1 b6bb
000000a0: d979 55bc 6856 f8bb 64f3 0dbd 6631 e8bc
000000b0: 5fc5 ffbb 6c2e 81bc e216 35bc e518 6abc
000000c0: c6d5 9f3c 6f86 d03c b0c1 263d c16e e2bc
000000d0: db92 ae3c bc53 053d f9e3 d7bc 315b 9a3b
000000e0: ae21 b13c db00 9fbc acfc ddbc 7458 1e3a
000000f0: 16d3 c8bc 87a6 81ba a946 c63c a3f3 39bb
00000100: 11dc 52bb 309a 6cbc 975b 8abc e328 e4b9
00000110: 4020 023d 42a1 143d efae e3bc b370 c03c
00000120: d14f b8bc 64f4 f9bc b547 123d 5589 383b
00000130: 37f2 753c be61 aabc cd09 83bc 53a5 53bc
00000140: 5120 00bd a65e 0d3d 883b 9e3c c130 82bc
00000150: 196f d23c 1084 5ebc 5197 123d 151e 1d3c
00000160: b0e2 05bd cfb2 903c d439 3e3c 8a35 d7bc
00000170: 2ccd 4139 56b3 6ebc 6f05 633c 094e 4e3c
00000180: 3ea8 e2bc 602e d4bb 127a d53c 50fb 9d3c
00000190: 7505 aabb 0804 22bd 394f 333c cbc9 263c
000001a0: a751 ccbc ec31 0b3d 3c22 fdbc fb29 0e3d
000001b0: fef2 7fbc 02ee 193d 8d2b 2f3c 9f4a e7bb
000001c0: ae2c b93c 8309 f3bc fa4a 003d 30f5 c23c
000001d0: 9bb8 cdbc 42ec f9bb ea5d c1bc 3b85 83bc
000001e0: 6605 aa3c 6164 d4bb 2461 1d3c ecbc 82bc
000001f0: f0ae 51bc de1d e03b 9ecc c73c b613 253d
00000200: b071 b6bc 91af b2bc e222 683b fc97 ec3c
00000210: 5dca d03c 160f f63c e519 23bd b214 813b
00000220: 9213 8fba bb80 1d3d 1aa8 f6bc 6bfc 1fbc
00000230: 29b9 08bd 2e54 0ebd c821 183d a21c c1bc
00000240: 81bc ee3c 438a 203c 3625 053c 9b50 dcbc
00000250: 8eca bbbb fe41 20bd 5504 713c 087e 5d3c
00000260: 8559 2d3c cae2 a13c cc3a ff3c 248c 4b3c
00000270: e614 253d e744 21bd 88a6 dfbc 7712 8dbc
00000280: faa1 fcba fd8b f9bc c315 84bc 61fb 583c
00000290: 3af5 b1bc d78b 0f3d 6814 f1bc d755 acbc
000002a0: 5137 103d 1a4c eabc 4d5e f53c 68c6 a1bc
000002b0: cf29 b73c 2936 efbc 06eb 4dbc e36d f3bc
000002c0: cbf2 a43c b84c bf3b efae ad3b e394 f73c
000002d0: c404 fd3c 1480 be3b d08c bf3c 6618 053d
000002e0: cf48 0ebd b266 0f3d 4a9f af3c 66ed ca3c
000002f0: ea25 b13c 997a cebc 84a5 0cbd b848 093d
00000300: 8511 753c 9538 013c 5312 3cbc bb88 fb3c
00000310: bf18 1f3d cc3b 30bc 8637 1bbd 9134 a0bc
00000320: d07c 83bc 5e1f d439 ccf6 7f3c 37d4 5dbc
00000330: df8f 243d 6fe8 87bc 6cde 023d 3483 0cbd
00000340: bacb 0b3d 966b aebc fa7e 21bd 04b1 f1bc
00000350: 104c 1dbd bddf 02bd 435b 05bc db3c 8e3c
00000360: c80b 063d f09b b13c abd0 c83c e00a 8ebb
00000370: f71a 903c 59f1 08bd b5be 12bd 060c 193d
00000380: e9b2 853c 9147 0abd 0c80 953b e653 903c
00000390: 796d cf3c d042 c0bc cfb2 f93c da6e dd3c
000003a0: bbbc b0bc 963d b23b 421e 123d 28e2 52bb
000003b0: 64ff a0bb c480 e7bb 81f6 203d 44cc 1fbd
000003c0: 3850 9abc c70b 2c3b 4a69 ee3c 1694 be3b
000003d0: 2392 cd3c 1812 15bd 71c1 a3bc 889a 0fbc
000003e0: 1fc3 d4bc c781 673c 2847 fc3c 7c3f 97bc
000003f0: e42d fd3b c5b1 aa3c 147f a1bc d544 53bc

bias f4 [24]
0.02643165 0.038096827 0.033884138 -0.0343191 0.017126065 -0.01570039 -0.029975332 0.0036506667
-0.020984054 0.037257593 -0.010835963 0.023384523 0.0020259435 0.023106858 0.020576028 -0.02702828
-0.0108599905 0.023341672 0.0035107783 -0.002642423 -0.008855139 0.026287086 -0.0015965985 0.0008540911
00000000: 3087 d83c 6b0b 1c3d 18ca 0a3d 2f92 0cbd
00000010: f64b 8c3c 1b9e 80bc d48e f5bc 0640 6f3b
00000020: c0e6 abbc 6b9b 183d 5389 31bc e690 bf3c
00000030: b1c5 043b 984a bd3c 0f8f a83c 696a ddbc
00000040: 1aee 31bc 0937 bf3c 1615 663b 802c 2dbb
00000050: 2515 11bc 0458 d73c f544 d1ba 15e5 5f3a

weight f4 [24]
1.0000014 0.999883 1.0000011 1.0000008 1.0000035 0.9999519 0.99997324 0.99994695
1.0000021 1.0000021 1.0000023 0.99998343 0.9998898 1.0000015 1.0000001 1.0000012
1.0000025 1.000005 0.99993056 1.0000012 0.99997973 1.0000015 0.99996203 1.0000025
00000000: 0c00 803f 55f8 7f3f 0900 803f 0700 803f
00000010: 1d00 803f d9fc 7f3f 3ffe 7f3f 86fc 7f3f
00000020: 1200 803f 1200 803f 1300 803f eafe 7f3f
00000030: c7f8 7f3f 0d00 803f 0100 803f 0a00 803f
00000040: 1500 803f 2a00 803f 73fb 7f3f 0a00 803f
00000050: acfe 7f3f 0d00 803f 83fd 7f3f 1500 803f

bias f4 [24]
-1.8662233e-05 -0.0001444674 9.633903e-05 8.038031e-06 0.00014223457 1.8895258e-05 1.5935153e-05 -1.6558157e-05
0.00013792618 0.00021140915 0.00021352973 -1.745781e-06 -0.00016386936 2.2828934e-05 0.00014171467 6.1619125e-05
0.00016748448 0.00016897697 -6.426497e-05 0.00015665224 1.6616283e-06 0.00017190287 2.0082256e-05 0.00012524931
00000000: d78c 9cb7 2c7c 17b9 9f09 ca38 15db 0637
00000010: cd24 1539 4281 9e37 7bac 8537 5fe6 8ab7
00000020: 47a0 1039 b6ad 5d39 f3e6 5f39 9450 eab5
00000030: 59d4 2bb9 c380 bf37 3e99 1439 8439 8138
00000040: c69e 2f39 692f 3139 fec5 86b8 0443 2439
00000050: 1d05 df35 d340 3439 5176 a837 5b55 0339

running_mean f4 [24]
-0.0017314747 0.19951198 0.15767102 -0.001753055 -0.12074615 -0.32605898 0.12926753 -0.08367406
0.024467204 -0.21062627 0.020540252 0.023331534 0.12004635 0.22721344 -0.17290874 -0.13542165
0.16579233 0.03152859 -0.09659316 0.13289565 0.076538295 0.020544412 0.045039017 -0.0800156
00000000: a6f2 e2ba de4c 4c3e 8374 213e c4c6 e5ba
00000010: c249 f7bd 34f1 a6be b55e 043e 4e5d abbd
00000020: 726f c83c 6aae 57be 0844 a83c c621 bf3c
00000030: dcda f53d a4aa 683e fd0e 31be f9ab 0abe
00000040: 77c5 293e 1f24 013d a2d2 c5bd cc15 083e
00000050: 1cc0 9c3d c14c a83c d57a 383d 38df a3bd

running_var f4 [24]
0.16159141 0.18463427 0.12085602 0.10686219 0.100640155 0.21953891 0.16872814 0.09970788
0.08984596 0.1219153 0.085657924 0.082984515 0.08617797 0.09296989 0.18181807 0.1115323
0.086286664 0.14660859 0.14292404 0.08550531 0.077537455 0.17262083 0.1780875 0.1078463
00000000: 3878 253e c410 3d3e 5c83 f73d 90da da3d
00000010: 6d1c ce3d cfce 603e 12c7 2c3e a533 cc3d
00000020: 2901 b83d bbae f93d 6c6d af3d c9f3 a93d
00000030: 137e b03d ff66 be3d 842e 3a3e 0c6b e43d
00000040: 10b7 b03d 9020 163e ae5a 123e 681d af3d
00000050: f5cb 9e3d 84c3 303e 925c 363e 85de dc3d

weight f4 [10, 16224]
0.004723545 0.0052551497 0.0017886531 -0.0003002841 -0.0071557355 -0.0036669923 0.007216451 -0.0030135587
-0.0075442656 -0.0032758361 -0.000576546 0.0031900168 0.0066172876 0.00307916 -0.0036627545 0.0010343562
-0.0074724252 -0.00083840836 0.001915519 0.0011267656 -0.0051961676 0.0026260628 -0.005608219 -0.0067012156
-0.004405223 0.0076952036 -0.0070867683 0.0016455266 -0.004430769 -0.0005631192 0.0012734508 0.0070870942
-0.004955183 -0.0038193592 -0.000993584 -0.007334195 -0.004097057 5.195325e-05 -0.0014400975 -0.005587948
-0.005798583 0.0072982158 0.0048963265 0.0056211767 0.007498623 0.0042048553 -0.0051893396 0.0029434874
0.0056648166 0.005743672 0.0038711498 -0.006267196 -0.0025425733 -0.0017213486 0.004360781 0.0053791055
0.0051854313 -0.0055653444 0.0068747913 -0.00025501073 -0.005246713 0.00031681784 -0.0011680131 0.0062504513
0.00016827739 -0.005876126 -0.002919395 0.0046749883 0.005967748 -0.0065290104 -0.0065303734 0.0035104568
0.0065324563 -0.0032873368 -0.0071134507 0.0062744194 0.003739529 -0.0011257064 0.004962822 -0.00271639
0.0057512824 -0.0072577237 0.003293238 -0.007833935 0.0066670314 -0.0003098418 -0.0040119 0.007182896
0.002324797 0.0017469374 -0.00031029285 -0.006438101 0.00042817483 -0.0072390717 0.0044860877 0.0065298094
-0.0049127843 -0.007083944 -0.0058933897 -0.0048617763 -0.0042182393 0.0053312844 -0.0015696468 -0.0028849342
-0.0010189499 0.007289768 -0.0034481983 -0.00225109 0.005211706 0.0073551727 -0.0070264563 0.005912777
-0.0022826095 0.0006459932 0.0071612014 0.0037544444 0.0044605774 -0.0027660346 0.0065373024 -0.005735551
-0.005065962 -0.007207329 -0.004754887 0.0077504856 0.0055454224 0.004368003 -0.0011915512 -0.0017434333
-0.007501336 -0.0022785792 -0.005739008 -0.006864049 0.0058863787 -0.0018303465 0.0027761406 -0.002574867
-0.0040808287 -0.007129984 -0.0036856907 -0.0061360947 -0.0032361634 -0.007668659 -0.0073402547 -0.0027897197
0.0073101535 -0.004524495 -0.00010776067 0.0050662053 -0.002864381 -0.0012014069 0.0031397445 -0.005833392
0.0018808738 0.004635881 0.0036682598 -0.002824249 -0.0055279685 -0.0033730627 -0.0041621197 -0.0021111236
-0.0073855543 0.0027270443 -0.0032183111 0.00045657015 -0.0033735896 -0.0050062337 0.004647343 0.003246841
-0.00537201 0.0007224749 0.0077016423 0.0051002037 -0.002907166 0.0021173332 -0.0051546157 -0.0038600457
0.006404616 -0.0068049966 0.004895211 -0.005082212 0.00719429 -0.006107769 -0.0060139885 0.0051941765
0.00031217505 -0.003950146 -0.0031786894 0.0005370244 -0.0033984499 0.0007708845 -0.00710925 -0.0049089473
-0.0021243382 -0.007102433 0.0018564073 0.006229139 0.0052866763 -0.005476961 0.0055248607 0.0053505097
0.004101811 -0.003698916 0.0061422465 0.0040853834 0.0038453382 -0.0055781766 -0.0039481814 -0.0063853483
-0.0025538479 -0.0060729533 0.005880919 -0.0027023552 0.005513997 0.0064312457 -0.001278551 -0.0019311303
0.006224308 0.007360503 0.0044350103 0.00023007097 -0.004567976 0.004378623 0.0074465144 -0.00032266194
0.006208545 -0.0044221203 -0.0075136293 0.006501227 -0.005487242 0.004299168 -0.002466894 -0.005190317
0.007729772 0.0057120067 0.005670195 0.0047233994 -0.0014272417 0.0021648065 0.0034544293 -0.005309204
0.00012074752 -0.006833661 0.0060070907 -0.003290567 0.0068270126 0.00058991264 -0.0007230852 0.007522912
-0.0031317826 -0.004673794 -0.0031837479 -0.0039267535 -0.0018321647 -0.00042566002 0.00077096286 0.00018839836
00000000: f8c7 9a3b 6433 ac3b 3d71 ea3a 736f 9db9
00000010: a97a eabb ec51 70bb fb77 ec3b 207f 45bb
00000020: e335 f7bb 69af 56bb 5923 17ba 9a0f 513b
00000030: d5d5 d83b bbcb 493b d30a 70bb 3c93 873a
00000040: 3fdb f4bb a2c8 5bba 2712 fb3a fbaf 933a
00000050: 9d44 aabb 061a 2c3b 27c5 b7bb df95 dbbb
00000060: b059 90bb 0c28 fc3b 1f38 e8bb b6ae d73a
00000070: fc2f 91bb 4a9e 13ba ebe9 a63a db3a e83b
00000080: 165f a2bb 374e 7abb 263b 82ba b053 f0bb
00000090: 9b40 86bb 61e8 5938 a7c1 bcba 1b1b b7bb
000000a0: 0a02 bebb df25 ef3b 5d71 a03b d931 b83b
000000b0: 02b7 f53b e2c8 893b 560b aabb 86e7 403b
000000c0: ed9f b93b 6a35 bc3b 1eb3 7d3b 0d5d cdbb
000000d0: 4da1 26bb e09e e1ba e2e4 8e3b 3543 b03b
000000e0: 8dea a93b 7e5d b6bb ee45 e13b f6b2 85b9
000000f0: 9eec abbb 921a a639 0418 99ba 96d0 cc3b
00000100: 9e73 3039 848c c0bb 5253 3fbb a530 993b
00000110: 198d c33b 4ff1 d5bb befc d5bb b10f 663b
00000120: 370e d63b 5c70 57bb f317 e9bb a599 cd3b
00000130: e312 753b 708c 93ba 2b9f a23b 7605 32bb
00000140: 4175 bc3b 33d2 edbb 5ed3 573b e859 00bc
00000150: 1d77 da3b 4372 a2b9 4276 83bb 805e eb3b
00000160: 9f5b 183b 7ef9 e43a cdae a2b9 b5f6 d2bb
00000170: a77c e039 bc35 edbb 0800 933b 03f8 d53b
00000180: 6cfb a0bb 6e20 e8bb 561d c1bb 894f 9fbb
00000190: 2839 8abb 0eb2 ae3b 9bbc cdba 2a11 3dbb
000001a0: 498e 85ba 02df ee3b 2bfb 61bb 0687 13bb
000001b0: f5c6 aa3b a903 f13b 303e e6bb f8bf c13b
000001c0: d597 15bb df57 293a 83a8 ea3b 200d 763b
000001d0: 092a 923b 5c46 35bb de36 d63b 4af1 bbbb
000001e0: 5f00 a6bb 752b ecbb e2ce 9bbb c9f7 fd3b
000001f0: 60b6 b53b 7721 8f3b d32d 9cba ea83 e4ba
00000200: c4cd f5bb 3754 15bb 4a0e bcbb d1eb e0bb
00000210: 86e2 c03b 3de8 efba e9ef 353b 1abf 28bb
00000220: 79b8 85bb a4a2 e9bb a18b 71bb 4b11 c9bb
00000230: d015 54bb 6049 fbbb 8586 f0bb bbd3 36bb
00000240: 038a ef3b 3742 94bb 92fd e1b8 6902 a63b
00000250: 57b8 3bbb 8778 9dba 2cc4 4d3b 0a26 bfbb
00000260: a787 f63a 97e8 973b 3067 703b 0917 39bb
00000270: f623 b5bb 9a0e 5dbb 6462 88bb c75a 0abb
00000280: 8502 f2bb 36b8 323b 4dea 52bb cf5f ef39
00000290: 7117 5dbb 550b a4bb bd48 983b f4c8 543b
000002a0: b007 b0bb 7864 3d3a 0f5e fc3b 9c1f a73b
000002b0: 2786 3ebb f5c2 0a3b 0de8 a8bb d2f8 7cbb
000002c0: d0dd d13b 73fc debb 0268 a03b af88 a6bb
000002d0: 14be eb3b ae23 c8bb fe10 c5bb e933 aa3b
000002e0: 6dab a339 3a70 81bb 8f51 50bb 19c7 0c3a
000002f0: 87b8 5ebb 2f15 4a3a b6f4 e8bb 3cdb a0bb
00000300: 7b38 0bbb 87bb e8bb b152 f33a ce1d cc3b
00000310: db3b ad3b 1478 b3bb e409 b53b 5453 af3b
00000320: 7c68 863b 8369 72bb e644 c93b aede 853b
00000330: 1202 7c3b 23c9 b6bb bf5f 81bb 2f3c d1bb
00000340: 755e 27bb a0ff c6bb b9b4 c03b ff19 31bb
00000350: c2ae b43b 33bd d23b 0d95 a7ba fb1d fdba
00000360: 48f5 cb3b 6030 f13b 9053 913b 353f 7139
00000370: f6ae 95bb 8d7a 8f3b e401 f43b f42a a9b9
00000380: 0d71 cb3b 6fe7 90bb e434 f6bb 3f08 d53b
00000390: 52ce b3bb 09e0 8c3b 9dab 21bb 8913 aabb
000003a0: 074a fd3b c92b bb3b 0bcd b93b bfc6 9a3b
000003b0: 4912 bbba 6ddf 0d3b b563 623b d5f8 adbb
000003c0: d539 fd38 e7ec dfbb 21d7 c43b 8ea6 57bb
000003d0: 22b5 df3b 5ea4 1a3a 6d8d 3dba c382 f63b
000003e0: 983e 4dbb a026 99bb 6da6 50bb ffab 80bb
000003f0: 3f25 f0ba 1f2b dfb9 711a 4a3a cd8c 4539

bias f4 [10]
0.0021118065 -0.0037863743 -0.0025622582 0.004024839 0.00019170543 -0.0058547887 0.0054765693 -0.0031448507
-0.000115796814 -0.0047905706
00000000: 3c66 0a3b d224 78bb 8feb 27bb cce2 833b
00000010: 8904 4939 87d9 bfbb cb74 b33b d719 4ebb
00000020: f1d7 f2b8 38fa 9cbb
