models/Demo/LOGS/models/nnet_epoch_3.pt (torch, 765964 bytes, 26 tensors)

weight f4 [12, 3, 5, 5]
0.079816245 0.108704984 0.006200527 -0.027049204 -0.0076380926 0.0006101848 -0.054088805 0.027524605
0.08254615 0.10529316 -0.07346939 -0.02960284 0.052678715 0.097769305 0.037180744 0.042185914
-0.07344678 0.03931575 0.09507298 -0.07176835 0.00415327 0.09401386 0.019305708 -0.090782985
0.04983432 -0.0026542163 0.081652425 -0.10193748 0.09059257 0.07112145 0.05788056 -0.1110414
-0.11386274 -0.030903077 0.108737074 -0.044003196 0.05720471 0.02450064 0.039822713 -0.11123956
0.01748075 0.07052889 -0.050244637 -0.10736744 -0.05628745 -0.070876375 -0.054811276 -0.114512384
-0.052779514 -0.046602853 0.044565096 -0.034659367 -0.11015321 -0.0711562 0.02339053 0.039944824
-0.051527433 0.01588668 -0.078127176 0.041602857 0.08673339 0.073338754 -0.0022764804 -0.0020108249
-0.0078034466 0.042016413 -0.1017997 0.051017642 0.032226358 0.109368935 -0.052788764 0.07050632
-0.018815987 0.09615707 0.056175817 0.0042536673 0.030115297 0.094823636 -0.084076956 -0.0069886735
-0.0138095 -0.09500866 -0.052640967 0.005236603 0.07573789 0.017481457 0.024818283 0.096708514
-0.03256193 0.10467106 -0.032086805 -0.04936669 -0.014373274 -0.046469126 -0.06399204 -0.06712942
0.0881609 0.044297177 -0.09314611 -0.02723842 0.052884627 0.005607674 0.07950228 0.07012639
-0.016153594 -0.109488815 0.11109825 0.007085519 -0.07859249 0.050514713 0.051187877 0.08147858
0.0669715 0.104726925 -0.0006697245 0.11460369 -0.0565269 0.113034144 0.029445982 0.110896595
-0.06837553 0.08036848 0.052235857 -0.10882831 -0.0073527317 -0.029895721 0.018091204 0.079131514
-0.095157266 0.099337965 0.032369364 0.051879134 -0.113499746 0.029829241 -0.017922346 -0.029750148
0.010148793 0.055099767 0.053982012 -0.045131266 -0.08849898 -0.055299424 0.029205628 0.06650041
-0.01835015 -0.094485275 0.043438546 0.084421195 -0.015139826 -0.08565445 -0.11110433 0.007468737
0.027066603 0.041929964 -0.0068857097 -0.05971273 0.07518346 -0.045608778 0.067968704 0.06389754
0.06463305 0.04331519 0.11403536 0.040731285 0.080570124 0.036502633 -0.080493785 -0.04475104
0.08283505 -0.11308248 -0.08807569 0.009900616 0.09244983 0.03537727 0.081079215 -0.09402439
0.058367055 -0.017361559 0.061938614 -0.040938966 -0.022374127 0.042553134 -0.07145601 -0.09468933
0.068721674 0.06825582 0.020252626 0.11036053 -0.028899668 0.002603221 -0.056894828 0.08508832
-0.016432688 0.05290661 0.017215366 0.077071175 0.113160945 0.021536391 -0.08193306 0.06852841
0.081527695 -0.09802627 -0.02468348 -0.03865315 0.042478386 0.04168091 -0.08899786 -0.018671254
-0.043516126 0.01756118 0.07788367 -0.10178642 0.0016051788 0.05043308 -0.05223407 -0.04553925
0.08859755 -0.10168337 0.042660736 0.07918779 0.0629431 -0.03753339 -0.08313744 -0.03825689
-0.089590244 -0.022072041 0.045198675 0.015103278 -0.054381598 -0.026210843 0.11030522 0.05326274
0.05338938 -0.042737797 -0.06957137 -0.019260885 0.058910377 0.10918167 -0.05232345 0.0065180915
0.002798096 0.054150846 0.037271835 0.0014995522 -0.08316031 -0.011506143 0.07270416 0.050601017
-0.017146148 0.09830848 0.018458588 0.112839535 -0.039630987 0.016664658 -0.024909144 -0.04237885
00000000: b376 a33d b8a0 de3d ca2d cb3b 4b96 ddbc
00000010: f748 fabb cff4 1f3a 398c 5dbd 487b e13c
00000020: f50d a93d f1a3 d73d 1f77 96bd a881 f2bc
00000030: a3c5 573d 463b c83d d64a 183d 23cb 2c3d
00000040: 446b 96bd 8d09 213d 9fb5 c23d 49fb 92bd
00000050: 2718 883b 578a c03d 0127 9e3c 6eec b9bd
00000060: 121f 4c3d 5cf2 2dbb 6339 a73d 99c4 d0bd
00000070: 9988 b93d 1fa8 913d 2b14 6d3d ac69 e3bd
00000080: de30 e9bd 7328 fdbc 8bb1 de3d b23c 34bd
00000090: 7c4f 6a3d 91b5 c83c 241d 233d 91d1 e3bd
000000a0: ca33 8f3c 7371 903d 52cd 4dbd 76e3 dbbd
000000b0: ab8d 66bd a227 91bd ca81 60bd 7885 eabd
000000c0: 552f 58bd a2e2 3ebd e489 363d fbf6 0dbd
000000d0: 0298 e1bd 57ba 91bd 7f9d bf3c 2f9d 233d
000000e0: 6e0e 53bd c824 823c 2401 a0bd c267 2a3d
000000f0: 47a1 b13d a132 963d 0131 15bb 0bc8 03bb
00000100: 0eb4 ffbb 6719 2c3d 5c7c d0bd e0f7 503d
00000110: c9ff 033d d2fc df3d 0839 58bd 9e65 903d
00000120: fc23 9abc ffed c43d 9d18 663d 5962 8b3b
00000130: 5bb4 f63c e532 c23d 8a30 acbd 3e01 e5bb
00000140: 3e41 62bc e693 c2bd 0e9e 57bd cf97 ab3b
00000150: 781c 9b3d 4635 8f3c b64f cb3c 1d0f c63d
00000160: a95f 05bd c85d d63d 746d 03bd ba34 4abd
00000170: e17d 6bbc 6956 3ebd 420e 83bd 267b 89bd
00000180: b48d b43d f570 353d 63c3 bebd 1b23 dfbc
00000190: 8d9d 583d 94c0 b73b 17d2 a23d 6d9e 8f3d
000001a0: 8b54 84bc ac3b e0bd 7b87 e33d a42d e83b
000001b0: 19f5 a0bd 84e8 4e3d 61aa 513d 3ede a63d
000001c0: 5b28 893d 127b d63d 7390 2fba 57b5 ea3d
000001d0: c088 67bd 727e e73d b338 f13c c11d e33d
000001e0: 7808 8cbd 3b98 a43d 44f5 553d 61e1 debd
000001f0: 2fef f0bb dfe7 f4bc 0134 943c b40f a23d
00000200: d0e1 c2bd b471 cb3d bd95 043d 377f 543d
00000210: 8e72 e8bd 745c f43c e2d1 92bc 95b6 f3bc
00000220: 2047 263c 4bb0 613d 3e1c 5d3d 90db 38bd
00000230: f43e b5bd a681 62bd a440 ef3c 5e31 883d
00000240: 0e53 96bc 7f81 c1bd 9eec 313d 05e5 ac3d
00000250: 080d 78bc 9a6b afbd ab8a e3bd 4fbc f43b
00000260: c8ba dd3c c1be 2b3d 85a1 e1bb 5695 74bd
00000270: c9f9 993d 45d0 3abd 2d33 8b3d b7dc 823d
00000280: 555e 843d 456b 313d 5f8b e93d d9d5 263d
00000290: f301 a53d c983 153d edd9 a4bd de4c 37bd
000002a0: 6ca5 a93d ca97 e7bd 0761 b4bd 3136 223c
000002b0: 5656 bd3d c2e7 103d dc0c a63d dc8f c0bd
000002c0: 4b12 6f3d d439 8ebc 58b3 7d3d 9eaf 27bd
000002d0: f249 b7bc 324c 2e3d 8757 92bd 7bec c1bd
000002e0: f3bd 8c3d b5c9 8b3d d6e8 a53c b404 e23d
000002f0: ffbe ecbc cd9a 2a3b 8d0a 69bd c942 ae3d
00000300: d89d 86bc 9ab4 583d 3d07 8d3c 7ed7 9d3d
00000310: edc0 e73d 166d b03c 85cc a7bd 9f58 8c3d
00000320: fef7 a63d ffc1 c8bd 0235 cabc c452 1ebd
00000330: d1fd 2d3d 9ab9 2a3d 8344 b6bd 75f4 98bc
00000340: f73d 32bd 77dc 8f3c 7981 9f3d 6675 d0bd
00000350: dd64 d23a eb92 4e3d 64f3 55bd 5d87 3abd
00000360: a272 b53d 5f3f d0bd 06bd 2e3d 352d a23d
00000370: 50e8 803d 9dbc 19bd f643 aabd 42b3 1cbd
00000380: 177b b7bd 6dd0 b4bc 3f22 393d bd73 773c
00000390: 3dbf 5ebd 1fb8 d6bc b4e7 e13d 082a 5a3d
000003a0: d3ae 5a3d d40d 2fbd 6f7b 8ebd 01c9 9dbc
000003b0: 024c 713d a49a df3d 1d51 56bd b795 d53b
000003c0: 4360 373b 47cd 5d3d 5aaa 183d 9f8c c43a
000003d0: f44f aabd 4384 3cbc ebe5 943d 0343 4f3d
000003e0: 1476 8cbc f555 c93d 7736 973c 6a18 e73d
000003f0: 1a54 22bd 5284 883c 430e ccbc 7295 2dbd

bias f4 [12]
0.015634844 -0.06681363 0.025729645 -0.03559142 0.0764112 -0.08559793 0.052240465 0.08554531
0.01149057 0.082881 -0.0699526 0.037269883
00000000: a514 803c 96d5 88bd fac6 d23c 4fc8 11bd
00000010: 7a7d 9c3d f84d afbd 19fa 553d 6132 af3d
00000020: f242 3c3c 84bd a93d 4f43 8fbd 4ea8 183d

weight f4 [12]
1.0000008 0.9999579 0.9999381 0.99998415 0.9999933 1.0 1.0000015 1.0000005
1.0000002 1.0000026 1.0000025 1.000001
00000000: 0700 803f 3efd 7f3f f1fb 7f3f f6fe 7f3f
00000010: 90ff 7f3f 0000 803f 0d00 803f 0400 803f
00000020: 0200 803f 1600 803f 1500 803f 0800 803f

bias f4 [12]
2.6747537e-05 -9.422872e-06 -3.5602166e-05 3.9617076e-05 -1.8259105e-05 -6.649551e-07 -4.098293e-05 1.774238e-05
2.2470445e-05 -2.3319342e-06 1.9182033e-05 -3.5640394e-05
00000000: e65f e037 ed16 1eb7 8953 15b8 832a 2638
00000010: 212b 99b7 5e7f 32b5 16e5 2bb8 79d5 9437
00000020: ea7e bc37 537e 1cb6 1ae9 a037 957c 15b8

running_mean f4 [12]
0.12290879 0.14323066 0.19290408 0.0014812809 -0.069618 -0.26036748 0.42120346 0.38616866
-0.13621962 0.11476765 -0.019941643 0.13287453
00000000: 9bb7 fb3d 0fab 123e a688 453e 8a27 c23a
00000010: e293 8ebd e34e 85be fba7 d73e e6b7 c53e
00000020: 287d 0bbe 4d0b eb3d a85c a3bc 4310 083e

running_var f4 [12]
0.008244816 0.03114628 0.0182023 0.0051600724 0.016966794 0.020454636 0.08995756 0.060557984
0.018251251 0.0036107518 0.0064582294 0.011242913
00000000: 4415 073c 7c26 ff3c fd1c 953c d315 a93b
00000010: f2fd 8a3c 7b90 a73c ab3b b83d a60b 783d
00000020: a683 953c 5da2 6c3b 8e9f d33b 3234 383c

weight f4 [12, 12, 5, 5]
-0.04926331 0.037997857 0.055763792 0.015716966 0.051320687 -0.047727626 0.009877066 0.02296126
-0.05111049 -0.055838756 -0.034032814 0.049585145 -0.012144222 0.04132829 -0.0044888374 0.006839296
0.0212164 -0.044362277 0.046678547 -0.018142333 -0.0058188345 -0.0146900285 0.0009418595 -0.0129922945
-0.013427204 0.0033136401 0.03661828 0.01084683 -0.048895698 0.016011825 -0.053365085 0.0025510758
-0.020605674 0.02460027 -0.0020680784 0.05175778 0.027658919 -0.0032945666 0.007308602 0.056603625
0.0014044101 0.03542051 -0.0073147453 0.013174008 0.0033884218 -0.036441844 -0.055118863 -0.051534154
0.054843746 -0.056030996 -0.018360652 -9.0376794e-05 -0.05740534 0.0074398867 0.018804627 -0.013551881
-0.031332687 0.05453408 -0.009815223 -0.009094576 -0.01979351 -0.021853233 0.042314664 -0.020879373
0.003657856 0.0032137188 0.03601548 0.049081244 0.003931152 0.025649944 -0.016192136 -0.023927031
0.033628795 0.035560273 -0.019530825 -0.057554774 0.030841555 0.0061513926 0.018549927 0.005056445
-0.015579743 -0.057302017 -0.0038007698 -0.005731262 0.053010132 -0.056466583 -0.04327559 0.04245542
0.04548545 0.021397995 -0.048242904 -0.035806302 0.048452467 -0.009758859 0.04142204 -0.02511742
0.024509786 0.028867876 -0.04490522 0.005877413 0.055270474 0.024726424 0.04729706 -0.04059357
0.011717871 -0.035789996 -0.004156716 -0.015367209 0.05114291 -0.011786345 -0.0042389375 -0.003609636
0.032091163 0.03758393 0.036425103 -0.042044554 0.039384626 -0.036609445 0.03138554 0.053906962
-0.010548073 -0.04846425 -0.014781604 0.049522128 -0.026657341 -0.012556431 0.021708917 -0.010482276
0.03245542 -0.029455207 0.03633452 0.022699552 -0.042860508 0.007566234 0.011749731 -0.045216884
0.037969086 -0.012575009 -0.006921928 0.026385998 0.041965682 0.030953323 0.020495128 -0.044105496
-0.0044986317 -0.017317407 0.05181277 -0.009344036 0.023848416 0.017952442 0.041528534 -0.0030691202
-0.017611468 -0.021948816 0.0444931 0.04996754 -0.056341555 0.04850618 0.0071197064 -0.017740995
0.008723724 0.00502718 -0.026214868 -0.057212777 -0.038557716 -0.029119924 0.02399784 0.038312156
0.037503034 0.01871942 0.01047004 -0.0141496435 -0.045112688 -0.051958114 -0.054526214 0.029662358
-0.03066833 0.018638836 -0.008987365 -0.008799996 0.0357412 -0.014330909 0.024180261 -0.054122224
-0.03754396 0.041702606 -0.056470796 -0.04428166 0.013041487 -0.022787064 0.046098944 -0.0056329835
-0.04310581 0.04400681 0.046281256 0.056804 0.023127342 0.04604133 -0.014971369 0.043713666
0.04949715 0.005359903 0.046551187 0.04295922 -0.019486077 0.001757244 -0.020822274 -0.047554977
-0.0045693656 -0.049064733 -0.026904652 0.041896425 0.039646115 -0.027264217 0.041966703 0.03671273
0.014805144 0.038954183 -0.053758066 -0.020041253 -0.046856344 0.054527443 0.057029985 -0.027030509
0.013925664 -0.040337898 0.0050772354 -0.010136022 0.010022392 0.05438441 0.039072677 -0.05711494
-0.0017946309 0.044375215 0.047127403 0.010746971 -0.01608124 -0.030071462 -0.03457116 0.035039034
0.048263017 0.035704173 -0.040437628 0.03505648 0.03282592 -0.05069239 0.038545035 0.026634654
-0.028236147 0.019161796 0.04373093 -0.0147309 -0.054034412 0.05158686 -0.0038241448 -0.037904404
00000000: 53c8 49bd a4a3 1b3d 9368 643d dec0 803c
00000010: a435 523d 0b7e 43bd 6bd3 213c 4119 bc3c
00000020: 3c59 51bd 2eb7 64bd fe65 0bbd cb19 4b3d
00000030: 8ff8 46bc da47 293d 1917 93bb 2c1c e03b
00000040: 04ce ad3c 38b5 35bd 0132 3f3d 3b9f 94bc
00000050: ecab bebb 72ae 70bc 1fe7 763a a2dd 54bc
00000060: c7fd 5bbc a829 593b 0dfd 153d e7b6 313c
00000070: db46 48bd 3b2b 833c 5995 5abd f32f 273b
00000080: 3bcd a8bc 8186 c93c 9988 07bb f7ff 533d
00000090: f594 e23c a8e9 57bb ff7c ef3b 34d9 673d
000000a0: 2f14 b83a 1915 113d 88b0 efbb cbd7 573c
000000b0: 4910 5e3b 0b44 15bd 51c4 61bd 7a15 53bd
000000c0: d6a3 603d c280 65bd 1469 96bc ac88 bdb8
000000d0: dd21 6bbd 4bca f33b 290c 9a3c b508 5ebc
000000e0: b456 00bd 215f 5f3d 07d0 20bc 6b01 15bc
000000f0: 0026 a2bc 8d05 b3bc 2452 2d3d 380b abbc
00000100: a4b8 6f3b 419d 523b f884 133d 6a09 493d
00000110: e5d0 803b d51f d23c 5fa5 84bc 9f02 c4bc
00000120: 59be 093d a6a7 113d 1cff 9fbc 8ebe 6bbd
00000130: 6ea7 fc3c 9f91 c93b 04f6 973c 89b0 a53b
00000140: 2e42 7fbc 85b5 6abd 5616 79bb 4fcd bbbb
00000150: 2721 593d 8149 67bd bf41 31bd bce5 2d3d
00000160: f44e 3a3d d94a af3c 5a9a 45bd a1a9 12bd
00000170: 1876 463d 9fe3 1fbc 28aa 293d 0cc3 cdbc
00000180: bfc8 c83c 537c ec3c 89ee 37bd 5097 c03b
00000190: 4b63 623d 128f ca3c 90ba 413d 7145 26bd
000001a0: 50fc 3f3c 8898 12bd 1035 88bb bfc6 7bbc
000001b0: 3a7b 513d 841b 41bc c9e6 8abb a58f 6cbb
000001c0: 0672 033d 9bf1 193d 7d32 153d e936 2cbd
000001d0: c651 213d c9f3 15bd 208e 003d 8ccd 5c3d
000001e0: d3d1 2cbc 7382 46bd 8a2e 72bc b7d7 4a3d
000001f0: 7f60 dabc 7db9 4dbc e6d6 b13c dabd 2bbc
00000200: f9ef 043d 0c4c f1bc 81d3 143d 69f4 b93c
00000210: 808e 2fbd 2cee f73b f281 403c 5735 39bd
00000220: 7985 1b3d 6907 4ebc 57d1 e2bb 7327 d83c
00000230: 35e4 2b3d d391 fd3c 66e5 a73c f7a7 34bd
00000240: 4269 93bb 3cdd 8dbc a139 543d ba17 19bc
00000250: c15d c33c 0011 933c d319 2a3d 4b23 49bb
00000260: ed45 90bc 01ce b3bc 663e 363d c3aa 4c3d
00000270: 67c6 66bd 6bae 463d 6d4c e93b 9055 91bc
00000280: f3ed 0e3c 0bbb a43b 90c0 d6bc f257 6abd
00000290: b2ee 1dbd e88c eebc 1e97 c43c 35ed 1c3d
000002a0: c89c 193d 7859 993c 888a 2b3c e8d3 67bc
000002b0: 15c8 38bd 08d2 54bd e156 5fbd 79fe f23c
000002c0: 263c fbbc 79b0 983c be3f 13bc dc2d 10bc
000002d0: 5d65 123d 30cc 6abc af15 c63c 44af 5dbd
000002e0: b2c7 19bd 5ad0 2a3d ec4d 67bd b060 35bd
000002f0: f6ab 553c f0ab babc 3fd2 3c3d e494 b8bb
00000300: b88f 30bd 7c40 343d 6a91 3d3d 50ab 683d
00000310: 8d75 bd3c d595 3c3d 794a 75bc 1a0d 333d
00000320: 86bd 4a3d 20a2 af3b 75ac 3e3d 02f6 2f3d
00000330: 44a1 9fbc 5353 e63a 7993 aabc 02c9 42bd
00000340: 9eba 95bb 1af8 48bd 2567 dcbc 969b 2b3d
00000350: f763 223d 3559 dfbc 47e5 2b3d 1660 163d
00000360: 4691 723c 6c8e 1f3d 6b31 5cbd 8e2d a4bc
00000370: 70ec 3fbd 2b58 5f3d 4698 693d 166f ddbc
00000380: 7828 643c 5a39 25bd f05e a63b 8f11 26bc
00000390: f534 243c 30c2 5e3d ac0a 203d 5bf1 69bd
000003a0: d239 ebba c9c2 353d aa08 413d 1014 303c
000003b0: cebc 83bc 6d58 f6bc 7d9a 0dbd 1785 0f3d
000003c0: 71af 453d 8a3e 123d eda1 25bd 6297 0f3d
000003d0: 7974 063d d3a2 4fbd 66e1 1d3d eb30 da3c
000003e0: 7e4f e7bc 33f9 9c3c 341f 333d df59 71bc
000003f0: 3053 5dbd be4c 533d 819e 7abb a641 1bbd

bias f4 [12]
-0.05080504 -0.019637069 -0.016233068 0.014225009 0.0012216128 0.025017964 0.026668642 -0.0024898043
-0.04750528 0.025392381 0.046175286 0.02016355
00000000: f218 50bd ebdd a0bc 36fb 84bc 0310 693c
00000010: 861e a03a 79f2 cc3c 3278 da3c fc2b 23bb
00000020: e594 42bd af03 d03c 4c22 3d3d 072e a53c

weight f4 [12]
1.0000042 0.99995625 1.0000021 1.0000014 1.0000057 0.99991155 0.9999433 1.0000011
0.9999885 1.0000025 1.0000018 0.999983
00000000: 2300 803f 22fd 7f3f 1200 803f 0c00 803f
00000010: 3000 803f 34fa 7f3f 49fc 7f3f 0900 803f
00000020: 3fff 7f3f 1500 803f 0f00 803f e3fe 7f3f

bias f4 [12]
0.0001118568 -0.00010785648 5.2595246e-06 -5.7181983e-06 0.00010732342 -0.00012410682 -2.8749117e-05 -4.6257897e-05
6.1407285e-05 7.031255e-05 7.7380086e-05 -4.3755535e-05
00000000: aa94 ea38 0231 e2b8 f97a b036 f3de bfb6
00000010: d312 e138 ac22 02b9 422a f1b7 0a05 42b8
00000020: c9c7 8038 c374 9338 1e47 a238 2686 37b8

running_mean f4 [12]
0.2720489 -0.13405608 0.025305219 -0.20698668 0.10971805 0.2546736 0.28799137 0.15036139
-0.16013506 -0.58086526 -0.055400956 0.15101504
00000000: fe49 8b3e ff45 09be e44c cf3c 51f4 53be
00000010: dbb3 e03d 9464 823e 9b73 933e 56f8 193e
00000020: 72fa 23be 96b3 14bf 1dec 62bd b0a3 1a3e

running_var f4 [12]
0.07997583 0.11043722 0.0965756 0.08552831 0.07464847 0.07591382 0.048644796 0.13590144
0.030613033 0.3654092 0.14652245 0.15386444
00000000: 5eca a33d e92c e23d 6ec9 c53d 7729 af3d
00000010: 4ce1 983d b478 9b3d c43f 473d bf29 0b3e
00000020: 2fc8 fa3c ea16 bb3e fb09 163e a48e 1d3e

weight f4 [24, 12, 5, 5]
-0.01325744 0.031437173 0.0042253826 -0.048564248 -0.014253456 -0.016629748 -0.036079448 -0.050015178
0.05112647 -0.015325812 -0.0059479885 0.027192459 -0.054791123 -0.013932957 -0.009356601 -0.04619915
-0.051897444 -0.05367886 -0.022194574 0.045388818 -0.0056845723 -0.0019742027 -0.006888661 0.04105995
-0.043745186 0.02017278 -0.01678895 0.025234064 -0.015409194 -0.043910343 -0.028999822 0.029786358
-0.013733658 -0.045817308 -0.033964824 -0.01571173 0.0064440337 0.027246607 -0.045188073 -0.052950066
-0.011169714 0.045442197 -0.033791795 -0.020351293 -0.0063196346 0.011106848 0.042770762 0.057347946
-0.051624063 -0.0019427501 0.029564628 0.02330115 -0.056747403 0.010126168 -0.053635456 0.00037068996
0.04838793 0.041593853 0.030599605 0.027915126 -0.045440774 0.045940064 -0.026785841 0.024277132
0.042565368 -0.002176287 -0.020961266 0.036723036 0.031856656 -0.05651044 -0.008253357 -0.0522539
0.028930152 0.04687545 0.030034445 0.047260784 0.04290325 0.01963603 0.03034529 0.047108624
0.0055910344 0.00069163786 0.02524825 0.039361686 -0.02758099 0.03356764 -0.037378885 -0.015954865
0.05425533 0.016243314 0.026121056 0.012043039 0.0017958337 -0.04544678 0.019859882 0.026351208
0.04006965 0.049805384 -0.04470064 0.013486839 0.040272187 0.023672367 -0.025192264 0.012873498
0.056600016 0.011914146 -0.029597329 0.03692982 -0.025100037 -0.024086097 0.016309204 -0.00429642
-0.034525756 0.0074617905 -0.04693208 0.03812857 0.012338897 0.04142049 0.013789418 0.00924602
0.020999825 0.009932459 -0.024423717 0.028689122 -0.00096742646 -0.04738154 -0.040720593 -0.014512197
0.0295501 0.02091051 -0.0029639567 0.0010438843 0.035039816 -0.029861834 -0.026786434 -0.056628715
0.0364431 -0.0025200283 0.05651295 -0.035599142 -0.029840712 -0.05194639 0.034271 0.057260033
-0.024384692 0.033243753 -0.0018348943 -0.056014612 0.027646035 -0.0060374327 0.04271853 -0.010033526
0.056008533 -0.05017913 0.016131934 -0.028701248 -0.034847755 0.021095417 0.04947549 -0.029925296
0.00742313 0.012011501 0.035429914 0.03723293 0.011383292 -0.018836983 -0.04981527 -0.016800152
0.04053122 -0.016801236 0.0057592303 -0.008349438 0.032184456 -0.026132245 0.052499738 -0.022343358
-0.057168715 -0.0021694037 0.033065263 0.004512545 0.05196389 -0.018365538 -0.011631724 0.02446577
-0.027703052 0.0016285711 0.0066590626 0.019351833 0.043780737 -0.014327837 0.0074927113 0.008267818
0.030212613 -0.039659366 0.0558325 0.04330789 -0.053965464 -0.017667633 -0.02352928 -0.056960326
-0.047861516 0.024517471 -0.049656536 0.055581614 -0.05654092 -0.02357299 -0.057072956 -0.021321682
0.018868217 0.005111413 0.026150724 0.033711713 0.024410434 -0.04310946 -0.053234804 -0.02516236
0.029807592 0.027807893 0.05256789 0.026563875 0.029287731 0.0029128708 0.041326586 0.0015001287
0.055762157 0.037319582 0.052441113 0.046021454 0.033414334 -0.02385036 0.037098266 0.015395519
0.020796198 -0.009281852 -0.010482703 0.01906149 0.021873554 -0.029370222 0.036323737 0.008478435
0.05166146 0.0225508 -0.04749538 -0.03573599 0.046928074 0.039514713 0.037375852 -0.02129461
0.04506301 0.02626223 -0.016014738 -0.049428258 -0.002341089 -0.0011716619 -0.01946907 0.046875577
00000000: bc35 59bc 44c4 003d 1475 8a3b 4eeb 46bd
00000010: 5487 69bc 1c3b 88bc 0bc8 13bd b7dc 4cbd
00000020: fd69 513d 1d19 7bbc 58e7 c2bb b8c2 de3c
00000030: a86c 60bd 0f47 64bc 6e4c 19bc 523b 3dbd
00000040: 6a92 54bd 5dde 5bbd 65d1 b5bc a0e9 393d
00000050: a645 babb a061 01bb 47ba e1bb 7a2e 283d
00000060: 272e 33bd 6341 a53c fb88 89bc abb7 ce3c
00000070: d876 7cbc 55db 33bd 0991 edbc 8502 f43c
00000080: 2303 61bc eeaa 3bbd b31e 0bbd e3b5 80bc
00000090: 7928 d33b 4734 df3c 2117 39bd 2be2 58bd
000000a0: 2d01 37bc 9921 3a3d 4469 0abd c1b7 a6bc
000000b0: f014 cfbb 7ff9 353c 6530 2f3d aee5 6a3d
000000c0: c173 53bd e0a3 feba 8531 f23c 0ee2 be3c
000000d0: f76f 68bd 3ae8 253c dab0 5bbd 2a59 c239
000000e0: 6c32 463d 515e 2a3d 06ac fa3c 43ae e43c
000000f0: 1b20 3abd a62b 3c3d fb6d dbbc d6e0 c63c
00000100: 0659 2e3d 09a0 0ebb f6b6 abbc e56a 163d
00000110: 207c 023d 7e77 67bd 1739 07bc 2f08 56bd
00000120: edfe ec3c 7900 403d cc0a f63c 8694 413d
00000130: 51bb 2f3d bddb a03c b096 f83c f9f4 403d
00000140: ff34 b73b 084f 353a 6bd5 ce3c b839 213d
00000150: 87f1 e1bc 397e 093d 9a1a 19bd c7b3 82bc
00000160: d63a 5e3d b310 853c d3fb d53c 2b50 453c
00000170: 2e62 eb3a 6726 3abd 31b1 a23c 7dde d73c
00000180: 1320 243d bb00 4c3d 0518 37bd e7f7 5c3c
00000190: 73f4 243d 8dec c13c 0260 cebc 5deb 523c
000001a0: 6bd5 673d 8d33 433c 1976 f2bc b943 173d
000001b0: 989e cdbc 3550 c5bc e19a 853c fcc8 8cbb
000001c0: e16a 0dbd 0982 f43b da3b 40bd b42c 1c3d
000001d0: 1629 4a3c 88a8 293d 03ed 613c 9e7c 173c
000001e0: d307 ac3c c1bb 223c 3f14 c8bc 7305 eb3c
000001f0: e49a 7dba 2513 42bd a3ca 26bd 91c4 6dbc
00000200: 0d13 f23c 854c ab3c f13e 42bb f2d2 883a
00000210: e985 0f3d cea0 f4bc 396f dbbc 83f3 67bd
00000220: 5c45 153d 0f27 25bb 207a 673d 68d0 11bd
00000230: 8274 f4bc bdc5 54bd c05f 0c3d 7f89 6a3d
00000240: 68c2 c7bc 9a2a 083d d680 f0ba 946f 65bd
00000250: f079 e23c a8d5 c5bb a0f9 2e3d a963 24bc
00000260: 3469 653d a288 4dbd 1e27 843c e11e ebbc
00000270: 85bc 0ebd 4cd0 ac3c d0a6 4a3d e525 f5bc
00000280: ba3d f33b e3cb 443c f51e 113d 8f81 183d
00000290: fd80 3a3c 0450 9abc 190b 4cbd 79a0 89bc
000002a0: 1104 263d bfa2 89bc edb7 bc3b 15cc 08bc
000002b0: d9d3 033d 4a13 d6bc f709 573d 6b09 b7bc
000002c0: be29 6abd 8e2c 0ebb 716f 073d f9dd 933b
000002d0: 17d8 543d 5373 96bc fd92 3ebc 706c c83c
000002e0: 83f1 e2bc c775 d53a 4434 da3b bc87 9e3c
000002f0: 6e53 333d 4ebf 6abc 6b85 f53b be75 073c
00000300: 7180 f73c dc71 22bd 9fb0 643d 9d63 313d
00000310: e40a 5dbd b6bb 90bc 7ac0 c0bc 3b4f 69bd
00000320: 700a 44bd ddd8 c83c a764 4bbd 8ca9 633d
00000330: 7497 67bd 251c c1bc 55c5 69bd cfaa aebc
00000340: 8591 9a3c a47d a73b 0b3a d63c 4b15 0a3d
00000350: 64f8 c73c 8c93 30bd bd0c 5abd 4b21 cebc
00000360: 0d2f f43c 61cd e33c 6e51 573d 7c9c d93c
00000370: d3ec ef3c dde5 3e3b 1146 293d f79f c43a
00000380: dc66 643d 6bdc 183d 7ecc 563d fe80 3c3d
00000390: 78dd 083d d561 c3bc 5af4 173d 7d3d 7c3c
000003a0: ca5c aa3c e912 18bc a5bf 2bbc d826 9c3c
000003b0: 2b30 b33c d299 f0bc 33c8 143d 22e9 0a3c
000003c0: f89a 533d 75bc b83c 848a 42bd e75f 12bd
000003d0: a737 403d 2eda 213d 6c17 193d 0972 aebc
000003e0: fe93 383d e323 d73c 5731 83bc 4975 4abd
000003f0: f56c 19bb 7392 99ba 997d 9fbc 9b00 403d

bias f4 [24]
-0.044285968 -0.0056277383 0.03809374 -0.017900001 -0.031252254 0.033910282 0.04902517 -0.05285798
0.052192867 0.049938265 -0.05231632 -0.04839407 -0.056554936 0.0017808464 0.031362582 -0.035935234
0.0013888094 -0.027547026 -0.05063953 0.039081756 0.05423595 0.042803057 0.025609417 -0.0022999698
00000000: 3465 35bd e468 b8bb 2e08 1c3d 06a3 92bc
00000010: 5d02 00bd 82e5 0a3d 9ece 483d 9c81 58bd
00000020: 30c8 553d 118c 4c3d a349 56bd dc38 46bd
00000030: 26a6 67bd 4a6b e93a 0d76 003d d330 13bd
00000040: b608 b63a 4daa e1bc 656b 4fbd 3114 203d
00000050: 8426 5e3d 4252 2f3d d7ca d13c 17bb 16bb

weight f4 [24]
1.0000014 0.9999648 0.9999526 0.99994916 0.9999813 1.0000025 1.0000021 1.0000038
0.99996495 0.9999652 1.0000015 0.99995893 0.99998987 0.9999505 1.0000008 1.0000001
0.99994695 0.999982 0.99999243 1.0000014 0.99998647 1.0000026 1.0000021 0.9999916
00000000: 0c00 803f b1fd 7f3f e5fc 7f3f abfc 7f3f
00000010: c6fe 7f3f 1500 803f 1200 803f 2000 803f
00000020: b4fd 7f3f b8fd 7f3f 0d00 803f 4ffd 7f3f
00000030: 56ff 7f3f c2fc 7f3f 0700 803f 0100 803f
00000040: 86fc 7f3f d2fe 7f3f 81ff 7f3f 0c00 803f
00000050: 1dff 7f3f 1600 803f 1200 803f 73ff 7f3f

bias f4 [24]
-6.290784e-06 5.397002e-07 -5.620735e-05 -6.026863e-06 -4.67697e-05 6.7428846e-05 2.5027648e-05 0.000106431966
-5.537791e-05 -6.525496e-05 5.3047108e-05 -3.1142466e-05 -5.4528307e-05 -8.2328625e-05 3.6648802e-05 3.001818e-05
-3.5867353e-05 2.3383905e-05 -2.2269669e-05 4.3839795e-05 6.4556784e-06 6.873426e-05 3.767335e-05 -1.25032775e-05
00000000: 6c15 d3b6 eadf 1035 2fc0 6bb8 5c3a cab6
00000010: 952a 44b8 9668 8d38 77f2 d137 3a34 df38
00000020: 9445 68b8 7dd9 88b8 e67e 5e38 f89e 02b8
00000030: 53b5 64b8 d8a7 acb8 5ab7 1938 8dcf fb37
00000040: 4770 16b8 8e28 c437 c0cf bab7 9fe0 3738
00000050: db9d d836 6d25 9038 7403 1e38 2bc5 51b7

running_mean f4 [24]
0.31757364 0.35692382 -0.008589443 -0.48546693 -0.33837023 0.45793554 -0.18888085 0.20154423
-0.33973303 -0.36134607 -0.100983806 -0.09445357 0.06753577 -0.15632924 -0.5492093 0.20109333
-0.35154957 -0.2987221 -0.16661412 0.37396708 0.01279452 0.006947239 0.15014035 -0.3882268
00000000: 0399 a23e b8be b63e bcba 0cbc 1f8f f8be
00000010: dd3e adbe 8776 ea3e fb69 41be 9c61 4e3e
00000020: 7df1 adbe 5a02 b9be 99d0 cebd e070 c1bd
00000030: 3250 8a3d c614 20be fb98 0cbf 69eb 4d3e
00000040: 4efe b3be 1af2 98be e49c 2abe 9d78 bf3e
00000050: 1ba0 513c aaa5 e33b 64be 193e aac5 c6be

running_var f4 [24]
0.17432407 0.24034463 0.08739899 0.17159808 0.24990657 0.11653998 0.12916444 0.13736819
0.2710696 0.2562217 0.22116582 0.10607125 0.2336828 0.12887585 0.22931792 0.079567246
0.2164875 0.10268847 0.12643349 0.22723363 0.1107087 0.22972243 0.14824495 0.16032499
00000000: 0282 323e e71c 763e 3efe b23d 68b7 2f3e
00000010: 82e7 7f3e 83ac ee3d af43 043e 3faa 0c3e
00000020: a2c9 8a3e 7e2f 833e 4b79 623e e23b d93d
00000030: 8b4a 6f3e 08f8 033e 51d2 6a3e 27f4 a23d
00000040: e6ae 5d3e 554e d23d c877 013e efaf 683e
00000050: 3ebb e23d 5b3c 6b3e 86cd 173e 3c2c 243e

weight f4 [24, 24, 5, 5]
-0.01512076 0.032611288 0.019241763 0.023859883 -0.0085299965 -0.035968333 -0.034059078 -0.030488575
-0.0148393065 0.0049195397 0.017173735 0.0028267368 -0.017182892 0.026741471 -0.011965579 -0.031832933
-0.029802691 0.03563252 0.03698756 -0.019343 -0.008192702 -0.037376337 -0.0071958136 -0.0025766175
0.033045594 0.021553956 -0.0047472725 0.02391055 0.003955349 -0.02297594 -0.0325159 -0.0061509204
0.02319175 0.027890084 -0.026016131 0.034958035 -0.0016769104 -0.032868497 0.0030024913 -0.0055939504
-0.013080656 -0.007627772 -0.03469968 -0.028372228 -0.0078213895 -0.015824405 -0.011105341 -0.01433503
0.019478805 0.025442993 0.0406866 -0.027665628 0.021296525 0.03253893 -0.026354963 0.004686613
0.021599373 -0.019430904 -0.027117506 0.0006082576 -0.024545059 -0.0010107717 0.024184661 -0.002858911
-0.003224142 -0.014470374 -0.016910445 -0.00045114438 0.03175683 0.036287703 -0.027826285 0.023465822
-0.022521341 -0.030528795 0.035705585 0.0028076246 0.015000243 -0.020818412 -0.016016087 -0.012934341
-0.031290412 0.034503944 0.019295525 -0.015914308 0.025671924 -0.013582178 0.035786863 0.0095785195
-0.032709442 0.017645849 0.01159691 -0.026288202 0.0001606862 -0.014596677 0.013837926 0.012574635
-0.027672242 -0.0064824116 0.026046135 0.019278497 -0.005166603 -0.0395236 0.01097854 0.010211254
-0.024901764 0.034009226 -0.03086524 0.034753494 -0.0155800795 0.03762953 0.010739954 -0.007000463
0.022672722 -0.029602658 0.031386208 0.023866097 -0.02503607 -0.0075449953 -0.02352451 -0.015983952
0.02080365 -0.006424703 0.009666272 -0.015897226 -0.012744645 0.0067968885 0.024347702 0.04025755
-0.022302859 -0.021831091 0.0034927174 0.028830212 0.02543365 0.030000402 -0.039841328 0.0038900336
-0.0011411093 0.038402777 -0.03014632 -0.009782659 -0.033428803 -0.03479525 0.037094902 -0.023614388
0.029119065 0.009754046 0.0080853645 -0.026938882 -0.0057673496 -0.039145324 0.0146776335 0.01349342
0.010549962 0.019729484 0.03112478 0.012388662 0.040273853 -0.039409485 -0.027337883 -0.017256204
-0.0019546528 -0.030485384 -0.016157407 0.013206236 -0.021752154 0.035026945 -0.029453564 -0.021065686
0.035165448 -0.028634489 0.029937936 -0.01976066 0.022334533 -0.029238896 -0.012598928 -0.029745653
0.02011052 0.005817915 0.005269804 0.030200778 0.030850751 0.0057870303 0.023359653 0.032454345
-0.034770165 0.03496627 0.021403318 0.024738846 0.021581223 -0.025246466 -0.034385994 0.033473283
0.014916874 0.007843083 -0.011526181 0.030659676 0.03879885 -0.0108016785 -0.037938766 -0.01960793
-0.016037656 0.00043094336 0.015666075 -0.013486291 0.04022501 -0.01655743 0.03198887 -0.034255516
0.034192402 -0.021237131 -0.039385054 -0.029457211 -0.038352918 -0.03189109 -0.008084713 0.017403971
0.03277021 0.021726772 0.024571566 -0.0042833453 0.01764102 -0.033379823 -0.03577415 0.037425146
0.016378837 -0.033732723 0.004597363 0.017658077 0.025363151 -0.02342027 0.030526455 0.027081361
-0.02152549 0.0054908125 0.035735615 -0.0031599554 -0.004854917 -0.007005206 0.03935895 -0.03895005
-0.018778041 0.002690679 0.02917108 0.0058848145 0.025162576 -0.03635766 -0.019943649 -0.008711035
-0.02591624 0.0141829215 0.030790431 -0.018477304 0.007717787 0.020842567 -0.019703696 -0.012907841
00000000: 10bd 77bc 6a93 053d e7a0 9d3c cd75 c33c
00000010: 66c1 0bbc 8853 13bd 8881 0bbd 2dc3 f9bc
00000020: 9020 73bc 1734 a13b efaf 8c3c c640 393b
00000030: 23c3 8cbc ee10 db3c 470b 44bc 4063 02bd
00000040: c624 f4bc 68f3 113d 4580 173d 3675 9ebc
00000050: af3a 06bc ee17 19bd dcca ebbb 78dc 28bb
00000060: d15a 073d ec91 b03c 028f 9bbb 0fe0 c33c
00000070: df9b 813b 0a38 bcbc 642f 05bd a98d c9bb
00000080: a0fc bd3c bf79 e43c c81f d5bc 2830 0f3d
00000090: c7cb dbba 1ea1 06bd 72c5 443b 754d b7bb
000000a0: 3f50 56bc 64f2 f9bb 4021 0ebd e06c e8bc
000000b0: 4925 00bc 2fa2 81bc 2df3 35bc 79dd 6abc
000000c0: 0492 9f3c d36d d03c fea6 263d 07a3 e2bc
000000d0: 0d76 ae3c 8b47 053d 5de6 d7bc 2992 993b
000000e0: 2bf1 b03c 8f2d 9fbc 8825 debc 7a73 1f3a
000000f0: b812 c9bc df7b 84ba e91e c63c 915c 3bbb
00000100: 204c 53bb 2615 6dbc c687 8abc 9387 ecb9
00000110: 7313 023d 6aa2 143d f3f3 e3bc 653b c03c
00000120: ad7e b8bc 8617 fabc 0540 123d 2000 383b
00000130: 94c3 753c 608b aabc 2b34 83bc 8fea 53bc
00000140: 602a 00bd 0254 0d3d a611 9e3c b95e 82bc
00000150: ed4d d23c c987 5ebc 3f95 123d 39ef 1c3c
00000160: 56fa 05bd 078e 903c f700 3e3c 5b5a d7bc
00000170: e07d 2839 e726 6fbc 78b8 623c d805 4e3c
00000180: e6b0 e2bc 696a d4bb b45e d53c f0ed 9d3c
00000190: 9b4c a9bb 80e3 21bd 56df 333c 1a4d 273c
000001a0: c9fe cbbc 424d 0b3d 1ad9 fcbc ae59 0e3d
000001b0: 9743 7fbc 6c21 1a3d a2f6 2f3c 2464 e5bb
000001c0: 25bc b93c 4681 f2bc d38e 003d d582 c33c
000001d0: 7218 cdbc 023c f7bb 79b6 c0bc c7f0 82bc
000001e0: 6b6c aa3c 5186 d2bb 495f 1e3c e63a 82bc
000001f0: eace 50bc 6fb8 de3b d574 c73c 1ae5 243d
00000200: 7cb4 b6bc 1ed7 b2bc 13e6 643b 562d ec3c
00000210: 3b5a d03c 67c3 f53c a930 23bd efef 7e3b
00000220: 4691 95ba 3b4c 1d3d 6af5 f6bc 7247 20bc
00000230: a4ec 08bd 7785 0ebd d3f0 173d f672 c1bc
00000240: 1b8b ee3c 6fcf 1f3c 7a78 043c eeae dcbc
00000250: 09fc bcbb d956 20bd 757a 703c 8113 5d3c
00000260: bfd9 2c3c ba9f a13c 65f9 fe3c d1f9 4a3c
00000270: 32f6 243d d76b 21bd b2f3 dfbc e25c 8dbc
00000280: a219 00bb 7cbc f9bc 8a5c 84bc f85e 583c
00000290: 9331 b2bc 6a78 0f3d 9a48 f1bc f291 acbc
000002a0: a509 103d e092 eabc 6740 f53c 1ce1 a1bc
000002b0: e9f6 b63c 6986 efbc bc6b 4ebc 28ad f3bc
000002c0: d1be a43c 35a4 be3b 52ae ac3b 9f67 f73c
000002d0: b7ba fc3c 21a1 bd3b be5c bf3c d9ee 043d
000002e0: 296b 0ebd cb38 0f3d 0356 af3c 1fa9 ca3c
000002f0: 1bcb b03c add1 cebc 54d8 0cbd 481b 093d
00000300: e765 743c 4680 003c 4fd8 3cbc 002a fb3c
00000310: 8beb 1e3d 86f9 30bc ae65 1bbd cfa0 a0bc
00000320: 6761 83bc 3df0 e139 2456 803c 9bf5 5cbc
00000330: fbc2 243d 73a3 87bc c306 033d 834f 0cbd
00000340: 550d 0c3d 7ef9 adbc 3952 21bd 4050 f1bc
00000350: f317 1dbd 3ba0 02bd be75 04bc c692 8e3c
00000360: 0e3a 063d 58fc b13c 4f4a c93c 4e5b 8cbb
00000370: e683 903c 48b9 08bd ea87 12bd 1c4b 193d
00000380: e92c 863c 532b 0abd 7aa5 963b aca7 903c
00000390: 62c6 cf3c dedb bfbc 9e12 fa3c bbd9 dd3c
000003a0: 3956 b0bc 46ec b33b 825f 123d 4117 4fbb
000003b0: ff15 9fbb ed8b e5bb da36 213d 168a 1fbd
000003c0: 68d4 99bc 1a56 303b 30f8 ee3c 67d5 c03b
000003d0: bf21 ce3c c5eb 14bd dd60 a3bc bbb8 0ebc
000003e0: 4b4e d4bc 7c5f 683c 373c fc3c b75d 97bc
000003f0: 7de5 fc3b 08be aa3c a569 a1bc 697b 53bc

bias f4 [24]
0.02643165 0.038096827 0.033884138 -0.0343191 0.017126065 -0.01570039 -0.029975332 0.0036506667
-0.020984054 0.037257593 -0.010835963 0.023384523 0.0020259435 0.023106858 0.020576028 -0.02702828
-0.0108599905 0.023341672 0.0035107783 -0.002642423 -0.008855139 0.026287086 -0.0015965985 0.0008540911
00000000: 3087 d83c 6b0b 1c3d 18ca 0a3d 2f92 0cbd
00000010: f64b 8c3c 1b9e 80bc d48e f5bc 0640 6f3b
00000020: c0e6 abbc 6b9b 183d 5389 31bc e690 bf3c
00000030: b1c5 043b 984a bd3c 0f8f a83c 696a ddbc
00000040: 1aee 31bc 0937 bf3c 1615 663b 802c 2dbb
00000050: 2515 11bc 0458 d73c f544 d1ba 15e5 5f3a

weight f4 [24]
1.0000014 0.999883 1.0000011 1.0000008 1.0000035 0.9999519 0.99997324 0.99994695
1.0000021 1.0000021 1.0000023 0.99998343 0.9998898 1.0000015 1.0000001 1.0000012
1.0000025 1.000005 0.99993056 1.0000012 0.99997973 1.0000015 0.99996203 1.0000025
00000000: 0c00 803f 55f8 7f3f 0900 803f 0700 803f
00000010: 1d00 803f d9fc 7f3f 3ffe 7f3f 86fc 7f3f
00000020: 1200 803f 1200 803f 1300 803f eafe 7f3f
00000030: c7f8 7f3f 0d00 803f 0100 803f 0a00 803f
00000040: 1500 803f 2a00 803f 73fb 7f3f 0a00 803f
00000050: acfe 7f3f 0d00 803f 83fd 7f3f 1500 803f

bias f4 [24]
-3.550973e-05 -0.00012584373 5.81304e-05 3.4324726e-06 0.000103879815 -1.586215e-05 -3.87516e-06 -2.4636023e-05
8.330111e-05 0.00013208679 0.00014203574 -2.7453481e-05 -0.00014592557 -8.735937e-07 8.203925e-05 3.6345682e-05
0.00010712938 0.00011275419 -7.230591e-05 0.000106364016 -2.3637314e-05 0.000100518766 -3.4656092e-05 7.9705576e-05
00000000: 48f0 14b8 ebf4 03b9 0bd1 7338 6e59 6636
00000010: 0dda d938 b50f 85b7 5f07 82b6 75a9 ceb7
00000020: f1b1 ae38 c780 0a39 6eef 1439 e74b e6b7
00000030: 9903 19b9 e780 6ab5 7d0c ac38 e171 1838
00000040: a6aa e038 7276 ec38 f1a2 97b8 bf0f df38
00000050: bf48 c6b7 9acd d238 b25b 11b8 9b27 a738

running_mean f4 [24]
-0.0027265123 0.19962105 0.15298365 -0.004288096 -0.11769472 -0.31893766 0.122771524 -0.08326745
0.023543758 -0.20717937 0.025175251 0.025267346 0.12137944 0.22215185 -0.17354459 -0.13858958
0.16809988 0.030446757 -0.09762298 0.12987475 0.0744707 0.02577179 0.042043008 -0.08156902
00000000: 49af 32bb 7669 4c3e bfa7 1c3e 2883 8cbb
00000010: ee09 f1bd cc4b a3be a36f fb3d 2088 aabd
00000020: d7de c03c d426 54be 543c ce3c 77fd ce3c
00000030: c995 f83d c67b 633e acb5 31be 6dea 0dbe
00000040: 6022 2c3e 7a6b f93c 8fee c7bd e3fd 043e
00000050: 1884 983d 5c1f d33c 4a35 2c3d a90d a7bd

running_var f4 [24]
0.15668367 0.18554011 0.11767025 0.10482503 0.09850166 0.21969502 0.17081268 0.10060329
0.08805389 0.118032254 0.08489836 0.08119655 0.08376027 0.093246266 0.18405963 0.111019
0.0847603 0.14260255 0.14021339 0.08594487 0.07616844 0.17336756 0.1755419 0.10626516
00000000: af71 203e 3afe 3d3e 1afd f03d 81ae d63d
00000010: 3dbb c93d bbf7 603e 85e9 2e3e 1909 ce3d
00000020: 9955 b43d e5ba f13d 31df ad3d 604a a63d
00000030: 818a ab3d e6f7 be3d 217a 3c3e ee5d e33d
00000040: cf96 ad3d 6706 123e 1994 0f3e dd03 b03d
00000050: 33fe 9b3d 4487 313e 41c1 333e 8ca1 d93d

weight f4 [10, 16224]
0.0047015436 0.0052311877 0.001760394 -0.0003196335 -0.007168162 -0.0036825351 0.007198262 -0.0030344499
-0.0075649573 -0.0032974111 -0.00059929537 0.0031705678 0.0066008675 0.0030678129 -0.0036700391 0.0010345046
-0.0074725673 -0.00084132055 0.001900355 0.0011084581 -0.00521465 0.0026063551 -0.005627978 -0.0067141163
-0.0044165654 0.0076823425 -0.007103521 0.0016350312 -0.004429222 -0.00053549226 0.001307115 0.0071174526
-0.0049289893 -0.0037968587 -0.0009725484 -0.007315425 -0.004077062 7.545416e-05 -0.0014079598 -0.0055493675
-0.005758415 0.007336234 0.004922904 0.0056456034 0.0075227697 0.004217781 -0.005179416 0.002947506
0.005662491 0.0057504405 0.0038730644 -0.006272191 -0.002563884 -0.0017352451 0.004361683 0.005398575
0.005204888 -0.0055510327 0.006881945 -0.00024869794 -0.0052447664 0.0003242049 -0.0011553315 0.006268714
0.00019485976 -0.0058483044 -0.0028916935 0.004706489 0.005995949 -0.0065052 -0.0065149833 0.0035169297
0.0065341643 -0.0032853577 -0.007124863 0.006274862 0.0037331944 -0.0011295185 0.004938729 -0.002722646
0.005757971 -0.007238971 0.003309276 -0.007821201 0.006679782 -0.0002950562 -0.003994549 0.0072011985
0.002343654 0.0017650991 -0.0002887966 -0.00641197 0.000457371 -0.0072091115 0.004514534 0.0065552997
-0.0048883725 -0.007062175 -0.0058786003 -0.004854749 -0.004224929 0.0053292015 -0.0015680918 -0.0028783374
-0.0010435064 0.0072882357 -0.003436312 -0.0022315378 0.005227144 0.007370393 -0.0070096618 0.005933734
-0.0022601578 0.00066799496 0.0071815047 0.0037732283 0.0044812867 -0.0027417056 0.0065620407 -0.005710843
-0.005042647 -0.00718291 -0.0047298707 0.0077763773 0.0055671567 0.0043815346 -0.0011910737 -0.0017488796
-0.007499849 -0.0022693502 -0.005761551 -0.006850914 0.00590257 -0.0018133449 0.0027905602 -0.0025592104
-0.004061008 -0.007106001 -0.0036592586 -0.006108249 -0.0032134578 -0.007649373 -0.0073202495 -0.002769071
0.0073314155 -0.0045020706 -8.863271e-05 0.005085333 -0.0028421006 -0.0011737733 0.003165854 -0.005816019
0.0018915021 0.004627442 0.0036700766 -0.0028293072 -0.0055462364 -0.0033578528 -0.0041464013 -0.0020954635
-0.007370938 0.0027433848 -0.003197584 0.00048245996 -0.0033462758 -0.0049796645 0.0046676574 0.003261317
-0.0053558825 0.0007405849 0.007720627 0.005122462 -0.0028876052 0.0021353448 -0.0051330067 -0.00383384
0.006430588 -0.006787339 0.004908881 -0.005087165 0.0071935756 -0.006112816 -0.0060292897 0.005211008
0.00032629655 -0.0039350507 -0.003166226 0.0005512488 -0.0033825836 0.00079120114 -0.007084491 -0.00488424
-0.0021058233 -0.0070914323 0.0018660486 0.0062384456 0.00529568 -0.0054649673 0.0055407863 0.005369033
0.004121491 -0.0036728082 0.006166257 0.004102092 0.003854993 -0.0055711144 -0.003950457 -0.0063899537
-0.002562627 -0.006056286 0.0058906227 -0.0026907278 0.005524311 0.006442991 -0.0012672134 -0.0019148105
0.0062441393 0.00738479 0.0044524926 0.00023973793 -0.004562531 0.0043829298 0.007450736 -0.000313949
0.0062232492 -0.0044031558 -0.007491919 0.006523677 -0.005466935 0.004311763 -0.00246086 -0.0051787673
0.0077257846 0.005714339 0.005664153 0.004737063 -0.0014192184 0.002174133 0.0034639053 -0.0052990504
0.00012996286 -0.0068225306 0.0060182842 -0.0032743774 0.00684018 0.00059627165 -0.0007205423 0.007523981
-0.0031317403 -0.0046674656 -0.003166696 -0.0039031475 -0.0018085514 -0.00040461065 0.00078718807 0.00019737061
00000000: 680f 9a3b 626a ab3b 05bd e63a 7b94 a7b9
00000010: e7e2 eabb b056 71bb 66df eb3b 9fdd 46bb
00000020: 76e3 f7bb 6119 58bb 081a 1dba 4dc9 4f3b
00000030: 174c d83b 5c0d 493b 0a85 70bb 3798 873a
00000040: 70dc f4bb 118c 5cba 5515 f93a af49 913a
00000050: a8df aabb 62cf 2a3b e76a b8bb 1702 dcbb
00000060: d6b8 90bb 29bc fb3b a7c4 e8bb 8b4e d63a
00000070: 0223 91bb 4760 0cba 8053 ab3a 8539 e93b
00000080: 5c83 a1bb b8d4 78bb 9ef2 7eba 3cb6 efbb
00000090: e098 85bb 253d 9e38 4b8b b8ba 78d7 b5bb
000000a0: 16b1 bcbb cb64 f03b 5050 a13b c1fe b83b
000000b0: 9181 f63b 5035 8a3b 17b8 a9bb f22a 413b
000000c0: 6b8c b93b 316e bc3b 3dd3 7d3b f486 cdbb
000000d0: d606 28bb 2a71 e3ba 73ec 8e3b 88e6 b03b
000000e0: c48d aa3b 70e5 b5bb f081 e13b ac63 82b9
000000f0: 4adc abbb 0cfa a939 7e6e 97ba c969 cd3b
00000100: 4553 4c39 22a3 bfbb 9182 3dbb e438 9a3b
00000110: aa79 c43b 9329 d5bb a47b d5bb 4a7c 663b
00000120: 8b1c d63b 284f 57bb af77 e9bb 5c9d cd3b
00000130: 9ca8 743b 5a0c 94ba 10d5 a13b 6c6e 32bb
00000140: 5dad bc3b e434 edbb 70e0 583b 7f24 00bc
00000150: 13e2 da3b c6b1 9ab9 b5e4 82bb 08f8 eb3b
00000160: fd97 193b e65a e73a a069 97b9 811b d2bb
00000170: 4ccb ef39 693a ecbb a8ee 933b d7cd d63b
00000180: a42e a0bb d169 e7bb 46a1 c0bb 9614 9fbb
00000190: 4671 8abb 95a0 ae3b 6e88 cdba 7da2 3cbb
000001a0: 44c6 88ba 27d2 ee3b c033 61bb fe3e 12bb
000001b0: 7648 ab3b 5683 f13b 4eb1 e5bb c56f c23b
000001c0: 281f 14bb 621c 2f3a d452 eb3b 4448 773b
000001d0: c2d7 923b 30ae 33bb 6306 d73b 0622 bbbb
000001e0: ca3c a5bb 9e5e ebbb 08fd 9abb fbd0 fe3b
000001f0: b26c b63b fa92 8f3b cd1d 9cba a93a e5ba
00000200: 4bc1 f5bb 61b9 14bb 65cb bcbb a27d e0bb
00000210: 596a c13b c2ad edba d5e1 363b 6db8 27bb
00000220: 3412 85bb 75d9 e8bb 2cd0 6fbb b527 c8bb
00000230: e098 52bb 97a7 fabb b4de efbb 4d79 35bb
00000240: 5f3c f03b 1b86 93bb 53e0 b9b8 dda2 a63b
00000250: 8942 3abb 4cd9 99ba 377a 4f3b 4e94 bebb
00000260: 47ec f73a cca1 973b ab85 703b e66b 39bb
00000270: 34bd b5bb 6c0f 5cbb 89de 87bb 0b54 09bb
00000280: e987 f1bb 5cca 333b 8f8e 51bb aef2 fc39
00000290: 314d 5bbb 742c a3bb 26f3 983b d2bb 553b
000002a0: 6680 afbb d023 423a 50fd fc3b 53da a73b
000002b0: fa3d 3dbb 24f1 0b3b c832 a8bb 2941 7bbb
000002c0: afb7 d23b 5468 debb aeda a03b 3cb2 a6bb
000002d0: 16b8 eb3b 044e c8bb 5991 c5bb 1ac1 aa3b
000002e0: c812 ab39 99f1 80bb 7580 4fbb ae81 103a
000002f0: 56ae 5dbb 9c68 4f3a 0525 e8bb fa0b a0bb
00000300: da01 0abb 3f5f e8bb 3396 f43a e06b cc3b
00000310: 6287 ad3b 7813 b3bb 7c8f b53b b7ee af3b
00000320: 930d 873b 7fb3 70bb 500e ca3b d76a 863b
00000330: 0da4 7c3b e58d b6bb d672 81bb d162 d1bb
00000340: bff1 27bb cf73 c6bb 2006 c13b ec56 30bb
00000350: 4805 b53b ba1f d33b a018 a6ba 61fa faba
00000360: a39b cc3b 1cfc f13b 37e6 913b 2962 7b39
00000370: 4981 95bb ae9e 8f3b 4e25 f43b 8699 a4b9
00000380: 66ec cb3b 5948 90bb c67e f5bb 92c4 d53b
00000390: fa23 b3bb b149 8d3b 6146 21bb a6b2 a9bb
000003a0: 9428 fd3b 5a3f bb3b 5c9a b93b 5d39 9b3b
000003b0: 1105 baba e67b 0e3b b002 633b a8a3 adbb
000003c0: a446 0839 898f dfbb 0735 c53b f096 56bb
000003d0: 9723 e03b 1d4f 1c3a c6e2 3cba ba8b f63b
000003e0: e23d 4dbb 8af1 98bb 5888 4fbb f3cb 7fbb
000003f0: ea0c edba ec21 d4b9 4c5b 4e3a 45f5 4e39

bias f4 [10]
0.0020867398 -0.0037949772 -0.0025564302 0.0039999145 0.00017131235 -0.005844025 0.00582251 -0.0028752235
0.0001960599 -0.0045105815
00000000: afc1 083b 27b5 78bb c889 27bb b711 833b
00000010: 4fa2 3339 3c7f bfbb c1ca be3b 3f6e 3cbb
00000020: 6e95 4d39 80cd 93bb
