models/Demo/LOGS/models/nnet_epoch_3.pt (torch, 765965 bytes, 26 tensors)

weight f4 [12, 3, 5, 5]
000000 7c db 15 3d fd 7d e4 bd 62 61 55 3d 98 23 a6 bd
       0.03658627 -0.11156843 0.052094825 -0.08112258
000010 10 4c e1 bd cc 95 8c 3d 71 2b 02 bd e7 f9 a6 bd
       -0.11000836 0.06864509 -0.03177971 -0.08153134
000020 53 79 98 bd d4 a0 8b bd 2e de 5a 3d 37 34 a7 3d
       -0.07445016 -0.06817785 0.053434543 0.08164256
000030 50 f7 c7 bd d5 aa 8a bc d8 06 6d 3d f5 13 92 3c
       -0.09763968 -0.016927162 0.057867855 0.017831782
000040 b1 f0 3e 3c e5 98 90 bd 17 dc af bd 5d 40 ce bd
       0.011654065 -0.07060412 -0.08586901 -0.1007087
000050 bc 6c 7c bd 13 f4 78 3d 7d 1e 81 3d 75 4a cf 3d
       -0.061627135 0.060779642 0.06304643 0.101216234
000060 c5 31 e8 3d 2f 23 48 bb a6 86 20 bc c9 cb ce 3c
       0.11337618 -0.003053855 -0.009797728 0.025243657
000070 58 d2 93 3c c7 e6 85 bd e2 bf 64 3d 3d 2e c0 3d
       0.018044636 -0.06538158 0.055847056 0.09383819
000080 be 94 d8 3d 17 a2 55 bb 54 68 e1 3d ec 9d 14 3d
       0.10575245 -0.0032597834 0.11006227 0.03628342
000090 70 bd 7e 3d ef 19 09 bc 0a 04 56 bd 54 92 5b 3d
       0.06219238 -0.008367999 -0.052249946 0.053606346
0000a0 95 ab d8 3d 01 38 bc bd 21 7f d1 bd 8e c4 ba 3d
       0.10579602 -0.091903694 -0.10229326 0.09119521
0000b0 e9 48 c4 3d c8 0a 8e bc a2 da c4 3b 10 cb 26 bd
       0.09584219 -0.017339125 0.0060075084 -0.040721
0000c0 12 70 46 3d d0 f5 be 3d 25 35 ae bd 07 be cc bd
       0.048446722 0.09324229 -0.0850623 -0.09997182
0000d0 76 79 59 3d 0e 05 98 bd 38 4e 2e 3b 7d 15 c1 3b
       0.05309435 -0.07422839 0.0026596915 0.005892454
0000e0 55 fc d8 3c 1e bd df bd f9 94 be 3d af 4a 5d 3d
       0.026487509 -0.10924743 0.09305758 0.054026302
0000f0 1a 32 ae bd 90 5f dd 3d 36 e3 d5 3d fd ae c0 3d
       -0.0850565 0.10809243 0.10443728 0.09408376
000100 1e c4 0e 3b 1e 26 da bd c4 84 5a 3d 06 50 80 bd
       0.0021784375 -0.106518015 0.05334927 -0.06265263
000110 fe 81 bd 3c 23 3f 2e 3c 70 e5 a0 bd 3b 37 9a 3d
       0.023133274 0.01063517 -0.07856262 0.075300656
000120 1d 13 c5 bc b4 b4 71 bd 87 37 a2 3d dd 28 e3 3d
       -0.024056965 -0.059010223 0.07920747 0.110917784
000130 8c f8 7d bd d8 b6 e3 bd 1b 8c d9 bd 7c 42 4d bc
       -0.06200461 -0.11118859 -0.10622426 -0.012528058
000140 fa 3d 6d bd 68 e7 dc bb 03 81 b1 ba 4a 43 a5 bd
       -0.057920434 -0.006741453 -0.0013542477 -0.08069475
000150 73 63 f6 3c b1 38 11 3d f6 b5 90 bd 92 49 ad 3d
       0.030076718 0.035454456 -0.07065956 0.08461298
000160 7c 2f b1 3d 7c 24 da bc cb 8b 12 bd d1 aa 37 3c
       0.08651635 -0.026628725 -0.03577785 0.011210159
000170 96 fb 15 3d f5 eb c6 3d 44 53 4c 3d 6e 59 ae 3d
       0.036616884 0.09712974 0.049884096 0.08513151
000180 92 45 d6 bd 6a 7d ab 3d 7d 49 d0 3d f4 5a 7a bd
       -0.10462488 0.0837353 0.10170267 -0.061121896
000190 e7 cf ce bc c6 a8 d0 3d 4d e0 2b 3c 1d 14 55 3c
       -0.02524562 0.10188441 0.010490489 0.013005284
0001a0 48 8c c5 bd 7d a2 e5 bd 75 a4 71 bc 87 df cc bd
       -0.09645897 -0.11212633 -0.014748682 -0.10003572
0001b0 bb ed 44 3d de f7 95 bc f0 36 12 3b 37 7e 58 bd
       0.04807828 -0.018306669 0.0022310577 -0.052854743
0001c0 6c 44 c9 bc f1 97 a7 bd 83 db 68 bd 8f 10 78 3b
       -0.024568759 -0.081832774 -0.056849968 0.0037851667
0001d0 64 99 63 bc a8 8f f0 3b ef bb 26 bd 22 9f 46 3d
       -0.013891552 0.007341344 -0.04070657 0.048491605
0001e0 d6 56 e9 3c 82 c4 9e 3d a1 6f c2 bd 9c 2a 24 3d
       0.02848379 0.07752325 -0.09493948 0.040079698
0001f0 28 b9 40 bd c1 55 5b 3d eb 4a d5 3d 57 25 83 bd
       -0.04705158 0.05354858 0.1041468 -0.064036064
000200 48 22 e2 3c 6d 94 63 3c 50 c4 d4 3d c2 56 b8 bd
       0.027604237 0.013890368 0.10389006 -0.09000923
000210 e1 71 17 3d ef 94 5d 3d d6 d5 b6 bd 98 64 5d 3d
       0.036973838 0.054097112 -0.08927505 0.05405101
000220 88 d9 77 3c 76 51 d1 bd bd cd c9 bd d3 1c 1f bd
       0.015127547 -0.102206156 -0.098536946 -0.03884585
000230 4e d1 fe bc 04 65 05 3d 68 62 65 bd c7 12 dd bd
       -0.031105664 0.03256704 -0.05600205 -0.10794597
000240 94 57 de bd fe e5 7c bd a0 26 d6 bd 28 6e c7 3c
       -0.10856548 -0.061742775 -0.10456586 0.024344519
000250 0d 01 3f 3d a8 9e 6d 3d f2 d8 c1 3d 2f 30 4c bd
       0.04663186 0.058012635 0.09465207 -0.04985064
000260 b0 b9 a5 bd d3 09 62 bd d2 74 c9 3c 05 db e1 bd
       -0.08092058 -0.05518515 0.024591837 -0.11028103
000270 93 f7 36 ba d4 bd b6 bd 97 f7 7e 3d 98 c4 8a bc
       -0.00069796405 -0.089229256 0.06224784 -0.016939446
000280 a5 43 29 bc 28 57 cd bd 63 67 c0 bd 8c d6 f3 bc
       -0.010331069 -0.10026389 -0.093947195 -0.02976539
000290 e1 35 ca 3d 53 9c 80 bd c6 9a 54 bd 12 94 56 bd
       0.09873558 -0.062798165 -0.051905416 -0.052387305
0002a0 f0 43 32 bc ee 48 b0 3d 5c 10 ec 3d 2d c0 e8 bd
       -0.010880455 0.0860766 0.11526558 -0.113647796
0002b0 07 52 0c 3d 5b 79 c2 3c 62 33 27 bd e0 20 ae 3c
       0.034257915 0.023739507 -0.040820487 0.02125591
0002c0 21 55 f4 3b c3 54 b4 3d 90 d7 91 3d 73 a7 d4 3c
       0.007456437 0.088052295 0.071211934 0.025958752
0002d0 a8 eb c6 3d a5 bc 3c 3d 18 50 a1 3c fa a7 b2 bc
       0.097129166 0.046078343 0.019691512 -0.021808613
0002e0 b4 b5 63 3d ef 41 ae bd 2b 97 d9 bd a4 b2 24 bd
       0.055593207 -0.085086696 -0.10624536 -0.040209427
0002f0 1d db be bd 70 27 b7 bd 89 11 19 3d 31 4f ce bd
       -0.09319136 -0.08943069 0.03737024 -0.10073698
000300 aa 48 ab bc 63 f0 aa bc e0 42 52 bd 98 3e c6 bd
       -0.020908672 -0.020866578 -0.05133331 -0.096799076
000310 9b 42 da 3d 35 b2 ca bc 11 8e 2d bb a9 02 a6 3b
       0.10657235 -0.024743179 -0.0026482383 0.005066235
000320 56 b1 d3 bd a7 9b 90 bd a4 c9 d6 bd 32 b4 57 bc
       -0.103365585 -0.07060938 -0.10487679 -0.0131655205
000330 be f2 fc bc db 61 bb bc 7b 68 9a bd 31 4c 95 bd
       -0.030877467 -0.02287381 -0.07539459 -0.07289923
000340 4c 7d cd ba db 38 dd 3d 8b 02 b2 bd 39 e1 0c bd
       -0.00156776 0.1080186 -0.08691891 -0.034394477
000350 fe db 56 bd de 93 df bd 32 05 e8 3b 03 12 ab bd
       -0.052455895 -0.10916875 0.0070806975 -0.08353045
000360 93 48 5d 3c 40 d0 14 bd 44 2a e4 bd b1 93 7f bd
       0.013506073 -0.036331415 -0.11140874 -0.06239671
000370 a9 19 71 39 81 65 4f bd 7a e3 d2 bd 13 1d ea bd
       0.0002299311 -0.05063391 -0.10297294 -0.11431327
000380 42 c0 71 bc 73 4b 4b bb 10 21 ca 3d 6e 18 a6 3c
       -0.0147553105 -0.0031020313 0.098695874 0.02027532
000390 0f 26 5c 3d 8c 67 ac 3c 79 3a d7 3d ac 79 b6 bd
       0.053747233 0.021045469 0.105092 -0.08909926
0003a0 92 57 b9 3c 11 b8 94 3c 15 d2 13 bc c1 6c 34 bd
       0.022624765 0.018154176 -0.009022255 -0.04404903
0003b0 16 c8 ca 3d 0e 00 ca bb ef 4e ea 3d 4c 01 41 bb
       0.099014446 -0.0061645573 0.11440837 -0.0029450236
0003c0 a2 1d fb 3c 3e ab 5e bd a2 8d bc bd 36 3e 46 3c
       0.030653778 -0.054362528 -0.09206702 0.012099793
0003d0 c3 e9 2b 3c e9 22 8f bd da 96 dd 3d 16 96 84 bc
       0.010492745 -0.069890805 0.10819788 -0.016184848
0003e0 8c 56 89 bc 64 b2 5a 3d 5b 20 82 bd 4d 81 43 bd
       -0.016764902 0.053392783 -0.063538276 -0.047730733
0003f0 85 64 b9 bd e2 cd 0a bc b8 ed bd bd 05 c1 e0 3c
       -0.09052376 -0.008471938 -0.09273857 0.027435789

bias f4 [12]
000000 1a fc db 3d af da 8f bd c5 25 2b bd 98 53 19 3d
       0.10741444 -0.070241325 -0.041784067 0.037433237
000010 97 1a 73 bd 37 ed e4 3b 6c 1d c6 3d 7a 3e 92 bc
       -0.05935153 0.006986286 0.096735805 -0.017852057
000020 d5 58 10 bc ee 34 c5 bd 4f c8 2b 3d b5 39 c0 3d
       -0.008810242 -0.09629236 0.041939076 0.09386007

weight f4 [12]
000000 c9 fe 7f 3f c5 ff 7f 3f ba fb 7f 3f 2b 00 80 3f
       0.99998146 0.9999965 0.9999348 1.0000051
000010 05 ff 7f 3f 7f fb 7f 3f e8 fb 7f 3f fe ff 7f 3f
       0.99998504 0.9999313 0.99993753 0.9999999
000020 0e 00 80 3f 04 00 80 3f 11 00 80 3f 21 00 80 3f
       1.0000017 1.0000005 1.000002 1.0000039

bias f4 [12]
000000 b8 2e 9a 38 8f db 1c b7 9e d5 d6 b8 ec 0f e4 38
       7.351994e-05 -9.349445e-06 -0.000102441045 0.00010874853
000010 ab 2c 2e 38 64 2a b0 b8 e0 17 db b8 6c 41 c9 b7
       4.1526433e-05 -8.40023e-05 -0.00010447181 -2.3991532e-05
000020 82 9b 85 38 e9 81 66 b8 72 25 28 37 95 52 bd 38
       6.3709e-05 -5.495726e-05 1.0022299e-05 9.0276044e-05

running_mean f4 [12]
000000 c6 99 66 3e 5e 4d 98 be 82 71 2e bf f8 89 92 3b
       0.22519597 -0.29746526 -0.6814195 0.0044720136
000010 69 42 69 3e 14 1b 71 3d e2 05 94 3e df 0b f4 3c
       0.2277924 0.058863714 0.28910738 0.029790817
000020 f0 0f fe 3b 39 ca 3f 3e 11 73 59 3e de 05 88 3e
       0.0077533647 0.18729486 0.212353 0.26566976

running_var f4 [12]
000000 36 70 3e 3c b9 e1 02 3d 06 c0 72 3e bb 23 00 3b
       0.011623433 0.031953547 0.23706064 0.0019552547
000010 28 d7 5a 3d a0 31 4b 3b d4 9c f0 3c b7 a9 60 3b
       0.053427845 0.003100492 0.029371656 0.0034280845
000020 4a e2 60 3c 9f 01 3e 3d 5c 7a 87 3c 67 a4 c6 3c
       0.0137258265 0.046388265 0.016537838 0.024248315

weight f4 [12, 12, 5, 5]
000000 24 02 43 bd f8 ea 5d bc fe 8e 65 3d 8d 71 e2 3a
       -0.047609463 -0.01354479 0.05604457 0.0017276272
000010 37 3b 62 bb 19 35 b4 bc b6 62 93 bb 09 7e 3d 3c
       -0.0034520158 -0.021997975 -0.0044978512 0.011565694
000020 d9 87 36 bd 7d 5a 4f bb 1a db 88 3c 27 d0 4f 3c
       -0.04456315 -0.0031639629 0.016706038 0.012683905
000030 54 ae a8 3c 8f 8e a3 3c 7c 5c c0 bb 0e 01 9f 3c
       0.020590939 0.019965438 -0.0058704 0.019409683
000040 ff 0d 26 3d 60 8a 97 bc 04 86 3b bd b2 f2 99 3c
       0.04054069 -0.0184986 -0.045782104 0.018792484
000050 63 4c 20 3d a6 76 97 3c ff fd 19 bd 63 89 f5 3c
       0.039135348 0.018489193 -0.037595745 0.029972738
000060 f4 be b0 3b 90 d8 6a 3d 71 ea 39 bd 52 bc fd bc
       0.005393857 0.057335436 -0.045389596 -0.030973587
000070 59 ba 2f bc 89 e0 3f bd a3 5d 48 3d 51 dd c3 bc
       -0.010725581 -0.046844993 0.048917424 -0.023909243
000080 72 2c 0a bd ea 60 c1 3c 31 27 00 3d 90 f5 3b 3d
       -0.033733793 0.023605783 0.031287376 0.045888484
000090 8c 00 b0 3c ad 15 b4 bc 57 55 17 3d 7a 74 07 bd
       0.021484636 -0.021982992 0.03694662 -0.033070065
0000a0 7b 3b 21 3d 51 6b e9 bb 1e 54 b0 3c 64 60 83 3c
       0.039363366 -0.007123389 0.021524485 0.016037174
0000b0 cf d2 d4 bc d2 e8 79 bc 45 49 05 3d 0f 47 84 ba
       -0.025979428 -0.015253263 0.03254058 -0.0010091978
0000c0 9b ee 03 bd cc a2 ca bc 45 c7 08 bd 82 7a 1f bd
       -0.032209974 -0.02473583 -0.033393163 -0.038935192
0000d0 62 21 80 bc 73 78 4f 3d 2e 76 cd bc 17 fb 9d bc
       -0.015640918 0.05065198 -0.025080767 -0.019284768
0000e0 d0 bc 7f bc 66 8e fc bc b0 16 05 bc fe 78 ee bb
       -0.015608981 -0.03082962 -0.008123085 -0.007277607
0000f0 d1 c7 68 3d 56 c8 00 3d 83 15 9f 3c 0f d6 16 ba
       0.056831185 0.031441055 0.019419437 -0.0005753943
000100 4a 60 c3 3b a0 eb 68 bc 97 33 17 bc 45 d8 44 3d
       0.0059624063 -0.014216334 -0.009228609 0.048057813
000110 d8 66 02 bc 53 7d 22 bc 16 18 4e 3d fb c4 a4 3a
       -0.00795909 -0.009917575 0.05031594 0.0012570912
000120 9d c7 6b 3d f4 45 1c 3c 3e 01 66 3c 83 06 1b bd
       0.057563413 0.0095381625 0.014038382 -0.037848007
000130 e5 3b 41 bd 16 6a f4 3c 70 40 05 3d 81 9d 62 3d
       -0.04717626 0.029835742 0.032532156 0.05532599
000140 a4 40 be bc d3 39 56 bd 8f 46 8b bb 0a d8 2e 3d
       -0.023224182 -0.05230124 -0.0042503546 0.0426865
000150 8a ca 53 bd f7 b0 5f 3d da 20 55 3d d4 27 22 bd
       -0.05170683 0.054612126 0.052033283 -0.039588764
000160 2f 28 35 bc b4 22 fa 3c 26 78 28 3d dc c7 6a bd
       -0.011056944 0.030534126 0.041130207 -0.057319507
000170 9e 3a 47 bd cd c6 fd 3c 0b 88 19 3c ae c2 98 bb
       -0.048639886 0.030978585 0.009370814 -0.0046618795
000180 8d 6e 58 3d b6 73 4f bd e5 a5 22 bd 07 4f e8 bc
       0.052839804 -0.05064746 -0.03970899 -0.028357996
000190 b1 5b 69 3d 7a eb 37 bc a9 08 56 3b e0 e9 5c 3c
       0.05697221 -0.011225576 0.003265897 0.0134834945
0001a0 8e 98 35 3d 23 f5 52 3d 47 9b 3a 3d 5a 78 5f 3d
       0.04433494 0.05150331 0.04555824 0.054558136
0001b0 52 71 67 bb 19 f2 01 bd a7 c2 05 3d 1c f7 48 3d
       -0.0035315347 -0.031725023 0.032656338 0.049063787
0001c0 f0 2f b4 bb 72 7d f2 3c c0 c4 c0 bc c3 91 3a bc
       -0.0054988787 0.029600833 -0.023531318 -0.011387291
0001d0 cd df 86 3c 1a b4 6c 3d b5 90 e2 3c c9 af a7 3b
       0.016464138 0.057788946 0.027656892 0.005117391
0001e0 67 8f 8d 3c 2e 10 67 bc df a5 15 bc 04 f7 cd 3c
       0.017280294 -0.014102979 -0.009133785 0.0251422
0001f0 14 f8 8c bc d0 b5 39 bd b0 26 d3 bc bf 47 b6 bc
       -0.017208137 -0.045339406 -0.025775284 -0.022251008
000200 df 05 3f 3d 38 20 4b bd 57 9d 38 bd 67 2f 16 3d
       0.04663646 -0.049591273 -0.045071926 0.0366663
000210 ad f1 0f bd 42 b9 2e bc 9b 5e d2 bc 5c f9 35 3d
       -0.03514259 -0.010664286 -0.025679877 0.04442726
000220 df 06 57 3c 76 12 a0 bc a6 c4 83 bc a1 3b f5 bb
       0.013124197 -0.019540053 -0.01608498 -0.007483915
000230 6c e8 cd bc 1d db 29 bd 8a c1 f5 bc 2a 9b f0 3c
       -0.025135241 -0.04146873 -0.029999513 0.029370863
000240 ae c5 02 bd 6c a3 6a 3d 4b 14 29 bd 68 c1 ec 3b
       -0.031926803 0.057284757 -0.04127912 0.0072252043
000250 53 86 37 bb 3e 6d e9 3b 93 eb e2 39 85 51 44 bd
       -0.0028003647 0.0071236184 0.00043281596 -0.047929306
000260 09 cd 63 bb 21 cb 77 bc 35 4e 0c bd 0e bf 4f bd
       -0.0034759662 -0.015124113 -0.03425427 -0.050719313
000270 c3 8f 33 3d df a9 18 3a 6f 2c 48 3b 97 ff a7 3c
       0.043838274 0.00058236526 0.0030544063 0.020507617
000280 1f 4a 43 bd 00 39 d6 bc 07 34 d6 bc d5 4f 17 bd
       -0.04767811 -0.026150227 -0.026147855 -0.036941368
000290 5c 72 fe ba 6b 11 37 3d 9f 16 44 bd f5 c7 a3 3c
       -0.0019412744 0.044694345 -0.047873136 0.019992808
0002a0 04 31 ba bc f2 83 07 bd bd 7a c1 3c f7 fa ec bc
       -0.02272845 -0.033084817 0.023618096 -0.028928263
0002b0 08 aa cf 3c 64 89 64 3d e6 12 22 bd 3c cd ff bc
       0.025349632 0.05579509 -0.039568804 -0.031225793
0002c0 d0 76 c6 bc 83 95 53 3d 72 a3 2d bc 9a a3 45 bd
       -0.024226576 0.051656257 -0.01059805 -0.048251726
0002d0 71 dd 13 3c fa 2e 66 3d b3 45 b0 3c bf 50 2a 3d
       0.009024964 0.056197144 0.02151761 0.04158091
0002e0 fe f4 c0 3c 22 28 4d bd dd 47 45 bd 4e f1 e8 bc
       0.023554321 -0.0500871 -0.048164237 -0.028435376
0002f0 e2 a7 9e bc 93 ce ca 3c 25 5e 40 bd e1 23 03 bd
       -0.019367162 0.024756705 -0.046964783 -0.03201664
000300 4f 7a d6 bc a1 6a 50 3d 08 8e 10 3d 35 52 a6 3c
       -0.026181368 0.05088294 0.0352917 0.020302871
000310 8c ea 86 3c 05 80 25 bb 50 7d 47 bd 2a 24 17 3d
       0.016469263 -0.0025253308 -0.04870349 0.036899723
000320 7b c3 a5 bb ef df 28 3d 01 28 17 3a a7 3d 79 3c
       -0.0050587035 0.041229185 0.0005766154 0.015212453
000330 f2 8a 4c 3d 08 53 07 bd b0 1f 01 bc 92 82 65 3d
       0.049937196 -0.03303817 -0.00788109 0.056032725
000340 82 91 55 bd 41 6b d0 3c 6d 6f 07 bd ef 11 55 3d
       -0.05214072 0.025441768 -0.03306525 0.052019056
000350 ff 29 96 3b 2a 77 89 bc 6e e9 bb 3c 87 c4 4e bd
       0.004582643 -0.016780455 0.022938456 -0.05048039
000360 be fa 18 bd 24 b8 66 3d af 08 32 3d c3 e5 a1 3b
       -0.0373485 0.056327954 0.043465313 0.00494072
000370 e3 b3 04 bd 0c 6f 05 3d b6 19 92 3c fb c4 26 3d
       -0.032398116 0.032576606 0.017834526 0.0407152
000380 c9 9b 42 bd fb 72 21 3d c6 a8 9e 3c b8 9e 66 bd
       -0.04751185 0.039416295 0.019367587 -0.05630371
000390 37 6e 18 bd be 6f 28 bd 78 33 69 3d 5d 08 70 3c
       -0.037214484 -0.04112219 0.05693385 0.014650431
0003a0 e6 30 b2 bc 3d e8 a0 3c e3 f0 0b 3d 66 84 ba bc
       -0.021751832 0.01964199 0.034165274 -0.02276821
0003b0 f7 04 02 bb 74 19 b4 3c e2 66 e0 3c 1a c4 b6 3c
       -0.0019839385 0.021984793 0.027392808 0.022310305
0003c0 9b ae a7 bc d5 23 a9 3b 4e 5a 66 bd 81 93 af bc
       -0.020469 0.005161742 -0.056238465 -0.02143264
0003d0 90 5f f6 3c d7 b3 4f bd 0a c2 5e bd ee 99 42 3d
       0.030074865 -0.050708618 -0.05438427 0.04751008
0003e0 20 70 df 3c f7 57 f3 3c 8f 4f 28 bd 8b 5d 93 bb
       0.027275145 0.02970503 -0.041091498 -0.004497235
0003f0 61 f2 79 3c 2f 84 1c 3c d2 01 74 3c e6 72 53 bd
       0.015255542 0.009552999 0.014893012 -0.051623248

bias f4 [12]
000000 04 22 1c 3c 05 b2 20 3c dd b9 59 3d b2 f2 1e bd
       0.009529594 0.009808068 0.05315577 -0.03880567
000010 df ee 65 3d 73 b3 6d bb b4 5b 42 3b 9e 00 db 39
       0.05613601 -0.003627029 0.002965671 0.00041771395
000020 31 25 3a bd 45 6e 55 bd a6 c1 f8 bc 75 0f 8c bc
       -0.045445625 -0.052107114 -0.030365776 -0.017097214

weight f4 [12]
000000 10 00 80 3f 09 fb 7f 3f 34 00 80 3f 05 00 80 3f
       1.0000019 0.99992424 1.0000062 1.0000006
000010 12 00 80 3f 0f 00 80 3f 02 fc 7f 3f 0c fb 7f 3f
       1.0000021 1.0000018 0.9999391 0.9999244
000020 87 fc 7f 3f 04 00 80 3f 14 00 80 3f 1e 00 80 3f
       0.999947 1.0000005 1.0000024 1.0000036

bias f4 [12]
000000 98 29 89 b8 69 67 4b b8 99 93 cc 38 00 4f bc b8
       -6.5404165e-05 -4.849528e-05 9.75497e-05 -8.9792535e-05
000010 50 b5 93 37 e4 b6 26 37 9c 51 66 b8 2b 3a c8 b8
       1.7608196e-05 9.936954e-06 -5.4912278e-05 -9.547578e-05
000020 d3 e5 34 b8 47 88 c6 b6 00 e0 98 38 b2 5c b5 38
       -4.3129385e-05 -5.9167246e-06 7.289648e-05 8.6480184e-05

running_mean f4 [12]
000000 6a 5f c3 3d e2 e9 33 3e 17 20 dd 3e ec e4 8e 3d
       0.09539683 0.17569688 0.43188545 0.06977257
000010 24 e3 92 3e ca 03 35 bd 98 80 85 be ee 02 09 be
       0.2868892 -0.044193067 -0.26074672 -0.13380024
000020 7c 79 01 3e fd 64 3f be 77 36 04 be fe 06 14 be
       0.12643999 -0.18690868 -0.12911402 -0.14455792

running_var f4 [12]
000000 65 c9 37 3d e9 32 e8 3d ef 53 ba 3e f9 97 74 3d
       0.0448698 0.11337835 0.3639216 0.059715245
000010 c1 8d 68 3e d0 68 02 3e e6 1b 9c 3d f0 f5 8a 3d
       0.22710325 0.12735295 0.07622509 0.0678519
000020 c3 ad c0 3d 0f 42 69 3d d0 5e 66 3e f4 99 de 3d
       0.094081424 0.056947764 0.22497106 0.10869208

weight f4 [24, 12, 5, 5]
000000 8b 47 95 3c c1 e6 a1 3c 40 d4 c8 bc 95 84 7f 3c
       0.01822259 0.019763352 -0.024515271 0.015595575
000010 65 11 4f bd cc bc 0f bd b4 a8 1d bd d2 90 5e bd
       -0.050553698 -0.03509216 -0.038490966 -0.05433733
000020 eb 66 84 3c f9 86 df bc 44 12 45 3c a4 92 2c 3d
       0.016162356 -0.02728604 0.012028281 0.042132035
000030 5d 83 56 bd ed a8 2f bd 2d e9 48 bd 74 af a4 bc
       -0.05237137 -0.04288571 -0.0490505 -0.020103194
000040 b0 16 0d bd 83 8c 60 3d 35 d5 ae 3c 6d a0 19 3d
       -0.034445465 0.054821502 0.0213419 0.03750651
000050 ce c1 5c 3d ad 0f 12 3d 38 5a 37 3d b3 b2 4b bd
       0.053895764 0.03565948 0.044763774 -0.049730968
000060 12 2b 29 bd b2 d2 c3 3b c7 60 ef 3c c4 27 ca 3c
       -0.04130084 0.0059760446 0.029220952 0.024677165
000070 51 df 3f 3d 75 3c b4 bc e7 30 06 3d d0 5e 8b 3c
       0.04684383 -0.022001484 0.03276148 0.017012984
000080 d0 f9 f5 3c b9 43 01 bd af e0 2a 3c f2 ed a8 3c
       0.030026346 -0.031558726 0.010429545 0.020621274
000090 03 b8 0b bb 28 3b 26 bd 62 e4 f7 3c 1e 58 23 bd
       -0.0021319396 -0.04058376 0.030260269 -0.039878957
0000a0 30 7c 9a 3c 32 98 3c 3c 16 73 15 bd 2a 3c 14 3d
       0.018858045 0.011510896 -0.036486708 0.03619019
0000b0 62 4b 9f 3a 70 dd 0c bd cf 9e 5f 3b e7 ef 31 3d
       0.0012153203 -0.034390867 0.0034121757 0.04344168
0000c0 7e 49 f5 3b 3f f7 61 3d 7a c4 26 3d 75 de 79 3c
       0.0074855676 0.055167433 0.04071472 0.015250792
0000d0 b7 09 3f 3d ce c7 26 3d 24 10 ab bc 24 5f a4 3c
       0.046640124 0.040717892 -0.02088172 0.020064898
0000e0 64 31 32 3c 44 45 18 bd bc 95 34 bc ba 97 82 bc
       0.010876033 -0.03717543 -0.011022028 -0.01594149
0000f0 83 31 f9 bc fe fc 1e bd f8 cd 4d bb 1c a4 97 bb
       -0.030419117 -0.03881549 -0.0031403285 -0.0046277177
000100 f7 ef c1 bc 76 e4 c7 bb fd c2 16 bd fb 00 37 bd
       -0.023673994 -0.0061002327 -0.03680705 -0.04467867
000110 1c e2 ff 3c f6 b3 3f bc f3 ed c1 3b 8d 0f 4a bd
       0.031235747 -0.011700621 0.0059182583 -0.049331237
000120 e6 f7 53 3c 56 ee 27 3d f5 7b 16 3d fc 3d 44 bd
       0.012937522 0.04099878 0.03673931 -0.047910675
000130 ec 1d b5 bc 9a a7 3c 3d b3 fc 96 bc 05 f0 4a bb
       -0.022108994 0.046058275 -0.018431043 -0.0030965817
000140 d5 c5 9f bc 52 c4 ae 3c 8c 1c 31 3c b0 e2 f3 3c
       -0.019503513 0.021333847 0.010810029 0.029771179
000150 ef 1f 0e bd 33 06 c2 bc 91 47 0f 3d 94 23 29 ba
       -0.034698423 -0.023684597 0.03498036 -0.000645214
000160 ca 5a fc 3c ec 6c 5b 3c 03 36 58 3d 26 3e fb 3b
       0.03080501 0.013392668 0.052785885 0.007667321
000170 df 15 3f bd 08 52 5f 3d eb f2 2d 3b 63 dd 80 3c
       -0.046651717 0.05452159 0.0026542495 0.015730565
000180 fe 10 3d bd 81 e8 65 3d 18 fd 2d 3d 3e 8d 07 bd
       -0.046158783 0.056129936 0.042477697 -0.033093683
000190 c0 af b6 bc f8 5e 5b 3d 55 02 40 3d 20 6d 37 bc
       -0.022300601 0.053557366 0.046877224 -0.011195451
0001a0 90 f0 5b 3b 73 12 3d bd 69 6b 7b 3c c6 11 aa 3b
       0.0033560134 -0.046160173 0.015345433 0.005190107
0001b0 c9 b7 4e 3c fb ee 5a 3d e3 a6 29 bc 8a df 8b bc
       0.01261706 0.053450566 -0.01035473 -0.017074365
0001c0 f9 6f bc 3c e5 2c 1e bc d6 a7 1e 3d 55 84 b4 3c
       0.023002611 -0.009654258 0.03873428 0.022035757
0001d0 2d 30 cb bc 0d fc 63 bc b0 4f 2e 3c f7 c7 b5 3b
       -0.024803245 -0.013915074 0.010639116 0.0055475193
0001e0 3d 02 59 3d 16 44 f5 bc fd da a1 3c ac e4 85 bc
       0.05298065 -0.029939692 0.019757742 -0.01634439
0001f0 d1 6a 4c 3d 68 4a 59 bd 32 56 19 3c a2 e1 50 bd
       0.049906556 -0.053049475 0.0093589295 -0.05099643
000200 27 e8 0e 3b 4e 31 78 bc 55 23 08 bc f6 75 3f bc
       0.0021805854 -0.015148474 -0.008309205 -0.011685839
000210 e0 0c 29 bd d3 fb 67 bc 4b 19 9e 3c 1e 88 2a 3d
       -0.041272044 -0.014159161 0.01929917 0.041633718
000220 78 5a bf bc 88 71 61 bd dc bd ab 3c f3 74 69 bd
       -0.023358569 -0.055039912 0.020964555 -0.056996297
000230 56 66 d4 bc d4 32 6f bc 06 6e e9 bc 63 0a 15 3d
       -0.025927704 -0.014599521 -0.028494846 0.03638686
000240 5b 6a 90 bc 41 6f 07 bd 50 0e 30 bd 3d e4 43 3c
       -0.01762884 -0.033065084 -0.0429824 0.011956272
000250 44 b4 18 bd 31 d7 dd 3c b6 91 50 3d 27 ad a4 3c
       -0.03728129 0.02708015 0.05092021 0.020102097
000260 de 8f 3f 3d d7 e5 91 bc 5a d3 29 bd d9 aa 1b bd
       0.04676806 -0.017809791 -0.041461326 -0.03800473
000270 83 4f cc bb d2 47 b5 3c 50 9a b2 bc c1 c9 3b bd
       -0.0062350645 0.022128973 -0.021802098 -0.045846704
000280 c8 71 2e 3d c9 6b 2b 3d 79 00 0f bd e8 50 b0 3b
       0.04258898 0.04185084 -0.03491256 0.0053807385
000290 3f 42 48 3d 5c 0a 15 3c ae 50 29 bd 77 1b 3a bd
       0.048891302 0.009096708 -0.041336708 -0.04543635
0002a0 1c ed 54 3d 51 75 41 3d d7 da 0e bd 59 ad 34 3d
       0.051983938 0.047231022 -0.03487667 0.04411063
0002b0 ad 1a 56 bd 60 f6 69 bd 94 95 5a bd 65 8c c6 bc
       -0.052271534 -0.057119727 -0.053365305 -0.024236867
0002c0 c4 da 0e bd 14 28 ea bc c5 4a cc bc cf 23 0c bd
       -0.0348766 -0.028583564 -0.024937997 -0.034213837
0002d0 4f ad 21 3c 62 bf 32 3d 32 e1 44 3d 03 50 3c 3d
       0.00986798 0.043639548 0.048066325 0.045974743
0002e0 d7 fd 3d 3d 9f 99 15 3d 90 9a 51 3c e4 ae ce 3c
       0.04638466 0.036523458 0.012793198 0.025229879
0002f0 a6 49 df bc e0 a7 01 3d 4d 06 c7 bc 03 6d 63 3c
       -0.027256798 0.03165424 -0.024294997 0.013880971
000300 4b 0d 14 3d 53 23 4d ba 79 c5 bf 3c d5 83 09 bd
       0.03614549 -0.0007825393 0.023409592 -0.03357299
000310 bd 3e ed 3b 28 0a 68 3c 9d ac b2 3c 71 54 fe 3c
       0.007240145 0.014162578 0.021810824 0.031046124
000320 0a 65 dc bc fd e9 43 bd b3 85 0f 3d 1a f0 30 3d
       -0.026903648 -0.04783057 0.035039615 0.04319773
000330 6b 36 1c bd f7 b2 1c bd 9f 02 39 3d 5e a9 f6 ba
       -0.038137835 -0.03825661 0.045168515 -0.0018818786
000340 f2 80 63 3d 67 32 49 3d e8 0d 2e bd 67 2d 04 3d
       0.055542894 0.049120333 -0.04249373 0.03226986
000350 11 82 81 bc 73 c2 96 bc 1c 13 eb 3c 0d 02 96 bc
       -0.01580909 -0.018403267 0.028695635 -0.018311525
000360 0e 0b 8f 3c 4e 68 2a bd 83 bb 01 bd 9b 3d 32 bc
       0.017461326 -0.04160338 -0.031672966 -0.010878946
000370 c8 5a d1 3b 2f 55 2b 3d 99 3c 02 bc 80 a4 5d 3c
       0.006388996 0.041829284 -0.007949018 0.013527989
000380 a7 1f d3 3c d3 0a b2 bc ec ca 1c 3c 73 e1 ab bc
       0.025771929 -0.021733677 0.009569865 -0.020981526
000390 2b ec e7 3c a8 bb 2b bd 6e d7 2c 3d 0b 05 c5 3c
       0.028310856 -0.04192701 0.042197637 0.024050256
0003a0 98 24 c7 3c 55 f3 05 3d 3c 90 52 bd 23 ec 5e bb
       0.024309441 0.032702763 -0.051407084 -0.003401526
0003b0 ef a2 f9 3c 92 e5 fe 3c 41 40 68 bd 8e 82 2d 3d
       0.0304732 0.031115327 -0.056701902 0.042360835
0003c0 cf e2 13 bd 52 f5 df 3b 06 07 95 bc 23 60 6b bd
       -0.036104973 0.0068346644 -0.018191826 -0.05746473
0003d0 00 f3 9e 3b 87 c4 26 bc cb 3a e2 bb a3 0b 26 3d
       0.004850745 -0.010178692 -0.0069039813 0.04053844
0003e0 92 b4 cc bc 5b 73 c3 bc ca a4 fa 3b 9b dc 57 bd
       -0.024988446 -0.023858717 0.007649039 -0.05270062
0003f0 b7 21 0a 3d 38 3c ba bc fa b4 d5 3c 45 a0 c2 3b
       0.03372356 -0.022733793 0.026087273 0.005939516

bias f4 [24]
000000 b7 60 47 bd 7e f7 fa 3c 23 88 d7 bc 34 b5 65 3d
       -0.04867622 0.030635592 -0.026310032 0.056081012
000010 5b 54 30 3d 17 41 a2 3c 66 2a 18 3c 16 38 c4 bc
       0.043049198 0.019806428 0.009287452 -0.023952525
000020 fe 6d d4 3c a1 37 06 bd 60 3e 84 bc 63 47 a0 3c
       0.025931355 -0.032767896 -0.016143024 0.01956529
000030 93 d5 7f bc f2 45 13 3d dd eb 1a 3c ec 3b d4 3c
       -0.015614885 0.035955377 0.009455648 0.02590748
000040 d3 1f 52 3d 38 e6 02 bc c6 d8 11 bd d5 ba 47 3c
       0.05129988 -0.007989459 -0.035607122 0.01219054
000050 1a db b5 3c 4f 71 32 3c 14 c3 37 bd 98 de ff 3c
       0.022199202 0.010891273 -0.044863775 0.03123407

weight f4 [24]
000000 b0 fc 7f 3f 0e ff 7f 3f ee fb 7f 3f 08 00 80 3f
       0.99994946 0.9999856 0.9999379 1.000001
000010 1e 00 80 3f 15 00 80 3f f4 00 80 3f 23 fc 7f 3f
       1.0000036 1.0000025 1.0000291 0.99994105
000020 05 00 80 3f 9d ff 7f 3f 12 00 80 3f c3 fd 7f 3f
       1.0000006 0.9999941 1.0000021 0.99996585
000030 dd fc 7f 3f 04 00 80 3f 02 00 80 3f 09 00 80 3f
       0.99995214 1.0000005 1.0000002 1.0000011
000040 76 ff 7f 3f 00 00 80 3f 22 00 80 3f d7 fa 7f 3f
       0.9999918 1.0 1.000004 0.99992126
000050 0d 00 80 3f bb fb 7f 3f 02 00 80 3f 01 00 80 3f
       1.0000015 0.99993485 1.0000002 1.0000001

bias f4 [24]
000000 3b aa 33 b8 bb 66 0a b8 e0 c1 39 b6 e5 14 ab 37
       -4.2835465e-05 -3.299744e-05 -2.7679998e-06 2.0394518e-05
000010 2c b8 86 38 3c eb f1 b6 41 d4 25 39 6a 8e 94 b8
       6.4239226e-05 -7.2097446e-06 0.00015814697 -7.0837166e-05
000020 a0 80 40 38 d8 8b 7c 38 39 20 6d b8 ca 47 7a b8
       4.589616e-05 6.021172e-05 -5.6535213e-05 -5.9671504e-05
000030 73 dd c4 b8 1f 7d c0 37 c3 31 87 38 88 36 5e 38
       -9.3872564e-05 2.2946448e-05 6.4465705e-05 5.297971e-05
000040 a3 41 27 b7 8c 38 27 b8 f4 d1 44 38 7d 23 ad b8
       -9.969258e-06 -3.9868566e-05 4.6925576e-05 -8.255893e-05
000050 08 72 8c b8 c2 5f 87 b8 fe 97 20 38 92 6f 8a 38
       -6.69696e-05 -6.455138e-05 3.8288526e-05 6.6011344e-05

running_mean f4 [24]
000000 5c 93 21 3e ca 82 6e be ec 05 2d 3f 4e 65 67 3d
       0.1577887 -0.2329208 0.6758716 0.056493096
000010 ab c6 e1 3b c8 47 10 be 3b b1 14 3f de 1c 5c 3e
       0.006890138 -0.14089882 0.5808293 0.21495387
000020 35 67 48 bf 3e f4 0d bd 7b 9d 6e 3e 64 6c dd 3e
       -0.7828248 -0.034656756 0.23302262 0.43246758
000030 9e 8b ac 3d 85 05 e3 3e 0a d6 2a be b6 4b cd be
       0.08425067 0.4434015 -0.16683212 -0.40096825
000040 8b 3d 84 be 5a f1 09 bd 30 b3 cc bd 6b e3 dd 3e
       -0.25828204 -0.033677436 -0.09995115 0.4333757
000050 fe cb 05 3e 4e de 97 bd 2c 18 e4 bd 10 78 0d 3d
       0.13066098 -0.07415448 -0.11137423 0.03453833

running_var f4 [24]
000000 08 55 83 3e 8a 65 e1 3d fb dc 31 3f 77 be 57 3e
       0.2565081 0.11005695 0.69477814 0.2106875
000010 c5 de ba 3d 84 bd ec 3d 04 0b 96 3e c9 5f 0e 3e
       0.09124521 0.11559585 0.2930528 0.13903727
000020 69 0a d9 3e bb fb 2c 3e ac fc da 3d 81 ba c1 3d
       0.42390755 0.16892903 0.106927246 0.09459401
000030 b4 e4 a8 3e b0 16 2c 3e ec a4 83 3e 16 e7 61 3e
       0.32986987 0.1680553 0.25711763 0.22060809
000040 e9 2d ed 3d 6d d1 52 3e 0c 53 fa 3d 17 7d 0b 3e
       0.11581022 0.20587702 0.12222871 0.13621937
000050 7e 79 16 3e fc 7e cf 3d 39 e5 e8 3d 36 c6 0b 3e
       0.14694783 0.10131642 0.11371846 0.1364983

weight f4 [24, 24, 5, 5]
000000 7d 33 dd bc 1d d3 84 3c ab ce 9f 3b 62 7f 98 3b
       -0.02700209 0.016213948 0.0048769317 0.004653857
000010 8a df 10 3d 90 10 55 bc 66 79 50 3b 43 05 89 bc
       0.035369433 -0.013004437 0.003181064 -0.016726142
000020 9a c4 39 3c 4a f4 fe 3b d8 2f b8 3c 04 28 e4 bc
       0.011338377 0.0077805864 0.022483751 -0.027851112
000030 68 ca 85 3c 0c b8 38 bb e9 e0 b5 3c 5f 1b a8 bc
       0.016331866 -0.0028185872 0.022201972 -0.020520864
000040 50 9c b3 bc 46 36 50 bc 3e 1e d2 3c 80 53 69 bc
       -0.021925122 -0.012708252 0.025649186 -0.014241099
000050 85 41 be bc 84 b8 09 3d d6 ff 85 3b 00 24 8d bc
       -0.023224602 0.033623233 0.004089336 -0.01722908
000060 70 f5 ec bc 62 d5 be 3c 31 ff 03 3d fb d9 1e bd
       -0.028925627 0.023295108 0.03222579 -0.0387821
000070 8c ca 45 3b 46 03 a2 3a 12 54 18 3d 55 e6 ae bc
       0.0030180542 0.0012360595 0.03718955 -0.021350065
000080 14 20 0e bc 15 07 1f 3c 49 1c 8f 3c 07 8d 4f bb
       -0.00867464 0.009706278 0.017469542 -0.0031669752
000090 c1 1d e2 3b 55 8a a9 bb 07 07 18 3d c5 11 ff 3b
       0.0069005196 -0.005173961 0.037116077 0.0077841007
0000a0 84 8a 0d 3d 54 77 a7 bb aa 57 13 3c 5a 30 e9 bc
       0.034555927 -0.0051106606 0.008993069 -0.028465439
0000b0 7e 63 a4 bc 7f a5 20 bc 25 83 8a bb 6b 22 78 3c
       -0.020066973 -0.009805082 -0.0042270594 0.015144925
0000c0 9c 43 0d bd fa 32 af bc 79 03 d6 bc 3b 8a f7 bc
       -0.034488305 -0.021386612 -0.026124703 -0.03021728
0000d0 13 2a 25 3d 40 1a af 3b c9 3c 82 bb 33 49 c7 bb
       0.04032333 0.0053437054 -0.0039745313 -0.006081724
0000e0 b8 b4 65 bc 07 4f fa 3a 74 67 3d 3c 98 e5 c6 bc
       -0.0140201375 0.0019097038 0.01156031 -0.0242794
0000f0 2b 4e 8a bc 64 d9 dd bc fb 30 b0 bc 65 20 21 3d
       -0.016882977 -0.027081199 -0.02150773 0.039337534
000100 5e f7 52 bc da 68 ae 3a 32 b8 22 bd d7 2e dd bc
       -0.01287636 0.0013306395 -0.039726444 -0.026999874
000110 4d fe 83 bc 24 8a 9a 3b ef 24 d3 bc 5b 23 15 3d
       -0.016112471 0.0047161747 -0.025774447 0.03641067
000120 3a ce cf 3c 51 8e 82 3c 9f cc 8c 3c b2 47 34 bc
       0.025366891 0.015937002 0.017187415 -0.011003422
000130 71 da 20 3d 5a d1 12 bb e4 a1 56 3c a5 54 c6 3c
       0.039270822 -0.0022402615 0.013100121 0.024210284
000140 09 ff 4a 3c 9e c4 30 3c eb a7 06 bd 58 16 2b 3a
       0.012389907 0.010789065 -0.032874983 0.0006526462
000150 a8 f9 0f 3d 43 40 7f 3c c6 c6 95 bc ea f3 94 bc
       0.0351502 0.015579286 -0.01828326 -0.018182714
000160 7f 29 a3 3c fb c2 7f 3c 25 26 04 bd a5 01 cc 3c
       0.019917248 0.015610452 -0.03226294 0.024903128
000170 4d ee f6 3c dd 8f fc bb e6 6e 0f bd 42 e9 fd bc
       0.030142928 -0.0077075795 -0.03501787 -0.030995015
000180 ca 1e 35 bc 72 a2 d0 3c 53 87 d1 bb ad a7 67 bc
       -0.011054704 0.025468085 -0.0063943057 -0.014139098
000190 8a e9 c0 3c 04 f8 c7 bc 50 93 a2 bc 3a f6 f4 3c
       0.02354886 -0.024410255 -0.019845635 0.029902566
0001a0 d4 6f 20 bd 05 c0 5b 3c 85 fc 21 3d f9 57 a9 bc
       -0.039169148 0.01341248 0.039547462 -0.020671831
0001b0 7a d9 43 3b c6 95 d3 3c 82 b5 7d bc 59 3f 37 3c
       0.0029884265 0.025828253 -0.015485169 0.011184537
0001c0 fe 21 2f ba 38 77 9e bc 5d fb 28 3b 7a 57 ed bc
       -0.00066807854 -0.019343957 0.002578459 -0.028972376
0001d0 d5 58 47 bb df 74 35 bc 6b fa 0a 3d fe a2 94 bc
       -0.0030417938 -0.0110752275 0.033930223 -0.018144127
0001e0 db c6 41 3c d9 d1 1c bd 1d 93 86 bc 16 8a a3 bc
       0.011827196 -0.038286064 -0.016427571 -0.019963305
0001f0 47 e2 0f bd e1 3f ac bc 8a 53 6c bc f7 f2 cd 3c
       -0.035127904 -0.021026554 -0.014424214 0.025140269
000200 06 a7 1a bd 7a 38 14 bd 33 ca 08 3c 30 28 d3 bc
       -0.037756942 -0.036186673 0.008348989 -0.025775999
000210 92 8e 14 3d a0 44 7a bc 34 05 1a 3c 77 e1 80 3c
       0.03626878 -0.015275151 0.009400655 0.01573251
000220 90 8b a1 3c f5 f3 12 bd 66 bd f8 3c 2b fc af 3c
       0.019719869 -0.035877187 0.03036375 0.021482548
000230 9e 8b c6 bb 4b 64 04 3d ea 70 2e ba 5d 2f 42 bc
       -0.006059124 0.03232221 -0.0006654399 -0.011852113
000240 50 b1 ec bc 9b f0 74 3c 95 b1 6c 3c 9f c2 25 3d
       -0.028893143 0.014949943 0.014446636 0.04046881
000250 4e fd d0 3c 4f 14 ea 3b c7 bc c1 bc 2a 1e 23 bd
       0.02551141 0.0071435343 -0.023649586 -0.03982369
000260 be 41 83 bc a4 5d be bb 29 5c a7 3c 66 56 ab bc
       -0.01602256 -0.0058095027 0.020429688 -0.020915221
000270 99 4b 73 3c 16 09 44 bc 2b bc 15 3d 0d 60 0b bd
       0.014849567 -0.011965057 0.036556404 -0.034027148
000280 2e dd a0 bc 13 2c d0 bc ef 27 03 3d d3 ad 04 3d
       -0.019636717 -0.025411641 0.032020506 0.032392334
000290 8f 96 ad 3c e7 98 d2 3b b0 57 f5 bc d4 f6 34 3c
       0.021189956 0.006426919 -0.02994904 0.011045177
0002a0 f5 36 21 bd 6e 65 25 bd 8f eb 0c 3d 1c af 1b bd
       -0.03935905 -0.040379934 0.034404334 -0.038008794
0002b0 c2 13 d2 3c d9 97 84 3c 3b d7 24 3c 65 07 1e bd
       0.025644187 0.016185688 0.010061081 -0.03858127
0002c0 fb 0f 13 bc 7b 03 c4 bb fc fb 05 bd f6 de 5a 3c
       -0.008975978 -0.00598186 -0.032711014 0.013358822
0002d0 69 cf 01 3d d4 b1 b4 bc 95 19 f9 3c 8d 55 03 3c
       0.031691942 -0.022057451 0.030407706 0.008016002
0002e0 f7 63 1c 3d 85 be 8d 3c a4 6f 1b bc 8c 62 83 3c
       0.03818127 0.01730276 -0.009487066 0.016038202
0002f0 1c 13 a9 bc 9d 70 a7 3b ec 82 19 3c 4f 56 91 bc
       -0.020638995 0.00510986 0.009369593 -0.01774135
000300 66 bf 1a bc c9 5d 1c 3d 4b 1e c0 3a 71 0c 12 bd
       -0.009445047 0.038175378 0.0014657466 -0.035656396
000310 87 b6 16 bb 97 eb 2a bc 67 58 ca 3c 94 65 d3 3b
       -0.0022996978 -0.010432146 0.024700357 0.006451318
000320 c5 89 52 bc 23 44 eb 3c e7 da b6 bc d3 9c 15 3d
       -0.01285023 0.028719014 -0.022321178 0.036526512
000330 9b 64 5b bb bd 87 40 bc d9 bc 81 3c 73 ca 78 3b
       -0.0033476714 -0.0117511125 0.01583712 0.0037962466
000340 92 ae b4 bc 7d cb 16 3d 8e 96 f8 bc f0 55 0b bc
       -0.022055898 0.036815155 -0.030345228 -0.008504376
000350 ba aa 53 bc 78 eb fe 3c 69 bb 7b bc a9 9a de bc
       -0.012919122 0.03111814 -0.015364506 -0.027173357
000360 42 95 0a 3d b2 fb 02 3d 2e f8 24 3d 83 e4 2f 3c
       0.03383375 0.031978317 0.040275745 0.010735634
000370 f4 33 22 bd fa 7a f0 bc 49 a7 11 3d a7 99 ed ba
       -0.039600328 -0.029355515 0.035559926 -0.0018127457
000380 dc 9f 96 3c f1 f5 17 bd 67 e8 6c 3c 00 39 0e 3c
       0.018386774 -0.037099782 0.014459706 0.008680582
000390 56 ca b4 3c 04 a4 1e 3d 21 08 c2 bc 04 c5 aa 3b
       0.022069138 0.038730636 -0.023685517 0.0052114744
0003a0 85 ac 81 3c 1e b6 c7 3c fb 45 1e 3c cb 0d 19 bc
       0.015829334 0.024378832 0.009660239 -0.009341667
0003b0 c1 01 00 3d 6a 17 c6 3b e1 87 0c 3d 96 16 12 3d
       0.031251673 0.0060452716 0.03430927 0.03566607
0003c0 20 4c 1f 3d 0d d0 a9 3c 56 f8 f1 3b f0 f3 fd 3c
       0.038890958 0.02072909 0.0073843403 0.031000108
0003d0 b0 6a 10 3d 74 52 1f bd 16 99 95 3c 13 b4 12 3d
       0.035257995 -0.038896993 0.018261474 0.035816263
0003e0 5f df 17 3d 6d c6 15 bd e9 7c 00 3d 5d f5 b5 3c
       0.037078258 -0.036566187 0.031369124 0.022211725
0003f0 c8 6d 0f bd 0b 07 64 3c 6d dc 0c bd 0d 70 ed bc
       -0.035016805 0.013917695 -0.034389902 -0.028984094

bias f4 [24]
000000 35 3a 80 3c 93 be 75 3c be 58 c2 bc cd 59 88 bc
       0.015652755 0.01499905 -0.023723956 -0.016644383
000010 51 e6 ec bc f7 46 e2 3c e8 d0 22 bd dd 2f a7 bc
       -0.028918417 0.02762173 -0.03975001 -0.020408565
000020 2c 6c 39 3b f6 16 42 3c f0 ae 17 3d 11 03 fe 3c
       0.0028293235 0.011846295 0.037032068 0.031007322
000030 a9 60 e0 bc 42 d8 15 3d 8a 05 8c 3c a9 d5 3f ba
       -0.027389841 0.036583193 0.017092485 -0.00073179096
000040 bc 32 77 3a 31 11 db 3b 59 ff 06 bd e9 47 ac 3c
       0.0009429862 0.006685399 -0.032958362 0.021030383
000050 0d 81 20 bc c3 3a 57 bc 46 c0 c2 bc 6a f2 f2 3c
       -0.009796393 -0.0131365685 -0.023773324 0.029656608

weight f4 [24]
000000 5c ff 7f 3f 66 fd 7f 3f 0d 00 80 3f 14 00 80 3f
       0.9999902 0.9999603 1.0000015 1.0000024
000010 27 00 80 3f 00 00 80 3f 8d fe 7f 3f 03 00 80 3f
       1.0000046 1.0 0.9999779 1.0000004
000020 f2 ff 7f 3f 06 00 80 3f ec ff 7f 3f 21 00 80 3f
       0.99999917 1.0000007 0.9999988 1.0000039
000030 00 00 80 3f 8e fb 7f 3f 82 00 80 3f 0b 00 80 3f
       1.0 0.99993217 1.0000155 1.0000013
000040 00 00 80 3f bc fe 7f 3f 12 00 80 3f 74 f9 7f 3f
       1.0 0.9999807 1.0000021 0.9999001
000050 0a 00 80 3f 2a 00 80 3f dd ff 7f 3f 00 00 80 3f
       1.0000012 1.000005 0.9999979 1.0

bias f4 [24]
000000 c7 42 a4 b7 48 51 7e 38 0d 1b 08 b7 7f cb bc 38
       -1.958142e-05 6.0634018e-05 -8.11253e-06 9.002443e-05
000010 70 fd 22 39 34 33 73 38 4e 0e fe 37 a5 71 3c 38
       0.00015543937 5.79834e-05 3.028582e-05 4.4928533e-05
000020 b4 f5 2a 38 85 12 94 38 26 c0 2e 38 be 77 33 39
       4.0759987e-05 7.0606395e-05 4.1663785e-05 0.00017115378
000030 8a 83 c8 37 b5 b1 8e b8 26 69 34 39 e9 ca fe 37
       2.390311e-05 -6.804188e-05 0.00017205309 3.0373647e-05
000040 cd 5c d3 38 8e 6a a4 38 36 b4 47 38 d3 d1 86 b8
       0.000100785495 7.839977e-05 4.761313e-05 -6.428701e-05
000050 6b 0c a7 b6 96 68 f3 38 0e 4e 57 38 67 a2 93 38
       -4.9784335e-06 0.000116066236 5.133269e-05 7.039756e-05

running_mean f4 [24]
000000 d3 8e 93 bd 65 c2 d8 3d f1 fd 7a 3e 0f 36 95 3e
       -0.07204976 0.10583953 0.24510933 0.29142806
000010 a6 f1 84 bc 4a c6 82 3e 4b 4e 35 be 57 6b 43 3e
       -0.016228508 0.25541908 -0.17705648 0.19083916
000020 59 0e 13 3d 48 8a 35 3c 01 6a 10 3e 99 2e 3c 3e
       0.035902355 0.011080332 0.14102937 0.1837715
000030 ce 3f fc bd 1b a1 12 3e a0 ba 98 3e de 39 2c 3c
       -0.12316857 0.1431927 0.29829884 0.0105118435
000040 0b 5d 43 3e fa 7a ba 3d 0c 75 01 3d b7 59 bf 3e
       0.19078462 0.09105487 0.031605765 0.37373134
000050 ff 82 cc 3c 10 69 b5 bd 50 5a ee bd 90 aa fc be
       0.024964808 -0.0885793 -0.116383195 -0.4934888

running_var f4 [24]
000000 ad ed 51 3e 04 b6 31 3e 81 56 10 3e af f2 20 3e
       0.20500822 0.1735459 0.14095499 0.15717576
000010 82 ad ae 3d a5 bf 01 3e c6 aa f3 3d 05 4c 94 3d
       0.08529188 0.12670763 0.11897807 0.07241062
000020 22 d7 d7 3d d5 77 04 3e 08 27 10 3e 66 1b 96 3d
       0.1053908 0.12936337 0.14077389 0.073294446
000030 80 71 d2 3d 6c 8e 14 3e b3 be c9 3d ba 6e e1 3d
       0.10275555 0.14507455 0.09850826 0.110074475
000040 df cd 07 3e 8b 2d f2 3d 32 30 ea 3d 94 72 f6 3d
       0.13262127 0.11825093 0.11434974 0.12033573
000050 2b b9 e5 3d 03 d9 5d 3e b5 f1 02 3e bc 42 47 3e
       0.112169586 0.21664815 0.12787516 0.19459051

weight f4 [10, 16224]
000000 3b fa ab 3b c6 e1 28 3a f9 cf ab bb db b8 c0 3b
       0.0052483357 0.0006442334 -0.005243298 0.0058814115
000010 0f 1f c0 bb 9e f7 a0 3b 7f e7 9f bb a9 e3 53 3a
       -0.0058630775 0.004912331 -0.0048798914 0.0008082935
000020 ec c9 86 ba 13 87 8c 38 eb c0 d8 bb ff 85 c3 bb
       -0.0010283566 6.70088e-05 -0.0066147945 -0.0059669013
000030 b7 df c1 3b eb 57 b2 bb 0c f5 a2 3a c6 fc eb 3b
       0.0059165615 -0.0054426095 0.0012432649 0.007201764
000040 a0 5f 31 ba d2 17 24 3b 33 80 85 bb 3e e2 25 3b
       -0.00067662634 0.0025038612 -0.0040741204 0.0025311853
000050 98 7f 61 ba 1c e9 22 bb 8a a7 1a b9 5d 04 46 3b
       -0.0008602082 -0.0024858182 -0.00014748998 0.0030215003
000060 7c 27 6d 3b e8 8a e3 3b bd ed bb 3a e0 16 7f 3b
       0.0036186865 0.006944049 0.0014337819 0.0038923547
000070 16 81 eb bb 51 38 5b 3a b9 6e d9 bb d5 54 9c b9
       -0.007187019 0.0008362579 -0.0066355136 -0.00029817843
000080 ef 4f 2c bb 1d 25 d8 bb 8c 69 d2 3b dd e6 72 bb
       -0.0026292761 -0.006596221 0.0064212736 -0.0037063875
000090 45 ca e7 3b 67 17 89 bb f5 4a a7 39 bd aa 65 3b
       0.007073673 -0.004183698 0.0003190857 0.0035044395
0000a0 18 39 aa bb d5 59 c5 bb 15 f6 23 3a 80 66 b5 35
       -0.0051947944 -0.0060226717 0.00062546256 1.3515382e-06
0000b0 29 9e 5d ba cd 87 a2 bb 94 80 a1 bb f5 f9 cf bb
       -0.00084540487 -0.0049600364 -0.004928658 -0.006346936
0000c0 72 e2 1b bb 7a 3b 8c bb 9c c7 68 3b 04 fc b8 3a
       -0.0023786095 -0.004279551 0.0035519367 0.0014113192
0000d0 0d f9 27 bb 71 67 92 3b c3 fe 85 3b 11 41 da bb
       -0.0025630624 0.0044678976 0.004089208 -0.0066605886
0000e0 ad 7a e7 ba 85 90 96 37 4a 5f ab bb 47 9b 59 bb
       -0.0017660462 1.794869e-05 -0.005229865 -0.0033204125
0000f0 bc 32 76 3b 4a ac b3 3b c5 a9 57 ba f4 b5 e3 3a
       0.003756686 0.005483185 -0.0008226897 0.0017372952
000100 2b 08 46 bb 64 6f b5 ba 5b 97 c7 bb b8 2c 82 3b
       -0.003021727 -0.0013842401 -0.006091041 0.003972616
000110 0a 2b 1d 3b 6b 32 ef 34 19 78 5c ba 38 ef 24 bb
       0.0023981952 4.4553903e-07 -0.000841023 -0.0025167
000120 41 24 08 3a b3 60 33 39 c0 36 73 3b da 50 d1 ba
       0.00051933905 0.00017106794 0.003711149 -0.001596953
000130 fd 51 66 3a a8 c1 11 3b df fc b1 bb 6b 37 5a 3b
       0.0008786021 0.0022240672 -0.005431756 0.0033297192
000140 c5 8e 01 3c 81 34 50 bb ef 60 76 3b b9 85 9b bb
       0.007907574 -0.0031769576 0.0037594398 -0.0047461656
000150 7f 00 c9 bb a3 d5 a2 3a df 25 e3 3a c8 c3 de bb
       -0.0061340923 0.0012423288 0.0017330012 -0.0067982413
000160 9a e3 65 3b 8b 97 02 3c 07 85 85 3b 7f e6 58 ba
       0.0035078288 0.007970701 0.004074696 -0.00082740927
000170 55 79 c1 bb 03 fc 7e 3a 20 3b c4 bb 9e 01 87 bb
       -0.0059043565 0.0009726884 -0.0059884936 -0.004120066
000180 39 ce 60 3b 07 b5 8a bb 11 05 dc 3a a8 75 7b 3b
       0.0034302606 -0.004233006 0.0016786178 0.003836969
000190 13 44 f7 bb 94 72 5b bb 88 da 5f bb bf 4a 2a 3b
       -0.007545957 -0.0033485042 -0.0034157354 0.0025984494
0001a0 de 63 5e 3b 5d 07 e1 bb 17 67 b9 bb cf ea 2f 3b
       0.0033934037 -0.006867333 -0.005658041 0.0026842838
0001b0 46 1d dd bb a3 7a 20 ba d7 55 70 bb 25 26 f4 bb
       -0.0067478744 -0.000612179 -0.0036672258 -0.0074508362
0001c0 88 ed 27 3b 6e b7 fa bb 77 8e c8 3b 3e 69 9b 3b
       0.0025623757 -0.007651261 0.0061204988 0.0047427705
0001d0 a8 b0 cf bb e2 5c d8 ba b2 d4 e2 3b ee 55 99 bb
       -0.0063381977 -0.0016507173 0.006922328 -0.004679433
0001e0 07 24 f8 3b f7 e9 be 3b 50 9d 18 3b 64 2a 27 bb
       0.007572654 0.0058262306 0.0023287125 -0.0025507445
0001f0 93 6f e6 3b 98 d3 49 3b 31 2b d8 3b d4 78 13 3b
       0.0070323437 0.0030796286 0.0065969457 0.002250244
000200 44 74 fb 3b 2f d2 ba 39 47 f4 18 bb 0b d5 70 bb
       0.007673772 0.00035633284 -0.002333896 -0.0036748077
000210 87 af fc 3a 69 19 5d 3a 3b 18 e3 3b 22 4d 29 3b
       0.0019278385 0.00084342674 0.0069303787 0.0025833328
000220 20 70 d2 3b 57 b5 83 3b 11 13 fb 3b 52 26 c8 3b
       0.0064220577 0.00401942 0.007662185 0.0061080838
000230 23 a6 d0 bb da ef e7 3b bf 95 2b 3a 25 2e 8f bb
       -0.0063674613 0.007078153 0.0006545446 -0.0043695145
000240 0f 16 ad 3b 83 0f 52 3b fe b8 8d 3b 30 61 7b 3b
       0.0052821706 0.0032052703 0.0043250313 0.0038357489
000250 e3 7f c3 3b f7 30 02 3c 5e ef f9 3b 92 35 ad 3b
       0.005966173 0.007946244 0.0076274117 0.005285927
000260 0a 49 9c 3b 30 fe 68 3b d6 67 3d 3b 04 d5 69 bb
       0.004769449 0.0035551898 0.0028901002 -0.0035679946
000270 22 d7 e1 3a c5 4d ca 3b b1 d5 44 3b b9 ff 44 3b
       0.0017230252 0.0061738216 0.0030034597 0.003005965
000280 69 e2 c1 3b 5e cd dd 3b df d8 98 3b 1c 3b ce 3b
       0.005916883 0.0067688664 0.004664525 0.0062936675
000290 14 d7 2d 3b 20 1f 3a 39 e3 63 37 ba c5 49 28 3b
       0.0026525902 0.00017749937 -0.000699578 0.0025678736
0002a0 3a 51 a2 3a 2a 0d 9d bb fe b6 d2 bb ce 32 8e bb
       0.0012383827 -0.004792829 -0.006430506 -0.0043395525
0002b0 e6 34 23 3b 91 88 79 38 de 2a 95 3b 56 d2 99 bb
       0.0024903356 5.9493414e-05 0.0045522293 -0.0046942635
0002c0 20 ed 20 bb f6 5a 8b 3b e1 78 3e bb 67 4e f3 3b
       -0.00245554 0.0042527867 -0.0029063749 0.007425118
0002d0 b5 d6 31 3a 31 ab ab ba 5a 46 ab 39 6b e9 ad 3a
       0.0006784008 -0.0013097284 0.00032668078 0.0013268417
0002e0 fb 3a ab 3a ac 64 da 3b a1 63 1a bb 52 0d 29 3b
       0.0013063842 0.006664833 -0.0023557919 0.0025795293
0002f0 57 b7 79 ba 52 87 e0 3a 67 8f d7 3b da 17 56 3b
       -0.0009525916 0.0017130172 0.006578374 0.0032668025
000300 88 d0 e9 3b 98 4f 5c 3b b5 ba 6e 3b e7 d9 03 3b
       0.0071354546 0.0033616778 0.0036427204 0.0020118894
000310 ba 76 ea bb 77 63 ee bb ab 79 34 3b cd 3b 7b 3b
       -0.0071552666 -0.0072750407 0.002753834 0.0038335205
000320 9f 59 87 bb b0 a6 3d bb e9 cb ba bb 94 4a b7 3b
       -0.0041305567 -0.0028938465 -0.0057005775 0.005593607
000330 c0 a5 e4 3b e4 d8 8c ba ee ba ca 3b 11 64 e6 bb
       0.0069777668 -0.0010745791 0.0061868345 -0.007030972
000340 a8 66 00 3c d8 d2 37 bb 13 52 be bb 71 30 e6 3b
       0.007836975 -0.0028049257 -0.005808124 0.0070248176
000350 00 52 b2 bb 46 fe 5d 3a 17 28 0d 3b 95 31 7f 3b
       -0.005441904 0.00084683707 0.0021538788 0.0038939465
000360 b6 fe e4 3b 96 20 98 3b 4a b6 ed ba e2 d7 b2 3b
       0.0069883717 0.0046425564 -0.0018135991 0.005457864
000370 34 cf ed 3a 1b 0c 9f bb 43 5c e1 ba 5c 40 9b 3b
       0.0018143416 -0.004853738 -0.0017193634 0.004737897
000380 6a 81 0d ba 51 2a cc ba 35 86 48 3a ab 0e 1d bb
       -0.00053980073 -0.0015576576 0.0007649393 -0.0023965042
000390 2b 36 92 bb 39 cd 6a 3a de b5 2f bb 61 69 c8 bb
       -0.0044620237 0.0008956972 -0.0026811282 -0.006116078
0003a0 eb 18 86 3b d3 fb 72 ba 97 c2 ba 3b 1a f0 c9 b9
       0.004092326 -0.0009269092 0.0056994664 -0.00038516597
0003b0 39 31 5a ba 29 66 87 b9 8b 73 fd 3b f4 a3 a0 3a
       -0.0008323375 -0.00025825322 0.007734721 0.0012255893
0003c0 02 ca ee 3b 48 a1 c1 bb 80 a1 76 bb 7c 21 06 3b
       0.007287265 -0.005909119 -0.0037632883 0.0020466736
0003d0 e8 b7 b7 bb fe 67 ba 3b bc 1d d8 39 45 88 44 3a
       -0.00560664 0.0056886664 0.00041220884 0.00074971124
0003e0 10 b3 11 3a bf b0 4b 39 bd 14 98 3b 9c d9 3c 3a
       0.00055579934 0.00019425432 0.004641144 0.0007204057
0003f0 78 06 a4 bb 04 53 31 3b cf b0 ed bb f2 43 f9 3a
       -0.005005654 0.0027057538 -0.0072537432 0.0019017442

bias f4 [10]
000000 76 48 c0 3b 4c bb f2 b8 64 c2 bf bb b5 9c 98 b9
       0.005868013 -0.00011574346 -0.0058520306 -0.00029108455
000010 04 e3 9e ba 93 a0 46 3b 2f 04 e7 bb 71 7b ae bb
       -0.0012122099 0.0030308112 -0.0070500593 -0.005324774
000020 6a 55 e4 bb 13 51 77 ba
       -0.00696819 -0.0009434383
