models/Demo/LOGS/models/nnet_epoch_6.pt (torch, 765965 bytes, 26 tensors)

weight f4 [12, 3, 5, 5]
0.036595352 -0.11155526 0.052111693 -0.08110313 -0.10998549 0.068647794 -0.031772878 -0.081520155
-0.0744369 -0.06815881 0.0534384 0.08164722 -0.0976309 -0.016913785 0.05788892 0.017837511
0.011663848 -0.07058967 -0.08584906 -0.100685544 -0.061621875 0.06079127 0.0630629 0.10123609
0.11339747 -0.0030447685 -0.00978453 0.025260538 0.01806411 -0.06535871 0.05585001 0.09384499
0.10576364 -0.0032465763 0.11008131 0.036287274 0.062197186 -0.008359074 -0.052236587 0.053627413
0.10580189 -0.09189382 -0.102278806 0.091215156 0.09586535 -0.017333955 0.0060190414 -0.040704694
0.04846645 0.09326358 -0.085053 -0.09995866 0.053111218 -0.074208945 0.0026824875 0.0058953
0.026494255 -0.10923625 0.093070835 0.054045662 -0.08505216 0.108097084 0.10444605 0.09409688
0.0021995176 -0.106512144 0.05335909 -0.06263818 0.023153195 0.010658189 -0.07855761 0.07531196
-0.02404069 -0.058990493 0.079228766 0.110909194 -0.062012255 -0.11119538 -0.10623115 -0.012532187
-0.057930183 -0.0067477683 -0.0013582306 -0.08069728 0.030079853 0.03544638 -0.070663415 0.08461424
0.086516805 -0.026623955 -0.03578271 0.011208867 0.03662013 0.09713334 0.04988898 0.08512938
-0.10462494 0.0837393 0.101709366 -0.0611144 -0.025254056 0.10187686 0.0104838675 0.012998464
-0.09646311 -0.11213612 -0.014755023 -0.100039765 0.048075918 -0.018303534 0.002222772 -0.05285862
-0.02456757 -0.08183232 -0.05684521 0.003780365 -0.013892844 0.0073445607 -0.040703032 0.04849649
0.028481372 0.07752319 -0.09493548 0.040086266 -0.047044083 0.05354014 0.10413925 -0.06404285
0.027597371 0.013886239 0.10388027 -0.09001551 0.036969792 0.05409475 -0.08927192 0.054042935
0.01512368 -0.1022049 -0.09853649 -0.03884109 -0.031110488 0.032565754 -0.055998806 -0.10794237
-0.10856022 -0.061745204 -0.10456592 0.024348335 0.04663843 0.05802013 0.09463155 -0.04987078
-0.08093816 -0.05519901 0.024579182 -0.110299185 -0.0007150331 -0.08924359 0.062238116 -0.016946608
-0.01033577 -0.10026803 -0.093948446 -0.029768787 0.09873384 -0.062797 -0.051903352 -0.052372713
-0.010867873 0.08608583 0.115266435 -0.11364827 0.03427018 0.023753963 -0.04080737 0.021235744
0.0074361553 0.08803471 0.07119827 0.025946097 0.09711101 0.04606132 0.019677429 -0.02181851
0.055585984 -0.085091434 -0.1062495 -0.040210426 -0.093194775 -0.089432426 0.037371702 -0.10073525
-0.02089403 -0.020853972 -0.051324025 -0.09679822 0.106571876 -0.024730891 -0.0026338033 0.00507937
-0.103386104 -0.07063021 -0.10489437 -0.0131791625 -0.030890122 -0.022891708 -0.07541168 -0.072913565
-0.0015776417 0.10801162 -0.08692365 -0.034398798 -0.052456893 -0.109172165 0.007078954 -0.083529286
0.013507921 -0.036316823 -0.111396365 -0.062387425 0.00023080254 -0.050633978 -0.10296075 -0.11429895
-0.014742146 -0.0031318562 0.098674275 0.020254428 0.053724337 0.0210201 0.1050598 -0.08912383
0.022599509 0.01812871 -0.009049383 -0.044081848 0.09898931 -0.0061890315 0.11438348 -0.00297165
0.03062133 -0.054386854 -0.092089586 0.012077295 0.010467612 -0.06992209 0.10817519 -0.016205702
-0.016785502 0.053371076 -0.063567914 -0.04775252 -0.09054483 -0.008494861 -0.092763685 0.027403379
00000000: 02e5 153d 1677 e4bd 1273 553d 6619 a6bd
00000010: 1340 e1bd 3797 8c3d 4724 02bd 0af4 a6bd
00000020: 6072 98bd d996 8bbd 39e2 5a3d a836 a73d
00000030: b6f2 c7bd c78e 8abc ef1c 6d3d f91f 923c
00000040: b919 3f3c 5191 90bd a2d1 afbd 3934 cebd
00000050: 3867 7cbd 4400 793d 1f27 813d de54 cf3d
00000060: ef3c e83d bd8a 47bb 4b4f 20bc 30ef ce3c
00000070: 2ffb 933c cada 85bd fbc2 643d cd31 c03d
00000080: 9b9a d83d 83c4 54bb 4f72 e13d f7a1 143d
00000090: 7ac2 7e3d 7ff4 08bc 08f6 55bd 6ba8 5b3d
000000a0: a9ae d83d d432 bcbd 8d77 d1bd 03cf ba3d
000000b0: 0d55 c43d f0ff 8dbc 613b c53b f7b9 26bd
000000c0: c284 463d fa00 bf3d 4430 aebd 20b7 ccbd
000000d0: 268b 593d dcfa 97bd accc 2f3b 5c2d c13b
000000e0: 7b0a d93c 41b7 dfbd ec9b be3d fc5e 5d3d
000000f0: d42f aebd 0162 dd3d d0e7 d53d ddb5 c03d
00000100: c825 103b 0a23 dabd 108f 5a3d 7248 80bd
00000110: c5ab bd3c af9f 2e3c d0e2 a0bd 283d 9a3d
00000120: fbf0 c4bc 04a0 71bd b142 a23d 5c24 e33d
00000130: 9000 7ebd 67ba e3bd b88f d9bd cd53 4dbc
00000140: 3348 6dbd 621c ddbb a806 b2ba 9e44 a5bd
00000150: 066a f63c 3930 113d fbb7 90bd 3b4a ad3d
00000160: b92f b13d 7b1a dabc e490 12bd 65a5 373c
00000170: fdfe 153d d8ed c63d 6358 4c3d 5058 ae3d
00000180: 9a45 d6bd 837f ab3d 004d d03d 1853 7abd
00000190: 98e1 cebc d1a4 d03d 87c4 2b3c 82f7 543c
000001a0: 738e c5bd 9fa7 e5bd 0dbf 71bc a6e1 ccbd
000001b0: 41eb 443d 4bf1 95bc edab 113b 4882 58bd
000001c0: ee41 c9bc b497 a7bd 86d6 68bd 00c0 773b
000001d0: d09e 63bc a4aa f03b 39b8 26bd 41a4 463d
000001e0: c451 e93c 7ac4 9e3d 886d c2bd 7f31 243d
000001f0: 4cb1 40bd e84c 5b3d f646 d53d e628 83bd
00000200: e213 e23c 1c83 633c 2ebf d43d 0d5a b8bd
00000210: a36d 173d 7592 5d3d 32d4 b6bd 205c 5d3d
00000220: 50c9 773c cd50 d1bd 80cd c9bd d617 1fbd
00000230: 6cdb febc ab63 053d 015f 65bd e410 ddbd
00000240: d254 debd 8ae8 7cbd a826 d6bd 2976 c73c
00000250: f007 3f3d 84a6 6d3d 30ce c13d 4e45 4cbd
00000260: e8c2 a5bd 5b18 62bd 485a c93c 8ae4 e1bd
00000270: 0f71 3bba 58c5 b6bd 65ed 7e3d 9dd3 8abc
00000280: 5d57 29bc 5359 cdbd 0b68 c0bd acdd f3bc
00000290: f834 ca3d b79b 80bd 9c98 54bd c584 56bd
000002a0: 2a0f 32bc c54d b03d cf10 ec3d 6dc0 e8bd
000002b0: e35e 0c3d ac97 c23c a125 27bd 95f6 ad3c
000002c0: feaa f33b 8b4b b43d 66d0 913d e98c d43c
000002d0: 23e2 c63d cbaa 3c3d 8f32 a13c bbbc b2bc
000002e0: 21ae 633d 6b44 aebd 5699 d9bd b0b3 24bd
000002f0: e7dc bebd 5928 b7bd 1213 193d 484e cebd
00000300: f529 abbc f3d5 aabc 2439 52bd 253e c6bd
00000310: 5b42 da3d 7098 cabc e39b 2cbb d870 a63b
00000320: 18bc d3bd 92a6 90bd dcd2 d6bd 6aed 57bc
00000330: 480d fdbc 6487 bbbc 7071 9abd b553 95bd
00000340: dfc8 ceba 3235 dd3d 0705 b2bd c1e5 0cbd
00000350: 0add 56bd a895 dfbd 92f6 e73b 6711 abbd
00000360: 5450 5d3c f3c0 14bd c723 e4bd f589 7fbd
00000370: 9603 7239 9365 4fbd 16dd d2bd 9115 eabd
00000380: 0b89 71bc d43f 4dbb bd15 ca3d 9dec a53c
00000390: 0d0e 5c3d 5832 ac3c 9829 d73d 8e86 b6bd
000003a0: 9b22 b93c a982 943c dd43 14bc 2b8f 34bd
000003b0: e8ba ca3d 5ccd cabb e341 ea3d 04c0 42bb
000003c0: 95d9 fa3c c0c4 5ebd 7799 bcbd d9df 453c
000003d0: 5980 2b3c 5033 8fbd f48a dd3d d2c1 84bc
000003e0: c081 89bc a19b 5a3d e52f 82bd 2598 43bd
000003f0: 916f b9bd 082e 0bbc e3fa bdbd 0d7d e03c

bias f4 [12]
0.10741444 -0.070241325 -0.041784067 0.037433237 -0.05935153 0.00698628 0.096735805 -0.017852059
-0.008810242 -0.09629236 0.041939076 0.09386007
00000000: 1afc db3d afda 8fbd c525 2bbd 9853 193d
00000010: 971a 73bd 2aed e43b 6c1d c63d 7b3e 92bc
00000020: d558 10bc ee34 c5bd 4fc8 2b3d b539 c03d

weight f4 [12]
0.99998146 0.9999965 0.9999348 1.0000051 0.99998504 0.9999313 0.99993753 0.9999999
1.0000017 1.0000005 1.000002 1.0000039
00000000: c9fe 7f3f c5ff 7f3f bafb 7f3f 2b00 803f
00000010: 05ff 7f3f 7ffb 7f3f e8fb 7f3f feff 7f3f
00000020: 0e00 803f 0400 803f 1100 803f 2100 803f

bias f4 [12]
9.072645e-05 2.2314475e-06 -0.00012905446 0.00014938235 5.9177873e-05 -0.00011531225 -0.00013417508 -4.3218464e-05
8.34183e-05 -7.020826e-05 1.2071077e-05 0.000120027755
00000000: 6444 be38 fabf 1536 cb52 07b9 85a3 1c39
00000010: c235 7838 cbd3 f1b8 59b1 0cb9 7945 35b8
00000020: dcf0 ae38 c63c 93b8 e284 4a37 69b7 fb38

running_mean f4 [12]
0.231592 -0.3096573 -0.7156232 0.0020718167 0.2429223 0.061653078 0.29894835 0.032879557
0.008336753 0.20236363 0.22157018 0.27445203
00000000: 7426 6d3e 678b 9ebe 1533 37bf 51c7 073b
00000010: a0c0 783e f087 7c3d c20f 993e b7ac 063d
00000020: e096 083c 6938 4f3e 4be3 623e fa84 8c3e

running_var f4 [12]
0.010810711 0.029125273 0.21519005 0.001871892 0.04861308 0.0029396818 0.02667089 0.003234146
0.012804548 0.042199917 0.015077721 0.022083413
00000000: 691f 313c 2098 ee3c c85a 5c3e 465a f53a
00000010: 821e 473d ada7 403b e97c da3c f7f3 533b
00000020: 2bca 513c d2d9 2c3d 8c08 773c 46e8 b43c

weight f4 [12, 12, 5, 5]
-0.047596816 -0.0135272825 0.056065764 0.0017480424 -0.0034338527 -0.02197894 -0.0044768224 0.011587209
-0.044542853 -0.0031453017 0.016731028 0.012708445 0.020612536 0.019984296 -0.0058549694 0.019443452
0.04057235 -0.018472156 -0.04576134 0.018806646 0.039173793 0.018524481 -0.037568267 0.029996643
0.00540988 0.057319216 -0.045408763 -0.03099463 -0.010747628 -0.046866614 0.048898805 -0.023930907
-0.033759106 0.0235787 0.03126261 0.045866884 0.021460306 -0.022009578 0.03692068 -0.033093933
0.039338015 -0.007151094 0.021495884 0.016009357 -0.026005298 -0.01528269 0.03250919 -0.0010415644
-0.032241266 -0.024763439 -0.03341344 -0.038956042 -0.015663281 0.050627876 -0.025105286 -0.019307647
-0.015632536 -0.030855125 -0.008150351 -0.0073040896 0.05680523 0.03141429 0.019390468 -0.0006056151
0.0059339153 -0.01424647 -0.0092595015 0.048025187 -0.007992475 -0.0099492725 0.050282564 0.0012233102
0.057528406 0.00950298 0.014004968 -0.03785821 -0.0471899 0.029827906 0.03252624 0.05532139
-0.023243722 -0.052318763 -0.004263759 0.04267546 -0.0517153 0.054583803 0.05201115 -0.039609455
-0.011074374 0.030517258 0.04110179 -0.057344187 -0.048662737 0.03095891 0.009348834 -0.004678766
0.052820694 -0.05066867 -0.03972713 -0.028374854 0.05697888 -0.01121168 0.0032880744 0.013511501
0.0443642 0.05150985 0.04557062 0.05457917 -0.0035049722 -0.031698275 0.0326646 0.049077243
-0.005476898 0.02962672 -0.02350523 -0.011371032 0.01648369 0.057812996 0.027682478 0.005142406
0.017304897 -0.014076595 -0.009105849 0.025168873 -0.017183878 -0.045332473 -0.025764711 -0.022238804
0.046651427 -0.049571943 -0.045067832 0.036672726 -0.035135403 -0.010650994 -0.025661668 0.04443157
0.013131773 -0.019533413 -0.016072737 -0.00747052 -0.02511985 -0.041453343 -0.029982511 0.029389406
-0.03190772 0.057306916 -0.04125502 0.0072475863 -0.0027751338 0.007149449 0.00044305815 -0.04791306
-0.0034495422 -0.015090546 -0.034220308 -0.050706945 0.0438564 0.0006100351 0.0030876482 0.02054025
-0.047660798 -0.02612821 -0.026118834 -0.036909316 -0.0019106573 0.04471757 -0.04784585 0.020025203
-0.022696562 -0.033056203 0.023646448 -0.02889724 0.025383243 0.055825125 -0.039543748 -0.031210352
-0.024211923 0.051669206 -0.010582576 -0.04822647 0.00904499 0.05621744 0.021535061 0.04160198
0.023581492 -0.050058816 -0.048133034 -0.028406234 -0.019335594 0.0247894 -0.046936773 -0.03198466
-0.026148198 0.05092012 0.035328645 0.020329293 0.016499575 -0.0024926013 -0.04866833 0.036934134
-0.0050435457 0.04124153 0.0005843482 0.015216616 0.04994366 -0.03302158 -0.00786704 0.05604189
-0.052135304 0.02544859 -0.03304526 0.052036736 0.004597445 -0.016766628 0.022950964 -0.05045436
-0.037326857 0.056348074 0.04348609 0.004960157 -0.032373603 0.03259931 0.017855689 0.040739156
-0.047488574 0.039425112 0.019375743 -0.056293327 -0.03719886 -0.041100767 0.056945935 0.014662253
-0.02173848 0.019659346 0.034188945 -0.022750529 -0.0019676907 0.022001343 0.027413301 0.022335367
-0.020447364 0.005181458 -0.05621667 -0.021407567 0.030102905 -0.050684407 -0.054361206 0.0475361
0.027302837 0.02973446 -0.04108335 -0.004486524 0.015269471 0.009570598 0.014913869 -0.051611282
00000000: e1f4 42bd 89a1 5dbc 37a5 653d 921e e53a
00000010: 7d0a 61bb 2e0d b4bc 4fb2 92bb 47d8 3d3c
00000020: 9172 36bd 6821 4ebb 820f 893c 1537 503c
00000030: 9fdb a83c 1bb6 a33c 0bdb bfbb e047 9f3c
00000040: 312f 263d eb52 97bc 3e70 3bbd 6510 9a3c
00000050: b374 203d a7c0 973c 2fe1 19bd 85bb f53c
00000060: 5d45 b13b 8ec7 6a3d 8afe 39bd 73e8 fdbc
00000070: d216 30bc 35f7 3fbd 1d4a 483d c00a c4bc
00000080: fd46 0abd 1e28 c13c 390d 003d eade 3b3d
00000090: 86cd af3c 6e4d b4bc 243a 173d 818d 07bd
000000a0: e620 213d b953 eabb 2318 b03c 0e26 833c
000000b0: 1009 d5bc 3f64 7abc 5b28 053d 1a85 88ba
000000c0: 6b0f 04bd b2dc cabc 88dc 08bd 5f90 1fbd
000000d0: 4850 80bc 2d5f 4f3d 9aa9 cdbc 122b 9ebc
000000e0: ce0f 80bc e3c3 fcbc 0d89 05bc 2557 efbb
000000f0: 9aac 683d 45ac 003d c2d8 9e3c 24c2 1eba
00000100: 4a71 c23b 076a 69bc 2ab5 17bc 0fb6 443d
00000110: dff2 02bc 4602 23bc 17f5 4d3d 7b57 a03a
00000120: e8a2 6b3d 63b2 1b3c 1875 653c 3611 1bbd
00000130: 324a 41bd a759 f43c 3c3a 053d af98 623d
00000140: 9e69 bebc 334c 56bd 01b7 8bbb 77cc 2e3d
00000150: 6cd3 53bd 4493 5f3d a509 553d 863d 22bd
00000160: 4b71 35bc 54ff f93c 5a5a 283d bde1 6abd
00000170: 9452 47bd 8a9d fd3c da2b 193c 5550 99bb
00000180: 835a 583d f489 4fbd eab8 22bd 6272 e8bc
00000190: b062 693d 32b1 37bc bc7c 573b 585f 5d3c
000001a0: 3cb7 353d fefb 523d 42a8 3a3d 688e 5f3d
000001b0: adb3 65bb 0dd6 01bd 51cb 053d 3805 493d
000001c0: 8d77 b3bb bcb3 f23c 0a8e c0bc 914d 3abc
000001d0: ce08 873c 52cd 6c3d 5dc6 e23c a181 a83b
000001e0: 00c3 8d3c 85a1 66bc b330 15bc f42e ce3c
000001f0: 34c5 8cbc 8bae 39bd 8410 d3bc 272e b6bc
00000200: 9115 3f3d f30b 4bbd 0c99 38bd 2436 163d
00000210: 24ea 0fbd 8281 2ebc 6b38 d2bc e1fd 353d
00000220: a626 573c 8904 a0bc f9aa 83bc 44cb f4bb
00000230: 25c8 cdbc fbca 29bd e29d f5bc 0dc2 f03c
00000240: abb1 02bd a8ba 6a3d 06fb 28bd 297d ed3b
00000250: 05df 35bb ed45 ea3b 424a e839 7c40 44bd
00000260: b711 62bb 563e 77bc 982a 0cbd 16b2 4fbd
00000270: c5a2 333d c3ea 1f3a 245a 4a3b 0744 a83c
00000280: f837 43bd d40a d6bc 2af7 d5bc 392e 17bd
00000290: 056f faba c529 373d 03fa 43bd e50b a43c
000002a0: 24ee b9bc f165 07bd 32b6 c13c e8b9 ecbc
000002b0: 85f0 cf3c e3a8 643d a0f8 21bd daac ffbc
000002c0: 1558 c6bc 17a3 533d 8a62 2dbc 1e89 45bd
000002d0: 7031 143c 4244 663d 4c6a b03c d666 2a3d
000002e0: f92d c13c 790a 4dbd 2527 45bd 31b4 e8bc
000002f0: ae65 9ebc 2413 cb3c c640 40bd 5902 03bd
00000300: bf34 d6bc 9e91 503d c5b4 103d 9e89 a63c
00000310: 1e2a 873c e95a 23bb 7158 47bd 3f48 173d
00000320: 5444 a5bb e1ec 283d f22e 193a 1d4f 793c
00000330: b991 4c3d a341 07bd c2e4 00bc 2e8c 653d
00000340: d48b 55bd 9079 d03c 775a 07bd 7924 553d
00000350: 2aa6 963b 2b5a 89bc a903 bc3c 3ba9 4ebd
00000360: 0ce4 18bd 3dcd 663d 781e 323d d088 a23b
00000370: 2f9a 04bd db86 053d 1846 923c 1ade 263d
00000380: 6183 42bd 3a7c 213d e1b9 9e3c d593 66bd
00000390: d55d 18bd 4759 28bd 2440 693d f239 703c
000003a0: e614 b2bc a30c a13c b509 0c3d 515f babc
000003b0: 5ff4 00bb 293c b43c dc91 e03c a9f8 b63c
000003c0: 3b81 a7bc 38c9 a93b 7343 66bd ec5e afbc
000003d0: 5e9a f63c 749a 4fbd dba9 5ebd 37b5 423d
000003e0: 33aa df3c af95 f33c 0447 28bd b103 93bb
000003f0: ce2c 7a3c ffcd 1c3c 4d59 743c 5a66 53bd

bias f4 [12]
0.009529594 0.009808068 0.05315577 -0.03880567 0.05613601 -0.003627029 0.002965671 0.00041771383
-0.045445625 -0.052107114 -0.030365776 -0.017097214
00000000: 0422 1c3c 05b2 203c ddb9 593d b2f2 1ebd
00000010: dfee 653d 73b3 6dbb b45b 423b 9a00 db39
00000020: 3125 3abd 456e 55bd a6c1 f8bc 750f 8cbc

weight f4 [12]
1.0000019 0.99992424 1.0000062 1.0000006 1.0000021 1.0000018 0.9999391 0.9999244
0.999947 1.0000005 1.0000024 1.0000036
00000000: 1000 803f 09fb 7f3f 3400 803f 0500 803f
00000010: 1200 803f 0f00 803f 02fc 7f3f 0cfb 7f3f
00000020: 87fc 7f3f 0400 803f 1400 803f 1e00 803f

bias f4 [12]
-9.195485e-05 -6.6533576e-05 0.00012525807 -0.00012274545 1.7880577e-05 1.3781766e-05 -5.3945998e-05 -0.00012465574
-5.8282567e-05 -6.776711e-06 0.00010591561 0.000117695854
00000000: e2d7 c0b8 f187 8bb8 b557 0339 3bb5 00b9
00000010: 3ffe 9537 3c38 6737 1344 62b8 05b6 02b9
00000020: 6e74 74b8 8163 e3b6 031f de38 7bd3 f638

running_mean f4 [12]
0.09380081 0.17323217 0.42333815 0.07042937 0.28192484 -0.044304986 -0.25345814 -0.13103582
0.11843203 -0.18223299 -0.12506592 -0.14151335
00000000: a41a c03d c663 313e c7bf d83e 463d 903d
00000010: 7458 903e 2579 35bd 44c5 81be 412e 06be
00000020: 7e8c f23d 499b 3abe 4811 00be e0e8 10be

running_var f4 [12]
0.04471954 0.108680435 0.34529704 0.05911005 0.21816115 0.1252133 0.08133639 0.06940386
0.09191685 0.057278253 0.21821517 0.106202714
00000000: d62b 373d d993 de3d c6ca b03e 611d 723d
00000010: a365 5f3e ea37 003e b193 a63d 9c23 8e3d
00000020: e73e bc3d 9a9c 6a3d cc73 5f3e cf80 d93d

weight f4 [24, 12, 5, 5]
0.018209072 0.019753741 -0.024525879 0.015587838 -0.05056663 -0.035105098 -0.038495623 -0.054350626
0.016153878 -0.027298937 0.012015612 0.042125285 -0.05238585 -0.042898484 -0.04906709 -0.020112269
-0.034458667 0.05480146 0.021328526 0.037487224 0.053886272 0.03564007 0.044740483 -0.049745888
-0.04131231 0.005984427 0.029231982 0.024682278 0.046845987 -0.022004036 0.032765433 0.017022971
0.030033132 -0.031551544 0.0104317805 0.020621978 -0.0021268814 -0.04057931 0.030258229 -0.03988369
0.018858466 0.01151611 -0.036487166 0.03618397 0.0012028745 -0.0343857 0.003419289 0.043437842
0.007475931 0.055150174 0.04070899 0.015246566 0.04663204 0.040710323 -0.020893766 0.020062482
0.010877914 -0.03717963 -0.011029947 -0.015956508 -0.03042126 -0.03881605 -0.0031479173 -0.0046417722
-0.023694027 -0.006097895 -0.036804453 -0.044687867 0.031218726 -0.011723521 0.005930462 -0.04932222
0.012932522 0.040985297 0.036723528 -0.047897097 -0.022094028 0.04606168 -0.018428994 -0.0031000006
-0.019494597 0.0213508 0.010813528 0.029769871 -0.034702733 -0.023683384 0.034986675 -0.00064774667
0.030796766 0.01337785 0.052789804 0.0076751327 -0.046647225 0.054517195 0.0026478614 0.015751507
-0.046134904 0.056147557 0.04247973 -0.03309965 -0.02230407 0.053553965 0.04687509 -0.011190393
0.0033590272 -0.04616373 0.015343644 0.0051876632 0.012620662 0.053451475 -0.0103603555 -0.01706987
0.023004869 -0.009657552 0.03872357 0.02203789 -0.024794618 -0.0139132105 0.010627928 0.005527742
0.052993417 -0.029924905 0.01976411 -0.016349534 0.049893063 -0.053080995 0.009334656 -0.051018566
0.0021572688 -0.015173976 -0.008335495 -0.011704529 -0.041285306 -0.014171902 0.019284558 0.04161469
-0.023378594 -0.05505678 0.02094973 -0.057015143 -0.025945839 -0.014618512 -0.02851464 0.036368866
-0.017650418 -0.03309102 -0.043002598 0.011934318 -0.03730481 0.027050946 0.050926235 0.020116072
0.046787076 -0.017789554 -0.04144652 -0.03800534 -0.006228925 0.022132695 -0.021802513 -0.045849953
0.04258495 0.041850735 -0.03491483 0.0053766323 0.04888273 0.0090926485 -0.041337524 -0.04544162
0.05197954 0.047230396 -0.034878165 0.044111025 -0.0522731 -0.05711691 -0.053355288 -0.024241522
-0.03487559 -0.028590908 -0.024946535 -0.034210343 0.009858085 0.043638427 0.04806515 0.045965143
0.04638095 0.036513917 0.012794134 0.025224296 -0.027264638 0.031646837 -0.02430368 0.013886546
0.036138285 -0.0007951593 0.023399757 -0.033577718 0.007241645 0.014150675 0.021794442 0.03102937
-0.026918137 -0.047840603 0.035033595 0.043189175 -0.038143754 -0.03826381 0.04516631 -0.0018820338
0.055539694 0.049117476 -0.04250472 0.032261815 -0.015814487 -0.018411512 0.02868662 -0.018333415
0.017445829 -0.041614864 -0.031693995 -0.010902404 0.006372069 0.041819833 -0.007958487 0.013508179
0.025748773 -0.021759558 0.009553944 -0.020995265 0.028297849 -0.041931067 0.04217124 0.024032043
0.024291867 0.03269008 -0.051416166 -0.003423778 0.030458769 0.031098232 -0.056721848 0.04234766
-0.036128897 0.0068196086 -0.018213058 -0.057491332 0.004831736 -0.010208 -0.006925461 0.04051666
-0.025016753 -0.023881007 0.0076224697 -0.052724425 0.033699915 -0.022755526 0.026064297 0.005918834
00000000: 312b 953c 99d2 a13c 7fea c8bc 2264 7f3c
00000010: f41e 4fbd 5dca 0fbd 96ad 1dbd c39e 5ebd
00000020: 2355 843c 05a2 dfbc 21dd 443c 908b 2c3d
00000030: 8c92 56bd 52b6 2fbd 93fa 48bd 7cc2 a4bc
00000040: 8824 0dbd 7f77 603d 29b9 ae3c 348c 193d
00000050: dab7 5c3d 52fb 113d cc41 373d 58c2 4bbd
00000060: 1937 29bd 0319 c43b e977 ef3c 7d32 ca3c
00000070: 94e1 3f3d cf41 b4bc 0c35 063d c273 8b3c
00000080: 0b08 f63c 313c 01bd 0fea 2a3c 6cef a83c
00000090: 2663 0bbb 7e36 26bd 1be0 f73c 155d 23bd
000000a0: 127d 9a3c 11ae 3c3c 9173 15bd a435 143d
000000b0: c5a9 9d3a 05d8 0cbd 2616 603b e1eb 313d
000000c0: a8f8 f43b 26e5 613d 78be 263d bccc 793c
000000d0: 3d01 3f3d debf 263d 6729 abbc 135a a43c
000000e0: 4739 323c ab49 18bd f3b6 34bc 39b7 82bc
000000f0: 0236 f9bc 94fd 1ebd 4a4d 4ebb 021a 98bb
00000100: fa19 c2bc dad0 c7bb 44c0 16bd a00a 37bd
00000110: 6abe ff3c 0314 40bc 5254 c23b 1906 4abd
00000120: eee2 533c 33e0 273d 696b 163d bf2f 44bd
00000130: 89fe b4bc 2cab 3c3d 67f8 96bc 6129 4bbb
00000140: 22b3 9fbc dfe7 ae3c 392b 313c f2df f33c
00000150: 7424 0ebd a803 c2bc 304e 0f3d 8bcd 29ba
00000160: 8049 fc3c c52e 5b3c 1f3a 583d ae7f fb3b
00000170: 2911 3fbd 6c4d 5f3d be87 2d3b 4e09 813c
00000180: f4f7 3cbd fbfa 653d 3aff 2d3d 8093 07bd
00000190: 06b7 b6bc 675b 5b3d 1800 403d e957 37bc
000001a0: 2023 5c3b 2e16 3dbd e863 7b3c 46fd a93b
000001b0: e5c6 4e3c efef 5a3d 7bbe 29bc 1dd6 8bbc
000001c0: b574 bc3c b53a 1ebc 9b9c 1e3d ce88 b43c
000001d0: 151e cbbc 3cf4 63bc c320 2e3c 1022 b53b
000001e0: a00f 593d 1325 f5bc 58e8 a13c 75ef 85bc
000001f0: ab5c 4c3d 756b 59bd 63f0 183c d8f8 50bd
00000200: f760 0d3b 459c 78bc 9a91 08bc 5ac4 3fbc
00000210: c81a 29bd 4431 68bc a6fa 9d3c 2a74 2a3d
00000220: 7784 bfbc 3883 61bd c59e ab3c b688 69bd
00000230: 5e8c d4bc 7c82 6fbc 8997 e9bc 85f7 143d
00000240: 9c97 90bc 738a 07bd 7e23 30bd 2888 433c
00000250: eecc 18bd f299 dd3c 0798 503d 76ca a43c
00000260: cea3 3f3d 66bb 91bc d3c3 29bd 7dab 1bbd
00000270: 031c ccbb a04f b53c 2f9b b2bc 29cd 3bbd
00000280: 8e6d 2e3d ad6b 2b3d da02 0fbd 762e b03b
00000290: 4239 483d 55f9 143c 8951 29bd fe20 3abd
000002a0: 80e8 543d a974 413d 68dc 0ebd c3ad 343d
000002b0: 511c 56bd 6cf3 69bd 138b 5abd 2896 c6bc
000002c0: b5d9 0ebd 7b37 eabc ad5c ccbc 2520 0cbd
000002d0: ce83 213c 35be 323d f6df 443d f245 3c3d
000002e0: f3f9 3d3d 9e8f 153d 7d9e 513c 2fa3 ce3c
000002f0: 175a dfbc 1da0 013d 8318 c7bc 6584 633c
00000300: bd05 143d 3d72 50ba d9b0 bf3c ca88 09bd
00000310: 524b ed3b 3cd8 673c 428a b23c 4e31 fe3c
00000320: 6d83 dcbc 82f4 43bd 637f 0f3d 22e7 303d
00000330: a03c 1cbd 83ba 1cbd 4f00 393d 93ae f6ba
00000340: 977d 633d 682f 493d 6e19 2ebd f724 043d
00000350: 628d 81bc bdd3 96bc 3400 eb3c f52f 96bc
00000360: 8eea 8e3c 5974 2abd 90d1 01bd ff9f 32bc
00000370: cacc d03b 464b 2b3d 5064 02bc 6951 5d3c
00000380: 17ef d23c 1a41 b2bc 2588 1c3c 43fe abbc
00000390: e4d0 e73c e9bf 2bbd c0bb 2c3d d9de c43c
000003a0: bdff c63c 09e6 053d c299 52bd 7761 60bb
000003b0: ab84 f93c b8c1 fe3c 2b55 68bd bd74 2d3d
000003c0: e5fb 13bd 0677 df3b 8d33 95bc 087c 6bbd
000003d0: 8a53 9e3b 753f 27bc faee e2bb ccf4 253d
000003e0: efef ccbc 1aa2 c3bc e9c5 f93b 91f5 57bd
000003f0: ec08 0a3d cc69 babc cb84 d53c c7f2 c13b

bias f4 [24]
-0.04867622 0.030635592 -0.026310032 0.056081012 0.043049198 0.019806428 0.009287452 -0.023952525
0.025931355 -0.032767896 -0.016143024 0.01956529 -0.015614885 0.035955377 0.009455648 0.02590748
0.05129988 -0.007989459 -0.035607122 0.01219054 0.022199202 0.010891273 -0.044863775 0.03123407
00000000: b760 47bd 7ef7 fa3c 2388 d7bc 34b5 653d
00000010: 5b54 303d 1741 a23c 662a 183c 1638 c4bc
00000020: fe6d d43c a137 06bd 603e 84bc 6347 a03c
00000030: 93d5 7fbc f245 133d ddeb 1a3c ec3b d43c
00000040: d31f 523d 38e6 02bc c6d8 11bd d5ba 473c
00000050: 1adb b53c 4f71 323c 14c3 37bd 98de ff3c

weight f4 [24]
0.99994946 0.9999856 0.9999379 1.000001 1.0000036 1.0000025 1.0000291 0.99994105
1.0000006 0.9999941 1.0000021 0.99996585 0.99995214 1.0000005 1.0000002 1.0000011
0.9999918 1.0 1.000004 0.99992126 1.0000015 0.99993485 1.0000002 1.0000001
00000000: b0fc 7f3f 0eff 7f3f eefb 7f3f 0800 803f
00000010: 1e00 803f 1500 803f f400 803f 23fc 7f3f
00000020: 0500 803f 9dff 7f3f 1200 803f c3fd 7f3f
00000030: ddfc 7f3f 0400 803f 0200 803f 0900 803f
00000040: 76ff 7f3f 0000 803f 2200 803f d7fa 7f3f
00000050: 0d00 803f bbfb 7f3f 0200 803f 0100 803f

bias f4 [24]
-6.325052e-05 -4.598457e-05 -4.7941708e-06 3.8075414e-05 8.343904e-05 -1.4154082e-05 0.000224888 -9.54897e-05
6.223928e-05 8.431007e-05 -7.570928e-05 -8.188114e-05 -0.000120905985 2.791278e-05 8.326068e-05 7.393411e-05
-1.6277103e-05 -5.0412178e-05 6.445135e-05 -0.000106458494 -8.9444315e-05 -8.869704e-05 5.875043e-05 9.449019e-05
00000000: 5da5 84b8 8edf 40b8 9ddd a0b6 2ab3 1f38
00000010: fefb ae38 5277 6db7 eacf 6b39 a441 c8b8
00000020: 7686 8238 a0cf b038 1cc6 9eb8 9ab7 abb8
00000030: e88e fdb8 3d26 ea37 3d9c ae38 130d 9b38
00000040: d08a 88b7 aa71 53b8 0e2a 8738 7842 dfb8
00000050: 0d94 bbb8 dc02 bab8 cb6a 7638 0929 c638

running_mean f4 [24]
0.15315653 -0.22643004 0.66838104 0.056664146 0.0037539527 -0.13700809 0.5683206 0.20975351
-0.7740143 -0.033287898 0.23316924 0.43587366 0.08151434 0.4361401 -0.16223988 -0.402156
-0.2594589 -0.029534444 -0.10176577 0.42837918 0.12868369 -0.078684404 -0.110058025 0.029670147
00000000: 11d5 1c3e 47dd 67be 051b 2b3f aa18 683d
00000010: e004 763b d94b 0cbe 757d 113f a0c9 563e
00000020: cd25 46bf e458 08bd ebc3 6e3e d52a df3e
00000030: fef0 a63d c14d df3e 3622 26be 64e7 cdbe
00000040: ccd7 84be 38f2 f1bc 926a d0bd 8454 db3e
00000050: a8c5 033e 4a25 a1bd 1a66 e1bd cf0e f33c

running_var f4 [24]
0.24720442 0.11037468 0.706636 0.21047857 0.08921259 0.11464092 0.31472766 0.13485137
0.43713257 0.17011565 0.10744408 0.092668794 0.32272124 0.16508348 0.25947875 0.21586259
0.11357958 0.20564774 0.12383619 0.14476047 0.14782381 0.09958861 0.11629945 0.13644437
00000000: 2823 7d3e 1f0c e23d 19e6 343f b287 573e
00000010: 17b5 b63d dcc8 ea3d fc23 a13e 7a16 0a3e
00000020: d7cf df3e cc32 2e3e a40b dc3d 23c9 bd3d
00000030: b83b a53e a50b 293e 66da 843e 150b 5d3e
00000040: 699c e83d 5295 523e d49d fd3d 173c 143e
00000050: 205f 173e 1df5 cb3d 682e ee3d 13b8 0b3e

weight f4 [24, 24, 5, 5]
-0.02701511 0.01621638 0.0048820153 0.004657957 0.035366364 -0.013001977 0.0031970926 -0.016710583
0.011352905 0.007784865 0.022490667 -0.0278353 0.016344776 -0.0028057308 0.022209503 -0.020526245
-0.021922845 -0.012703802 0.025652388 -0.014242116 -0.02324058 0.033611428 0.004081217 -0.017238919
-0.028939221 0.02331865 0.032242827 -0.038780488 0.003005009 0.0012273212 0.037213746 -0.021330332
-0.0086718295 0.009694843 0.017456036 -0.0031416616 0.0069167386 -0.0051759547 0.037102748 0.0077731446
0.0345921 -0.0050812257 0.008998504 -0.02846602 -0.020069843 -0.009782292 -0.00420918 0.0151379155
-0.034503527 -0.021406434 -0.026107142 -0.030197376 0.040337287 0.005345616 -0.0039858907 -0.0060580526
-0.013995456 0.0019276941 0.011563759 -0.024290107 -0.016855225 -0.02705367 -0.021487527 0.03934378
-0.0128838215 0.0013607835 -0.039698347 -0.026980532 -0.016107505 0.0047120852 -0.025751606 0.03643044
0.025378393 0.015937703 0.017183237 -0.011025503 0.03924682 -0.0022614198 0.013088686 0.024212942
0.01236882 0.010771859 -0.032894764 0.0006378553 0.03514261 0.015562513 -0.018295534 -0.018193465
0.019908318 0.015607873 -0.032283746 0.02488256 0.030120881 -0.007727334 -0.035032928 -0.03101626
-0.011081106 0.025440892 -0.006415407 -0.014156291 0.023558522 -0.024404008 -0.019845642 0.02988776
-0.039191507 0.013422396 0.039558463 -0.02066746 0.0029872225 0.025814414 -0.01546437 0.011202705
-0.000659315 -0.019339498 0.0025687176 -0.028939947 -0.003017507 -0.0110624125 0.033938427 -0.018150803
0.011847054 -0.038268425 -0.016418165 -0.019961782 -0.03513889 -0.021042097 -0.014427885 0.025149563
-0.037757326 -0.03619874 0.008329485 -0.025782298 0.03627472 -0.015271172 0.009398032 0.01571368
0.01971227 -0.035872202 0.03036339 0.021478465 -0.006073442 0.032317486 -0.0006599184 -0.011852656
-0.028898355 0.014938989 0.014442686 0.04047349 0.025505781 0.007134604 -0.02364112 -0.039832037
-0.016042307 -0.0058303517 0.020422217 -0.02089755 0.014846774 -0.011982027 0.03653329 -0.034039497
-0.019614266 -0.025404446 0.03201187 0.032375146 0.021180136 0.0064462465 -0.029938808 0.011041376
-0.039370906 -0.040394258 0.034408808 -0.03801606 0.025626313 0.01616174 0.010033694 -0.038575146
-0.008980736 -0.006000659 -0.03273357 0.013341231 0.031699307 -0.022056364 0.030396393 0.007999244
0.038166348 0.017318657 -0.009474958 0.016041702 -0.02064826 0.005095563 0.009375766 -0.017745443
-0.009453419 0.038161136 0.0014475199 -0.03564839 -0.002305688 -0.010441975 0.024687827 0.0064317966
-0.0128460135 0.02872712 -0.022307934 0.03653919 -0.0033556845 -0.0117570935 0.015847452 0.0038138013
-0.022038473 0.036807813 -0.030346375 -0.008492751 -0.012900613 0.031138012 -0.015368474 -0.027163967
0.033857074 0.032006282 0.04030514 0.0107461475 -0.039603826 -0.029342948 0.0355801 -0.0017895756
0.018393822 -0.0371069 0.014464257 0.008684537 0.022052892 0.038711425 -0.023691384 0.005216877
0.015834844 0.024364172 0.009633768 -0.0093362825 0.03126953 0.006060074 0.034295358 0.03563867
0.038890034 0.020738332 0.0073818397 0.030976195 0.035225213 -0.03889013 0.018281259 0.03583025
0.037062902 -0.036592856 0.031365775 0.022226132 -0.03499696 0.013922079 -0.034380082 -0.028974976
00000000: cb4e ddbc 37d8 843c 50f9 9f3b c6a1 983b
00000010: 52dc 103d 3e06 55bc 5086 513b a2e4 88bc
00000020: 8901 3a3c 2e18 ff3b 593e b83c db06 e4bc
00000030: 7be5 853c 5ae0 37bb b4f0 b53c a826 a8bc
00000040: 8a97 b3bc 9c23 50bc f524 d23c c457 69bc
00000050: 0763 bebc 23ac 093d bbbb 853b a238 8dbc
00000060: f211 edbc c106 bf3c 0e11 043d 4ad8 1ebd
00000070: afef 443b 11de a03a 716d 183d f3bc aebc
00000080: 4a14 0ebc 1ed7 1e3c f6ff 8e3c 56e4 4dbb
00000090: cfa5 e23b 0e9b a9bb 0df9 173d ddb5 fe3b
000000a0: 72b0 0d3d 6980 a6bb 766e 133c 9231 e9bc
000000b0: 8369 a4bc e845 20bc 29ed 89bb 0505 783c
000000c0: 9253 0dbd 8c5c afbc a5de d5bc 7d60 f7bc
000000d0: b638 253d 472a af3b 139c 82bb a182 c6bb
000000e0: 324d 65bc aeaa fc3a ec75 3d3c 0cfc c6bc
000000f0: f813 8abc a89f ddbc 9c06 b0bc f226 213d
00000100: aa16 53bc 515c b23a bc9a 22bd 4706 ddbc
00000110: e3f3 83bc d667 9a3b 08f5 d2bc 1638 153d
00000120: 59e6 cf3c c98f 823c dcc3 8c3c 50a4 34bc
00000130: 46c1 203d 5434 14bb ee71 563c 385a c63c
00000140: 97a6 4a3c 747c 303c a9bc 06bd bf35 273a
00000150: b3f1 0f3d e9f9 7e3c 84e0 95bc 760a 95bc
00000160: c516 a33c 2ab8 7f3c f63b 04bd 83d6 cb3c
00000170: 11c0 f63c 9335 fdbb b07e 0fbd d015 febc
00000180: 878d 35bc 6b69 d03c 5638 d2bb caef 67bc
00000190: cdfd c03c eaea c7bc 5493 a2bc 2dd7 f43c
000001a0: 4687 20bd 9ce9 5b3c 0e08 223d ce4e a9bc
000001b0: 47c5 433b c078 d33c 455e 7dbc 8d8b 373c
000001c0: e1d5 2cba de6d 9ebc ee57 283b 7813 edbc
000001d0: 5ec1 45bb 1f3f 35bc 0503 0b3d feb0 94bc
000001e0: 251a 423c 5abf 1cbd 637f 86bc e486 a3bc
000001f0: cced 0fbd 7a60 acbc f062 6cbc 7506 ce3c
00000200: 6da7 1abd 2145 14bd 6478 083c 6635 d3bc
00000210: cd94 143d f033 7abc 34fa 193c fab9 803c
00000220: a07b a13c bbee 12bd a5bc f83c 9bf3 af3c
00000230: b903 c7bb 575f 043d 60fe 2cba a431 42bc
00000240: 3ebc ecbc a9c2 743c 04a1 6c3c 88c7 253d
00000250: 80f1 d03c 65c9 e93b 06ab c1bc eb26 23bd
00000260: 286b 83bc 890c bfbb 7e4c a73c 5731 abbc
00000270: e23f 733c 4450 44bc eea3 153d 006d 0bbd
00000280: 19ae a0bc fc1c d0bc e11e 033d cd9b 043d
00000290: f781 ad3c 093b d33b 3b42 f5bc e3e6 343c
000002a0: 6343 21bd 7374 25bd 40f0 0c3d bab6 1bbd
000002b0: 46ee d13c a065 843c 5d64 243c f900 1ebd
000002c0: f023 13bc 2da1 c4bb a313 06bd 2e95 5a3c
000002d0: 22d7 013d 8caf b4bc db01 f93c 430f 033c
000002e0: 5154 1c3d dbdf 8d3c db3c 1bbc e369 833c
000002f0: 8a26 a9bc aef8 a63b d09c 193c e45e 91bc
00000300: 83e2 1abc da4e 1c3d b5ba bd3a 0c04 12bd
00000310: 071b 17bb d114 2bbc 203e ca3c d2c1 d23b
00000320: 1678 52bc 2355 eb3c 21bf b6bc 1eaa 153d
00000330: 0beb 5bbb d3a0 40bc 84d2 813c f8f0 793b
00000340: 078a b4bc cac3 163d f698 f8bc 2e25 0bbc
00000350: 185d 53bc 2515 ff3c 0dcc 7bbc f886 debc
00000360: b7ad 0a3d 0519 033d 0117 253d 9c10 303c
00000370: 9f37 22bd 9f60 f0bc 70bc 113d 3190 eaba
00000380: a4ae 963c 68fd 17bd 7efb 6c3c 9749 0e3c
00000390: 44a8 b43c df8f 1e3d 6f14 c2bc 56f2 aa3b
000003a0: 13b8 813c 5f97 c73c f4d6 1d3c 35f7 18bc
000003b0: 7b14 003d 9693 c63b 4a79 0c3d dbf9 113d
000003c0: 284b 1f3d 6fe3 a93c 5ce3 f13b cac1 fd3c
000003d0: 5048 103d 424b 1fbd 94c2 953c bdc2 123d
000003e0: 45cf 173d 64e2 15bd 6679 003d 9413 b63c
000003f0: f958 0fbd 6e19 643c 21d2 0cbd ee5c edbc

bias f4 [24]
0.015652755 0.01499905 -0.023723956 -0.016644383 -0.028918417 0.02762173 -0.03975001 -0.020408565
0.0028293235 0.011846295 0.037032068 0.031007322 -0.027389841 0.036583193 0.017092485 -0.00073179096
0.0009429862 0.006685399 -0.032958362 0.021030383 -0.009796393 -0.0131365685 -0.023773324 0.029656608
00000000: 353a 803c 93be 753c be58 c2bc cd59 88bc
00000010: 51e6 ecbc f746 e23c e8d0 22bd dd2f a7bc
00000020: 2c6c 393b f616 423c f0ae 173d 1103 fe3c
00000030: a960 e0bc 42d8 153d 8a05 8c3c a9d5 3fba
00000040: bc32 773a 3111 db3b 59ff 06bd e947 ac3c
00000050: 0d81 20bc c33a 57bc 46c0 c2bc 6af2 f23c

weight f4 [24]
0.9999902 0.9999603 1.0000015 1.0000024 1.0000046 1.0 0.9999779 1.0000004
0.99999917 1.0000007 0.9999988 1.0000039 1.0 0.99993217 1.0000155 1.0000013
1.0 0.9999807 1.0000021 0.9999001 1.0000012 1.000005 0.9999979 1.0
00000000: 5cff 7f3f 66fd 7f3f 0d00 803f 1400 803f
00000010: 2700 803f 0000 803f 8dfe 7f3f 0300 803f
00000020: f2ff 7f3f 0600 803f ecff 7f3f 2100 803f
00000030: 0000 803f 8efb 7f3f 8200 803f 0b00 803f
00000040: 0000 803f bcfe 7f3f 1200 803f 74f9 7f3f
00000050: 0a00 803f 2a00 803f ddff 7f3f 0000 803f

bias f4 [24]
1.1410806e-06 0.00010354988 6.894492e-06 0.00012331194 0.00021081051 9.9773875e-05 7.348459e-05 7.8713165e-05
6.1932085e-05 0.00011505718 7.943198e-05 0.00023078553 4.9281753e-05 -5.3987034e-05 0.00022432489 4.727321e-05
0.0001463317 0.00011742185 7.8730576e-05 -5.592937e-05 1.0551382e-05 0.00016931798 8.1538514e-05 0.00010819133
00000000: 3b27 9935 eb28 d938 3c57 e736 4c4d 0139
00000010: 040d 5d39 b13d d138 bd1b 9a38 cf12 a538
00000020: 89e1 8138 da4a f138 b894 a638 05ff 7139
00000030: e1b3 4e38 2370 62b8 c138 6b39 3947 4638
00000040: 9e70 1939 6040 f638 281c a538 b495 6ab8
00000050: d705 3137 f38a 3139 a8ff aa38 c7e4 e238

running_mean f4 [24]
-0.068683445 0.10266022 0.2449079 0.28649482 -0.01917731 0.25429755 -0.17310992 0.18957545
0.036532246 0.015645057 0.13568293 0.1793448 -0.12719709 0.14440615 0.29203677 0.008545072
0.18952139 0.0862998 0.032619417 0.3673793 0.02892307 -0.08495031 -0.11543281 -0.4862159
00000000: e8a9 8cbd 853f d23d 23c9 7a3e 73af 923e
00000010: bc19 9dbc 4a33 823e ba43 31be 1120 423e
00000020: d6a2 153d 102a 803c 77f0 0a3e 2aa6 373e
00000030: f43f 02be 35df 133e d885 953e a100 0c3c
00000040: e511 423e f3bd b03d f09b 053d 2419 bc3e
00000050: 13f0 ec3c 6efa adbd 0968 ecbd 4af1 f8be

running_var f4 [24]
0.20589855 0.16767427 0.13789438 0.15712966 0.08473601 0.1346768 0.121694975 0.07358887
0.10398332 0.12795801 0.14093389 0.07090639 0.101349905 0.14235471 0.101711035 0.10852016
0.13693137 0.11624236 0.115811095 0.12140055 0.10720335 0.22061832 0.13061422 0.20118411
00000000: 12d7 523e ceb2 2b3e 2f34 0d3e 99e6 203e
00000010: 138a ad3d b7e8 093e 373b f93d c3b5 963d
00000020: 35f5 d43d 6d07 033e f950 103e 5f37 913d
00000030: 8a90 cf3d 6fc5 113e e04d d03d d13f de3d
00000040: bd37 0c3e 7910 ee3d 5e2e ed3d daa0 f83d
00000050: 6e8d db3d c5e9 613e bcbf 053e 3503 4e3e

weight f4 [10, 16224]
0.0052837157 0.0006856597 -0.0052044927 0.00592215 -0.005822591 0.0049525984 -0.0048384587 0.0008500471
-0.0009868483 0.000107411186 -0.0065748314 -0.00592766 0.0059550297 -0.005405308 0.0012795271 0.007238537
-0.00063977606 0.00253987 -0.0040377546 0.002567899 -0.0008223449 -0.0024474994 -0.00010991252 0.0030584566
0.0036533216 0.0069827777 0.001468179 0.003935603 -0.0071448553 0.00087876176 -0.006592697 -0.0002556529
-0.0025875974 -0.0065558734 0.0064612757 -0.003666538 0.0071125804 -0.004145675 0.0003565569 0.0035417175
-0.005157432 -0.005986217 0.0006618109 3.7869955e-05 -0.0008098576 -0.0049242387 -0.004893526 -0.0063104057
-0.0023416185 -0.0042423606 0.0035847034 0.0014478122 -0.0025276456 0.0045097615 0.0041308464 -0.0066196215
-0.0017251453 5.9044312e-05 -0.0051894314 -0.0032797703 0.0037966452 0.0055227936 -0.00078355265 0.0017761232
-0.0029828697 -0.0013465103 -0.0060540508 0.0040091486 0.0024344402 3.6982085e-05 -0.0008041867 -0.0024797628
0.00055585365 0.00020673739 0.0037475217 -0.0015597538 0.0009141427 0.0022593825 -0.0053939433 0.003371851
0.007947936 -0.0031368113 0.0038002285 -0.0047057886 -0.0060937563 0.0012822341 0.0017731921 -0.006758525
0.0035467804 0.0080098985 0.0041133915 -0.00078838645 -0.0058662994 0.0010099307 -0.0059520355 -0.0040838714
0.0034663568 -0.0041966513 0.0017152326 0.0038739012 -0.0075088562 -0.003310148 -0.0033787782 0.0026359544
0.003431592 -0.0068258573 -0.005618225 0.0027247183 -0.0067077293 -0.000572826 -0.003628684 -0.007411968
0.0026011162 -0.00761324 0.00615829 0.0047807577 -0.006299654 -0.0016125507 0.006959681 -0.004643214
0.0076083527 0.0058623636 0.0023649659 -0.0025144455 0.0070678033 0.003115023 0.006632879 0.0022874067
0.007710269 0.0003942069 -0.0022966038 -0.0036332184 0.0019680469 0.0008827002 0.006969589 0.0026216125
0.0064594205 0.0040567345 0.0076990267 0.006144084 -0.00633175 0.00711449 0.0006912583 -0.004333007
0.0053179637 0.0032405274 0.004359778 0.003870394 0.0060011237 0.007981437 0.0076626353 0.005320767
0.004804771 0.0035915521 0.0029250076 -0.003529771 0.0017598643 0.006214454 0.0030418313 0.0030440616
0.0059549133 0.006805687 0.0047002444 0.006328852 0.002687335 0.00021116008 -0.00066647487 0.0026020291
0.0012733627 -0.0047576553 -0.0063963714 -0.0043062796 0.0025237084 9.267808e-05 0.0045856354 -0.004660461
-0.0024218818 0.004286597 -0.0028723436 0.007460576 0.0007130641 -0.0012719266 0.0003612625 0.0013664836
0.0013431646 0.0067013116 -0.0023189688 0.0026150353 -0.00091783673 0.0017467013 0.0066108475 0.0032981131
0.0071669524 0.0033933208 0.0036742082 0.0020439278 -0.0071240445 -0.007243761 0.0027849835 0.0038654953
-0.0040993406 -0.0028628153 -0.0056686355 0.0056260433 0.007010629 -0.0010407045 0.006220139 -0.0069942256
0.007870214 -0.002767295 -0.0057733255 0.0070600407 -0.005407455 0.0008802626 0.0021866215 0.0039252513
0.007018772 0.004672223 -0.0017840081 0.0054870946 0.001843619 -0.0048245434 -0.0016901485 0.0047669997
-0.000510118 -0.0015280005 0.00079420884 -0.0023675186 -0.004432307 0.00092634035 -0.0026495515 -0.0060833488
0.0041242237 -0.000891041 0.0057310597 -0.0003506556 -0.0008005403 -0.00022555518 0.0077671716 0.0012570176
0.0073171654 -0.00588027 -0.0037351619 0.0020751934 -0.0055791144 0.005715998 0.00043866973 0.0007763714
0.0005831338 0.00022206071 0.004669836 0.0007486881 -0.0049782097 0.0027321116 -0.0072261235 0.0019299639
00000000: 0523 ad3b d8bd 333a 738a aabb 980e c23b
00000010: 6fcb bebb 6849 a23b ef8b 9ebb b2d5 5e3a
00000020: 2259 81ba f141 e138 af71 d7bb d13c c2bb
00000030: 6922 c33b 031f b1bb ceb5 a73a 4031 ed3b
00000040: a5b6 27ba f373 263b 244f 84bb 324a 283b
00000050: a292 57ba 3a66 20bb d680 e6b8 6370 483b
00000060: 916c 6f3b c9cf e43b ea6f c03a 3bf6 803b
00000070: 641f eabb b45c 663a 8d07 d8bb 2709 86b9
00000080: ae94 29bb a7d2 d6bb 1cb9 d33b 4d4a 70bb
00000090: a610 e93b 71d8 87bb 42f0 ba39 291c 683b
000000a0: adff a8bb 0728 c4bb 617d 2d3a 8ed6 1e38
000000b0: a04c 54ba 825b a1bb df59 a0bb 85c7 cebb
000000c0: d775 19bb 8003 8bbb 58ed 6a3b 84c4 bd3a
000000d0: dba6 25bb 9fc6 933b 0d5c 873b 69e9 d8bb
000000e0: 451e e2ba 59a6 7738 1b0c aabb 6af1 56bb
000000f0: 23d1 783b 8df8 b43b 5467 4dba cecc e83a
00000100: 407c 43bb 637d b0ba 0f61 c6bb 2d5f 833b
00000110: 218b 1f3b 361d 1b38 0ed0 52ba 8483 22bb
00000120: b5b6 113a a5c7 5839 fb98 753b a770 ccba
00000130: 14a3 6f3a 2612 143b adbf b0bb 46fa 5c3b
00000140: 0f38 023c f692 4dbb 410d 793b 0433 9abb
00000150: 22ae c7bb a310 a83a 746a e83a 9e76 ddbb
00000160: 1a71 683b f33b 033c a1c9 863b b8ab 4eba
00000170: 163a c0bb a75f 843a 4b09 c3bb ffd1 85bb
00000180: d12b 633b 1084 89bb a8d1 e03a 47e1 7d3b
00000190: da0c f6bb 11ef 58bb 7e6e 5dbb fabf 2c3b
000001a0: 8fe4 603b 71ab dfbb 1619 b8bb 3091 323b
000001b0: 83cc dbbb b429 16ba 37cf 6dbb 18e0 f2bb
000001c0: 7d77 2a3b 7c78 f9bb 7bcb c93b e7a7 9c3b
000001d0: 546d cebb 395c d3ba 090e e43b 1a26 98bb
000001e0: 7d4f f93b 1219 c03b 8bfd 1a3b 65c9 24bb
000001f0: 0899 e73b 6a25 4c3b 9f58 d93b 51e8 153b
00000200: 6da6 fc3b 8ead ce39 9e82 16bb 4a1b 6ebb
00000210: 59fa 003b 0265 673a 2661 e43b 5ccf 2b3b
00000220: 8ca9 d33b 5bee 843b 1e48 fc3b 5054 c93b
00000230: 927a cfbb ab20 e93b 8f35 353a e6fb 8dbb
00000240: 5042 ae3b 075f 543b 78dc 8e3b 70a6 7d3b
00000250: 13a5 c43b 93c4 023c d816 fb3b d459 ae3b
00000260: 5771 9d3b 3f60 6b3b 7cb1 3f3b bb53 67bb
00000270: 3fab e63a 9ea2 cb3b 7659 473b e17e 473b
00000280: 6f21 c33b 3e02 df3b 8204 9a3b 4262 cf3b
00000290: 001e 303b da6a 5d39 5fb6 2eba ce86 2a3b
000002a0: f6e6 a63a 1be6 9bbb a798 d1bb b11b 8dbb
000002b0: cd64 253b 2a5c c238 1943 963b c8b6 98bb
000002c0: 6fb8 1ebb 9576 8c3b ee3d 3cbb d977 f43b
000002d0: ecec 3a3a c6b6 a6ba d567 bd39 951b b33a
000002e0: 200d b03a ad96 db3b d7f9 17bb 0361 2b3b
000002f0: fb9a 70ba 92f1 e43a cf9f d83b 2825 583b
00000300: c1d8 ea3b 7a62 5e3b fcca 703b 6bf3 053b
00000310: d170 e9bb 125d edbb 4584 363b 4054 7d3b
00000320: c353 86bb 129e 3bbb f6bf b9bb ac5a b83b
00000330: 6bb9 e53b 4068 88ba 4fd2 cb3b d12f e5bb
00000340: 12f2 003c 825b 35bb 2a2e bdbb ea57 e73b
00000350: 0531 b1bb 6cc1 663a 6c4d 0f3b 659f 803b
00000360: bafd e53b 7219 993b 61d5 e9ba 16cd b33b
00000370: 97a5 f13a 3417 9ebb f987 ddba 7e34 9c3b
00000380: 71b9 05ba 3047 c8ba 7432 503a 5f28 1bbb
00000390: e33c 91bb a6d5 723a 19a4 2dbb d456 c7bb
000003a0: 7f24 873b c094 69ba 9dcb bb3b 33d8 b7b9
000003b0: 5adb 51ba 0283 6cb9 c283 fe3b 83c2 a43a
000003c0: d5c4 ef3b 48af c0bb 9ec9 74bb f8ff 073b
000003d0: 01d1 b6bb 444d bb3b 41fd e539 6785 4b3a
000003e0: 72dd 183a f8d8 6839 6c05 993b 9c43 443a
000003f0: 4020 a3bb 3a0d 333b 1ec9 ecbb d8f6 fc3a

bias f4 [10]
0.0058849934 -0.00010938394 -0.0058483994 -0.00027391867 -0.0012002486 0.003024991 -0.007221235 -0.005562771
-0.0071917768 -0.0011816097
00000000: e7d6 c03b 0e65 e5b8 eea3 bfbb be9c 8fb9
00000010: a951 9dba ed3e 463b 1ca0 ecbb e847 b6bb
00000020: ffa8 ebbb 3ee0 9aba
