models/Demo/LOGS/models/nnet_epoch_8.pt (torch, 765965 bytes, 26 tensors)

weight f4 [12, 3, 5, 5]
000000 a0 e7 15 3d 91 75 e4 bd bc 77 55 3d 5b 17 a6 bd
       0.036597848 -0.111552365 0.05211614 -0.081099235
000010 aa 3d e1 bd 74 97 8c 3d 75 22 02 bd d7 f2 a6 bd
       -0.109980896 0.06864825 -0.031771142 -0.08151787
000020 eb 70 98 bd e4 94 8b bd 98 e3 5a 3d 0d 37 a7 3d
       -0.074434124 -0.06815508 0.053439707 0.08164797
000030 cc f1 c7 bd 7f 87 8a bc ba 22 6d 3d 82 23 92 3c
       -0.09762916 -0.016910313 0.057894446 0.017839197
000040 80 24 3f 3c c1 8f 90 bd a4 cf af bd e2 31 ce bd
       0.011666417 -0.07058669 -0.08584526 -0.10068108
000050 4e 65 7c bd c2 03 79 3d 17 29 81 3d f1 56 cf 3d
       -0.06162005 0.0607946 0.063066654 0.10124005
000060 0a 3f e8 3d ee 5f 47 bb 43 40 20 bc 66 f8 ce 3c
       0.11340149 -0.0030422169 -0.009780946 0.02526493
000070 b4 05 94 3c 61 d8 85 bd 25 c4 64 3d 7c 32 c0 3d
       0.018069126 -0.065354116 0.05585112 0.09384629
000080 ce 9b d8 3d ec 88 54 bb 44 74 e1 3d 56 a3 14 3d
       0.105765924 -0.0032430245 0.11008504 0.03628858
000090 d1 c3 7e 3d 08 eb 08 bc 41 f2 55 bd 36 ae 5b 3d
       0.062198464 -0.008356817 -0.052232984 0.053632937
0000a0 38 af d8 3d db 31 bc bd fd 75 d1 bd 01 d1 ba 3d
       0.10580295 -0.09189197 -0.102275826 0.091218956
0000b0 64 57 c4 3d 2a fc 8d bc e3 56 c5 3b 2b b5 26 bd
       0.09586981 -0.017332155 0.0060223206 -0.04070012
0000c0 5a 8a 46 3d 15 03 bf 3d 3b 2f ae bd 9b b5 cc bd
       0.048471786 0.0932676 -0.08505102 -0.09995576
0000d0 d0 8f 59 3d d1 f8 97 bd 5b 30 30 3b d7 34 c1 3b
       0.053115666 -0.07420505 0.002688429 0.0058961916
0000e0 35 0e d9 3c 0e b6 df bd 61 9d be 3d 5e 64 5d 3d
       0.026496032 -0.10923396 0.093073614 0.054050796
0000f0 4d 2f ae bd 66 62 dd 3d ba e8 d5 3d 57 b7 c0 3d
       -0.08505116 0.10809784 0.1044478 0.09409969
000100 09 82 10 3b 7b 22 da bd c9 91 5a 3d e2 46 80 bd
       0.0022050163 -0.10651108 0.053361688 -0.0626352
000110 77 b6 bd 3c 8c b8 2e 3c 1b e2 a0 bd 7f 3e 9a 3d
       0.023158295 0.010664117 -0.07855626 0.075314514
000120 9e e7 c4 bc 6c 9a 71 bd cc 44 a2 3d 24 23 e3 3d
       -0.024036225 -0.05898516 0.07923278 0.11090687
000130 3c 03 7e bd 61 bb e3 bd b5 90 d9 bd 4a 59 4d bc
       -0.062014803 -0.11119724 -0.10623304 -0.012533495
000140 7d 4b 6d bd cd 2e dd bb 21 38 b2 ba eb 44 a5 bd
       -0.05793332 -0.006749964 -0.001359705 -0.08069786
000150 e8 6b f6 3c 25 2d 11 3d aa b8 90 bd 19 4a ad 3d
       0.03008075 0.035443444 -0.07066472 0.08461399
000160 cc 2f b1 3d de 16 da bc 88 92 12 bd 79 a2 37 3c
       0.08651695 -0.026622232 -0.035784274 0.01120817
000170 79 ff 15 3d 51 ee c6 3d 24 5a 4c 3d e0 57 ae 3d
       0.03662059 0.09713424 0.049890652 0.085128546
000180 d0 45 d6 bd b3 7f ab 3d bd 4d d0 3d b6 50 7a bd
       -0.104625344 0.08373966 0.101710774 -0.06111213
000190 65 e7 ce bc bc a3 d0 3d ff ba 2b 3c ea ed 54 3c
       -0.025256822 0.1018748 0.010481595 0.012996176
0001a0 e6 8e c5 bd 06 a9 e5 bd 2f c8 71 bc 2c e2 cc bd
       -0.09646396 -0.11213879 -0.0147572 -0.10004076
0001b0 63 ea 44 3d 69 ef 95 bc a0 7d 11 3b d4 83 58 bd
       0.04807509 -0.018302636 0.0022200122 -0.052860096
0001c0 20 42 c9 bc a1 97 a7 bd 96 d4 68 bd 8c a7 77 3b
       -0.024567664 -0.08183218 -0.056843363 0.0037789075
0001d0 bc a1 63 bc 7c af f0 3b 2e b7 26 bd 02 a6 46 3d
       -0.013893541 0.007345138 -0.040702038 0.04849816
0001e0 34 50 e9 3c 44 c4 9e 3d 58 6d c2 bd 44 33 24 3d
       0.028480627 0.077522784 -0.09493512 0.040087953
0001f0 ea ae 40 bd 02 4a 5b 3d e1 45 d5 3d e0 29 83 bd
       -0.04704181 0.053537376 0.10413719 -0.064044714
000200 16 0f e2 3c 9f 7d 63 3c c7 bd d4 3d 14 5b b8 bd
       0.027595084 0.013884931 0.1038776 -0.09001747
000210 f1 6b 17 3d 97 91 5d 3d c8 d3 b6 bd 0c 59 5d 3d
       0.036968175 0.054093923 -0.08927113 0.05404
000220 7c c2 77 3c ef 50 d1 bd 6d cd c9 bd e6 15 1f bd
       0.015122052 -0.10220515 -0.09853635 -0.038839243
000230 7f de fe bc d8 62 05 3d 85 5e 65 bd 6b 10 dd bd
       -0.031111954 0.032564968 -0.055998344 -0.10794147
000240 1c 54 de bd 44 e9 7c bd de 26 d6 bd a3 77 c7 3c
       -0.10855886 -0.061745897 -0.10456632 0.02434904
000250 b5 09 3f 3d e6 a8 6d 3d 40 cc c1 3d c1 4a 4c bd
       0.046640117 0.058022402 0.09462786 -0.04987598
000260 65 c4 a5 bd 9d 1b 62 bd 3a 54 c9 3c 61 e6 e1 bd
       -0.080941 -0.055202115 0.024576295 -0.110302694
000270 12 9a 3c ba 7b c6 b6 bd 56 eb 7e 3d 65 d6 8a bc
       -0.0007194589 -0.08924576 0.062236153 -0.016947934
000280 a8 5d 29 bc b1 59 cd bd 05 68 c0 bd a5 de f3 bc
       -0.010337271 -0.10026873 -0.0939484 -0.029769251
000290 01 35 ca 3d 93 9b 80 bd 0e 98 54 bd d4 80 56 bd
       0.09873391 -0.062796734 -0.051902823 -0.052368954
0002a0 00 01 32 bc a6 4e b0 3d c3 10 ec 3d 86 c0 e8 bd
       -0.010864496 0.08608751 0.115266345 -0.11364846
0002b0 f5 61 0c 3d ac 9f c2 3c e5 21 27 bd 73 eb ad 3c
       0.034273107 0.023757778 -0.04080381 0.021230435
0002c0 2a 7f f3 3b 0e 4a b4 3d 22 cf 91 3d db 86 d4 3c
       0.0074309306 0.08803187 0.071195856 0.02594321
0002d0 4c e0 c6 3d 0e a6 3c 3d b5 2b a1 3c 2c c1 b2 bc
       0.0971075 0.0460568 0.019674161 -0.021820627
0002e0 c0 ac 63 3d 13 45 ae bd b4 99 d9 bd 4c b3 24 bd
       0.05558467 -0.085092686 -0.1062502 -0.040210053
0002f0 06 dd be bd 50 28 b7 bd 2d 13 19 3d 15 4e ce bd
       -0.093195006 -0.08943236 0.037371803 -0.10073487
000300 25 22 ab bc bf ce aa bc 5e 36 52 bd 31 3e c6 bd
       -0.020890305 -0.020850537 -0.05132138 -0.09679831
000310 42 42 da 3d 34 92 ca bc 03 5c 2c bb 3e 8e a6 3b
       0.10657169 -0.024727918 -0.002629996 0.0050828746
000320 08 be d3 bd 67 a8 90 bd 59 d4 d6 bd b0 fa 57 bc
       -0.1033898 -0.0706337 -0.10489721 -0.013182327
000330 56 13 fd bc 74 91 bb bc 0f 73 9a bd d8 54 95 bd
       -0.03089301 -0.022896506 -0.07541477 -0.07291573
000340 a8 0e cf ba 99 34 dd 3d af 05 b2 bd 1d e7 0c bd
       -0.0015797215 0.10801048 -0.0869249 -0.034400094
000350 a6 dc 56 bd c7 95 df bd 81 f7 e7 3b 43 11 ab bd
       -0.05245652 -0.1091724 0.0070790653 -0.08352902
000360 25 52 5d 3c 02 bd 14 bd 89 22 e4 bd 2f 87 7f bd
       0.013508354 -0.036313064 -0.111393996 -0.06238478
000370 62 0d 72 39 d8 65 4f bd ee db d2 bd 0c 14 ea bd
       0.00023083904 -0.050634235 -0.102958545 -0.11429605
000380 3e 7a 71 bc fd c8 4d bb 4f 13 ca 3d 91 e0 a5 3c
       -0.014738617 -0.0031400316 0.09866964 0.020248683
000390 64 07 5c 3d ca 23 ac 3c 11 26 d7 3d 3f 89 b6 bd
       0.053717986 0.02101316 0.105053075 -0.08912896
0003a0 3d 14 b9 3c 2b 74 94 3c 1b 63 14 bc a1 98 34 bd
       0.022592658 0.0181218 -0.009056832 -0.04409087
0003b0 0b b8 ca 3d b6 05 cb bb 3f 3f ea 3d 7c 3a 43 bb
       0.09898385 -0.006195749 0.114378445 -0.0029789498
0003c0 23 c7 fa 3c c6 cb 5e bd e2 9b bc bd ad c6 45 3c
       0.030612534 -0.054393552 -0.0920942 0.012071294
0003d0 bd 63 2b 3c 9f 36 8f bd 65 88 dd 3d cb cd 84 bc
       0.010460791 -0.0699284 0.10817031 -0.016211411
0003e0 3a 8d 89 bc 76 95 5a 3d 23 33 82 bd 9a 9e 43 bd
       -0.016790975 0.053365193 -0.0635741 -0.047758676
0003f0 d7 71 b9 bd 41 48 0b bc c9 fd bd bd 8b 6a e0 3c
       -0.09054916 -0.008501113 -0.09276921 0.027394554

bias f4 [12]
000000 1a fc db 3d af da 8f bd c5 25 2b bd 98 53 19 3d
       0.10741444 -0.070241325 -0.041784067 0.037433237
000010 97 1a 73 bd 28 ed e4 3b 6c 1d c6 3d 7b 3e 92 bc
       -0.05935153 0.006986279 0.096735805 -0.017852059
000020 d5 58 10 bc ee 34 c5 bd 4f c8 2b 3d b5 39 c0 3d
       -0.008810242 -0.09629236 0.041939076 0.09386007

weight f4 [12]
000000 c9 fe 7f 3f c5 ff 7f 3f ba fb 7f 3f 2b 00 80 3f
       0.99998146 0.9999965 0.9999348 1.0000051
000010 05 ff 7f 3f 7f fb 7f 3f e8 fb 7f 3f fe ff 7f 3f
       0.99998504 0.9999313 0.99993753 0.9999999
000020 0e 00 80 3f 04 00 80 3f 11 00 80 3f 21 00 80 3f
       1.0000017 1.0000005 1.000002 1.0000039

bias f4 [12]
000000 89 f9 c5 38 c0 d9 c9 36 e1 dc 0d b9 7d 06 28 39
       9.4401716e-05 6.0156162e-06 -0.00013529092 0.00016024146
000010 0e b5 86 38 49 cc 01 b9 87 05 15 b9 1b 39 4f b8
       6.423342e-05 -0.00012378501 -0.00014211806 -4.940583e-05
000020 77 4f b9 38 2c 2a 9c b8 82 cd 50 37 ca ed 05 39
       8.836289e-05 -7.446515e-05 1.2445615e-05 0.00012772452

running_mean f4 [12]
000000 06 12 68 3e 4e 74 99 be 66 24 30 bf b2 1c 54 3b
       0.22663125 -0.29971546 -0.6880554 0.0032365737
000010 7f f0 6b 3e 82 74 73 3d 0b c2 94 3e b7 d1 fd 3c
       0.2304096 0.059437282 0.29054293 0.030983789
000020 a9 db 00 3c 35 9f 42 3e af 77 5b 3e 00 be 88 3e
       0.007864871 0.19006045 0.21432374 0.26707458

running_var f4 [12]
000000 08 31 41 3c 0c 58 05 3d 60 9a 77 3e fc 7a 00 3b
       0.011791475 0.03255467 0.24179983 0.0019604554
000010 40 44 5e 3d 13 39 4a 3b a7 37 f1 3c 3b 08 5e 3b
       0.054264307 0.0030856773 0.029445482 0.0033879417
000020 b3 d1 5e 3c cd a2 41 3d 4e e0 8a 3c 63 bd c6 3c
       0.013599801 0.0472744 0.01695266 0.024260228

weight f4 [12, 12, 5, 5]
000000 71 f1 42 bd 11 8f 5d bc 21 ab 65 3d af cf e5 3a
       -0.047593538 -0.013522879 0.056071404 0.0017533208
000010 4a ba 60 bb a7 02 b4 bc 22 86 92 bb 55 ef 3d 3c
       -0.0034290724 -0.021973921 -0.0044715563 0.011592706
000020 06 6d 36 bd 2b d3 4d bb 2c 1d 89 3c 89 51 50 3c
       -0.044537567 -0.0031406383 0.016737543 0.012714752
000030 e1 e6 a8 3c fc bf a3 3c 5b bd bf bb 38 5a 9f 3c
       0.020617904 0.019989006 -0.0058514304 0.0194522
000040 d8 37 26 3d fa 44 97 bc bc 6a 3b bd 5b 17 9a 3c
       0.0405806 -0.018465508 -0.045756087 0.018809965
000050 49 7f 20 3d 45 d4 97 3c 99 d9 19 bd 03 c8 f5 3c
       0.03918389 0.018533835 -0.037561033 0.0300026
000060 7e 64 b1 3b 28 c3 6a 3d db 03 3a bd 38 f4 fd bc
       0.005413591 0.05731502 -0.045413833 -0.031000242
000070 28 2f 30 bc 21 fd 3f bd 02 45 48 3d e7 16 c4 bc
       -0.01075343 -0.046872262 0.048893936 -0.023936702
000080 2f 4e 0a bd 35 19 c1 3c 43 06 00 3d fb d8 3b 3d
       -0.033765968 0.02357159 0.03125597 0.045861226
000090 fe bf af 3c 54 5c b4 bc ae 32 17 3d 39 94 07 bd
       0.021453854 -0.022016682 0.036913566 -0.03310034
0000a0 cd 19 21 3d fa 90 ea bb 0d 08 b0 3c 4c 16 83 3c
       0.039331246 -0.007158396 0.021488214 0.016001843
0000b0 c4 17 d5 bc 92 84 7a bc ac 1f 05 3d 34 a6 89 ba
       -0.026012309 -0.015290396 0.032500908 -0.0010501803
0000c0 49 18 04 bd 17 ec ca bc 05 e2 08 bd 0a 96 1f bd
       -0.032249723 -0.02477078 -0.033418674 -0.038961448
0000d0 97 5c 80 bc 66 58 4f 3d 17 b7 cd bc b2 37 9e bc
       -0.01566915 0.050621413 -0.025111718 -0.019313667
0000e0 f8 1c 80 bc 00 d2 fc bc 39 a7 05 bc 7d 92 ef bb
       -0.015638813 -0.030861855 -0.008157545 -0.007311164
0000f0 8b a5 68 3d d1 a4 00 3d e1 c8 9e 3c 1c d9 20 ba
       0.0567985 0.03140718 0.019382896 -0.00061358674
000100 c1 31 c2 3b d2 8a 69 bc 39 d7 17 bc 09 ad 44 3d
       0.0059263413 -0.014254289 -0.009267622 0.04801658
000110 c8 17 03 bc 62 25 23 bc e4 eb 4d 3d d9 2c 9f 3a
       -0.008001275 -0.009957643 0.05027379 0.0012144103
000120 3b 99 6b 3d 9b 8b 1b 3c 11 50 65 3c f9 13 1b bd
       0.05751918 0.009493734 0.01399614 -0.037860844
000130 05 4e 41 bd 99 55 f4 3c 84 38 05 3d 6e 97 62 3d
       -0.047193546 0.029825972 0.0325246 0.055320196
000140 c6 73 be bc 3a 51 56 bd af d3 8b bb 82 c9 2e 3d
       -0.023248564 -0.052323557 -0.004267178 0.04267264
000150 73 d5 53 bd c1 8b 5f 3d c1 03 55 3d f9 42 22 bd
       -0.051717233 0.05457664 0.052005533 -0.03961465
000160 e9 83 35 bc 59 f6 f9 3c c5 52 28 3d 84 e8 6a bd
       -0.011078813 0.030512976 0.04109456 -0.05735065
000170 e3 58 47 bd 02 93 fd 3c 5f 14 19 3c f4 74 99 bb
       -0.048668753 0.030953888 0.009343236 -0.0046831314
000180 4b 55 58 3d d4 8f 4f bd da bd 22 bd bc 7b e8 bc
       0.052815717 -0.050674275 -0.039731838 -0.028379314
000190 0f 64 69 3d 18 a4 37 bc 93 d8 57 3b 83 7d 5d 3c
       0.05698019 -0.011208557 0.0032935485 0.013518694
0001a0 67 bf 35 3d 58 fd 52 3d 37 ab 3a 3d cb 93 5f 3d
       0.04437199 0.05151114 0.04557344 0.054584306
0001b0 5c 42 65 bb a6 ce 01 bd 18 cd 05 3d 71 08 49 3d
       -0.003498218 -0.031691216 0.032666296 0.049080316
0001c0 89 4a b3 bb ac c1 f2 3c db 7f c0 bc a8 3c 3a bc
       -0.005471532 0.029633366 -0.023498466 -0.011367001
0001d0 cf 12 87 3c b2 d3 6c 3d bb d3 e2 3c 81 b6 a8 3b
       0.01648846 0.057819076 0.027688852 0.0051487093
0001e0 73 d0 8d 3c 36 86 66 bc 87 13 15 bc f7 3c ce 3c
       0.01731131 -0.014070084 -0.009098894 0.025175555
0001f0 84 b8 8c bc 73 ac 39 bd f4 0a d3 bc a8 28 b6 bc
       -0.017177828 -0.045330476 -0.025762059 -0.022236183
000200 71 19 3f 3d a5 06 4b bd 15 98 38 bd d0 37 16 3d
       0.046655122 -0.049566884 -0.04506691 0.03667432
000210 bc e8 0f bd 24 73 2e bc d8 2e d2 bc c4 fe 35 3d
       -0.035134062 -0.010647569 -0.025657102 0.044432417
000220 db 2d 57 3c f5 01 a0 bc 80 a4 83 bc c6 ae f4 bb
       0.013133491 -0.019532183 -0.01606965 -0.0074671237
000230 c9 bf cd bc bd c6 29 bd e4 94 f5 bc 69 cb f0 3c
       -0.025115864 -0.041449297 -0.029978223 0.029393869
000240 75 ac 02 bd 06 c1 6a 3d 7c f4 28 bd 7a af ed 3b
       -0.03190275 0.057312988 -0.041248783 0.0072535845
000250 69 74 35 bb 37 7d ea 3b 14 81 e9 39 3d 3c 44 bd
       -0.0027687794 0.00715604 0.00044537394 -0.04790901
000260 a0 a0 61 bb c8 19 77 bc 35 21 0c bd 11 af 4f bd
       -0.0034428015 -0.01508183 -0.034211356 -0.050704066
000270 49 a7 33 3d 30 c5 21 3a fe ea 4a 3b 04 56 a8 3c
       0.043860707 0.0006171046 0.003096282 0.020548828
000280 63 33 43 bd 84 ff d5 bc 65 e7 d5 bc 5c 25 17 bd
       -0.047656428 -0.026122816 -0.026111314 -0.036900863
000290 ef 63 f9 ba 17 30 37 3d bd f2 43 bd 30 1d a4 3c
       -0.0019026975 0.044723596 -0.047838915 0.020033449
0002a0 d5 dc b9 bc 0e 5e 07 bd ae c5 c1 3c 51 a9 ec bc
       -0.022688309 -0.033048682 0.023653831 -0.02888933
0002b0 cb 02 d0 3c 37 b1 64 3d cb f1 21 bd a1 a4 ff bc
       0.025391957 0.055833068 -0.039537232 -0.03120643
0002c0 23 50 c6 bc 86 a6 53 3d 91 52 2d bc 4e 82 45 bd
       -0.024208134 0.05167248 -0.010578767 -0.04821997
0002d0 f7 46 14 3c ce 49 66 3d de 73 b0 3c 5c 6c 2a 3d
       0.009050122 0.05622273 0.021539625 0.041607246
0002e0 b9 3c c1 3c fb 02 4d bd 29 1e 45 bd ba a3 e8 bc
       0.023588525 -0.05005167 -0.048124466 -0.028398383
0002f0 3d 54 9e bc fd 24 cb 3c b8 38 40 bd 4f f9 02 bd
       -0.019327277 0.02479791 -0.04692909 -0.03197604
000300 65 22 d6 bc ca 9b 50 3d f1 be 10 3d 0a 98 a6 3c
       -0.026139447 0.050929822 0.035338346 0.02033617
000310 33 3a 87 3c 9a c9 22 bb 6f 4e 47 bd 16 52 17 3d
       0.016507244 -0.0024839402 -0.048658784 0.036943518
000320 f0 23 a5 bb 5d f0 28 3d 4a c4 19 3a 08 54 79 3c
       -0.0050396845 0.041244853 0.0005865736 0.0152177885
000330 7c 93 4c 3d 32 3d 07 bd ff d4 00 bc 0e 8f 65 3d
       0.04994534 -0.033017345 -0.007863282 0.05604463
000340 1e 8a 55 bd 49 7d d0 3c d1 54 07 bd a6 29 55 3d
       -0.052133672 0.025450366 -0.03303987 0.052041672
000350 59 c8 96 3b 3c 52 89 bc 83 0a bc 3c c0 a1 4e bd
       0.00460152 -0.016762845 0.022954231 -0.050447226
000360 ff dd 18 bd 20 d3 66 3d 68 24 32 3d c9 b3 a2 3b
       -0.037321087 0.05635369 0.04349175 0.0049652797
000370 76 93 04 bd dd 8c 05 3d 39 52 92 3c 2c e5 26 3d
       -0.032367192 0.03260504 0.017861472 0.0407459
000380 d1 7c 42 bd 30 7e 21 3d 53 bd 9e 3c 8b 91 66 bd
       -0.047482315 0.039426982 0.019377386 -0.056291144
000390 11 5a 18 bd b1 53 28 bd 1f 43 69 3d 45 45 70 3c
       -0.03719527 -0.04109544 0.056948777 0.014664953
0003a0 a5 0e b2 bc 23 15 a1 3c d8 0f 0c 3d 16 56 ba bc
       -0.021735499 0.0196634 0.034194797 -0.022746127
0003b0 8d b2 00 bb 73 44 b4 3c 39 9c e0 3c b6 05 b7 3c
       -0.0019637675 0.022005295 0.027418243 0.02234159
0003c0 59 75 a7 bc 5e f2 a9 3b 8d 3d 66 bd e3 51 af bc
       -0.020441698 0.005186363 -0.056211043 -0.021401351
0003d0 0d a9 f6 3c a8 93 4f bd 94 a3 5e bd 42 bc 42 3d
       0.030109907 -0.050677925 -0.05435522 0.047542818
0003e0 ad b8 df 3c 4d a5 f3 3c 27 45 28 bd f5 f0 92 bb
       0.02730974 0.029741907 -0.041081574 -0.0044842907
0003f0 f9 39 7a 3c f4 df 1c 3c 2b 6f 74 3c 67 63 53 bd
       0.015272611 0.009574879 0.014919083 -0.05160847

bias f4 [12]
000000 04 22 1c 3c 05 b2 20 3c dd b9 59 3d b2 f2 1e bd
       0.009529594 0.009808068 0.05315577 -0.03880567
000010 df ee 65 3d 73 b3 6d bb b4 5b 42 3b 9c 00 db 39
       0.05613601 -0.003627029 0.002965671 0.0004177139
000020 31 25 3a bd 45 6e 55 bd a6 c1 f8 bc 75 0f 8c bc
       -0.045445625 -0.052107114 -0.030365776 -0.017097214

weight f4 [12]
000000 10 00 80 3f 09 fb 7f 3f 34 00 80 3f 05 00 80 3f
       1.0000019 0.99992424 1.0000062 1.0000006
000010 12 00 80 3f 0f 00 80 3f 02 fc 7f 3f 0c fb 7f 3f
       1.0000021 1.0000018 0.9999391 0.9999244
000020 87 fc 7f 3f 04 00 80 3f 14 00 80 3f 1e 00 80 3f
       0.999947 1.0000005 1.0000024 1.0000036

bias f4 [12]
000000 9f cc cf b8 64 0b 96 b8 9f 18 0a 39 78 27 0a b9
       -9.908643e-05 -7.154679e-05 0.00013169878 -0.00013175409
000010 5d 24 92 37 f0 0c 76 37 a4 09 58 b8 e3 90 0a b9
       1.742149e-05 1.4665755e-05 -5.150739e-05 -0.0001321468
000020 f9 2f 82 b8 13 2e f3 b6 6b 0d f1 38 cd f3 03 39
       -6.207819e-05 -7.247328e-06 0.00011494275 0.00012583956

running_mean f4 [12]
000000 91 bc c2 3d 02 f7 32 3e 19 ae dc 3e f2 f4 95 3d
       0.095086224 0.17477039 0.43101576 0.0732211
000010 a6 bc 92 3e 90 cb 35 bd dd c1 84 be 5e 6b 09 be
       0.28659552 -0.044383585 -0.25929156 -0.13419864
000020 67 08 fa 3d df 09 3d be c7 0f fd bd bb 37 13 be
       0.12208634 -0.18460797 -0.12356525 -0.14376728

running_var f4 [12]
000000 e7 c2 37 3d 50 60 ea 3d 0f f6 bd 3e 7f 43 79 3d
       0.044863608 0.114441514 0.3710179 0.060855385
000010 aa 8c 68 3e c3 d6 05 3e bb dd 9b 3d 73 2e 8a 3d
       0.22709909 0.13070206 0.07610651 0.06747141
000020 b9 4f ba 3d 35 68 63 3d 07 13 65 3e a0 a5 e2 3d
       0.09097237 0.0555193 0.2237054 0.11066747

weight f4 [24, 12, 5, 5]
000000 b8 24 95 3c 54 ce a1 3c cc ee c8 bc f9 5e 7f 3c
       0.018205985 0.019751705 -0.02452793 0.015586608
000010 9a 21 4f bd 97 cd 0f bd 59 ae 1d bd 99 a1 5e bd
       -0.050569154 -0.035108175 -0.03849635 -0.05435333
000020 94 51 84 3c 46 a7 df bc 8d d0 44 3c 2e 8a 2c 3d
       0.01615218 -0.027301442 0.012012613 0.042123966
000030 d3 95 56 bd 92 b9 2f bd 87 fe 48 bd 07 c6 a4 bc
       -0.052388977 -0.042901583 -0.04907086 -0.020113958
000040 6c 27 0d bd 76 72 60 3d 67 b2 ae 3c 60 87 19 3d
       -0.034461424 0.05479666 0.021325303 0.03748262
000050 c6 b5 5c 3d 71 f6 11 3d cc 3b 37 3d 5a c6 4b bd
       0.05388429 0.035635415 0.04473476 -0.04974971
000060 e5 39 29 bd 68 33 c4 3b 14 80 ef 3c c3 36 ca 3c
       -0.04131498 0.0059875734 0.029235877 0.024684316
000070 ba e2 3f 3d 07 42 b4 bc d1 36 06 3d 93 7a 8b 3c
       0.046847083 -0.02200414 0.03276712 0.017026221
000080 cb 0d f6 3c 6e 39 01 bd 3e ef 2a 3c 1f f1 a8 3c
       0.030035874 -0.03154891 0.010433016 0.020622788
000090 e5 3f 0b bb 4e 34 26 bd bb e0 f7 3c 8f 5d 23 bd
       -0.00212478 -0.040577225 0.030258527 -0.039884146
0000a0 19 7f 9a 3c 3d b7 3c 3c e0 72 15 bd c1 34 14 3d
       0.018859433 0.011518297 -0.036486506 0.036183123
0000b0 d3 4e 9d 3a 6b d5 0c bd f9 44 60 3b eb eb 31 3d
       0.0012001641 -0.03438322 0.0034220798 0.04343788
0000c0 52 ea f4 3b 1f e1 61 3d c3 bd 26 3d 13 cb 79 3c
       0.007474222 0.055146333 0.040708315 0.015246171
0000d0 bf ff 3e 3d 5c be 26 3d 03 30 ab bc 03 5b a4 3c
       0.046630617 0.040708885 -0.020896917 0.020062929
0000e0 ea 3e 32 3c 2d 4a 18 bd 38 be 34 bc ee be 82 bc
       0.010879258 -0.037180115 -0.01103168 -0.015960183
0000f0 fd 34 f9 bc 7c fc 1e bd c1 62 4e bb 06 35 98 bb
       -0.030420775 -0.038815007 -0.0031491967 -0.0046449928
000100 35 24 c2 bc 63 c1 c7 bb 5c be 16 bd 6a 0c 37 bd
       -0.023698905 -0.0060960515 -0.036802635 -0.044689573
000110 58 b6 ff 3c c4 2a 40 bc 81 79 c2 3b 83 02 4a bd
       0.031214878 -0.011728946 0.0059348946 -0.0493188
000120 5c e1 53 3c 36 dd 27 3d f0 67 16 3d 53 2b 44 bd
       0.012932148 0.040982448 0.036720216 -0.04789288
000130 02 f5 b4 bc 9c ac 3c 3d 15 f6 96 bc 84 33 4b bb
       -0.022089485 0.04606305 -0.018427888 -0.0031006048
000140 f6 ac 9f bc 93 f2 ae 3c ca 30 31 3c 7c e0 f3 3c
       -0.019491654 0.021355903 0.010814855 0.029770128
000150 20 25 0e bd 79 01 c2 bc 50 50 0f 3d 09 d4 29 ba
       -0.034703374 -0.023682343 0.0349887 -0.0006478434
000160 3b 46 fc 3c 07 21 5b 3c 1e 3c 58 3d b1 95 fb 3b
       0.030795207 0.013374574 0.052791707 0.0076777567
000170 4a 0f 3f bd bb 4c 5f 3d c3 73 2d 3b 12 16 81 3c
       -0.04664544 0.054516535 0.0026466704 0.015757594
000180 e0 f0 3c bd 4d 00 66 3d 48 00 2e 3d 05 95 07 bd
       -0.046128154 0.05615263 0.042480737 -0.0331011
000190 52 b7 b6 bc 19 5b 5b 3d 37 00 40 3d 41 4f 37 bc
       -0.02230421 0.053553674 0.046875205 -0.011188329
0001a0 b2 3a 5c 3b 3f 16 3d bd 16 64 7b 3c d9 fc a9 3b
       0.003360432 -0.046163794 0.015343687 0.0051876125
0001b0 31 cd 4e 3c 04 f1 5a 3d 22 c1 29 bc 5c d2 8b bc
       0.012622164 0.053452507 -0.010360988 -0.01706808
0001c0 40 77 bc 3c 4f 3b 1e bc 59 9a 1e 3d e3 8b b4 3c
       0.023006082 -0.009657695 0.038721416 0.02203936
0001d0 8c 17 cb bc b1 ee 63 bc 3d 18 2e 3c dd fb b4 3b
       -0.024791501 -0.013911889 0.010625896 0.0055231885
0001e0 34 14 59 3d 08 1b f5 bc d9 ed a1 3c 92 f0 85 bc
       0.052997783 -0.029920116 0.019766735 -0.016350064
0001f0 e8 59 4c 3d 20 74 59 bd 2a d7 18 3c 51 fe 50 bd
       0.04989043 -0.05308926 0.009328643 -0.051023785
000200 2b 01 0d 3b d1 b5 78 bc 8f ad 08 bc 5f d7 3f bc
       0.0021515589 -0.015180067 -0.008342161 -0.011709063
000210 0c 1e 29 bd eb 3d 68 bc 20 f4 9d 3c 40 6f 2a 3d
       -0.04128842 -0.014174919 0.019281447 0.041610003
000220 d3 8e bf bc d2 87 61 bd a5 97 ab 3c 0a 8d 69 bd
       -0.023383534 -0.05506117 0.020946333 -0.05701927
000230 f6 95 d4 bc ca 94 6f bc a7 a1 e9 bc 2c f3 14 3d
       -0.025950413 -0.014622876 -0.028519465 0.03636472
000240 19 a2 90 bc 59 91 07 bd cb 28 30 bd 28 72 43 3c
       -0.01765542 -0.0330976 -0.043007653 0.011929072
000250 d8 d2 18 bd a9 8a dd 3c c7 98 50 3d f1 d0 a4 3c
       -0.03731045 0.027043657 0.05092695 0.020119162
000260 a2 a8 3f 3d 0c b1 91 bc 03 c0 29 bd f7 ab 1b bd
       0.04679168 -0.017784618 -0.041442882 -0.038005795
000270 96 13 cc bb 7b 50 b5 3c 3a 9c b2 bc ae ce 3b bd
       -0.0062279208 0.022133103 -0.02180301 -0.045851402
000280 ea 6b 2e 3d 43 6b 2b 3d ec 03 0f bd dc 1e b0 3b
       0.042583384 0.04185034 -0.03491585 0.0053747725
000290 f5 35 48 3d 1a f5 14 3c 07 52 29 bd 27 23 3a bd
       0.048879582 0.00909164 -0.041337993 -0.04544368
0002a0 48 e6 54 3d 64 73 41 3d df dc 0e bd a4 ad 34 3d
       0.051977426 0.047229186 -0.034878608 0.04411091
0002b0 74 1d 56 bd 40 f3 69 bd 23 89 5a bd 53 98 c6 bc
       -0.052274182 -0.057116747 -0.05335344 -0.024242556
0002c0 a8 d9 0e bd 70 3b ea bc dc 61 cc bc 8f 1f 0c bd
       -0.034875542 -0.028592795 -0.024949007 -0.034209784
0002d0 e8 79 21 3c cb bd 32 3d 8a df 44 3d 3b 43 3c 3d
       0.009855725 0.043638032 0.048064746 0.045962553
0002e0 4d f8 3d 3d 3c 8d 15 3d 30 9e 51 3c a1 9f ce 3c
       0.046379376 0.036511645 0.0127940625 0.025222601
0002f0 27 5f df bc 5b 9d 01 3d a1 1c c7 bc 6d 89 63 3c
       -0.027267052 0.031644206 -0.024305644 0.013887745
000300 6e 03 14 3d d2 4d 51 ba 18 aa bf 3c d4 89 09 bd
       0.036136083 -0.00079843134 0.023396537 -0.03357871
000310 68 4f ed 3b 59 ca 67 3c 66 81 b2 3c 56 27 fe 3c
       0.007242132 0.014147365 0.021790218 0.031024616
000320 6c 8a dc bc f1 f6 43 bd d5 7d 0f 3d aa e4 30 3d
       -0.026921473 -0.047842924 0.035032112 0.04318682
000330 64 3e 1c bd fc bb 1c bd e7 ff 38 3d 1c b7 f6 ba
       -0.038145438 -0.038265213 0.045165922 -0.0018822881
000340 e9 7c 63 3d a5 2e 49 3d 26 1c 2e bd dc 22 04 3d
       0.055539045 0.04911675 -0.042507313 0.032259807
000350 03 90 81 bc 9c d7 96 bc 53 fb ea 3c 76 3b 96 bc
       -0.01581574 -0.018413357 0.028684294 -0.0183389
000360 9f e2 8e 3c 6f 77 2a bd c5 d6 01 bd 6a b9 32 bc
       0.017442046 -0.041617807 -0.03169896 -0.010908464
000370 ce ab d0 3b 17 49 2b 3d fe 6d 02 bc a5 3d 5d 3c
       0.006368137 0.04181775 -0.0079607945 0.013503467
000380 a9 e3 d2 3c f9 4e b2 bc d7 76 1c 3c 47 05 ac bc
       0.025743322 -0.021766173 0.009549818 -0.02099861
000390 7e ca e7 3c 9a c0 2b bd a0 b4 2c 3d 43 d5 c4 3c
       0.028294798 -0.041931726 0.042164445 0.024027472
0003a0 6b f6 c6 3c ab e2 05 3d ea 9b 52 bd 91 c0 60 bb
       0.024287423 0.03268687 -0.051418222 -0.0034294466
0003b0 93 7c f9 3c 65 b8 fe 3c 48 5a 68 bd f6 70 2d 3d
       0.03045491 0.031093786 -0.056726724 0.042344056
0003c0 7f 02 14 bd 93 55 df 3b e0 3e 95 bc f2 82 6b bd
       -0.036135193 0.006815621 -0.018218458 -0.057497926
0003d0 5d 29 9e 3b fb 5d 27 bc ef 18 e3 bb d3 ee 25 3d
       0.004826708 -0.010215278 -0.0069304626 0.040510964
0003e0 d2 fe cc bc 09 ae c3 bc 7b 8d f9 3b ce fb 57 bd
       -0.025023852 -0.023886697 0.0076157427 -0.052730374
0003f0 d3 02 0a 3d a8 74 ba bc cd 79 d5 3c db c8 c1 3b
       0.0336941 -0.022760704 0.026059056 0.0059138364

bias f4 [24]
000000 b7 60 47 bd 7e f7 fa 3c 23 88 d7 bc 34 b5 65 3d
       -0.04867622 0.030635592 -0.026310032 0.056081012
000010 5b 54 30 3d 17 41 a2 3c 66 2a 18 3c 16 38 c4 bc
       0.043049198 0.019806428 0.009287452 -0.023952525
000020 fe 6d d4 3c a1 37 06 bd 60 3e 84 bc 63 47 a0 3c
       0.025931355 -0.032767896 -0.016143024 0.01956529
000030 93 d5 7f bc f2 45 13 3d dd eb 1a 3c ec 3b d4 3c
       -0.015614885 0.035955377 0.009455648 0.02590748
000040 d3 1f 52 3d 38 e6 02 bc c6 d8 11 bd d5 ba 47 3c
       0.05129988 -0.007989459 -0.035607122 0.01219054
000050 1a db b5 3c 4f 71 32 3c 14 c3 37 bd 98 de ff 3c
       0.022199202 0.010891273 -0.044863775 0.03123407

weight f4 [24]
000000 b0 fc 7f 3f 0e ff 7f 3f ee fb 7f 3f 08 00 80 3f
       0.99994946 0.9999856 0.9999379 1.000001
000010 1e 00 80 3f 15 00 80 3f f4 00 80 3f 23 fc 7f 3f
       1.0000036 1.0000025 1.0000291 0.99994105
000020 05 00 80 3f 9d ff 7f 3f 12 00 80 3f c3 fd 7f 3f
       1.0000006 0.9999941 1.0000021 0.99996585
000030 dd fc 7f 3f 04 00 80 3f 02 00 80 3f 09 00 80 3f
       0.99995214 1.0000005 1.0000002 1.0000011
000040 76 ff 7f 3f 00 00 80 3f 22 00 80 3f d7 fa 7f 3f
       0.9999918 1.0 1.000004 0.99992126
000050 0d 00 80 3f bb fb 7f 3f 02 00 80 3f 01 00 80 3f
       1.0000015 0.99993485 1.0000002 1.0000001

bias f4 [24]
000000 7e 0a 91 b8 0e cb 4f b8 59 1f ac b6 b0 c7 35 38
       -6.916093e-05 -4.9541755e-05 -5.129649e-06 4.3339736e-05
000010 1a cc b9 38 13 6b 88 b7 5f 5f 7f 39 5b 09 d6 b8
       8.859504e-05 -1.6262324e-05 0.00024354224 -0.00010206058
000020 0c 69 8b 38 97 f3 be 38 92 1c aa b8 11 aa b8 b8
       6.647603e-05 9.105278e-05 -8.111553e-05 -8.805481e-05
000030 aa 92 05 b9 fb 2c f5 37 ad e3 b8 38 49 74 a6 38
       -0.00012738505 2.9227222e-05 8.8162116e-05 7.9371566e-05
000040 72 d3 99 b7 74 ab 5d b8 7c fb 90 38 fd 0f ec b8
       -1.8337483e-05 -5.2850184e-05 6.913298e-05 -0.00011256335
000050 f1 cb c8 b8 f7 9c c7 b8 df fc 87 38 37 48 d6 38
       -9.57473e-05 -9.5182964e-05 6.4844025e-05 0.00010217766

running_mean f4 [24]
000000 46 40 20 3e ba e6 69 be 87 43 2c 3f 06 ec 69 3d
       0.15649518 -0.22841921 0.6729054 0.057109855
000010 fd e3 a4 3b 11 a6 0a be 4a e2 12 3f ba 89 56 3e
       0.005032061 -0.13539912 0.5737654 0.20950976
000020 c8 53 47 bf e2 eb 12 bd ee 76 6d 3e 52 d3 de 3e
       -0.77862215 -0.035869487 0.231899 0.435206
000030 00 67 ad 3d 0f 80 e1 3e d8 97 29 be 44 3a ce be
       0.08466911 0.44043013 -0.1656183 -0.40278828
000040 2d 77 83 be e9 8d 03 bd 89 7b c7 bd bc cf dc 3e
       -0.2567686 -0.032117758 -0.09740359 0.4312724
000050 6c a7 02 3e e1 a6 9d bd 9f c2 e4 bd fd 4e fc 3c
       0.12759179 -0.07697845 -0.111699335 0.030799383

running_var f4 [24]
000000 23 53 81 3e 3b 85 e2 3d 77 05 31 3f 80 63 56 3e
       0.2525874 0.11060568 0.69148964 0.20936394
000010 30 cc b9 3d 0c 59 eb 3d d9 fa 96 3e f0 fb 0d 3e
       0.09072149 0.11491594 0.29488257 0.13865638
000020 1d 82 d5 3e e6 36 2a 3e 74 6d df 3d f6 8a c1 3d
       0.4170083 0.16622505 0.109095484 0.09450333
000030 3e 15 a8 3e ec c7 2a 3e 7a 13 82 3e 25 8e 64 3e
       0.32828707 0.16677827 0.25405484 0.22319849
000040 af 41 eb 3d ac 5b 4b 3e 9a d8 f9 3d c4 58 0c 3e
       0.114871375 0.19859189 0.121995166 0.13705736
000050 11 c2 15 3e c7 a5 cc 3d 2d c8 ea 3d e5 cc 0c 3e
       0.14624812 0.09992557 0.11463962 0.13750036

weight f4 [24, 24, 5, 5]
000000 df 53 dd bc ff db 84 3c 4d 09 a0 3b 97 af 98 3b
       -0.027017532 0.016218184 0.0048839212 0.004659604
000010 f5 db 10 3d d8 fe 54 bc b6 dd 51 3b 9e da 88 bc
       0.035366017 -0.013000213 0.003202302 -0.016705807
000020 68 14 3a 3c 21 26 ff 3b 0f 44 b8 3c a4 fc e3 bc
       0.011357404 0.0077865277 0.02249339 -0.02783043
000030 e6 ed 85 3c 20 9c 37 bb 68 f6 b5 3c 4e 28 a8 bc
       0.01634879 -0.0028016642 0.022212222 -0.020527031
000040 98 94 b3 bc e9 1b 50 bc 1f 28 d2 3c a2 55 69 bc
       -0.021921441 -0.012701967 0.025653897 -0.014241608
000050 09 6b be bc eb a8 09 3d bf a9 85 3b 41 3d 8d bc
       -0.023244398 0.03360836 0.004079073 -0.017241122
000060 b8 18 ed bc a3 14 bf 3c 52 16 04 3d 1a d7 1e bd
       -0.02894245 0.02332527 0.03224785 -0.038779356
000070 68 b9 44 3b 8e 9a a0 3a 2f 74 18 3d 15 b2 ae bc
       0.0030017737 0.0012253092 0.037220176 -0.02132515
000080 f8 10 0e bc aa ca 1e 3c 87 f9 8e 3c 80 70 4d bb
       -0.008671038 0.009691874 0.017452968 -0.0031347573
000090 e6 c9 e2 3b 69 9e a9 bb 56 f5 17 3d 83 a0 fe 3b
       0.006921041 -0.0051763547 0.037099205 0.0077705993
0000a0 9c ba 0d 3d 43 40 a6 bb 82 74 13 3c 21 31 e9 bc
       0.034601793 -0.0050735786 0.008999946 -0.02846581
0000b0 a4 6a a4 bc fc 2a 20 bc 44 c1 89 bb d5 fe 77 3c
       -0.020070381 -0.009775873 -0.0042039473 0.01513644
0000c0 11 57 0d bd 3a 66 af bc b0 d3 d5 bc 29 54 f7 bc
       -0.03450686 -0.02141105 -0.026101917 -0.030191498
0000d0 21 3d 25 3d 73 32 af 3b 45 b2 82 bb 57 4a c6 bb
       0.0403415 0.00534659 -0.0039885365 -0.0060513425
0000e0 b5 2e 65 bc 42 56 fd 3a 23 7c 3d 3c df 00 c7 bc
       -0.013988187 0.0019328075 0.011565241 -0.024292408
0000f0 f5 02 8a bc f9 8e dd bc 84 fa af bc 2c 29 21 3d
       -0.016847113 -0.027045714 -0.02148176 0.039345905
000100 11 1d 53 bc aa 85 b3 3a 61 92 22 bd 66 fa dc bc
       -0.012885348 0.0013696451 -0.03969038 -0.026974868
000110 f6 ef 83 bc 6e 61 9a 3b 4d e7 d2 bc 26 3e 15 3d
       -0.016105633 0.0047113216 -0.025745058 0.036436222
000120 1c ed cf 3c bf 90 82 3c 23 c2 8c 3c b8 be 34 bc
       0.025381617 0.015938161 0.017182415 -0.011031799
000130 c4 b9 20 3d b1 a4 14 bb 0e 60 56 3c 35 59 c6 3c
       0.03923966 -0.0022681172 0.013084425 0.02421246
000140 e6 8b 4a 3c 47 65 30 3c 41 c3 06 bd ca e0 25 3a
       0.012362456 0.010766334 -0.032901052 0.00063277467
000150 82 ee 0f 3d ad e2 7e 3c 37 ea 95 bc 6d 13 95 bc
       0.03513957 0.015556973 -0.018300159 -0.01819774
000160 59 0e a3 3c 15 af 7f 3c aa 42 04 bd ea c8 cb 3c
       0.019904302 0.015605708 -0.03229014 0.024876077
000170 96 b1 f6 3c ac 6a fd bb 58 84 0f bd 12 23 fe bc
       0.030113976 -0.0077336635 -0.035038322 -0.031022582
000180 e2 ad 35 bc b9 58 d0 3c 23 6d d2 bb 4f 06 68 bc
       -0.01108882 0.025432931 -0.0064217015 -0.01416166
000190 57 03 c1 3c 93 e6 c7 bc 3e 92 a2 bc 5b cf f4 3c
       0.023561163 -0.024401939 -0.019845124 0.029884031
0001a0 2c 8d 20 bd 9d f5 5b 3c be 0b 22 3d 8a 4b a9 bc
       -0.039197132 0.013425258 0.03956198 -0.020665903
0001b0 30 c4 43 3b ba 71 d3 3c 13 47 7d bc 12 a2 37 3c
       0.0029871576 0.025811065 -0.01545884 0.011208074
0001c0 bd 0d 2c ba e4 6a 9e bc 53 2e 28 3b eb 00 ed bc
       -0.00065633265 -0.019338079 0.0025662377 -0.028931102
0001d0 14 52 45 bb a1 2e 35 bc b4 05 0b 3d f8 b3 94 bc
       -0.0030108737 -0.0110584805 0.033940986 -0.018152222
0001e0 70 30 42 3c c8 b9 1c bd 20 79 86 bc 6f 85 a3 bc
       0.011852369 -0.038263112 -0.016415179 -0.019961087
0001f0 40 f0 0f bd 6e 68 ac bc 34 65 6c bc 6b 0c ce 3c
       -0.03514123 -0.02104589 -0.014428426 0.025152406
000200 d3 a6 1a bd fc 47 14 bd e0 63 08 3c e6 37 d3 bc
       -0.037756752 -0.036201462 0.008324593 -0.02578349
000210 6f 96 14 3d 70 2e 7a bc fe f9 19 3c aa af 80 3c
       0.036276277 -0.015269861 0.009397982 0.015708763
000220 12 77 a1 3c 19 ed 12 bd f2 bc f8 3c 1c f2 af 3c
       0.019710097 -0.035870645 0.030363534 0.021477751
000230 6e 22 c7 bb b3 5d 04 3d 52 ae 2c ba 95 31 42 bc
       -0.0060771024 0.03231592 -0.0006587255 -0.011852642
000240 21 be ec bc f4 b5 74 3c c2 9a 6c 3c fe c7 25 3d
       -0.028899254 0.014935959 0.014441194 0.04047393
000250 13 ee d0 3c 2c b5 e9 3b 60 a9 c1 bc d5 2a 23 bd
       0.025504148 0.007132193 -0.023640335 -0.03983577
000260 c1 78 83 bc b6 47 bf bb 59 44 a7 3c 84 2a ab bc
       -0.01604879 -0.005837406 0.020418333 -0.020894296
000270 1d 35 73 3c 8e 6a 44 bc cd 9b 15 3d 8e 72 0b bd
       0.014844206 -0.011988295 0.036525536 -0.034044795
000280 40 a4 a0 bc a3 1c d0 bc 95 1a 03 3d be 94 04 3d
       -0.01960957 -0.02540428 0.032007772 0.032368414
000290 a2 78 ad 3c f0 5a d3 3b 81 40 f5 bc a0 da 34 3c
       0.021175686 0.0064500496 -0.029937984 0.011038452
0002a0 a9 48 21 bd 2c 7a 25 bd 19 f0 0c 3d 3f ba 1b bd
       -0.039375935 -0.040399715 0.034408662 -0.038019415
0002b0 d9 e1 d1 3c 12 56 84 3c 23 42 24 3c 39 ff 1d bd
       0.025620388 0.016154323 0.010025534 -0.038573477
0002c0 6e 28 13 bc a7 c7 c4 bb f7 19 06 bd 15 80 5a 3c
       -0.008981807 -0.0060052457 -0.032739606 0.013336201
0002d0 11 d9 01 3d 88 ae b4 bc 0a fc f8 3c ce fc 02 3c
       0.03170115 -0.02205588 0.03039362 0.007994844
0002e0 f4 4f 1c 3d d0 e8 8d 3c d0 2e 1b bc 6b 6c 83 3c
       0.038162187 0.017322928 -0.00947161 0.016042909
0002f0 d2 2a a9 bc 44 da a6 3b 72 a3 19 3c b7 60 91 bc
       -0.020650301 0.0050919373 0.009377347 -0.017746313
000300 71 ea 1a bc 87 4b 1c 3d dc 26 bd 3a e0 01 12 bd
       -0.009455309 0.038157966 0.0014431137 -0.03564632
000310 ab 35 17 bb cb 1e 2b bc be 37 ca 3c b7 97 d2 3b
       -0.002307276 -0.010444353 0.024684783 0.006426777
000320 1d 6f 52 bc 08 5c eb 3c c3 b5 b6 bc 8d ae 15 3d
       -0.012843874 0.028730407 -0.022303468 0.036543418
000330 6d fd 5b bb d0 a2 40 bc b8 da 81 3c b0 50 7a 3b
       -0.0033567802 -0.0117575675 0.015851364 0.0038195066
000340 39 7e b4 bc ff c2 16 3d ee 96 f8 bc 32 13 0b bc
       -0.022032844 0.036807057 -0.030345406 -0.008488463
000350 67 44 53 bc a8 21 ff 3c d5 ca 7b bc 9b 7f de bc
       -0.012894726 0.031143978 -0.015368183 -0.027160456
000360 31 b5 0a 3d 5d 21 03 3d b4 1f 25 3d ba 20 30 3c
       0.033864204 0.03201424 0.040313438 0.01074999
000370 3e 37 22 bd 72 57 f0 bc db c2 11 3d 36 ac e9 ba
       -0.039603464 -0.029338572 0.03558622 -0.0017827812
000380 63 b5 96 3c 78 fe 17 bd ae 04 6d 3c 05 52 0e 3c
       0.018397039 -0.037107915 0.014466448 0.008686547
000390 ff a1 b4 3c 24 8b 1e 3d 37 15 c2 bc 08 0b ab 3b
       0.022049902 0.038706914 -0.023691757 0.005219821
0003a0 9c bd 81 3c 61 91 c7 3c ce bb 1d 3c 47 ed 18 bc
       0.015837483 0.024361314 0.009627296 -0.009333915
0003b0 4d 1a 00 3d 3c bc c6 3b 71 76 0c 3d cd f2 11 3d
       0.031275082 0.0060649198 0.034292642 0.035631943
0003c0 9b 4c 1f 3d 62 eb a9 3c 1f e9 f1 3b 7e b6 fd 3c
       0.038891416 0.020742122 0.0073825265 0.030970808
0003d0 fb 3f 10 3d da 47 1f bd f0 ce 95 3c 9e c7 12 3d
       0.035217267 -0.038886882 0.018287152 0.0358349
0003e0 a0 cb 17 3d c6 e8 15 bd e3 78 00 3d 36 1c b6 3c
       0.037059426 -0.036598943 0.031365287 0.022230249
0003f0 5e 53 0f bd fe 1e 64 3c e7 ce 0c bd 99 57 ed bc
       -0.034991615 0.013923405 -0.034377005 -0.028972434

bias f4 [24]
000000 35 3a 80 3c 93 be 75 3c be 58 c2 bc cd 59 88 bc
       0.015652755 0.01499905 -0.023723956 -0.016644383
000010 51 e6 ec bc f7 46 e2 3c e8 d0 22 bd dd 2f a7 bc
       -0.028918417 0.02762173 -0.03975001 -0.020408565
000020 2c 6c 39 3b f6 16 42 3c f0 ae 17 3d 11 03 fe 3c
       0.0028293235 0.011846295 0.037032068 0.031007322
000030 a9 60 e0 bc 42 d8 15 3d 8a 05 8c 3c a9 d5 3f ba
       -0.027389841 0.036583193 0.017092485 -0.00073179096
000040 bc 32 77 3a 31 11 db 3b 59 ff 06 bd e9 47 ac 3c
       0.0009429862 0.006685399 -0.032958362 0.021030383
000050 0d 81 20 bc c3 3a 57 bc 46 c0 c2 bc 6a f2 f2 3c
       -0.009796393 -0.0131365685 -0.023773324 0.029656608

weight f4 [24]
000000 5c ff 7f 3f 66 fd 7f 3f 0d 00 80 3f 14 00 80 3f
       0.9999902 0.9999603 1.0000015 1.0000024
000010 27 00 80 3f 00 00 80 3f 8d fe 7f 3f 03 00 80 3f
       1.0000046 1.0 0.9999779 1.0000004
000020 f2 ff 7f 3f 06 00 80 3f ec ff 7f 3f 21 00 80 3f
       0.99999917 1.0000007 0.9999988 1.0000039
000030 00 00 80 3f 8e fb 7f 3f 82 00 80 3f 0b 00 80 3f
       1.0 0.99993217 1.0000155 1.0000013
000040 00 00 80 3f bc fe 7f 3f 12 00 80 3f 74 f9 7f 3f
       1.0 0.9999807 1.0000021 0.9999001
000050 0a 00 80 3f 2a 00 80 3f dd ff 7f 3f 00 00 80 3f
       1.0000012 1.000005 0.9999979 1.0

bias f4 [24]
000000 f6 1b ff 36 28 2d f3 38 89 6f 41 37 d5 7b 0a 39
       7.6028473e-06 0.00011595554 1.1529665e-05 0.00013206837
000010 12 b5 6c 39 95 14 ea 38 85 dd b4 38 6f ef b8 38
       0.00022574168 0.00011161823 8.62433e-05 8.818402e-05
000020 9c 01 8e 38 7f 8e 05 39 c0 ab bd 38 ea 15 81 39
       6.7713874e-05 0.00012736952 9.044213e-05 0.00024621125
000030 14 96 6d 38 59 5c 4b b8 66 e7 78 39 cd 02 59 38
       5.6644974e-05 -4.8484977e-05 0.00023737326 5.173944e-05
000040 13 a4 26 39 47 5f 06 39 b4 22 b7 38 4f 57 5a b8
       0.00015892116 0.0001281473 8.732584e-05 -5.2056563e-05
000050 12 c8 7c 37 ef 91 40 39 61 c0 bc 38 0b 22 f9 38
       1.5066953e-05 0.00018364911 9.000372e-05 0.00011879586

running_mean f4 [24]
000000 2e 0c 92 bd b1 30 d5 3d 39 a3 7e 3e d4 0d 95 3e
       -0.07131229 0.10409678 0.24866952 0.29112113
000010 c4 2a 92 bc 08 8e 82 3e 5c 8c 32 be 07 55 46 3e
       -0.017842658 0.25498986 -0.17436355 0.19368373
000020 a2 cc 08 3d 5a ab 68 3c 42 3f 0f 3e de 53 3c 3e
       0.033398278 0.01420101 0.13988975 0.18391368
000030 3c fa 01 be 99 3e 13 3e ee 44 98 3e 99 3c 20 3c
       -0.12693113 0.14379348 0.2974009 0.009780073
000040 e6 ca 44 3e ef c2 b2 3d a9 f5 0e 3d cb c9 bc 3e
       0.19218025 0.08728587 0.03490225 0.36872706
000050 f5 6e e7 3c 20 d3 b7 bd c2 01 f3 bd e7 99 fc be
       0.02825115 -0.08975816 -0.1186557 -0.49336168

running_var f4 [24]
000000 cf 8b 52 3e ce 61 2e 3e a5 1c 0d 3e d0 75 20 3e
       0.20561145 0.17029497 0.13780458 0.15669942
000010 e5 94 ad 3d 85 e3 00 3e cb a2 f1 3d 80 8c 99 3d
       0.08475665 0.12586792 0.117986284 0.074975014
000020 56 95 d6 3d e6 18 05 3e be 42 14 3e 87 6e 94 3d
       0.10477702 0.12997779 0.14478585 0.07247644
000030 2f 42 cd 3d e0 a4 16 3e c4 11 d3 3d cd f4 de 3d
       0.10022389 0.14711332 0.10306123 0.10886536
000040 87 2b 0b 3e d5 48 ef 3d 14 22 ee 3d 22 f6 f9 3d
       0.13590823 0.116838135 0.11627594 0.12205149
000050 29 25 dd 3d a1 03 60 3e cd d9 01 3e 01 48 46 3e
       0.10798103 0.21876384 0.1268074 0.19363405

weight f4 [10, 16224]
000000 45 70 ad 3b d5 9a 36 3a 16 35 aa bb 88 66 c2 3b
       0.0052929246 0.0006965821 -0.0051943166 0.005932633
000010 02 72 be bb eb a0 a2 3b a5 31 9e bb 5d a8 61 3a
       -0.0058119306 0.0049630306 -0.0048276954 0.0008608157
000020 66 e2 7f ba b5 13 f7 38 88 1a d7 bb b9 e7 c1 bb
       -0.0009761214 0.000117815485 -0.006564442 -0.005917516
000030 c0 74 c3 3b 79 ce b0 bb 4e eb a8 3a f6 7e ed 3b
       0.0059648454 -0.005395707 0.0012887509 0.007247801
000040 59 40 25 ba 91 0e 27 3b 8e 00 84 bb 49 ea 28 3b
       -0.0006303839 0.002549086 -0.0040283864 0.002577441
000050 fd fb 54 ba 4c bd 1f bb b8 13 d2 b8 7d 0f 49 3b
       -0.00081247074 -0.0024374304 -0.00010017253 0.0030679398
000060 88 02 70 3b f4 24 e5 3b 42 9b c1 3a e2 54 81 3b
       0.0036622602 0.0069929305 0.0014771002 0.0039468864
000070 50 c4 e9 bb 39 38 69 3a af aa d7 bb 9b 48 80 b9
       -0.007133998 0.00088966225 -0.0065816264 -0.00024468158
000080 5d e1 28 bb 8b 7b d6 bb b6 0f d4 3b 0d 9e 6f bb
       -0.0025769093 -0.006545489 0.0064715995 -0.0036562711
000090 99 64 e9 3b 51 86 87 bb 63 08 c0 39 9b bf 68 3b
       0.007122588 -0.004135885 0.00036627342 0.0035514596
0000a0 65 ae a8 bb a2 d8 c3 bb fe f3 2f 3a b7 f0 45 38
       -0.0051477426 -0.0059767524 0.0006712078 4.7192643e-05
0000b0 7a eb 51 ba 15 0e a1 bb 2a 0e a0 bb 5e 77 ce bb
       -0.0008007806 -0.004915009 -0.004884501 -0.006300851
0000c0 e2 d3 18 bb cd b3 8a bb 0e 7a 6b 3b 36 00 bf 3a
       -0.0023319651 -0.0042328597 0.0035930905 0.0014572206
0000d0 30 0c 25 bb da 22 94 3b c1 b6 87 3b b7 8f d8 bb
       -0.0025184266 0.004520756 0.004141659 -0.006608929
0000e0 7d b3 e0 ba 5c 35 92 38 35 b4 a9 bb 35 40 56 bb
       -0.0017143335 6.9717615e-05 -0.005178953 -0.003269208
0000f0 39 7f 79 3b 51 4f b5 3b 54 bd 4a ba aa 1d ea 3a
       0.0038070215 0.005533137 -0.00077339006 0.0017861624
000100 06 d5 42 bb d6 36 af ba c9 10 c6 bb 8e ad 83 3b
       -0.0029729023 -0.0013367783 -0.0060444814 0.004018492
000110 86 27 20 3b 43 2c 42 38 ae 53 50 ba f1 e4 21 bb
       0.002443762 4.6294426e-05 -0.00079470396 -0.002470311
000120 43 2e 14 3a 39 86 62 39 4c 39 76 3b ac 2a cb ba
       0.00056526455 0.00021603041 0.0037570773 -0.0015500388
000130 e0 02 72 3a 62 ad 14 3b 60 6d b0 bb 8f b2 5d 3b
       0.0009231996 0.0022686352 -0.0053841323 0.0033828353
000140 64 64 02 3c 1d e2 4c bb bb be 79 3b 8e da 99 bb
       0.007958505 -0.0031262704 0.003810807 -0.004695243
000150 ad 54 c7 bb 3f 71 a9 3a 03 cb e9 3a 4b 20 dd bb
       -0.006083092 0.0012927427 0.0017836991 -0.0067482344
000160 2d 1a 69 3b 4b 66 03 3c e0 1d 87 3b ee 0b 4c ba
       0.003556858 0.008019994 0.0041234344 -0.000778376
000170 b4 e6 bf bb 36 a1 85 3a 1f ba c2 bb 73 83 85 bb
       -0.0058563594 0.0010195139 -0.0059425975 -0.004074508
000180 d2 c8 63 3b 27 36 89 bb 76 09 e2 3a 01 81 7e 3b
       0.003475715 -0.0041873637 0.0017245251 0.0038834217
000190 87 bc f5 bb 39 49 58 bb 59 d0 5c bb e8 62 2d 3b
       -0.007499281 -0.0033002628 -0.003369352 0.0026456658
0001a0 08 8a 61 3b 99 50 df bb 12 c1 b7 bb d5 42 33 3b
       0.0034414548 -0.006815028 -0.0056077326 0.0027353067
0001b0 e0 73 db bb 71 70 13 ba af 24 6d bb 5d 8b f2 bb
       -0.006697163 -0.000562436 -0.0036185195 -0.0074018673
0001c0 d6 1f 2b 3b d4 25 f9 bb f8 1d ca 3b ae fa 9c 3b
       0.0026111505 -0.0076033864 0.0061681233 0.0047906255
0001d0 ad 19 ce bb 2e 11 d2 ba 9d 5e e4 3b af d7 97 bb
       -0.006289682 -0.0016026848 0.0069692866 -0.004633866
0001e0 1c 9d f9 3b 58 67 c0 3b ba 9c 1b 3b 7b 2c 24 bb
       0.007617606 0.0058716945 0.002374454 -0.0025050926
0001f0 c8 e5 e7 3b d4 bf 4c 3b 50 a7 d9 3b 88 89 16 3b
       0.0070769526 0.0031242268 0.0066422597 0.0022970159
000200 0b f4 fc 3b 3e df d3 39 7f e1 15 bb ed 66 6d bb
       0.007719522 0.00040411385 -0.0022870002 -0.0036224679
000210 d2 a8 01 3b 2c 1d 6a 3a 77 b9 e4 3b 46 78 2c 3b
       0.0019784463 0.00089307385 0.006980117 0.0026316806
000220 3e fd d3 3b b2 3f 85 3b d8 98 fc 3b 3c a3 c9 3b
       0.006469398 0.004066431 0.00770865 0.0061534923
000230 e0 2c cf bb 0a 6e e9 3b 19 ae 37 3a bf ac 8d bb
       -0.006322488 0.0071237134 0.00070068386 -0.0043235715
000240 cc 90 ae 3b 06 f8 54 3b 7e 28 8f 3b c4 3e 7e 3b
       0.0053273197 0.0032496466 0.0043688407 0.0038794735
000250 83 f1 c4 3b 83 ea 02 3c cc 61 fb 3b a4 a5 ae 3b
       0.0060102358 0.007990482 0.0076715704 0.0053298045
000260 78 be 9d 3b df fd 6b 3b 55 48 40 3b 0d ac 66 bb
       0.0048139654 0.0036009473 0.0029339988 -0.0035197765
000270 34 e9 e7 3a f1 f9 cb 3b 41 04 48 3b 7b 26 48 3b
       0.0017693401 0.0062248637 0.0030520114 0.0030540514
000280 74 74 c3 3b f0 53 df 3b 8e 53 9a 3b 7f b1 cf 3b
       0.00596481 0.006815426 0.0047096675 0.006338298
000290 a2 b7 30 3b 58 6c 66 39 fb 7e 2c ba c1 16 2b 3b
       0.0026964922 0.0002197487 -0.0006580201 0.0026106092
0002a0 81 0f a8 3a 35 9a 9b bb c6 4d d1 bb 49 d3 8c bb
       0.0012822003 -0.0047486075 -0.006387445 -0.004297648
0002b0 fc f5 25 3b 8d 71 d4 38 c2 8c 96 3b a8 6e 98 bb
       0.002532362 0.00010130098 0.0045944164 -0.004651863
0002c0 e3 26 1e bb b1 be 8c 3b b6 a9 3b bb 5f c4 f4 3b
       -0.0024132065 0.004295193 -0.002863509 0.0074696983
0002d0 81 3f 3d 3a 34 68 a5 ba ac 1f c2 39 52 6f b4 3a
       0.00072192407 -0.0012619556 0.0003702616 0.0013766086
0002e0 88 4e b1 3a f1 e5 db 3b f2 5b 17 bb b6 f9 2b 3b
       0.0013527432 0.0067107608 -0.0023095575 0.0026241369
0002f0 66 37 6e ba 53 18 e6 3a 20 e7 d8 3b a1 ae 58 3b
       -0.00090872345 0.0017554857 0.006619349 0.0033063071
000300 b8 1b eb 3b 80 e6 5e 3b ce 51 71 3b 67 7d 06 3b
       0.007174935 0.00340119 0.003682244 0.0020521523
000310 39 2c e9 bb e0 17 ed bb ef 0d 37 3b aa de 7d 3b
       -0.0071158675 -0.007235512 0.002793189 0.0038737454
000320 21 10 86 bb dd 16 3b bb d4 7a b9 bb ef 9f b8 3b
       -0.004091278 -0.0028547563 -0.005660394 0.0056343
000330 6a 00 e6 3b 68 44 87 ba e6 19 cc 3b 30 df e4 bb
       0.0070190923 -0.0010320069 0.0062286733 -0.006984614
000340 37 16 01 3c 74 b9 34 bb b6 e3 bc bb d4 a1 e7 3b
       0.007878832 -0.002757636 -0.00576445 0.007068852
000350 90 e7 b0 bb 3f 02 69 3a d7 d9 0f 3b 74 e2 80 3b
       -0.005398698 0.00088885793 0.002194991 0.0039332453
000360 0a 3f e6 3b 66 5a 99 3b f0 d2 e8 ba c8 0b b4 3b
       0.007026558 0.004679966 -0.001776306 0.0054945685
000370 c5 99 f2 3a 1c d9 9d bb b9 87 dc ba 60 74 9c 3b
       0.0018508962 -0.004817141 -0.0016825116 0.004774615
000380 a1 b6 03 ba 1e 45 c7 ba 06 2e 52 3a e2 ad 1a bb
       -0.0005024467 -0.0015203094 0.0008017722 -0.0023602177
000390 87 fc 90 bb fb e1 74 3a b3 1d 2d bb 38 10 c7 bb
       -0.004424635 0.0009341535 -0.0026415407 -0.0060749315
0003a0 87 67 87 3b d9 21 67 ba 09 0f bc 3b bc 3c b3 b9
       0.0041322145 -0.00088169944 0.005739097 -0.0003418679
0003b0 d3 b3 4f ba 03 ba 63 b9 6d c9 fe 3b e4 cc a5 3a
       -0.0007923219 -0.00021717702 0.0077754767 0.0012649563
0003c0 74 04 f0 3b d5 73 c0 bb 6d 52 74 bb a0 7a 08 3b
       0.0073247496 -0.0058731833 -0.0037280575 0.0020825043
0003d0 ab 94 b6 bb d2 85 bb 3b 5c 81 e9 39 2a 4a 4d 3a
       -0.005571922 0.0057227397 0.00044537603 0.00078311807
0003e0 82 b9 1a 3a 04 65 70 39 c0 42 99 3b 84 2f 46 3a
       0.00059022766 0.00022925815 0.0046771467 0.0007560181
0003f0 ae e5 a2 bb 71 7c 33 3b 78 8d ec bb 2f e8 fd 3a
       -0.0049712276 0.0027387405 -0.007219013 0.0019371564

bias f4 [10]
000000 7a f7 c0 3b 02 60 e1 b8 c7 a0 bf bb 35 55 8d b9
       0.0058888765 -0.00010746719 -0.0058480236 -0.000269571
000010 84 f3 9c ba d7 19 46 3b 7e 05 ee bb b5 57 b8 bb
       -0.0011974429 0.0030227804 -0.0072638383 -0.00562569
000020 be 98 ed bb 16 29 a3 ba
       -0.0072508743 -0.0012448158
