models/Demo/LOGS/models/nnet_epoch_10.pt (torch, 765965 bytes, 26 tensors)

weight f4 [12, 3, 5, 5]
0.03659883 -0.11155236 0.052117895 -0.08109916 -0.1099808 0.06864822 -0.03177045 -0.08151784
-0.074434094 -0.068155006 0.053440005 0.08164797 -0.09762913 -0.01690851 0.057896666 0.017840017
0.011667675 -0.07058666 -0.085845225 -0.10068104 -0.06161959 0.060795825 0.063066706 0.101240106
0.11340153 -0.0030410937 -0.0097792065 0.025267271 0.018071882 -0.06535402 0.055851292 0.09384629
0.10576595 -0.0032411395 0.110085115 0.03628888 0.062198915 -0.008355662 -0.052231457 0.053635158
0.105803005 -0.09189194 -0.102275796 0.09121899 0.095869854 -0.017331354 0.0060239267 -0.04069854
0.04847372 0.09326764 -0.085051 -0.09995575 0.05311742 -0.074204974 0.0026915686 0.005896449
0.026496878 -0.10923393 0.093073644 0.054052893 -0.08505115 0.10809784 0.10444783 0.09409966
0.0022079349 -0.10651103 0.053362675 -0.06263517 0.023160981 0.010667266 -0.078556284 0.07531455
-0.024034036 -0.058983225 0.07923283 0.110906854 -0.062015645 -0.111197256 -0.10623304 -0.012534204
-0.057934325 -0.006750951 -0.00136032 -0.08069782 0.030081144 0.03544253 -0.07066472 0.08461397
0.08651698 -0.02662152 -0.035784733 0.011207885 0.036620997 0.09713425 0.04989119 0.08512854
-0.10462536 0.083739646 0.1017108 -0.061111316 -0.025258161 0.101874776 0.010480569 0.012995018
-0.09646397 -0.1121388 -0.014758186 -0.10004078 0.048074774 -0.018302243 0.0022187869 -0.05286064
-0.024567613 -0.08183215 -0.05684276 0.003778253 -0.013893826 0.007345451 -0.040701564 0.048498698
0.028480304 0.07752277 -0.094935134 0.040088717 -0.047041 0.053536262 0.10413717 -0.06404473
0.027593987 0.013884222 0.10387759 -0.0900175 0.03696772 0.054093607 -0.089271136 0.054039087
0.0151213575 -0.102205165 -0.09853632 -0.03883864 -0.031112649 0.03256491 -0.055997938 -0.10794146
-0.108558856 -0.061746076 -0.104566336 0.024349362 0.04664088 0.058023214 0.09462783 -0.049877778
-0.08094102 -0.055203352 0.02457486 -0.110302694 -0.00072156783 -0.08924577 0.062235348 -0.016948594
-0.0103379935 -0.10026873 -0.0939484 -0.029769469 0.09873391 -0.062796734 -0.051902633 -0.052367907
-0.010862789 0.08608754 0.115266345 -0.11364846 0.03427407 0.02375968 -0.040802512 0.021227796
0.0074283415 0.08803185 0.07119583 0.025941776 0.0971075 0.046055455 0.019672593 -0.021821711
0.05558416 -0.08509268 -0.1062502 -0.040210016 -0.093195 -0.08943236 0.037371892 -0.10073487
-0.020888515 -0.020848788 -0.051320437 -0.09679831 0.10657169 -0.024726512 -0.0026281637 0.0050845356
-0.10338983 -0.07063374 -0.10489723 -0.013183936 -0.030894443 -0.022898806 -0.07541478 -0.07291574
-0.0015807735 0.10801047 -0.086924896 -0.034400336 -0.052456483 -0.10917239 0.007079136 -0.08352902
0.013508522 -0.036312018 -0.11139399 -0.062383838 0.00023079258 -0.050634407 -0.102958545 -0.11429603
-0.014736952 -0.003144125 0.098669566 0.020245792 0.053715643 0.021009656 0.10505299 -0.08912904
0.022589156 0.018118288 -0.0090606045 -0.044093877 0.09898379 -0.0061991015 0.11437838 -0.0029826546
0.030608173 -0.05439596 -0.09209425 0.0120682325 0.010457388 -0.06992845 0.108170226 -0.016214268
-0.016793711 0.053362977 -0.06357417 -0.04776096 -0.09054923 -0.008504245 -0.092769295 0.027390191
00000000: a8e8 153d 9075 e4bd 9379 553d 5117 a6bd
00000010: 9d3d e1bd 7097 8c3d bb21 02bd d3f2 a6bd
00000020: e770 98bd da94 8bbd e8e3 5a3d 0d37 a73d
00000030: c8f1 c7bd b783 8abc 0e25 6d3d 3a25 923c
00000040: c729 3f3c bd8f 90bd 9fcf afbd dc31 cebd
00000050: d364 7cbd 0b05 793d 1e29 813d f956 cf3d
00000060: 103f e83d 164d 47bb f738 20bc 4ffd ce3c
00000070: 7c0b 943c 54d8 85bd 53c4 643d 7c32 c03d
00000080: d29b d83d 4c69 54bb 4e74 e13d a6a3 143d
00000090: 4ac4 7e3d 30e6 08bc a7f0 55bd 8ab0 5b3d
000000a0: 3faf d83d d731 bcbd f975 d1bd 06d1 ba3d
000000b0: 6a57 c43d 7cfa 8dbc 5c64 c53b 83b3 26bd
000000c0: 618c 463d 1b03 bf3d 382f aebd 9ab5 ccbd
000000d0: a791 593d c7f8 97bd 0765 303b 0037 c13b
000000e0: fb0f d93c 0ab6 dfbd 659d be3d 9166 5d3d
000000f0: 4c2f aebd 6662 dd3d bee8 d53d 53b7 c03d
00000100: 00b3 103b 7422 dabd d292 5a3d de46 80bd
00000110: 19bc bd3c c2c5 2e3c 1ee2 a0bd 843e 9a3d
00000120: 07e3 c4bc 6598 71bd d244 a23d 2223 e33d
00000130: 1e04 7ebd 63bb e3bd b590 d9bd 435c 4dbc
00000140: 8b4c 6dbd 1537 ddbb c44c b2ba e644 a5bd
00000150: bb6c f63c 302c 113d aab8 90bd 174a ad3d
00000160: d02f b13d 6015 dabc 0393 12bd 47a1 373c
00000170: e6ff 153d 52ee c63d b45a 4c3d df57 ae3d
00000180: d245 d6bd b17f ab3d c04d d03d dc4f 7abd
00000190: 34ea cebc b9a3 d03d b1b6 2b3c 0ee9 543c
000001a0: e78e c5bd 07a9 e5bd 52cc 71bc 2ee2 ccbd
000001b0: 0eea 443d 96ee 95bc 1169 113b 6684 58bd
000001c0: 0542 c9bc 9d97 a7bd f4d3 68bd 919c 773b
000001d0: eea2 63bc 1cb2 f03b afb6 26bd 92a6 463d
000001e0: 874f e93c 42c4 9e3d 5a6d c2bd 1134 243d
000001f0: 10ae 40bd d748 5b3d de45 d53d e229 83bd
00000200: c90c e23c a67a 633c c6bd d43d 185b b8bd
00000210: 776b 173d 4291 5d3d c9d3 b6bd 1758 5d3d
00000220: 92bf 773c f150 d1bd 69cd c9bd 4415 1fbd
00000230: f4df febc c862 053d 185e 65bd 6a10 ddbd
00000240: 1b54 debd 74e9 7cbd e026 d6bd 5078 c73c
00000250: 820a 3f3d c0a9 6d3d 3ccc c13d a44c 4cbd
00000260: 68c4 a5bd e91c 62bd 3851 c93c 61e6 e1bd
00000270: 9927 3dba 7cc6 b6bd 7eea 7e3d c7d7 8abc
00000280: b060 29bc b159 cdbd 0568 c0bd 1adf f3bc
00000290: 0135 ca3d 939b 80bd db97 54bd bb7f 56bd
000002a0: d7f9 31bc aa4e b03d c310 ec3d 86c0 e8bd
000002b0: f862 0c3d a9a3 c23c 8920 27bd eae5 ad3c
000002c0: 7269 f33b 0b4a b43d 1fcf 913d d983 d43c
000002d0: 4ce0 c63d a5a4 3c3d 6b28 a13c 72c3 b2bc
000002e0: 37ac 633d 1245 aebd b499 d9bd 42b3 24bd
000002f0: 05dd bebd 5028 b7bd 4513 193d 154e cebd
00000300: 641e abbc 14cb aabc 6135 52bd 313e c6bd
00000310: 4242 da3d 418f cabc 453d 2cbb 2d9c a63b
00000320: 0cbe d3bd 6ca8 90bd 5cd4 d6bd 6f01 58bc
00000330: 5816 fdbc 4796 bbbc 1073 9abd d954 95bd
00000340: f531 cfba 9834 dd3d ae05 b2bd 5ee7 0cbd
00000350: 9cdc 56bd c695 dfbd 19f8 e73b 4311 abbd
00000360: d952 5d3c e9bb 14bd 8822 e4bd 3286 7fbd
00000370: e900 7239 0666 4fbd eedb d2bd 0914 eabd
00000380: 4273 71bc aa0d 4ebb 4513 ca3d 81da a53c
00000390: ef04 5c3d 711c ac3c 0626 d73d 4989 b6bd
000003a0: e50c b93c ce6c 943c ee72 14bc c89b 34bd
000003b0: 03b8 ca3d d521 cbbb 363f ea3d a478 43bb
000003c0: febd fa3c 4cce 5ebd e99b bcbd d6b9 453c
000003d0: 7755 2b3c a636 8fbd 5a88 dd3d c9d3 84bc
000003e0: f792 89bc 2393 5a3d 2d33 82bd ffa0 43bd
000003f0: e071 b9bd 6455 0bbc d4fd bdbd 6561 e03c

bias f4 [12]
0.10741444 -0.070241325 -0.041784067 0.037433237 -0.05935153 0.006986279 0.096735805 -0.017852059
-0.008810242 -0.09629236 0.041939076 0.09386007
00000000: 1afc db3d afda 8fbd c525 2bbd 9853 193d
00000010: 971a 73bd 28ed e43b 6c1d c63d 7b3e 92bc
00000020: d558 10bc ee34 c5bd 4fc8 2b3d b539 c03d

weight f4 [12]
0.99998146 0.9999965 0.9999348 1.0000051 0.99998504 0.9999313 0.99993753 0.9999999
1.0000017 1.0000005 1.000002 1.0000039
00000000: c9fe 7f3f c5ff 7f3f bafb 7f3f 2b00 803f
00000010: 05ff 7f3f 7ffb 7f3f e8fb 7f3f feff 7f3f
00000020: 0e00 803f 0400 803f 1100 803f 2100 803f

bias f4 [12]
9.600172e-05 8.0827285e-06 -0.00013815668 0.00016575003 6.68669e-05 -0.00012794706 -0.00014583301 -5.248759e-05
9.066088e-05 -7.653466e-05 1.2663756e-05 0.00013152896
00000000: 8854 c938 0e9b 0737 27de 10b9 2fcd 2d39
00000010: e53a 8c38 8729 06b9 c0ea 18b9 1f26 5cb8
00000020: 3021 be38 3c81 a0b8 6b76 5437 09eb 0939

running_mean f4 [12]
0.22268388 -0.292034 -0.66639787 0.0043088924 0.22069211 0.057659563 0.28411672 0.029418351
0.007281898 0.1804972 0.20859002 0.26132265
00000000: 3e07 643e 7b85 95be 0d99 2abf 9c31 8d3b
00000010: 1dfd 613e 6f2c 6c3d bf77 913e c1fe f03c
00000020: fd9c ee3b 42d4 383e 9f98 553e 15cc 853e

running_var f4 [12]
0.0114353625 0.03139154 0.23226845 0.0019121949 0.05215681 0.0030264289 0.028339949 0.0033313842
0.013064402 0.045472868 0.01626013 0.02341305
00000000: 635b 3b3c 6a94 003d c8d7 6d3e 9da2 fa3a
00000010: 61a2 553d 0d57 463b 2e29 e83c 5a53 5a3b
00000020: 130c 563c c241 3a3d f733 853c bacc bf3c

weight f4 [12, 12, 5, 5]
-0.04759218 -0.0135207055 0.056073323 0.0017559428 -0.0034267467 -0.021971477 -0.0044689253 0.011595398
-0.044535678 -0.0031383242 0.01674076 0.012717923 0.020620666 0.019991416 -0.0058495686 0.019456437
0.04058359 -0.018462284 -0.045754343 0.018811623 0.039187435 0.018538207 -0.037558742 0.030005477
0.0054154247 0.05731339 -0.045415644 -0.031002995 -0.010756374 -0.046874274 0.048892073 -0.023939598
-0.03376837 0.023568027 0.031253587 0.045859184 0.021450652 -0.0220203 0.036911078 -0.03310253
0.039328843 -0.007162041 0.021484425 0.015998166 -0.026015764 -0.015294251 0.03249808 -0.001054418
-0.03225251 -0.024774441 -0.0334206 -0.038963437 -0.015672013 0.050619204 -0.02511492 -0.019316597
-0.015641918 -0.030865198 -0.0081611285 -0.007314595 0.056796122 0.03140464 0.019379113 -0.0006175177
0.005922646 -0.0142581025 -0.009271566 0.0480136 -0.008005584 -0.009961697 0.050270785 0.0012100864
0.057515994 0.009489239 0.0139918905 -0.0378617 -0.047194958 0.029825078 0.032524146 0.05531951
-0.023250999 -0.052325435 -0.004268897 0.042671673 -0.051718116 0.054573987 0.052003413 -0.039616697
-0.011080871 0.030511023 0.041091856 -0.05735297 -0.04867076 0.030951547 0.009340531 -0.0046853726
0.052813806 -0.050676465 -0.03973367 -0.028381368 0.056980666 -0.011206893 0.0032962405 0.013522151
0.04437462 0.05151171 0.0455746 0.054586247 -0.0034948878 -0.031688828 0.03266706 0.049081665
-0.005468827 0.029636655 -0.023495078 -0.011365028 0.016490834 0.057821184 0.02769207 0.0051518455
0.017314358 -0.014066896 -0.009095463 0.025178855 -0.017174823 -0.04532964 -0.025760889 -0.022234969
0.046656545 -0.049565103 -0.045066632 0.03667486 -0.035133537 -0.010645896 -0.025654685 0.044432677
0.013134265 -0.01953151 -0.016068116 -0.0074654417 -0.025113948 -0.041447762 -0.029976215 0.029395984
-0.031901035 0.057315167 -0.04124667 0.007256494 -0.0027656064 0.0071593556 0.00044653832 -0.047907446
-0.0034394453 -0.015077504 -0.03420825 -0.050702874 0.043862447 0.0006206363 0.0031005752 0.020553116
-0.047654796 -0.026120113 -0.026107632 -0.036898058 -0.0018988082 0.044725806 -0.04783658 0.0200375
-0.02268426 -0.03304626 0.023657454 -0.02888547 0.025396198 0.05583586 -0.039534938 -0.03120465
-0.024206344 0.05167372 -0.010576788 -0.048217516 0.009052492 0.05622474 0.021541955 0.041609213
0.023591986 -0.050049126 -0.04812163 -0.028394576 -0.019323437 0.024802115 -0.046926454 -0.031972937
-0.026135234 0.050933212 0.035341933 0.020339534 0.016511174 -0.002479687 -0.048655488 0.03694686
-0.0050376314 0.041246127 0.00058769743 0.015218488 0.049946148 -0.033015613 -0.0078614745 0.056045737
-0.05213298 0.025451377 -0.033037923 0.052043382 0.004603354 -0.01676107 0.022955842 -0.050444767
-0.037319176 0.056355454 0.043493792 0.004967634 -0.032364998 0.032606967 0.017864052 0.040748265
-0.047480043 0.03942765 0.01937818 -0.05629027 -0.037193835 -0.04109354 0.056949716 0.014666288
-0.021734012 0.019665452 0.034196936 -0.02274409 -0.001961859 0.022007238 0.027420726 0.022344753
-0.020438995 0.0051887343 -0.056209117 -0.021398226 0.03011341 -0.050675754 -0.054353163 0.0475452
0.027313113 0.02974563 -0.041080866 -0.0044831554 0.0152741475 0.009576973 0.014921559 -0.051607367
00000000: 05f0 42bd f385 5dbc 24ad 653d aa27 e63a
00000010: 4593 60bb 87fd b3bc 1070 92bb a0fa 3d3c
00000020: 0b6b 36bd 58ac 4dbb eb23 893c d65e 503c
00000030: acec a83c 0ac5 a33c bdad bfbb 1b63 9f3c
00000040: fa3a 263d 373e 97bc e868 3bbd d51a 9a3c
00000050: 0183 203d 70dd 973c 32d7 19bd 0cce f53c
00000060: e073 b13b 72c1 6a3d c105 3abd fef9 fdbc
00000070: 813b 30bc 3dff 3fbd 0e43 483d fa1c c4bc
00000080: b450 0abd bc11 c13c c303 003d d7d6 3b3d
00000090: 47b9 af3c eb63 b4bc 1230 173d 8596 07bd
000000a0: 4817 213d 8eaf eabb 1b00 b03c 960e 833c
000000b0: 031f d5bc bd94 7abc b51c 053d 6634 8aba
000000c0: 351b 04bd c5f3 cabc 0ae4 08bd 2098 1fbd
000000d0: 9862 80bc 1556 4f3d cebd cdbc d73d 9ebc
000000e0: 7b23 80bc 03d9 fcbc 41b6 05bc 45af efbb
000000f0: 0da3 683d 27a2 003d f2c0 9e3c e9e0 21ba
00000100: c112 c23b d19a 69bc c4e7 17bc e9a9 443d
00000110: da29 03bc 6336 23bc bde8 4d3d c39b 9e3a
00000120: e495 6b3d c178 1b3c 3e3e 653c df14 1bbd
00000130: 804f 41bd b953 f43c 0a38 053d b696 623d
00000140: e178 bebc 3253 56bd 1be2 8bbb 7ec8 2e3d
00000150: 60d6 53bd f988 5f3d 8801 553d 1e45 22bd
00000160: 8b8c 35bc 41f2 f93c ef4f 283d f3ea 6abd
00000170: fe5a 47bd 198e fd3c 0709 193c c187 99bb
00000180: 4a53 583d 2092 4fbd c6bf 22bd 0b80 e8bc
00000190: 8f64 693d 1e9d 37bc bd05 583b 038c 5d3c
000001a0: 29c2 353d f1fd 523d 6fac 3a3d d495 5f3d
000001b0: 7d0a 65bb 25cc 01bd e5cd 053d db09 493d
000001c0: d933 b3bb 92c8 f23c c078 c0bc 6234 3abc
000001d0: c917 873c e8d5 6c3d 7bda e23c d0d0 a83b
000001e0: d7d6 8d3c d778 66bc 2305 15bc e343 ce3c
000001f0: 37b2 8cbc 93ab 39bd 8008 d3bc 1c26 b6bc
00000200: ef1a 3f3d c704 4bbd ca97 38bd 6138 163d
00000210: 2fe8 0fbd 206c 2ebc c629 d2bc 0aff 353d
00000220: 1a31 573c 8c00 a0bc 48a1 83bc aaa0 f4bb
00000230: c4bb cdbc 21c5 29bd ae90 f5bc d9cf f03c
00000240: a9aa 02bd 4fc3 6a3d 45f2 28bd e2c7 ed3b
00000250: 2d3f 35bb 0799 ea3b 5c1d ea39 993a 44bd
00000260: 5168 61bb a307 77bc f31d 0cbd d1ad 4fbd
00000270: 1ca9 333d 32b2 223a 0533 4b3b 025f a83c
00000280: ad31 43bd d9f9 d5bc acdf d5bc 6b22 17bd
00000290: 6ee1 f8ba 6832 373d 4af0 43bd af25 a43c
000002a0: 57d4 b9bc 845b 07bd 47cd c13c 39a1 ecbc
000002b0: b00b d03c 25b4 643d 63ef 21bd e5a0 ffbc
000002c0: 624c c6bc d3a7 533d 444a 2dbc bb7f 45bd
000002d0: e750 143c ea4b 663d c178 b03c 6c6e 2a3d
000002e0: fb43 c13c 5000 4dbd 301b 45bd be9b e8bc
000002f0: 2f4c 9ebc ce2d cb3c f435 40bd 0ef6 02bd
00000300: 8f19 d6bc 589f 503d b4c2 103d 189f a63c
00000310: 7142 873c 3f82 22bb fa4a 47bd 9755 173d
00000320: b712 a5bb b3f1 283d b50f 1a3a f756 793c
00000330: 5594 4c3d 613b 07bd 6acd 00bc 3790 653d
00000340: 6489 55bd 687f d03c c652 07bd 712b 553d
00000350: bbd7 963b 834e 89bc e40d bc3c 2c9f 4ebd
00000360: fedb 18bd fad4 663d 8c26 323d 89c7 a23b
00000370: 2991 04bd e28e 053d a257 923c a7e7 263d
00000380: 6f7a 42bd e37e 213d fdbe 9e3c a090 66bd
00000390: 9058 18bd b351 28bd 1b44 693d df4a 703c
000003a0: 870b b2bc 7119 a13c 1612 0c3d d051 babc
000003b0: 8892 00bb 8648 b43c 6ea1 e03c 580c b73c
000003c0: ae6f a7bc 4206 aa3b 883b 66bd 554b afbc
000003d0: 66b0 f63c 6191 4fbd 6ca1 5ebd c1be 423d
000003e0: c0bf df3c 1cad f33c 6944 28bd 6fe7 92bb
000003f0: 6b40 7a3c bce8 1c3c 8e79 743c 3f62 53bd

bias f4 [12]
0.009529594 0.009808068 0.05315577 -0.03880567 0.05613601 -0.003627029 0.002965671 0.00041771392
-0.045445625 -0.052107114 -0.030365776 -0.017097214
00000000: 0422 1c3c 05b2 203c ddb9 593d b2f2 1ebd
00000010: dfee 653d 73b3 6dbb b45b 423b 9d00 db39
00000020: 3125 3abd 456e 55bd a6c1 f8bc 750f 8cbc

weight f4 [12]
1.0000019 0.99992424 1.0000062 1.0000006 1.0000021 1.0000018 0.9999391 0.9999244
0.999947 1.0000005 1.0000024 1.0000036
00000000: 1000 803f 09fb 7f3f 3400 803f 0500 803f
00000010: 1200 803f 0f00 803f 02fc 7f3f 0cfb 7f3f
00000020: 87fc 7f3f 0400 803f 1400 803f 1e00 803f

bias f4 [12]
-0.000102650185 -7.387331e-05 0.00013471176 -0.00013634627 1.7107453e-05 1.5086276e-05 -5.018606e-05 -0.00013582135
-6.3907086e-05 -7.4884033e-06 0.000119394186 0.00012986611
00000000: e645 d7b8 6eec 9ab8 6a41 0d39 2cf8 0eb9
00000010: fa81 8f37 101b 7d37 df7e 52b8 446b 0eb9
00000020: db05 86b8 e544 fbb6 4463 fa38 ab2c 0839

running_mean f4 [12]
0.09744618 0.1781494 0.43998468 0.07557707 0.2887709 -0.045704477 -0.26162198 -0.13643076
0.12492938 -0.18904817 -0.12502342 -0.14525601
00000000: dd91 c73d cc6c 363e ac45 e13e 27c8 9a3d
00000010: c8d9 933e 9e34 3bbd 51f3 85be 81b4 0bbe
00000020: fada ff3d d895 41be 2406 00be febd 14be

running_var f4 [12]
0.0439055 0.11267578 0.35989437 0.06025151 0.22740754 0.12913322 0.07606364 0.06695157
0.08955539 0.05526646 0.22371751 0.11043253
00000000: 41d6 333d 8fc2 e63d 1344 b83e 4aca 763d
00000010: 86dd 683e 803b 043e 41c7 9b3d e81d 893d
00000020: d168 b73d 155f 623d 3416 653e 732a e23d

weight f4 [24, 12, 5, 5]
0.018204642 0.019750785 -0.024528863 0.015586058 -0.05057021 -0.035109054 -0.03849668 -0.054354258
0.01615151 -0.027302787 0.012011423 0.042123534 -0.0523901 -0.042902533 -0.049072236 -0.020114657
-0.03446229 0.05479507 0.021323731 0.037480887 0.0538836 0.03563371 0.04473275 -0.049750917
-0.041316025 0.005989117 0.029237786 0.024685344 0.046847664 -0.022004467 0.0327679 0.017027993
0.030037228 -0.031547956 0.010433595 0.020623459 -0.0021235314 -0.04057632 0.030258782 -0.039884236
0.01886026 0.011519622 -0.03648607 0.036182925 0.0011987974 -0.0343821 0.0034235972 0.04343797
0.0074736327 0.055144805 0.04070829 0.015246005 0.046630114 0.04070842 -0.020898525 0.020063384
0.010879993 -0.03718019 -0.011032488 -0.015962034 -0.030420188 -0.038814586 -0.0031496673 -0.004646494
-0.023701338 -0.0060948627 -0.0368018 -0.044690114 0.031212943 -0.0117317075 0.0059372648 -0.04931744
0.012932088 0.04098148 0.036718912 -0.04789132 -0.022087144 0.046063635 -0.018427515 -0.0031010043
-0.019490013 0.021358456 0.010815739 0.02977032 -0.034703627 -0.02368159 0.034989625 -0.0006478545
0.030794546 0.013372878 0.052792575 0.007679395 -0.04664475 0.054516394 0.0026461415 0.015760705
-0.046125647 0.056154538 0.04248113 -0.033101678 -0.022304097 0.053553753 0.04687529 -0.011187229
0.003361056 -0.04616357 0.01534392 0.005187721 0.012622931 0.05345279 -0.010361023 -0.017066896
0.023006963 -0.009657493 0.03872066 0.022040442 -0.024789775 -0.013910955 0.010625116 0.0055210856
0.05299952 -0.029917533 0.019768266 -0.016350212 0.049889404 -0.053092107 0.009325674 -0.051025692
0.0021488913 -0.0151828565 -0.0083453655 -0.01171129 -0.041289587 -0.014176271 0.019279923 0.04160829
-0.02338594 -0.055062585 0.02094471 -0.057020623 -0.025952553 -0.014624991 -0.028521778 0.036363184
-0.017657792 -0.03309978 -0.043009397 0.011926605 -0.037312288 0.027040266 0.05092704 0.020120578
0.04679317 -0.017782338 -0.041441645 -0.038006064 -0.0062273676 0.022133179 -0.021803457 -0.045852166
0.04258277 0.04185012 -0.034916278 0.0053738733 0.048878353 0.009090856 -0.04133827 -0.045444455
0.051976524 0.047228534 -0.034879066 0.044110496 -0.052275006 -0.057116862 -0.05335279 -0.02424309
-0.03487541 -0.02859386 -0.02495012 -0.034209717 0.00985476 0.04363781 0.04806439 0.045961518
0.04637886 0.036510978 0.012794109 0.025221538 -0.027268192 0.031643145 -0.024306478 0.01388846
0.0361352 -0.0008000964 0.023394993 -0.03357899 0.007242446 0.014145755 0.021788 0.03102238
-0.026923174 -0.047843855 0.035031475 0.043185983 -0.038145997 -0.038265828 0.04516591 -0.0018826278
0.055538647 0.049116362 -0.042508215 0.03225929 -0.015816465 -0.018414475 0.02868303 -0.01834157
0.01744026 -0.04161861 -0.03170085 -0.010911364 0.006366328 0.041817114 -0.007961778 0.013500985
0.025740469 -0.021769451 0.00954782 -0.021000419 0.028293096 -0.041931823 0.042162076 0.024025079
0.02428503 0.03268561 -0.051419046 -0.0034322063 0.03045316 0.031091414 -0.056728538 0.042342756
-0.03613735 0.0068136477 -0.01822128 -0.05750046 0.0048244256 -0.010218669 -0.0069329008 0.040508866
-0.02502741 -0.02388932 0.0076124673 -0.052732512 0.033692125 -0.022763196 0.02605663 0.005911384
00000000: e721 953c 66cc a13c c1f0 c8bc aa5c 7f3c
00000010: b522 4fbd 83ce 0fbd b2ae 1dbd 92a2 5ebd
00000020: 2c50 843c 18aa dfbc 8fcb 443c ba89 2c3d
00000030: 0097 56bd 91ba 2fbd f8ff 48bd 7ec7 a4bc
00000040: 5528 0dbd cc70 603d 1baf ae3c 8f85 193d
00000050: 0db5 5c3d a7f4 113d b039 373d 9ec7 4bbd
00000060: fe3a 29bd 5b40 c43b 1584 ef3c eb38 ca3c
00000070: 56e3 3f3d b642 b4bc a237 063d 4a7e 8b3c
00000080: a210 f63c 6e38 01bd abf1 2a3c 87f2 a83c
00000090: f22a 0bbb 5b33 26bd 44e1 f73c a75d 23bd
000000a0: d580 9a3c ccbc 3c3c 6b72 15bd 8c34 143d
000000b0: f720 9d3a 3fd4 0cbd 6e5e 603b 03ec 313d
000000c0: 60e5 f43b 85df 613d bcbd 263d 61ca 793c
000000d0: 38ff 3e3d dfbd 263d 6233 abbc f75b a43c
000000e0: 0042 323c 414a 18bd 9cc1 34bc d0c2 82bc
000000f0: c233 f9bc 0bfc 1ebd a66a 4ebb 9e41 98bb
00000100: 4f29 c2bc 6ab7 c7bb 7cbd 16bd fb0c 37bd
00000110: 49b2 ff3c 5936 40bc 638d c23b 1501 4abd
00000120: 1ce1 533c 32dc 273d 9266 163d b029 44bd
00000130: 19f0 b4bc 39ad 3c3d 4df5 96bc 383a 4bbb
00000140: 85a9 9fbc eef7 ae3c 7f34 313c e3e0 f33c
00000150: 6425 0ebd e5ff c1bc 4851 0f3d c8d4 29ba
00000160: d844 fc3c ea19 5b3c 073d 583d 6fa3 fb3b
00000170: 910e 3fbd 954c 5f3d e36a 2d3b 981c 813c
00000180: 3fee 3cbd 4d02 663d b200 2e3d a095 07bd
00000190: 15b7 b6bc 2e5b 5b3d 4e00 403d a44a 37bc
000001a0: 2a45 5c3b 0316 3dbd 1165 7b3c c2fd a93b
000001b0: 69d0 4e3c 50f1 5a3d 48c1 29bc e0cf 8bbc
000001c0: 1979 bc3c 763a 1ebc 8e99 1e3d 288e b43c
000001d0: ed13 cbbc c6ea 63bc f714 2e3c 39ea b43b
000001e0: 0616 593d 9d15 f5bc 0ff1 a13c e1f0 85bc
000001f0: d558 4c3d 1c77 59bd b6ca 183c 5100 51bd
00000200: 6ad4 0c3b 84c1 78bc 00bb 08bc b6e0 3fbc
00000210: 451f 29bd 9743 68bc eef0 9d3c 746d 2a3d
00000220: df93 bfbc 4e89 61bd 3e94 ab3c 758e 69bd
00000230: 739a d4bc a99d 6fbc 81a6 e9bc 90f1 143d
00000240: 13a7 90bc a393 07bd 9f2a 30bd cf67 433c
00000250: c5d4 18bd 8c83 dd3c df98 503d e9d3 a43c
00000260: 32aa 3f3d 44ac 91bc b7be 29bd 3fac 1bbd
00000270: f20e ccbb a450 b53c 2a9d b2bc 7bcf 3bbd
00000280: 456b 2e3d 086b 2b3d 5f04 0fbd 5117 b03b
00000290: ab34 483d d0f1 143c 5152 29bd f723 3abd
000002a0: 56e5 543d b572 413d 5add 0ebd 35ad 343d
000002b0: 511e 56bd 5ff3 69bd 7588 5abd 7299 c6bc
000002c0: 85d9 0ebd ac3d eabc 3264 ccbc 7d1f 0cbd
000002d0: dc75 213c 8fbd 323d 2adf 443d 2542 3c3d
000002e0: c2f7 3d3d 898c 153d 629e 513c 669d ce3c
000002f0: 8b61 dfbc 3e9c 013d 611e c7bc 6c8c 633c
00000300: 8102 143d 8fbd 51ba dba6 bf3c 1f8a 09bd
00000310: 0a52 ed3b 99c3 673c bf7c b23c a522 fe3c
00000320: fd8d dcbc ebf7 43bd 2a7d 0f3d c9e3 303d
00000330: fa3e 1cbd a1bc 1cbd e4ff 383d 82c2 f6ba
00000340: 7e7c 633d 3d2e 493d 181d 2ebd 5122 043d
00000350: 8891 81bc f4d9 96bc acf8 ea3c 0f41 96bc
00000360: e0de 8e3c 4778 2abd c0d8 01bd 94c5 32bc
00000370: a19c d03b 6c48 2b3d 1e72 02bc 3c33 5d3c
00000380: addd d23c d955 b2bc 766e 1c3c 1209 acbc
00000390: ecc6 e73c b4c0 2bbd 24b2 2c3d 3ed0 c43c
000003a0: 66f1 c63c 59e1 053d c79c 52bd deee 60bb
000003b0: e878 f93c 6cb3 fe3c 2f5c 68bd 996f 2d3d
000003c0: c204 14bd 0545 df3b cb44 95bc 9a85 6bbd
000003d0: 3716 9e3b 346c 27bc 632d e3bb a0ec 253d
000003e0: 4806 cdbc 89b3 c3bc 0172 f93b 0cfe 57bd
000003f0: c100 0a3d e279 babc b774 d53c 48b4 c13b

bias f4 [24]
-0.04867622 0.030635592 -0.026310032 0.056081012 0.043049198 0.019806428 0.009287452 -0.023952525
0.025931355 -0.032767896 -0.016143024 0.01956529 -0.015614885 0.035955377 0.009455648 0.02590748
0.05129988 -0.007989459 -0.035607122 0.01219054 0.022199202 0.010891273 -0.044863775 0.03123407
00000000: b760 47bd 7ef7 fa3c 2388 d7bc 34b5 653d
00000010: 5b54 303d 1741 a23c 662a 183c 1638 c4bc
00000020: fe6d d43c a137 06bd 603e 84bc 6347 a03c
00000030: 93d5 7fbc f245 133d ddeb 1a3c ec3b d43c
00000040: d31f 523d 38e6 02bc c6d8 11bd d5ba 473c
00000050: 1adb b53c 4f71 323c 14c3 37bd 98de ff3c

weight f4 [24]
0.99994946 0.9999856 0.9999379 1.000001 1.0000036 1.0000025 1.0000291 0.99994105
1.0000006 0.9999941 1.0000021 0.99996585 0.99995214 1.0000005 1.0000002 1.0000011
0.9999918 1.0 1.000004 0.99992126 1.0000015 0.99993485 1.0000002 1.0000001
00000000: b0fc 7f3f 0eff 7f3f eefb 7f3f 0800 803f
00000010: 1e00 803f 1500 803f f400 803f 23fc 7f3f
00000020: 0500 803f 9dff 7f3f 1200 803f c3fd 7f3f
00000030: ddfc 7f3f 0400 803f 0200 803f 0900 803f
00000040: 76ff 7f3f 0000 803f 2200 803f d7fa 7f3f
00000050: 0d00 803f bbfb 7f3f 0200 803f 0100 803f

bias f4 [24]
-7.218498e-05 -5.1186762e-05 -5.5888922e-06 4.6102603e-05 9.107147e-05 -1.7313596e-05 0.0002524646 -0.000105146835
6.841848e-05 9.439897e-05 -8.37887e-05 -9.107191e-05 -0.00013061837 2.9814988e-05 9.061244e-05 8.2019884e-05
-1.940147e-05 -5.4030686e-05 7.1338225e-05 -0.000115429146 -9.8859266e-05 -9.838222e-05 6.795023e-05 0.00010588245
00000000: 0462 97b8 5eb1 56b8 3888 bbb6 4b5e 4138
00000010: a0fd be38 aa3c 91b7 3a5d 8439 4782 dcb8
00000020: e47b 8f38 10f8 c538 b7b7 afb8 dcfd beb8
00000030: 9af6 08b9 331b fa37 2f07 be38 1702 ac38
00000040: 57c0 a2b7 029f 62b8 6b9b 9538 8d12 f2b8
00000050: aa52 cfb8 8d52 ceb8 8080 8e38 350d de38

running_mean f4 [24]
0.16056652 -0.23502775 0.6728708 0.05863775 0.005313309 -0.13294767 0.5749186 0.2108624
-0.78246284 -0.034114763 0.22982267 0.43754226 0.081454515 0.4476642 -0.16887033 -0.4043766
-0.25893167 -0.030646572 -0.09368104 0.4340064 0.13021992 -0.07468546 -0.11350054 0.032260954
00000000: 8d6b 243e 1dab 70be 4341 2c3f 232e 703d
00000010: 441b ae3b 6f23 08be de2d 133f 50ec 573e
00000020: 7c4f 48bf ecbb 0bbd a256 6b3e 8a05 e03e
00000030: a0d1 a63d 3e34 e53e 58ec 2cbe 730a cfbe
00000040: b192 84be 850e fbbc d8db bfbd 1636 de3e
00000050: 5f58 053e b1f4 98bd f972 e8bd 1024 043d

running_var f4 [24]
0.25424835 0.11123164 0.6839736 0.21059808 0.08991779 0.11617692 0.2950402 0.1376464
0.41397902 0.16395162 0.1070135 0.09654705 0.32703546 0.1643913 0.25190693 0.2317559
0.1127763 0.20250021 0.12216804 0.13621521 0.15027997 0.1007854 0.1145345 0.1417321
00000000: d72c 823e 6acd e33d e518 2f3f 06a7 573e
00000010: d126 b83d 2aee ed3d 820f 973e 2ef3 0c3e
00000020: 0ff5 d33e efe2 273e e529 db3d 76ba c53d
00000030: 3171 a73e 3156 283e f2f9 803e 6b51 6d3e
00000040: 43f7 e63d 375c 4f3e 3d33 fa3d 007c 0b3e
00000050: fee2 193e 9368 ce3d 1091 ea3d 3822 113e

weight f4 [24, 24, 5, 5]
-0.027018514 0.016219195 0.0048851566 0.0046607214 0.03536574 -0.012999173 0.0032049667 -0.016703293
0.011359823 0.00778756 0.022494892 -0.027827809 0.01635099 -0.002799438 0.022213742 -0.02052721
-0.021920616 -0.012700881 0.025654739 -0.014241389 -0.023246137 0.033607405 0.0040781745 -0.017242122
-0.028944064 0.023328489 0.032249417 -0.038779017 0.0030001472 0.0012243188 0.03722242 -0.021322548
-0.0086706905 0.009690459 0.017451411 -0.0031313817 0.006923137 -0.005176671 0.037097923 0.007769182
0.034605354 -0.0050699348 0.009000747 -0.02846581 -0.020070756 -0.009772867 -0.004201412 0.015135856
-0.034508444 -0.021413382 -0.02609912 -0.03018869 0.04034292 0.0053471704 -0.00398982 -0.0060477844
-0.013984674 0.0019353296 0.011566071 -0.024293581 -0.016842932 -0.027041804 -0.021478802 0.039346635
-0.012886076 0.0013740225 -0.03968759 -0.02697206 -0.016104648 0.0047110775 -0.025741762 0.036438264
0.025383277 0.015938325 0.017182037 -0.011035092 0.039237026 -0.0022713644 0.013082317 0.024212068
0.01235925 0.010763452 -0.032903433 0.00063029665 0.035138488 0.01555418 -0.018302597 -0.018199952
0.019902302 0.015604664 -0.032292392 0.024872651 0.030110484 -0.007736762 -0.03504019 -0.031025847
-0.011092741 0.025429022 -0.0064249425 -0.014164394 0.023562653 -0.024400905 -0.01984491 0.029882032
-0.039199263 0.013426842 0.03956341 -0.02066516 0.0029870851 0.025809323 -0.015455842 0.0112106195
-0.0006549083 -0.019337311 0.0025650954 -0.028926736 -0.003007422 -0.011056493 0.033941858 -0.018152814
0.01185506 -0.03826114 -0.016413646 -0.019960692 -0.035142053 -0.021047618 -0.0144286845 0.025153928
-0.037756447 -0.03620224 0.008322251 -0.025784126 0.036276974 -0.015268998 0.009398148 0.01570638
0.019709095 -0.035870116 0.030363591 0.021477623 -0.0060788286 0.03231542 -0.0006581186 -0.0118526
-0.028899655 0.014934665 0.0144407395 0.040474325 0.025503445 0.0071310983 -0.023640297 -0.03983743
-0.016052352 -0.0058410103 0.020416295 -0.020892732 0.014842754 -0.011991495 0.03652275 -0.034046847
-0.019607386 -0.025404522 0.03200617 0.032366157 0.02117336 0.006451836 -0.02993774 0.011036799
-0.03937787 -0.04040166 0.034408383 -0.03802086 0.02561735 0.01615059 0.010021462 -0.038572825
-0.008982233 -0.006007635 -0.032741886 0.013333773 0.031701867 -0.022055648 0.030392205 0.007992614
0.0381607 0.017325033 -0.009470045 0.016043328 -0.020651348 0.005090115 0.0093781315 -0.01774683
-0.009456267 0.038156625 0.0014407769 -0.035645694 -0.002308084 -0.010445677 0.02468319 0.0064242794
-0.012842769 0.028732046 -0.022301324 0.036545098 -0.0033571804 -0.011757709 0.015853334 0.003822342
-0.022029918 0.036806747 -0.03034481 -0.0084863035 -0.012891758 0.03114701 -0.015367912 -0.027158674
0.03386694 0.032017224 0.040316697 0.010751952 -0.03960343 -0.029336287 0.035588525 -0.0017792555
0.018398773 -0.037108235 0.014467589 0.0086875595 0.02204835 0.038705498 -0.023691798 0.0052212067
0.015838712 0.024359837 0.00962424 -0.009332512 0.031277146 0.0060674273 0.0342916 0.035629682
0.038891993 0.020744089 0.007382955 0.030968165 0.035214607 -0.038885694 0.01829026 0.035836678
0.037058152 -0.03660097 0.03136497 0.02223227 -0.034989405 0.013924128 -0.034375865 -0.02897117
00000000: ee55 ddbc 1ede 843c aa13 a03b f7b8 983b
00000010: abdb 103d 7cfa 54bc 6b0a 523b 58d5 88bc
00000020: 8d1e 3a3c ca2e ff3b 3547 b83c 25f7 e3bc
00000030: 83f2 853c c776 37bb 98f9 b53c ae28 a8bc
00000040: dd92 b3bc 5b17 50bc e329 d23c b754 69bc
00000050: af6e bebc eba7 093d 35a2 853b 5a3f 8dbc
00000060: 1a1c edbc 631b bf3c f717 043d bfd6 1ebd
00000070: 1e9e 443b 5279 a03a 8976 183d a0ac aebc
00000080: 830f 0ebc bbc4 1e3c 43f6 8e3c de37 4dbb
00000090: 7cdb e23b 10a1 a9bb fef3 173d 9f94 fe3b
000000a0: 58be 0d3d b221 a6bb df77 133c 2131 e9bc
000000b0: 6d6b a4bc 601e 20bc 00ac 89bb 62fc 773c
000000c0: ba58 0dbd 1e6b afbc d2cd d5bc 464e f7bc
000000d0: 9e3e 253d 5137 af3b 09bd 82bb 7e2c c6bb
000000e0: f91f 65bc e3aa fd3a 9e7f 3d3c 5503 c7bc
000000f0: 30fa 89bc c686 ddbc 50f4 afbc f029 213d
00000100: 1f20 53bc 8b18 b43a 748f 22bd 82f4 dcbc
00000110: e5ed 83bc 625f 9a3b 63e0 d2bc 4a40 153d
00000120: 97f0 cf3c 1791 823c 58c1 8c3c 88cc 34bc
00000130: 01b7 203d 2cdb 14bb 3757 563c 6358 c63c
00000140: 747e 4a3c 3159 303c c0c5 06bd 7e3a 253a
00000150: 60ed 0f3d f6d6 7e3c 54ef 95bc 1118 95bc
00000160: 270a a33c b4aa 7f3c 0745 04bd bbc1 cb3c
00000170: 43aa f63c aa84 fdbb 4d86 0fbd eb29 febc
00000180: 54be 35bc 8650 d03c 5388 d2bb c611 68bc
00000190: 7706 c13c 68e4 c7bc cb91 a2bc 2acb f43c
000001a0: 688f 20bd 42fc 5b3c 3e0d 223d fb49 a9bc
000001b0: f9c2 433b 136e d33c 803a 7dbc bfac 373c
000001c0: 27ae 2bba 4869 9ebc 291b 283b c3f7 ecbc
000001d0: 2b18 45bb 4b26 35bc 9e06 0b3d 36b5 94bc
000001e0: ba3b 423c b7b7 1cbd e975 86bc 9b84 a3bc
000001f0: 1df1 0fbd 0e6c acbc 4a66 6cbc 9c0f ce3c
00000200: 81a6 1abd cd48 14bd 0d5a 083c 3b39 d3bc
00000210: 2a97 143d d22a 7abc b1fa 193c abaa 803c
00000220: f874 a13c 8bec 12bd 11bd f83c d7f1 af3c
00000230: e930 c7bb 2d5d 043d 9785 2cba 6831 42bc
00000240: f8be ecbc 86b0 743c da98 6c3c 68c8 253d
00000250: 9aec d03c fdab e93b 4ca9 c1bc 932c 23bd
00000260: 3980 83bc f265 bfbb 1340 a73c 3c27 abbc
00000270: 062f 733c fa77 44bc e198 153d b574 0bbd
00000280: ab9f a0bc 251d d0bc e718 033d 6092 043d
00000290: c173 ad3c ec69 d33b fe3f f5bc b1d3 343c
000002a0: b04a 21bd 367c 25bd ceef 0c3d c3bb 1bbd
000002b0: 7adb d13c 3e4e 843c 0f31 243c 8afe 1dbd
000002c0: 372a 13bc b2db c4bb 5b1c 06bd e675 5a3c
000002d0: d1d9 013d 0cae b4bc 13f9 f83c 74f3 023c
000002e0: 654e 1c3d 3aed 8d3c 3f28 1bbc 4c6d 833c
000002f0: 042d a9bc fbca a63b bca6 193c cd61 91bc
00000300: 75ee 1abc 1f4a 1c3d 73d8 bc3a 3801 12bd
00000310: 3943 17bb 5824 2bbc 6734 ca3c c382 d23b
00000320: 7a6a 52bc 785f eb3c 44b1 b6bc 50b0 153d
00000330: 2404 5cbb 68a3 40bc dade 813c 4280 7a3b
00000340: 1678 b4bc acc2 163d ae95 f8bc 230a 0bbc
00000350: f437 53bc 0428 ff3c b2c9 7bbc de7b debc
00000360: 0fb8 0a3d 7e24 033d 1f23 253d f528 303c
00000370: 3537 22bd a752 f0bc 46c5 113d e835 e9ba
00000380: 06b9 963c cefe 17bd 7709 6d3c 4456 0e3c
00000390: be9e b43c a889 1e3d 4d15 c2bc a816 ab3b
000003a0: 30c0 813c 488e c73c fdae 1d3c 64e7 18bc
000003b0: 771c 003d 45d1 c63b 5975 0c3d 6ef0 113d
000003c0: 364d 1f3d 82ef a93c b7ec f13b f3b0 fd3c
000003d0: 313d 103d 9b46 1fbd 75d5 953c 7bc9 123d
000003e0: 4aca 173d e6ea 15bd 8e78 003d 7320 b63c
000003f0: 0d51 0fbd 0722 643c b5cd 0cbd f254 edbc

bias f4 [24]
0.015652755 0.01499905 -0.023723956 -0.016644383 -0.028918417 0.02762173 -0.03975001 -0.020408565
0.0028293235 0.011846295 0.037032068 0.031007322 -0.027389841 0.036583193 0.017092485 -0.00073179096
0.0009429862 0.006685399 -0.032958362 0.021030383 -0.009796393 -0.0131365685 -0.023773324 0.029656608
00000000: 353a 803c 93be 753c be58 c2bc cd59 88bc
00000010: 51e6 ecbc f746 e23c e8d0 22bd dd2f a7bc
00000020: 2c6c 393b f616 423c f0ae 173d 1103 fe3c
00000030: a960 e0bc 42d8 153d 8a05 8c3c a9d5 3fba
00000040: bc32 773a 3111 db3b 59ff 06bd e947 ac3c
00000050: 0d81 20bc c33a 57bc 46c0 c2bc 6af2 f23c

weight f4 [24]
0.9999902 0.9999603 1.0000015 1.0000024 1.0000046 1.0 0.9999779 1.0000004
0.99999917 1.0000007 0.9999988 1.0000039 1.0 0.99993217 1.0000155 1.0000013
1.0 0.9999807 1.0000021 0.9999001 1.0000012 1.000005 0.9999979 1.0
00000000: 5cff 7f3f 66fd 7f3f 0d00 803f 1400 803f
00000010: 2700 803f 0000 803f 8dfe 7f3f 0300 803f
00000020: f2ff 7f3f 0600 803f ecff 7f3f 2100 803f
00000030: 0000 803f 8efb 7f3f 8200 803f 0b00 803f
00000040: 0000 803f bcfe 7f3f 1200 803f 74f9 7f3f
00000050: 0a00 803f 2a00 803f ddff 7f3f 0000 803f

bias f4 [24]
1.073569e-05 0.000122054495 1.399634e-05 0.0001362775 0.00023285157 0.00011752897 9.2875955e-05 9.282913e-05
7.0671995e-05 0.00013353572 9.580507e-05 0.00025377475 6.0210743e-05 -4.55276e-05 0.00024359794 5.3867676e-05
0.00016499513 0.00013342348 9.161832e-05 -5.0013245e-05 1.7362621e-05 0.00019052942 9.419192e-05 0.00012397309
00000000: 701d 3437 82f7 ff38 d3d1 6a37 b6e5 0e39
00000010: 9e29 7439 e379 f638 66c6 c238 42ad c238
00000020: bd35 9438 b905 0c39 f5ea c838 120d 8539
00000030: cb8a 7c38 e3f4 3eb8 536e 7f39 faef 6138
00000040: 8b02 2d39 98e7 0b39 3623 c038 50c5 51b8
00000050: f2a5 9137 dac8 4739 e788 c538 c6fe 0139

running_mean f4 [24]
-0.07090053 0.102875516 0.24766791 0.28980112 -0.018594103 0.25353703 -0.1764188 0.19373913
0.030579058 0.011809697 0.1390847 0.18240623 -0.12546758 0.14696863 0.29704037 0.011698044
0.19153635 0.08581158 0.033161417 0.36456186 0.028400263 -0.09176966 -0.11917623 -0.49389794
00000000: 4c34 91bd 66b0 d23d a89c 7d3e d060 943e
00000010: a952 98bc 9bcf 813e 21a7 34be 8d63 463e
00000020: ef80 fa3c 767d 413c 386c 0e3e b3c8 3a3e
00000030: 937a 00be f27e 163e ad15 983e 27a9 3f3c
00000040: 1b22 443e fbbd af3d 44d4 073d daa7 ba3e
00000050: aba7 e83c bbf1 bbbd ab12 f4bd 31e0 fcbe

running_var f4 [24]
0.19873509 0.1696646 0.13591728 0.15776251 0.08622613 0.12785594 0.11684748 0.07489015
0.10308362 0.1284849 0.14555894 0.07313717 0.10161486 0.1491063 0.10095863 0.10713202
0.13646959 0.11441386 0.113971494 0.12112966 0.1082595 0.21216412 0.12645708 0.19006388
00000000: 3681 4b3e 8fbc 2d3e e62d 0b3e 7f8c 213e
00000010: 5397 b03d abec 023e bb4d ef3d 0260 993d
00000020: 811d d33d 8c91 033e 670d 153e f1c8 953d
00000030: 741b d03d 52af 183e 66c3 ce3d 0868 db3d
00000040: afbe 0b3e d051 ea3d e369 e93d d412 f83d
00000050: 28b7 dd3d 8d41 593e f77d 013e 1ba0 423e

weight f4 [10, 16224]
0.0052972483 0.0007017582 -0.0051894244 0.005937732 -0.0058067855 0.004968121 -0.004822482 0.0008660875
-0.0009709273 0.00012281525 -0.0065594846 -0.0059126816 0.0059695714 -0.0053910804 0.0012931834 0.0072522643
-0.00062589836 0.0025534753 -0.0040238844 0.0025819682 -0.00080777943 -0.0024326842 -9.5562646e-05 0.003072488
0.0036664323 0.006997698 0.0014813502 0.0039522937 -0.007128763 0.0008949509 -0.006576245 -0.00023937062
-0.0025717025 -0.006540404 0.006476521 -0.003651325 0.0071273604 -0.0041312035 0.00037090734 0.0035560455
-0.005143135 -0.0059722345 0.0006757516 5.1700128e-05 -0.00079639925 -0.004910583 -0.004880216 -0.0062963236
-0.002327477 -0.00422835 0.0035969703 0.0014616294 -0.00251409 0.0045259832 0.004146816 -0.006603839
-0.0017092024 7.479858e-05 -0.00517391 -0.0032641527 0.0038120463 0.0055381227 -0.0007684921 0.0017909952
-0.0029680696 -0.0013321168 -0.006039931 0.004022945 0.0024482093 5.077512e-05 -0.0007901046 -0.002465777
0.0005697545 0.00022042394 0.003761602 -0.0015454717 0.0009274503 0.0022729374 -0.005379444 0.0033881175
0.007963495 -0.0031211716 0.0038158465 -0.004690185 -0.0060780067 0.0012977431 0.0017886591 -0.0067433007
0.0035617042 0.0080249235 0.0041283485 -0.00077349774 -0.005851686 0.0010240927 -0.005938049 -0.00407002
0.0034802724 -0.0041828435 0.0017290456 0.0038879914 -0.007494706 -0.003295509 -0.0033648412 0.0026502677
0.003446211 -0.0068098227 -0.0056027295 0.002740366 -0.0066921245 -0.0005574684 -0.00361373 -0.0073970975
0.0026159526 -0.0075986977 0.006172818 0.004795365 -0.0062849 -0.0015978815 0.006973926 -0.004629346
0.007622133 0.0058762464 0.002379032 -0.002500583 0.0070813596 0.003128613 0.0066467626 0.0023016497
0.007724027 0.00040879077 -0.0022824204 -0.0036172841 0.0019834947 0.0008980293 0.006985005 0.0026364638
0.006474104 0.00407102 0.007713155 0.0061579826 -0.0063180933 0.007128177 0.0007051592 -0.0043190503
0.0053318026 0.0032539351 0.004373163 0.0038838368 0.006014672 0.007994862 0.007675927 0.005334135
0.004818394 0.00360552 0.0029384077 -0.003515025 0.0017739157 0.006229866 0.0030568987 0.0030587476
0.005969542 0.006820054 0.0047140936 0.0063426946 0.002700763 0.00022381067 -0.0006539825 0.0026147568
0.0012865094 -0.0047443174 -0.006383202 -0.004293545 0.002536452 0.00010535401 0.004598559 -0.0046477523
-0.0024091024 0.0042993687 -0.0028592856 0.0074741268 0.0007261978 -0.0012572028 0.00037451825 0.0013814972
0.0013573277 0.0067152786 -0.0023050273 0.0026284275 -0.0009045392 0.0017596117 0.006623325 0.0033101635
0.0071786796 0.003404919 0.0036860958 0.002056026 -0.007111874 -0.0072316583 0.0027969792 0.0038776381
-0.0040873797 -0.002850874 -0.0056564594 0.005638279 0.00702321 -0.001027755 0.006232797 -0.0069799973
0.00788286 -0.0027530063 -0.0057602 0.0070731565 -0.005394513 0.0008930102 0.0021989865 0.0039369683
0.007030144 0.0046834596 -0.0017727814 0.0054980274 0.0018543503 -0.0048135705 -0.0016789465 0.0047781942
-0.0004988159 -0.0015167005 0.00080538227 -0.0023566843 -0.00442095 0.00093792187 -0.0026375798 -0.0060708765
0.004136123 -0.0008772322 0.005742924 -0.00033763298 -0.00078836747 -0.00021317044 0.0077794916 0.0012687558
0.0073283734 -0.005869801 -0.0037247695 0.0020857947 -0.0055685933 0.0057258373 0.00044842437 0.0007862437
0.00059350836 0.00023254867 0.0046805195 0.0007595071 -0.0049679456 0.0027419853 -0.0072155967 0.0019407
00000000: 8a94 ad3b 32f6 373a 0c0c aabb 4e91 c23b
00000010: d946 bebb 9fcb a23b e905 9ebb 260a 633a
00000020: d485 7eba f8c7 0039 f2f0 d6bb 2bbf c1bb
00000030: 659c c33b a9a7 b0bb 0980 a93a 67a4 ed3b
00000040: 5413 24ba 3558 273b cada 83bb 3d36 293b
00000050: 29c1 53ba ab6d 1fbb ce68 c8b8 cb5b 493b
00000060: 8748 703b f24c e53b dd29 c23a 3e82 813b
00000070: 6698 e9bb 239b 6a3a 8b7d d7bb 90ff 7ab9
00000080: 028a 28bb e350 d6bb ff38 d43b 114b 6fbb
00000090: a28c e93b 0c5f 87bb 5776 c239 8b0c 693b
000000a0: be87 a8bb bcb2 c3bb ec24 313a 97d8 5838
000000b0: 73c5 50ba f5e8 a0bb 38ea 9fbb 6451 cebb
000000c0: 9688 18bb f88d 8abb 26bb 6b3b 2594 bf3a
000000d0: 6ec3 24bb b34e 943b 04e2 873b 0465 d8bb
000000e0: 5107 e0ba 2fdd 9c38 e789 a9bb 65eb 55bb
000000f0: 86d3 793b 2479 b53b a274 49ba d4bf ea3a
00000100: f283 42bb 6c9a aeba 9dea c5bb e9d2 833b
00000110: 2372 203b 5ff7 5438 061f 4fba e098 21bb
00000120: 945b 153a 9a21 6739 3685 763b 6d91 caba
00000130: 2320 733a 90f5 143b 0c46 b0bb 2e0b 5e3b
00000140: 5279 023c 928c 4cbb 4813 7a3b 20b0 99bb
00000150: 042a c7bb 0819 aa3a 7171 ea3a e8f6 dcbb
00000160: 7b6b 693b f87a 033c 1947 873b 8ec4 4aba
00000170: 80bf bfbb d93a 863a f793 c2bb cd5d 85bb
00000180: 4815 643b 3c10 89bb 25a1 e23a accd 7e3b
00000190: 2796 f5bb 77f9 57bb ab84 5cbb 1db0 2d3b
000001a0: d4d9 613b ef24 dfbb 1a97 b7bb b697 333b
000001b0: 9c49 dbbb 1223 12ba 54d4 6cbb 5a63 f2bb
000001c0: 6770 2b3b 7ffe f8bb 5a45 ca3b 7022 9d3b
000001d0: 90f1 cdbb 0270 d1ba 8885 e43b c5b1 97bb
000001e0: 16c3 f93b 878d c03b 89e9 1b3b d2e0 23bb
000001f0: c00a e83b 6b09 4d3b 16cd d93b 46d7 163b
00000200: d619 fd3b f852 d639 a994 15bb f50f 6dbb
00000210: 85fd 013b ba69 6b3a 78e2 e43b 86c8 2c3b
00000220: b824 d43b 3166 853b a2be fc3b e7c8 c93b
00000230: 0208 cfbb 7c93 e93b 6fda 383a d286 8dbb
00000240: 67b6 ae3b f93f 553b c04c 8f3b f887 7e3b
00000250: ba16 c53b e2fc 023c 5886 fb3b f8c9 ae3b
00000260: 9ee3 9d3b 964a 6c3b 4d92 403b 555c 66bb
00000270: bc82 e83a e723 cc3b 4056 483b 4575 483b
00000280: 269c c33b c27a df3b af78 9a3b 61d6 cf3b
00000290: 49ff 303b b8ae 6a39 0670 2bba 575c 2b3b
000002a0: 18a0 a83a 3876 9bbb 2e2a d1bb deb0 8cbb
000002b0: 9a3a 263b 81f1 dc38 82af 963b 2c4c 98bb
000002c0: 08e2 1dbb b8e1 8c3b da62 3bbb 85e9 f43b
000002d0: 4f5e 3e3a bac8 a4ba fd5a c439 5b13 b53a
000002e0: 5ce8 b13a d70b dc3b f10f 17bb b241 2c3b
000002f0: 991e 6dba c5a2 e63a 7a08 d93b 54ef 583b
00000300: 213b eb3b 1025 5f3b 6d92 713b 64be 063b
00000310: b90a e9bb 8cf7 ecbb 864d 373b f91f 7e3b
00000320: 6def 85bb bbd5 3abb d259 b9bb 50c1 b83b
00000330: f522 e63b bcb5 86ba 7e3c cc3b 76b8 e4bb
00000340: 1c27 013c c86b 34bb 0fc0 bcbb f0c5 e73b
00000350: 74c4 b0bb e618 6a3a df1c 103b af01 813b
00000360: 1f5d e63b b577 993b ac5c e8ba cc28 b43b
00000370: ac0d f33a 28bb 9dbb 1910 dcba 6692 9c3b
00000380: f8c2 02ba 06cc c6ba 4a20 533a 9a72 1abb
00000390: 9edd 90bb dfde 753a 3fdb 2cbb 34ee c6bb
000003a0: 5188 873b 0ef6 65ba 232f bc3b 5504 b1b9
000003b0: 72aa 4eba 8186 5fb9 1beb fe3b 614c a63a
000003c0: da22 f03b 7657 c0bb 431b 74bb d4b1 083b
000003d0: bf78 b6bb ce9f bb3b 801a eb39 ec1b 4e3a
000003e0: ac95 1b3a 4fd8 7339 0b5f 993b a919 473a
000003f0: 26ca a2bb e1b2 333b d070 ecbb 165f fe3a

bias f4 [10]
0.005890625 -0.000106454514 -0.005847914 -0.00026755236 -0.0011961253 0.0030215841 -0.007283785 -0.005656309
-0.007279114 -0.0012752996
00000000: 2506 c13b 5540 dfb8 dc9f bfbb 4546 8cb9
00000010: 4ec7 9cba c505 463b d1ac eebb 8f58 b9bb
00000020: a285 eebb f427 a7ba
