models/Demo/LOGS/models/nnet_epoch_6.pt (torch, 765964 bytes, 26 tensors)

weight f4 [12, 3, 5, 5]
000000 b6 7f a3 3d f9 ab de 3d e2 e8 cb 3b 38 6f dd bc
       0.07983343 0.10872645 0.00622283 -0.027030572
000010 f1 bb f9 bb f7 f3 24 3a 03 73 5d bd fe ab e1 3c
       -0.0076212813 0.0006292457 -0.05406476 0.027547833
000020 67 18 a9 3d 13 ac d7 3d 28 6d 96 bd 9b 4e f2 bc
       0.082566075 0.105308674 -0.07345039 -0.029578498
000030 67 df 57 3d 72 46 c8 3d 14 5d 18 3d 45 e2 2c 3d
       0.052703287 0.097790614 0.03719814 0.042207975
000040 de 5c 96 bd 18 27 21 3d 87 c3 c2 3d aa ef 92 bd
       -0.07341932 0.039343923 0.0950995 -0.071746185
000050 69 cc 88 3b 15 98 c0 3d f6 64 9e 3c 58 dd b9 bd
       0.004174758 0.09404007 0.019335251 -0.09075421
000060 a8 35 4c 3d 8d ce 2c bb a4 44 a7 3d c3 b8 d0 bd
       0.049855858 -0.002636823 0.08167389 -0.101914905
000070 56 92 b9 3d f2 b0 91 3d 44 28 6d 3d e7 5c e3 bd
       0.090611145 0.07113828 0.05789973 -0.11101704
000080 9e 24 e9 bd e2 ff fc bc ad b9 de 3d b3 28 34 bd
       -0.11383937 -0.030883733 0.108752586 -0.043984126
000090 02 69 6a 3d 6a e9 c8 3c e1 32 23 3d 4f c8 e3 bd
       0.05722905 0.024525363 0.039843444 -0.1112219
0000a0 f9 61 8f 3c d9 7f 90 3d c7 af 4d bd 8e d5 db bd
       0.017502772 0.07055635 -0.050216462 -0.10734092
0000b0 98 76 66 bd 69 1c 91 bd 8d 66 60 bd e9 75 ea bd
       -0.056265444 -0.07085497 -0.0547853 -0.11448271
0000c0 22 11 58 bd 0c cc 3e bd fd 9b 36 3d d3 e0 0d bd
       -0.052750714 -0.046581313 0.044582356 -0.034638237
0000d0 2c 8c e1 bd 9a b0 91 bd b4 c0 bf 3c 48 b1 23 3d
       -0.11013064 -0.07113762 0.023407318 0.03996399
0000e0 38 f5 52 bd 7e 55 82 3c b2 f6 9f bd 02 78 2a 3d
       -0.05150339 0.015909906 -0.07810725 0.041618355
0000f0 3e ab b1 3d 6c 3f 96 3d dd 93 13 bb 9d 6a 02 bb
       0.0867524 0.073363155 -0.0022518553 -0.0019899972
000100 e9 21 ff bb 89 30 2c 3d f6 6d d0 bd 6b 15 51 3d
       -0.007786025 0.042038474 -0.101772234 0.051045816
000110 f1 1b 04 3d 71 08 e0 3d 81 22 58 bd 5c 73 90 3d
       0.03225321 0.1093911 -0.05276728 0.07053253
000120 07 e6 99 bc 15 fd c4 3d 33 2f 66 3d 59 5e 8b 3b
       -0.018786443 0.09618584 0.056197356 0.0042531905
000130 c9 bc f6 3c 85 38 c2 3d d0 28 ac bd b0 8a e4 bb
       0.030119317 0.094834365 -0.08406222 -0.0069745407
000140 74 47 62 bc 45 94 c2 bd 36 96 57 bd 25 ed ab 3b
       -0.013810981 -0.095009364 -0.052633487 0.0052467757
000150 f6 21 9b 3d 44 22 8f 3c d8 33 cb 3c fc 0a c6 3d
       0.07574837 0.017472394 0.024804994 0.09670064
000160 bf 5b 05 bd a1 61 d6 3d 83 73 03 bd 4c 41 4a bd
       -0.0325582 0.1046784 -0.032092582 -0.04937868
000170 5c bb 6b bc 0d 60 3e bd 24 0e 83 bd 4f 7f 89 bd
       -0.014387932 -0.04647832 -0.063991815 -0.06713735
000180 e2 88 b4 3d 09 69 35 3d c0 c5 be bd 62 21 df bc
       0.08815171 0.044289622 -0.093150616 -0.027237598
000190 2d 9d 58 3d 08 e2 b7 3b b7 d7 a2 3d 27 a6 8f 3d
       0.05288427 0.005611662 0.079513006 0.07014113
0001a0 b8 36 84 bc 59 3c e0 bd 1c 87 e3 3d a0 6b e8 3b
       -0.016139373 -0.109490104 0.111097544 0.007092908
0001b0 e4 ef a0 bd 79 f3 4e 3d be a0 51 3d fe d6 a6 3d
       -0.078582555 0.050525162 0.051178686 0.08146475
0001c0 3a 24 89 3d 09 7d d6 3d ad 97 2d ba 62 b2 ea 3d
       0.06696363 0.10473067 -0.0006622028 0.11459805
0001d0 52 95 67 bd b4 76 e7 3d 7b 25 f1 3c df 1d e3 3d
       -0.056538887 0.11301938 0.029436817 0.11089682
0001e0 a1 0c 8c bd 69 93 a4 3d 58 ed 55 3d be e3 de bd
       -0.06838346 0.08035929 0.0522283 -0.10883282
0001f0 50 e9 f0 bb e4 e8 f4 bc 6f 3c 94 3c 54 15 a2 3d
       -0.007352032 -0.029896207 0.018095223 0.07914224
000200 16 da c2 bd 39 79 cb 3d 34 94 04 3d b7 7e 54 3d
       -0.09514253 0.09935231 0.0323679 0.051878657
000210 c5 6e e8 bd f1 71 f4 3c c4 bb 92 bc 97 c9 f3 bc
       -0.113492526 0.029839488 -0.0179118 -0.029759211
000220 52 0f 26 3c 01 a8 61 3d 28 20 5d 3d 78 d3 38 bd
       0.010135489 0.05509186 0.053985745 -0.045123547
000230 e9 41 b5 bd 38 8e 62 bd f2 21 ef 3c 7c 2c 88 3d
       -0.08850462 -0.05531141 0.029190991 0.0664911
000240 8b 52 96 bc a8 85 c1 bd d7 e2 31 3d 34 e1 ac 3d
       -0.018349906 -0.09449321 0.043429222 0.084413916
000250 f7 21 78 bc 52 6b af bd cd 7c e3 bd b7 84 f5 3b
       -0.015144817 -0.085653916 -0.11107788 0.0074926275
000260 68 e7 dd 3c 9f d0 2b 3d b2 3e e1 bb 8f 7d 74 bd
       0.027087882 0.041947003 -0.006873929 -0.059690055
000270 a4 05 9a 3d c3 b9 3a bd df 3c 8b 3d c6 e0 82 3d
       0.07520607 -0.045587312 0.067987196 0.063905284
000280 c3 6a 84 3d 6b 84 31 3d bd 95 e9 3d f8 e3 26 3d
       0.06465676 0.043339174 0.114055134 0.04074475
000290 6b 02 a5 3d e3 97 15 3d a1 ce a4 bd a9 3b 37 bd
       0.08057102 0.036521804 -0.08047224 -0.04473463
0002a0 ee a6 a9 3d 89 9b e7 bd d8 5b b4 bd 81 60 22 3c
       0.082837924 -0.11308963 -0.0880658 0.009910704
0002b0 cc 57 bd 3d d2 e3 10 3d 18 09 a6 3d fe 81 c0 bd
       0.092452615 0.035373516 0.08107203 -0.09399794
0002c0 63 2b 6f 3d 34 0d 8e bc 36 c5 7d 3d 30 a3 27 bd
       0.058390986 -0.01734028 0.061955653 -0.040927112
0002d0 a1 1a b7 bc 78 63 2e 3d 56 4c 92 bd c9 e2 c1 bd
       -0.022351565 0.04257533 -0.07143466 -0.09467084
0002e0 02 c2 8c 3d 23 d6 8b 3d 69 1b a6 3c 12 0f e2 3d
       0.068729416 0.06827953 0.020276742 0.11038031
0002f0 9b a2 ec bc 25 aa 2a 3b 73 f6 68 bd 15 4e ae 3d
       -0.02888613 0.0026041355 -0.056875657 0.08510987
000300 1e 7b 86 bc 4f b7 58 3d 7d f8 8c 3c ad dc 9d 3d
       -0.016416129 0.05290919 0.017208332 0.07708106
000310 7e c6 e7 3d c7 73 b0 3c 93 ce a7 bd db 54 8c 3d
       0.11317156 0.021539582 -0.08193698 0.068521224
000320 dc 05 a7 3d 8c b5 c8 bd 62 08 ca bc e6 40 1e bd
       0.081554145 -0.09800252 -0.0246622 -0.03863611
000330 3f 0a 2e 3d 61 d1 2a 3d a8 38 b6 bd aa c7 98 bc
       0.04249024 0.041703586 -0.08897525 -0.018649895
000340 40 2a 32 bd 65 ec 8f 3c e7 8d 9f 3d 96 68 d0 bd
       -0.043497324 0.017568776 0.077907376 -0.10176198
000350 5e fd d4 3a 0a a1 4e 3d 7d f2 55 bd 43 73 3a bd
       0.0016249826 0.050446548 -0.052233208 -0.04552008
000360 ee 7d b5 3d bc 36 d0 bd bb bf 2e 3d 76 29 a2 3d
       0.0886191 -0.1016669 0.042663317 0.07918064
000370 7f ed 80 3d 14 b2 19 bd 80 42 aa bd 32 b7 1c bd
       0.06295299 -0.037523344 -0.08313465 -0.038260646
000380 db 7e b7 bd fd 98 b4 bc 21 41 39 3d 17 f7 77 3c
       -0.08959743 -0.022045607 0.045228127 0.015134594
000390 3b a0 5e bd 59 7e d6 bc 61 f3 e1 3d 30 46 5a 3d
       -0.054352026 -0.026183294 0.11032749 0.053289592
0003a0 02 cd 5a 3d f5 f0 2e bd fb 6c 8e bd 08 9b 9d bc
       0.053418167 -0.042710263 -0.0695438 -0.019238964
0003b0 c4 66 71 3d 1a a9 df 3d 5e 36 56 bd 1d 6c d6 3b
       0.058935896 0.109209254 -0.052297942 0.00654365
0003c0 b4 da 38 3b 91 e8 5d 3d 1d c6 18 3d 98 81 c7 3a
       0.002820653 0.05417687 0.03729831 0.0015221117
0003d0 19 44 aa bd 49 1f 3c bc 5e f3 94 3d 3b 5c 4f 3d
       -0.0831377 -0.011482068 0.07272981 0.050625067
0003e0 24 4b 8c bc 3c 60 c9 3d e7 6d 97 3c dd 27 e7 3d
       -0.017125674 0.098328084 0.018485023 0.112869
0003f0 62 33 22 bd 1e c2 88 3c 7d d4 cb bc 52 7e 2d bd
       -0.039599784 0.016694125 -0.024881596 -0.042356797

bias f4 [12]
000000 a5 14 80 3c 96 d5 88 bd fa c6 d2 3c 4f c8 11 bd
       0.015634844 -0.06681363 0.025729645 -0.03559142
000010 7a 7d 9c 3d f8 4d af bd 19 fa 55 3d 61 32 af 3d
       0.0764112 -0.08559793 0.052240465 0.08554531
000020 f2 42 3c 3c 84 bd a9 3d 4f 43 8f bd 4e a8 18 3d
       0.01149057 0.082881 -0.0699526 0.037269883

weight f4 [12]
000000 07 00 80 3f 3e fd 7f 3f f1 fb 7f 3f f6 fe 7f 3f
       1.0000008 0.9999579 0.9999381 0.99998415
000010 90 ff 7f 3f 00 00 80 3f 0d 00 80 3f 04 00 80 3f
       0.9999933 1.0 1.0000015 1.0000005
000020 02 00 80 3f 16 00 80 3f 15 00 80 3f 08 00 80 3f
       1.0000002 1.0000026 1.0000025 1.000001

bias f4 [12]
000000 0c f0 31 38 44 24 f9 b6 44 01 49 b8 ca cf 56 38
       4.242365e-05 -7.425e-06 -4.7923313e-05 5.1215095e-05
000010 d0 a1 c8 b7 95 eb 41 b6 db bd 59 b8 01 98 ab 37
       -2.3917208e-05 -2.8896368e-06 -5.191365e-05 2.045557e-05
000020 54 98 02 38 84 74 bc b6 de 42 be 37 1b 1e 52 b8
       3.1136282e-05 -5.616401e-06 2.2680902e-05 -5.009594e-05

running_mean f4 [12]
000000 11 cb fa 3d cc a5 10 3e 49 15 44 3e 67 0f dd 3a
       0.12245763 0.14125746 0.19148745 0.0016865552
000010 54 ab 8c bd cb 50 84 be 26 1c d6 3e 9d 39 c4 3e
       -0.06868616 -0.2584289 0.4181835 0.38325205
000020 ee 08 0a be 8d bb ea 3d da 06 aa bc 27 7a 06 3e
       -0.13479969 0.11461554 -0.02075522 0.13132535

running_var f4 [12]
000000 36 21 01 3c 5b 2a f0 3c d8 73 8d 3c 35 bc a0 3b
       0.007881453 0.029317072 0.017267153 0.0049052485
000010 64 ed 83 3c 96 2a 9e 3c e7 9b ad 3d 5c cf 68 3d
       0.016104408 0.019307416 0.08477002 0.05683838
000020 59 d4 8d 3c 3c 88 61 3b 97 7b c7 3b 9c 09 2f 3c
       0.01731317 0.0034413477 0.006087731 0.010683443

weight f4 [12, 12, 5, 5]
000000 7c cc 49 bd 9f a5 1b 3d 7b 70 64 3d f8 ce 80 3c
       -0.049267277 0.037999745 0.055771332 0.01572369
000010 29 37 52 3d 0a 85 43 bd 62 ce 21 3c b5 26 bc 3c
       0.051322136 -0.047734298 0.009875866 0.022967676
000020 6c 55 51 bd 69 b7 64 bd 36 6b 0b bd f9 19 4b 3d
       -0.051106855 -0.055838976 -0.03403779 0.049585316
000030 6a e6 46 bc 23 48 29 3d 29 2a 93 bb bc c9 df 3b
       -0.012139896 0.04132856 -0.00449111 0.0068294685
000040 ad c0 ad 3c ad b7 35 bd 17 2d 3f 3d 57 ad 94 bc
       0.021210039 -0.04436462 0.04667386 -0.018149061
000050 bf dd be bb 31 c2 70 bc 76 5a 76 3a 19 e4 54 bc
       -0.005824774 -0.014694736 0.0009397635 -0.012993836
000060 40 13 5c bc c3 fc 58 3b df f6 15 3d 1e a0 31 3c
       -0.013432324 0.0033109642 0.036612388 0.010841398
000070 17 48 48 bd 0a 34 83 3c 05 9b 5a bd 1b b2 26 3b
       -0.048896875 0.016016025 -0.053370494 0.002543575
000080 65 da a8 bc f2 80 c9 3c 02 6e 07 bb 99 fc 53 3d
       -0.020611951 0.024597619 -0.0020664935 0.051754568
000090 f1 87 e2 3c 75 60 58 bb 4f 51 ef 3b 9f d7 67 3d
       0.027652713 -0.0033016477 0.007303394 0.056602117
0000a0 00 4d b7 3a 7a 0a 11 3d 6d 1c f0 bb 05 aa 57 3c
       0.001398474 0.03541038 -0.0073276074 0.013163094
0000b0 99 9a 5d 3b 7f 47 15 bd 35 cd 61 bd 2b 21 53 bd
       0.0033814071 -0.036445137 -0.05512734 -0.051545303
0000c0 3e 97 60 3d 53 8d 65 bd 8a 79 96 bc c1 af ca b8
       0.054831736 -0.05604298 -0.018368501 -9.664847e-05
0000d0 ab 23 6b bd 76 c6 f3 3b 4f 0a 9a 3c 71 27 5e bc
       -0.057407063 0.00743943 0.018803744 -0.013559208
0000e0 7a 5d 00 bd ae 5c 5f 3d 82 d4 20 bc 20 0a 15 bc
       -0.031339146 0.054531746 -0.009816291 -0.009096652
0000f0 4d 35 a2 bc ab 18 b3 bc d3 49 2d 3d 9b 1b ab bc
       -0.019800806 -0.021862349 0.042306732 -0.020887187
000100 a8 20 6f 3b 5f 16 52 3b 81 79 13 3d fc fb 48 3d
       0.003648797 0.0032056791 0.036004547 0.049068436
000110 ae 6b 80 3b 13 03 d2 3c dd bd 84 bc 99 23 c4 bc
       0.0039190864 0.025636232 -0.016203815 -0.023942756
000120 28 ad 09 3d 3d 96 11 3d ca 21 a0 bc 98 bc 6b bd
       0.0336124 0.03554367 -0.019547362 -0.057552904
000130 6e 9b fc 3c a1 02 c9 3b c3 c3 97 3c 04 16 a5 3b
       0.030835833 0.0061343466 0.018525964 0.005038025
000140 e4 26 7f bc 64 b7 6a bd f9 e3 79 bb e9 8e bc bb
       -0.015573237 -0.0573038 -0.0038130267 -0.005754341
000150 2e 0c 59 3d b1 3b 67 bd 3b 40 31 bd fb d8 2d 3d
       0.05299013 -0.05645341 -0.043274146 0.042443257
000160 68 38 3a 3d bf 1a af 3c 52 88 45 bd 87 a0 12 bd
       0.04546395 0.021375058 -0.04822571 -0.035797622
000170 57 71 46 3d 24 29 20 bc 32 93 29 3d 3f a6 cd bc
       0.048447933 -0.009775434 0.041400142 -0.025103686
000180 01 db c8 3c 9d 79 ec 3c 13 fb 37 bd f7 e8 bf 3b
       0.024518492 0.028866583 -0.044917177 0.005856629
000190 dc 79 62 3d 28 bf ca 3c 08 cf 41 3d 86 33 26 bd
       0.055291995 0.024749354 0.04731658 -0.04057648
0001a0 fa 34 40 3c 29 80 12 bd 6c 5b 87 bb 45 63 7b bc
       0.011731381 -0.035766754 -0.0041307714 -0.015343492
0001b0 4b 90 51 3d 49 d5 40 bc 2f 36 8a bb 97 db 6a bb
       0.051163 -0.011769601 -0.004217885 -0.0035836452
0001c0 c5 8c 03 3d b3 0a 1a 3d 20 49 15 3d 9d 24 2c bd
       0.03211667 0.03760786 0.03644669 -0.042027105
0001d0 a2 69 21 3d dd d9 15 bd 05 a8 00 3d ba e6 5c 3d
       0.03940738 -0.036584724 0.031410236 0.053930975
0001e0 90 9c 2c bc e5 6e 46 bd b7 d3 71 bc f5 f0 4a 3d
       -0.010535374 -0.0484456 -0.014759949 0.0495462
0001f0 03 2e da bc 21 6c 4d bc 13 06 b2 3c 25 5d 2b bc
       -0.026633268 -0.012537987 0.021731412 -0.010459219
000200 a0 08 05 3d 6f 1b f1 bc ca e2 14 3d 68 1f ba 3c
       0.03247893 -0.029432027 0.036349095 0.022720054
000210 eb 78 2f bd fe 99 f8 3b 15 de 40 3c b5 2a 39 bd
       -0.042839926 0.0075867167 0.0117716985 -0.045206744
000220 53 97 1b 3d ee b7 4d bc 3d 2c e2 bb 21 56 d8 3c
       0.03798611 -0.012556059 -0.0069022463 0.026408257
000230 80 ed 2b 3d ca ab fd 3c 97 02 a8 3c 5d 96 34 bd
       0.041974545 0.030965704 0.020509047 -0.04408871
000240 99 b9 92 bb 87 c4 8d bc a6 48 54 3d 36 d7 18 bc
       -0.0044776914 -0.017305626 0.051827095 -0.009328654
000250 84 85 c3 3c 90 3f 93 3c f7 16 2a 3d 9d 82 49 bb
       0.023867376 0.017974645 0.041525807 -0.0030748018
000260 68 50 90 bc 2d cf b3 bc fc 42 36 3d 06 a5 4c 3d
       -0.017616466 -0.021949375 0.044497475 0.049962066
000270 cb ce 66 bd 5e a6 46 3d ad 2c e9 3b 1a 52 91 bc
       -0.056349557 0.048498504 0.0071159215 -0.017739344
000280 51 d7 0e 3c 0f 79 a4 3b b3 d2 d6 bc f9 5d 6a bd
       0.008718328 0.005019314 -0.026223516 -0.057218526
000290 82 ee 1d bd f6 98 ee bc 9b 84 c4 3c a5 e2 1c 3d
       -0.038557537 -0.029125672 0.023989012 0.038302083
0002a0 a8 94 19 3d 6d 54 99 3c 70 7d 2b 3c 25 f5 67 bc
       0.037495285 0.018717015 0.010466918 -0.014157568
0002b0 20 d4 38 bd 2d de 54 bd 90 5f 5f bd 34 f9 f2 3c
       -0.045124173 -0.051969696 -0.054534495 0.029659845
0002c0 82 4d fb bc cc 97 98 3c 2c 6a 13 bc 4d 3c 10 bc
       -0.030676607 0.01862707 -0.008997481 -0.008803439
0002d0 b8 61 12 3d 07 f1 6a bc 42 fb c5 3c d7 bb 5d bd
       0.035737723 -0.014339692 0.02416766 -0.054134216
0002e0 e4 cc 19 bd 73 cd 2a 3d c5 55 67 bd fb 6d 35 bd
       -0.037548915 0.041699838 -0.05647828 -0.04429434
0002f0 20 6f 55 3c b0 c0 ba bc 29 cd 3c 3d bd e4 b8 bb
       0.013026983 -0.022796959 0.046094093 -0.005642502
000300 45 9f 30 bd 1f 2e 34 3d d6 81 3d 3d b8 a9 68 3d
       -0.04312064 0.043989297 0.0462664 0.05680248
000310 78 68 bd 3c 7c 87 3c 3d 2f 98 75 bc fc f8 32 3d
       0.023121104 0.046027645 -0.014989897 0.04369448
000320 01 d0 4a 3d 2a 5d b0 3b 04 c4 3e 3d 3b 0e 30 3d
       0.049514774 0.0053822 0.046573654 0.04298232
000330 14 6f 9f bc 01 09 e8 3a 1d 6b aa bc d9 b3 42 bd
       -0.019462146 0.0017702879 -0.020803029 -0.047534797
000340 26 11 95 bb ce e1 48 bd be 53 dc bc 02 ad 2b 3d
       -0.0045491634 -0.04904347 -0.0268954 0.04191304
000350 aa 77 22 3d ba 30 df bc 7f fb 2b 3d 2c 66 16 3d
       0.0396649 -0.027244914 0.041987892 0.036718532
000360 5d c4 72 3c b8 9e 1f 3d f3 1e 5c bd 02 04 a4 bc
       0.0148173245 0.038969725 -0.053740453 -0.020021442
000370 e5 e3 3f bd c5 66 5f 3d 7e ac 69 3d cf 40 dd bc
       -0.046848197 0.054541368 0.057049267 -0.027008442
000380 64 90 64 3c c8 2f 25 bd 4a b7 a6 3b da 14 26 bc
       0.013950441 -0.04032877 0.0050877677 -0.010136807
000390 f3 01 24 3c 90 ac 5e 3d 7b 18 20 3d 0b e2 69 bd
       0.01001023 0.054363787 0.039085846 -0.057100337
0003a0 76 6c ea ba 20 bb 35 3d 1d f5 40 3d 42 47 30 3c
       -0.0017885107 0.04436791 0.04710876 0.010759177
0003b0 f4 99 83 bc 03 38 f6 bc 93 99 0d bd 0e 77 0f 3d
       -0.016064622 -0.030056005 -0.034570288 0.03502565
0003c0 fa c0 45 3d 4a 52 12 3d f6 8c 25 bd e4 a1 0f 3d
       0.04827974 0.03572301 -0.040417634 0.0350665
0003d0 22 71 06 3d 2a 94 4f bd bd f3 1d 3d 32 5b da 3c
       0.032822736 -0.05067841 0.038562525 0.026654813
0003e0 9d 32 e7 bc b6 fa 9c 3c 57 21 33 3d 82 6c 71 bc
       -0.028222376 0.019162517 0.043732967 -0.014735343
0003f0 99 5f 5d bd c8 38 53 3d e2 cc 7b bb 6a 3f 1b bd
       -0.054046247 0.051567823 -0.003842168 -0.037902273

bias f4 [12]
000000 f2 18 50 bd eb dd a0 bc 36 fb 84 bc 03 10 69 3c
       -0.05080504 -0.019637069 -0.016233068 0.014225009
000010 82 1e a0 3a 79 f2 cc 3c 32 78 da 3c fc 2b 23 bb
       0.0012216123 0.025017964 0.026668642 -0.0024898043
000020 e5 94 42 bd af 03 d0 3c 4c 22 3d 3d 07 2e a5 3c
       -0.04750528 0.025392381 0.046175286 0.02016355

weight f4 [12]
000000 23 00 80 3f 22 fd 7f 3f 12 00 80 3f 0c 00 80 3f
       1.0000042 0.99995625 1.0000021 1.0000014
000010 30 00 80 3f 34 fa 7f 3f 49 fc 7f 3f 09 00 80 3f
       1.0000057 0.99991155 0.9999433 1.0000011
000020 3f ff 7f 3f 15 00 80 3f 0f 00 80 3f e3 fe 7f 3f
       0.9999885 1.0000025 1.0000018 0.999983

bias f4 [12]
000000 bb e3 24 39 18 9f 17 b9 16 55 09 37 63 84 f7 b6
       0.00015725095 -0.00014459749 8.185647e-06 -7.3765855e-06
000010 e2 10 11 39 52 01 2e b9 ed 4f 05 b8 2c ff 82 b8
       0.00013834567 -0.00016594425 -3.1784108e-05 -6.2464125e-05
000020 ec eb a4 38 30 5a c2 38 c6 c8 eb 38 4b 11 56 b8
       7.864073e-05 9.2674396e-05 0.0001124307 -5.103768e-05

running_mean f4 [12]
000000 a0 36 8c 3e 0e 51 09 be 38 4e d7 3c 8a 83 56 be
       0.27385426 -0.13409826 0.026282415 -0.20948616
000010 39 f4 e3 3d 2c c0 82 3e 51 ca 94 3e 35 a4 1c 3e
       0.11130566 0.2553724 0.29060605 0.15297015
000020 55 ee 26 be 3a a4 15 bf 14 72 68 bd f1 ef 1d 3e
       -0.16301854 -0.58453715 -0.05674942 0.15423562

running_var f4 [12]
000000 04 8d a6 3d 10 71 e6 3d 40 fd c8 3d c2 0a b0 3d
       0.08132365 0.11252034 0.098139286 0.08595802
000010 96 24 9e 3d 3c 0f 98 3d 05 ba 42 3d 3d 46 0a 3e
       0.07721822 0.07424781 0.047540683 0.13503356
000020 80 85 f5 3c b6 e3 b2 3e c4 d5 19 3e bc 54 1e 3e
       0.029970884 0.34939355 0.15022951 0.15462011

weight f4 [24, 12, 5, 5]
000000 d7 21 59 bc 68 c4 00 3d 16 26 8a 3b 4f f8 46 bd
       -0.013252697 0.031437308 0.004215966 -0.04857665
000010 5e c2 69 bc 03 2c 88 bc fa c6 13 bd 75 ec 4c bd
       -0.014267532 -0.016622549 -0.03607843 -0.05003019
000020 68 5d 51 3d ce 37 7b bc c6 93 c2 bb 4c ce de 3c
       0.05111447 -0.015333129 -0.005938026 0.02719798
000030 2b 81 60 bd 3c 83 64 bc 30 64 19 bc b2 2e 3d bd
       -0.054810684 -0.013947304 -0.0093622655 -0.04618711
000040 e9 87 54 bd 1c f1 5b bd a3 f2 b5 bc b4 db 39 3d
       -0.051887427 -0.053696737 -0.022210425 0.04537554
000050 38 d8 b9 bb 89 e4 00 bb e1 65 e2 bb 9c 1e 28 3d
       -0.0056715272 -0.0019667468 -0.0069091176 0.041044816
000060 58 3c 33 bd 19 21 a5 3c 58 ab 89 bc 43 a5 ce 3c
       -0.04375872 0.020157384 -0.016805336 0.025225287
000070 f6 80 7c bc d9 db 33 bd 47 ae ed bc 4e e1 f3 3c
       -0.015411606 -0.043910835 -0.029013766 0.02977052
000080 4f 1e 61 bc 6a ad 3b bd 39 20 0b bd 30 c8 80 bc
       -0.013740136 -0.045819677 -0.033966277 -0.015720457
000090 f8 d7 d2 3b 1a 43 df 3c 0f 0f 39 bd ec dd 58 bd
       0.006434437 0.027253676 -0.045180377 -0.052946016
0000a0 89 f8 36 bc 64 23 3a 3d c9 5e 0a bd 65 a4 a6 bc
       -0.011167654 0.045443907 -0.0337818 -0.020342061
0000b0 e0 e0 ce bb be 2e 36 3c 91 3d 2f 3d 21 f1 6a 3d
       -0.0063134283 0.011119543 0.042783324 0.057358865
0000c0 7b 6c 53 bd 66 9b fd ba a2 28 f2 3c a1 e8 be 3c
       -0.051617127 -0.001934868 0.02956039 0.023304285
0000d0 4f 6e 68 bd ac da 25 3c a0 a8 5b bd 6b af bd 39
       -0.056745823 0.010122936 -0.05362761 0.00036179586
0000e0 82 35 46 3d fa 62 2a 3d 95 9e fa 3c 5e ad e4 3c
       0.048390873 0.041598298 0.030593196 0.0279147
0000f0 a9 28 3a bd 3d 2e 3c 3d 4f 63 db bc 3e d4 c6 3c
       -0.045448933 0.045942534 -0.026780752 0.024271127
000100 79 55 2e 3d 47 32 0f bb 61 c8 ab bc 8f 64 16 3d
       0.04256198 -0.0021850036 -0.020969572 0.036716994
000110 af 72 02 3d 15 7a 67 bd 59 4a 07 bc 50 15 56 bd
       0.031847652 -0.05651291 -0.008257472 -0.05226642
000120 ae e6 ec 3c 53 f1 3f 3d 78 08 f6 3c b9 a1 41 3d
       0.02891859 0.046861004 0.030033335 0.04727337
000130 b2 c5 2f 3d 6b cf a0 3c 72 7b f8 3c 41 f3 40 3d
       0.042913146 0.019630155 0.0303323 0.047106985
000140 92 8e b7 3b 79 52 39 3a ee cf ce 3c 9a 24 21 3d
       0.0056017125 0.00070694793 0.025245633 0.039341547
000150 f1 f5 e1 bc f5 89 09 3d dd 05 19 bd 8a ab 82 bc
       -0.027583094 0.03357883 -0.037359107 -0.015950937
000160 1d 2a 5e 3d 02 0c 85 3c 50 0c d6 3c dc 9c 45 3c
       0.05423938 0.016241077 0.026128918 0.012061324
000170 c1 f9 eb 3a e5 32 3a bd 5c ac a2 3c 3f e5 d7 3c
       0.001800351 -0.045458693 0.019857578 0.02635443
000180 15 35 24 3d 02 0f 4c 3d 6d 12 37 bd 68 33 5d 3c
       0.040089685 0.049819 -0.044695307 0.013501026
000190 70 02 25 3d c5 00 c2 3c 02 66 ce bc bb b9 52 3c
       0.040285528 0.023682008 -0.025195125 0.012861664
0001a0 cc cb 67 3d 1a 6a 43 3c c2 55 f2 bc 61 48 17 3d
       0.05659084 0.011927152 -0.029581908 0.03693426
0001b0 55 b7 cd bc 4d 61 c5 bc 80 af 85 3c 7a 35 8c bb
       -0.025111834 -0.024094248 0.016319036 -0.004278836
0001c0 0c 5f 0d bd 26 6f f4 3b 5b 43 40 bd 9e 31 1c 3d
       -0.034514472 0.007459539 -0.046939235 0.038133256
0001d0 58 70 4a 3c b1 b8 29 3d 36 14 62 3c f0 95 17 3c
       0.012355886 0.0414359 0.013798764 0.0092520565
0001e0 24 17 ac 3c 1c 1c 23 3c 3b e4 c7 bc 56 2b eb 3c
       0.021007128 0.009955432 -0.024400821 0.028707188
0001f0 b1 e7 7a ba bd 1c 42 bd d4 d0 26 bd 01 ee 6d bc
       -0.0009571268 -0.04739069 -0.040726498 -0.014522077
000200 3c fd f1 3c ec 3a ab 3c 9d ef 42 bb c2 f1 87 3a
       0.029539697 0.02090212 -0.0029744871 0.0010371732
000210 33 7e 0f 3d a2 ba f4 bc 86 86 db bc 72 f8 67 bd
       0.035032462 -0.02987415 -0.026797544 -0.05663342
000220 f3 41 15 3d 88 8e 25 bb 72 6a 67 3d 33 dc 11 bd
       0.036439847 -0.0025261957 0.056498 -0.03561039
000230 6d 6e f4 bc cf c6 54 bd 00 5c 0c 3d 2e 77 6a 3d
       -0.029837811 -0.05194741 0.034267426 0.057242565
000240 50 db c7 bc 23 30 08 3d 89 b0 ef ba ca 68 65 bd
       -0.024396569 0.03324903 -0.0018286865 -0.056008138
000250 1e 5f e2 3c d7 ce c5 bb 9f e7 2e 3d 38 94 24 bc
       0.027633246 -0.00603662 0.04270136 -0.010045104
000260 78 64 65 3d 0f 95 4d bd b2 07 84 3c d4 4e eb bc
       0.056004018 -0.05019098 0.01611695 -0.028724112
000270 03 cc 0e bd 4c c8 ac 3c 37 9f 4a 3d f3 40 f5 bc
       -0.03486253 0.021091603 0.049468245 -0.029938197
000280 4f 7f f2 3b 94 7e 44 3c 0a 17 11 3d 99 70 18 3d
       0.0074004303 0.011993069 0.035422362 0.037216756
000290 ef 30 3a 3c 0f 77 9a bc 18 1b 4c bd 66 a6 89 bc
       0.011364206 -0.0188556 -0.049830526 -0.016802978
0002a0 fd f4 25 3d 5e ca 89 bc c8 34 bc 3b fa 18 09 bc
       0.040516842 -0.016820129 0.0057435967 -0.008367771
0002b0 ec cb 03 3d d8 27 d6 bc 4f fa 56 3d 6a 1f b7 bc
       0.032176897 -0.026142046 0.052484807 -0.022353847
0002c0 c6 37 6a bd 0f ba 0e bb 58 64 07 3d ca 63 93 3b
       -0.057182096 -0.002177838 0.03305468 0.00449798
0002d0 f4 ce 54 3d 8c 93 96 bc b1 c3 3e bc eb 5b c8 3c
       0.05195518 -0.018380903 -0.011643336 0.024457892
0002e0 79 03 e3 bc 72 c4 d4 3a 0f ba d9 3b 96 66 9e 3c
       -0.027711617 0.0016232862 0.0066444944 0.019336026
0002f0 b8 43 33 3d d6 de 6a bc d2 8e f5 3b 11 46 07 3c
       0.043765754 -0.014335355 0.007493832 0.008256451
000300 b6 5c f7 3c 3f 85 22 bd 57 a5 64 3d 87 6a 31 3d
       0.030195575 -0.039677855 0.055821743 0.043314483
000310 96 07 5d bd de d7 90 bc 26 dd c0 bc ee 53 69 bd
       -0.053962313 -0.017681058 -0.023542952 -0.056964807
000320 bd ff 43 bd 1b f0 c8 3c e0 60 4b bd 15 9c 63 3d
       -0.047851313 0.024528554 -0.049652934 0.055568773
000330 fd 99 67 bd 81 11 c1 bc 5e b7 69 bd b5 a3 ae bc
       -0.05654334 -0.023567917 -0.05705964 -0.021318296
000340 db 6d 9a 3c e0 06 a7 3b 64 36 d6 3c 63 1f 0a 3d
       0.018851211 0.005097255 0.026148982 0.03372134
000350 8e 07 c8 3c 05 9a 30 bd 5f 17 5a bd 0a 28 ce bc
       0.024417665 -0.043115634 -0.053244945 -0.025165576
000360 35 30 f4 3c 21 cc e3 3c 72 45 57 3d d9 7e d9 3c
       0.029808143 0.027807297 0.052556463 0.026549743
000370 63 d8 ef 3c 2f 76 3e 3b dc 43 29 3d 12 a0 c3 3a
       0.029277986 0.0029062142 0.04132448 0.0014925024
000380 e8 5d 64 3d 44 e8 18 3d 1a da 56 3d 21 85 3c 3d
       0.05575362 0.03733088 0.05245409 0.0460254
000390 66 d8 08 3d 96 47 c3 bc 57 f2 17 3d 0b 46 7c 3c
       0.0334095 -0.023837846 0.037096348 0.015397559
0003a0 ee 4d aa 3c ef 4d 18 bc d2 a9 2b bc f7 14 9c 3c
       0.020789113 -0.009295925 -0.0104775 0.019052966
0003b0 ce 29 b3 3c 87 af f0 bc 0c b9 14 3d 8c ff 0a 3c
       0.02187052 -0.029380573 0.036309287 0.008483779
0003c0 bd 8d 53 3d dc aa b8 3c 91 9a 42 bd b6 71 12 bd
       0.051648844 0.02254241 -0.047510687 -0.035752974
0003d0 b7 3c 40 3d 76 c9 21 3d b1 07 19 3d c4 99 ae bc
       0.046932902 0.03949877 0.03736085 -0.021313556
0003e0 22 84 38 3d 35 39 d7 3c 83 20 83 bc cf 75 4a bd
       0.045047887 0.026272396 -0.016006714 -0.049428757
0003f0 f6 ce 19 bb af 8f 9b ba 19 8f 9f bc 2e 0c 40 3d
       -0.0023469306 -0.0011868383 -0.019477414 0.046886615

bias f4 [24]
000000 34 65 35 bd e4 68 b8 bb 2e 08 1c 3d 06 a3 92 bc
       -0.044285968 -0.0056277383 0.03809374 -0.017900001
000010 5d 02 00 bd 82 e5 0a 3d 9e ce 48 3d 9c 81 58 bd
       -0.031252254 0.033910282 0.04902517 -0.05285798
000020 30 c8 55 3d 11 8c 4c 3d a3 49 56 bd dc 38 46 bd
       0.052192867 0.049938265 -0.05231632 -0.04839407
000030 26 a6 67 bd 4a 6b e9 3a 0d 76 00 3d d3 30 13 bd
       -0.056554936 0.0017808464 0.031362582 -0.035935234
000040 b6 08 b6 3a 4d aa e1 bc 65 6b 4f bd 31 14 20 3d
       0.0013888094 -0.027547026 -0.05063953 0.039081756
000050 84 26 5e 3d 42 52 2f 3d d7 ca d1 3c 17 bb 16 bb
       0.05423595 0.042803057 0.025609417 -0.0022999698

weight f4 [24]
000000 0c 00 80 3f b1 fd 7f 3f e5 fc 7f 3f ab fc 7f 3f
       1.0000014 0.9999648 0.9999526 0.99994916
000010 c6 fe 7f 3f 15 00 80 3f 12 00 80 3f 20 00 80 3f
       0.9999813 1.0000025 1.0000021 1.0000038
000020 b4 fd 7f 3f b8 fd 7f 3f 0d 00 80 3f 4f fd 7f 3f
       0.99996495 0.9999652 1.0000015 0.99995893
000030 56 ff 7f 3f c2 fc 7f 3f 07 00 80 3f 01 00 80 3f
       0.99998987 0.9999505 1.0000008 1.0000001
000040 86 fc 7f 3f d2 fe 7f 3f 81 ff 7f 3f 0c 00 80 3f
       0.99994695 0.999982 0.99999243 1.0000014
000050 1d ff 7f 3f 16 00 80 3f 12 00 80 3f 73 ff 7f 3f
       0.99998647 1.0000026 1.0000021 0.9999916

bias f4 [24]
000000 23 17 aa b6 26 4b 58 32 08 1e a0 b8 a3 24 49 b7
       -5.0690883e-06 1.25899415e-08 -7.634988e-05 -1.1989064e-05
000010 18 b1 7f b8 0f 77 c1 38 d5 ee 1f 38 3b f3 10 39
       -6.096167e-05 9.2251335e-05 3.8130984e-05 0.0001382352
000020 63 4a 8a b8 5f 21 a8 b8 18 d1 a4 38 87 45 0e b8
       -6.5942084e-05 -8.01708e-05 7.859076e-05 -3.392019e-05
000030 84 2b 7f b8 ef 30 dc b8 31 29 40 38 63 a6 48 38
       -6.0837265e-05 -0.00010499532 4.581473e-05 4.7838676e-05
000040 bb 44 46 b8 4b a0 0d 38 c4 ef cf b7 b1 39 84 38
       -4.727089e-05 3.3766304e-05 -2.4787973e-05 6.304996e-05
000050 ca 21 fa 36 1c 3d cd 38 f8 c5 5d 38 26 22 9c 35
       7.454514e-06 9.786544e-05 5.287488e-05 1.1632844e-06

running_mean f4 [24]
000000 99 c0 a0 3e d6 a6 bb 3e bb 00 61 bc 35 44 fb be
       0.3139694 0.36650723 -0.013733084 -0.49075475
000010 0c 10 b1 be 28 f3 ea 3e a3 be 48 be 90 c4 52 3e
       -0.34582555 0.45888638 -0.19603972 0.20582795
000020 95 44 af be 6b 48 bd be f7 dc cf bd 41 fb ca bd
       -0.3423201 -0.36969313 -0.101495676 -0.09911204
000030 5e 57 8f 3d 9f 68 1f be 2d 58 10 bf 25 9e 4d 3e
       0.06999086 -0.15567254 -0.56384546 0.20079859
000040 00 8e b8 be 9d 53 9c be f4 11 24 be 5b 3d be 3e
       -0.36045837 -0.30532542 -0.16022474 0.37156186
000050 3c d2 80 3c 07 7b 9c 3b 59 3a 15 3e 47 6a c9 be
       0.015725248 0.004775408 0.14573039 -0.39338896

running_var f4 [24]
000000 f8 07 39 3e 9b d2 75 3e a3 3d be 3d 5d 04 35 3e
       0.18069446 0.24006121 0.092891 0.17677446
000010 31 3d 86 3e 54 47 01 3e 25 ca 0a 3e d1 ee 0f 3e
       0.2621856 0.12624866 0.13553675 0.14055945
000020 70 89 8a 3e c3 8b 86 3e 7c 57 6e 3e b4 e5 e0 3d
       0.27057981 0.26278505 0.2327556 0.109813124
000030 70 86 6e 3e 0b 2c 0e 3e 0a 81 73 3e 38 48 a8 3d
       0.23293471 0.13883989 0.23779693 0.082169
000040 ac 76 61 3e 0d 57 de 3d 60 74 08 3e 20 97 72 3e
       0.22017926 0.10856447 0.13325644 0.23690462
000050 81 e1 ed 3d 44 a9 63 3e 87 a4 20 3e c4 d2 2f 3e
       0.11615277 0.22232538 0.15687762 0.17170244

weight f4 [24, 24, 5, 5]
000000 cf 7a 77 bc fa a7 05 3d 58 c1 9d 3c bc 7b c3 3c
       -0.015104963 0.032630898 0.019257233 0.023862712
000010 6e f6 0b bc 06 46 13 bd 1c 6f 0b bd 5f a3 f9 bc
       -0.00854264 -0.03595545 -0.03404151 -0.03047341
000020 b4 02 73 bc 6d d3 a0 3b af c2 8c 3c 3a e5 39 3b
       -0.014832187 0.0049080164 0.017182676 0.002836539
000030 90 b4 8c bc 6c 14 db 3c 3d 43 44 bc cf 54 02 bd
       -0.017175943 0.026743136 -0.0119789215 -0.03181916
000040 1f 12 f4 bc c6 ed 11 3d 35 7b 17 3d 4c 8d 9e bc
       -0.029793797 0.03562715 0.036982734 -0.019354485
000050 7e e0 05 bc 66 07 19 bd 4f dd eb bb 27 d7 28 bb
       -0.008171199 -0.03736057 -0.007198013 -0.0025763006
000060 b3 54 07 3d f4 cb b0 3c 93 d9 9a bb 2a 0b c4 3c
       0.03303976 0.021581627 -0.004725644 0.023931105
000070 db 57 82 3b 92 13 bc bc 33 08 05 bd 38 7a c8 bb
       0.0039777583 -0.02295855 -0.032478523 -0.0061180852
000080 d8 35 be 3c 72 a8 e4 3c 92 02 d5 bc 10 5c 0f 3d
       0.023219034 0.027912352 -0.026002202 0.034999907
000090 87 9b d6 ba 0c 7e 06 bd 46 1f 46 3b bd 03 b7 bb
       -0.0016373255 -0.03283505 0.0030231043 -0.0055851624
0000a0 fd a5 55 bc f4 ab f8 bb c4 fc 0d bd 23 3d e8 bc
       -0.013040063 -0.007588858 -0.034664884 -0.028349465
0000b0 2a de ff bb ee 45 81 bc e7 44 35 bc c8 41 6a bc
       -0.0078084664 -0.015780415 -0.011063791 -0.01429791
0000c0 d2 c7 9f 3c fa 81 d0 3c 20 bc 26 3d f9 78 e2 bc
       0.019504461 0.025452603 0.040706754 -0.027645575
0000d0 41 8d ae 3c 2b 51 05 3d c4 e3 d7 bc 37 31 9a 3b
       0.02130759 0.03254811 -0.026353724 0.004705574
0000e0 b8 17 b1 3c fc 09 9f bc 56 05 de bc c0 a3 1e 3a
       0.021617755 -0.01941394 -0.027102154 0.00060516223
0000f0 e8 df c8 bc 42 39 82 ba 5c 3f c6 3c c1 3c 3a bb
       -0.02452083 -0.0009935277 0.024200134 -0.002841756
000100 92 ef 52 bb 51 b4 6c bc a6 64 8a bc 4c e3 e5 b9
       -0.0032186252 -0.014447288 -0.016893696 -0.00043847633
000110 a8 1d 02 3d c4 a1 14 3d 13 be e3 bc 49 65 c0 3c
       0.031766564 0.036287084 -0.027800595 0.023485797
000120 22 59 b8 bc aa fb f9 bc 20 46 12 3d 1d 73 38 3b
       -0.02250344 -0.03051551 0.035711408 0.0028144785
000130 9e e9 75 3c cb 69 aa bc f9 11 83 bc 27 b3 53 bc
       0.015009312 -0.0208024 -0.015999781 -0.012921131
000140 18 22 00 bd 8b 5c 0d 3d 06 33 9e 3c ee 39 82 bc
       -0.031282514 0.034512084 0.01931144 -0.015896764
000150 14 69 d2 3c 3a 83 5e bc 21 97 12 3d 76 15 1d 3c
       0.02568487 -0.013581092 0.03578866 0.009587636
000160 53 e7 05 bd c1 ab 90 3c 39 2e 3e 3c 19 3d d7 bc
       -0.03269131 0.017660024 0.0116077 -0.02627425
000170 53 c3 3c 39 2b cb 6e bc 52 f6 62 3c e8 3e 4e 3c
       0.00018001841 -0.014574806 0.013852673 0.01258824
000180 34 aa e2 bc b2 3b d4 bb 2f 74 d5 3c fa f8 9d 3c
       -0.02766905 -0.006476843 0.026056377 0.01928376
000190 6d de a9 bb 43 fd 21 bd 12 6e 33 3c b3 e4 26 3c
       -0.005183986 -0.03954817 0.010951536 0.010186362
0001a0 f0 3f cc bc bb 37 0b 3d 9e 12 fd bc e1 33 0e 3d
       -0.024932832 0.033988696 -0.030892666 0.034717444
0001b0 32 ce 7f bc c2 f8 19 3d 5b 57 2f 3c e3 e3 e6 bb
       -0.015613126 0.03759075 0.0107019795 -0.007046209
0001c0 ff 4a b9 3c c4 ec f2 bc 3d 59 00 3d 1e 13 c3 3c
       0.022618769 -0.029653914 0.031335104 0.023812827
0001d0 a0 96 cd bc aa 5b f9 bb 62 3a c1 bc ea 65 83 bc
       -0.025096238 -0.007609804 -0.02358741 -0.016039807
0001e0 85 1a aa 3c 76 00 d4 bb dc 94 1d 3c 35 a2 82 bc
       0.020764599 -0.0064697815 0.00961801 -0.015946487
0001f0 7a 81 51 bc f6 d6 df 3b d9 ba c7 3c fe 09 25 3d
       -0.012787217 0.0068310453 0.024381088 0.040292732
000200 73 7f b6 bc ae b7 b2 bc b4 7a 67 3b 30 82 ec 3c
       -0.02227757 -0.0218161 0.003532094 0.028870672
000210 a4 b2 d0 3c a0 ff f5 3c a2 1e 23 bd 3a c1 80 3b
       0.025475807 0.030029118 -0.039824136 0.0039292844
000220 3f 71 90 ba b3 75 1d 3d 8f b8 f6 bc c7 0c 20 bc
       -0.0011020078 0.038442325 -0.030117301 -0.009768671
000230 d1 c3 08 bd 7c 5e 0e bd a4 17 18 3d 97 2e c1 bc
       -0.03338987 -0.034758076 0.03713192 -0.023581786
000240 0b b2 ee 3c 51 64 20 3c e4 01 05 3c a7 64 dc bc
       0.029137632 0.009789542 0.008118127 -0.026903464
000250 9a 0b bc bb 42 46 20 bd 5b e7 70 3c e4 66 5d 3c
       -0.0057386877 -0.039129503 0.014703597 0.013513301
000260 a7 3f 2d 3c eb d4 a1 3c 2e 2d ff 3c d7 6d 4b 3c
       0.010574258 0.019754848 0.031149473 0.012416325
000270 76 0e 25 3d 05 4d 21 bd ce b6 df bc 6e 22 8d bc
       0.040296994 -0.039380092 -0.027308848 -0.017228331
000280 be 61 fd ba 8b 96 f9 bc a4 24 84 bc 27 da 58 3c
       -0.0019331498 -0.030467292 -0.016130753 0.013235605
000290 a1 01 b2 bc b4 87 0f 3d 5a 1f f1 bc ae 62 ac bc
       -0.021729292 0.035041526 -0.029433895 -0.021043148
0002a0 b5 2d 10 3d 9c 5a ea bc f5 57 f5 3c 5f cc a1 bc
       0.03519984 -0.028607659 0.029949168 -0.019750772
0002b0 50 1e b7 3c a2 47 ef bc f0 05 4e bc 81 7a f3 bc
       0.022353321 -0.029208962 -0.012574658 -0.0297215
0002c0 cd e8 a4 3c a9 2c bf 3b 4e 7c ad 3b 9a 8b f7 3c
       0.02013054 0.0058341813 0.0052943593 0.030217934
0002d0 ab f5 fc 3c cc 54 be 3b 8b 83 bf 3c 02 10 05 3d
       0.030878862 0.0058084484 0.023378154 0.03248597
0002e0 e9 4f 0e bd fa 5c 0f 3d 0a 90 af 3c 8c df ca 3c
       -0.034744177 0.03500078 0.021430988 0.024764799
0002f0 0a 13 b1 3c eb 8c ce bc 33 b0 0c bd 6b 3f 09 3d
       0.021615524 -0.02521368 -0.034347724 0.033507746
000300 bf ee 74 3c d0 11 01 3c a0 3c 3c bc 0c 75 fb 3c
       0.0149495 0.007877782 -0.0114890635 0.03069546
000310 86 0f 1f 3d 5f 63 30 bc 01 41 1b bd 22 4b a0 bc
       0.038833164 -0.010765879 -0.03790379 -0.019567076
000320 a8 76 83 bc dd 26 d7 39 13 0f 80 3c f3 a3 5d bc
       -0.01604779 0.0004103695 0.015632188 -0.013527858
000330 e3 9a 24 3d ce d9 87 bc 0e e7 02 3d 2f 78 0c bd
       0.040186774 -0.01658335 0.031958632 -0.034294304
000340 b9 d9 0b 3d f7 52 ae bc 2e 75 21 bd f1 9c f1 bc
       0.034143183 -0.021279795 -0.039418392 -0.02949378
000350 00 41 1d bd 39 d2 02 bd 7e 2a 05 bc 3e 4f 8e 3c
       -0.038392067 -0.031938765 -0.008127807 0.01737177
000360 76 15 06 3d 88 b0 b1 3c 2b ea c8 3c 16 b1 8d bb
       0.03273531 0.021690622 0.024525722 -0.004324089
000370 8b 30 90 3c a1 e5 08 bd 1c b3 12 bd 21 19 19 3d
       0.017601272 -0.033422116 -0.035815343 0.03737748
000380 50 cc 85 3c 15 41 0a bd 8b bc 95 3b 3f 65 90 3c
       0.016332775 -0.033753473 0.004569595 0.017626403
000390 54 80 cf 3c e1 2c c0 bc 85 c7 f9 3c 99 85 dd 3c
       0.025329746 -0.0234589 0.030490646 0.027041243
0003a0 7e a7 b0 bc d0 97 b2 3b dc 2b 12 3d 5f 10 52 bb
       -0.021564241 0.0054502264 0.03568636 -0.0032053215
0003b0 ef 94 a0 bb 3c 1b e7 bb dd 03 21 3d 53 be 1f bd
       -0.004900567 -0.007052807 0.039310325 -0.038999867
0003c0 ff 35 9a bc 5a f3 2c 3b 2d 87 ee 3c 13 0c bf 3b
       -0.018824575 0.0026390166 0.029117191 0.005830297
0003d0 60 b0 cd 3c 0b 0a 15 bd c0 ad a3 bc 44 6c 0f bc
       0.025108516 -0.03638653 -0.019980311 -0.00875384
0003e0 c0 ab d4 bc 7d af 67 3c ea 45 fc 3c 8f 45 97 bc
       -0.025960803 0.014140961 0.030795056 -0.018465785
0003f0 71 1f fd 3b 16 b5 aa 3c c2 79 a1 bc a9 4e 53 bc
       0.0077246954 0.020838302 -0.019711379 -0.012897172

bias f4 [24]
000000 30 87 d8 3c 6b 0b 1c 3d 18 ca 0a 3d 2f 92 0c bd
       0.02643165 0.038096827 0.033884138 -0.0343191
000010 f6 4b 8c 3c 1b 9e 80 bc d4 8e f5 bc 06 40 6f 3b
       0.017126065 -0.01570039 -0.029975332 0.0036506667
000020 c0 e6 ab bc 6b 9b 18 3d 53 89 31 bc e6 90 bf 3c
       -0.020984054 0.037257593 -0.010835963 0.023384523
000030 b1 c5 04 3b 98 4a bd 3c 0f 8f a8 3c 69 6a dd bc
       0.0020259435 0.023106858 0.020576028 -0.02702828
000040 1a ee 31 bc 09 37 bf 3c 16 15 66 3b 80 2c 2d bb
       -0.0108599905 0.023341672 0.0035107783 -0.002642423
000050 25 15 11 bc 04 58 d7 3c f5 44 d1 ba 15 e5 5f 3a
       -0.008855139 0.026287086 -0.0015965985 0.0008540911

weight f4 [24]
000000 0c 00 80 3f 55 f8 7f 3f 09 00 80 3f 07 00 80 3f
       1.0000014 0.999883 1.0000011 1.0000008
000010 1d 00 80 3f d9 fc 7f 3f 3f fe 7f 3f 86 fc 7f 3f
       1.0000035 0.9999519 0.99997324 0.99994695
000020 12 00 80 3f 12 00 80 3f 13 00 80 3f ea fe 7f 3f
       1.0000021 1.0000021 1.0000023 0.99998343
000030 c7 f8 7f 3f 0d 00 80 3f 01 00 80 3f 0a 00 80 3f
       0.9998898 1.0000015 1.0000001 1.0000012
000040 15 00 80 3f 2a 00 80 3f 73 fb 7f 3f 0a 00 80 3f
       1.0000025 1.000005 0.99993056 1.0000012
000050 ac fe 7f 3f 0d 00 80 3f 83 fd 7f 3f 15 00 80 3f
       0.99997973 1.0000015 0.99996203 1.0000025

bias f4 [24]
000000 aa c5 c1 b7 2b 19 15 b9 36 9a b9 38 02 fb f0 36
       -2.3099437e-05 -0.00014219123 8.8502115e-05 7.1817785e-06
000010 0e 2a 0d 39 66 3a 37 37 95 78 3b 37 ef 6f 9d b7
       0.00013462474 1.0921247e-05 1.1174144e-05 -1.8767982e-05
000020 04 44 04 39 51 e7 4b 39 4b 34 50 39 9b fa 03 b7
       0.00012613839 0.0001944576 0.00019855906 -7.866557e-06
000030 f2 70 29 b9 f5 2a 92 37 37 40 07 39 bf 76 6c 38
       -0.00016159171 1.742456e-05 0.00012898525 5.6377376e-05
000040 95 3e 22 39 01 b2 24 39 c4 e4 8c b8 70 8e 19 39
       0.00015472838 0.0001570657 -6.718331e-05 0.00014644279
000050 10 a0 81 b6 a0 71 24 39 7c 1e f4 36 3f 4b f2 38
       -3.8631333e-06 0.00015682587 7.2753155e-06 0.00011553475

running_mean f4 [24]
000000 cc 98 04 bb 4e 41 4c 3e c9 cc 1c 3e 12 82 52 bb
       -0.0020232676 0.19946787 0.15312494 -0.0032120985
000010 43 69 f4 bd b9 25 a5 be aa 82 03 3e de fa a8 bd
       -0.119341396 -0.32255343 0.12842813 -0.08250974
000020 6e bb c7 3c 09 a9 50 be e3 ec 93 3c 61 37 bd 3c
       0.024381366 -0.20376982 0.018057292 0.023097696
000030 82 7c f2 3d be aa 62 3e ad bd 32 be 0d 31 08 be
       0.11840154 0.22135445 -0.17455168 -0.13299961
000040 20 05 27 3e 8c 87 02 3d ad 09 bd bd b8 bc 05 3e
       0.16310549 0.03186755 -0.09230361 0.13060272
000050 c8 b0 9a 3d 48 79 ae 3c 0c ca 27 3d 40 0b a7 bd
       0.075532496 0.021298066 0.04096417 -0.08156443

running_var f4 [24]
000000 4c 9b 21 3e 49 00 45 3e e1 66 f7 3d a6 07 da 3d
       0.15781897 0.1923839 0.120801695 0.1064599
000010 1b 17 d0 3d f1 74 6c 3e 1c 12 35 3e 17 4c cc 3d
       0.10160657 0.23091485 0.1768269 0.099754505
000020 60 52 b9 3d 62 54 f8 3d cd 83 b1 3d 23 db ad 3d
       0.09048915 0.1212547 0.08667717 0.08489063
000030 eb 63 ae 3d d9 aa bd 3d bb e0 37 3e ed 61 e2 3d
       0.085151516 0.09261102 0.17956822 0.11053834
000040 e2 fe b5 3d 01 bc 11 3e 16 d2 10 3e de 21 b2 3d
       0.08886506 0.14231874 0.14142641 0.08697866
000050 54 43 a4 3d c4 0d 31 3e 10 a6 31 3e 90 2f d8 3d
       0.08020654 0.17290407 0.17348504 0.10555947

weight f4 [10, 16224]
000000 7f a1 9a 3b ca 09 ac 3b 05 ae e9 3a 21 78 9f b9
       0.004718959 0.0052501904 0.0017828351 -0.00030416346
000010 83 8d ea bb 1e 81 70 bb a7 5a ec 3b dc c1 45 bb
       -0.007157983 -0.0036698054 0.007212955 -0.0030175364
000020 99 57 f7 bb 3e f6 56 bb 4e 4c 18 ba f1 d1 50 3b
       -0.0075482843 -0.003280058 -0.000580971 0.0031863416
000030 52 bc d8 3b d4 a8 49 3b 26 1e 70 bb fb a5 87 3a
       0.0066142464 0.0030770795 -0.0036639064 0.0010349149
000040 57 d8 f4 bb c2 d1 5b ba 78 b7 fa 3a 38 3f 93 3a
       -0.007472079 -0.00083854434 0.0019128164 0.0011234051
000050 32 62 aa bb 06 d8 2b 3b df e5 b7 bb ee a8 db bb
       -0.005199694 0.002622129 -0.0056121196 -0.0067034876
000060 2b 6d 90 bb 76 12 fc 3b d0 53 e8 bb aa 73 d7 3a
       -0.004407545 0.0076926304 -0.0070900694 0.0016437669
000070 88 2a 91 bb 58 f2 11 ba 7c e2 a7 3a 2c 76 e8 3b
       -0.004430119 -0.0005567423 0.0012808586 0.0070941653
000080 90 2c a2 bb 93 f3 79 bb e4 90 81 ba b1 2c f0 bb
       -0.00494916 -0.0038139566 -0.00098851 -0.0073295464
000090 26 19 86 bb f0 bb 71 38 72 d3 bb ba 6d d5 b6 bb
       -0.0040923534 5.7633908e-05 -0.0014329983 -0.0055796416
0000a0 9e b9 bd bb 10 6d ef 3b 7c a6 a0 3b 0d 64 b8 3b
       -0.0057899496 0.0073067024 0.004902659 0.0056271614
0000b0 18 e7 f5 3b 16 e6 89 3b 7c f3 a9 bb 88 02 41 3b
       0.007504355 0.0042083366 -0.0051864963 0.0029450972
0000c0 46 9e b9 3b 2b 47 bc 3b 7b be 7d 3b 67 63 cd bb
       0.0056646196 0.0057457886 0.0038718272 -0.006267953
0000d0 6a ea 26 bb 63 ff e1 ba 8c e9 8e 3b 3b 68 b0 3b
       -0.0025469312 -0.0017242249 0.004361337 0.005383519
0000e0 e7 12 aa 3b b8 3f b6 bb 78 57 e1 3b 1b b8 84 b9
       0.0051902416 -0.005561795 0.006876882 -0.0002531417
0000f0 79 e5 ab bb 65 31 a7 39 8e a6 98 ba d4 f5 cc 3b
       -0.005245861 0.00031889524 -0.0011646317 0.006254891
000100 f1 1d 37 39 ea 55 c0 bb 1c e9 3e bb a3 67 99 3b
       0.00017463394 -0.0058696168 -0.0029130643 0.004681544
000110 c7 c3 c3 3b 15 c0 d5 bb 9c dd d5 bb a5 33 66 3b
       0.005974266 -0.006523142 -0.006526662 0.0035125997
000120 22 16 d6 3b 3a 60 57 bb 23 29 e9 bb e4 9e cd 3b
       0.0065334 -0.0032863752 -0.0071154996 0.0062750448
000130 a2 01 75 3b 0e 9c 93 ba 74 76 a2 3b 53 1a 32 bb
       0.0037385006 -0.0011261718 0.0049579684 -0.0027176335
000140 c5 84 bc 3b 69 ae ed bb d8 15 58 3b cc 4c 00 bc
       0.005753132 -0.0072534573 0.0032972004 -0.00783081
000150 56 93 da 3b a2 79 a0 b9 11 53 83 bb ca 81 eb 3b
       0.006670396 -0.00030608202 -0.004007705 0.007187103
000160 3e a6 18 3b dd 84 e5 3a f0 33 a0 b9 b4 c3 d2 bb
       0.0023292447 0.001751091 -0.00030556275 -0.006432021
000170 75 05 e4 39 95 fe ec bb ff 36 93 3b 1c 29 d6 3b
       0.00043491615 -0.007232497 0.00449264 0.0065356623
000180 16 cd a0 bb ff f6 e7 bb c5 fc c0 bb 8a 3e 9f bb
       -0.0049072606 -0.007079005 -0.0058895075 -0.00485975
000190 d1 42 8a bb 20 b2 ae 3b 25 a1 cd ba 6f f4 3c bb
       -0.004219391 0.0053312927 -0.0015688284 -0.0028832217
0001a0 92 32 86 ba 70 de ee 3b 29 c5 61 bb 7c 36 13 bb
       -0.001023846 0.0072897 -0.0034449792 -0.0022462895
0001b0 a8 e6 aa 3b d7 20 f1 3b 0a 1b e6 bb 68 ea c1 3b
       0.0052154846 0.007358651 -0.0070222663 0.005917836
0001c0 e1 43 15 bb 03 a5 2a 3a 71 d0 ea 3b 71 59 76 3b
       -0.0022776055 0.0006509574 0.0071659614 0.0037589932
0001d0 1d 53 92 3b d9 e7 34 bb 45 66 d6 3b b0 c2 bb bb
       0.0044654743 -0.0027604012 0.006542953 -0.0057299957
0001e0 82 d3 a5 bb e3 fd eb bb 43 a0 9b bb 81 25 fe 3b
       -0.005060614 -0.0072018965 -0.0047493293 0.0077559357
0001f0 27 df b5 3b 6c 3d 8f 3b 4d 1e 9c ba 2e 9e e4 ba
       0.0055502835 0.0043713357 -0.0011910886 -0.0017442161
000200 4f c8 f5 bb 2c 2f 15 bb 06 34 bc bb a8 cf e0 bb
       -0.0075006853 -0.0022763712 -0.0057435064 -0.006860692
000210 64 04 c1 3b 34 5b ef ba f5 2c 36 3b 05 7b 28 bb
       0.005890416 -0.0018261434 0.0027797793 -0.002570809
000220 dc 8f 85 bb 0b 76 e9 bb 37 26 71 bb 2a de c8 bb
       -0.0040759873 -0.0071246675 -0.003679646 -0.0061299996
000230 fa c0 53 bb 86 22 fb bb 4d 5c f0 bb 14 7f 36 bb
       -0.0032311068 -0.0076640276 -0.007335222 -0.002784674
000240 e3 b3 ef 3b 80 18 94 bb 3d 5f d8 b8 06 28 a6 3b
       0.0073151453 -0.004519522 -0.00010317422 0.005070689
000250 8e 61 3b bb f6 b0 9c ba 6a 27 4e 3b a7 03 bf bb
       -0.0028592083 -0.0011954594 0.0031456598 -0.005829293
000260 da e1 f6 3a ca dc 97 3b d7 72 70 3b 8c 24 39 bb
       0.001883562 0.0046344744 0.0036689544 -0.0028250543
000270 66 42 b5 bb 71 d1 5c bb fe 3f 88 bb 24 17 0a bb
       -0.005531597 -0.0033694173 -0.004158019 -0.0021070922
000280 02 e3 f1 bb 23 fb 32 3b 6f 9b 52 bb c9 79 f2 39
       -0.007381798 0.0027310334 -0.0032136103 0.00046248574
000290 eb ab 5c bb 1f d9 a3 bb f5 6d 98 3b 5f 02 55 3b
       -0.0033671807 -0.005000248 0.00465178 0.0032502634
0002a0 59 e6 af bb 9b 78 3e 3a e7 82 fc 3b dc 44 a7 3b
       -0.0053680358 0.00072658964 0.0077060345 0.005104644
0002b0 5f 3b 3e bb d1 08 0b 3b 87 be a8 bb c4 99 7c bb
       -0.0029027087 0.0021214972 -0.0051496658 -0.00385438
0002c0 77 0c d2 3b 43 d9 de bb 96 83 a0 3b bd 8e a6 bb
       0.0064101773 -0.006800802 0.0048984988 -0.0050829337
0002d0 1b bf eb 3b 6d 29 c8 bb 5c 2a c5 bb 1d 55 aa 3b
       0.0071944124 -0.006108454 -0.0060170125 0.0051981346
0002e0 18 a0 a5 39 7b 51 81 bb 90 1c 50 bb ba ac 0d 3a
       0.00031590532 -0.003946481 -0.0031755306 0.00054044614
0002f0 29 7c 5e bb 3a 3b 4b 3a 6a c6 e8 bb 8c ab a0 bb
       -0.0033948517 0.0007752661 -0.007103731 -0.0049032625
000300 cc ee 0a bb 22 a6 e8 bb 55 a4 f3 3a 29 31 cc 3b
       -0.0021199463 -0.0070998827 0.0018588403 0.0062314463
000310 db 4d ad 3b f9 61 b3 bb 82 28 b5 3b 64 75 af 3b
       0.005288822 -0.0054743257 0.0055285105 0.00535457
000320 2a 8c 86 3b 85 07 72 bb 00 71 c9 3b f2 fd 85 3b
       0.0041060643 -0.0036930752 0.006147504 0.0040891105
000330 25 2d 7c 3b fe b7 b6 bb f7 61 81 bb cb 41 d1 bb
       0.0038479057 -0.005576133 -0.003948446 -0.006386017
000340 0a 78 27 bb 47 df c6 bb 41 c8 c0 3b f2 ea 30 bb
       -0.0025553727 -0.006069097 0.005883247 -0.0026995507
000350 35 c4 b4 3b d5 d6 d2 3b 1d 3b a7 ba ce a6 fc ba
       0.0055165538 0.0064343014 -0.0012758706 -0.0019275786
000360 ab 1a cc 3b 7a 5d f1 3b 6d 78 91 3b 16 a3 73 39
       0.006228765 0.0073658796 0.0044394047 0.0002323504
000370 bd a1 95 bb 9c 86 8f 3b 1c 0c f4 3b 14 1b a8 b9
       -0.0045664 0.0043800604 0.0074477326 -0.00032063632
000380 43 8d cb 3b 3b c3 90 bb bf 0d f6 bb a5 32 d5 3b
       0.006211908 -0.0044178045 -0.007508963 0.0065062814
000390 dd a6 b3 bb 2c fa 8c 3b 6c 8d 21 bb 0b fd a9 bb
       -0.005482538 0.0043022837 -0.0024650944 -0.005187636
0003a0 97 44 fd 3b 53 33 bb 3b ad c6 b9 3b 07 e3 9a 3b
       0.007729124 0.0057129054 0.005669436 0.004726771
0003b0 e6 c8 ba ba ed 05 0e 3b 17 8a 62 3b 1e e3 ad bb
       -0.0014250546 0.0021671013 0.0034567171 -0.0053066155
0003c0 ea d6 00 39 56 d7 df bb 76 ee c4 3b f2 69 57 bb
       0.00012287093 -0.00683109 0.006009872 -0.0032869545
0003d0 0d cf df 3b 9b 15 1b 3a 37 5d 3d ba eb 86 f6 3b
       0.0068301023 0.0005916 -0.0007223668 0.0075234077
0003e0 8a 38 4d bb 66 18 99 bb c4 62 50 bb 89 7d 80 bb
       -0.0031314217 -0.004672098 -0.003179715 -0.003921215
0003f0 3d 70 ef ba 2a a6 dc b9 8a 11 4b 3a 3f f2 47 39
       -0.0018267703 -0.00042085472 0.0007746449 0.00019068363

bias f4 [10]
000000 14 15 0a 3b 78 3e 78 bb d3 d3 27 bb 21 b8 83 3b
       0.0021069692 -0.003787903 -0.0025608435 0.0040197526
000010 48 3b 45 39 d3 bf bf bb a8 06 b6 3b 10 90 4a bb
       0.00018809468 -0.0058517247 0.0055549927 -0.0030908622
000020 3f e7 4d b8 41 1c 9b bb
       -4.9091173e-05 -0.0047335927
