models/Demo/LOGS/models/nnet_epoch_2.pt (torch, 765515 bytes, 26 tensors)

weight f4 [12, 3, 5, 5]
00000000: 7fcb 9e3d fa64 553d 027b 443d eece 903d
00000010: 7a4c 503d 606b 5a3d 91ea 31bc 5f9e b23b
00000020: df31 84bd 05fe 403d c728 7bbd 4005 e5bd
00000030: 0c58 423c ec90 543d 4508 1dbd 7fac a93d
00000040: 3405 b13d 39e9 343c fed0 b13c 69a6 913d
00000050: d56d c8bd 3f66 763b 7999 d7bd ca3b d53d
00000060: f9b5 a53c bc16 a7bd c946 223c aeb9 c63d
00000070: 704c 2abd e87d b43b b584 10bd 50f0 b8bd
00000080: 7ddf 873c 6b7c 45bd a46f 7e3c 2619 e33d
00000090: 65df 81bd b2f7 02bd 6304 e1bd 6539 8e3c
000000a0: b127 2c3d c75a b7bd 0d8e f53c 2b5b 8f3d
000000b0: 1537 8cbd e371 a63c 6640 e73d cd05 d73d
000000c0: 50c5 7b3d b2be 9c3d eed4 8bbd 44d7 b1bc
000000d0: 8fb5 c4bd 2002 343d cac3 ddbb 0d9a c7bd
000000e0: 0556 57bc f33a 1fbd 4c2f 4dba 3304 323d
000000f0: dd40 97bd ad08 943d af3f 603d 20fc cc3d
00000100: 76b7 babd 3741 03bd 6c8a c93d ffe4 973d
00000110: f8e4 ad3d 10b9 e53c c76f ad3d 091a 923d
00000120: 888f 9a3d 1503 c73d 3708 933d d404 bf3d
00000130: 74cd 993d 3ced 9bbd 5d57 6d3d 4cc6 dabd
00000140: d555 7cbb a47f 473d 3f75 c73d 4fca 86bc
00000150: f8bf dbbd e448 39bd d830 9f3d dcaa ebbc
00000160: e137 4cbd 38f2 d43c 7fc5 d23d ceed 8fbc
00000170: 9495 bbbb 112f b93d 45fd efbc 6a0d 3bbd
00000180: 76a5 e4bd ca88 0b3c cabf 933d 602c e73d
00000190: 45a6 463d 3b5c cdbd 10bc d53b cfc2 25bd
000001a0: 9372 6ebd 73b2 8fbd 0602 a53c 14a9 bebd
000001b0: 7a30 1f3c 8e0a cc3d 1dd7 cd3c 2a69 d53c
000001c0: 110b be3d 4bf9 92bd fea2 1d3c 9c6a 99bc
000001d0: f39b 8b3d 6208 f6bc 2b59 dc3d 0796 a9bd
000001e0: da77 53bd cca0 ad3c 8a1e 443d 8c93 0e3d
000001f0: 062a c2bd ca33 aabd 7147 b5bd c2dd 693d
00000200: 3c3a 643d 7897 cb3d ce70 003d 9601 c1bc
00000210: df16 8d3d d66e b43b 5589 e4bd 6bf7 ea39
00000220: 8494 9fbc df57 44bc b5de e33d 8aba 853b
00000230: 6676 8bbd bc18 b3bd 318d 4fbd 57b9 81bd
00000240: 3ef2 50bd 02c0 be3d 799c debd ff36 103d
00000250: f7ce 71bd 387b 5e3d dc16 b8bd a39f c9bd
00000260: 79ef 3e3c 04ee 98bd 6f52 b33d fcfb 683c
00000270: 6a2b 83bd 8ea3 343c 86c3 17bd b049 81bb
00000280: 71bb 87bb 2228 e0bd 0dae 073d 40ee b8bd
00000290: 203a 91bd 6c12 a33d 4ff5 3b3d 2137 82bd
000002a0: 9111 aabd 2fac 3f3d ef21 b2bd 11a6 5bbd
000002b0: d82c e8bd f913 ebba 4a6c 87bd 5e2a 933d
000002c0: 7602 493d a658 b5bd c2be b9bd 5830 193d
000002d0: 4bc7 f83c a236 db3d 432e 06bd db60 7a3c
000002e0: 67db 00bd 8c04 9cbd daf6 e73d 5180 e73d
000002f0: 8823 3e3d 6360 b23c 52ad 633d 52ba 13bd
00000300: ff6b 71bd 0c08 b83d 7194 25bd b2eb ac3d
00000310: fc69 963d 6fde ca3c 2052 32bd d6cd 4f3d
00000320: d7ec 963d 5f32 ae3d 9dbf 0dbd 3122 8fbd
00000330: a573 a7bd 213a a73b 543d 5a3d 5e13 d33d
00000340: f820 673d e1de b5bd abde e7bd 70c3 ff3c
00000350: 36c1 d9bd a46b 46bd 388e 1b3d f2fc 16bd
00000360: 8906 da3c 2da4 4c3d 1e67 aebd 841f b23d
00000370: 1dde 353c c18f 99bd 05c6 eb3b 76ba b73d
00000380: 92cd 953d 0965 b13d 0684 4bbd 4130 eb3b
00000390: b59b acbd c850 e0bd a8d5 8abd 9c77 f83c
000003a0: 24ee cf3c 879e b13d 9c5e 3dbb 2d71 5fbd
000003b0: 0a76 c3bd 9e57 df3c 79f0 b13d 9145 b03d
000003c0: dc76 bcbd 5f76 8c3d 1d8e 8e3d febd 563d
000003d0: 210c e1bb 8337 e2bd 023b 653d c7c4 ab3c
000003e0: d904 a7bd c38a 5ebd 7d43 8ebc 1ddb c8bc
000003f0: 4cac 9dbd 0ecc dd3d ac77 91bd 7ce5 89bb
0.077536575 0.052098252 0.047968872 0.07070719 0.050854184 0.053325057 -0.010859148 0.005451008
-0.06454825 0.047117252 -0.061318185 -0.11182642 0.011861812 0.05189602 -0.038337965 0.08284854
0.086435705 0.011041933 0.0217061 0.07111818 -0.09786574 0.0037597565 -0.105273195 0.104117945
0.020228373 -0.08158633 0.009904572 0.09703384 -0.041576803 0.0055081733 -0.03528281 -0.09030211
0.01658606 -0.048214357 0.015529547 0.11088781 -0.06341437 -0.031974502 -0.10987165 0.017361352
0.04203004 -0.08952861 0.029974962 0.06999811 -0.068464436 0.020317977 0.1129158 0.10499153
0.06146747 0.0765356 -0.068277225 -0.021709092 -0.09604942 0.04394734 -0.0067677246 -0.0974618
-0.013143067 -0.038874578 -0.0007827177 0.043461036 -0.073854186 0.07228217 0.054748233 0.100090265
-0.09117024 -0.032044616 0.09840855 0.074167244 0.08490938 0.028042346 0.084685855 0.07133872
0.07546908 0.09717385 0.07179301 0.09327093 0.0750989 -0.07613608 0.057944644 -0.106823534
-0.0038503308 0.048705712 0.0973916 -0.01645389 -0.107299745 -0.04523553 0.07772988 -0.028767996
-0.049857978 0.025994405 0.10291576 -0.017569449 -0.005724618 0.0904218 -0.029295573 -0.04566709
-0.11164372 0.0085165 0.07214315 0.11287761 0.04849841 -0.10027357 0.006522663 -0.040468987
-0.058214735 -0.07016458 0.020142566 -0.09309593 0.009716148 0.09962951 0.025126988 0.026051123
0.092794545 -0.07176455 0.00962138 -0.018727593 0.06816854 -0.030033294 0.10759195 -0.082805686
-0.05162797 0.021194838 0.047880687 0.03480868 -0.094806716 -0.08310659 -0.08851517 0.05709625
0.0557196 0.09941 0.03135758 -0.023560327 0.06889128 0.0055063767 -0.111590065 0.000448163
-0.019479997 -0.011983841 0.11126462 0.004081075 -0.06809692 -0.08744952 -0.05067176 -0.06334179
-0.05101227 0.09313966 -0.108696885 0.0352087 -0.059035268 0.05431673 -0.08988735 -0.098449014
0.011653774 -0.07467273 0.08755957 0.014220234 -0.06404765 0.011025323 -0.0370517 -0.003945552
-0.004142218 -0.10945155 0.033124972 -0.090298176 -0.070911646 0.07962498 0.04588824 -0.06358171
-0.08304132 0.046795066 -0.086978786 -0.05362517 -0.11336678 -0.001793503 -0.066124514 0.07185815
0.049074613 -0.08854799 -0.09069587 0.03739962 0.030368468 0.1070378 -0.032758962 0.015281881
-0.03145924 -0.07618055 0.1132638 0.11303771 0.046420604 0.021774476 0.055585213 -0.03606636
-0.058940884 0.0898591 -0.040424768 0.08443393 0.07344434 0.024764268 -0.04353535 0.05073341
0.07369392 0.08505701 -0.034606565 -0.06988943 -0.08176354 0.005103365 0.053281143 0.103064284
0.056427926 -0.088804014 -0.113217674 0.031221122 -0.10632555 -0.048442498 0.037977427 -0.03686232
0.026614444 0.049961258 -0.08515762 0.086974174 0.011100319 -0.07498122 0.0071952366 0.089711115
0.073146 0.08661849 -0.049686454 0.007177383 -0.08428136 -0.10952908 -0.06779033 0.030330472
0.025382109 0.08672815 -0.0028895503 -0.054551292 -0.095439985 0.027263459 0.08688445 0.08607019
-0.09202358 0.06858515 0.069607 0.052427284 -0.006867901 -0.11045744 0.055964477 0.020967854
-0.081552215 -0.054331552 -0.017366165 -0.024518544 -0.07698879 0.10829936 -0.07102904 -0.004208265

bias f4 [12]
00000000: 0d0d d33d 19e5 cf3b 396f cbbd f0b5 1abd
00000010: e435 cebd 3a7f cfbb 71ce 00bc b010 013d
00000020: 6676 32bd 2be2 2c3d 160f 883d 1a75 473d
0.103052236 0.0063444492 -0.099333234 -0.037771165 -0.100688726 -0.0063323053 -0.0078617195 0.031510055
-0.043569945 0.042207878 0.066435024 0.04869566

weight f4 [12]
00000000: 3dff 7f3f 0a00 803f f2fd 7f3f c2fe 7f3f
00000010: 0100 803f ffff 7f3f c7fc 7f3f 87ff 7f3f
00000020: 2cff 7f3f 0c00 803f 0a00 803f 1600 803f
0.9999884 1.0000012 0.99996865 0.99998105 1.0000001 0.99999994 0.9999508 0.9999928
0.99998736 1.0000014 1.0000012 1.0000026

bias f4 [12]
00000000: 46bf 1cb8 4f76 0337 9d01 71b7 bf0c 5eb8
00000010: 90d7 c4b6 e215 48b7 b563 6437 c8b5 3938
00000020: 74ee 6a38 53e5 7338 3076 5038 ed5b 07b8
-3.7371436e-05 7.835754e-06 -1.4365095e-05 -5.2940795e-05 -5.86635e-06 -1.1926024e-05 1.3613074e-05 4.4276734e-05
5.6012024e-05 5.814929e-05 4.9701135e-05 -3.227212e-05

running_mean f4 [12]
00000000: 51e6 e53e c620 bebc ffd9 3ebe f73e cf3c
00000010: 425d 21be 00a3 a5be 591e 673b e6ce c13d
00000020: ebe9 c2bc 24b4 843e a398 43be a042 9b3e
0.4490228 -0.023208987 -0.18637846 0.025298579 -0.15758231 -0.32350922 0.0035265891 0.09463291
-0.023793181 0.25918686 -0.19101195 0.30324268

running_var f4 [12]
00000000: 023b 913d 2e12 8e3a 4158 b33b 4bb0 bc3b
00000010: 2a7b 3d3b dfbf 6f3d e64f 5e3b 3324 b03b
00000020: a012 2c3b d00f e73c b886 153d fbf1 133d
0.07091333 0.0010839158 0.005473167 0.0057583204 0.0028912523 0.058532592 0.0033922135 0.005375409
0.0026256219 0.028205782 0.03650543 0.036119442

weight f4 [12, 12, 5, 5]
00000000: eebe e73c d6f7 913c 94a8 353c 4109 6c3d
00000010: fe87 e7bc 89fb 5a3d c212 0cbd 9d55 0f3d
00000020: ab73 3dbd d048 d9bc 1990 183d 8107 6b3d
00000030: a583 1abd 096d 623d f903 da3a 61d6 2dbd
00000040: cc19 123d 4b57 b53c 6c36 113d e136 63bd
00000050: 7d4c f73b 8efe 52bd 8ad2 73bc b2da 6a3d
00000060: b848 0a3d d43f 5ebd b2cc 10bd a49d 7cbc
00000070: 979b 6a3d d340 0abd 7123 053b aa55 15bd
00000080: a02d 323c d384 f53c 1ad9 9c3c 6d26 323d
00000090: 285b aebb 3a8e 223d 02e9 eb3c 5ebc ce3c
000000a0: 4ea7 0cbd 66de 8b3c 4c10 ce3c d282 6b3c
000000b0: ac20 5fbd fc03 d83c 4c3f 103c e28d c5bc
000000c0: 5ac6 dd3c 5cbb a7bb 25c5 473d c83f 163c
000000d0: 4755 c83c 40d2 263c c2c8 003d 4f29 35bd
000000e0: f7bf 5bbc b67f 43bd cb9b 613d 2a2c 5f3d
000000f0: 4920 603d 3748 c1bc 2eca 4bbd 1ccd 8fbc
00000100: 330e 3bbd 3be7 1cbd 760c 68bd 8598 a3bc
00000110: 6dcb 46b9 b6b5 0abd 6bc2 4f3d ce08 ddbb
00000120: 78ac c9bc 9785 093c a1ef 19bd bf60 313d
00000130: 6c35 8fbc a8ff b5bc 89c3 c13b 3be4 1e3d
00000140: f489 453d 0d67 3e3d a1e6 5c3d b467 0f3c
00000150: 61e3 5d3d 81db 2a3d 097f bd39 82de 073c
00000160: e80e d03b 3e60 383d d801 673d 1905 d23c
00000170: d568 983c 6455 71bc 1f3c a2bc 9eee 2b3d
00000180: bc11 093d e03c 5ebd 5fc5 d5bc 48e6 fc3a
00000190: 423f 043d ab82 163b e643 57bd 8e09 673d
000001a0: a596 1f3d 80e3 37bd f901 e4bc e5b1 c03b
000001b0: 7ed3 94bc b2d4 8fbc a20a 2bbd 2475 3f3d
000001c0: e5d0 b43b 6d49 0ebd f0e4 5abd 8d07 bfbc
000001d0: 65ff aebc c87a 3abb add3 1c3d d6c5 48bd
000001e0: 848a 3e3d 70dc 393d 7c18 dfb8 d26a 183d
000001f0: 6462 cc3c 998e 4c3d c9cf 183d edad 33ba
00000200: 6273 23bd 5eb8 44bd 0403 4cbd a90d 4cbd
00000210: d81e 1d3d 481a 843c b65b d93c 07cd 65bd
00000220: 097d 5d3c 9c70 1b3d d6f6 afbc 6995 9cbc
00000230: a5d8 ccbc 5afa 073d 86ef 12bd 3276 7dbb
00000240: f891 d1bc 5083 0dbc 3549 7b3c 4f81 1d3d
00000250: 4a53 633d 9e1b 1ebc 4a43 abbc 52ca 043d
00000260: 0758 81bb 9f67 20bd b8bd f5bc 4229 11bd
00000270: 9064 383c fb53 01bd ba5a c4bc 7130 553d
00000280: 3e1c 1bbd 2ea9 6cbb 6753 613d d991 5fbd
00000290: 922f 0e3d 7655 fdbc ba2c 56bd 9131 9d3c
000002a0: 1398 c2bb ef51 1dbd 20ca 9dbc dcef 18bd
000002b0: 5a04 b2bc 8816 633d ff16 efbc b4a3 213d
000002c0: acaa 1e3d 7f57 24bc 1d9c 833c d3b7 cbbc
000002d0: 6b48 c6bc 3192 64bd 18ee 91bb 21eb 29bc
000002e0: 93c7 9b3c d51b d2bb c465 623d 2fa6 fd3b
000002f0: 620e 47bd 9b99 59bd 237e 93bb 50e7 9abc
00000300: be93 2f3d f7bf 803c 73d4 e4bc db46 15bd
00000310: 1ee2 633d 7c76 f2bc f3d7 bfbc 46b6 f1ba
00000320: bfda 73bc e683 53bc 4264 6cbd 2720 093d
00000330: 46b6 663d ea92 023d 0f42 3c3d b674 dc3c
00000340: 490a d2ba 8639 fbbc fd14 bb3c c191 a4bc
00000350: 9c1f 00bd a122 2d3c d6b3 a4bc 9046 33bc
00000360: 6927 3f3d 888a 243d c0b6 d7bc 1e16 353d
00000370: c086 4c3d b595 0abd af37 513c ce36 52bd
00000380: 52ed 0dbc f56d b3bc 0310 36bd 5649 44bd
00000390: 7d77 d2bb a6ae 303d 1b57 45bd 83bd 653c
000003a0: 9179 b03c 5f18 92bc 2041 c03c c8bf 083c
000003b0: 959a 9a39 ae17 013d c9f3 0ebc 55a8 d73c
000003c0: ae3e 0d3d 9cfb 48bd df2d 38bd 3b69 5ebd
000003d0: 9f7d c23b e2f4 6abc 1eb1 34bd 18e2 a3bc
000003e0: 3591 0d3d ac9d fd3b 37e4 23bc 6a22 d0bc
000003f0: 6d37 403d 4cdd b63c acab 963c 8212 133c
0.028289285 0.017818373 0.011087555 0.057626013 -0.028263088 0.05346254 -0.034197576 0.034993757
-0.046252888 -0.026523978 0.037246797 0.057380203 -0.037723202 0.055279765 0.0016633264 -0.042440776
0.035669133 0.022136351 0.03545229 -0.05547226 0.00754696 -0.051512294 -0.014881739 0.05733747
0.033760756 -0.05426009 -0.035351463 -0.015418444 0.05727729 -0.033753227 0.0020315314 -0.03645865
0.010875136 0.029970562 0.01914649 0.043493677 -0.0053209253 0.03968642 0.02879763 0.025236305
-0.03433924 0.017073821 0.025154255 0.014374452 -0.054474518 0.026369087 0.008804154 -0.024115507
0.02707212 -0.0051187705 0.048771996 0.00917048 0.024454726 0.010181963 0.031441458 -0.044228848
-0.013412467 -0.047729217 0.055080216 0.054485478 0.05471829 -0.023594005 -0.04975336 -0.017553858
-0.04566784 -0.038306456 -0.05665251 -0.019970188 -0.00018958533 -0.0338647 0.05072252 -0.0067454344
-0.024618372 0.008393667 -0.037582044 0.043305155 -0.017481528 -0.022216633 0.005913202 0.038791876
0.048227265 0.046484996 0.053930882 0.008752752 0.054171924 0.04171324 0.00036143538 0.008292796
0.006349433 0.04501366 0.056398243 0.025637196 0.018604675 -0.014729831 -0.019804059 0.04197561
0.03346418 -0.054257274 -0.02609509 0.0019294703 0.03228689 0.0022966068 -0.052554987 0.056405596
0.038962025 -0.044894695 -0.027832972 0.0058805817 -0.018167254 -0.017557476 -0.041758187 0.046742573
0.005518066 -0.034737993 -0.053440988 -0.02331903 -0.021362016 -0.002845453 0.038287807 -0.049016796
0.046518818 0.04537624 -0.00010638029 0.037211247 0.02494926 0.04994068 0.037307534 -0.0006854225
-0.03990496 -0.04802739 -0.049807563 -0.049817715 0.038359493 0.016125813 0.026532989 -0.056103732
0.01351858 0.03794919 -0.021480005 -0.019114213 -0.025005648 0.03319774 -0.03587296 -0.0038675186
-0.025582299 -0.008637264 0.015337278 0.038453396 0.055499353 -0.009650139 -0.02090611 0.03241951
-0.0039472613 -0.03916132 -0.029997692 -0.035439737 0.011254445 -0.03157423 -0.023969043 0.05204815
-0.03786873 -0.003611158 0.05501118 -0.05458245 0.034713335 -0.03092454 -0.05228875 0.019188674
-0.005938539 -0.038408216 -0.01926142 -0.037338123 -0.02173059 0.05544141 -0.02918577 0.03946276
0.038736984 -0.010030626 0.016065652 -0.024867928 -0.024204453 -0.05580348 -0.004453432 -0.0103710005
0.019016063 -0.0064120092 0.055272833 0.007740758 -0.0485977 -0.053125005 -0.0045011207 -0.018909127
0.042865507 0.015716536 -0.027933335 -0.036444526 0.055635564 -0.029597513 -0.023418402 -0.0018441163
-0.014883696 -0.012909865 -0.0577128 0.03347793 0.056326173 0.03187839 0.045961436 0.02691112
-0.0016024794 -0.030667078 0.022837156 -0.020089032 -0.031280145 0.010567338 -0.020105284 -0.010942116
0.046668444 0.040171176 -0.02633226 0.044210546 0.049933195 -0.033834178 0.012769624 -0.051321797
-0.008662539 -0.021903018 -0.044448864 -0.0479215 -0.0064229355 0.043135308 -0.048178773 0.014022234
0.021542342 -0.017833887 0.023468554 0.008346505 0.00029488342 0.031516723 -0.008725115 0.026325384
0.034483604 -0.04906808 -0.04496562 -0.054299574 0.0059353854 -0.014340611 -0.044114225 -0.02000527
0.03456231 0.007739743 -0.010003141 -0.025407035 0.04692786 0.02232232 0.018392406 0.008976581

bias f4 [12]
00000000: 1a8c f33b 7938 ed3c de36 e9bc e602 1b3d
00000010: c56a e9bb ad94 f63c 80fe e43c ce6a b53b
00000020: c4ed 1bbb 00b3 3b3d 25a2 4b3d e1a4 353d
0.007432473 0.028957592 -0.028468546 0.03784456 -0.0071233236 0.030100191 0.027953386 0.0055364138
-0.0023792842 0.045825005 0.04971518 0.044346694

weight f4 [12]
00000000: 0a00 803f 9cfd 7f3f fafe 7f3f 0e00 803f
00000010: 0300 803f aefe 7f3f 1300 803f 1700 803f
00000020: 0f00 803f 1c00 803f 10fe 7f3f 16fc 7f3f
1.0000012 0.9999635 0.9999844 1.0000017 1.0000004 0.99997985 1.0000023 1.0000027
1.0000018 1.0000033 0.99997044 0.9999403

bias f4 [12]
00000000: f19d 4ab8 bf7a d437 0e91 5937 b335 84b7
00000010: 7d03 1d38 2aab 8ab7 5955 2938 9181 1c38
00000020: 46f2 b937 3393 f438 b0aa 6eb8 2f69 cdb7
-4.8307647e-05 2.5329527e-05 1.2967981e-05 -1.5760632e-05 3.7434966e-05 -1.6530586e-05 4.0372226e-05 3.7313966e-05
2.2166536e-05 0.00011662245 -5.6902587e-05 -2.4486884e-05

running_mean f4 [12]
00000000: c64c 063d 7d6d 6bbe 18aa 9d3d e953 c23e
00000010: 040d a1be 6b43 e33d bb8a 6fbe 407e 933e
00000020: d0f1 2bbd c3e5 fbbd 4a2a 54bd 6d1e c0be
0.03278806 -0.22990985 0.076984584 0.37954643 -0.31455243 0.11096843 -0.23392765 0.2880726
-0.041978657 -0.12299683 -0.051798142 -0.37523213

running_var f4 [12]
00000000: f4a0 3c3d 98a3 933d 6935 643d ee8a d73d
00000010: a212 d63d 659c 713d f892 973d ee99 d93d
00000020: 9689 f93d bdf2 d63d f19a 453f fbf6 053e
0.046051934 0.072089374 0.055715 0.105245456 0.10452773 0.05898704 0.07401079 0.10625063
0.121844456 0.104955174 0.77189547 0.13082497

weight f4 [24, 12, 5, 5]
00000000: f3c2 43bd e9a4 29bd fb79 32bb 1216 1a3d
00000010: a929 4cbd c4db bebb 1865 1f3d b237 0f3d
00000020: 4125 62bd e29d 84bc 15ef b73c 182b 8b3c
00000030: 5473 e7bc 7f62 a93c c2cc de3c 52d4 21bc
00000040: d00a f2bc 2471 61bd 905c 52bd 2356 e7bc
00000050: 8b3f 03bd b763 383c cb8e 1a3d ffe8 0a3c
00000060: e27f 9bbc 7026 283c c0b3 f33c 90da 33bc
00000070: 500b 1fbd 5a24 df3c df0b 143d e859 3bbd
00000080: 7b3b 0e3d 33d4 463c b836 b33c 7b36 d73c
00000090: bf2e 25bd ff55 573c f7d7 fabb c082 713c
000000a0: 3032 363c bbfc 5ebd 3c84 2ebd 6b90 453c
000000b0: 9a1a 143c 6e08 663d 2385 333d 14d8 623d
000000c0: 4ff8 18bc 0911 963c c272 e5bc 9a7d 5c3d
000000d0: 1747 003b 6d3c 62bd 689f c1bb 9b6d 80bc
000000e0: 4610 79ba fafe 943c d468 d5bc 3981 613c
000000f0: 286a 9a3c e1f3 133d 82c2 23bb 4913 e9bc
00000100: 9315 0ebd c9a4 da3c afe6 483d e8eb 1c3d
00000110: c010 f7bc 47b6 c6bc 340a 433b 01e7 cf3c
00000120: fddb 14bd 57c9 49bd e5be 223d 6b2c 1abd
00000130: 9ba0 86bc 7314 1a3d a0ae a03c f6bf 673d
00000140: 6bd3 613d 4bb4 87bc 7f3b 253d 2de7 85bc
00000150: d066 1cbc 5e71 2abd 5ae9 a93c 4d25 6a3d
00000160: c462 bbbb 9e5f 4bbd f9f0 3e3d 87cb 54bd
00000170: eecc 833c 87a1 f83c 9693 55bd 850f e3ba
00000180: e0c7 d5bc e856 3c3c ffd1 3ebd 4efb 333d
00000190: 28cf 033d 21a0 4e3d 367d e639 a2a2 dd3c
000001a0: c9cd 1b3d 86ef 363d 8ce9 d03c 1bfe c3bc
000001b0: 1416 0cbd 4e1c 6abd 19cd 1039 75dc 05bd
000001c0: e303 c3bc a0ce 953c 94f6 dd3c 51d5 c23c
000001d0: f23c f6bc 28ef 323c 80c6 953c 26fb 09bc
000001e0: fced 62bc f6c5 dfbc 48bb fb3c 6027 453c
000001f0: e5f7 86bc 0ddd 403c b55a 20bd 0d5d 0bbd
00000200: e917 c43a d222 993c 06a5 e939 d5cd 2ebd
00000210: cfea 093c 81c9 8fbb 7e39 1d3d 4198 2fbd
00000220: dc16 993c 25a0 453c ef59 1c3d a990 22bd
00000230: 07eb f3bb b2f7 3cbd 1743 d6ba 774f bcbc
00000240: 5385 47bd e234 3abd 5b32 2dbd 0807 cdbc
00000250: 6f3a b13c 464d 693d 916c 403d 5699 d4bc
00000260: 1d49 2a3d 11fc 9e3c c562 06bd 6199 dc3b
00000270: 16d7 dcbc db4e 53bc a26d d7bc 9eec dd3c
00000280: 8718 123c 5556 0bbd d2df 0ebd be36 353d
00000290: dfa2 a4bb 1c46 643d eec9 913c 4682 a3bc
000002a0: 70d0 fabc 7087 06bd c947 053d 3bba 20bd
000002b0: a1c3 79bc aad1 dfbc ad05 ef3c 96e4 a0bc
000002c0: 1a49 e63b 6e1d 06bd b8ca c2bc 3dcb b4bc
000002d0: 7c53 3dbd 6cc9 653d 6269 ffbc ae21 ba3c
000002e0: 4f10 553c 88da c1bb c1e9 203d bba3 663d
000002f0: 481e 133d 938f 28bc 392b 3e3d 1806 5a3d
00000300: 81a0 5f3d d58e 6c3d 212c 99bc 943d e3bc
00000310: a7a5 8f3c 5c80 13bd e480 31bd 083f 9ebc
00000320: 3fbe 703c 65cf 18bd 96fe 533d b85e 063d
00000330: fd6f 31bd f729 043d aee1 e93c 414c 313d
00000340: 04a2 6a3d 3ac4 62bd fbb7 183d a728 7abc
00000350: 665d 613d 3260 9b3c 0872 4d3d c683 93bc
00000360: 38c0 94bc d3be bf3c f463 8f3c c041 203c
00000370: e3ed 403b 43c0 43bd dab9 c43c 686d 183d
00000380: 5bf3 bb3c ce8e 233d 0792 bb3c 2e1a b93b
00000390: d8b2 d9bc 0012 5cbd f53f 19bd 1c9a d73b
000003a0: 02fc 2d3d 4355 1b3d a6ff 8fbc f6b0 52bd
000003b0: 50d0 cb3c d074 58bd ee22 453a 8f36 b7bc
000003c0: 785b 593d 2bf0 22bd 75f7 fbbc 19e9 503d
000003d0: a4ea 1fbd fef6 c43c 4849 8b3c c752 0cbc
000003e0: 6c43 99bc 8c62 b2bb c138 a5bc c102 613d
000003f0: eb15 7c3c 6c91 9f3c 6f89 52bc f855 4ebd
-0.04779334 -0.041417036 -0.002723335 0.037618704 -0.049844418 -0.005824538 0.03891477 0.034965225
-0.05521131 -0.016188566 0.02245287 0.016988322 -0.028253235 0.02067685 0.027197246 -0.009877281
-0.029546171 -0.05503954 -0.051357806 -0.028239315 -0.03204302 0.011254243 0.037733834 0.008478402
-0.018981878 0.01026307 0.029748797 -0.010977402 -0.038829148 0.027239013 0.036144134 -0.04574004
0.034724694 0.012135553 0.021876678 0.026271095 -0.040327784 0.013143062 -0.0076551395 0.014740646
0.011120364 -0.05444024 -0.042606577 0.012058358 0.009039545 0.056160383 0.04382814 0.05538185
-0.009336545 0.01831867 -0.028008822 0.05383072 0.0019573623 -0.055233408 -0.0059088953 -0.015677264
-0.0009501021 0.018187989 -0.026050963 0.013763719 0.018849447 0.036121253 -0.0024987762 -0.028451579
-0.034688544 0.026689904 0.049048122 0.038310915 -0.030159354 -0.024256838 0.002976072 0.025378706
-0.03634261 -0.04926428 0.039732832 -0.037640017 -0.016434005 0.03761716 0.019614518 0.056579553
0.055133265 -0.016565463 0.040339943 -0.016345585 -0.009545997 -0.04161202 0.020741154 0.05716448
-0.005718561 -0.049651735 0.04661653 -0.05195191 0.016088929 0.03035046 -0.052142702 -0.0017323351
-0.026096284 0.011495329 -0.046586987 0.043940835 0.03217998 0.05044568 0.00043962308 0.027055088
0.03803805 0.04466202 0.025501989 -0.023924878 -0.034200743 -0.0571559 0.00013809315 -0.032680947
-0.023805564 0.018287003 0.027095117 0.023783358 -0.030058358 0.010921277 0.018283129 -0.008421695
-0.013850685 -0.027316075 0.030728951 0.0120333135 -0.016475627 0.011771453 -0.039149005 -0.034024287
0.0014960739 0.018693361 0.00044564175 -0.042676765 0.008417799 -0.004388035 0.038384907 -0.04286981
0.018687658 0.012062107 0.038171705 -0.03968874 -0.007443789 -0.04613466 -0.0016346899 -0.02298711
-0.048711132 -0.04546059 -0.04228435 -0.025027767 0.021634309 0.05695846 0.046978537 -0.025952023
0.041573633 0.019407304 -0.032809038 0.0067321514 -0.02695803 -0.012897219 -0.026297394 0.027090367
0.008916981 -0.03401788 -0.03488142 0.04424166 -0.0050242986 0.055730924 0.017796483 -0.01995958
-0.030616969 -0.032844007 0.032539163 -0.039240103 -0.0152443955 -0.027321655 0.029177511 -0.019640248
0.0070277574 -0.03274291 -0.023778304 -0.022069568 -0.046222195 0.056100294 -0.03117818 0.022721138
0.013004377 -0.0059159435 0.039285425 0.05630849 0.03591755 -0.010288137 0.04642794 0.053228468
0.054596428 0.057753403 -0.0186978 -0.027739324 0.017535044 -0.036011085 -0.04333581 -0.019317165
0.014693796 -0.03730716 0.051756464 0.032805175 -0.04331969 0.032266583 0.028549995 0.043285612
0.057283416 -0.055362917 0.037284832 -0.015268481 0.055020712 0.018966768 0.050157577 -0.01800717
-0.018158063 0.023406422 0.017503716 0.009781301 0.0029438667 -0.047790777 0.024014402 0.037213713
0.02294319 0.03993111 0.02289678 0.005648873 -0.026574537 -0.053728104 -0.03741451 0.0065796506
0.04247666 0.03792311 -0.017577957 -0.051438294 0.024879605 -0.052845776 0.00075201585 -0.022364883
0.053065747 -0.039779823 -0.030757645 0.05100355 -0.03904213 0.024043556 0.017002717 -0.0085646575
-0.018708907 -0.0054438766 -0.020168664 0.054934267 0.015386085 0.019478522 -0.01285015 -0.050374955

bias f4 [24]
00000000: 37f6 32bc bb31 4f3d 2e8c ebbc 8bbb 41bb
00000010: 4017 cdbc bbd2 61bd 1913 1a3d d26b 11bd
00000020: ee45 6b3d 9085 8e3c 5e53 523c 23fb 5fbc
00000030: 0a1a b33b bd14 1ebd ce42 31bd ac64 f6bc
00000040: a3ce c13c dfea 9e3a 5074 5e3d e9dc 5b3d
00000050: 3e38 a63c 26fb 1fbd 0f91 b9bc 5d44 28bd
-0.01092296 0.050584536 -0.028753366 -0.0029561247 -0.0250355 -0.05513261 0.03761587 -0.035503216
0.057439737 0.017397672 0.012837259 -0.0136707155 0.0054657506 -0.038593996 -0.0432766 -0.030077301
0.023658102 0.001212444 0.054310143 0.053677473 0.02029049 -0.039057873 -0.022652177 -0.04108082

weight f4 [24]
00000000: 1800 803f d3ff 7f3f 0100 803f 6efc 7f3f
00000010: 0b00 803f 0d00 803f a1fd 7f3f cdfa 7f3f
00000020: 71fe 7f3f 2aff 7f3f 0f00 803f 4bff 7f3f
00000030: b9ff 7f3f d1fd 7f3f 0e00 803f 1400 803f
00000040: bbfc 7f3f 0c00 803f 1600 803f 0f00 803f
00000050: f0ff 7f3f fafb 7f3f 0600 803f 1300 803f
1.0000029 0.9999973 1.0000001 0.9999455 1.0000013 1.0000015 0.9999638 0.99992067
0.9999762 0.99998724 1.0000018 0.9999892 0.99999577 0.9999667 1.0000017 1.0000024
0.9999501 1.0000014 1.0000026 1.0000018 0.99999905 0.9999386 1.0000007 1.0000023

bias f4 [24]
00000000: 8eb0 20b8 337a 9137 0159 57b8 a9e0 c5b8
00000010: 34ad 6138 4436 3d37 fa96 69b8 5e99 80b8
00000020: 6be7 70b8 537d 06b6 339f 3738 3446 e1b6
00000030: 2204 8637 086f 8eb7 ec6a 9a38 62ae ff37
00000040: 2a56 9cb8 cd2c 3038 377b d338 f2ca 9938
00000050: 7d9e 3138 e9df ecb8 25ce d7b7 1c63 7a38
-3.8311402e-05 1.734225e-05 -5.1342886e-05 -9.435538e-05 5.380549e-05 1.1277913e-05 -5.5692137e-05 -6.1320825e-05
-5.7435984e-05 -2.0040504e-06 4.3778866e-05 -6.7136953e-06 1.597597e-05 -1.6979422e-05 7.363208e-05 3.0479572e-05
-7.454709e-05 4.2003394e-05 0.000100842146 7.33341e-05 4.2347692e-05 -0.000112950635 -2.572599e-05 5.9696948e-05

running_mean f4 [24]
00000000: 291b a13c ec22 e93e 4f5c 21bf f015 613d
00000010: 14a9 bdbd a44c 223f 1c48 863e fede 15bf
00000020: ec9f 5dbe b2ba 43bf d4fb cabd e7a3 98bd
00000030: 767d 0f3e 301a ea3d 0c10 fbbd 3fa2 893e
00000040: 027c 49be ba9f cd3b 9595 0bbe 6c41 5abd
00000050: 4f1d fe3c ca28 8e3d 7b0d 1a3e a03a f43e
0.019666271 0.45534456 -0.63031477 0.05495256 -0.09260765 0.63398194 0.2622689 -0.58543384
-0.21643037 -0.7645675 -0.09911314 -0.07453137 0.14012703 0.11430776 -0.1225892 0.26881596
-0.19676211 0.0062751444 -0.1363128 -0.053285047 0.031019835 0.06941374 0.15044205 0.47700977

running_var f4 [24]
00000000: 540f 883e c647 133e f8d8 c63e 5c5e 513e
00000010: 4329 043e d401 a73e 0049 cd3d 6f76 6d3e
00000020: 985e fe3d b257 783e 3386 f93d 94d3 ec3d
00000030: 878f 523e fb01 0d3e 4512 253e 6b53 0d3e
00000040: ab4e 223e 1280 493e d955 683e c97f f23d
00000050: 50b6 383e 0091 003e 86b1 1e3e 5abf f23e
0.26574194 0.14382848 0.3883741 0.20446151 0.12906365 0.32618582 0.10023689 0.2318971
0.12420386 0.24252203 0.121837996 0.11563793 0.20562564 0.13770287 0.1612025 0.13801353
0.15850322 0.19677761 0.22688998 0.11840779 0.18038297 0.12555313 0.15497407 0.47411615

weight f4 [24, 24, 5, 5]
00000000: eeff 2abc e5f2 f43c 756b 333c 723a 0bbd
00000010: 8161 1e3d daef f53a 05c2 01bd 33d2 b1bc
00000020: 0362 a4b9 2885 f33c 517a 01bd fc37 15bd
00000030: 9292 00bc 5669 bd3c 843c 3dbc 1f48 223d
00000040: a1ae 89ba 84c4 8abc fb20 eb3b 6ff6 3abc
00000050: cad9 babb 6c05 08bd 77a3 263d 65fd 483c
00000060: 1744 06bd bee9 d73c 70b7 13bd f93a 27bd
00000070: c255 963a fdd4 eebc 3f5d d33c d875 c5bc
00000080: a895 8a3b 08e2 4a3c eead e43c 0c78 80bc
00000090: c5b7 7e3c fb1d 0f3d df19 da3c 95f3 dbbc
000000a0: 251f df3c 070d 973c 348d 153d a04b 613c
000000b0: 8537 263d e6fc edbc 7c84 15bd 1212 b7bc
000000c0: a8b3 57bc bf97 37bc 8e9d e03c 349c 183c
000000d0: bf42 bb3c 114f e7bc 21f5 09bd 0aa9 03bd
000000e0: fbde f63c aa96 c4bc 8dad 01bc f540 b2bc
000000f0: c299 b8bb 25e1 9b3b 0899 073d c707 61bc
00000100: 8d59 4d3c 1d6c 533c 6ac6 d63c 9f4c 573c
00000110: f46c 0ebd b290 893c 7029 aabb 3f41 193d
00000120: 7141 fbbc 9b99 01bb 2a08 45bb 28cf ce3c
00000130: f2dc dcbb 0735 c2bc cdd2 4cbc 65e7 fd3c
00000140: c153 ad3b cff3 e13b 02f9 c8bc d8cb 113c
00000150: f35f dbbc ab2f afba 04b9 76bc 1b0f 8bbc
00000160: 13a7 8dbc 9cc9 adbb fdd3 afbc 33fd f93c
00000170: b54a a6bc 20c5 053c d997 1dbd 85a5 06bb
00000180: ed16 b73c 3d06 bbbc f132 1b3d 8d37 b03c
00000190: 65f7 203d bce3 cf3c 380d c7bc 5e3a e3bc
000001a0: a5dc 92bc fbd6 143c bd7c fb3c 738c 06bd
000001b0: db13 a839 10a9 8a3b 143e ad3a 56e5 cb3a
000001c0: a5ed db3c 6619 583c 8e20 913b e311 2f3c
000001d0: 5d97 d7bc 43e8 043c 031c 1abd e057 9439
000001e0: cbef de3b 6127 6f3c 7c19 293c e0d0 403c
000001f0: 5e2e 253c a278 ee3b 4dca c4bc 5c88 883c
00000200: 4fb5 0d3d f981 d6bc dd53 ed3c 1e20 d03c
00000210: db92 0bbd 50b4 d7bc 1751 123c 7b48 c7ba
00000220: 6bfc 95ba b78a 23bd 42ad 0cbd 9f07 1abd
00000230: def2 01bd c679 033d 9bd7 033d a87d a73a
00000240: 2bd1 ec3c 9342 eb3c 27ec 223c 70cf 91bb
00000250: 39d0 a539 b1ee 133d c008 82bc 7dca 153d
00000260: 1f45 753b 7253 14bd 96fe 1e3d ca39 edbc
00000270: f9d0 983c 1849 ea3c 088f f9bc 1738 353c
00000280: 9460 26bd d02c b3bc 669a 263c fc4e b73c
00000290: 5bf9 e9bb 26be cdbc d401 16bd 3287 a03b
000002a0: 3b26 7bbc 4e5a 14bd 4a43 9ab9 21b1 a5bc
000002b0: 3803 213d fa33 1bbd 6de0 68bb bf72 e8b9
000002c0: f539 9b3b b486 d9bc e419 c43b fcb8 05bd
000002d0: b795 503c 7e0c 173d ed4b e5bc 5f8e 223d
000002e0: 11ed 8c3c 4d3d 9bbc bca7 003d f2bd adbc
000002f0: 2520 caba 16f8 c8bc cc47 ff3b 33b2 153d
00000300: df62 ce3c 02fb 01bd 6a7c 76bc 062f 19bc
00000310: 1855 5f3b 5a5d 07bd 43fe 223c 440d 27bd
00000320: 13cf 7c3c 8a52 55bb 7bae 1f3c 9713 1fbd
00000330: 33b6 a1bc 8c17 c4bb 314d 04bd 0205 9fbc
00000340: e651 f23c a7eb 98bc c6fd fabc 8de6 18bd
00000350: b3c0 52bb 674d 5c3a 014c d53c 298d f53c
00000360: bc47 ab3c bc94 8cbc db7a 0a3d 508e e1bc
00000370: f32b 22bd 33e1 f43c c8cb edbc c9cf 0d3c
00000380: 2f8f 023d e89f 4cbc abda 043b 7d6c 85bc
00000390: cb8e f8bc 4291 10bd 4f3b efbc cbc0 f33c
000003a0: c5e5 d7bb f402 16bd 35ae 0c3d 8d78 653c
000003b0: 6ebf 79bc 268f 57bc 1983 1cbd c907 093d
000003c0: 28b9 8abc fe78 a7bb 027a f9bc 3382 93bc
000003d0: a14c 6f3b f7fc c43c e629 b1bc e8d7 ecbb
000003e0: 0276 953c 9aa8 6abc 0988 813c b277 9ebb
000003f0: 5ffe a0bc 2274 1dbd a2dd 163d 9402 ed3c
-0.010436995 0.029900977 0.010950913 -0.033991285 0.038667206 0.0018763498 -0.031679172 -0.021706676
-0.00031353542 0.02972658 -0.03161079 -0.036430344 -0.007847445 0.023121517 -0.011550073 0.03961956
-0.0010504314 -0.01693941 0.0071755624 -0.011411293 -0.005702232 -0.033208296 0.040683236 0.012267445
-0.03277978 0.026356574 -0.03606361 -0.040827725 0.001146965 -0.029154295 0.0258013 -0.024104044
0.004229266 0.012382992 0.027914967 -0.015682243 0.015546744 0.0349407 0.026623664 -0.026849547
0.02723653 0.01843883 0.036511615 0.013750941 0.04058029 -0.029051255 -0.0365033 -0.022347484
-0.013165392 -0.011205613 0.027418878 0.0093145855 0.022858975 -0.028235944 -0.03368104 -0.03214363
0.030135622 -0.023997623 -0.007914913 -0.02175949 -0.0056335637 0.004757064 0.033104926 -0.013734764
0.012533558 0.012904194 0.026217658 0.0131408265 -0.034771875 0.016792629 -0.005192928 0.03741574
-0.030670853 -0.0019775394 -0.003006468 0.025245264 -0.006740206 -0.023706926 -0.012501431 0.030994127
0.0052895253 0.0068955193 -0.024532799 0.008898698 -0.02677915 -0.0013365647 -0.01505876 -0.016974976
-0.017291581 -0.0053035747 -0.021463389 0.030516243 -0.020299295 0.008164674 -0.03847489 -0.0020545435
0.022349799 -0.022830123 0.03789038 0.021510864 0.039298434 0.025377147 -0.024298295 -0.027737793
-0.017927477 0.009084458 0.030699128 -0.032848787 0.0003205825 0.0042315796 0.0013217353 0.0015556018
0.026846716 0.013189649 0.0044289296 0.010685417 -0.026317293 0.008112016 -0.03762437 0.00028294232
0.006803488 0.014596791 0.010321017 0.01176855 0.010081856 0.007277564 -0.024022246 0.016666584
0.034596737 -0.026185023 0.028970653 0.02540594 -0.0340756 -0.026331097 0.008930466 -0.0015204096
-0.0011443024 -0.03992721 -0.03434492 -0.037604924 -0.031725757 0.032098554 0.03218804 0.0012778537
0.028908333 0.028718268 0.009943998 -0.0044497773 0.0003162639 0.036116306 -0.015873313 0.03657006
0.0037425233 -0.036212392 0.03881701 -0.02895822 0.018654333 0.028599307 -0.03046371 0.011060736
-0.040619448 -0.021871954 0.010168647 0.02237653 -0.007140321 -0.025115084 -0.036622837 0.004898929
-0.015328939 -0.036218934 -0.00029423303 -0.020226063 0.03930971 -0.037891366 -0.0035534159 -0.0004433598
0.0047371336 -0.02655349 0.0059845317 -0.032647118 0.012731007 0.036877148 -0.027990306 0.039686557
0.017202886 -0.018950129 0.031409964 -0.021208737 -0.0015420957 -0.02453236 0.0077905413 0.036546897
0.02519363 -0.03173352 -0.015044311 -0.00934959 0.003407782 -0.03304801 0.009948316 -0.040784135
0.01543023 -0.0032550418 0.009746189 -0.03883704 -0.0197402 -0.0059842523 -0.032300178 -0.019411568
0.029580068 -0.018667055 -0.030638587 -0.037329245 -0.0032158315 0.0008403868 0.026037218 0.029974537
0.020908229 -0.017160766 0.03380857 -0.02753368 -0.039592694 0.02989254 -0.029027835 0.008655497
0.03187483 -0.0124892965 0.0020271938 -0.016287083 -0.030341526 -0.03529478 -0.029203085 0.029755017
-0.00658867 -0.03662391 0.034345824 0.014005792 -0.015243394 -0.013156688 -0.038210962 0.03345469
-0.016933993 -0.005110859 -0.030453686 -0.01800642 0.003651418 0.024046404 -0.021626424 -0.0072278865
0.018244747 -0.014322424 0.015811937 -0.004836046 -0.019652544 -0.03844083 0.03683246 0.028931893

bias f4 [24]
00000000: 10b3 db3a 51b7 d53b d984 14bd 8834 10bd
00000010: ee81 edbc 4591 c93c 3ecb d239 6954 22bd
00000020: 80a5 0a3d dbbe 023d 9d4b 723b 2b9a 1f3d
00000030: 9afd c1bc 448d d5bb 7165 f5bc eebd 5abc
00000040: 18d3 963c 16cb d5bc 4147 e03c 2c5d 23bd
00000050: f421 14b8 3129 07bd 329a acbc 1ac4 0ebb
0.0016761739 0.006522097 -0.036259506 -0.035206348 -0.02899262 0.024605403 0.00040205749 -0.03963128
0.03384924 0.031920295 0.0036971339 0.038965385 -0.023680497 -0.0065170843 -0.029955598 -0.013350947
0.018411204 -0.026097815 0.027377727 -0.039883777 -3.531757e-05 -0.032998268 -0.02106962 -0.0021784366

weight f4 [24]
00000000: 5400 803f c9fe 7f3f 1500 803f 95ff 7f3f
00000010: 0000 803f 0400 803f d100 803f 0f00 803f
00000020: 9eff 7f3f 0700 803f 97ff 7f3f 1000 803f
00000030: 3d00 803f 3600 803f 0500 803f 0300 803f
00000040: e3fd 7f3f b8ff 7f3f a6fb 7f3f 23fc 7f3f
00000050: 3afb 7f3f a9ff 7f3f f7fe 7f3f cef8 7f3f
1.00001 0.99998146 1.0000025 0.9999936 1.0 1.0000005 1.0000249 1.0000018
0.99999416 1.0000008 0.99999374 1.0000019 1.0000073 1.0000064 1.0000006 1.0000004
0.99996775 0.9999957 0.9999336 0.99994105 0.99992716 0.9999948 0.9999842 0.9998902

bias f4 [24]
00000000: 2e5e 1939 b804 06b8 6b9f a538 b476 27b7
00000010: ef47 1638 0cb8 2f38 ad2d 3739 d404 9038
00000020: 9199 8c38 ec04 3638 b4f1 b5b7 54ef b338
00000030: 7b58 ba38 7cfb 2239 27b5 8938 057e 4a37
00000040: 9693 25b8 18a1 0bb6 822a 86b7 cd47 86b8
00000050: 13dd c8b8 826b 6937 9de3 3cb8 a97a fdb8
0.00014626302 -3.1952484e-05 7.897507e-05 -9.981613e-06 3.582978e-05 4.189466e-05 0.00017469256 6.8673544e-05
6.704324e-05 4.3396765e-05 -2.1689433e-05 8.5799635e-05 8.885652e-05 0.00015543209 6.566411e-05 1.2069479e-05
-3.9476516e-05 -2.0806383e-06 -1.5993839e-05 -6.402992e-05 -9.5779214e-05 1.3912913e-05 -4.5034674e-05 -0.00012086827

running_mean f4 [24]
00000000: 1313 14be eda1 ba3d 5428 afbc f4a0 5fbe
00000010: a85b 0cbe 1453 903d 5dcb 23be a9be 0f3e
00000020: bc7e e538 fd92 2d3e 9749 9dbe 4845 0c3d
00000030: 75fc 3e3e ee15 e4be 505d 24be 129b fcbe
00000040: e31c 80bc f9c4 183e 9fd7 d4bc 2d4c 093d
00000050: c432 6a3c 3fe2 06be 1977 12be 7769 153f
-0.14460401 0.09112916 -0.021381535 -0.21838742 -0.13706839 0.07047096 -0.15995546 0.14037575
0.00010943177 0.16950603 -0.30720207 0.03424576 0.18650992 -0.4454798 -0.16051221 -0.4933706
-0.015638774 0.14918889 -0.025981722 0.033519913 0.01429433 -0.13172244 -0.14303245 0.5836405

running_var f4 [24]
00000000: 111b ac3d 8983 6a3e 29c6 f43d b197 3e3e
00000010: e8cf 043e 9501 b43d 340c 043e 4bae ec3d
00000020: 3f28 003e 7b00 963d f412 b53d 651f db3d
00000030: 770a c33d 1a9a 013e 62be 343e a8b8 0f3e
00000040: 7f95 ac3d c23d de3d 3c60 fb3d 3c38 183e
00000050: 5e9c b93d f321 113e d690 d73d a219 593e
0.084036 0.22901739 0.119518586 0.18612553 0.12969935 0.08789364 0.1289528 0.11556681
0.12515353 0.073243104 0.08841506 0.106993474 0.095234804 0.12656441 0.1765075 0.14035285
0.084269516 0.10851623 0.122742146 0.14865202 0.09063028 0.14173107 0.10525672 0.21201184

weight f4 [10, 16224]
00000000: 4326 63bb bea0 a63b b306 643a 0a0b 1c3b
00000010: 12f6 81bb eb7e 2a3b 16cb 69bb 2d41 3c3a
00000020: a5ab 9039 df75 5eba c0c2 a6b9 aff6 813b
00000030: 6676 4bbb 58df 1bbb 4205 923b 4b8a b1bb
00000040: 9629 a3ba 56e8 98bb d78c 873b 7a60 d53b
00000050: 61c0 b73b 3185 d53b 60cf feba 46de 1bbb
00000060: 67b8 78ba 4210 e9bb 1b90 6ebb 9245 913b
00000070: b0cf 2fbb fa5a 03ba e4bb 8b3b e18d d5ba
00000080: 1453 ab3b 5870 d9bb 9124 d2ba cbfa 793b
00000090: 1924 6a3b 006b c03b f65f 453b 2851 a1bb
000000a0: 1326 6ebb c035 09bb 3a0c 263b fb83 ef3a
000000b0: 06d2 c53b c602 0f3b ce3e 14b9 1fbf 893b
000000c0: 727d 9c3b b7f7 373b 4047 d63b 6290 4e3a
000000d0: ccb5 98bb 91a3 b43b 74ac a6bb b5f5 e9b7
000000e0: cfda 05bb e652 89bb ddad feba 0586 cc3b
000000f0: 79ef 823b fe1b c6bb 4375 c1bb 2a65 b93b
00000100: d32f cdb9 0ce4 8a3a b08c 983b 51cd 55bb
00000110: 7692 2ebb 0502 6d3b 800e 5fbb b6f1 93b9
00000120: 0f08 c4bb 6c55 273a fea3 533b 8142 a8bb
00000130: df5f a2bb 4f42 deba 4bc7 743b 4bcd f43b
00000140: f06d 61ba 0264 e33b a7ed dd3b 6d4a 31bb
00000150: 56f9 f63a 0eb2 953b c621 9ebb 082b be3a
00000160: 7cd2 c33b c509 0639 7ade 1abb 4fe8 a03b
00000170: bc1a 0bbb 8dca c5bb dcce 97bb a8db e13b
00000180: b8cc d7ba 4ea1 ae3a 54a8 48bb c165 8dbb
00000190: 2f54 31bb 94a7 d93b 0e26 e8ba 50ac c039
000001a0: 0083 cabb af1a c3bb d246 8a3b d77f 7cba
000001b0: 52c0 28bb 554e 3bba 423c ebba 20a3 b03b
000001c0: 32ec 7bbb 9e68 153b cb55 c63a e563 a2bb
000001d0: d91e 813b e73d b73b 9339 7aba c31b c83b
000001e0: fba2 8c3a cb23 8d3b 5dd4 673b 0b4a ad3b
000001f0: 5fd5 a4ba 351c a3bb f87e 69bb a6ba 853b
00000200: 5d82 4eba cfcf c3bb 2ce4 443a 3a96 1739
00000210: 125a 9d3b e146 893b b3fd fd3b 4550 c33b
00000220: ae39 a4ba 8108 18bb 5cf5 a5bb 63d3 1cbb
00000230: 32a5 bebb 14b6 d63b 62d2 d03a 08dd a6ba
00000240: b4a2 d73a 7f67 dd3b 002f 843b f788 d13b
00000250: d5ec e4bb 1ff9 de3b 78ba 073b b279 83bb
00000260: 641f 9fba eace b8bb 6c3c 0b3b 03e3 8d3b
00000270: 98c0 cebb f6e5 ca3b a10c b03b 0ab7 59bb
00000280: cd47 fcbb 2999 bfbb ddcd a73b 5c3f d93a
00000290: 9033 35ba cfaf 693b 4124 d63b 609e e93b
000002a0: 4956 f73b 4647 b23b 84a4 a6bb 5c67 84bb
000002b0: abe0 a1bb 2217 fdbb cd88 90bb b8a7 9dbb
000002c0: fd79 cab9 2283 edbb cf58 0bbb c7eb c6bb
000002d0: 7985 a43b 2e0f d9bb d50b 2ebb 57b9 59bb
000002e0: d22c 4e3b 3e95 bdbb 4d15 f13b e543 a83b
000002f0: 7f78 a8bb e8cd b03b e6c0 1bbb 033d 7c3b
00000300: 98f2 c9bb 29a8 e2ba 5a1f 14bb de7d b13b
00000310: a586 82bb 2e1d 8dbb 1624 3f3a 3bb1 dbbb
00000320: d010 ee3b f809 123b 984f e13b 04b6 92bb
00000330: 5c19 d23b 3d04 98bb 7bd4 d63b 337d 5dbb
00000340: 0a66 70bb e32f fcbb 5986 d83b 4449 45ba
00000350: 5c99 b13a 8619 ee3b 1244 4ebb af7a e83b
00000360: c3a4 dabb 618d e5bb 06f8 e6bb 1060 f4ba
00000370: 6643 79bb ca8c 923b 1fb8 fdbb 1ab0 2d3b
00000380: 336f d5ba 37d6 ccbb 2221 313b e5b3 113a
00000390: a2eb 9bbb b154 eebb 5852 8fbb bbee 35bb
000003a0: 223b e6bb 7337 7fb9 b813 993b 7d54 36bb
000003b0: 7ded 823b 002a eabb f010 acbb 5f20 b63b
000003c0: d39e b63b fcbb f33b fc58 7f3b 8539 a73b
000003d0: 076f 21bb d440 4e3b f672 60bb 626e cb3b
000003e0: 5214 8bbb cf24 a93b e8c2 85ba d053 20bb
000003f0: 9bb8 363a c8e3 99bb 3a78 953b 250d b1bb
-0.0034660257 0.00508508 0.0008698508 0.002381029 -0.0039661014 0.002601559 -0.0035674027 0.0007181343
0.00027593705 -0.0008486192 -0.00031807087 0.0039661746 -0.0031045913 -0.0023784246 0.004456193 -0.005418097
-0.0012448307 -0.0046663685 0.0041366625 0.006511745 0.00560765 0.006516122 -0.0019440465 -0.0023783608
-0.00094879273 -0.007112534 -0.0036401812 0.0044333423 -0.0026826672 -0.000501081 0.0042643417 -0.0016292894
0.0052284095 -0.006635707 -0.0016032626 0.003814387 0.0035727082 0.0058721304 0.0030117012 -0.0049230047
-0.0036338612 -0.0020936579 0.0025336877 0.0018273586 0.0060369996 0.0021821721 -0.00014137776 0.0042036916
0.0047756964 0.0028071234 0.0065392554 0.0007879791 -0.0046603438 0.0055126627 -0.005086476 -2.789018e-05
-0.002042461 -0.0041907905 -0.0019430477 0.0062415623 0.0039958325 -0.0060458174 -0.0059038713 0.0056578116
-0.0003913628 0.0010596528 0.004655443 -0.0032623599 -0.002663759 0.0036164534 -0.0034035742 -0.00028218114
-0.005982406 0.0006383273 0.0032293792 -0.005134881 -0.0049552764 -0.0016957017 0.0037350233 0.007470762
-0.0008599451 0.006939412 0.006772715 -0.0027052418 0.0018842618 0.004568345 -0.0048258035 0.0014508674
0.0059760194 0.00012782875 -0.0023631142 0.004910506 -0.0021225652 -0.006036109 -0.004632814 0.00689264
-0.0016464209 0.0013323219 -0.003061791 -0.0043151085 -0.0027058234 0.0066422913 -0.0017711536 0.00036749477
-0.006180167 -0.0059541087 0.004219868 -0.0009632087 -0.0025749397 -0.0007145156 -0.0017947035 0.0053905398
-0.0038440344 0.0022797952 0.001513177 -0.004955756 0.003940445 0.005592096 -0.00095453224 0.006106825
0.0010729724 0.0043072454 0.003537438 0.0052883676 -0.0012575797 -0.004977728 -0.0035628658 0.004081088
-0.0007877702 -0.0059757004 0.0007510807 0.00014456446 0.004801997 0.0041893576 0.0077511906 0.0059604966
-0.0012529397 -0.0023198428 -0.0050646495 -0.0023929707 -0.0058180327 0.006552467 0.001593184 -0.0012730667
0.0016451688 0.0067567225 0.004033923 0.0063945013 -0.0069862404 0.0068046 0.002071051 -0.00401231
-0.0012140092 -0.0056399005 0.002124573 0.0043300404 -0.00630958 0.0061919643 0.0053725992 -0.0033220672
-0.007698989 -0.0058471155 0.0051209764 0.0016574669 -0.00069122855 0.0035657769 0.0065350835 0.0071294755
0.007548128 0.0054406254 -0.0050855298 -0.0040406417 -0.0049401126 -0.007723705 -0.004410839 -0.0048112534
-0.0003861933 -0.0072482983 -0.002126265 -0.0060705873 0.005020794 -0.006624124 -0.0026557345 -0.0033222043
0.003145982 -0.0057856133 0.0073572756 0.005135047 -0.0051413174 0.0053956397 -0.00237661 0.0038488514
-0.0061629526 -0.0017292547 -0.0022601695 0.005416616 -0.003983336 -0.004306457 0.0007291449 -0.006704477
0.007265188 0.0022283774 0.0068759434 -0.0044772644 0.0064117145 -0.004639177 0.0065560914 -0.0033796548
-0.0036681914 -0.007696138 0.0066078124 -0.0007525871 0.0013549733 0.007266226 -0.0031473679 0.007094703
-0.006672473 -0.007005379 -0.0070486097 -0.0018644352 -0.0038034557 0.00447235 -0.007742896 0.002650267
-0.001628375 -0.0062511223 0.0027027805 0.00055581174 -0.004758314 -0.0072732796 -0.00437383 -0.0027760703
-0.007026092 -0.00024339352 0.00467154 -0.0027821355 0.003995596 -0.00714612 -0.0052510425 0.005558058
0.0055731325 0.007438181 0.003896295 0.0051032924 -0.0024632828 0.0031471746 -0.003424821 0.006208227
-0.0042443657 0.0051618586 -0.0010205181 -0.0024464019 0.00069702574 -0.004696343 0.0045614513 -0.0054031783

bias f4 [10]
00000000: 844a a13b 2725 ab3a 3de7 863a f3be 863b
00000010: 40cc cabb 83e9 e93a 143e a2ba 2612 e0ba
00000020: a176 8c39 8bce cfbb
0.004922213 0.0013057337 0.0010292303 0.0041121184 -0.0061888993 0.0017846081 -0.001237812 -0.0017095252
0.00026791266 -0.0063417605
