models/Demo/LOGS/models/nnet_epoch_5.pt (torch, 765965 bytes, 26 tensors)

weight f4 [12, 3, 5, 5]
000000 ff e2 15 3d ad 78 e4 bd 21 6f 55 3d c4 1b a6 bd
       0.036593433 -0.111558296 0.052107934 -0.081107646
000010 e1 42 e1 bd 06 97 8c 3d d8 25 02 bd 7e f5 a6 bd
       -0.10999084 0.06864743 -0.03177437 -0.08152293
000020 13 74 98 bd 29 99 8b bd 71 e1 5a 3d 1b 36 a7 3d
       -0.074440144 -0.06816322 0.053437654 0.08164617
000030 d1 f3 c7 bd e1 95 8a bc e2 17 6d 3d 49 1d 92 3c
       -0.09763301 -0.016917171 0.057884105 0.01783623
000040 a5 10 3f 3c 4c 93 90 bd 1a d4 af bd fb 36 ce bd
       0.011661683 -0.07059345 -0.08585377 -0.100690804
000050 87 68 7c bd 77 fd 78 3d 11 25 81 3d 56 52 cf 3d
       -0.061623123 0.060788598 0.06305898 0.10123126
000060 45 3a e8 3d 20 aa 47 bb 65 5b 20 bc 40 e7 ce 3c
       0.11339239 -0.0030466393 -0.009787415 0.025256753
000070 f1 f1 93 3c 98 dd 85 bd 77 c2 64 3d 0f 31 c0 3d
       0.018059703 -0.06536406 0.05584952 0.09384357
000080 27 99 d8 3d aa f9 54 bb ff 6f e1 3d 2f a1 14 3d
       0.105760865 -0.0032497444 0.1100769 0.03628653
000090 70 c1 7e 3d ad fd 08 bc 82 f9 55 bd 5e a3 5b 3d
       0.062196195 -0.008361262 -0.052239902 0.053622596
0000a0 00 ae d8 3d f4 33 bc bd 88 79 d1 bd 8b cc ba 3d
       0.10580063 -0.09189597 -0.10228258 0.09121045
0000b0 4b 52 c4 3d 6e 02 8e bc 89 25 c5 3b 04 be 26 bd
       0.09586009 -0.017335143 0.0060164374 -0.040708557
0000c0 e2 7f 46 3d 50 fe be 3d 45 31 ae bd b7 b8 cc bd
       0.048461802 0.0932585 -0.08505491 -0.09996169
0000d0 35 87 59 3d 3a fd 97 bd 09 75 2f 3b 4c 29 c1 3b
       0.05310746 -0.07421346 0.002677264 0.0058948155
0000e0 81 07 d9 3c b5 b8 df bd 39 9a be 3d 6b 5a 5d 3d
       0.026492836 -0.10923902 0.093067594 0.054041307
0000f0 4a 30 ae bd 74 61 dd 3d b5 e6 d5 3d 3c b4 c0 3d
       -0.08505304 0.10809603 0.104443945 0.09409377
000100 cd d4 0f 3b b3 23 da bd c2 8c 5a 3d 6d 4a 80 bd
       0.0021946908 -0.1065134 0.053356893 -0.062641956
000110 fd a1 bd 3c a4 89 2e 3c 70 e3 a0 bd e8 3b 9a 3d
       0.023148531 0.010652933 -0.0785588 0.075309575
000120 ff f8 c4 bc e4 a4 71 bd 07 40 a2 3d ab 25 e3 3d
       -0.024044512 -0.058995143 0.079223685 0.11091169
000130 1f fe 7d bd 5d b9 e3 bd eb 8e d9 bd 1b 50 4d bc
       -0.062009927 -0.111193396 -0.106229626 -0.012531306
000140 80 45 6d bd 9d 0b dd bb 10 db b1 ba 3d 44 a5 bd
       -0.05792761 -0.006745769 -0.0013569314 -0.08069656
000150 ea 67 f6 3c 87 32 11 3d 44 b7 90 bd 3d 4a ad 3d
       0.030078847 0.035448577 -0.07066205 0.084614255
000160 93 2f b1 3d aa 1d da bc 80 8f 12 bd 59 a7 37 3c
       0.08651652 -0.026625473 -0.035781384 0.011209332
000170 46 fe 15 3d 3d ed c6 3d d7 56 4c 3d a9 58 ae 3d
       0.036619447 0.09713218 0.049887504 0.08513004
000180 7d 45 d6 bd 00 7f ab 3d f8 4b d0 3d 5b 55 7a bd
       -0.104624726 0.08373833 0.1017074 -0.061116558
000190 6e dc ce bc f7 a5 d0 3d 48 cc 2b 3c 76 fe 54 3c
       -0.025251593 0.10187905 0.010485716 0.013000121
0001a0 00 8e c5 bd 24 a6 e5 bd a4 b6 71 bc f0 e0 cc bd
       -0.09646225 -0.112133294 -0.014753018 -0.10003841
0001b0 f8 eb 44 3d 67 f3 95 bc 7b d1 11 3b e3 80 58 bd
       0.0480766 -0.01830454 0.0022250104 -0.05285729
0001c0 f1 41 c9 bc da 97 a7 bd 0a d8 68 bd b9 d5 77 3b
       -0.024567576 -0.0818326 -0.056846656 0.0037816598
0001d0 dc 9c 63 bc 71 a4 f0 3b 6b b9 26 bd b5 a2 46 3d
       -0.013892379 0.0073438217 -0.040704172 0.048495013
0001e0 31 53 e9 3c 97 c4 9e 3d 0b 6e c2 bd ac 2f 24 3d
       0.028482052 0.0775234 -0.09493645 0.040084526
0001f0 8f b3 40 bd 56 4f 5b 3d 1c 48 d5 3d dc 27 83 bd
       -0.04704624 0.053542458 0.104141444 -0.06404087
000200 61 17 e2 3c ce 86 63 3c a9 c0 d4 3d 0f 59 b8 bd
       0.027599039 0.01388712 0.103883095 -0.090013616
000210 0e 6f 17 3d 2c 93 5d 3d d2 d4 b6 bd 6e 5e 5d 3d
       0.036971144 0.054095432 -0.08927311 0.054045133
000220 bf ce 77 3c cb 50 d1 bd a6 cd c9 bd 5a 19 1f bd
       0.015124976 -0.10220488 -0.098536775 -0.038842537
000230 c6 d8 fe bc 2b 64 05 3d b8 5f 65 bd 7f 11 dd bd
       -0.031109225 0.03256623 -0.055999488 -0.10794353
000240 97 55 de bd d1 e7 7c bd 8b 26 d6 bd 42 74 c7 3c
       -0.10856169 -0.061744515 -0.1045657 0.024347428
000250 1d 06 3f 3d 41 a4 6d 3d 7e d0 c1 3d c8 40 4c bd
       0.04663669 0.058017973 0.09463595 -0.049866468
000260 da c0 a5 bd 23 15 62 bd 92 60 c9 3c 78 e2 e1 bd
       -0.08093424 -0.05519594 0.024582181 -0.110295236
000270 e3 7c 3a ba a8 c3 b6 bd bc ef 7e 3d 07 d0 8a bc
       -0.00071139465 -0.08924037 0.062240347 -0.016944898
000280 65 54 29 bc fe 58 cd bd ab 67 c0 bd a4 db f3 bc
       -0.010335063 -0.100267395 -0.09394773 -0.029767819
000290 3a 35 ca 3d ea 9b 80 bd 5f 99 54 bd a6 87 56 bd
       0.098734334 -0.06279738 -0.05190408 -0.05237546
0002a0 e6 19 32 bc c7 4c b0 3d a5 10 ec 3d 55 c0 e8 bd
       -0.0108704325 0.08608394 0.11526612 -0.113648094
0002b0 7b 5c 0c 3d 72 91 c2 3c 91 28 27 bd 9d ff ad 3c
       0.034267884 0.023750994 -0.04081017 0.02124005
0002c0 d9 cf f3 3b 99 4d b4 3d 06 d2 91 3d 33 93 d4 3c
       0.007440549 0.08803863 0.07120137 0.025949096
0002d0 35 e4 c6 3d a3 ae 3c 3d ce 38 a1 3c d6 b7 b2 bc
       0.09711496 0.046064984 0.019680407 -0.021816175
0002e0 ef af 63 3d 13 44 ae bd 01 99 d9 bd 33 b3 24 bd
       0.055587705 -0.08509078 -0.10624886 -0.04020996
0002f0 6e dc be bd 17 28 b7 bd 81 12 19 3d 95 4e ce bd
       -0.093193874 -0.089431934 0.037371162 -0.10073582
000300 d2 2f ab bc 65 db aa bc 25 3b 52 bd 4f 3e c6 bd
       -0.020896826 -0.020856569 -0.051325936 -0.09679853
000310 73 42 da 3d 72 9d ca bc b2 cd 2c bb 9d 59 a6 3b
       0.106572054 -0.024733279 -0.002636772 0.0050766007
000320 ca b9 d3 bd 16 a4 90 bd ce d0 d6 bd b7 e0 57 bc
       -0.10338171 -0.07062547 -0.10489045 -0.013176135
000330 fe 06 fd bc 99 7f bb bc 7e 6f 9a bd 05 52 95 bd
       -0.030887123 -0.022887992 -0.07540797 -0.072910346
000340 8e 7b ce ba 02 36 dd 3d af 04 b2 bd 14 e5 0c bd
       -0.0015753375 0.10801317 -0.086922996 -0.034398153
000350 8d dc 56 bd 2f 95 df bd ee fa e7 3b 9a 11 ab bd
       -0.052456427 -0.109171264 0.0070794737 -0.083529666
000360 d4 4d 5d 3c d4 c3 14 bd 20 25 e4 bd f6 8b 7f bd
       0.013507325 -0.03631957 -0.111398935 -0.062389337
000370 35 b7 71 39 9a 65 4f bd 4c de d2 bd 1d 17 ea bd
       0.00023051801 -0.050634004 -0.10296306 -0.1143019
000380 9a 94 71 bc b4 ce 4c bb 66 18 ca 3d 4f f6 a5 3c
       -0.014744902 -0.0031251134 0.09867935 0.02025905
000390 81 13 5c 3d 7f 3e ac 3c 6d 2d d7 3d 9f 83 b6 bd
       0.053729538 0.021025894 0.10506711 -0.089118235
0003a0 4e 2e b9 3c bf 8e 94 3c ef 29 14 bc 59 87 34 bd
       0.022605088 0.018134473 -0.009043201 -0.04407439
0003b0 da bd ca 3d 77 9f ca bb f0 44 ea 3d ec 5a 42 bb
       0.098994926 -0.0061835605 0.1143893 -0.0029656244
0003c0 ea e8 fa 3c 08 bf 5e bd b7 96 bc bd 35 f5 45 3c
       0.03062864 -0.0543814 -0.09208434 0.012082388
0003d0 88 98 2b 3c 7f 2f 8f bd c6 8d dd 3d d2 b7 84 bc
       0.010473378 -0.06991481 0.10818057 -0.016200934
0003e0 cf 77 89 bc ea a0 5a 3d 59 2c 82 bd d9 92 43 bd
       -0.016780762 0.053376116 -0.06356115 -0.047747467
0003f0 13 6d b9 bd 31 18 0b bc cf f7 bd bd 63 8c e0 3c
       -0.090540074 -0.008489654 -0.09275781 0.027410692

bias f4 [12]
000000 1a fc db 3d af da 8f bd c5 25 2b bd 98 53 19 3d
       0.10741444 -0.070241325 -0.041784067 0.037433237
000010 97 1a 73 bd 2e ed e4 3b 6c 1d c6 3d 7b 3e 92 bc
       -0.05935153 0.006986282 0.096735805 -0.017852059
000020 d5 58 10 bc ee 34 c5 bd 4f c8 2b 3d b5 39 c0 3d
       -0.008810242 -0.09629236 0.041939076 0.09386007

weight f4 [12]
000000 c9 fe 7f 3f c5 ff 7f 3f ba fb 7f 3f 2b 00 80 3f
       0.99998146 0.9999965 0.9999348 1.0000051
000010 05 ff 7f 3f 7f fb 7f 3f e8 fb 7f 3f fe ff 7f 3f
       0.99998504 0.9999313 0.99993753 0.9999999
000020 0e 00 80 3f 04 00 80 3f 11 00 80 3f 21 00 80 3f
       1.0000017 1.0000005 1.000002 1.0000039

bias f4 [12]
000000 df 36 b7 38 e3 41 67 b5 59 60 01 b9 f5 03 13 39
       8.7363405e-05 -8.6150084e-07 -0.00012338291 0.00014020487
000010 24 ff 65 38 36 fc e2 b8 32 ae 05 b9 b7 0c 21 b8
       5.4835473e-05 -0.00010823498 -0.00012748761 -3.8397233e-05
000020 ab 19 a6 38 53 35 8c b8 1c 85 44 37 3d d2 ed 38
       7.920278e-05 -6.6856526e-05 1.1713502e-05 0.000113402006

running_mean f4 [12]
000000 9b 48 68 3e da bc 99 be 70 94 30 bf fb b0 63 3b
       0.22683947 -0.30026895 -0.689765 0.003474294
000010 43 9f 6c 3e fc bd 73 3d 1a 05 95 3e 54 f5 fc 3c
       0.23107629 0.059507355 0.29105455 0.0308787
000020 bb 1f 05 3c df 6d 43 3e 2a c6 5b 3e 2a f1 88 3e
       0.008125241 0.19084881 0.21462312 0.26746494

running_var f4 [12]
000000 e2 0a 45 3c c6 9e 07 3d 87 3d 7b 3e e8 e9 02 3b
       0.01202652 0.033110403 0.2453519 0.0019975845
000010 15 6f 61 3d 87 bf 50 3b dd 5f f4 3c 23 3e 65 3b
       0.055037577 0.003185244 0.029830867 0.0034979663
000020 8c 26 5e 3c 95 fe 44 3d 93 c6 8c 3c 97 03 ca 3c
       0.013558995 0.04809435 0.017184531 0.024659915

weight f4 [12, 12, 5, 5]
000000 fe f7 42 bd a4 b1 5d bc 8e a0 65 3d 30 8e e4 3a
       -0.047599785 -0.013531122 0.05606132 0.0017437395
000010 03 4a 61 bb 38 16 b4 bc c9 d7 92 bb 6b c5 3d 3c
       -0.003437639 -0.021983251 -0.00448129 0.011582713
000020 10 77 36 bd b8 62 4e bb be 03 89 3c 0f 20 50 3c
       -0.04454714 -0.0031491946 0.016725417 0.012702956
000030 91 d1 a8 3c 90 ad a3 3c 52 f7 bf bb 38 38 9f 3c
       0.020607742 0.019980222 -0.0058583403 0.019435987
000040 15 28 26 3d ce 5e 97 bc ec 74 3b bd f4 09 9a 3c
       0.04056557 -0.018477824 -0.045765802 0.018803574
000050 1f 6c 20 3d d2 b0 97 3c 68 e7 19 bd ec b0 f5 3c
       0.039165612 0.018516932 -0.0375742 0.02999159
000060 ef 29 b1 3b 36 cb 6a 3d 1b fa 39 bd 65 de fd bc
       0.00540661 0.057322703 -0.045404535 -0.030989835
000070 d5 01 30 bc 2f f2 3f bd 70 4e 48 3d b3 00 c4 bc
       -0.010742624 -0.046861824 0.04890293 -0.023926115
000080 12 41 0a bd bc 34 c1 3c f6 12 00 3d e1 e3 3b 3d
       -0.033753462 0.023584716 0.031268083 0.04587162
000090 ea d8 af 3c f3 40 b4 bc 33 40 17 3d d8 87 07 bd
       0.021465737 -0.022003626 0.03692646 -0.033088535
0000a0 b4 26 21 3d 44 20 ea bb 92 25 b0 3c 2e 33 83 3c
       0.03934355 -0.0071449596 0.02150229 0.016015615
0000b0 d3 fc d4 bc 16 49 7a bc 91 2f 05 3d 57 93 87 ba
       -0.025999462 -0.015276214 0.032516066 -0.0010343593
0000c0 14 08 04 bd 8a cf ca bc f2 d7 08 bd 7d 8b 1f bd
       -0.032234266 -0.024757165 -0.033409066 -0.038951386
0000d0 08 46 80 bc c8 64 4f 3d 33 9e cd bc ae 20 9e bc
       -0.015658394 0.050633222 -0.02509985 -0.019302692
0000e0 08 05 80 bc 1c b8 fc bc b4 6f 05 bc 57 25 ef bb
       -0.0156274 -0.030849509 -0.008144308 -0.0072981524
0000f0 98 b2 68 3d 68 b2 00 3d 14 e6 9e 3c 5a 03 1d ba
       0.056810945 0.03142014 0.01939682 -0.0005989574
000100 d9 a6 c2 3b 56 4e 69 bc 06 99 17 bc 7a bd 44 3d
       0.0059403 -0.014239868 -0.009252792 0.04803226
000110 fb d3 02 bc 9e e4 22 bc e0 fc 4d 3d f1 4f a1 3a
       -0.00798511 -0.009942202 0.05028999 0.001230715
000120 06 ab 6b 3d 1d d3 1b 3c 49 94 65 3c f3 0e 1b bd
       0.057536148 0.009510783 0.014012405 -0.037856054
000130 13 47 41 bd 3c 5d f4 3c a4 3b 05 3d af 99 62 3d
       -0.047186922 0.029829614 0.03252758 0.055322345
000140 96 60 be bc f4 47 56 bd 56 9d 8b bb f8 ce 2e 3d
       -0.023239415 -0.052314714 -0.0042606993 0.04267785
000150 71 d1 53 bd e2 99 5f 3d e5 0e 55 3d 65 38 22 bd
       -0.05171341 0.054590113 0.052016158 -0.039604563
000160 68 61 35 bc ca 06 fa 3c e9 60 28 3d 00 dc 6a bd
       -0.011070587 0.030520815 0.041108046 -0.057338715
000170 28 4d 47 bd 80 a6 fd 3c 7e 3f 19 3c c8 2f 99 bb
       -0.048657566 0.030963182 0.009353517 -0.0046748854
000180 f8 5e 58 3d 32 85 4f bd e7 b4 22 bd 49 6b e8 bc
       0.052824944 -0.050664134 -0.039723303 -0.02837147
000190 7f 61 69 3d fe bc 37 bc c8 2e 57 3b 31 46 5d 3c
       0.056977745 -0.011214493 0.003283428 0.0135055045
0001a0 65 b0 35 3d d2 fa 52 3d b8 a5 3a 3d d0 89 5f 3d
       0.044357676 0.051508732 0.045568198 0.054574788
0001b0 b1 12 66 bb 28 dc 01 bd 9a c9 05 3d 63 02 49 3d
       -0.0035106356 -0.031704098 0.032662965 0.04907454
0001c0 6d 9d b3 bb 45 a8 f2 3c e7 99 c0 bc 47 5c 3a bc
       -0.005481413 0.029621253 -0.023510886 -0.01137454
0001d0 21 00 87 3c 20 c8 6c 3d 2d bb e2 3c 02 55 a8 3b
       0.016479554 0.05780804 0.027677143 0.005137087
0001e0 ae b7 8d 3c 01 b9 66 bc be 48 15 bc 58 23 ce 3c
       0.0172995 -0.014082194 -0.009111581 0.025163338
0001f0 05 d0 8c bc 11 b0 39 bd 2d 15 d3 bc 0d 33 b6 bc
       -0.017189035 -0.045333926 -0.025766933 -0.02224114
000200 5f 12 3f 3d 75 10 4b bd ef 99 38 bd df 34 16 3d
       0.04664838 -0.04957624 -0.045068678 0.036671516
000210 77 eb 0f bd c5 8c 2e bc fd 40 d2 bc 49 fd 35 3d
       -0.035136666 -0.010653679 -0.025665754 0.044431005
000220 93 20 57 3c 1f 07 a0 bc 56 b0 83 bc 28 e4 f4 bb
       0.013130325 -0.019534646 -0.016075294 -0.0074734874
000230 62 ce cd bc 68 ce 29 bd b9 a5 f5 bc 7e b9 f0 3c
       -0.025122825 -0.04145661 -0.02998625 0.029385325
000240 e1 b5 02 bd 79 b5 6a 3d a5 00 29 bd 1f 53 ed 3b
       -0.031911734 0.057301972 -0.04126038 0.007242575
000250 fa 39 36 bb 2a 18 ea 3b f7 4d e7 39 e8 43 44 bd
       -0.0027805553 0.007143994 0.00044117842 -0.047916323
000260 5c 6f 62 bb f8 5c 77 bc 83 32 0c bd 9f b4 4f bd
       -0.0034551239 -0.015097849 -0.03422786 -0.050709363
000270 ea 9e 33 3d 0a 67 1e 3a a7 e2 49 3b fa 34 a8 3c
       0.043852724 0.00060425757 0.0030805261 0.020533074
000280 dc 3b 43 bd 88 14 d6 bc 96 03 d6 bc 54 35 17 bd
       -0.04766451 -0.026132837 -0.026124757 -0.036916092
000290 00 4d fb ba 6e 24 37 3d 04 00 44 bd 06 fe a3 3c
       -0.0019172728 0.044712476 -0.047851577 0.020018589
0002a0 02 fc b9 bc 5f 6c 07 bd 04 a9 c1 3c a1 c7 ec bc
       -0.022703175 -0.033062335 0.023640163 -0.028903784
0002b0 0d e2 cf 3c 45 a2 64 3d 37 fe 21 bd 35 b3 ff bc
       0.025376344 0.055818815 -0.03954908 -0.031213382
0002c0 84 5e c6 bc 33 a0 53 3d 85 71 2d bc 38 8f 45 bd
       -0.02421499 0.05166645 -0.010586147 -0.048232287
0002d0 47 20 14 3c dd 3f 66 3d 72 62 b0 3c c2 61 2a 3d
       0.009040899 0.05621325 0.021531317 0.041597135
0002e0 76 21 c1 3c c1 10 4d bd 63 2e 45 bd 8f c1 e8 bc
       0.023575526 -0.050064806 -0.04813994 -0.028412608
0002f0 1d 74 9e bc dc 03 cb 3c 4f 47 40 bd 1f 0a 03 bd
       -0.019342477 0.024782114 -0.046943005 -0.031992074
000300 44 44 d6 bc 1d 89 50 3d 3e ac 10 3d 86 7d a6 3c
       -0.026155598 0.05091201 0.035320513 0.020323526
000310 1e 1c 87 3c a0 d0 23 bb 68 60 47 bd 2e 40 17 3d
       0.0164929 -0.0024996176 -0.048675925 0.03692644
000320 af 61 a5 bb cf e9 28 3d 09 bf 18 3a 48 4b 79 3c
       -0.005047045 0.041238602 0.00058268063 0.015215702
000330 20 90 4c 3d 8c 45 07 bd 0c f2 00 bc 01 8a 65 3d
       0.049942136 -0.03302531 -0.0078702085 0.056039814
000340 2b 8d 55 bd 3c 76 d0 3c fc 5e 07 bd 7b 20 55 3d
       -0.05213658 0.025447004 -0.03304957 0.05203293
000350 6e 8a 96 3b d1 60 89 bc 87 fd bb 3c 1e af 4e bd
       0.004594139 -0.016769798 0.02294804 -0.050459974
000360 03 e9 18 bd a6 c8 66 3d 79 19 32 3d 64 63 a2 3b
       -0.037331592 0.056343697 0.043481324 0.004955696
000370 c1 9f 04 bd db 81 05 3d d3 3c 92 3c 9d d8 26 3d
       -0.032378916 0.032594543 0.017851269 0.040733922
000380 ae 88 42 bd 42 7a 21 3d ca b6 9e 3c 04 96 66 bd
       -0.04749363 0.039423235 0.01937427 -0.05629541
000390 35 61 18 bd 09 5e 28 bd 68 3d 69 3d 25 30 70 3c
       -0.03720208 -0.041105304 0.056943327 0.014659916
0003a0 8b 1a b2 bc 24 05 a1 3c 7e 04 0c 3d 64 67 ba bc
       -0.021741172 0.019655772 0.03418397 -0.022754379
0003b0 73 2e 01 bb d0 34 b4 3c c5 88 e0 3c a7 ed b6 3c
       -0.0019711524 0.02199784 0.027408967 0.022330118
0003c0 3f 8b a7 bc 1a a5 a9 3b 85 48 66 bd 0d 6a af bc
       -0.02045214 0.0051771523 -0.056221504 -0.021412874
0003d0 f4 8d f6 3c 2e a0 4f bd 4d af 5e bd 32 af 42 3d
       0.030096985 -0.05068987 -0.0543664 0.04753036
0003e0 e8 9d df 3c a8 88 f3 3c ad 48 28 bd 67 15 93 bb
       0.027296975 0.029728249 -0.041084934 -0.0044886353
0003f0 ee 20 7a 3c 17 be 1c 3c d1 46 74 3c fd 68 53 bd
       0.01526664 0.009566805 0.014909462 -0.051613797

bias f4 [12]
000000 04 22 1c 3c 05 b2 20 3c dd b9 59 3d b2 f2 1e bd
       0.009529594 0.009808068 0.05315577 -0.03880567
000010 df ee 65 3d 73 b3 6d bb b4 5b 42 3b 94 00 db 39
       0.05613601 -0.003627029 0.002965671 0.00041771366
000020 31 25 3a bd 45 6e 55 bd a6 c1 f8 bc 75 0f 8c bc
       -0.045445625 -0.052107114 -0.030365776 -0.017097214

weight f4 [12]
000000 10 00 80 3f 09 fb 7f 3f 34 00 80 3f 05 00 80 3f
       1.0000019 0.99992424 1.0000062 1.0000006
000010 12 00 80 3f 0f 00 80 3f 02 fc 7f 3f 0c fb 7f 3f
       1.0000021 1.0000018 0.9999391 0.9999244
000020 87 fc 7f 3f 04 00 80 3f 14 00 80 3f 1e 00 80 3f
       0.999947 1.0000005 1.0000024 1.0000036

bias f4 [12]
000000 81 70 b3 b8 5d 1b 83 b8 67 66 fa 38 9c e2 f1 b8
       -8.5563406e-05 -6.2516636e-05 0.00011940003 -0.00011533985
000010 f9 65 99 37 ee 2f 54 37 ab 69 67 b8 0e 13 f8 b8
       1.8286506e-05 1.2647344e-05 -5.5173103e-05 -0.00011829111
000020 2c 39 67 b8 fb e3 df b6 2b 04 ce 38 d7 ab e7 38
       -5.5127937e-05 -6.6724583e-06 9.823622e-05 0.00011046946

running_mean f4 [12]
000000 b7 c9 c4 3d fb 55 35 3e da 63 e0 3e 22 0b 97 3d
       0.096087866 0.1770858 0.4382618 0.0737517
000010 15 53 93 3e bc 2e 39 bd 4b 4f 86 be fc 81 0a be
       0.28774324 -0.045210585 -0.2623237 -0.13526148
000020 17 76 01 3e 13 c4 40 be 98 11 01 be c1 33 14 be
       0.12642704 -0.18824796 -0.12604368 -0.14472868

running_var f4 [12]
000000 98 4d 32 3d 67 f7 e4 3d 85 aa b8 3e 04 26 74 3d
       0.04353103 0.11180001 0.36067596 0.059606567
000010 e6 90 67 3e 24 75 03 3e c3 02 9c 3d 8b da 88 3d
       0.22613868 0.12837654 0.07617714 0.06682309
000020 ff 2b b9 3d c6 a8 60 3d 1b 7b 65 3e f3 a0 dd 3d
       0.09041595 0.054848455 0.22410242 0.10821714

weight f4 [24, 12, 5, 5]
000000 1e 31 95 3c f0 d6 a1 3c 4d e6 c8 bc 53 69 7f 3c
       0.018211897 0.01975581 -0.024523878 0.015589076
000010 6b 1c 4f bd 48 c7 0f bd b3 ac 1d bd fb 9b 5e bd
       -0.05056421 -0.03510216 -0.038494777 -0.054347973
000020 db 58 84 3c b5 9c df bc 58 e9 44 3c 94 8c 2c 3d
       0.01615565 -0.027296403 0.012018524 0.042126253
000030 92 8f 56 bd 67 b3 2f bd c3 f6 48 bd 30 bf a4 bc
       -0.052383013 -0.0428957 -0.049063455 -0.020110697
000040 a1 21 0d bd f5 7b 60 3d 40 bf ae 3c 66 90 19 3d
       -0.0344559 0.054805715 0.02133143 0.037491225
000050 bb b9 5c 3d fb ff 11 3d 19 47 37 3d f0 be 4b bd
       0.053888064 0.035644513 0.04474554 -0.04974264
000060 c3 34 29 bd 2c 08 c4 3b 82 72 ef 3c b6 2f ca 3c
       -0.041310083 0.0059824195 0.029229406 0.024680953
000070 f1 e0 3f 3d e0 40 b4 bc aa 33 06 3d 7a 6e 8b 3c
       0.04684538 -0.022003591 0.032764114 0.017020453
000080 d4 03 f6 3c 21 3e 01 bd cb e6 2a 3c 89 ee a8 3c
       0.030031122 -0.03155339 0.010431002 0.020621555
000090 24 7b 0b bb db 37 26 bd 87 e0 f7 3c 32 5c 23 bd
       -0.0021283114 -0.04058061 0.03025843 -0.039882846
0000a0 21 7c 9a 3c b4 a7 3c 3c 18 74 15 bd a8 36 14 3d
       0.018858017 0.011514593 -0.03648767 0.036184937
0000b0 e2 04 9e 3a 9e d9 0c bd 32 f9 5f 3b 77 ec 31 3d
       0.0012055899 -0.034387223 0.0034175632 0.0434384
0000c0 09 08 f5 3b ee e8 61 3d 4d bf 26 3d a5 cf 79 3c
       0.0074777645 0.05515378 0.040709782 0.01524726
0000d0 c4 02 3f 3d 8d c1 26 3d eb 23 ab bc 49 5a a4 3c
       0.046633497 0.04071193 -0.02089115 0.020062583
0000e0 f1 35 32 3c e5 48 18 bd f0 af 34 bc 69 b0 82 bc
       0.010877118 -0.037178893 -0.011028275 -0.01595326
0000f0 be 35 f9 bc e4 fd 1e bd e4 35 4e bb 7b 00 98 bb
       -0.030421134 -0.038816348 -0.0031465227 -0.004638729
000100 ba 10 c2 bc 97 d9 c7 bb 5b c1 16 bd b6 08 37 bd
       -0.023689616 -0.006098937 -0.036805492 -0.04468604
000110 07 c6 ff 3c c1 fe 3f bc 30 3a c2 3b c7 08 4a bd
       0.031222356 -0.011718453 0.0059273466 -0.049324777
000120 08 e6 53 3c 2c e3 27 3d e4 6e 16 3d 31 33 44 bd
       0.012933262 0.040988132 0.036726847 -0.047900382
000130 8e 06 b5 bc 75 aa 3c 3d 64 f9 96 bc fc 1e 4b bb
       -0.022097852 0.046060998 -0.018429466 -0.003099381
000140 18 b8 9f bc 13 df ae 3c 34 28 31 3c 91 e0 f3 3c
       -0.019496962 0.021346604 0.010812808 0.029770168
000150 76 23 0e bd ec 04 c2 bc a1 4c 0f 3d 1c ac 29 ba
       -0.034701787 -0.023683988 0.03498519 -0.00064724847
000160 e3 4c fc 3c 74 3b 5b 3c d6 38 58 3d f6 6e fb 3b
       0.030798381 0.013380874 0.052788578 0.0076731397
000170 68 12 3f bd 44 4e 5f 3d 0c 9b 2d 3b 3d ff 80 3c
       -0.046648413 0.054518 0.002649012 0.015746707
000180 c5 fd 3c bd d2 f6 65 3d cc fe 2d 3d ef 91 07 bd
       -0.04614045 0.05614359 0.04247932 -0.033098157
000190 15 b6 b6 bc 00 5c 5b 3d 4b 00 40 3d 02 5e 37 bc
       -0.02230362 0.053554535 0.04687528 -0.011191847
0001a0 79 12 5c 3b b5 15 3d bd 8f 64 7b 3c 55 ff a9 3b
       0.0033580346 -0.04616328 0.015343799 0.0051879087
0001b0 f7 c1 4e 3c 3f ef 5a 3d fc ba 29 bc 31 d9 8b bc
       0.012619487 0.05345082 -0.010359522 -0.017071338
0001c0 a0 72 bc 3c af 39 1e bc d9 9e 1e 3d 0a 87 b4 3c
       0.023003876 -0.0096573075 0.038725708 0.022037048
0001d0 ad 22 cb bc 28 f7 63 bc a6 29 2e 3c 06 46 b5 3b
       -0.024796808 -0.013913907 0.010630047 0.005532029
0001e0 42 0c 59 3d b8 2c f5 bc 6b e4 a1 3c cb ed 85 bc
       0.052990206 -0.02992855 0.019762238 -0.01634874
0001f0 90 5f 4c 3d 3b 64 59 bd c1 06 19 3c bb f3 50 bd
       0.049895823 -0.053074103 0.009339989 -0.05101369
000200 68 b4 0d 3b 5c 86 78 bc ac 79 08 bc bc b3 3f bc
       0.0021622423 -0.0151687525 -0.00832979 -0.011700567
000210 fe 17 29 bd 07 27 68 bc 2d 00 9e 3c 7f 78 2a 3d
       -0.041282646 -0.014169461 0.019287193 0.04161882
000220 6a 7b bf bc 78 7f 61 bd b4 a4 ab 3c c2 84 69 bd
       -0.023374278 -0.055053204 0.02095256 -0.057011373
000230 fb 83 d4 bc db 70 6f bc 03 8f e9 bc 42 fb 14 3d
       -0.02594184 -0.014614309 -0.028510576 0.03637243
000240 27 8e 90 bc 9f 84 07 bd 99 1e 30 bd 13 9b 43 3c
       -0.017645909 -0.03308546 -0.04299793 0.011938828
000250 0c c8 18 bd b8 a6 dd 3c 87 96 50 3d 3d c4 a4 3c
       -0.037300155 0.027057037 0.050924804 0.020113105
000260 98 9f 3f 3d 9b c4 91 bc 0b c7 29 bd 40 ab 1b bd
       0.04678306 -0.017793944 -0.041449588 -0.038005114
000270 f6 25 cc bb d9 4e b5 3c 21 9a b2 bc b0 cb 3b bd
       -0.0062301112 0.022132324 -0.02180201 -0.04584855
000280 c2 6e 2e 3d de 6b 2b 3d 27 02 0f bd 42 3a b0 3b
       0.042586096 0.041850917 -0.034914162 0.0053780386
000290 ca 3b 48 3d 95 fd 14 3c 2d 51 29 bd 79 1f 3a bd
       0.048885144 0.009093662 -0.04133718 -0.04544017
0002a0 f1 e9 54 3d 41 75 41 3d f2 db 0e bd f7 ad 34 3d
       0.051980916 0.047230963 -0.034877725 0.04411122
0002b0 89 1b 56 bd 99 f3 69 bd e7 8c 5a bd 1a 94 c6 bc
       -0.052272353 -0.05711708 -0.05335703 -0.024240542
0002c0 e0 d9 0e bd d5 33 ea bc 97 58 cc bc c3 20 0c bd
       -0.03487575 -0.028589169 -0.024944587 -0.03421093
0002d0 57 8d 21 3c 7a be 32 3d 2e e0 44 3d 44 48 3c 3d
       0.009860358 0.043638684 0.048065357 0.045967355
0002e0 10 fb 3d 3d ee 91 15 3d ff 9e 51 3c 29 a6 ce 3c
       0.04638201 0.036516123 0.012794255 0.025225716
0002f0 5f 56 df bc 37 a2 01 3d af 14 c7 bc 67 80 63 3c
       -0.027262865 0.03164884 -0.024301855 0.013885594
000300 a4 07 14 3d 86 ad 4f ba 02 b6 bf 3c d2 87 09 bd
       0.0361401 -0.00079222803 0.023402218 -0.033576794
000310 82 49 ed 3b 93 e4 67 3c c5 91 b2 3c 97 39 fe 3c
       0.007241429 0.014153617 0.021798024 0.03103332
000320 f4 7c dc bc 5a f2 43 bd 0d 81 0f 3d 3d e9 30 3d
       -0.026915051 -0.047838546 0.03503518 0.043191183
000330 15 3b 1c bd 06 b9 1c bd d2 00 39 3d 7b a5 f6 ba
       -0.038142283 -0.03826239 0.045166798 -0.0018817628
000340 7d 7e 63 3d 43 30 49 3d 23 17 2e bd a8 26 04 3d
       0.05554055 0.04911829 -0.042502534 0.032263428
000350 09 8b 81 bc e2 cf 96 bc 41 04 eb 3c 13 26 96 bc
       -0.015813367 -0.018409673 0.028688552 -0.018328702
000360 9f f1 8e 3c 7c 71 2a bd 78 cc 01 bd 9e 89 32 bc
       0.017449198 -0.041612133 -0.031689137 -0.010897068
000370 5d e9 d0 3b 1d 4d 2b 3d 59 5b 02 bc a1 63 5d 3c
       0.0063754753 0.041821588 -0.007956349 0.013512523
000380 95 f9 d2 3c 85 35 b2 bc 4b 96 1c 3c f1 f7 ab bc
       0.025753776 -0.021754036 0.009557317 -0.020992251
000390 a7 d6 e7 3c 15 bf 2b bd e8 c1 2c 3d 0f e7 c4 3c
       0.028300596 -0.041930277 0.04217711 0.024035959
0003a0 13 08 c7 3c e7 e8 05 3d b8 97 52 bd 9b 12 60 bb
       0.024295842 0.032692816 -0.05141422 -0.0034190777
0003b0 4d 8b f9 3c 6b ca fe 3c 85 50 68 bd a2 77 2d 3d
       0.030461932 0.03110238 -0.056717414 0.04235042
0003c0 3c f6 13 bd 31 94 df 3b 6a 29 95 bc b3 75 6b bd
       -0.0361235 0.0068230857 -0.018208224 -0.057485294
0003d0 c9 76 9e 3b dd 24 27 bc 6c c8 e2 bb bb f9 25 3d
       0.0048359376 -0.01020166 -0.006920865 0.040521365
0003e0 9e e2 cc bc 3e 98 c3 bc b3 f8 f9 3b fb ef 57 bd
       -0.025010403 -0.023876306 0.007628524 -0.052719098
0003f0 25 0e 0a 3d 6b 60 ba bc 71 8e d5 3c 3e 18 c2 3b
       0.033704896 -0.022751054 0.026068898 0.0059233

bias f4 [24]
000000 b7 60 47 bd 7e f7 fa 3c 23 88 d7 bc 34 b5 65 3d
       -0.04867622 0.030635592 -0.026310032 0.056081012
000010 5b 54 30 3d 17 41 a2 3c 66 2a 18 3c 16 38 c4 bc
       0.043049198 0.019806428 0.009287452 -0.023952525
000020 fe 6d d4 3c a1 37 06 bd 60 3e 84 bc 63 47 a0 3c
       0.025931355 -0.032767896 -0.016143024 0.01956529
000030 93 d5 7f bc f2 45 13 3d dd eb 1a 3c ec 3b d4 3c
       -0.015614885 0.035955377 0.009455648 0.02590748
000040 d3 1f 52 3d 38 e6 02 bc c6 d8 11 bd d5 ba 47 3c
       0.05129988 -0.007989459 -0.035607122 0.01219054
000050 1a db b5 3c 4f 71 32 3c 14 c3 37 bd 98 de ff 3c
       0.022199202 0.010891273 -0.044863775 0.03123407

weight f4 [24]
000000 b0 fc 7f 3f 0e ff 7f 3f ee fb 7f 3f 08 00 80 3f
       0.99994946 0.9999856 0.9999379 1.000001
000010 1e 00 80 3f 15 00 80 3f f4 00 80 3f 23 fc 7f 3f
       1.0000036 1.0000025 1.0000291 0.99994105
000020 05 00 80 3f 9d ff 7f 3f 12 00 80 3f c3 fd 7f 3f
       1.0000006 0.9999941 1.0000021 0.99996585
000030 dd fc 7f 3f 04 00 80 3f 02 00 80 3f 09 00 80 3f
       0.99995214 1.0000005 1.0000002 1.0000011
000040 76 ff 7f 3f 00 00 80 3f 22 00 80 3f d7 fa 7f 3f
       0.9999918 1.0 1.000004 0.99992126
000050 0d 00 80 3f bb fb 7f 3f 02 00 80 3f 01 00 80 3f
       1.0000015 0.99993485 1.0000002 1.0000001

bias f4 [24]
000000 75 17 75 b8 fe 27 35 b8 d5 3c 8a b6 89 74 0d 38
       -5.8434398e-05 -4.319101e-05 -4.1198023e-06 3.372555e-05
000010 f9 8d a6 38 cc 1d 4f b7 25 c8 5b 39 53 45 bd b8
       7.941941e-05 -1.2345099e-05 0.00020960027 -9.025135e-05
000020 de f4 75 38 26 4a a5 38 e8 a3 95 b8 f0 4a a1 b8
       5.8640602e-05 7.881624e-05 -7.1354036e-05 -7.6910364e-05
000030 a3 66 f1 b8 f9 61 e1 37 ec 37 a6 38 6e 08 91 38
       -0.00011510893 2.6867712e-05 7.925913e-05 6.915709e-05
000040 07 a8 75 b7 b4 53 49 b8 1f 6e 7d 38 cd 45 d4 b8
       -1.464226e-05 -4.800009e-05 6.042246e-05 -0.00010121949
000050 83 3c b1 b8 de 29 ae b8 76 9a 61 38 c8 a8 b8 38
       -8.451289e-05 -8.304765e-05 5.3788033e-05 8.805242e-05

running_mean f4 [24]
000000 8c f7 21 3e e7 0f 6e be aa 78 2d 3f 7f a5 71 3d
       0.15817088 -0.23248254 0.67762244 0.05899572
000010 5c e1 af 3b 7b a3 0d be b7 95 14 3f 21 08 59 3e
       0.005367441 -0.13831894 0.58040947 0.21194507
000020 34 15 49 bf 0c 57 0f bd f7 bb 6d 3e bd 1c e0 3e
       -0.7854798 -0.034995124 0.23216234 0.43771926
000030 0e 80 ac 3d 1a e0 e3 3e fc d0 2b be 98 8c cf be
       0.08422862 0.44506913 -0.1677894 -0.40536952
000040 99 5f 84 be 37 c8 02 bd a9 e2 c3 bd 9c 63 de 3e
       -0.25854185 -0.03192922 -0.09564716 0.4343537
000050 2b 56 04 3e 11 11 97 bd 5c f4 e6 bd ab 47 07 3d
       0.12923495 -0.07376302 -0.112770766 0.033027332

running_var f4 [24]
000000 55 50 82 3e e9 48 e3 3d cb 06 2d 3f 8c 47 56 3e
       0.25451913 0.11097891 0.6758849 0.2092573
000010 2a 99 b6 3d e3 92 ee 3d d5 d7 98 3e d9 b9 0c 3e
       0.089159325 0.1164911 0.29852167 0.1374277
000020 e7 1c d2 3e 94 ae 27 3e c4 e3 d8 3d 0a c7 c3 3d
       0.41037676 0.1637519 0.10590318 0.09559448
000030 24 4e a8 3e c2 cf 28 3e b7 bd 80 3e 78 6e 67 3e
       0.32872117 0.16485503 0.2514474 0.22600734
000040 7d d3 e8 3d e4 42 50 3e 79 51 f8 3d fa 47 0b 3e
       0.11368463 0.20338017 0.12124915 0.13601676
000050 9e 48 18 3e fb 40 cb 3d 11 54 e9 3d cd 20 0d 3e
       0.14871451 0.099245034 0.113929875 0.13782044

weight f4 [24, 24, 5, 5]
000000 fb 49 dd bc 8a d5 84 3c 2d ed 9f 3b 99 96 98 3b
       -0.027012816 0.016215105 0.0048805685 0.0046566245
000010 b7 dc 10 3d 46 0a 55 bc 81 42 51 3b 74 ec 88 bc
       0.03536674 -0.013002938 0.0031930509 -0.016714312
000020 de f2 39 3c aa 0e ff 3b 88 3a b8 3c 99 0e e4 bc
       0.011349408 0.0077837305 0.022488847 -0.027838992
000030 a1 de 85 3c 2c 16 38 bb 56 ec b5 3c 30 24 a8 bc
       0.01634151 -0.0028089387 0.02220742 -0.020525068
000040 79 99 b3 bc a9 28 50 bc c8 22 d2 3c aa 57 69 bc
       -0.021923767 -0.012705007 0.02565135 -0.014242092
000050 ed 5b be bc 87 ae 09 3d a5 c8 85 3b ac 34 8d bc
       -0.023237193 0.033613708 0.0040827566 -0.01723703
000060 e8 0b ed bc 4e fb be 3c 3c 0d 04 3d e5 d8 1e bd
       -0.028936341 0.02331319 0.032239184 -0.038781065
000070 38 1e 45 3b 67 1a a1 3a 17 68 18 3d 04 c6 ae bc
       0.0030077826 0.0012291194 0.037208643 -0.021334656
000080 23 16 0e bc d9 e2 1e 3c 9c 06 8f 3c 89 41 4e bb
       -0.00867227 0.009697639 0.017459206 -0.0031472167
000090 dd 88 e2 3b b1 94 a9 bb 53 fc 17 3d f3 cb fe 3b
       0.006913288 -0.005175196 0.03710587 0.0077757775
0000a0 fd a7 0d 3d 8d b6 a6 bb a4 68 13 3c a2 31 e9 bc
       0.034584034 -0.0050876797 0.008997116 -0.02846605
0000b0 f7 67 a4 bc ee 5b 20 bc ec 12 8a bb 9f 0a 78 3c
       -0.020069106 -0.009787543 -0.0042136814 0.015139251
0000c0 00 50 0d bd 92 53 af bc 7f e7 d5 bc 37 6a f7 bc
       -0.034500122 -0.021402154 -0.026111363 -0.030202014
0000d0 59 35 25 3d 84 26 af 3b e9 86 82 bb 4c b2 c6 bb
       0.04033408 0.0053451676 -0.0039833677 -0.006063735
0000e0 98 65 65 bc ae 1b fc 3a 23 72 3d 3c 18 f7 c6 bc
       -0.014001273 0.0019234323 0.011562857 -0.024287745
0000f0 b2 21 8a bc 77 ad dd bc d5 10 b0 bc 4a 25 21 3d
       -0.01686177 -0.027060254 -0.021492401 0.039342202
000100 03 10 53 bc 76 75 b1 3a ab a1 22 bd f7 0f dd bc
       -0.012882235 0.0013539034 -0.03970496 -0.026985152
000110 87 f6 83 bc c9 6e 9a 3b 51 00 d3 bc 4c 33 15 3d
       -0.016108764 0.0047129137 -0.025756987 0.036425874
000120 d6 e0 cf 3c 4e 8f 82 3c 9b c5 8c 3c e9 8d 34 bc
       0.025375765 0.015937474 0.01718407 -0.011020162
000130 69 c7 20 3d 06 dc 13 bb 10 7e 56 3c 5d 5a c6 3c
       0.039252672 -0.0022561564 0.013091579 0.02421301
000140 50 bc 4a 3c b7 8e 30 3c 6f b7 06 bd 6f 31 28 3a
       0.012373999 0.010776213 -0.03288978 0.00064160576
000150 26 f4 0f 3d e4 0b 7f 3c 3d d9 95 bc d2 03 95 bc
       0.035144947 0.0155668 -0.018292064 -0.018190298
000160 67 1c a3 3c e4 bd 7f 3c 91 36 04 bd 17 e1 cb 3c
       0.019911004 0.015609238 -0.0322786 0.024887605
000170 77 cb f6 3c c9 0b fd bb 93 7a 0f bd d6 0a fe bc
       0.030126316 -0.007722352 -0.035029005 -0.031011026
000180 6c 73 35 bc 12 77 d0 3c ef 0c d2 bb 5f dd 67 bc
       -0.011074882 0.025447402 -0.006410233 -0.0141519
000190 7e f8 c0 3c 82 ee c7 bc 36 93 a2 bc 5c de f4 3c
       0.02355599 -0.024405722 -0.019845586 0.029891185
0001a0 d2 81 20 bd d8 de 5b 3c 27 05 22 3d 56 51 a9 bc
       -0.039186306 0.013419829 0.039555695 -0.020668667
0001b0 cd cb 43 3b 60 7f d3 3c be 72 7d bc 0d 79 37 3c
       0.0029876113 0.025817573 -0.015469251 0.011198294
0001c0 bd 6d 2d ba e3 6f 9e bc a7 7d 28 3b 9d 22 ed bc
       -0.00066157785 -0.019340461 0.002570966 -0.028947169
0001d0 8f 20 46 bb bc 4c 35 bc fc 00 0b 3d ee ad 94 bc
       -0.0030231809 -0.011065658 0.033936486 -0.018149342
0001e0 5c 08 42 3c 00 c4 1c bd f4 84 86 bc 57 88 a3 bc
       0.011842813 -0.038272858 -0.016420819 -0.019962473
0001f0 a1 eb 0f bd 63 59 ac bc a1 5f 6c bc a7 01 ce 3c
       -0.035136823 -0.021038717 -0.014427097 0.025147272
000200 cb a7 1a bd 71 42 14 bd ee 89 08 3c 74 32 d3 bc
       -0.037757676 -0.036196176 0.008333666 -0.025780894
000210 a1 93 14 3d 49 38 7a bc 30 fb 19 3c f2 c2 80 3c
       0.036273602 -0.0152722085 0.009398267 0.015717957
000220 83 7f a1 3c e0 ef 12 bd f8 bc f8 3c e1 f4 af 3c
       0.019714123 -0.035873294 0.030363545 0.021479072
000230 e4 e8 c6 bb 90 60 04 3d b9 42 2d ba 54 32 42 bc
       -0.006070243 0.03231865 -0.0006609369 -0.0118528195
000240 49 ba ec bc 3d cd 74 3c a2 a5 6c 3c a4 c6 25 3d
       -0.028897421 0.014941511 0.014443787 0.04047264
000250 17 f4 d0 3c 74 d9 e9 3b 08 ad c1 bc 54 24 23 bd
       0.025507016 0.007136518 -0.023642078 -0.039829567
000260 7a 60 83 bc 34 df be bb 95 51 a7 3c 4a 38 ab bc
       -0.016037215 -0.0058249477 0.020424644 -0.020900864
000270 d9 45 73 3c 6d 3d 44 bc 10 aa 15 3d 2f 69 0b bd
       0.014848196 -0.011977536 0.036539137 -0.034035858
000280 97 b7 a0 bc 4d 1e d0 bc e1 21 03 3d d8 a0 04 3d
       -0.019618792 -0.025405074 0.03201473 0.032379955
000290 3c 89 ad 3c 03 1c d3 3b 14 45 f5 bc 8f ee 34 3c
       0.021183603 0.0064425482 -0.029940166 0.011043205
0002a0 86 3f 21 bd 02 70 25 bd fa ef 0c 3d 1b b4 1b bd
       -0.03936722 -0.040390022 0.034408547 -0.03801356
0002b0 59 f8 d1 3c 00 72 84 3c f2 80 24 3c 0b 02 1e bd
       0.025631117 0.01616764 0.010040509 -0.038576167
0002c0 33 1f 13 bc 1e 7d c4 bb 48 0e 06 bd aa a5 5a 3c
       -0.008979606 -0.0059963604 -0.032728463 0.013345161
0002d0 b9 d5 01 3d 28 b0 b4 bc 67 07 f9 3c aa 1e 03 3c
       0.031697962 -0.022056654 0.030399038 0.008002916
0002e0 f2 57 1c 3d 74 d8 8d 3c 28 47 1b bc 10 68 83 3c
       0.03816981 0.017315127 -0.009477414 0.016040832
0002f0 42 22 a9 bc f7 13 a7 3b 23 98 19 3c 46 5d 91 bc
       -0.020646218 0.0050988155 0.009374651 -0.017744672
000300 7c db 1a bc 3d 52 1c 3d f8 40 be 3a d5 05 12 bd
       -0.009451743 0.038164366 0.0014515212 -0.035650093
000310 70 05 17 bb 1c 0b 2b bc eb 43 ca 3c 7d e6 d2 3b
       -0.0023044012 -0.01043966 0.024690589 0.0064361678
000320 17 7e 52 bc 5d 50 eb 3c 20 c6 b6 bc 9f a6 15 3d
       -0.012847445 0.028724844 -0.02231127 0.036535855
000330 8a d6 5b bb ec 9c 40 bc aa cc 81 3c 65 a6 79 3b
       -0.0033544623 -0.011756163 0.015844662 0.0038093564
000340 4f 93 b4 bc 07 c5 16 3d ae 99 f8 bc 4b 32 0b bc
       -0.022042898 0.036808994 -0.030346718 -0.0084958775
000350 98 70 53 bc d1 0a ff 3c 58 ca 7b bc 5f 8c de bc
       -0.012905262 0.031133087 -0.015368067 -0.027166544
000360 13 a8 0a 3d 05 12 03 3d a9 0f 25 3d b8 04 30 3c
       0.033851694 0.031999607 0.040298138 0.010743313
000370 6f 37 22 bd 86 67 f0 bc 26 b7 11 3d 35 48 eb ba
       -0.039603647 -0.029346239 0.035575055 -0.0017950597
000380 04 aa 96 3c 1b fc 17 bd 04 f5 6c 3c 8d 44 0e 3c
       0.018391617 -0.03710566 0.014462713 0.008683336
000390 23 af b4 3c e8 93 1e 3d e9 12 c2 bc 1d e5 aa 3b
       0.022056168 0.038715273 -0.023690658 0.0052153007
0003a0 c7 b4 81 3c 28 9d c7 3c 7d ee 1d 3c ac fe 18 bc
       0.015833272 0.02436693 0.00963938 -0.009338062
0003b0 e5 0f 00 3d a0 75 c6 3b 06 7c 0c 3d f2 ff 11 3d
       0.03126516 0.0060565025 0.034297965 0.03564448
0003c0 98 4a 1f 3d c7 dd a9 3c bb e3 f1 3b 5d cc fd 3c
       0.038889498 0.020735634 0.007381884 0.030981237
0003d0 b8 4f 10 3d 8c 4d 1f bd 80 b8 95 3c 06 bf 12 3d
       0.035232276 -0.038892314 0.018276453 0.035826705
0003e0 49 d2 17 3d 26 dc 15 bd 29 7a 00 3d d3 0c b6 3c
       0.037065778 -0.036586903 0.0313665 0.022222912
0003f0 7a 5d 0f bd 77 14 64 3c b4 d4 0c bd 12 61 ed bc
       -0.035001256 0.013920895 -0.034382537 -0.02897695

bias f4 [24]
000000 35 3a 80 3c 93 be 75 3c be 58 c2 bc cd 59 88 bc
       0.015652755 0.01499905 -0.023723956 -0.016644383
000010 51 e6 ec bc f7 46 e2 3c e8 d0 22 bd dd 2f a7 bc
       -0.028918417 0.02762173 -0.03975001 -0.020408565
000020 2c 6c 39 3b f6 16 42 3c f0 ae 17 3d 11 03 fe 3c
       0.0028293235 0.011846295 0.037032068 0.031007322
000030 a9 60 e0 bc 42 d8 15 3d 8a 05 8c 3c a9 d5 3f ba
       -0.027389841 0.036583193 0.017092485 -0.00073179096
000040 bc 32 77 3a 31 11 db 3b 59 ff 06 bd e9 47 ac 3c
       0.0009429862 0.006685399 -0.032958362 0.021030383
000050 0d 81 20 bc c3 3a 57 bc 46 c0 c2 bc 6a f2 f2 3c
       -0.009796393 -0.0131365685 -0.023773324 0.029656608

weight f4 [24]
000000 5c ff 7f 3f 66 fd 7f 3f 0d 00 80 3f 14 00 80 3f
       0.9999902 0.9999603 1.0000015 1.0000024
000010 27 00 80 3f 00 00 80 3f 8d fe 7f 3f 03 00 80 3f
       1.0000046 1.0 0.9999779 1.0000004
000020 f2 ff 7f 3f 06 00 80 3f ec ff 7f 3f 21 00 80 3f
       0.99999917 1.0000007 0.9999988 1.0000039
000030 00 00 80 3f 8e fb 7f 3f 82 00 80 3f 0b 00 80 3f
       1.0 0.99993217 1.0000155 1.0000013
000040 00 00 80 3f bc fe 7f 3f 12 00 80 3f 74 f9 7f 3f
       1.0 0.9999807 1.0000021 0.9999001
000050 0a 00 80 3f 2a 00 80 3f dd ff 7f 3f 00 00 80 3f
       1.0000012 1.000005 0.9999979 1.0

bias f4 [24]
000000 03 1d 8c b6 18 1e c4 38 34 bd 54 36 8e 5e f3 38
       -4.1757025e-06 9.351614e-05 3.1700592e-06 0.00011604755
000010 7f 96 50 39 71 3e bc 38 a9 c9 83 38 86 82 94 38
       0.0001989249 8.976169e-05 6.284129e-05 7.081502e-05
000020 57 38 6f 38 c0 0f db 38 ab 3c 94 38 25 e9 63 39
       5.703451e-05 0.000104456674 7.06849e-05 0.0002173526
000030 d7 4a 35 38 94 50 74 b8 4f bc 5f 39 2e 1f 36 38
       4.3223463e-05 -5.8249178e-05 0.00021337088 4.342122e-05
000040 b6 44 0e 39 ec 0b e3 38 4a d1 95 38 d7 0b 77 b8
       0.00013567772 0.00010826424 7.143857e-05 -5.8900416e-05
000050 e2 c2 e5 36 1d bf 24 39 58 4f 9c 38 12 ff d0 38
       6.847419e-06 0.00015711454 7.4534386e-05 9.9657234e-05

running_mean f4 [24]
000000 a5 c3 94 bd 1d 94 d4 3d de 0b 7d 3e 98 4d 95 3e
       -0.07263879 0.10379813 0.24711558 0.29160762
000010 1b 73 92 bc 3a d0 82 3e cb 1c 34 be 0c d5 45 3e
       -0.017877152 0.2554949 -0.17589109 0.19319552
000020 fc d0 07 3d 45 f5 1e 3c de 01 0f 3e 40 8e 3b 3e
       0.033158287 0.0097020315 0.13965556 0.18315983
000030 ca 8b 00 be 71 08 14 3e f8 90 98 3e 0e 5e 37 3c
       -0.12553325 0.14456345 0.29798102 0.011191858
000040 2e 1a 44 3e 21 83 b4 3d dc 16 06 3d ac 2f bd 3e
       0.19150612 0.08814073 0.032736644 0.36950433
000050 0c 35 e4 3c e9 98 b8 bd 9f 81 f2 bd 76 a2 fd be
       0.027857326 -0.0901354 -0.118411295 -0.4953801

running_var f4 [24]
000000 1c 8f 4f 3e 0f 1e 2f 3e 05 db 0e 3e 6d 79 21 3e
       0.20269436 0.1710131 0.13950737 0.15768977
000010 f2 31 b2 3d 0c f7 03 3e ba cd f0 3d fb 23 9a 3d
       0.087009326 0.1288721 0.11757989 0.07526394
000020 a4 17 d3 3d a2 e8 04 3e 32 e5 14 3e 55 45 97 3d
       0.103072435 0.12979367 0.14540556 0.07386271
000030 72 51 cf 3d ca 00 16 3e bc 2f cd 3d 19 48 dc 3d
       0.10122956 0.14648739 0.1001887 0.10755939
000040 f9 c0 0a 3e 86 a8 e9 3d 84 31 ea 3d 72 ef f5 3d
       0.13550176 0.114090964 0.114352256 0.12008561
000050 cb e9 e1 3d 85 3c 59 3e c3 a7 00 3e 29 09 43 3e
       0.110309206 0.21214493 0.12563996 0.19046463

weight f4 [10, 16224]
000000 1a e1 ac 3b 12 4d 31 3a 5f d4 aa bb 1c c3 c1 3b
       0.0052758576 0.00067634985 -0.005213305 0.0059131514
000010 cb 18 bf bb c8 fd a1 3b 80 da 9e bb 54 5e 5c 3a
       -0.005831813 0.004943583 -0.0048478246 0.000840639
000020 82 93 82 ba ae 4c ce 38 68 bc d7 bb 09 87 c2 bb
       -0.0009962174 9.837128e-05 -0.006583739 -0.0059365076
000030 5e da c2 3b 0a 65 b1 bb 5b a8 a6 3a df ed ec 3b
       0.0059464416 -0.005413656 0.0012714969 0.007230505
000040 f7 dd 29 ba f2 ec 25 3b e4 93 84 bb ed bf 27 3b
       -0.0006479914 0.0025318232 -0.0040459502 0.0025596574
000050 77 cf 59 ba 9f f6 20 bb cf ee f7 b8 07 e7 47 3b
       -0.0008308808 -0.002456106 -0.000118223594 0.0030502693
000060 79 ea 6e 3b 03 87 e4 3b 75 70 bf 3a 23 a5 80 3b
       0.0036455675 0.0069741025 0.0014605658 0.003925936
000070 23 6d ea bb c6 e6 63 3a 46 57 d8 bb 95 0f 8b b9
       -0.0071541234 0.0008693751 -0.0066022007 -0.00026523756
000080 2c 30 2a bb 62 1f d7 bb 77 6d d3 3b 44 e1 70 bb
       -0.0025968654 -0.0065650204 0.006452258 -0.0036755363
000090 02 c7 e8 3b 1d 20 88 bb c6 88 b6 39 26 8f 67 3b
       0.0071038017 -0.004154219 0.0003481565 0.0035333126
0000a0 9c 45 a9 bb 70 6c c4 bb 70 5c 2b 3a 7e bf f8 37
       -0.005165769 -0.005994372 0.00065369066 2.9653074e-05
0000b0 22 5f 56 ba b1 9e a1 bb 7f 9b a0 bb f5 0c cf bb
       -0.0008177628 -0.0049322476 -0.004901349 -0.0063186833
0000c0 b9 01 1a bb 29 48 8b bb 2e 75 6a 3b 81 b5 bc 3a
       -0.0023499562 -0.0042505455 0.003577541 0.0014397354
0000d0 a3 2b 26 bb a0 78 93 3b 52 0f 87 3b 26 36 d9 bb
       -0.00253556 0.0045004636 0.0041216994 -0.0066287694
0000e0 fe 51 e3 ba d9 37 51 38 72 57 aa bb dc 88 57 bb
       -0.0017343161 4.9881495e-05 -0.0051984126 -0.003288797
0000f0 07 3a 78 3b fd ad b4 3b 73 b7 4f ba f7 a5 e7 3a
       0.0037876384 0.005513905 -0.00079237594 0.0017673363
000100 0f 0f 44 bb 2a 9b b1 ba 8d a6 c6 bb fa 1a 83 3b
       -0.0029916202 -0.0013550271 -0.006062335 0.0040010186
000110 44 04 1f 3b 6a 56 f1 37 96 fe 54 ba f7 0e 23 bb
       0.0024264017 2.8769678e-05 -0.00081250945 -0.0024880746
000120 6a 91 0f 3a a7 70 50 39 c6 0e 75 3b 91 8a cd ba
       0.00054766855 0.00019878392 0.003739284 -0.0015681555
000130 c9 8b 6d 3a cd 8d 13 3b f0 06 b1 bb e0 5a 5c 3b
       0.0009061662 0.002251494 -0.0054024383 0.0033623502
000140 64 12 02 3c 5d 2b 4e bb 3b 76 78 3b 57 7f 9a bb
       0.007938955 -0.0031458952 0.0037912268 -0.004714887
000150 53 f9 c7 bb 83 e5 a6 3a a8 3d e7 3a ef c0 dd bb
       -0.00610272 0.0012733195 0.0017642276 -0.0067673842
000160 99 dc 67 3b 13 17 03 3c fb 80 86 3b 24 f4 50 ba
       0.003537929 0.008001107 0.004104731 -0.000797095
000170 17 81 c0 bb f1 47 83 3a 5c 4e c3 bb 7a 15 86 bb
       -0.0058747637 0.0010015947 -0.005960269 -0.0040919157
000180 89 a3 62 3b bd c7 89 bb 44 c0 df 3a 76 55 7d 3b
       0.0034582338 -0.004204719 0.001707085 0.0038655675
000190 a9 52 f6 bb bf 7c 59 bb f9 f7 5d bb bc 35 2c 3b
       -0.007517178 -0.0033185927 -0.0033869727 0.0026277145
0001a0 c3 55 60 3b 56 f9 df bb 15 62 b8 bb 8a f9 31 3b
       0.0034230805 -0.006835143 -0.0056269267 0.0027156794
0001b0 43 17 dc bb b3 75 18 ba 98 60 6e bb 7d 27 f3 bb
       -0.00671664 -0.00058158784 -0.0036373492 -0.007420479
0001c0 22 e8 29 3b cd bf f9 bb de 84 c9 3b f2 60 9c 3b
       0.0025925715 -0.0076217414 0.006149872 0.004772299
0001d0 43 b5 ce bb fc 79 d4 ba e5 c8 e3 3b 5c 69 98 bb
       -0.006308229 -0.0016210671 0.0069514387 -0.0046512317
0001e0 85 0c f9 3b eb d3 bf 3b 6f 76 1a 3b a9 50 25 bb
       0.0076003694 0.00585412 0.0023569127 -0.002522508
0001f0 f9 56 e7 3b 8e 9f 4b 3b 68 14 d9 3b 76 5b 15 3b
       0.0070599285 0.0031070444 0.006624747 0.002279011
000200 eb 61 fc 3b 2e 37 ca 39 59 0e 17 bb 57 b5 6e bb
       0.0077021024 0.00038569554 -0.0023049323 -0.0036424005
000210 d5 65 00 3b 45 21 65 3a 2a 17 e4 3b d1 40 2b 3b
       0.0019591947 0.0008740614 0.006960769 0.0026131163
000220 a2 63 d3 3b 77 a9 84 3b 79 03 fc 3b 41 11 c9 3b
       0.006451086 0.004048522 0.0076908437 0.00613609
000230 ec bc cf bb 45 dc e8 3b 99 08 33 3a 1e 40 8e bb
       -0.00633966 0.0071063363 0.0006829589 -0.0043411395
000240 92 ff ad 3b 66 db 53 3b 85 9a 8e 3b 55 23 7d 3b
       0.0053100074 0.0032326817 0.0043519163 0.0038625796
000250 f2 61 c4 3b be a3 02 3c cf d5 fa 3b 92 18 ae 3b
       0.0059931213 0.0079736095 0.0076548825 0.0053129876
000260 1d 2e 9d 3b c9 d7 6a 3b 39 2f 3f 3b ac e3 67 bb
       0.004796757 0.0035834184 0.0029172434 -0.0035383506
000270 3c 9a e5 3a 8e 56 cb 3b 5d ca 46 3b 13 f3 46 3b
       0.0017517279 0.0062053865 0.003033302 0.0030357286
000280 1a d9 c2 3b 2a be de 3b a9 c1 99 3b ea 21 cf 3b
       0.0059462907 0.0067975717 0.0046922755 0.0063211815
000290 b4 a0 2f 3b c7 ae 55 39 e6 9e 30 ba e2 08 2a 3b
       0.0026798667 0.00020378373 -0.0006737545 0.0025945236
0002a0 70 df a5 3a a1 27 9c bb bc d8 d1 bb 5d 5b 8d bb
       0.001265509 -0.0047654663 -0.0064040106 -0.00431387
0002b0 23 e5 24 3b c7 7c b2 38 7f 03 96 3b f2 f4 98 bb
       0.002516099 8.510943e-05 0.0045780535 -0.0046678716
0002c0 09 35 1f bb 4d 36 8c 3b bb bd 3c bb 6a 35 f4 3b
       -0.0024293086 0.004278934 -0.0028799612 0.0074526565
0002d0 c2 e7 38 3a 33 d4 a7 ba 96 6a b9 39 cc f6 b1 3a
       0.00070535776 -0.0012804329 0.00035365362 0.001357758
0002e0 9e fe ae 3a 5f 52 db 3b e1 82 18 bb 5f dc 2a 3b
       0.0013351028 0.006693169 -0.002327137 0.0026071293
0002f0 25 99 72 ba 57 fc e3 3a 9c 63 d8 3b 9d b1 57 3b
       -0.00092543877 0.0017393929 0.0066036712 0.0032912262
000300 d2 9f ea 3b 0d ef 5d 3b a9 56 70 3b ea 7c 05 3b
       0.0071601653 0.003386441 0.0036672747 0.0020368644
000310 a1 ab e9 bb 20 97 ed bb 0e 0d 36 3b e2 da 7c 3b
       -0.0071310555 -0.0072506815 0.0027778777 0.0038582613
000320 8a 8f 86 bb c2 12 3c bb 5f fc b9 bb f9 1d b8 3b
       -0.0041064667 -0.0028697704 -0.005675837 0.0056188074
000330 0b 7c e5 3b bd 63 89 ba ea 94 cb 3b 8b 75 e5 bb
       0.0070033125 -0.0010481995 0.0062128203 -0.0070025376
000340 44 d3 00 3c 8f e8 35 bb 5c 6d bd bb 49 15 e7 3b
       0.00786287 -0.0027757024 -0.005780859 0.007052098
000350 aa 6f b1 bb 57 ce 64 3a 7a d5 0e 3b 87 65 80 3b
       -0.0054149227 0.0008728257 0.0021794722 0.003918353
000360 cc c5 e5 3b 54 e2 98 3b 1c b4 ea ba f5 96 b3 3b
       0.0070121046 0.0046656523 -0.001790646 0.005480642
000370 f5 cb f0 3a 51 4c 9e bb ec 62 de ba c2 fe 9b 3b
       0.0018371331 -0.004830875 -0.0016966737 0.004760594
000380 59 72 07 ba 4d 25 c9 ba 00 7a 4e 3a eb 95 1b bb
       -0.00051668804 -0.00153462 0.0007876456 -0.002374048
000390 18 75 91 bb d6 14 71 3a ef 19 2e bb 21 94 c7 bb
       -0.0044390075 0.0009196525 -0.002656575 -0.0060906564
0003a0 53 e8 86 3b aa b5 6b ba 79 90 bb 3b 6e d3 bb b9
       0.0041170507 -0.00089916086 0.0057240096 -0.00035824947
0003b0 26 b3 53 ba a7 2f 74 b9 7a 47 fe 3b 8d d7 a3 3a
       -0.00080757064 -0.00023287405 0.0077599855 0.0012500152
0003c0 a9 8c ef 3b 2e e3 c0 bb e2 2d 75 bb 70 96 07 3b
       0.007310469 -0.005886457 -0.0037411381 0.0020689033
0003d0 36 05 b7 bb f0 19 bb 3b cd e7 e2 39 2d f7 49 3a
       -0.005585338 0.005709879 0.00043278784 0.00077043736
0003e0 81 41 17 3a f6 51 62 39 dc cf 98 3b e8 99 42 3a
       0.0005769954 0.00021583572 0.0046634506 0.00074234465
0003f0 e6 53 a3 bb f6 a8 32 3b 35 fd ec bb e6 26 fc 3a
       -0.0049843667 0.0027261353 -0.007232333 0.0019237667

bias f4 [10]
000000 d7 b8 c0 3b f9 cb e8 b8 6a a7 bf bb 1d b1 91 b9
       0.0058814096 -0.00011100615 -0.0058488147 -0.00027788515
000010 09 a4 9d ba 28 5a 46 3b 24 71 eb bb 42 8a b4 bb
       -0.0012027036 0.003026614 -0.0071851183 -0.0055096457
000020 46 0b ea bb 65 e0 93 ba
       -0.007142457 -0.0011282085
