models/Demo/LOGS/models/nnet_epoch_4.pt (torch, 765965 bytes, 26 tensors)

weight f4 [12, 3, 5, 5]
00000000: c8df 153d 047b e4bd 7b69 553d ec1e a6bd
00000010: a846 e1bd 5b96 8c3d 5c28 02bd 60f7 a6bd
00000020: 3f76 98bd 369c 8bbd d3df 5a3d 4f35 a73d
00000030: 5ff5 c7bd 6b9e 8abc 0911 6d3d 1819 923c
00000040: 6003 3f3c 9d95 90bd 5dd7 afbd 993a cebd
00000050: 626a 7cbd 79f9 783d 6822 813d 354f cf3d
00000060: cf36 e83d ebdd 47bb f76d 20bc c7db ce3c
00000070: 1ae5 933c 5fe1 85bd 22c1 643d be2f c03d
00000080: 4597 d83d 2b3e 55bb f26c e13d 919f 143d
00000090: b5bf 7e3d f509 09bc d4fd 55bd 859c 5b3d
000000a0: e0ac d83d a235 bcbd d97b d1bd 48c9 ba3d
000000b0: ad4e c43d 2b06 8ebc 7c05 c53b 33c3 26bd
000000c0: 9779 463d dafa be3d f832 aebd 0ebb ccbd
000000d0: 8f81 593d 6200 98bd fffc 2e3b 051f c13b
000000e0: 5e02 d93c 97ba dfbd 0d98 be3d 1b54 5d3d
000000f0: 2d31 aebd a860 dd3d 27e5 d53d 15b2 c03d
00000100: 2d68 0f3b d324 dabd 6e89 5a3d be4c 80bd
00000110: 3095 bd3c 256d 2e3c 5ce4 a0bd ce39 9a3d
00000120: 7703 c5bc 2fab 71bd 913c a23d 2a27 e33d
00000130: 88fb 7dbd 28b8 e3bd 888d d9bd c54a 4dbc
00000140: 2942 6dbd c2fa dcbb 94a9 b1ba 8b43 a5bd
00000150: 0c66 f63c 3135 113d a0b6 90bd 054a ad3d
00000160: b72f b13d 0421 dabc 038e 12bd 65a9 373c
00000170: 5ffd 153d c4ec c63d 2955 4c3d ea58 ae3d
00000180: 7445 d6bd 6e7e ab3d 1a4b d03d 9857 7abd
00000190: b2d6 cebc 3aa7 d03d 0fd6 2b3c 5409 553c
000001a0: 528d c5bd 8ba4 e5bd 27ae 71bc 35e0 ccbd
000001b0: 18ed 443d 45f5 95bc effc 113b a97f 58bd
000001c0: a742 c9bc b697 a7bd c2d9 68bd 9bed 773b
000001d0: d09a 63bc 789d f03b 6fba 26bd 07a1 463d
000001e0: a654 e93c a0c4 9e3d 9d6e c2bd ab2d 243d
000001f0: ccb5 40bd 4452 5b3d 5f49 d53d a726 83bd
00000200: dc1c e23c 248c 633c 42c2 d43d 1358 b8bd
00000210: a970 173d 4c94 5d3d 3cd5 b6bd 1861 5d3d
00000220: ded3 773c 0351 d1bd 82cd c9bd 121b 1fbd
00000230: bbd5 febc af64 053d 9f60 65bd f811 ddbd
00000240: 8456 debd 0ce7 7cbd 8226 d6bd f971 c73c
00000250: 1c04 3f3d 04a2 6d3d 0dd4 c13d 8739 4cbd
00000260: 9ebd a5bd 6b10 62bd e268 c93c 56df e1bd
00000270: 86f3 38ba 2cc1 b6bd c4f2 7e3d d8cb 8abc
00000280: e14c 29bc 5058 cdbd c167 c0bd 53da f3bc
00000290: 3d35 ca3d 049c 80bd 119a 54bd 088d 56bd
000002a0: ee2c 32bc 164b b03d a110 ec3d 39c0 e8bd
000002b0: 1758 0c3d 1d87 c23c 172d 27bd 870d ae3c
000002c0: 460a f43b d550 b43d 60d4 913d 839b d43c
000002d0: 57e7 c63d bdb4 3c3d d542 a13c a7b1 b2bc
000002e0: 28b2 633d 0f43 aebd 5398 d9bd 4eb3 24bd
000002f0: 05dc bebd 1428 b7bd 4b12 193d ef4e cebd
00000300: 5d3a abbc e9e4 aabc 833e 52bd 533e c6bd
00000310: 8f42 da3d dfa5 cabc 1220 2dbb 3d35 a63b
00000320: 3bb6 d3bd 5fa0 90bd 92cd d6bd ffcd 57bc
00000330: aefe fcbc 3773 bbbc 666c 9abd 894f 95bd
00000340: ff17 ceba 0737 dd3d ab03 b2bd b5e3 0cbd
00000350: a8dc 56bd c694 dfbd ecfb e73b b411 abbd
00000360: 0e4b 5d3c 36c9 14bd 7a27 e4bd 548f 7fbd
00000370: 84b0 7139 7665 4fbd 6ae0 d2bd a519 eabd
00000380: d7a6 71bc 972f 4cbb ff1b ca3d a504 a63c
00000390: 421b 5c3d b14f ac3c d632 d73d 8f7f b6bd
000003a0: 7a3f b93c 05a0 943c 5c05 14bc 527c 34bd
000003b0: 25c2 ca3d 455c cabb 1b49 ea3d 25c9 41bb
000003c0: d2fe fa3c c5b6 5ebd e292 bcbd f613 463c
000003d0: 85ba 2b3c 2d2a 8fbd 8891 dd3d 6ea9 84bc
000003e0: b969 89bc 3ea8 5a3d 6f27 82bd ab8b 43bd
000003f0: 8b69 b9bd 1cf9 0abc a8f3 bdbd 06a2 e03c
0.036590368 -0.11156276 0.052102547 -0.08111367 -0.10999805 0.068646155 -0.03177677 -0.08152652
-0.07444429 -0.06816904 0.05343611 0.08164465 -0.09763598 -0.016921243 0.057877574 0.017834231
0.0116585195 -0.070597865 -0.08585999 -0.1006977 -0.061624892 0.06078479 0.063053906 0.101225294
0.11338579 -0.0030497264 -0.009791843 0.025251282 0.01805358 -0.06537127 0.05584825 0.09384106
0.105757274 -0.0032538276 0.11007108 0.036284987 0.062194545 -0.00836419 -0.052244022 0.053616066
0.10579848 -0.09189917 -0.102287 0.091204226 0.09585319 -0.017336925 0.0060126167 -0.0407135
0.0484558 0.0932519 -0.08505815 -0.09996615 0.053102072 -0.07421948 0.002670109 0.0058935904
0.026490387 -0.10924261 0.09306345 0.054035287 -0.08505473 0.10809451 0.10444098 0.094089665
0.0021882162 -0.10651555 0.05335372 -0.062646374 0.023142427 0.010646139 -0.07856056 0.075305566
-0.024049504 -0.059001144 0.079217084 0.11091454 -0.062007457 -0.111191094 -0.10622698 -0.0125300335
-0.057924423 -0.00674376 -0.0013554567 -0.080695234 0.030077957 0.035451118 -0.07066083 0.08461384
0.08651679 -0.026627071 -0.035779964 0.01120982 0.036618587 0.09713128 0.049885903 0.08513053
-0.10462466 0.08373724 0.101705745 -0.061118692 -0.02524886 0.10188146 0.010488047 0.013002712
-0.09646095 -0.11213025 -0.014750994 -0.100037016 0.048077673 -0.01830543 0.0022276004 -0.05285612
-0.024567915 -0.081832334 -0.056848295 0.0037830833 -0.013891891 0.0073429905 -0.04070514 0.04849341
0.028482746 0.07752347 -0.09493754 0.040082615 -0.047048375 0.05354525 0.10414385 -0.06403857
0.027601652 0.013888393 0.10388614 -0.09001174 0.036972675 0.054096505 -0.0892739 0.054047674
0.015126197 -0.1022053 -0.09853651 -0.038844176 -0.031107774 0.032566722 -0.05600035 -0.10794443
-0.10856345 -0.06174378 -0.104565635 0.024346339 0.04663478 0.05801584 0.094642736 -0.04985955
-0.08092807 -0.05519144 0.024586145 -0.11028926 -0.0007055331 -0.08923563 0.062243238 -0.016942903
-0.010333271 -0.1002661 -0.093947895 -0.029767191 0.09873436 -0.062797576 -0.05190474 -0.05238059
-0.01087497 0.086080715 0.11526609 -0.113647886 0.034263697 0.023746068 -0.040814485 0.021246685
0.0074475138 0.0880448 0.071205854 0.02595306 0.09712093 0.046070803 0.019685188 -0.021813227
0.055589825 -0.08508884 -0.10624757 -0.04021006 -0.09319309 -0.08943191 0.03737096 -0.10073649
-0.020901853 -0.020861106 -0.051329147 -0.09679856 0.10657226 -0.024737297 -0.002641682 0.0050722645
-0.10337492 -0.07061838 -0.10488428 -0.013171672 -0.03088316 -0.022882087 -0.075402066 -0.07290561
-0.0015723704 0.10801511 -0.08692106 -0.034396846 -0.052456528 -0.10917048 0.007079592 -0.08352986
0.013506664 -0.036324702 -0.11140342 -0.062392548 0.00023049308 -0.05063387 -0.1029671 -0.114306726
-0.01474925 -0.0031156295 0.09868621 0.020265887 0.053736933 0.021034094 0.10507743 -0.089110486
0.022613276 0.01814271 -0.009034481 -0.044063874 0.099003114 -0.00617555 0.11439725 -0.0029569354
0.030639086 -0.05437352 -0.09207703 0.01208972 0.010481481 -0.06990466 0.108187735 -0.016194072
-0.016774045 0.053383105 -0.063551776 -0.04774062 -0.09053334 -0.008482244 -0.09274989 0.027421009

bias f4 [12]
00000000: 1afc db3d afda 8fbd c525 2bbd 9853 193d
00000010: 971a 73bd 32ed e43b 6c1d c63d 7b3e 92bc
00000020: d558 10bc ee34 c5bd 4fc8 2b3d b539 c03d
0.10741444 -0.070241325 -0.041784067 0.037433237 -0.05935153 0.0069862837 0.096735805 -0.017852059
-0.008810242 -0.09629236 0.041939076 0.09386007

weight f4 [12]
00000000: c9fe 7f3f c5ff 7f3f bafb 7f3f 2b00 803f
00000010: 05ff 7f3f 7ffb 7f3f e8fb 7f3f feff 7f3f
00000020: 0e00 803f 0400 803f 1100 803f 2100 803f
0.99998146 0.9999965 0.9999348 1.0000051 0.99998504 0.9999313 0.99993753 0.9999999
1.0000017 1.0000005 1.000002 1.0000039

bias f4 [12]
00000000: 7bbc ab38 9a33 9db6 8c0c f1b8 1771 0539
00000010: b3f3 4b38 42c3 cdb8 5334 f7b8 429a 05b8
00000020: 4147 9838 f65b 82b8 6bcc 3837 f103 da38
8.1890226e-05 -4.684972e-06 -0.000114941126 0.00012725998 4.8625934e-05 -9.811531e-05 -0.00011787624 -3.1853335e-05
7.261197e-05 -6.216012e-05 1.1014849e-05 0.00010395784

running_mean f4 [12]
00000000: a39a 663e 072f 98be 0060 2ebf a8a2 853b
00000010: 72cf 683e 28cb 703d 06d2 933e 3f8a f63c
00000020: 0ae8 003c e2a1 3f3e a974 593e 6fde 873e
0.22519927 -0.2972338 -0.68115234 0.004078228 0.22735384 0.058787495 0.28871173 0.030095218
0.007867822 0.18714097 0.21235909 0.2653689

running_var f4 [12]
00000000: 39b0 3d3c 5ad1 013d 0983 703e d9e1 013b
00000010: 5910 593d 7cd7 4c3b cd87 ed3c 1515 5f3b
00000020: 675e 633c 771c 3c3d 88a0 863c 8357 c43c
0.011577659 0.031693794 0.23487486 0.0019818454 0.052994106 0.0031256368 0.028995419 0.0034039665
0.013877488 0.045925584 0.01643397 0.02396751

weight f4 [12, 12, 5, 5]
00000000: 06fc 42bd d8c8 5dbc 4099 653d 45aa e33a
00000010: a1ab 61bb d122 b4bc cb10 93bb 40a9 3d3c
00000020: ed7d 36bd d0c8 4ebb 3df3 883c 46ff 4f3c
00000030: 73c3 a83c 85a1 a33c cc1f c0bb 2022 9f3c
00000040: 9b1d 263d 7870 97bc a77b 3bbd 8300 9a3c
00000050: 325f 203d 6699 973c 95f0 19bd 38a1 f53c
00000060: ddfe b03b bcd0 6a3d 78f3 39bd 85cf fdbc
00000070: f8e2 2fbc a4ea 3fbd c654 483d baf1 c3bc
00000080: 3438 0abd d247 c13c bf1b 003d 44eb 3b3d
00000090: a4e9 af3c 362e b4bc 4d49 173d 707f 07bd
000000a0: 622f 213d f2d3 e9bb 8e39 b03c a846 833c
000000b0: e9ea d4bc 8420 7abc 3e3a 053d d42f 86ba
000000c0: 5ffd 03bd d1bc cabc 03d1 08bd 7484 1fbd
000000d0: cd36 80bc 106d 4f3d f98c cdbc 0c11 9ebc
000000e0: c6e9 7fbc bba6 fcbc 1b4a 05bc f8da eebb
000000f0: 7dbb 683d 8fbb 003d ecf9 9e3c bf6b 1aba
00000100: 1df6 c23b ae24 69bc 4d6e 17bc b3c8 443d
00000110: 6ba6 02bc 2cb9 22bc 5708 4e3d 58c5 a23a
00000120: fab6 6b3d e202 1c3c bfc1 653c 7b0b 1bbd
00000130: a242 41bd 4662 f43c 603d 053d 529b 623d
00000140: e352 bebc 2442 56bd d17a 8bbb 49d2 2e3d
00000150: cace 53bd 9ea3 5f3d 6516 553d 6831 22bd
00000160: dc49 35bc 5912 fa3c 646a 283d 87d3 6abd
00000170: 8245 47bd 60b4 fd3c b25d 193c f602 99bb
00000180: 6365 583d c77d 4fbd 7aae 22bd f05e e8bc
00000190: 205f 693d dbd0 37bc 7bb0 563b ff1d 5d3c
000001a0: 09a6 353d 67f8 523d 52a1 3a3d 7f82 5f3d
000001b0: eea7 66bb 99e5 01bd b9c6 053d 97fd 483d
000001c0: e4da b3bb 4896 f23c acab c0bc 6d72 3abc
000001d0: 92f2 863c b2bf 6c3d aea9 e23c 6d11 a83b
000001e0: e8a6 8d3c 8edd 66bc a56f 15bc 2711 ce3c
000001f0: 43e0 8cbc 58b2 39bd 731c d3bc 6d3b b6bc
00000200: 260d 3f3d 2a17 4bbd 3b9b 38bd c032 163d
00000210: 24ee 0fbd 879e 2ebc 664d d2bc 99fb 353d
00000220: 4a17 573c 2f0c a0bc 5fb8 83bc 3b07 f5bb
00000230: 29d9 cdbc 70d3 29bd 4ab1 f5bc 2ead f03c
00000240: 7dbc 02bd c1ad 6a3d b008 29bd d715 ed3b
00000250: e8c2 36bb 1ad1 e93b 6b71 e539 ad49 44bd
00000260: ad04 63bb 558c 77bc 4d3e 0cbd 27b9 4fbd
00000270: 8c98 333d 05f9 1b3a 1f2a 493b a21e a83c
00000280: f741 43bd 0c24 d6bc 0e18 d6bc 6440 17bd
00000290: 539a fcba 681c 373d 8009 44bd f5e6 a33c
000002a0: f911 babc 2576 07bd 7f95 c13c 4ddd ecbc
000002b0: 87ca cf3c 0198 643d bd06 22bd 1fbd ffbc
000002c0: d467 c6bc 219c 533d e584 2dbc b297 45bd
000002d0: dc05 143c 2139 663d f656 b03c f65a 2a3d
000002e0: 550f c13c c819 4dbd 9538 45bd ddd4 e8bc
000002f0: a888 9ebc 26ee ca3c 7d50 40bd 9914 03bd
00000300: ca59 d6bc b37c 503d 9d9f 103d 2e6c a63c
00000310: bc08 873c bc7a 24bb 0b6c 47bd ac34 173d
00000320: af86 a5bb 0ce6 283d 3a2f 183a 9f46 793c
00000330: 238e 4c3d a24a 07bd 3603 01bc 6587 653d
00000340: 8f8e 55bd 1272 d03c 7665 07bd e11a 553d
00000350: e064 963b 2169 89bc aaf5 bb3c d3b7 4ebd
00000360: 25f0 18bd 06c2 663d c812 323d e932 a23b
00000370: 16a8 04bd 067a 053d 892e 923c ead0 263d
00000380: 2990 42bd 8077 213d 52b1 9e3c 9e99 66bd
00000390: ba66 18bd 8665 28bd 8639 693d 5020 703c
000003a0: af23 b2bc 26f9 a03c 53fc 0b3d e372 babc
000003b0: d084 01bb 7329 b43c ab7a e03c 62dc b63c
000003c0: 5c99 a7bc 3b70 a93b ff4f 66bd 6d7b afbc
000003d0: 867a f63c 10a8 4fbd f5b6 5ebd 5aa6 423d
000003e0: fe8a df3c 3774 f33c 5a4b 28bd 0833 93bb
000003f0: 070e 7a3c afa5 1c3c b629 743c fa6c 53bd
-0.04760363 -0.013536654 0.056054354 0.001736947 -0.0034434574 -0.021989258 -0.004488086 0.011575997
-0.044553686 -0.00315528 0.016717548 0.012695139 0.02060101 0.01997448 -0.0058631655 0.019425452
0.040555578 -0.018486246 -0.04577222 0.018799072 0.039153285 0.018505763 -0.037582953 0.029984102
0.005401476 0.05732797 -0.045398206 -0.030982742 -0.010735266 -0.04685463 0.04890897 -0.023918975
-0.033745006 0.023593817 0.03127646 0.045878664 0.021473713 -0.021994691 0.03693514 -0.03308052
0.03935183 -0.0071358616 0.02151182 0.016024902 -0.02599092 -0.015266541 0.032526247 -0.0010237643
-0.032224055 -0.024748238 -0.033402454 -0.038944677 -0.015651131 0.05064112 -0.025091635 -0.019295238
-0.015619701 -0.030841222 -0.008135344 -0.0072892867 0.056819428 0.03142887 0.019406281 -0.0005890689
0.005949749 -0.0142299365 -0.009242606 0.048042964 -0.007974247 -0.009931844 0.050300922 0.0012418432
0.057547547 0.009522172 0.014023243 -0.037852746 -0.047182687 0.029832017 0.032529235 0.055323906
-0.023232883 -0.05230917 -0.004256584 0.042681012 -0.05171088 0.054599397 0.05202331 -0.0395979
-0.011064973 0.030526327 0.041117087 -0.057330634 -0.048650272 0.030969799 0.009360718 -0.0046695424
0.052831065 -0.05065706 -0.039717175 -0.028365582 0.056975484 -0.011219229 0.0032759 0.013495921
0.044347797 0.051506426 0.045564003 0.05456781 -0.0035195309 -0.031713102 0.03266022 0.049069967
-0.0054887403 0.029612675 -0.02351936 -0.01137982 0.016473088 0.057800002 0.0276688 0.0051290304
0.017291501 -0.014090909 -0.009120856 0.025154663 -0.01719678 -0.045336097 -0.025770402 -0.022245133
0.0466434 -0.049582638 -0.045069914 0.036669493 -0.035139218 -0.010657913 -0.025671672 0.044429395
0.013128111 -0.01953706 -0.016079126 -0.0074776686 -0.025127964 -0.04146141 -0.029991765 0.029379454
-0.031918038 0.05729461 -0.04126805 0.0072352695 -0.002788717 0.0071355226 0.00043762787 -0.047921825
-0.0034640238 -0.015109141 -0.034239102 -0.050713684 0.043846652 0.00059498876 0.0030695272 0.02052242
-0.04767033 -0.026140235 -0.026134517 -0.036926642 -0.0019272066 0.044704825 -0.047860622 0.02000759
-0.022713648 -0.033071656 0.023630856 -0.028914118 0.025365127 0.055809025 -0.039557207 -0.03121811
-0.024219431 0.051662568 -0.010590767 -0.04824037 0.0090346 0.056206826 0.021525841 0.041590653
0.023566881 -0.050073415 -0.048149664 -0.028421814 -0.019352272 0.024771761 -0.04695176 -0.032002065
-0.026165862 0.050900172 0.03530847 0.020315256 0.016483657 -0.002509757 -0.048687022 0.036915466
-0.005051456 0.041235015 0.0005805377 0.015214591 0.04994024 -0.03303016 -0.007874301 0.056037325
-0.052137908 0.025445018 -0.033055745 0.052027587 0.004589662 -0.016773762 0.02294429 -0.050468277
-0.037338395 0.05633738 0.043474942 0.0049499166 -0.03238686 0.032587074 0.017844455 0.04072658
-0.047500763 0.039420605 0.019371662 -0.056298845 -0.037207343 -0.041112445 0.056939624 0.014656141
-0.02174553 0.019650053 0.034176182 -0.02275986 -0.0019763 0.02199242 0.027402243 0.022321884
-0.02045887 0.0051708496 -0.056228634 -0.021421159 0.03008772 -0.050697386 -0.0543737 0.047521926
0.027287956 0.029718501 -0.041087486 -0.0044921674 0.015262133 0.009560986 0.014902523 -0.0516176

bias f4 [12]
00000000: 0422 1c3c 05b2 203c ddb9 593d b2f2 1ebd
00000010: dfee 653d 73b3 6dbb b45b 423b 9200 db39
00000020: 3125 3abd 456e 55bd a6c1 f8bc 750f 8cbc
0.009529594 0.009808068 0.05315577 -0.03880567 0.05613601 -0.003627029 0.002965671 0.0004177136
-0.045445625 -0.052107114 -0.030365776 -0.017097214

weight f4 [12]
00000000: 1000 803f 09fb 7f3f 3400 803f 0500 803f
00000010: 1200 803f 0f00 803f 02fc 7f3f 0cfb 7f3f
00000020: 87fc 7f3f 0400 803f 1400 803f 1e00 803f
1.0000019 0.99992424 1.0000062 1.0000006 1.0000021 1.0000018 0.9999391 0.9999244
0.999947 1.0000005 1.0000024 1.0000036

bias f4 [12]
00000000: 6ea6 a2b8 bd59 6eb8 f21e e838 5f5d dbb8
00000010: d6db 9737 cb79 4137 c6c4 69b8 b10f e5b8
00000020: 7390 53b8 bcb1 d8b6 9a25 b838 cd39 d238
-7.755762e-05 -5.6827197e-05 0.00011068386 -0.000104601255 1.8102972e-05 1.1532054e-05 -5.573479e-05 -0.00010922494
-5.044085e-05 -6.4579926e-06 8.7808075e-05 0.000100243466

running_mean f4 [12]
00000000: 9e4e c33d cad6 323e b1c6 dc3e 52cd 8f3d
00000010: 0828 933e 7918 36bd 80e3 84be 14b8 08be
00000020: 7b28 003e 1e4a 3dbe e73f 03be a9b4 13be
0.095364794 0.17464748 0.4312034 0.070215836 0.2874148 -0.044456933 -0.2595482 -0.1335147
0.12515442 -0.18485305 -0.12817346 -0.14424385

running_var f4 [12]
00000000: a6e4 3a3d 76fc e93d dda8 bb3e 54a5 793d
00000010: 065b 683e feed 023e 3718 9c3d 2c21 8b3d
00000020: c2ce c23d f510 6c3d 840b 663e 1149 e23d
0.045628212 0.11425106 0.3665227 0.060948685 0.22690973 0.127861 0.07621806 0.067934364
0.09512092 0.05763336 0.2246533 0.110490926

weight f4 [24, 12, 5, 5]
00000000: 3f39 953c badc a13c dbdf c8bc e870 7f3c
00000010: 5d18 4fbd 97c3 0fbd a6ab 1dbd 1898 5ebd
00000020: 7c5d 843c ee94 dfbc 6bf9 443c 9a8e 2c3d
00000030: 318b 56bd 72af 2fbd b4f1 48bd 1eb9 a4bc
00000040: c21d 0dbd 9a82 603d 03c8 ae3c a596 193d
00000050: 93bc 5c3d d505 123d ed4e 373d 05ba 4bbd
00000060: c430 29bd 08ef c33b 326a ef3c 492c ca3c
00000070: 32e0 3f3d b73f b4bc 2932 063d d666 8b3c
00000080: 84fe f53c cd40 01bd 7fe2 2a3c 56ed a83c
00000090: de9e 0bbb b939 26bd 01e1 f73c 375b 23bd
000000a0: 617b 9a3c c19f 3c3c 3174 15bd 9238 143d
000000b0: 6779 9e3a 5edb 0cbd 48cf 5f3b 58ed 313d
000000c0: df1e f53b 35ee 613d 1ec1 263d 7cd4 793c
000000d0: a805 3f3d eac3 263d ed1b abbc d25a a43c
000000e0: 9831 323c ba47 18bd 63a6 34bc 52a6 82bc
000000f0: 3c35 f9bc 23fe 1ebd 5815 4ebb c9de 97bb
00000100: dd03 c2bc b4e2 c7bb b1c2 16bd 0706 37bd
00000110: c0d0 ff3c ebe0 3fbc 7e16 c23b 520c 4abd
00000120: 8feb 533c 6ce7 273d cd73 163d 2838 44bd
00000130: d910 b5bc f0a8 3c3d 2dfb 96bc 0a0f 4bbb
00000140: acbe 9fbc 97d2 ae3c 7020 313c e7e0 f33c
00000150: 9122 0ebd 0006 c2bc da49 0f3d 6390 29ba
00000160: b351 fc3c e44c 5b3c 4a37 583d 3857 fb3b
00000170: fb13 3fbd 464f 5f3d f6b8 2d3b a9f0 803c
00000180: d705 3dbd caf0 653d d2fd 2d3d fa8f 07bd
00000190: e3b3 b6bc 0b5d 5b3d dd00 403d ed64 37bc
000001a0: b6fc 5b3b db14 3dbd 6865 7b3c bd02 aa3b
000001b0: 17bb 4e3c 77ee 5a3d 3db4 29bc 49dc 8bbc
000001c0: 5b70 bc3c c536 1ebc 06a2 1e3d 6785 b43c
000001d0: bd28 cbbc c5fb 63bc 3637 2e3c 1e77 b53b
000001e0: aa07 593d 6337 f5bc 3ddf a13c d3ea 85bc
000001f0: 9263 4c3d b459 59bd 1b27 193c 84ec 50bd
00000200: d62b 0e3b f663 78bc 1056 08bc a99a 3fbc
00000210: 8013 29bd b716 68bc dd09 9e3c 197f 2a3d
00000220: 976e bfbc dc79 61bd ccae ab3c 9c7e 69bd
00000230: 7877 d4bc 3e58 6fbc ff80 e9bc 1501 153d
00000240: 1b80 90bc 4e7c 07bd a517 30bd b3b8 433c
00000250: 48c0 18bd 4dba dd3c 8994 503d 80ba a43c
00000260: f998 3f3d afd1 91bc 04cc 29bd 0dab 1bbd
00000270: 2638 ccbb d44b b53c 079a b2bc a3ca 3bbd
00000280: 8070 2e3d 326c 2b3d 3d01 0fbd 7645 b03b
00000290: c23e 483d 6203 153c 9750 29bd b61d 3abd
000002a0: cbeb 543d a175 413d 4cdb 0ebd c1ad 343d
000002b0: 061b 56bd 22f4 69bd 0890 5abd b390 c6bc
000002c0: 5fda 0ebd 072f eabc fd52 ccbc f721 0cbd
000002d0: 879a 213c cbbe 323d d5e0 443d 4f4b 3c3d
000002e0: 32fc 3d3d 2295 153d 659d 513c e5a9 ce3c
000002f0: 5c51 dfbc 9fa4 013d be0e c7bc 2678 633c
00000300: a509 143d 6f9e 4eba a2bc bf3c 3686 09bd
00000310: 5042 ed3b 0af3 673c a99c b23c 1b44 fe3c
00000320: 9d72 dcbc a4ee 43bd 0e83 0f3d 43ec 303d
00000330: cc38 1cbd a5b6 1cbd 7a01 393d b5a0 f6ba
00000340: bf7f 633d 5c31 493d c013 2ebd ef28 043d
00000350: a687 81bc feca 96bc 000a eb3c 8818 96bc
00000360: e9fb 8e3c ec6d 2abd 18c6 01bd 856c 32bc
00000370: d616 d13b 8a50 2b3d c44f 02bc e87b 5d3c
00000380: 8908 d33c cc23 b2bc 78aa 1c3c 97ef abbc
00000390: d8de e73c 09be 2bbd b4ca 2c3d 8bf3 c43c
000003a0: e713 c73c faec 053d bb94 52bd 719a 5fbb
000003b0: 9194 f93c ebd5 fe3c 134a 68bd 1c7c 2d3d
000003c0: 61ee 13bd 8bbb df3b 431b 95bc d26c 6bbd
000003d0: b6a8 9e3b b6fd 26bc 948f e2bb e100 263d
000003e0: f6cf ccbc c588 c3bc 4540 fa3b f3e7 57bd
000003f0: f815 0a3d da51 babc b99d d53c 7a50 c23b
0.018215774 0.019758571 -0.024520805 0.015590884 -0.050560344 -0.03509864 -0.038493775 -0.054344267
0.016157858 -0.027292695 0.0120223565 0.042128183 -0.052378837 -0.042891927 -0.04905863 -0.020107802
-0.034452207 0.05481205 0.021335607 0.03749718 0.053890776 0.035650093 0.044753004 -0.04973795
-0.041306272 0.0059794225 0.029225443 0.02467932 0.04684467 -0.022003038 0.03276268 0.01701681
0.03002859 -0.03155594 0.010429977 0.020620983 -0.002130441 -0.040582392 0.030258657 -0.03988191
0.01885766 0.011512698 -0.036487762 0.036186762 0.0012090624 -0.034388892 0.003415065 0.04343924
0.0074804868 0.055158813 0.040711515 0.015248414 0.046636254 0.040714182 -0.02088734 0.020062838
0.010876082 -0.03717778 -0.011025998 -0.015948448 -0.030420892 -0.038816582 -0.0031445827 -0.0046347124
-0.023683483 -0.006100023 -0.036806766 -0.044683482 0.03122747 -0.0117113395 0.0059230914 -0.049328156
0.0129345795 0.040992185 0.03673153 -0.047905117 -0.02210276 0.04605955 -0.018430317 -0.0030984306
-0.0195001 0.021340651 0.010810956 0.029770328 -0.034700934 -0.023684502 0.03498254 -0.00064683537
0.030800676 0.013385031 0.052787103 0.0076703094 -0.046649914 0.05451896 0.002650795 0.015739756
-0.046148147 0.056137837 0.04247839 -0.03309629 -0.022302574 0.05355553 0.046875823 -0.011193496
0.0033567376 -0.046162467 0.015344001 0.0051883147 0.012617848 0.053450074 -0.010357914 -0.017072814
0.023002794 -0.009656613 0.038728736 0.022036267 -0.024799699 -0.013915007 0.0106332805 0.0055378815
0.052985825 -0.029933637 0.019759769 -0.016347324 0.049899645 -0.053064063 0.009347702 -0.05100681
0.0021693609 -0.015160551 -0.0083213 -0.011694589 -0.041278362 -0.014165572 0.019291813 0.041625116
-0.023368163 -0.055047855 0.020957373 -0.05700551 -0.025935873 -0.014608441 -0.028503893 0.036377985
-0.01763921 -0.03307753 -0.0429913 0.011945891 -0.03729275 0.027066374 0.050922904 0.020108461
0.046776745 -0.01780018 -0.04145433 -0.038004924 -0.0062322794 0.022130884 -0.021801962 -0.045847546
0.042587757 0.04185123 -0.03491329 0.005379374 0.048887976 0.009095045 -0.041336622 -0.04543849
0.051982682 0.04723132 -0.034877107 0.044111017 -0.052271865 -0.05711759 -0.053360015 -0.02423892
-0.034876224 -0.028586878 -0.024941916 -0.03421208 0.009863502 0.043638986 0.04806598 0.045970257
0.04638309 0.036519177 0.012793873 0.025227496 -0.027260475 0.031651136 -0.024299022 0.013883626
0.03614201 -0.0007881885 0.023405377 -0.03357526 0.007240571 0.014157066 0.021803217 0.031038335
-0.02691012 -0.047835007 0.035037093 0.043194067 -0.038140103 -0.03826012 0.045167424 -0.0018816205
0.05554175 0.04911934 -0.042499304 0.0322656 -0.015811753 -0.018407341 0.028691292 -0.018322244
0.017454104 -0.041608736 -0.031683058 -0.010890131 0.006380896 0.041824855 -0.007953588 0.013518311
0.025760906 -0.021745585 0.009562127 -0.020988269 0.028304502 -0.04192928 0.0421855 0.024041912
0.024301482 0.0326967 -0.05141137 -0.0034119154 0.03046635 0.031107863 -0.056711268 0.042354688
-0.036116008 0.006827777 -0.018201476 -0.057476826 0.0048418893 -0.010192325 -0.0069140885 0.040528182
-0.025001507 -0.023868928 0.007637056 -0.05271144 0.033712357 -0.022744108 0.026076185 0.0059300037

bias f4 [24]
00000000: b760 47bd 7ef7 fa3c 2388 d7bc 34b5 653d
00000010: 5b54 303d 1741 a23c 662a 183c 1638 c4bc
00000020: fe6d d43c a137 06bd 603e 84bc 6347 a03c
00000030: 93d5 7fbc f245 133d ddeb 1a3c ec3b d43c
00000040: d31f 523d 38e6 02bc c6d8 11bd d5ba 473c
00000050: 1adb b53c 4f71 323c 14c3 37bd 98de ff3c
-0.04867622 0.030635592 -0.026310032 0.056081012 0.043049198 0.019806428 0.009287452 -0.023952525
0.025931355 -0.032767896 -0.016143024 0.01956529 -0.015614885 0.035955377 0.009455648 0.02590748
0.05129988 -0.007989459 -0.035607122 0.01219054 0.022199202 0.010891273 -0.044863775 0.03123407

weight f4 [24]
00000000: b0fc 7f3f 0eff 7f3f eefb 7f3f 0800 803f
00000010: 1e00 803f 1500 803f f400 803f 23fc 7f3f
00000020: 0500 803f 9dff 7f3f 1200 803f c3fd 7f3f
00000030: ddfc 7f3f 0400 803f 0200 803f 0900 803f
00000040: 76ff 7f3f 0000 803f 2200 803f d7fa 7f3f
00000050: 0d00 803f bbfb 7f3f 0200 803f 0100 803f
0.99994946 0.9999856 0.9999379 1.000001 1.0000036 1.0000025 1.0000291 0.99994105
1.0000006 0.9999941 1.0000021 0.99996585 0.99995214 1.0000005 1.0000002 1.0000011
0.9999918 1.0 1.000004 0.99992126 1.0000015 0.99993485 1.0000002 1.0000001

bias f4 [24]
00000000: aeb7 59b8 0bb0 22b8 3c4e 5cb6 f5e7 e937
00000010: 8976 9938 b670 25b7 310d 4539 46b5 adb8
00000020: 90d7 5f38 f3d2 9438 ab6b 88b8 b547 91b8
00000030: 1d51 dfb8 5350 d437 e87b 9938 1270 8338
00000040: 93f7 4fb7 8060 3bb8 bf0e 6738 457d c4b8
00000050: 105e a2b8 62bf 9db8 f4e8 4438 3d08 a638
-5.1907897e-05 -3.8787763e-05 -3.2828093e-06 2.7883778e-05 7.3176874e-05 -9.861009e-06 0.00018792298 -8.283048e-05
5.33681e-05 7.096482e-05 -6.50504e-05 -6.927495e-05 -0.00010648577 2.5309773e-05 7.318688e-05 6.2674415e-05
-1.2395804e-05 -4.4674147e-05 5.5088425e-05 -9.3693416e-05 -7.7422825e-05 -7.521991e-05 4.6946996e-05 7.917031e-05

running_mean f4 [24]
00000000: 1eba 223e 18db 6cbe 7fc5 2d3f 731a 693d
00000010: fe73 cc3b 8cfb 0ebe e34c 153f aab9 593e
00000020: 290c 49bf d6ac 0fbd e097 6f3e 28a0 de3e
00000030: 3cd6 b03d ae41 e33e 819c 2bbe 12b6 cdbe
00000040: 94d1 84be 6b51 12bd 5f6e cbbd 15b7 de3e
00000050: 5791 043e 35c9 99bd 7bbd e5bd 4838 0e3d
0.1589131 -0.23130453 0.6787948 0.05690999 0.0062394133 -0.13963145 0.58320445 0.21262231
-0.7853418 -0.03507694 0.2339778 0.43481565 0.08634612 0.44386047 -0.1675892 -0.4017797
-0.25941145 -0.035722177 -0.09933161 0.43499056 0.12946068 -0.0750908 -0.11217781 0.034721643

running_var f4 [24]
00000000: 77e2 803e c733 e23d c5a4 303f e6e6 533e
00000010: f887 bb3d bd1f f23d c6c5 923e c585 113e
00000020: 0522 d73e 896f 2a3e b3f6 e33d 86d1 c43d
00000030: 067f a93e 4b36 2c3e 325f 813e 2193 603e
00000040: 048f ee3d 7db9 4f3e 539a fe3d 809a 0a3e
00000050: 231c 163e eff3 d23d 2105 ea3d c340 0c3e
0.2517278 0.11045032 0.6900142 0.2069355 0.09156793 0.1182246 0.28666514 0.14211185
0.42018142 0.1664411 0.111310385 0.09610276 0.33104724 0.16817586 0.2526794 0.21931125
0.11648372 0.20285602 0.12431779 0.135355 0.14659171 0.10300433 0.114267595 0.1369658

weight f4 [24, 24, 5, 5]
00000000: 6d41 ddbc 67d4 843c 60dd 9f3b 758a 983b
00000010: 79dd 103d 530d 55bc 4ae8 503b 35f7 88bc
00000020: 87df 393c bd03 ff3b 2d36 b83c d119 e4bc
00000030: 1fd6 853c 505c 38bb f6e6 b53c 4521 a8bc
00000040: 559b b3bc 942e 50bc 1320 d23c 6557 69bc
00000050: ee51 bebc 72b2 093d 57dc 853b 6f2e 8dbc
00000060: 6203 edbc a3ec be3c d307 043d 5ed9 1ebd
00000070: af63 453b ca76 a13a ec5f 183d 0ad3 aebc
00000080: a019 0ebc 58f1 1e3c d70f 8f3c 2bca 4ebb
00000090: de5c e23b b78d a9bb 8900 183d 83e7 fe3b
000000a0: 189c 0d3d d504 a7bb f062 133c 4231 e9bc
000000b0: a365 a4bc 2a7a 20bc f540 8abb e614 783c
000000c0: 204b 0dbd 1946 afbc 33f3 d5bc a877 f7bc
000000d0: a830 253d 5220 af3b 426a 82bb f0f1 c6bb
000000e0: cf85 65bc 405c fb3a d36c 3d3c 5df0 c6bc
000000f0: 5934 8abc 59bf ddbc e41d b0bc 2f23 213d
00000100: 3a06 53bc 0634 b03a 14ab 22bd d51c ddbc
00000110: a4f9 83bc 3e79 9a3b 010f d3bc a72c 153d
00000120: 81d9 cf3c fe8e 823c 3ac8 8c3c 4071 34bc
00000130: 3ecf 203d 7867 13bb 1a8e 563c 6c59 c63c
00000140: f3d7 4a3c 45a5 303c c4b0 06bd c885 293a
00000150: ebf6 0f3d 5123 7f3c e9d0 95bc edfb 94bc
00000160: 8b23 a33c 7dc2 7f3c 2f2f 04bd 2eef cb3c
00000170: 24db f63c 6cd0 fcbb 0275 0fbd 08fc fdbc
00000180: 1750 35bc ba89 d03c 77d2 d1bb c7c4 67bc
00000190: ebf1 c03c 9ff2 c7bc d793 a2bc 87e7 f43c
000001a0: e07a 20bd 47d1 5b3c ad01 223d c853 a9bc
000001b0: 17d1 433b 7988 d33c 328e 7dbc 0b61 373c
000001c0: 9223 2eba fa72 9ebc edb4 283b 3338 edbc
000001d0: 3d9f 46bb 895d 35bc edfd 0a3d 0ea9 94bc
000001e0: 34ec 413c 20ca 1cbd db8a 86bc e889 a3bc
000001f0: e9e7 0fbd 524f acbc 735b 6cbc e1fa cd3c
00000200: 6ea7 1abd 3c3e 14bd 61a4 083c fe2d d3bc
00000210: 9291 143d ac3d 7abc 5bff 193c 10d0 803c
00000220: 1d84 a13c cbf1 12bd ccbc f83c 8af7 af3c
00000230: 2cc3 c6bb f761 043d 9cb9 2dba 9632 42bc
00000240: 31b7 ecbc 11dc 743c 88a9 6c3c 0ac5 253d
00000250: a9f7 d03c bbee e93b acb1 c1bc 1821 23bd
00000260: 6552 83bc 0ea5 bebb a257 a73c 2243 abbc
00000270: 764b 733c d224 44bc 28b2 153d 6f64 0bbd
00000280: c7c5 a0bc 6722 d0bc 6425 033d fca6 043d
00000290: c790 ad3c 8eec d23b 1d4b f5bc 34f6 343c
000002a0: 3e3b 21bd fe6a 25bd 07ef 0c3d 0bb1 1bbd
000002b0: 7005 d23c e482 843c 57a5 243c 1604 1ebd
000002c0: be18 13bc 284b c4bb e806 06bd 3dbd 5a3c
000002d0: 3cd3 013d 77b0 b4bc fd0e f93c e233 033c
000002e0: fb5c 1c3d d3cd 8d3c a257 1bbc eb65 833c
000002f0: f21b a9bc 4a3b a73b 0c90 193c f959 91bc
00000300: e7cf 1abc d656 1c3d bf07 bf3a 5308 12bd
00000310: d3de 16bb 7efc 2abc 764c ca3c 231b d33b
00000320: b384 52bc 064b eb3c d5ce b6bc 27a2 153d
00000330: b8ab 5bbb 0895 40bc dbc4 813c 0c45 793b
00000340: d39f b4bc 5dc7 163d 6599 f8bc 1f42 0bbc
00000350: 178a 53bc effc fe3c 4fc6 7bbc ec92 debc
00000360: 5da0 0a3d 8b08 033d d805 253d 5cf5 2f3c
00000370: 1f36 22bd ec6f f0bc 36b0 113d ba49 ecba
00000380: 54a5 963c d3f9 17bd deee 6c3c 5e3d 0e3c
00000390: 10ba b43c 729a 1e3d 9f0e c2bc 52d5 aa3b
000003a0: b8b0 813c 68a6 c73c 0911 1e3c 0706 19bc
000003b0: f109 003d cf4d c63b 8b80 0c3d c608 123d
000003c0: cd4a 1f3d eed7 a93c 22e7 f13b 7fdb fd3c
000003d0: 885a 103d f84f 1fbd 8eab 953c 37ba 123d
000003e0: 71d7 173d dbd3 15bd 977b 003d 2304 b63c
000003f0: 1e64 0fbd 550f 643c 3ed8 0cbd 0767 edbc
-0.027008737 0.016214563 0.004878685 0.0046551772 0.035367463 -0.013003665 0.0031876736 -0.01671944
0.011344797 0.007782428 0.02248677 -0.027844341 0.016337452 -0.0028131194 0.022204857 -0.020523677
-0.021924654 -0.012706418 0.02565006 -0.014242028 -0.023232426 0.033617444 0.0040851044 -0.017234055
-0.028932277 0.023306197 0.032234024 -0.038781516 0.003011923 0.0012318727 0.037200853 -0.021340866
-0.008673102 0.0097010955 0.017463608 -0.0031553607 0.0069080433 -0.0051743644 0.037109885 0.007779063
0.03457269 -0.0050970116 0.0089957565 -0.02846587 -0.020067995 -0.009794751 -0.0042191693 0.015141701
-0.034495473 -0.02139573 -0.026116943 -0.030208424 0.040329605 0.005344429 -0.003979952 -0.0060713217
-0.014008953 0.0019177273 0.01156159 -0.024284536 -0.016870664 -0.02706878 -0.021498628 0.039340194
-0.0128799025 0.0013443239 -0.039713934 -0.026991287 -0.016110249 0.00471416 -0.02576399 0.036419537
0.025372269 0.015937325 0.01718532 -0.011013329 0.03926014 -0.0022492092 0.013095403 0.024212562
0.012380588 0.010781591 -0.03288342 0.00064667733 0.03514759 0.015572385 -0.018288093 -0.018186534
0.01991441 0.015610334 -0.03227156 0.024894323 0.030133791 -0.0077152755 -0.035023697 -0.031003967
-0.011066458 0.025456298 -0.006403263 -0.0141460365 0.023552855 -0.024407683 -0.019845886 0.029895557
-0.039179683 0.013416595 0.03955238 -0.020669833 0.0029879266 0.025821911 -0.015475797 0.01119257
-0.00066428736 -0.019341934 0.0025742606 -0.028957462 -0.0030307316 -0.011069664 0.03393357 -0.018147018
0.0118361 -0.0382787 -0.016423633 -0.01996322 -0.035133276 -0.021033917 -0.0144261 0.025144042
-0.03775733 -0.036192164 0.008339972 -0.025778767 0.03627164 -0.015273493 0.00939926 0.015724212
0.019716317 -0.035875123 0.030363463 0.02148034 -0.006065747 0.03231999 -0.0006627084 -0.011852881
-0.028895946 0.014945046 0.014444716 0.040471114 0.025508719 0.0071390546 -0.02364429 -0.039826483
-0.0160305 -0.005818016 0.020427529 -0.020906035 0.014849534 -0.011971669 0.036546856 -0.034031328
-0.019625558 -0.02540703 0.03201808 0.03238581 0.0211872 0.006436891 -0.029943043 0.0110450275
-0.03936314 -0.04038524 0.03440764 -0.03801064 0.025637358 0.016175695 0.010049186 -0.038578115
-0.008978067 -0.0059904046 -0.03272143 0.013350782 0.03169559 -0.022056801 0.030402655 0.008007975
0.03817461 0.017310059 -0.0094813425 0.01603981 -0.020643208 0.0051035034 0.009372722 -0.017743098
-0.009448982 0.03816875 0.0014574452 -0.03565247 -0.0023020997 -0.010436175 0.024694663 0.006442444
-0.012849021 0.028722297 -0.022315422 0.036531594 -0.00335191 -0.011754282 0.015840938 0.003803554
-0.022048866 0.03681122 -0.030346582 -0.008499651 -0.012911341 0.031126468 -0.015367105 -0.027169667
0.03384434 0.03199057 0.040288776 0.010739651 -0.039602395 -0.029350244 0.03556844 -0.0018027343
0.018389381 -0.037103485 0.014461247 0.008681623 0.022061378 0.03872151 -0.023688613 0.005213418
0.015831336 0.02437134 0.009647616 -0.009339816 0.03125948 0.006051756 0.034302276 0.0356529
0.038889695 0.020732846 0.0073822895 0.030988453 0.035242587 -0.038894624 0.01827028 0.03582212
0.037070695 -0.036578994 0.031367864 0.02221877 -0.03500759 0.013919671 -0.034385912 -0.028979791

bias f4 [24]
00000000: 353a 803c 93be 753c be58 c2bc cd59 88bc
00000010: 51e6 ecbc f746 e23c e8d0 22bd dd2f a7bc
00000020: 2c6c 393b f616 423c f0ae 173d 1103 fe3c
00000030: a960 e0bc 42d8 153d 8a05 8c3c a9d5 3fba
00000040: bc32 773a 3111 db3b 59ff 06bd e947 ac3c
00000050: 0d81 20bc c33a 57bc 46c0 c2bc 6af2 f23c
0.015652755 0.01499905 -0.023723956 -0.016644383 -0.028918417 0.02762173 -0.03975001 -0.020408565
0.0028293235 0.011846295 0.037032068 0.031007322 -0.027389841 0.036583193 0.017092485 -0.00073179096
0.0009429862 0.006685399 -0.032958362 0.021030383 -0.009796393 -0.0131365685 -0.023773324 0.029656608

weight f4 [24]
00000000: 5cff 7f3f 66fd 7f3f 0d00 803f 1400 803f
00000010: 2700 803f 0000 803f 8dfe 7f3f 0300 803f
00000020: f2ff 7f3f 0600 803f ecff 7f3f 2100 803f
00000030: 0000 803f 8efb 7f3f 8200 803f 0b00 803f
00000040: 0000 803f bcfe 7f3f 1200 803f 74f9 7f3f
00000050: 0a00 803f 2a00 803f ddff 7f3f 0000 803f
0.9999902 0.9999603 1.0000015 1.0000024 1.0000046 1.0 0.9999779 1.0000004
0.99999917 1.0000007 0.9999988 1.0000039 1.0 0.99993217 1.0000155 1.0000013
1.0 0.9999807 1.0000021 0.9999001 1.0000012 1.000005 0.9999979 1.0

bias f4 [24]
00000000: 0936 3bb7 f8a7 a638 cb68 e4b5 e95d dd38
00000010: 9cca 3d39 27d7 9f38 2f9a 4c38 5e4d 7b38
00000020: 6918 5338 e7e7 bd38 3b68 7338 a1c8 4f39
00000030: 79b1 1338 f487 84b8 4784 4e39 00a0 1f38
00000040: 103c fe38 d91a c938 57bc 8038 cf77 81b8
00000050: 0611 c235 b124 1339 91b4 8738 24ec b738
-1.115865e-05 7.9467834e-05 -1.7017823e-06 0.00010555593 0.00018099922 7.621786e-05 4.8780985e-05 5.9915117e-05
5.0329054e-05 9.0554175e-05 5.8032787e-05 0.00019815798 3.5212815e-05 -6.319574e-05 0.00019694968 3.8057566e-05
0.00012122851 9.589428e-05 6.138597e-05 -6.1735154e-05 1.4459081e-06 0.00014032681 6.470935e-05 8.7701046e-05

running_mean f4 [24]
00000000: d82f 94bd ce98 d93d 5ae3 7b3e 3400 953e
00000010: 7259 80bc e569 823e dfc3 33be 0722 443e
00000020: c448 0b3d 512b 5f3c e537 123e 7d45 3c3e
00000030: 1555 00be c2ac 133e 632c 983e 9354 223c
00000040: efd4 453e cefb b83d 8a74 113d 451b be3e
00000050: f1f0 c53c 0812 b7bd 414f f0bd efa4 fcbe
-0.07235688 0.10624848 0.24598446 0.29101717 -0.01566765 0.25471416 -0.17555188 0.19153605
0.03400494 0.013621167 0.14279135 0.18385883 -0.12532456 0.1442137 0.29721364 0.009907859
0.19319509 0.09032403 0.03551153 0.3713018 0.024162741 -0.08938986 -0.117338665 -0.49344584

running_var f4 [24]
00000000: c1f8 523e f01a 2f3e 139d 0e3e ce27 1e3e
00000010: 5051 b03d fd7e 023e 5603 f23d 701b 993d
00000020: 0b78 d63d d9c2 043e a8ad 0f3e 3858 963d
00000030: 84d4 cd3d 8711 133e d510 cc3d e4ca e33d
00000040: 34a5 073e 6fed ee3d 1920 ec3d 5b36 f73d
00000050: 3552 e03d 7e63 5b3e 5b84 013e 3640 453e
0.20602705 0.1710012 0.13927107 0.15444872 0.08609259 0.12743755 0.118170425 0.074759364
0.10472115 0.12964953 0.14031088 0.07341045 0.100503 0.14362155 0.09964148 0.11122683
0.13246614 0.116663806 0.1152956 0.12070914 0.1095318 0.21424672 0.12648146 0.19262776

weight f4 [10, 16224]
00000000: 5e82 ac3b dfd6 2d3a f03c abbb e957 c13b
00000010: 0885 bfbb 3d91 a13b 3749 9fbb aade 583a
00000020: c651 84ba 2a36 b338 f127 d8bb 0df1 c2bb
00000030: 2073 c23b dbc9 b1bb ac23 a53a d88a ec3b
00000040: 19f8 2cba 2d2e 253b a4f3 84bb a000 273b
00000050: 9bf3 5cba 39c5 21bb 3394 08b9 551d 473b
00000060: 8f2e 6e3b 281e e43b e0fe bd3a 5631 803b
00000070: f2e0 eabb 6a58 603a 64c9 d8bb 9e2a 92b9
00000080: 4012 2bbb 818c d7bb 9100 d33b e1b9 71bb
00000090: 645d e83b 7786 88bb 6932 b039 02c4 663b
000000a0: 71ab a9bb 7bcf c4bb f84b 283a 5603 9837
000000b0: ad4d 59ba 23fd a1bb 63f7 a0bb c86c cfbb
000000c0: 92c2 1abb 9caa 8bbb dac7 693b 342d bb3a
000000d0: f1e8 26bb fa06 933b b09e 863b 04a4 d9bb
000000e0: 5a0f e5ba 9ea1 1938 eac3 aabb 6566 58bb
000000f0: e160 773b 7f43 b43b 8703 53ba a603 e63a
00000100: 66e0 44bb e532 b3ba 8f0a c7bb 9bb8 823b
00000110: 7040 1e3b 907a 8e37 9320 58ba 7ed5 23bb
00000120: e388 0c3a 6490 4439 e64a 743b 3619 cfba
00000130: 8b96 6a3a 37d0 123b 7f6c b1bb 4e77 5b3b
00000140: f1db 013c d102 4fbb b79b 773b d4ec 9abb
00000150: 2b66 c8bb 7336 a53a 1b8b e53a 142d debb
00000160: 6f08 673b 31e2 023c 2f18 863b 753a 54ba
00000170: 9ce7 c0bb f4b7 813a a8ae c3bb ea75 86bb
00000180: 9ae4 613b f427 8abb ab38 de3a 5b8f 7c3b
00000190: a9b6 f6bb 3c4b 5abb 11be 5ebb 0b6c 2b3b
000001a0: 3288 5f3b e869 e0bb 76ce b8bb 9b24 313b
000001b0: 5782 dcbb cbb0 1bba c22a 6fbb 8e8f f3bb
000001c0: d319 293b 1f26 fabb 9c1f c93b e6fa 9b3b
000001d0: 911e cfbb 8c0e d6ba 8264 e33b dec9 98bb
000001e0: 1ead f83b e772 bf3b 2eb4 193b 3612 26bb
000001f0: 57f8 e63b 8de2 4a3b 20b5 d83b e297 143b
00000200: be00 fc3b 4ff3 c339 a3d5 17bb de96 6fbb
00000210: b31e ff3a 60d0 613a a5ae e33b c074 2a3b
00000220: 7801 d33b 3347 843b b4a3 fb3b 6cb2 c83b
00000230: e61b d0bb a67c e83b 1702 303a 54a1 8ebb
00000240: a09f ad3b 291d 533b f23c 8e3b 2369 7c3b
00000250: fb03 c43b 9474 023c f879 fa3b 69bc ad3b
00000260: 67d0 9c3b 4617 6a3b 8277 3e3b f2ad 68bb
00000270: 4a11 e43a 14ea ca3b e300 463b 2125 463b
00000280: 9073 c23b 4a5a de3b 2e64 993b 64c5 ce3b
00000290: 50e6 2e3b 57a7 4a39 1d69 33ba bc55 293b
000002a0: cd6b a43a 9284 9cbb f833 d2bb 07b4 8dbb
000002b0: d934 243b 3882 9c38 61ab 953b d04f 99bb
000002c0: a6e5 1fbb 49de 8b3b b071 3dbb d0d7 f33b
000002d0: 7410 363a 9766 a9ba 02a7 b339 ea53 b03a
000002e0: a883 ad3a aef1 da3b 9646 19bb ef1f 2a3b
000002f0: 6d7e 75ba 709e e23a ca0e d83b 6e0d 573b
00000300: bc4b ea3b d448 5d3b b7ae 6f3b 30d3 043b
00000310: b8fe e9bb c7ea edbb 9c65 353b ab32 7c3b
00000320: 4ce0 86bb b2b9 3cbb 6f4e babb 16c8 b73b
00000330: 7024 e53b c5c8 8aba 0f3d cb3b 47d6 e5bb
00000340: aaa6 003c efaf 36bb bec8 bdbb 68b7 e63b
00000350: e9cb b1bb f307 623a 4f29 0e3b d713 803b
00000360: 6477 e53b 9795 983b f9ef ebba f947 b33b
00000370: 3d92 ef3a 389a 9ebb 2d97 dfba 60b0 9b3b
00000380: 32f6 09ba 1163 caba 3f0e 4c3a fb29 1cbb
00000390: d0c1 91bb 9f87 6e3a 56c1 2ebb 40eb c7bb
000003a0: 6894 863b a0a5 6eba 533d bb3b b886 c1b9
000003b0: f156 56ba d707 7fb9 34f1 fd3b 7191 a23a
000003c0: 0e3e ef3b 1131 c1bb 22c2 75bb 3a02 073b
000003d0: fb4c b7bb 7bd2 ba3b 4d91 de39 29bb 473a
000003e0: 8802 153a 8f22 5939 b183 983b df42 403a
000003f0: da9b a3bb ba1e 323b c645 edbb c9fa fa3a
0.0052645644 0.00066314446 -0.00522577 0.0059003723 -0.005844716 0.004930644 -0.004861023 0.00082729256
-0.0010095171 8.545474e-05 -0.0065965583 -0.0059491456 0.005934134 -0.0054256744 0.0012599132 0.0072187
-0.0006598249 0.0025204525 -0.0040573645 0.002548255 -0.0008428634 -0.0024684204 -0.00013025179 0.0030382473
0.003634367 0.0069616027 0.0014495514 0.0039121313 -0.007167929 0.00085580966 -0.0066158045 -0.00027879042
-0.0026103407 -0.0065780287 0.0064392765 -0.0036884474 0.007091211 -0.00416642 0.00033606894 0.0035212045
-0.005177908 -0.006006179 0.00064200116 1.8121365e-05 -0.00082894677 -0.0049435063 -0.0049123033 -0.0063301064
-0.0023614508 -0.0042622816 0.00356721 0.0014280439 -0.0025468434 0.0044869157 0.0041082725 -0.0066418666
-0.0017475889 3.662856e-05 -0.005211343 -0.0033020016 0.0037746953 0.00550121 -0.0008049537 0.0017548695
-0.0030040978 -0.0013671784 -0.0060742567 0.003989292 0.0024147294 1.6984792e-05 -0.00082446 -0.0024999077
0.0005360974 0.00018745806 0.0037276088 -0.001580036 0.0008948824 0.0022401938 -0.005414545 0.003348786
0.007925973 -0.0031587372 0.0037782022 -0.004727939 -0.006115695 0.0012604728 0.001751277 -0.006780276
0.003525283 0.007988499 0.0040922384 -0.0008095869 -0.005886985 0.0009896741 -0.0059717484 -0.004103412
0.0034468533 -0.0042161886 0.0016954144 0.0038537595 -0.007529099 -0.0033309003 -0.00339878 0.0026156928
0.0034108278 -0.0068485625 -0.0056398464 0.0027029875 -0.006729405 -0.0005939125 -0.0036493992 -0.0074328845
0.0025802746 -0.007633939 0.0061378013 0.004760134 -0.0063207825 -0.001633124 0.0069394717 -0.0046627363
0.0075889966 0.005842555 0.0023453343 -0.0025340444 0.0070486474 0.0030957789 0.0066133887 0.0022673537
0.007690518 0.00037374577 -0.002316811 -0.003655843 0.0019464105 0.0008614119 0.0069483095 0.002600953
0.006439384 0.004036808 0.007679427 0.006124785 -0.006350982 0.0070949374 0.00067141786 -0.004352728
0.00529857 0.0032213426 0.0043407613 0.0038514815 0.00598192 0.007962365 0.0076439343 0.0053020013
0.0047855857 0.0035719438 0.0029062931 -0.003550407 0.0017400172 0.006192455 0.003021293 0.0030234533
0.0059341863 0.0067856656 0.004681132 0.006310152 0.002668757 0.0001932656 -0.0006843971 0.0025838455
0.0012544334 -0.004776546 -0.0064148866 -0.0043244394 0.0025055914 7.462915e-05 0.004567549 -0.004678704
-0.0024398356 0.004268442 -0.0028906874 0.0074414983 0.0006945201 -0.0012924251 0.0003426597 0.0013452743
0.0013238089 0.0066816425 -0.002338802 0.0025958975 -0.0009364847 0.001728965 0.00659356 0.0032814401
0.0071501415 0.0033765333 0.0036572644 0.002026748 -0.0071409605 -0.0072606537 0.0027678972 0.003848235
-0.0041160937 -0.0028797206 -0.0056856195 0.005608569 0.006992869 -0.0010588398 0.006202347 -0.0070140692
0.007852236 -0.002787586 -0.0057917526 0.0070409067 -0.0054259193 0.00086224003 0.0021692102 0.003908615
0.007002758 0.0046565044 -0.0018000595 0.0054712263 0.0018277835 -0.0048401617 -0.0017058604 0.00475125
-0.0005262821 -0.0015440901 0.0007784105 -0.0023828733 -0.004448153 0.00090991886 -0.002666553 -0.006101042
0.004107047 -0.00091036595 0.0057140975 -0.00036912202 -0.00081764074 -0.00024321616 0.007749701 0.0012402964
0.0073010987 -0.0058957417 -0.0037499745 0.0020600692 -0.0055938936 0.0057013608 0.00042451397 0.00076191366
0.0005684276 0.00020707607 0.0046543707 0.00073341833 -0.004992944 0.002717896 -0.0072409837 0.0019148226

bias f4 [10]
00000000: 218c c03b 9fff ecb8 24b0 bfbb 027a 94b9
00000010: b621 9eba 7f7c 463b 52af e9bb f905 b2bb
00000020: 57b2 e7bb a9d3 89ba
0.0058760797 -0.0001130097 -0.005849855 -0.00028319663 -0.001206449 0.0030286608 -0.0071314955 -0.005432841
-0.0070708203 -0.001051535
