models/Demo/LOGS/models/nnet_epoch_1.pt (torch, 765965 bytes, 26 tensors)

weight f4 [12, 3, 5, 5]
0	0x3db44507	0.088022284
1	0xbdeb9259	-0.11502523
2	0x3ddf43f9	0.10901637
3	0x3dc2c38f	0.09509956
4	0x3d924d1a	0.07143612
5	0x3daadb89	0.08342654
6	0x3dc6474c	0.096815675
7	0xbd10e56f	-0.035375055
8	0x3ca9618a	0.020676393
9	0x3d280030	0.041015804
10	0xbb374956	-0.0027967296
11	0xbd6c9a4b	-0.057764333
12	0xbcd9a7db	-0.026569298
13	0xbdd7ce20	-0.10537362
14	0x3d892547	0.06696563
15	0x3d4a527d	0.049395073
16	0xbd20e984	-0.039285198
17	0xbd19695e	-0.037454
18	0x3d23f65f	0.04002988
19	0x3daffd3d	0.08593223
20	0x3d6ed032	0.05830402
21	0x3d003db4	0.031308845
22	0x3c598854	0.013277132
23	0x3d359750	0.044333756
24	0xbdc392c6	-0.09549479
25	0xbdc937ca	-0.09825094
26	0x3dddfb27	0.10838919
27	0x3d574bf4	0.05256267
28	0xbdafb51a	-0.08579464
29	0xbca08d66	-0.019598674
30	0x3d114078	0.035461873
31	0xbcc137c1	-0.023586156
32	0x3d2a7763	0.041617762
33	0x3d65d749	0.056113515
34	0xbdb04cd1	-0.086084016
35	0x3b5d8aa7	0.0033804567
36	0x3d01c652	0.031683274
37	0x3cf376b6	0.029719692
38	0x3db16920	0.08662629
39	0xbdc3be22	-0.09557749
40	0x3ca1cbbb	0.019750467
41	0x3d441c47	0.04787853
42	0x3dc423e9	0.09577162
43	0x3d766f8d	0.060164977
44	0xbd4a49ef	-0.049386915
45	0x3da8c1de	0.08240102
46	0xbdc7013b	-0.097170316
47	0xbce20aa4	-0.027592964
48	0xbb9a5e2f	-0.0047109346
49	0xbcd9eeb1	-0.026603075
50	0xbc95b9f7	-0.018277152
51	0xbd2f51ab	-0.042802494
52	0xbbf71e0b	-0.007541423
53	0xbcc5fc0a	-0.024168033
54	0xbd1cec45	-0.03831126
55	0x3dda7765	0.10667304
56	0x3c98a48c	0.01863315
57	0xbdebb051	-0.11508239
58	0x3bd2170a	0.006411438
59	0xbd9a1c5b	-0.075249396
60	0x3d451215	0.048112947
61	0xbdbb6db0	-0.091517806
62	0x3da87af2	0.08226575
63	0xbd9b28d2	-0.07576145
64	0xbdcbc38b	-0.09949406
65	0xbd96ae64	-0.07357481
66	0x3da1c334	0.0789856
67	0x3d3bf02c	0.045883343
68	0xbd86a125	-0.06573705
69	0xbdb4ced4	-0.08828512
70	0x3dc83e19	0.09777469
71	0x3dc70b56	0.09718959
72	0xbd531411	-0.05153281
73	0xbdd94714	-0.1060926
74	0x3d7514e2	0.05983437
75	0xbc6017ea	-0.013677577
76	0xbdc6b290	-0.09702027
77	0x3dc03e3b	0.093868695
78	0xbde331f9	-0.11093516
79	0xbbafcef2	-0.005365246
80	0x3d426fca	0.04746989
81	0xbddf94df	-0.10917067
82	0xbd8ff006	-0.07028203
83	0xbd960045	-0.0732427
84	0x3dd1ecc6	0.10250239
85	0xbd343ae5	-0.04400148
86	0xbdaf80d2	-0.085694924
87	0xbd67d0d2	-0.05659563
88	0xbd477b09	-0.04870132
89	0x3d8ffd5b	0.070307456
90	0x3db729cd	0.0894352
91	0x3dd829af	0.105548255
92	0xbde418e9	-0.11137564
93	0x3c783104	0.015148405
94	0xbd81df83	-0.063414596
95	0xbdb6fc31	-0.089348204
96	0xbc93ad8f	-0.018027095
97	0xbd90541f	-0.07047295
98	0xbd922f17	-0.07137888
99	0x3c2d9472	0.010594474
100	0x3d9a9b91	0.07549203
101	0x3db30949	0.087420054
102	0x3d8fe4e9	0.07026083
103	0xbcdfb6ef	-0.02730891
104	0x3d65ea95	0.056131918
105	0x3da37bb4	0.07982579
106	0x3cdda254	0.027054943
107	0xbae0992c	-0.0017135493
108	0xbc382f25	-0.011241709
109	0x3d9d327c	0.07675645
110	0x3dc69870	0.09697044
111	0xbc140f8b	-0.009036909
112	0xbc959fa8	-0.018264607
113	0xbddc32f5	-0.10751907
114	0xbdb423bf	-0.087958805
115	0x3c9cbf02	0.019134048
116	0x3b7ccf1b	0.0038575593
117	0xbddb5b7c	-0.10710809
118	0x3d9562fc	0.072942704
119	0xbdb784d5	-0.089608826
120	0x3d7373f7	0.059436765
121	0xbc26833d	-0.010163126
122	0xbddd67e9	-0.10810835
123	0x3c94e3d8	0.01817505
124	0xbc205b00	-0.009787321
125	0xbde4bb07	-0.11168485
126	0x3dbfc929	0.0936454
127	0x3dd72385	0.10504822
128	0x3d3bb85b	0.045830112
129	0x3c276f56	0.010219416
130	0xbb1beeec	-0.0023793532
131	0x3d8b8daa	0.0681413
132	0xbd2a1359	-0.041522358
133	0x3d11ea82	0.035624035
134	0x3ce58673	0.028018212
135	0x3dac4ec4	0.08413461
136	0xbdd8ed5d	-0.105921485
137	0xbdc815ba	-0.09769769
138	0x3daa4c72	0.08315362
139	0x3d1b751c	0.03795348
140	0x3cb55ca4	0.022138901
141	0x3c862651	0.016375693
142	0xbd98ac92	-0.0745479
143	0xbdcf5a09	-0.10124595
144	0xbd93feda	-0.072263435
145	0x3da5d0be	0.08096455
146	0x3b37316c	0.0027953042
147	0x3cd09425	0.025461266
148	0xbd6f42d4	-0.05841334
149	0xbde6645c	-0.11249611
150	0x3d8bbb55	0.0682284
151	0x3dd80766	0.10548286
152	0xba9b7132	-0.0011859296
153	0x3cf57290	0.029961854
154	0xbd6eb7f1	-0.05828089
155	0xbc453ca6	-0.0120383855
156	0x3dc00d19	0.09377498
157	0x3daf464b	0.08558329
158	0xbde5b693	-0.11216464
159	0xbd9e5bb3	-0.07732334
160	0xbdac5024	-0.08413723
161	0xbd8e598a	-0.06950672
162	0x3c2b0fb0	0.010440752
163	0xbdd532da	-0.1041009
164	0xbdc48285	-0.09595207
165	0x3d93d228	0.072178185
166	0xbd4e76c1	-0.05040622
167	0xbde2420b	-0.11047753
168	0xbdd9c4ff	-0.10633277
169	0x3d686ec6	0.056746267
170	0x3a2232c9	0.0006187377
171	0xbdc8504c	-0.097809404
172	0x3cfb0805	0.030643472
173	0x3db229a7	0.08699351
174	0x3c950d82	0.018194918
175	0x3d2b3227	0.041795876
176	0x3c63ca3f	0.0139032
177	0x3d49594e	0.049157433
178	0xbd4cd4e1	-0.050007705
179	0xbd8a7271	-0.06760109
180	0xbd48667c	-0.04892586
181	0xbc2efff2	-0.010681139
182	0xbc873436	-0.016504388
183	0x3d5832d3	0.052782845
184	0xbc65af60	-0.014018863
185	0xbda980ab	-0.082764946
186	0xbd508d1d	-0.050915826
187	0xbddf30c0	-0.1089797
188	0x3d9606ea	0.073255375
189	0xbd7d6399	-0.06186256
190	0xbd144c78	-0.03620574
191	0x3dc6c66e	0.09705816
192	0x3da41563	0.08011892
193	0xbdddd590	-0.108317494
194	0xbd3df08d	-0.046371985
195	0xbced7da8	-0.028990582
196	0x3c92bf58	0.017913505
197	0xbdcbe257	-0.0995528
198	0x3d7ef086	0.0622411
199	0xbcd0f7ec	-0.025508843
200	0xbc8c0f2a	-0.017097075
201	0xbd2e6246	-0.04257419
202	0xbd06cdce	-0.032911114
203	0x3d9dc01a	0.07702656
204	0x3d7586b7	0.059942927
205	0x3be993aa	0.0071281986
206	0xbd7f86be	-0.06238436
207	0xbd5d0736	-0.053961955
208	0xbddd12cf	-0.10794603
209	0xbd2df4d6	-0.042469822
210	0xbc85241e	-0.016252574
211	0x3ade77c8	0.0016972953
212	0x3b9b9509	0.004747991
213	0xbd63e324	-0.05563654
214	0x3b987548	0.004652653
215	0x3d4c70f0	0.049912393
216	0xbd619747	-0.05507591
217	0xbc45f4b3	-0.012082267
218	0xbc7aef2f	-0.015315815
219	0x3d929661	0.07157589
220	0x3da2adc0	0.079432964
221	0x3cfa132b	0.030526718
222	0xbd6bf64f	-0.057607945
223	0xbd00c311	-0.03143603
224	0x3d091b8c	0.033473536
225	0xbc0fd329	-0.008778372
226	0x3d8590be	0.06521748
227	0x3dccbd91	0.099970944
228	0xbdd81929	-0.10551674
229	0x3de5b502	0.11216165
230	0xbd27ef83	-0.0409999
231	0x3bfd849f	0.007736757
232	0xbd6a7c8f	-0.057247695
233	0xbd41f19a	-0.04734955
234	0x3d460409	0.048343692
235	0xbd1e8db9	-0.038709376
236	0xbbdcc130	-0.006736897
237	0xbdaaccb7	-0.083398275
238	0xbda3cafa	-0.07997699
239	0x3cb2f898	0.021847054
240	0x3d78549a	0.060627557
241	0xbcb9de34	-0.022688963
242	0xbdbef7d0	-0.0932461
243	0x3d63debb	0.055632334
244	0x3dc76bba	0.09737344
245	0x3d254119	0.040345285
246	0x3d049ec5	0.032377977
247	0x3cb7e85e	0.022449668
248	0x3cd449d6	0.025914114
249	0xbceb782a	-0.028743822
250	0x3d7915fe	0.06081199
251	0x3d4c3d8c	0.049863383
252	0xbd492dbb	-0.049115878
253	0xbd83bd4a	-0.064325884
254	0x3d6c56cf	0.057699975
255	0xbcc593df	-0.024118362

bias f4 [12]
0	0x3deaa141	0.11456538
1	0x3b5b658b	0.0033477272
2	0xbd2f2505	-0.042759914
3	0x3cf37ff5	0.0297241
4	0x3d432746	0.047644876
5	0xbd7744f9	-0.06036851
6	0xbd8712e5	-0.06595401
7	0x3d79ec14	0.061016157
8	0x3db0965a	0.08622427
9	0x3de726ec	0.11286721
10	0xbd7bbce0	-0.061459422
11	0xbde00930	-0.109392524

weight f4 [12]
0	0x3f800013	1.0000023
1	0x3f800004	1.0000005
2	0x3f800012	1.0000021
3	0x3f80000d	1.0000015
4	0x3f800002	1.0000002
5	0x3f7ffdfe	0.99996936
6	0x3f80000a	1.0000012
7	0x3f7fffc5	0.9999965
8	0x3f7ffd0f	0.9999551
9	0x3f7fff02	0.99998486
10	0x3f800021	1.0000039
11	0x3f7ffeeb	0.9999835

bias f4 [12]
0	0x36f0ac07	7.172584e-06
1	0x37025914	7.769344e-06
2	0x37637070	1.3556433e-05
3	0x357993ba	9.29747e-07
4	0xb7c2c817	-2.3219776e-05
5	0xb8318172	-4.2320644e-05
6	0x3729c691	1.0119417e-05
7	0xb72545ad	-9.850989e-06
8	0xb7997629	-1.8294044e-05
9	0x382965b6	4.0387466e-05
10	0x37b465e6	2.1505122e-05
11	0xb77c3983	-1.5033761e-05

running_mean f4 [12]
0	0x3e562857	0.20913826
1	0xbe266192	-0.16248158
2	0xbeab9a3e	-0.33516115
3	0x3dd8a0fc	0.1057758
4	0x3e22ad52	0.15886429
5	0xbb146de6	-0.0022648512
6	0x3d05f35f	0.0327028
7	0xbd7e79df	-0.062127944
8	0x3ed61de6	0.41819686
9	0x3eb31607	0.34977743
10	0x3d379582	0.044820316
11	0xbdee3034	-0.11630288

running_var f4 [12]
0	0x3c504e67	0.012714005
1	0x3cf8bb57	0.030362768
2	0x3d76d08d	0.060257483
3	0x3b95b1a5	0.004568296
4	0x3c0c6d0b	0.00857092
5	0x3b73a073	0.0037174493
6	0x3c490737	0.012269787
7	0x3c4620ca	0.012092778
8	0x3d98e228	0.07465011
9	0x3d1efcea	0.038815416
10	0x3c1b3bce	0.009474708
11	0x3b79db73	0.0038125187

weight f4 [12, 12, 5, 5]
0	0xbd6b7366	-0.0574831
1	0xbcadf9b0	-0.021237224
2	0x3d328416	0.043583
3	0xbb50613f	-0.0031796244
4	0x3b0dd531	0.0021641965
5	0x3d3783fc	0.044803604
6	0x3cb8026b	0.02246209
7	0x3ce3ed26	0.027823042
8	0x3d055360	0.032550216
9	0xbaa9571b	-0.0012919636
10	0xbd2c1fc7	-0.042022493
11	0xbd44bf71	-0.048034135
12	0x3ce3012c	0.02771052
13	0x3b775dfc	0.0037745228
14	0xbd5837ce	-0.052787594
15	0xbd39ff47	-0.045409467
16	0x3c3c9d30	0.011512086
17	0x3ce0d793	0.027446544
18	0xbcd9af89	-0.02657296
19	0xbd086bcd	-0.03330593
20	0x3d15f78c	0.036613032
21	0xbd6c62d1	-0.057711426
22	0xbb752a8c	-0.0037409393
23	0xbd5f35a4	-0.054494515
24	0x3c0eb84f	0.008710935
25	0xbd0152a7	-0.031572964
26	0x3d49d7d7	0.049278107
27	0xbb140f21	-0.0022592025
28	0xbd12b2fe	-0.03581523
29	0x3d3f14da	0.046650745
30	0x3a907b2e	0.0011023039
31	0x3d2d3df7	0.042295422
32	0xbd281cf8	-0.04104325
33	0xbd687278	-0.05674979
34	0x3c038171	0.008026467
35	0xbc203ba8	-0.009779848
36	0xba58724b	-0.0008256777
37	0x3c66f37c	0.014096137
38	0x3b902961	0.004399464
39	0xbceeb0fb	-0.029137125
40	0x3d0a43df	0.033756133
41	0x3cb8386b	0.02248784
42	0xba60d9b1	-0.00085773604
43	0xbc8dc6ad	-0.01730665
44	0x3cbd0c6a	0.023077209
45	0x3c014033	0.007888841
46	0xbd29bdc2	-0.041440733
47	0xbd017d13	-0.03161342
48	0x3d3500bc	0.044190153
49	0xbc05c2b8	-0.0081641
50	0x3bd04ec5	0.0063570463
51	0xbd4a1e55	-0.049345333
52	0xbab69c49	-0.0013932075
53	0xbd32e254	-0.043672875
54	0x3cf14a1b	0.029454282
55	0xbcbd3914	-0.023098506
56	0xbd64ae8f	-0.055830535
57	0x3d07f958	0.033196777
58	0x3d14ff2b	0.03637616
59	0xbcde142b	-0.027109226
60	0xbba22361	-0.004948065
61	0xbd009103	-0.031388294
62	0xbd274419	-0.040836427
63	0x3d11a184	0.035554424
64	0x3d62381b	0.055229288
65	0xbd4b3ec7	-0.049620416
66	0xbd31db66	-0.043422125
67	0xbd1ae935	-0.03782006
68	0xbc869091	-0.016426357
69	0x3d457301	0.04820538
70	0xbd38ae1c	-0.04508792
71	0x3d611b8b	0.054957908
72	0x3cd1e813	0.025623357
73	0x3d6b9860	0.057518363
74	0xbd08c4f8	-0.03339097
75	0xbd540096	-0.05175837
76	0xbcc7e5e8	-0.02440162
77	0x3d278e77	0.04090735
78	0x3d2e5361	0.042559985
79	0xbcc22e75	-0.023703793
80	0xbcfde57a	-0.030993212
81	0x3d40e7a9	0.04709593
82	0xbb4541c1	-0.0030099007
83	0x3d549c39	0.051906798
84	0xbcbfa78f	-0.023395328
85	0x3d190a3a	0.03736327
86	0x3bc9c148	0.006157074
87	0x3b59d007	0.0033235566
88	0xbd0b774a	-0.03404931
89	0x3cec2057	0.028824015
90	0x3d0beedd	0.034163345
91	0xbd0d8a28	-0.034555584
92	0x3d27c08e	0.04095512
93	0xbcd1b8ae	-0.025600757
94	0x3d0079ce	0.031366162
95	0xbd473635	-0.04863568
96	0x3cb7a67c	0.022418253
97	0xbc2faa2c	-0.0107217245
98	0xbc247add	-0.0100390585
99	0x3d5b7964	0.053582564
100	0xbd3c97e9	-0.04604331
101	0xbd229145	-0.03968932
102	0xbcb9fdfe	-0.02270412
103	0xbc9f7c72	-0.01946852
104	0x3cf2c9de	0.029637273
105	0xbd08254a	-0.033238687
106	0xbbe9a218	-0.007129919
107	0xbcd4604b	-0.025924822
108	0x3d450e02	0.048109062
109	0xbd3d386d	-0.04619639
110	0xbd5a9e04	-0.05337335
111	0x3c80d409	0.015726106
112	0x3cd4296d	0.02589866
113	0x3d27745f	0.040882464
114	0xbd3072f8	-0.043078393
115	0xbb8a8b0e	-0.0042280024
116	0xbc798b5d	-0.015230981
117	0xbcad9d8b	-0.021193286
118	0xbc0dfd9e	-0.008666424
119	0xbbbcdc13	-0.0057635396
120	0xbb8fcf70	-0.004388742
121	0x3d1a3c48	0.037655145
122	0xbd644af8	-0.05573556
123	0x3ce5f5fd	0.028071398
124	0xbc9c6dc2	-0.019095305
125	0x3b9dc598	0.004814815
126	0xbd3d653c	-0.046239123
127	0xbd0def30	-0.034651935
128	0xbd4a40d0	-0.049378216
129	0xbbd44944	-0.0064784605
130	0xbb5c8e7b	-0.003365426
131	0xbcbf6c66	-0.023367118
132	0xbd078de6	-0.03309431
133	0xbd430d64	-0.047620192
134	0x3ceedb4d	0.029157305
135	0x3c9346ae	0.017978039
136	0x3d507fb4	0.050903037
137	0x3d2a1a60	0.04152906
138	0xbb468868	-0.0030293707
139	0x3c95b302	0.018273834
140	0x3bf5bfcc	0.0074996706
141	0x3caf490e	0.02139714
142	0x3d1b3ff9	0.037902806
143	0x3b375bf3	0.002797839
144	0xbbe77737	-0.007063772
145	0xbcd22296	-0.025651257
146	0x3ce37f6e	0.027770724
147	0xbd446e9e	-0.047957055
148	0xbb623edd	-0.0034522333
149	0xbb8a6a36	-0.004224087
150	0x3d548977	0.05188891
151	0x3b624e39	0.0034531488
152	0xbd5d55df	-0.05403697
153	0xbb380f59	-0.002808532
154	0xbd1a0067	-0.03759804
155	0x3d02194c	0.031762406
156	0x3d538f14	0.05165012
157	0x3d4342d8	0.04767117
158	0xbc69de71	-0.014274226
159	0x3d2c88c8	0.042122632
160	0x3d2ed073	0.04267926
161	0xbc03f174	-0.008053172
162	0xbd47f788	-0.04882005
163	0x3c85a02b	0.016311726
164	0x3cc2729d	0.023736292
165	0xbd1a9d0f	-0.03774744
166	0x3ce1df79	0.02757238
167	0xbbe5f51b	-0.0070177442
168	0xbaff8d51	-0.0019497072
169	0xbce58513	-0.028017556
170	0xbbd23e62	-0.006416128
171	0xbd2f8665	-0.042852778
172	0xbd4112d3	-0.047137093
173	0x3ca06ba3	0.019582575
174	0x3c012d29	0.007884302
175	0xbd11ca28	-0.03559318
176	0x3bec5430	0.0072121844
177	0x3d056463	0.03256644
178	0xbd02bed1	-0.031920258
179	0xbd006070	-0.03134197
180	0x3cc2c224	0.023774214
181	0x3c4ae109	0.012382754
182	0x3a2756b8	0.00063834665
183	0xbd357933	-0.044305038
184	0xbb609a38	-0.003427161
185	0x3cc5e17b	0.024155369
186	0x3c76d4d8	0.015065394
187	0x3bf4c7f5	0.007470126
188	0xbcdf3fd2	-0.027252112
189	0x3c940dee	0.018073048
190	0x3bb75edd	0.0055960254
191	0x3c4fd6d0	0.012685493
192	0x3d60fd3c	0.054929003
193	0x3c402d76	0.011729589
194	0x3d4cc66f	0.04999393
195	0xbd12b63f	-0.035818335
196	0xbd038d9c	-0.03211747
197	0xbb98293e	-0.0046435883
198	0x3d29f53b	0.041493636
199	0xbd50af01	-0.050948147
200	0xbb5f2785	-0.0034050655
201	0xbc5f0aa5	-0.013613378
202	0x3d56b6d0	0.052420437
203	0x3878526d	5.9204573e-05
204	0xbc45ff23	-0.012084755
205	0xbca4808a	-0.020080823
206	0xbd4df432	-0.05028171
207	0x3a4b20a5	0.00077487
208	0xbaf45c6c	-0.0018643267
209	0xbd0db267	-0.034593966
210	0xbd28e7e7	-0.041236784
211	0x3d19688e	0.037453227
212	0xbca652d3	-0.020303166
213	0x3d59d1cd	0.053178597
214	0x3bedc533	0.007256174
215	0xbc2a2f97	-0.010387323
216	0x3d630e57	0.055433597
217	0x3d2780da	0.040894367
218	0xbc750e04	-0.014956955
219	0x3d69c537	0.057072844
220	0xbd120e67	-0.035658266
221	0xbcd372d3	-0.025811588
222	0x3b49bb6f	0.0030781885
223	0x3ca684df	0.02032703
224	0x3cd40e3d	0.025885696
225	0x3cb261e3	0.021775192
226	0x3d1988e7	0.037484076
227	0xbbfd1206	-0.007723096
228	0x3d0d3489	0.03447393
229	0x3cdf4ec9	0.027259247
230	0x3d229b3d	0.039698828
231	0xbc9142b1	-0.017731996
232	0xbcca9c29	-0.024732666
233	0xbd110c09	-0.03541187
234	0x3d15ebd5	0.03660186
235	0x3c15fee3	0.009155008
236	0x3a4a48b9	0.0007716525
237	0xbd0f9f02	-0.03506375
238	0x3d59286b	0.05301706
239	0xbc5214a9	-0.012822309
240	0x3d51994c	0.051171586
241	0x3c52a937	0.012857727
242	0x3b794e83	0.0038041181
243	0x3d2b7e58	0.041868538
244	0x3c940d98	0.018072888
245	0xbd6be102	-0.05758763
246	0xbcb2b3c3	-0.021814233
247	0xbce207c6	-0.027591597
248	0x3d02d514	0.03194149
249	0x3cb5abb8	0.022176608
250	0x3c97afa3	0.018516367
251	0xbd5a3d31	-0.053281013
252	0x3c1fd929	0.009756365
253	0xbc5b791e	-0.013395576
254	0x3d630962	0.05542887
255	0xbd311575	-0.043233354

bias f4 [12]
0	0xbccc0f9b	-0.024909785
1	0x3d46c00f	0.048523005
2	0xbd4a9808	-0.049461395
3	0x3d211cdd	0.039334167
4	0xbc72c323	-0.014817032
5	0x3c86019e	0.016358193
6	0x3c94e683	0.018176323
7	0x3d31a2b8	0.04336807
8	0x3d4ae6e7	0.049536612
9	0x3ca8dff2	0.020614598
10	0x3ce87210	0.028374702
11	0xbc985776	-0.018596392

weight f4 [12]
0	0x3f800005	1.0000006
1	0x3f800013	1.0000023
2	0x3f7ffd6b	0.9999606
3	0x3f800027	1.0000046
4	0x3f7ffd63	0.9999601
5	0x3f80001c	1.0000033
6	0x3f80000c	1.0000014
7	0x3f800011	1.000002
8	0x3f80000f	1.0000018
9	0x3f7ffba5	0.99993354
10	0x3f80001b	1.0000032
11	0x3f7ffeb8	0.99998045

bias f4 [12]
0	0x381f3033	3.7953443e-05
1	0x380009bd	3.0526648e-05
2	0x37043896	7.880988e-06
3	0x385c0212	5.2454016e-05
4	0xb867222f	-5.5106528e-05
5	0x37c19ddf	2.3080907e-05
6	0x3814a388	3.543825e-05
7	0x37e06927	2.6751846e-05
8	0x373b75fa	1.1173537e-05
9	0xb83448fb	-4.2983313e-05
10	0x37996610	1.8286548e-05
11	0xb81dfccd	-3.7667156e-05

running_mean f4 [12]
0	0xbd304164	-0.04303111
1	0x3da492fe	0.08035849
2	0x3c749d0e	0.014930023
3	0xbe9f07ef	-0.3106074
4	0x3dcb5e92	0.09930147
5	0x3f20313e	0.6257514
6	0xbc317291	-0.010830537
7	0x3ec2cdb2	0.38047558
8	0xbd3c41ca	-0.04596118
9	0x3de2247a	0.110421136
10	0x3df3606e	0.11883627
11	0x3e15284c	0.14566153

running_var f4 [12]
0	0x3d35c605	0.0443783
1	0x3e5026ba	0.20327273
2	0x3da5fe14	0.08105102
3	0x3ddb7cdd	0.10717175
4	0x3dad3c01	0.084587105
5	0x3ea39e27	0.31956598
6	0x3daebfbc	0.08532664
7	0x3e272794	0.16323692
8	0x3d734ace	0.05939751
9	0x3e3b495c	0.18289703
10	0x3d816cc6	0.06319575
11	0x3e822a65	0.2542297

weight f4 [24, 12, 5, 5]
0	0x3cf54390	0.029939443
1	0x3d47e2bd	0.04880022
2	0xbbc720e8	-0.006076921
3	0x3bea62a1	0.0071528708
4	0x3c38be54	0.0112758465
5	0x3ca055cd	0.019572163
6	0x3c7f74f0	0.015591845
7	0xbcb56047	-0.022140635
8	0xbd09ca63	-0.033640277
9	0x3d4e1836	0.050316058
10	0x3d59a254	0.053133324
11	0x3cc1eef3	0.02367351
12	0x3c0cc4ab	0.008591811
13	0xbc23f343	-0.010006729
14	0xbcc72c1d	-0.024313027
15	0xbccbdc5b	-0.024885347
16	0x3d3b8e29	0.04578987
17	0x3d1cfa35	0.038324554
18	0xbbaa9fac	-0.0052070227
19	0xbd100f70	-0.035170972
20	0x3ca17366	0.019708347
21	0x3c720532	0.0147717465
22	0xbd5c36f2	-0.053763337
23	0xbd3f5a11	-0.046716753
24	0xbd162b3a	-0.036662318
25	0x3d5dc0f1	0.05413908
26	0xbd2be18f	-0.041963156
27	0x3c7e5392	0.015522854
28	0xbb936f67	-0.004499364
29	0x3d1524a7	0.036411908
30	0x3d25f7e9	0.04051963
31	0xbc0e8f4c	-0.008701157
32	0x3c9a708f	0.0188525
33	0x3cd27b8b	0.025693676
34	0x3d33c869	0.043892298
35	0x3d5f1710	0.054465353
36	0xbd3af3c5	-0.045642633
37	0xbd407093	-0.04698236
38	0xbd29029e	-0.04126226
39	0x3b6b2f37	0.0035886297
40	0xbc9e2f40	-0.01930964
41	0xbc7f69a4	-0.0155891515
42	0xbcef3c51	-0.029203566
43	0xbc33cd35	-0.010974218
44	0xbd195f54	-0.037444428
45	0x3d373e31	0.044737045
46	0xbce7d171	-0.028298112
47	0xbd5a88e2	-0.053353198
48	0xbc5af785	-0.013364677
49	0x3d045226	0.032304905
50	0x3d1ded8e	0.038556628
51	0x3aec4413	0.0018025659
52	0x3bec1d57	0.007205646
53	0x3c91f271	0.0178158
54	0xbc988e00	-0.018622398
55	0xbd3e9d1f	-0.04653656
56	0xbcebc91c	-0.02878242
57	0xbd27d3b8	-0.040973395
58	0xbcfba8f5	-0.030720213
59	0xbd20de4a	-0.03927449
60	0x3cdcca6c	0.026951991
61	0x3d2fc850	0.042915642
62	0xbd051373	-0.03248925
63	0xbc315b2c	-0.01082496
64	0x3ca65105	0.020302305
65	0xbd3f0f5b	-0.046645503
66	0xbd44eba4	-0.048076287
67	0xbd5ed18f	-0.05439907
68	0xbd62102b	-0.0551912
69	0x3d254a6b	0.040354174
70	0x3ca5b2ef	0.020226924
71	0xbcdf41ee	-0.027253117
72	0xbccc5ab8	-0.024945602
73	0xbd2ef710	-0.042716086
74	0xbccd4e26	-0.025061678
75	0xbd110d5b	-0.035413127
76	0x3cb2528b	0.021767875
77	0x3cf6b0c5	0.030113587
78	0x3cab2ccf	0.02089539
79	0x3d5c88dc	0.053841457
80	0x3ce486b3	0.02789626
81	0x3d140518	0.03613767
82	0xbd5c7717	-0.05382451
83	0xbccf1baa	-0.025281746
84	0x3d59c92f	0.05317038
85	0x3d55fd8b	0.05224375
86	0x3d2c95a3	0.042134892
87	0xbd2eeff4	-0.042709306
88	0x3ac16144	0.0014753719
89	0x3d650659	0.055914257
90	0xbcc01f68	-0.023452476
91	0x3cbb8b39	0.022893535
92	0xbccd431b	-0.025056412
93	0xbd31d50b	-0.043416064
94	0x3d293b73	0.04131646
95	0xbd1c5ea2	-0.038176186
96	0x3c599569	0.013280251
97	0xbcc6d623	-0.02427203
98	0x3ce76f7c	0.028251402
99	0xbcc38a08	-0.02386953
100	0xbac08004	-0.0014686589
101	0xbc25bb97	-0.010115526
102	0x3d69f5b0	0.05711907
103	0xbcacb5cf	-0.021082787
104	0x3cdf1a0d	0.027234102
105	0xbd210b33	-0.03931732
106	0x3cb7096b	0.022343358
107	0x3d1b3193	0.037889075
108	0x3d58f753	0.05297024
109	0x3a861f6e	0.0010232755
110	0x3c979493	0.018503463
111	0x3a9d3392	0.0011993519
112	0xbd464382	-0.048404224
113	0xbd150f21	-0.03639138
114	0xbcef37c0	-0.029201388
115	0xbca26f5d	-0.019828493
116	0xbd004a71	-0.031320993
117	0x3c6165e9	0.013757207
118	0x3b801ca1	0.003909663
119	0x3c72bdfc	0.014815804
120	0x3c4e419b	0.012588884
121	0xbcab4f29	-0.02091177
122	0xbaabc2fa	-0.0013104372
123	0xbd0ce4bc	-0.034397826
124	0x3ca2e7d9	0.019885944
125	0x3cb8785e	0.022518333
126	0xbce7a709	-0.02827789
127	0xbd360f54	-0.04444821
128	0x3d0e5e60	0.03475797
129	0xbcaeb428	-0.02132614
130	0x3c1229c4	0.0089210905
131	0x3d2c5810	0.04207617
132	0xbd1aa65f	-0.03775632
133	0x3c66ebc4	0.014094297
134	0x3d11f6d6	0.03563579
135	0x3c7a7e53	0.015288907
136	0x3cf529c1	0.029927136
137	0xbaa5e6c3	-0.0012657273
138	0xbc8e3219	-0.017357873
139	0xbd4cd753	-0.050010037
140	0xbcb2487a	-0.021763075
141	0xbd542ced	-0.051800657
142	0xbd441111	-0.04786784
143	0x3c9ae268	0.018906787
144	0x3d3126e8	0.043249995
145	0xbd3cf463	-0.046131503
146	0xbd30fa72	-0.043207593
147	0xbc9fbf32	-0.019500349
148	0x3c8c3909	0.01711704
149	0xbc88e27a	-0.016709555
150	0x3d59c761	0.05316866
151	0xbd366051	-0.04452545
152	0x3c5a428f	0.013321533
153	0xbd39eb88	-0.045390636
154	0x3d21ff11	0.03954989
155	0xbc7b57cf	-0.015340759
156	0x3b61a217	0.0034428888
157	0x3ca296f4	0.01984737
158	0x3c15a6c4	0.009133998
159	0x3d0d7349	0.034533773
160	0xbd1b88ae	-0.037972145
161	0xbc1c9de5	-0.009559129
162	0xbd08b9dd	-0.033380378
163	0x3b42bb4e	0.0029713693
164	0x3b1cd84f	0.002393264
165	0xbc6f69eb	-0.014612655
166	0x3883df64	6.2881765e-05
167	0x3c724175	0.014786114
168	0xba9d6d63	-0.0012010749
169	0xbd6a9c31	-0.057277862
170	0xbca7867c	-0.02044987
171	0x3cdce6cf	0.026965527
172	0xbcf9438f	-0.030427722
173	0x3bf067d2	0.007336595
174	0x3cda79ea	0.026669461
175	0x3d50303e	0.050827257
176	0xbca9959e	-0.020701226
177	0xbcce4c7b	-0.025182953
178	0xbce794f3	-0.028269267
179	0xbd58a84f	-0.052894887
180	0xbd0ed35a	-0.03486953
181	0xbcafb69c	-0.02144938
182	0xbd616a38	-0.05503294
183	0x3d3043ef	0.043033537
184	0x3b3b716d	0.0028601543
185	0xbaafc406	-0.001340986
186	0xbbd22ece	-0.006414271
187	0x3d3b288b	0.04569296
188	0xbce44ed7	-0.027869625
189	0xbc7cd8d1	-0.015432552
190	0x3be65412	0.007029065
191	0x3c87a8db	0.016560009
192	0xba8980df	-0.0010490677
193	0xbd43aa6d	-0.047769953
194	0x3cda37c3	0.026637917
195	0xbd5351cc	-0.05159168
196	0x3d36ca40	0.044626474
197	0xbd24f193	-0.040269446
198	0x3ce9e606	0.028552067
199	0x3d3bf94b	0.04589204
200	0xbc3be123	-0.011467251
201	0xbd1b4454	-0.03790696
202	0x3d660c0c	0.056163833
203	0x3c7b2cdf	0.015330522
204	0x3cbf7276	0.023370009
205	0x3d32d455	0.043659527
206	0x3d12c1db	0.035829406
207	0xb8e6c132	-0.0001100324
208	0x3c1e5c3a	0.009665543
209	0x3c6c9611	0.0144400755
210	0x3c9170f3	0.017754054
211	0xbd5a7cde	-0.05334174
212	0x3d2d18e4	0.042260066
213	0x3d28c822	0.041206487
214	0xbd4c905d	-0.049942363
215	0x3d5d44b8	0.054020613
216	0xbba2a82d	-0.004963896
217	0x3ca652ba	0.020303119
218	0x3ccf043d	0.025270576
219	0x3a880402	0.0010377171
220	0xbca6e9a5	-0.020375082
221	0xbc21deec	-0.009879809
222	0xbc75fb9d	-0.015013603
223	0xbc295230	-0.010334536
224	0x3d1e6f4d	0.038680363
225	0x3c29dc6d	0.010367495
226	0x3d68efc2	0.056869276
227	0xbd46c6ac	-0.048529312
228	0x3d38c4c1	0.045109514
229	0x3d328531	0.043584052
230	0x3cb7cf1b	0.022437623
231	0x3a685b27	0.00088636804
232	0xbd18407d	-0.037170876
233	0xbc8a8212	-0.016907725
234	0x3d55dee5	0.052214522
235	0xbb323746	-0.002719359
236	0x3d10c44c	0.035343453
237	0xbcb75813	-0.022380864
238	0xbcee9c03	-0.029127127
239	0x3d67ee0c	0.056623504
240	0xbbf7999d	-0.007556154
241	0x3d4a5931	0.049401466
242	0x3ccc6de9	0.024954753
243	0xbd22f857	-0.039787617
244	0xbc8e1b72	-0.017347071
245	0xbc30acd4	-0.010783393
246	0xbc83d3b0	-0.016092151
247	0x3d2c237c	0.042026028
248	0x3d1bd620	0.038046002
249	0xbd39b577	-0.045339074
250	0x3ca01cb3	0.019544935
251	0x3cb55de9	0.022139506
252	0xbcef06f1	-0.029178115
253	0xbce3ccc1	-0.027807595
254	0xbc1450bf	-0.0090524545
255	0xbd09f1d4	-0.03367789

bias f4 [24]
0	0x3d2da832	0.04239673
1	0xbcd1e4b1	-0.025621744
2	0x3d58da7e	0.052942745
3	0x3c184e74	0.009296048
4	0x3d6980bb	0.057007533
5	0xbc87e2fc	-0.016587727
6	0x3cbb9ba9	0.022901373
7	0x3c363d40	0.011123002
8	0xbd2b0459	-0.041752193
9	0xbb1d5592	-0.0024007303
10	0xbd6ab856	-0.057304703
11	0x3ca2fd43	0.019896155
12	0xbc7a68e0	-0.015283793
13	0x3d5a346a	0.053272642
14	0x3cf0b52c	0.029383264
15	0xbad160bc	-0.0015974264
16	0x3b0d161c	0.002152807
17	0xbc93a13c	-0.018021218
18	0x3caf683d	0.02141201
19	0xbce530e7	-0.02797742
20	0x3cc878e2	0.024471704
21	0x3ca802e4	0.02050919
22	0x3d394053	0.04522736
23	0xbd4ed11b	-0.050492387

weight f4 [24]
0	0x3f7ffe96	0.9999784
1	0x3f7ffbd6	0.99993646
2	0x3f800044	1.0000081
3	0x3f800005	1.0000006
4	0x3f7ffe2c	0.9999721
5	0x3f800003	1.0000004
6	0x3f7ffe3a	0.99997294
7	0x3f7ffe59	0.9999748
8	0x3f80001c	1.0000033
9	0x3f800016	1.0000026
10	0x3f80000c	1.0000014
11	0x3f800016	1.0000026
12	0x3f80000c	1.0000014
13	0x3f80000d	1.0000015
14	0x3f7ffdf0	0.9999685
15	0x3f7ffea5	0.9999793
16	0x3f7fff29	0.9999872
17	0x3f800017	1.0000027
18	0x3f7ffecc	0.99998164
19	0x3f7ffff3	0.9999992
20	0x3f800012	1.0000021
21	0x3f7ffdc0	0.99996567
22	0x3f800005	1.0000006
23	0x3f7ffeb5	0.9999803

bias f4 [24]
0	0x37ea2583	2.7912442e-05
1	0xb8481219	-4.770057e-05
2	0x38549482	5.0683047e-05
3	0x366f802e	3.5688386e-06
4	0xb8632638	-5.415661e-05
5	0x37d54362	2.5422956e-05
6	0xb73af46e	-1.1143375e-05
7	0xb781f06a	-1.548995e-05
8	0x3809c922	3.2850665e-05
9	0x37cfc69a	2.4768804e-05
10	0x384f7715	4.946355e-05
11	0x37ba6829	2.2221431e-05
12	0x3797a1e1	1.8075983e-05
13	0x37720e71	1.4427686e-05
14	0x368f5bb1	4.2724064e-06
15	0xb80b25ec	-3.31755e-05
16	0x3707faa8	8.1049875e-06
17	0x37fbaf9f	3.0003312e-05
18	0xb80242a3	-3.1056476e-05
19	0xb6a6f4d4	-4.9756873e-06
20	0xb77a8048	-1.4931029e-05
21	0xb812887e	-3.493623e-05
22	0x3658f0d2	3.2326684e-06
23	0xb7c55d0e	-2.3527562e-05

running_mean f4 [24]
0	0xbdb224e0	-0.086984396
1	0x3e8691f1	0.2628322
2	0x3e1f0ada	0.15531483
3	0x3cbe2956	0.02321307
4	0xbd9c7a07	-0.07640462
5	0xbe1ae6d6	-0.1512712
6	0x3eb0a92c	0.34504068
7	0x3d89ce83	0.06728842
8	0xbe6b4c58	-0.22978342
9	0x3e0596ed	0.13045855
10	0xbe242e62	-0.16033319
11	0xbed32ff7	-0.41247532
12	0xbf06e18f	-0.52687925
13	0x3dbf228f	0.093327634
14	0xbd98d89a	-0.074631885
15	0x3f0afe25	0.54294044
16	0xbeac2d24	-0.3362819
17	0x3b86a34c	0.004108822
18	0xbeb8e5e6	-0.361129
19	0xbe88ab16	-0.26693028
20	0x3d8136cc	0.0630928
21	0x3e837d42	0.25681502
22	0x3ecf67d4	0.40508902
23	0xbe2c0a8a	-0.16800895

running_var f4 [24]
0	0x3e45a0e7	0.1929966
1	0x3e1c76d5	0.15279706
2	0x3e107f6f	0.14111112
3	0x3df4c406	0.11951451
4	0x3eaa3688	0.3324473
5	0x3e613e23	0.2199636
6	0x3e2cc4fd	0.1687202
7	0x3e56c1f8	0.2097243
8	0x3e16f18e	0.14740583
9	0x3e5d34ba	0.21602145
10	0x3e06ac75	0.13151725
11	0x3df0f4d2	0.11765446
12	0x3e218cdb	0.15776388
13	0x3e09024b	0.13379781
14	0x3e4fb40f	0.2028353
15	0x3e2fe991	0.17178942
16	0x3e1fbbe7	0.15599023
17	0x3e758efa	0.23980322
18	0x3e275267	0.16340028
19	0x3e06196b	0.13095634
20	0x3e031ee9	0.1280476
21	0x3e15759f	0.1459565
22	0x3e242534	0.16029817
23	0x3e6b62c3	0.22986893

weight f4 [24, 24, 5, 5]
0	0x3cad6f75	0.02117131
1	0x3d05b30f	0.032641467
2	0x3c8ffcfa	0.017576683
3	0x3b169670	0.0022977851
4	0xba945e53	-0.0011319615
5	0xbcfb6bba	-0.030691016
6	0x3d0a49e6	0.03376188
7	0xbd0ffd44	-0.035153642
8	0xbcbe0096	-0.023193639
9	0xbd02d278	-0.031939
10	0xbcf7f59f	-0.030268488
11	0xbcb67e01	-0.02227688
12	0xbc42c3c7	-0.011887497
13	0x3c338eef	0.010959371
14	0x3be15004	0.0068759937
15	0xbcd83844	-0.026394017
16	0xbcf0ab25	-0.029378483
17	0x3d0ec845	0.03485896
18	0x3c1c4688	0.0095383
19	0x3cf76477	0.030199273
20	0x3c50155f	0.012700408
21	0x3cb944b1	0.022615762
22	0x3d01a055	0.031647045
23	0xbc418d1f	-0.011813431
24	0x3c98f5c4	0.018671878
25	0x3bb21d7c	0.0054356437
26	0x3d24f62f	0.04027384
27	0xbcc39b03	-0.023877626
28	0xbc25463e	-0.010087548
29	0x3c912118	0.017715976
30	0xbc988a79	-0.018620716
31	0xbc56be8c	-0.013106953
32	0x3ca17788	0.019710317
33	0x3c960002	0.01831055
34	0x3d200ec5	0.039076585
35	0x3b2c8290	0.0026322939
36	0xbcf1a365	-0.029496858
37	0x3c8acc45	0.016943106
38	0x3cbbae3a	0.022910226
39	0xbc88073a	-0.016605008
40	0xbcee725f	-0.02910727
41	0xbcf910d8	-0.03040354
42	0xbbbb7cf6	-0.0057216836
43	0x3b3028f1	0.0026879872
44	0xbc58a84a	-0.013223717
45	0xbc890556	-0.016726177
46	0xbd1f3e43	-0.038877737
47	0x3c152af3	0.009104478
48	0xbb8ae1af	-0.0042383294
49	0xbc5bfcf3	-0.013427007
50	0xbc68d260	-0.014210314
51	0xbc9ccd36	-0.019140821
52	0x3bc1b9eb	0.0059120557
53	0x3cab6ba2	0.020925347
54	0x3cd0f2ef	0.025506465
55	0x3be958db	0.007121188
56	0xbcf9ae5d	-0.03047865
57	0x3b1b5d9f	0.0023706926
58	0x3ca43d07	0.020048631
59	0xb9d1f04e	-0.00040042627
60	0xbc2375b3	-0.009976792
61	0xbbc00102	-0.005859495
62	0x3c8d1241	0.017220618
63	0x3c70ea5b	0.014704312
64	0xbd13b5da	-0.0360621
65	0xbb2bc698	-0.00262109
66	0x3c27390a	0.01020647
67	0x3d102963	0.03519572
68	0x3d13eabd	0.036112536
69	0xbc0c3f59	-0.008560025
70	0xbd263a81	-0.040583137
71	0x3d0a56a8	0.033774048
72	0x3d0f5ca1	0.035000447
73	0x3bf69b3a	0.0075258287
74	0x3bc580e8	0.0060273297
75	0xbc8656ff	-0.016398905
76	0xbd18bc72	-0.03728909
77	0x3d1b1d25	0.03786959
78	0xbd0ac3e0	-0.033878207
79	0xbcc5ea66	-0.024159621
80	0x3d1916b3	0.037375163
81	0xbcaf0555	-0.021364847
82	0x3d0ffbb3	0.03515215
83	0xbd1c14ca	-0.038105763
84	0xbb7f125e	-0.003892086
85	0x3c673c21	0.014113457
86	0xbce2b1eb	-0.027672729
87	0x3c7ce887	0.015436298
88	0x3cef6441	0.02922261
89	0x3cd6ea96	0.026234906
90	0x3c798c8b	0.015231262
91	0x3ba09c64	0.0049014557
92	0xba8fc26a	-0.0010967974
93	0xbb154e65	-0.0022782322
94	0xbd132545	-0.035924215
95	0xbcfc616c	-0.030808173
96	0x3ceec997	0.02914886
97	0x3d0552d8	0.03254971
98	0x3d0c9597	0.034322347
99	0x3c2f729c	0.010708477
100	0xbcda82a0	-0.026673615
101	0x3d182b71	0.037150804
102	0x3a16eb07	0.00057570677
103	0x3d021922	0.03176225
104	0xbd1ab418	-0.037769407
105	0x3c3a61f7	0.011375896
106	0xbc0eaa4b	-0.008707593
107	0xbbf09cd9	-0.0073429164
108	0x3c5c161c	0.013433006
109	0xbd20dd99	-0.039273832
110	0xbb1a7261	-0.002356671
111	0xbcee94e8	-0.029123738
112	0x3c95144c	0.018198155
113	0x3d06aa24	0.032877102
114	0xbcb11f74	-0.021621443
115	0x3afcebbb	0.0019296327
116	0x3c1e9206	0.009678369
117	0xbc1d9e23	-0.009620222
118	0x3ca5dbf3	0.020246482
119	0x3cb39731	0.02192268
120	0xbd01f0b5	-0.031723697
121	0xbd1f818a	-0.038941897
122	0xbc053d85	-0.008132343
123	0x3b702751	0.0036644528
124	0xbc7d78e4	-0.015470717
125	0xbb6944a7	-0.0035593899
126	0xbcfff45d	-0.031244451
127	0x3cd3991d	0.025829846
128	0x3d0a930e	0.03383165
129	0xbcbc2064	-0.022964664
130	0x3d09f3ee	0.033679895
131	0x3cb19624	0.021678038
132	0x3cd24f96	0.025672715
133	0x3cf4be8f	0.029876022
134	0x3b01e115	0.0019817997
135	0x3d176744	0.036963716
136	0x3c3a5b66	0.01137433
137	0xbd24ddc3	-0.04025055
138	0xbb2d6385	-0.0026457023
139	0xbb53890c	-0.0032277731
140	0x3d0a8a56	0.033823334
141	0xbce5f5dc	-0.028071336
142	0x3d1b1367	0.0378603
143	0x3d0e1dc4	0.034696355
144	0x3d1e7411	0.03868491
145	0xbbd13a61	-0.006385133
146	0x3d1fe3a8	0.03903547
147	0xbd0fc878	-0.03510329
148	0x3b78fc3d	0.0037992143
149	0x3d18df67	0.037322428
150	0xbd12a389	-0.03580049
151	0x3bf9882f	0.0076151113
152	0x3d24bae5	0.0402173
153	0xbb8943d2	-0.004188993
154	0xbb9863ca	-0.0046505677
155	0xbd0f6fec	-0.035018846
156	0x3d03f99f	0.03222048
157	0xbcce1275	-0.025155285
158	0xbbbe1bd0	-0.0058016554
159	0x3c28d1f9	0.010303968
160	0xbbc6e6fa	-0.006070015
161	0x3d1f8a67	0.03895035
162	0x3ca5e38d	0.020250106
163	0xbad188f1	-0.0015986246
164	0xbd205d8a	-0.039151706
165	0x3c38d025	0.011280094
166	0x3c56392e	0.013075156
167	0xbd016918	-0.031594366
168	0x3b8411f0	0.0040304586
169	0x3cd88d8f	0.026434688
170	0x3cf0b1b7	0.029381616
171	0x3c5259c0	0.012838781
172	0x3cf30dcc	0.029669665
173	0xba458ebe	-0.0007536224
174	0x3b8804a7	0.004150945
175	0xbcc61f15	-0.024184743
176	0x3d0aad08	0.03385642
177	0x3d2038d2	0.039116688
178	0x3d1ac0a8	0.037781388
179	0x3ca67342	0.020318631
180	0xbd13f92d	-0.036126304
181	0x3d23f417	0.040027704
182	0xbbf73d79	-0.00754517
183	0x3c488ab6	0.0122401025
184	0xbcd776c1	-0.026301743
185	0x3cded9be	0.027203437
186	0x3d18e986	0.03733208
187	0x3d13da2b	0.036096733
188	0xbd137eb6	-0.036009513
189	0xbcfda17d	-0.030960793
190	0xbce09c4d	-0.02741828
191	0x3cd84240	0.026398778
192	0xbca94fe4	-0.020667978
193	0x3d22372b	0.039603394
194	0x3bd3714e	0.006452716
195	0x3c44baac	0.012007397
196	0x3ce3d2bf	0.027810453
197	0xbceaad2a	-0.028647024
198	0x3cbe1ed9	0.023208069
199	0xbd2327d3	-0.0398329
200	0xbc176b67	-0.009241915
201	0xbd0d1e6d	-0.034452844
202	0x3c9a2404	0.018816002
203	0x3cba7382	0.022760157
204	0x3d00b998	0.031426996
205	0xba2f451c	-0.00066860183
206	0xbb5861c3	-0.0033017255
207	0x3c96242a	0.018327791
208	0x3ccb6fa9	0.024833517
209	0x3d1c3abd	0.038141955
210	0x3cff28a0	0.031147301
211	0x3c114d39	0.008868509
212	0xbcaa3683	-0.020777946
213	0xbd05a271	-0.03262562
214	0xbd154977	-0.036447015
215	0xbcce366c	-0.025172435
216	0xbc348a16	-0.01101925
217	0x3c34e24d	0.011040282
218	0x3cc53288	0.024071947
219	0x3cd1eb94	0.025625028
220	0x3b403ee2	0.0029334356
221	0xbc894bdb	-0.016759804
222	0x3b4e779a	0.0031504394
223	0x3cc9e0be	0.024643298
224	0x3cf256b6	0.029582363
225	0x3c088157	0.008331618
226	0xbcb31d26	-0.021864485
227	0x3d23882b	0.03992478
228	0x3be1ae25	0.0068872147
229	0xbcadfe8b	-0.02123954
230	0x3b38ca7f	0.002819687
231	0xbbf5d4dc	-0.0075021815
232	0xbc53b580	-0.012921691
233	0x3c072998	0.008249663
234	0x3c97f168	0.018547729
235	0xbd1d512f	-0.0384075
236	0x3d0d932d	0.034564186
237	0x3d0efbbb	0.034908038
238	0x3c0a4139	0.008438402
239	0xbcccf771	-0.025020333
240	0xbc6e69a0	-0.01455155
241	0x3d14e009	0.03634647
242	0xbd081af7	-0.03322884
243	0x3c81e5d1	0.015856655
244	0x3c44f0d7	0.012020311
245	0x3cf40fb9	0.029792653
246	0xbaaf9d41	-0.0013398306
247	0x3d2172e0	0.039416194
248	0x3b431d80	0.0029772222
249	0xbb32eb20	-0.002730079
250	0xbc9907cc	-0.018680476
251	0xbcdcf602	-0.026972774
252	0xbd132847	-0.035927083
253	0x3d19ad1a	0.0375186
254	0x3cf46af5	0.029836157
255	0xbcc1ac80	-0.023641825

bias f4 [24]
0	0xbca0260f	-0.019549398
1	0x3ca8b472	0.020593856
2	0xbcaf284d	-0.021381522
3	0x3c8440fb	0.016144266
4	0xbacc3c09	-0.0015581857
5	0x3c9b49a6	0.018956017
6	0xbd090011	-0.03344733
7	0x3bf377e2	0.0074300626
8	0xbd1e4065	-0.03863563
9	0xbcdbd7f0	-0.026836365
10	0xbcc60fde	-0.024177488
11	0x3d271030	0.040786922
12	0x3c44a448	0.012002058
13	0xbac524cc	-0.0015040874
14	0xbd09cfd4	-0.033645466
15	0xbd119369	-0.035540972
16	0x3cda6bf7	0.02666281
17	0xbd0cc1c9	-0.034364495
18	0xbbf3cfbc	-0.0074405354
19	0xbb8a8905	-0.00422776
20	0xbcc108b4	-0.02356372
21	0xbc37cff2	-0.011219012
22	0x3bc8c637	0.0061271447
23	0x3d26c543	0.040715467

weight f4 [24]
0	0x3f80002d	1.0000054
1	0x3f7ffbd5	0.9999364
2	0x3f800029	1.0000049
3	0x3f800004	1.0000005
4	0x3f800000	1.0
5	0x3f800003	1.0000004
6	0x3f800006	1.0000007
7	0x3f800017	1.0000027
8	0x3f7fff98	0.9999938
9	0x3f80000d	1.0000015
10	0x3f800050	1.0000095
11	0x3f800019	1.000003
12	0x3f7ffdb1	0.9999648
13	0x3f80001a	1.0000031
14	0x3f7fff9b	0.999994
15	0x3f80000c	1.0000014
16	0x3f7fffee	0.9999989
17	0x3f7fffcd	0.99999696
18	0x3f7fff90	0.9999933
19	0x3f7ffa82	0.9999162
20	0x3f800010	1.0000019
21	0x3f7fff0e	0.9999856
22	0x3f7fffd6	0.9999975
23	0x3f7fffa9	0.9999948

bias f4 [24]
0	0x383261f8	4.2529748e-05
1	0xb8997184	-7.3167525e-05
2	0x3875785d	5.852465e-05
3	0x37845c45	1.5778593e-05
4	0xb61bc21b	-2.3209784e-06
5	0x37e7ab28	2.7617047e-05
6	0x37657674	1.3677043e-05
7	0x3717051f	9.001494e-06
8	0x369a9d75	4.607888e-06
9	0x375b2190	1.3061232e-05
10	0x38222167	3.8654918e-05
11	0x38117320	3.4677912e-05
12	0xb8339481	-4.281523e-05
13	0x37b2e179	2.1324247e-05
14	0x3752ced4	1.2565131e-05
15	0xb729b4e7	-1.0115305e-05
16	0x37652ba0	1.3659621e-05
17	0x379dbdfd	1.8804329e-05
18	0x373d7add	1.1293884e-05
19	0xb8a17065	-7.698013e-05
20	0x37e57b62	2.7356382e-05
21	0xb5f7c8f8	-1.8461424e-06
22	0x3800ce0b	3.070947e-05
23	0x37958a8e	1.7826704e-05

running_mean f4 [24]
0	0x3e6a2e21	0.2286916
1	0x3e22cd61	0.15898658
2	0xbeeba5d8	-0.46024966
3	0x3f12744c	0.57208705
4	0xbe12c01f	-0.14331101
5	0x3dd596b1	0.10429133
6	0xbe243ce9	-0.1603886
7	0x3ea85e72	0.32884556
8	0xbe2db376	-0.1696299
9	0x3e9322c4	0.28737462
10	0x3e8075f5	0.25089994
11	0xbde5e90b	-0.1122609
12	0xbcd18bce	-0.02557936
13	0x3db461b3	0.08807697
14	0xbe671fa3	-0.22570662
15	0xbe9be603	-0.30448923
16	0x3e275e3b	0.1634454
17	0x3e833cb0	0.25632238
18	0x3e38babd	0.18039985
19	0x3e9ae938	0.30256057
20	0x3dc642c6	0.09680705
21	0x3dfbe9b4	0.12300435
22	0xbd698c69	-0.05701867
23	0x3d0dd569	0.034627352

running_var f4 [24]
0	0x3e1fb549	0.15596499
1	0x3dabc070	0.08386314
2	0x3df1ce47	0.118069224
3	0x3e26012b	0.16211383
4	0x3e0dd20c	0.13849658
5	0x3dc9405c	0.09826729
6	0x3dbadba6	0.09123926
7	0x3dd949e5	0.106097974
8	0x3dcc1d86	0.09966569
9	0x3df34186	0.11877732
10	0x3e0d163e	0.13778016
11	0x3ddd20dd	0.10797284
12	0x3dc310e1	0.09524704
13	0x3e034bfc	0.12821954
14	0x3e326f58	0.17425287
15	0x3dd36dd9	0.10323686
16	0x3e0b134f	0.13581584
17	0x3dacf32e	0.0844482
18	0x3db7c4eb	0.08973106
19	0x3e21bb06	0.15794
20	0x3df74b98	0.12074965
21	0x3e0c03e2	0.13673356
22	0x3dfa0ea5	0.122098245
23	0x3db26341	0.087103374

weight f4 [10, 16224]
0	0x3a4c8f63	0.00078033487
1	0xbbda2197	-0.0066568363
2	0x39cf888c	0.00039583852
3	0xba996fdd	-0.0011706311
4	0xbaeef81d	-0.0018231903
5	0xbbebfe31	-0.007201933
6	0x3aaabdf8	0.0013026586
7	0xbbb1d7b7	-0.0054273265
8	0x3b714c33	0.00368191
9	0x3bdf3c05	0.006812575
10	0xba8a7ced	-0.0010565795
11	0xb9c2adc1	-0.0003713202
12	0x3a3e63da	0.0007262804
13	0x3bc63f67	0.0060500386
14	0x3b22b600	0.0024827719
15	0x3a2d536b	0.00066118565
16	0xba36bad3	-0.0006970588
17	0x3be99b90	0.00712914
18	0xbbdc6ff6	-0.006727214
19	0x3ad81c98	0.0016488014
20	0x3b498e46	0.0030754968
21	0xb9204d99	-0.00015287696
22	0x3a6ce18b	0.0009036294
23	0xbb92733b	-0.004469303
24	0xbbd21e7b	-0.006412325
25	0x3ab1d410	0.0013567228
26	0xbb8a470a	-0.0042198943
27	0xbbf49ac7	-0.00746474
28	0xbb8f0d1e	-0.0043655774
29	0xbb92633d	-0.0044673965
30	0x3bc7815c	0.006088419
31	0x3a80903f	0.0009808614
32	0x3ba478ab	0.0050192676
33	0x3b805e2e	0.003917477
34	0x3b7abc54	0.0038259225
35	0x3ab2f3cc	0.0013652979
36	0x3b8b860f	0.0042579244
37	0xbbdc759c	-0.0067278873
38	0xbabb8d69	-0.0014309111
39	0xbb512233	-0.0031911253
40	0xbb93f6a4	-0.004515486
41	0xb811c889	-3.4757457e-05
42	0xbb47ae26	-0.003046879
43	0xbbcde5c3	-0.0062834932
44	0x3be64bc1	0.0070280735
45	0xba9426bf	-0.0011303051
46	0xbbc09f08	-0.005878333
47	0xbb732987	-0.003710361
48	0x3b5dc39d	0.0033838518
49	0xbbcd901d	-0.006273283
50	0x3bce26a1	0.006291226
51	0xbb149ab3	-0.0022675216
52	0x39dacb36	0.00041731604
53	0xbba7fc93	-0.0051265447
54	0x3b3f387c	0.0029177954
55	0x3ba3e328	0.0050014444
56	0xbbdf640a	-0.0068173455
57	0xbbb77c7f	-0.005599558
58	0xba8a57be	-0.0010554714
59	0xbbc89218	-0.0061209314
60	0x3babcb44	0.005242737
61	0x3ad64bba	0.0016349473
62	0x3b9ea809	0.0048418087
63	0xb9c7cd64	-0.00038109266
64	0x395f4aee	0.00021294851
65	0xbb26a19f	-0.0025425924
66	0xb93a5905	-0.00017771505
67	0xbb215309	-0.0024616143
68	0x3bd1d221	0.006403223
69	0x3b090847	0.0020909475
70	0xbbbd9f0e	-0.005786783
71	0x3b53ab04	0.0032297978
72	0x3b1814b1	0.0023205692
73	0x3bb09073	0.0053883134
74	0x39adfe14	0.00033186434
75	0xbb869c4f	-0.004107989
76	0x3bc460d6	0.005992989
77	0x3b2eb8e1	0.002666049
78	0x3b918fef	0.004442207
79	0xbb993c61	-0.004676387
80	0xba06c08b	-0.00051403855
81	0x3918b186	0.00014561982
82	0x3be0013f	0.006836086
83	0x3aa0317a	0.0012221776
84	0xbb80446b	-0.003914406
85	0xbb131d1d	-0.0022447773
86	0xbb80947e	-0.0039239516
87	0x3b2df6ad	0.0026544735
88	0xbb93fc69	-0.0045161736
89	0x3bb64c8f	0.0055633257
90	0xbb54180a	-0.0032362961
91	0xbb7feecd	-0.0039052248
92	0x3a674828	0.0008822703
93	0xbaf4b2e7	-0.001866904
94	0x3a4a9b02	0.00077287864
95	0x3bc942f2	0.0061420137
96	0xbbfd3bc9	-0.007728074
97	0xbbb35c0b	-0.005473619
98	0x3bf0674b	0.007336532
99	0xbb9e17ad	-0.0048245997
100	0xbbfcc014	-0.007713327
101	0xbbdd699c	-0.0067569744
102	0xbbd4c3df	-0.006493076
103	0xbae67487	-0.0017582335
104	0x3b6091b1	0.0034266526
105	0xbb258c1e	-0.0025260518
106	0xbb29b646	-0.0025895997
107	0x3bd443e0	0.006477818
108	0xbbce2dfb	-0.0062921024
109	0xbb937e01	-0.004501105
110	0x3ae072be	0.001712404
111	0x3b2a74c0	0.002600953
112	0xbbc73e60	-0.0060804337
113	0x38d65829	0.00010220736
114	0x3aca937a	0.0015455328
115	0x3bb0f9d9	0.005400878
116	0xbb80205d	-0.003910108
117	0xbbb6b045	-0.005575212
118	0x3b43d71d	0.0029882856
119	0x3bf25aaa	0.007396062
120	0xbae9e925	-0.0017845972
121	0x3bcf98c0	0.006335348
122	0x3b3f7fd2	0.0029220474
123	0xbb452dfb	-0.003008722
124	0x3b6cb30f	0.003611747
125	0xbba94406	-0.0051655797
126	0x3c00241a	0.007821107
127	0xbb94a3eb	-0.004536142
128	0xbb819e4b	-0.0039556376
129	0xbbd90986	-0.0066234497
130	0x3a399cfc	0.00070805824
131	0x3bc8a791	0.006123491
132	0x3b6deeec	0.0036305739
133	0x3ba7ec01	0.0051245694
134	0x3b790d95	0.003800248
135	0x3b066f3b	0.0020513076
136	0x3b0b3ae9	0.002124483
137	0xbbe9fb5f	-0.0071405615
138	0xbac9d091	-0.0015397241
139	0x3b061b4f	0.0020463055
140	0x3b495967	0.0030723454
141	0x3b152c51	0.002276201
142	0x3b251e2b	0.0025194983
143	0xbbd4fce8	-0.0064998753
144	0x3b6ca4cb	0.0036108966
145	0xbb491608	-0.0030683298
146	0x3bdef784	0.0068044085
147	0x3b5b563e	0.0033468152
148	0x3be4afbe	0.006978958
149	0xbacca824	-0.0015614075
150	0x3bf6c0ee	0.007530323
151	0xbb9eecb6	-0.0048499955
152	0x3a39c38d	0.0007086329
153	0x3b5f273d	0.0034050487
154	0x3a33eabc	0.0006863286
155	0x3bbdd755	0.005793492
156	0xbb0c7b8c	-0.0021435944
157	0x3bb3f981	0.0054923897
158	0x3addf6ed	0.0016934552
159	0xbbd458f2	-0.0064803297
160	0x3b87351b	0.0041262037
161	0x3acea60f	0.0015766042
162	0xba5290e6	-0.0008032456
163	0xbb69f4c9	-0.0035698882
164	0xbb2318f3	-0.0024886697
165	0xba7505bf	-0.00093468645
166	0xbb7a80af	-0.0038223674
167	0x3b1e9139	0.0024195446
168	0xbb9ea3cf	-0.004841305
169	0x3b95ecb5	0.004575337
170	0x3bd9e356	0.006649415
171	0xb92d3029	-0.00016516507
172	0x3afa2f6b	0.0019087618
173	0x3bf8c8ac	0.0075922813
174	0xbbbed955	-0.005824248
175	0x3b32387f	0.0027194319
176	0x3b0d8cb3	0.0021598756
177	0xbbdf171f	-0.006808176
178	0x3b3639d6	0.002780547
179	0xbbaa4f33	-0.0051974296
180	0x3b427efd	0.0029677742
181	0xbbf8ee1a	-0.0075967433
182	0x3bbde984	0.0057956595
183	0xba355441	-0.0006917157
184	0xbbe97f4e	-0.0071257716
185	0xbbc2d0c6	-0.005945298
186	0xbb4ab9f0	-0.0030933581
187	0x39499b7f	0.0001922678
188	0x3b28239d	0.0025655993
189	0x3b73d11c	0.0037203496
190	0xbbdbf6f8	-0.0067127906
191	0x3b955690	0.004557438
192	0x3b49faa0	0.003081955
193	0x3838742a	4.3977205e-05
194	0xbb9bd08c	-0.0047550853
195	0xbbe3ba7d	-0.0069497214
196	0xbb92f3ad	-0.004484615
197	0x3961a026	0.00021517332
198	0x3b7e45dc	0.0038798964
199	0x3b5cc9fa	0.0033689723
200	0xbbc87cdf	-0.0061184014
201	0x3bda5850	0.0066633597
202	0x3ba0efbd	0.0049113915
203	0x3a28167c	0.0006412042
204	0x3b028acc	0.0019919155
205	0x3bf3307b	0.007421551
206	0x3b833d59	0.004005116
207	0xbba033e8	-0.004889
208	0xbb45e4fb	-0.0030196297
209	0x3b3360eb	0.0027371
210	0x3bada456	0.0052991314
211	0x3bc4f81c	0.0060110223
212	0x3be67899	0.0070334193
213	0x3b9ced6f	0.0047890465
214	0xba7ade9e	-0.0009569916
215	0x3b816e29	0.0039498997
216	0xbbc912a1	-0.006136254
217	0x3b8b58b5	0.004252518
218	0xbbf1e045	-0.0073814713
219	0x3b9d3291	0.0047972878
220	0xbb1a41e6	-0.0023537814
221	0xbbdbeecf	-0.006711818
222	0xbb850335	-0.00405922
223	0xbbd4d3a5	-0.0064949566
224	0xbb8adb1e	-0.0042375466
225	0x3b402d78	0.0029323976
226	0xbb6ba6c5	-0.0035957557
227	0x3bc92820	0.0061388165
228	0x3b247588	0.0025094468
229	0xbb862122	-0.004093305
230	0xbbaf04a5	-0.00534113
231	0xbbb4b0a7	-0.0055142227
232	0x3a9ace59	0.0011810764
233	0x3bc1b1d0	0.0059110895
234	0xbbb6764e	-0.0055683022
235	0xbbedefc7	-0.0072612497
236	0x3be63b74	0.0070261303
237	0x3be62dbb	0.0070244945
238	0x3aa7ad24	0.0012792689
239	0xbbe4d077	-0.0069828588
240	0x3b063e4e	0.0020483914
241	0xbbf3eab8	-0.007443752
242	0xbb0ccc48	-0.0021484066
243	0x3bf12593	0.0073592155
244	0x3b5dd31a	0.003384775
245	0xbb890a68	-0.0041821487
246	0xbb928a2d	-0.0044720382
247	0xbb21bbca	-0.0024678581
248	0x3bd3d662	0.0064647654
249	0x3bade80b	0.0053072027
250	0x3ae24651	0.0017263388
251	0x3b718a73	0.0036856204
252	0x3b286de6	0.002570027
253	0xbbf3a5bf	-0.00743553
254	0x3afebc19	0.001943472
255	0xbb7b2be5	-0.0038325724

bias f4 [10]
0	0xbba05ff9	-0.0048942533
1	0xbb9fb4b1	-0.004873835
2	0xba0faf44	-0.00054811337
3	0xba3265af	-0.0006805313
4	0x3b3b2083	0.0028553314
5	0xbbd51d0c	-0.006503707
6	0xbaf0dd59	-0.0018376514
7	0xbb26d3d2	-0.0025455845
8	0xbbd59788	-0.006518308
9	0x3b72fe05	0.0037077677
