models/AdvaDemo_CleverHans_4.0.0/LOGS/models/nnet_epoch_5.pt (torch, 765963 bytes, 26 tensors)

weight f4 [12, 3, 5, 5]
000000 7f 7d a3 3d 46 a9 de 3d 94 bc cb 3b 8b 78 dd bc
       0.07982921 0.1087213 0.0062175486 -0.027035018
000010 de dc f9 bb b9 be 23 3a e6 78 5d bd 4b a0 e1 3c
       -0.0076252064 0.00062463764 -0.054070376 0.027542254
000020 cc 15 a9 3d 1d aa d7 3d aa 6f 96 bd 84 5a f2 bc
       0.082561105 0.105304934 -0.07345517 -0.029584177
000030 75 d9 57 3d d4 43 c8 3d f0 58 18 3d b0 dc 2c 3d
       0.052697618 0.09778562 0.037194192 0.04220265
000040 3f 60 96 bd 27 20 21 3d 52 c0 c2 3d 5e f2 92 bd
       -0.07342576 0.039337303 0.095093384 -0.07175134
000050 b6 a1 88 3b ea 94 c0 3d 6a 56 9e 3c e1 e0 b9 bd
       0.004169668 0.09403403 0.019328315 -0.09076095
000060 67 30 4c 3d a4 16 2d bb f1 41 a7 3d 9a bb d0 bd
       0.049850848 -0.00264112 0.08166874 -0.10192032
000070 08 90 b9 3d f0 ae 91 3d 5d 23 6d 3d fd 5f e3 bd
       0.09060675 0.07113445 0.057895053 -0.11102293
000080 a4 27 e9 bd 9e 09 fd bc b7 b7 de 3d 86 2d 34 bd
       -0.11384514 -0.030888375 0.108748846 -0.043988727
000090 fd 62 6a 3d 63 dd c8 3c e2 2d 23 3d 71 ca e3 bd
       0.05722331 0.024519628 0.03983868 -0.11122597
0000a0 e0 56 8f 3c 78 7c 90 3d b8 b6 4d bd c3 d8 db bd
       0.01749748 0.070549905 -0.050223082 -0.107347034
0000b0 e6 7b 66 bd 09 1f 91 bd d1 6c 60 bd 9a 79 ea bd
       -0.056270503 -0.070859976 -0.054791275 -0.11448975
0000c0 2d 18 58 bd 4d d1 3e bd 89 97 36 3d 18 e6 0d bd
       -0.05275743 -0.046586324 0.04457811 -0.034643263
0000d0 03 8f e1 bd e8 b2 91 bd 77 b8 bf 3c 61 ac 23 3d
       -0.110136054 -0.07114202 0.02340339 0.039959315
0000e0 1b fb 52 bd cb 49 82 3c 4d f9 9f bd 09 74 2a 3d
       -0.051509004 0.015904328 -0.07811222 0.041614566
0000f0 bc a8 b1 3d 46 3c 96 3d e7 f3 13 bb 00 bb 02 bb
       0.08674762 0.07335715 -0.0022575797 -0.0019947886
000100 f1 42 ff bb f4 2a 2c 3d 57 71 d0 bd 7a 0e 51 3d
       -0.0077899625 0.04203315 -0.10177868 0.051039197
000110 86 15 04 3d bd 05 e0 3d d6 27 58 bd 31 70 90 3d
       0.03224709 0.109385945 -0.052772366 0.07052649
000120 93 f4 99 bc 8c f9 c4 3d f2 29 66 3d cf 5c 8b 3b
       -0.01879338 0.0961791 0.056192346 0.004253007
000130 90 ba f6 3c 2f 37 c2 3d c5 2a ac bd 54 a8 e4 bb
       0.030118257 0.09483182 -0.08406595 -0.006978074
000140 0a 48 62 bc 4c 94 c2 bd 0e 98 57 bd ea d5 ab 3b
       -0.013811121 -0.09500942 -0.052635245 0.0052440064
000150 88 20 9b 3d d1 25 8f 3c a8 39 cb 3c dd 0b c6 3d
       0.07574564 0.017474087 0.024807766 0.096702315
000160 f7 5c 05 bd 8c 60 d6 3d 53 72 03 bd a7 3e 4a bd
       -0.03255936 0.104676336 -0.03209145 -0.049376156
000170 bf ad 6b bc fc 5d 3e bd 38 0e 83 bd 79 7e 89 bd
       -0.014384686 -0.04647635 -0.063991964 -0.06713576
000180 d2 89 b4 3d be 6a 35 3d 5f c5 be bd 2f 22 df bc
       0.0881535 0.04429125 -0.09314989 -0.02723798
000190 f7 9c 58 3d 70 d9 b7 3b 61 d6 a2 3d 32 a4 8f 3d
       0.05288407 0.0056106374 0.07951046 0.0701374
0001a0 26 3e 84 bc 6e 3c e0 bd 15 87 e3 3d 0d 5d e8 3b
       -0.016142916 -0.10949026 0.11109749 0.0070911706
0001b0 3e f1 a0 bd 7f f0 4e 3d 72 a2 51 3d 96 d8 a6 3d
       -0.07858513 0.050522324 0.05118031 0.08146779
0001c0 1b 25 89 3d 77 7c d6 3d 16 1f 2e ba ea b2 ea 3d
       0.066965304 0.104729585 -0.00066422054 0.114599064
0001d0 ad 92 67 bd 74 78 e7 3d 7f 29 f1 3c cb 1d e3 3d
       -0.056536365 0.113022715 0.029438732 0.11089667
0001e0 cb 0b 8c bd 59 94 a4 3d 0d ef 55 3d 5d e3 de bd
       -0.06838187 0.080361076 0.05222993 -0.1088321
0001f0 e6 eb f0 bb 42 e9 f4 bc 36 3a 94 3c fe 13 a2 3d
       -0.00735234 -0.029896382 0.018094163 0.079139695
000200 0b dc c2 bd 50 77 cb 3d 15 94 04 3d 6b 7e 54 3d
       -0.09514626 0.099348664 0.032367785 0.051878374
000210 a9 6f e8 bd 1c 6c f4 3c be c1 92 bc 0a c6 f3 bc
       -0.113494225 0.029836707 -0.01791465 -0.029757518
000220 f5 1a 26 3c bc a9 61 3d f0 1e 5d 3d b4 d5 38 bd
       0.010138263 0.055093512 0.053984582 -0.04512568
000230 61 41 b5 bd 93 8b 62 bd c4 28 ef 3c 84 2d 88 3d
       -0.08850361 -0.05530889 0.029194243 0.066493064
000240 f8 52 96 bc d2 84 c1 bd cf e4 31 3d 0e e2 ac 3d
       -0.01835011 -0.094491616 0.0434311 0.08441554
000250 02 1e 78 bc 7d 6b af bd d4 7f e3 bd 93 59 f5 3b
       -0.015143873 -0.08565424 -0.11108366 0.0074874847
000260 96 dd dd 3c 99 cc 2b 3d 74 53 e1 bb 8a 82 74 bd
       0.0270832 0.041943166 -0.0068764035 -0.059694804
000270 f4 02 9a 3d ed be 3a bd af 3a 8b 3d eb df 82 3d
       0.075200945 -0.045592237 0.067983024 0.06390365
000280 30 68 84 3d 19 7f 31 3d 72 93 e9 3d 0d e1 26 3d
       0.06465185 0.0433341 0.11405076 0.04074197
000290 5f 02 a5 3d b8 93 15 3d 24 d1 a4 bd 2c 3f 37 bd
       0.08057093 0.03651783 -0.08047703 -0.04473798
0002a0 cc a6 a9 3d 9f 9a e7 bd 0a 5d b4 bd 1c 57 22 3c
       0.08283767 -0.113087885 -0.08806808 0.009908464
0002b0 9a 57 bd 3d f6 e4 10 3d f4 09 a6 3d 05 85 c0 bd
       0.09245224 0.035374604 0.08107367 -0.094003715
0002c0 e9 25 6f 3d 06 17 8e bc 30 c1 7d 3d be a5 27 bd
       0.058385763 -0.017344963 0.061951816 -0.04092955
0002d0 7b 24 b7 bc 6d 5e 2e 3d da 4e 92 bd f9 e4 c1 bd
       -0.022356262 0.04257052 -0.07143946 -0.09467501
0002e0 27 c1 8c 3d 90 d3 8b 3d 9f 10 a6 3c c7 0c e2 3d
       0.068727784 0.06827462 0.020271597 0.11037593
0002f0 98 a8 ec bc fd a8 2a 3b 9e fa 68 bd 92 4b ae 3d
       -0.028888986 0.0026040666 -0.056879632 0.08510508
000300 30 82 86 bc 07 b7 58 3d 07 fc 8c 3c 7b db 9d 3d
       -0.0164195 0.052908923 0.01721002 0.07707878
000310 36 c5 e7 3d 90 72 b0 3c f8 cd a7 bd b7 55 8c 3d
       0.11316912 0.021539003 -0.08193582 0.06852286
000320 d5 02 a7 3d 33 b8 c8 bd 34 12 ca bc ec 44 1e bd
       0.08154837 -0.09800758 -0.024666883 -0.038639948
000330 b1 07 2e 3d 66 cc 2a 3d 58 3b b6 bd ae d1 98 bc
       0.042487804 0.041698836 -0.08898038 -0.01865467
000340 98 2e 32 bd 0a e9 8f 3c 54 8b 9f 3d 6e 6b d0 bd
       -0.043501467 0.017567176 0.077902466 -0.101767406
000350 56 6d d4 3a 1f 9e 4e 3d 8e f2 55 bd 6e 77 3a bd
       0.0016206901 0.050443765 -0.05223327 -0.045524053
000360 6b 7b b5 3d 7e 38 d0 bd 73 bf 2e 3d 60 2a a2 3d
       0.08861431 -0.10167025 0.04266305 0.07918239
000370 4d ec 80 3d 6a b4 19 bd b2 42 aa bd 0e b6 1c bd
       0.06295071 -0.037525572 -0.08313502 -0.03825956
000380 ff 7d b7 bd 67 a5 b4 bc 62 3a 39 3d 66 da 77 3c
       -0.08959579 -0.022051526 0.045221694 0.015127754
000390 06 a7 5e bd 03 8b d6 bc a8 f0 e1 3d fa 3f 5a 3d
       -0.054358505 -0.026189333 0.1103223 0.05328367
0003a0 3d c6 5a 3d 74 f7 2e bd 29 70 8e bd 20 a5 9d bc
       0.05341171 -0.04271646 -0.069549866 -0.019243777
0003b0 c9 60 71 3d c0 a5 df 3d 79 3c 56 bd 12 3c d6 3b
       0.058930192 0.10920286 -0.052303765 0.0065379227
0003c0 d9 84 38 3b 79 e2 5d 3d d3 bf 18 3d 24 d7 c6 3a
       0.0028155355 0.05417106 0.037292313 0.0015170318
0003d0 c9 46 aa bd 12 36 3c bc 5a f0 94 3d 96 56 4f 3d
       -0.083142824 -0.011487501 0.07272406 0.050619684
0003e0 9d 54 8c bc f2 5d c9 3d 7d 61 97 3c 71 24 e7 3d
       -0.01713019 0.09832372 0.018479103 0.112862475
0003f0 6b 3a 22 bd b0 b4 88 3c 27 e1 cb bc 72 83 2d bd
       -0.039606493 0.016687721 -0.024887634 -0.042361684

bias f4 [12]
000000 a5 14 80 3c 96 d5 88 bd fa c6 d2 3c 4f c8 11 bd
       0.015634844 -0.06681363 0.025729645 -0.03559142
000010 7a 7d 9c 3d f8 4d af bd 19 fa 55 3d 61 32 af 3d
       0.0764112 -0.08559793 0.052240465 0.08554531
000020 f2 42 3c 3c 84 bd a9 3d 4f 43 8f bd 4e a8 18 3d
       0.01149057 0.082881 -0.0699526 0.037269883

weight f4 [12]
000000 07 00 80 3f 3e fd 7f 3f f1 fb 7f 3f f6 fe 7f 3f
       1.0000008 0.9999579 0.9999381 0.99998415
000010 90 ff 7f 3f 00 00 80 3f 0d 00 80 3f 04 00 80 3f
       0.9999933 1.0 1.0000015 1.0000005
000020 02 00 80 3f 16 00 80 3f 15 00 80 3f 08 00 80 3f
       1.0000002 1.0000026 1.0000025 1.000001

bias f4 [12]
000000 17 c4 20 38 2b 09 06 b7 fa fa 3b b8 2f 3c 4d 38
       3.8329596e-05 -7.989157e-06 -4.4818014e-05 4.893186e-05
000010 9e de be b7 11 65 0e b6 e2 cd 4f b8 11 db a6 37
       -2.275343e-05 -2.1218477e-06 -4.954439e-05 1.9890753e-05
000020 fb ac f3 37 30 f0 93 b6 80 0a ba 37 31 47 44 b8
       2.9048408e-05 -4.408903e-06 2.2177817e-05 -4.6796344e-05

running_mean f4 [12]
000000 86 1b f9 3d 9d 17 0f 3e d0 f3 42 3e 50 1c bd 3a
       0.12163453 0.13973852 0.1903832 0.0014427993
000010 96 3d 8a bd de d2 83 be 6a c1 d4 3e 78 42 c3 3e
       -0.06750028 -0.25746816 0.41553813 0.3813665
000020 0f 2f 09 be 8f 86 ea 3d 08 d4 aa bc 94 db 05 3e
       -0.13396858 0.11451446 -0.020853058 0.13072044

running_var f4 [12]
000000 0f 7a 08 3c f8 80 00 3d 91 d0 96 3c 72 2f ad 3b
       0.008329882 0.031372994 0.01841 0.005285197
000010 39 ed 8c 3c 47 a3 a8 3c 14 34 b9 3d 2e 9c 79 3d
       0.01720296 0.02058567 0.09043136 0.06093996
000020 0c bb 96 3c 68 36 73 3b 02 af d8 3b 83 b5 3b 3c
       0.018399738 0.0037111286 0.0066126594 0.01145685

weight f4 [12, 12, 5, 5]
000000 df ca 49 bd c5 a5 1b 3d 24 6f 64 3d 9a cc 80 3c
       -0.04926574 0.037999887 0.055770054 0.015722562
000010 2a 37 52 3d e6 82 43 bd 5b d1 21 3c 93 24 bc 3c
       0.05132214 -0.047732256 0.009876574 0.022966659
000020 16 56 51 bd 16 b7 64 bd 4d 69 0b bd 7c 1a 4b 3d
       -0.05110749 -0.055838667 -0.03403597 0.049585804
000030 db e8 46 bc 93 48 29 3d 2e 22 93 bb fe e0 df 3b
       -0.012140478 0.041328978 -0.0044901585 0.006832241
000040 88 c4 ad 3c b8 b6 35 bd a7 2e 3f 3d 66 a9 94 bc
       0.021211877 -0.044363707 0.04667535 -0.018147182
000050 f2 cd be bb c0 bb 70 bc 80 8d 76 3a 51 e1 54 bc
       -0.0058228904 -0.014693201 0.00094052404 -0.012993173
000060 88 0d 5c bc a1 10 59 3b c7 f8 15 3d 2c a7 31 3c
       -0.0134309605 0.0033121484 0.036614206 0.01084308
000070 51 47 48 bd c8 32 83 3c 2b 99 5a bd c2 d6 26 3b
       -0.048896138 0.016015425 -0.05336873 0.0025457595
000080 bd d6 a8 bc 11 83 c9 3c b6 6f 07 bb e2 fd 53 3d
       -0.020610208 0.02459863 -0.002066595 0.051755793
000090 17 8c e2 3c 86 3d 58 bb aa 5e ef 3b 32 d8 67 3d
       0.02765469 -0.0032995655 0.007304986 0.056602664
0000a0 ad 8c b7 3a 63 0d 11 3d a6 01 f0 bb a0 b5 57 3c
       0.0014003717 0.035413157 -0.0073244153 0.013165861
0000b0 4f b8 5d 3b 4a 46 15 bd c6 ca 61 bd 42 1e 53 bd
       0.003383178 -0.036443986 -0.05512502 -0.051542528
0000c0 48 9a 60 3d 44 8a 65 bd b8 74 96 bc 1e ac c6 b8
       0.054834634 -0.056040064 -0.018366203 -9.473435e-05
0000d0 ca 22 6b bd 07 cb f3 3b 91 0b 9a 3c 5c 1e 5e bc
       -0.057406224 0.007439974 0.018804343 -0.013557043
0000e0 78 5b 00 bd 94 5d 5f 3d 3d d2 20 bc f8 06 15 bc
       -0.03133723 0.054532602 -0.00981575 -0.0090959
0000f0 38 31 a2 bc 98 13 b3 bc 04 4c 2d 3d a4 17 ab bc
       -0.01979886 -0.021859929 0.042308822 -0.020885296
000100 cb 46 6f 3b c5 39 52 3b 61 7c 13 3d 2e ff 48 3d
       0.0036510702 0.003207789 0.03600729 0.049071483
000110 f8 82 80 3b ba 09 d2 3c 0b b8 84 bc 03 1c c4 bc
       0.0039218627 0.025639404 -0.01620104 -0.023939138
000120 24 b1 09 3d 19 9a 11 3d 34 1a a0 bc c1 bc 6b bd
       0.0336162 0.03554735 -0.019543745 -0.057553057
000130 eb 9e fc 3c 7c 25 c9 3b 4c cf 97 3c 22 3b a5 3b
       0.030837497 0.0061385017 0.018531464 0.0050424496
000140 f4 2c 7f bc ac b6 6a bd 4d af 79 bb 73 62 bc bb
       -0.0155746825 -0.057303116 -0.0038098872 -0.0057490407
000150 36 11 59 3d da 3e 67 bd 8a 40 31 bd 14 dc 2d 3d
       0.05299493 -0.056456424 -0.04327444 0.04244621
000160 b3 3d 3a 3d f2 25 af 3c 21 8c 45 bd 9a a2 12 bd
       0.045468997 0.021380398 -0.04822934 -0.0357996
000170 92 72 46 3d af 18 20 bc 8a 98 29 3d 5a ac cd bc
       0.048449107 -0.00977151 0.04140524 -0.025106598
000180 1c d7 c8 3c 1f 7a ec 3c 44 f8 37 bd 48 11 c0 3b
       0.024516635 0.028866826 -0.0449145 0.005861435
000190 7b 74 62 3d a8 b3 ca 3c 3a ca 41 3d c5 37 26 bd
       0.055286866 0.02474387 0.047312 -0.04058053
0001a0 d2 27 40 3c f2 85 12 bd b2 8e 87 bb da 7a 7b bc
       0.011728244 -0.03577227 -0.0041368837 -0.015349114
0001b0 58 8b 51 3d 5d e5 40 bc 38 60 8a bb 87 41 6b bb
       0.05115828 -0.0117734345 -0.004222896 -0.0035897212
0001c0 90 86 03 3d cd 04 1a 3d f7 43 15 3d 20 29 2c bd
       0.03211075 0.037602235 0.03644177 -0.042031407
0001d0 0c 64 21 3d de df 15 bd 01 a2 00 3d fe e0 5c 3d
       0.039402053 -0.03659045 0.0314045 0.053925507
0001e0 8a aa 2c bc 98 73 46 bd 0c e9 71 bc 2a eb 4a 3d
       -0.010538707 -0.048450083 -0.014765035 0.049540676
0001f0 2c 39 da bc e5 7e 4d bc 00 fb b1 3c f4 73 2b bc
       -0.02663859 -0.012542461 0.021726131 -0.010464657
000200 e2 02 05 3d 9e 26 f1 bc f1 de 14 3d 1e 15 ba 3c
       0.032473452 -0.02943736 0.036345426 0.022715148
000210 f7 7d 2f bd 19 71 f8 3b ca c8 40 3c 62 2d 39 bd
       -0.04284474 0.0075818417 0.011766622 -0.045209296
000220 f3 92 1b 3d 0e cb 4d bc 1d 53 e2 bb 7a 4b d8 3c
       0.03798194 -0.012560619 -0.0069068805 0.026403178
000230 19 eb 2b 3d 63 a5 fd 3c 62 fb a7 3c 76 9a 34 bd
       0.041972253 0.030962652 0.02050561 -0.044092618
000240 c2 e1 92 bb af ca 8d bc e6 44 54 3d b1 e6 18 bc
       -0.004482479 -0.017308561 0.05182352 -0.009332345
000250 25 7c c3 3c f6 34 93 3c 27 18 2a 3d 59 65 49 bb
       0.023862908 0.01796959 0.04152694 -0.0030730574
000260 0c 4d 90 bc 1c ce b3 bc 57 42 36 3d e6 a6 4c 3d
       -0.017614864 -0.021948867 0.04449686 0.049963854
000270 63 cc 66 bd b1 a8 46 3d 43 37 e9 3b 25 52 91 bc
       -0.056347262 0.04850072 0.0071171834 -0.017739365
000280 cb de 0e 3c 33 8c a4 3b a6 cd d6 bc 3d 5c 6a bd
       0.00872011 0.005021596 -0.026221108 -0.05721687
000290 2e ee 1d bd 30 95 ee bc ba 89 c4 3c 83 e5 1c 3d
       -0.038557224 -0.029123873 0.023991454 0.038304817
0002a0 c7 96 19 3d 2b 56 99 3c 74 82 2b 3c ad eb 67 bc
       0.037497308 0.018717846 0.010468114 -0.014155311
0002b0 f0 d0 38 bd 14 db 54 bd 56 5d 5f bd 9c fb f2 3c
       -0.045121133 -0.05196674 -0.05453237 0.029660992
0002c0 7a 48 fb bc 45 9e 98 3c db 5e 13 bc 4f 37 10 bc
       -0.030674208 0.018630156 -0.008994783 -0.008802249
0002d0 10 63 12 3d a2 e6 6a bc 26 02 c6 3c 9a b8 5d bd
       0.035739005 -0.014337214 0.024170946 -0.054131128
0002e0 41 cb 19 bd b3 ce 2a 3d 68 53 67 bd 65 6a 35 bd
       -0.037547354 0.04170103 -0.056476027 -0.04429092
0002f0 9b 7e 55 3c 86 bb ba bc e0 ce 3c 3d 71 cf b8 bb
       0.013030673 -0.022794496 0.04609573 -0.0056399633
000300 76 9b 30 bd 8a 32 34 3d 65 85 3d 3d 64 aa 68 3d
       -0.04311701 0.04399351 0.046269793 0.056803122
000310 ee 6b bd 3c fb 8a 3c 3d 03 86 75 bc 87 fd 32 3d
       0.023122754 0.04603098 -0.014985564 0.043698814
000320 80 cb 4a 3d 64 30 b0 3b 6c be 3e 3d 7f 08 30 3d
       0.04951048 0.0053768624 0.04656832 0.042976853
000330 0b 7b 9f bc 69 9a e7 3a de 74 aa bc ea b8 42 bd
       -0.019467851 0.0017669919 -0.02080768 -0.04753963
000340 0f 3a 95 bb 29 e7 48 bd fe 58 dc bc ab a8 2b 3d
       -0.0045540403 -0.049048577 -0.026897904 0.0419089
000350 f1 72 22 3d 59 3a df bc 4d f6 2b 3d 72 64 16 3d
       0.039660398 -0.027249502 0.041982938 0.036716886
000360 6b b7 72 3c b6 9a 1f 3d 53 23 5c bd bd 0d a4 bc
       0.014814238 0.038965903 -0.053744625 -0.020026082
000370 03 e6 3f bd 40 63 5f 3d b0 a7 69 3d 6a 4b dd bc
       -0.046850216 0.05453801 0.057044685 -0.0270135
000380 cd 78 64 3c 97 31 25 bd 71 a7 a6 3b 81 12 26 bc
       0.013944817 -0.040330496 0.0050858785 -0.010136248
000390 b8 0f 24 3c da b1 5e 3d e4 15 20 3d 16 e5 69 bd
       0.010013513 0.05436883 0.039083377 -0.05710324
0003a0 af 8d ea ba 38 bd 35 3d 0f fa 40 3d 9f 3c 30 3c
       -0.0017895008 0.044369906 0.047113474 0.010756641
0003b0 fb a0 83 bc 4e 3e f6 bc 64 99 0d bd 7b 7a 0f 3d
       -0.016067972 -0.030059006 -0.034570113 0.035028916
0003c0 90 bd 45 3d 45 4e 12 3d 34 91 25 bd 08 a0 0f 3d
       0.048276484 0.035719175 -0.04042168 0.035064727
0003d0 3c 72 06 3d f9 96 4f bd 1a f0 1d 3d 8e 52 da 3c
       0.032823786 -0.050681088 0.038559057 0.026650693
0003e0 48 38 e7 bc 22 fb 9c 3c 41 21 33 3d eb 66 71 bc
       -0.02822508 0.019162718 0.043732885 -0.01473401
0003f0 a2 5c 5d bd 76 3d 53 3d 2c 83 7b bb 95 3f 1b bd
       -0.05404342 0.051572286 -0.0038377745 -0.037902433

bias f4 [12]
000000 f2 18 50 bd eb dd a0 bc 36 fb 84 bc 03 10 69 3c
       -0.05080504 -0.019637069 -0.016233068 0.014225009
000010 82 1e a0 3a 79 f2 cc 3c 32 78 da 3c fc 2b 23 bb
       0.0012216123 0.025017964 0.026668642 -0.0024898043
000020 e5 94 42 bd af 03 d0 3c 4c 22 3d 3d 07 2e a5 3c
       -0.04750528 0.025392381 0.046175286 0.02016355

weight f4 [12]
000000 23 00 80 3f 22 fd 7f 3f 12 00 80 3f 0c 00 80 3f
       1.0000042 0.99995625 1.0000021 1.0000014
000010 30 00 80 3f 34 fa 7f 3f 49 fc 7f 3f 09 00 80 3f
       1.0000057 0.99991155 0.9999433 1.0000011
000020 3f ff 7f 3f 15 00 80 3f 0f 00 80 3f e3 fe 7f 3f
       0.9999885 1.0000025 1.0000018 0.999983

bias f4 [12]
000000 9b e0 19 39 f7 a5 0e b9 cb d2 02 37 e9 14 f4 b6
       0.00014674889 -0.00013604002 7.797683e-06 -7.274201e-06
000010 1d 02 0a 39 1e 10 24 b9 9f 80 02 b8 90 98 76 b8
       0.00013161493 -0.00015646263 -3.1114203e-05 -5.8793055e-05
000020 8c 3a 9d 38 60 fe b7 38 60 e0 da 38 51 27 4f b8
       7.4972486e-05 8.773501e-05 0.00010436843 -4.9389262e-05

running_mean f4 [12]
000000 45 a4 8c 3e 45 b6 09 be be 29 d3 3c 74 a7 57 be
       0.27469078 -0.13448437 0.02577674 -0.21059972
000010 a1 ce e5 3d b2 5b 83 3e 00 35 95 3e 56 63 1b 3e
       0.11221052 0.25655895 0.29141998 0.15174612
000020 08 eb 25 be 24 72 16 bf d8 d1 67 bd b3 a6 1d 3e
       -0.16202939 -0.58767915 -0.056596607 0.15395622

running_var f4 [12]
000000 da ef a0 3d 67 ca e2 3d 07 d7 cd 3d 93 84 ae 3d
       0.07858248 0.110737614 0.10050779 0.0852138
000010 f5 35 9d 3d c5 17 9c 3d e7 0e 43 3d 45 f3 0c 3e
       0.07676307 0.07621721 0.047621634 0.13764675
000020 c9 c6 f8 3c 35 65 ba 3e c4 e4 15 3e 18 56 20 3e
       0.030368226 0.3640534 0.14638048 0.15657842

weight f4 [24, 12, 5, 5]
000000 03 26 59 bc b1 c4 00 3d 5d 3a 8a 3b 43 f5 46 bd
       -0.013253692 0.03143758 0.004218383 -0.048573744
000010 38 b5 69 bc 9d 2f 88 bc fe c6 13 bd cc e8 4c bd
       -0.014264397 -0.016624266 -0.036078446 -0.0500267
000020 65 60 51 3d cf 30 7b bc 0a a7 c2 bb d3 cb de 3c
       0.05111732 -0.015331461 -0.0059403228 0.0271968
000030 98 7c 60 bd 45 75 64 bc 44 5e 19 bc 72 31 3d bd
       -0.05480632 -0.013943975 -0.009360854 -0.046189733
000040 6c 8a 54 bd 24 ed 5b bd 05 eb b5 bc d7 de 39 3d
       -0.051889822 -0.05369295 -0.022206793 0.045378532
000050 2d f0 b9 bb e4 00 01 bb 37 3f e2 bb 1e 22 28 3d
       -0.005674383 -0.0019684369 -0.0069045085 0.04104816
000060 2d 39 33 bd 71 28 a5 3c 7f a3 89 bc 78 a9 ce 3c
       -0.0437557 0.020160886 -0.016801594 0.025227293
000070 03 7e 7c bc 6c db 33 bd e3 a7 ed bc 29 e9 f3 3c
       -0.015410903 -0.04391043 -0.029010719 0.029774265
000080 13 18 61 bc a7 ac 3b bd 66 1f 0b bd 1d c4 80 bc
       -0.01373865 -0.04581895 -0.03396549 -0.015718514
000090 9f e9 d2 3b 2e 40 df 3c b6 10 39 bd a8 de 58 bd
       0.006436541 0.027252283 -0.045181952 -0.052946717
0000a0 5d fa 36 bc 03 23 3a 3d fe 60 0a bd fc a7 a6 bc
       -0.01116809 0.045443546 -0.033783905 -0.020343773
0000b0 6e e8 ce bb 95 23 36 3c 89 3a 2f 3d 8b ee 6a 3d
       -0.006314329 0.011116882 0.042780433 0.0573564
0000c0 e4 6d 53 bd ae ca fd ba 0a 2b f2 3c a5 e7 be 3c
       -0.05161847 -0.0019362771 0.029561538 0.023303816
0000d0 7b 6e 68 bd 14 dd 25 3c 9c aa 5b bd 87 c7 be 39
       -0.056745987 0.01012351 -0.053629503 0.00036388283
0000e0 e2 34 46 3d 48 62 2a 3d c7 a1 fa 3c 96 ad e4 3c
       0.048390277 0.041597635 0.03059472 0.027914803
0000f0 9c 26 3a bd 90 2d 3c 3d 27 65 db bc 7f d7 c6 3c
       -0.045446977 0.04594189 -0.026781632 0.024272678
000100 48 56 2e 3d e0 12 0f bb 74 c4 ab bc 6b 66 16 3d
       0.042562753 -0.0021831319 -0.0209677 0.036718767
000110 3a 75 02 3d 70 79 67 bd 7e 46 07 bc 6d 12 56 bd
       0.031850077 -0.056512296 -0.008256553 -0.052263666
000120 f4 ec ec 3c ee f4 3f 3d b0 08 f6 3c b1 9e 41 3d
       0.028921582 0.046864443 0.03003344 0.04727048
000130 51 c3 2f 3d 52 d2 a0 3c d7 81 f8 3c cb f3 40 3d
       0.042910878 0.019631539 0.03033535 0.0471075
000140 fc 79 b7 3b ff 6a 38 3a 5f d1 ce 3c 1b 29 21 3d
       0.0055992585 0.00070349866 0.02524632 0.03934584
000150 e8 f4 e1 bc 65 87 09 3d 88 0a 19 bd 96 ad 82 bc
       -0.0275826 0.033576388 -0.03736356 -0.015951913
000160 62 2d 5e 3d ee 0c 85 3c b4 08 d6 3c 51 8b 45 3c
       0.0542425 0.016241517 0.026127197 0.012057141
000170 f1 cf eb 3a d7 30 3a bd 11 ad a2 3c d3 e3 d7 3c
       0.0017991049 -0.045456734 0.019857915 0.026353752
000180 73 30 24 3d ca 0b 4c 3d be 13 37 bd e5 25 5d 3c
       0.040085267 0.04981593 -0.044696562 0.013497804
000190 76 ff 24 3d a1 fc c1 3c 7e 64 ce bc f6 c4 52 3c
       0.04028269 0.023680033 -0.025194403 0.012864342
0001a0 fb cd 67 3d f8 5d 43 3c 7d 5c f2 bc 52 47 17 3d
       0.056592923 0.011924259 -0.029585117 0.03693325
0001b0 12 b2 cd bc c9 5d c5 bc 30 ab 85 3c 59 56 8c bb
       -0.025109325 -0.024092572 0.01631698 -0.0042827544
0001c0 bd 61 0d bd 16 73 f4 3b dc 41 40 bd c7 30 1c 3d
       -0.03451704 0.0074600084 -0.04693781 0.038132455
0001d0 8e 60 4a 3c 01 b5 29 3d df 0a 62 3c 47 90 17 3c
       0.012352122 0.041432384 0.013796537 0.009250707
0001e0 ec 13 ac 3c 4b 07 23 3c 04 ef c7 bc 33 23 eb 3c
       0.021005593 0.009950469 -0.024405964 0.028703308
0001f0 67 7b 7b ba 6d 1a 42 bd 59 cf 26 bd e8 e4 6d bc
       -0.00095932785 -0.047388483 -0.040725086 -0.0145199075
000200 4f 02 f2 3c be 3e ab 3c 57 ca 42 bb 6a 1e 88 3a
       0.029542116 0.020903941 -0.0029722655 0.0010385041
000210 04 80 0f 3d 83 b4 f4 bc 64 81 db bc a3 f7 67 bd
       0.035034195 -0.029871231 -0.026795097 -0.05663265
000220 a4 42 15 3d 7e 76 25 bb 20 6e 67 3d c7 d9 11 bd
       0.036440507 -0.0025247629 0.056501508 -0.03560808
000230 4a 70 f4 bc 91 c6 54 bd e9 5c 0c 3d 35 7b 6a 3d
       -0.0298387 -0.05194718 0.034268294 0.057246406
000240 fa d5 c7 bc 4d 2f 08 3d df d8 ef ba 16 6a 65 bd
       -0.024394024 0.033248235 -0.0018298886 -0.056009375
000250 90 65 e2 3c f0 d0 c5 bb fb eb 2e 3d 0b 88 24 bc
       0.02763632 -0.00603687 0.042705517 -0.010042201
000260 a1 65 65 3d 3b 92 4d bd 09 0f 84 3c 51 43 eb bc
       0.056005124 -0.050188284 0.01612045 -0.028718622
000270 76 c8 0e bd 9a ca ac 3c 5d a1 4a 3d 00 3b f5 bc
       -0.034859143 0.021092702 0.049470294 -0.02993536
000280 39 aa f2 3b a3 8f 44 3c 06 19 11 3d e3 74 18 3d
       0.007405546 0.011997136 0.035424255 0.037220847
000290 89 42 3a 3c 01 6e 9a bc 84 17 4c bd 67 a4 89 bc
       0.011368402 -0.018851282 -0.049827114 -0.016802026
0002a0 8f f8 25 3d b6 c1 89 bc 05 53 bc 3b 40 07 09 bc
       0.040520247 -0.016816001 0.0057472014 -0.008363545
0002b0 af cd 03 3d 37 23 d6 bc d7 fd 56 3d 0e 1a b7 bc
       0.032178577 -0.026139839 0.052488174 -0.022351291
0002c0 8b 34 6a bd 02 97 0e bb fa 66 07 3d 4b 7f 93 3b
       -0.057179015 -0.0021757488 0.03305719 0.0045012585
0002d0 e3 d0 54 3d 45 8c 96 bc 91 b8 3e bc e7 5f c8 3c
       0.051957022 -0.018377433 -0.011640684 0.024459792
0002e0 6e ff e2 bc b7 e9 d4 3a 64 d7 d9 3b 36 6e 9e 3c
       -0.027709689 0.0016243969 0.006647991 0.019339662
0002f0 67 47 33 3d 87 d7 6a bc 91 8b f5 3b b5 50 07 3c
       0.043769266 -0.014333612 0.0074934443 0.008258988
000300 85 64 f7 3c bc 80 22 bd e9 a7 64 3d ef 68 31 3d
       0.030199299 -0.039673552 0.055824194 0.043312963
000310 68 08 5d bd 0a d2 90 bc 8b d6 c0 bc c9 52 69 bd
       -0.053963095 -0.01767828 -0.023539802 -0.056963716
000320 ee 01 44 bd f3 ea c8 3c b6 61 4b bd 3f 9f 63 3d
       -0.047853403 0.024526095 -0.04965373 0.05557179
000330 76 99 67 bd 54 13 c1 bc 46 ba 69 bd 12 a5 ae bc
       -0.056542836 -0.023568787 -0.05706241 -0.021318946
000340 85 75 9a 3c 95 21 a7 3b 73 37 d6 3c 4b 1d 0a 3d
       0.018854866 0.005100439 0.026149487 0.033719342
000350 65 04 c8 3c f7 98 30 bd 57 15 5a bd c9 25 ce bc
       0.024416158 -0.04311463 -0.053243008 -0.025164502
000360 d7 2f f4 3c a6 cc e3 3c d1 47 57 3d d4 84 d9 3c
       0.029807968 0.027807545 0.052558724 0.026552595
000370 97 dd ef 3c 7b 8d 3e 3b e2 43 29 3d b8 ca c3 3a
       0.029280467 0.0029076028 0.041324504 0.0014937734
000380 64 5f 64 3d 74 e5 18 3d 1a d7 56 3d 36 84 3c 3d
       0.055755034 0.0373282 0.05245123 0.046024524
000390 18 d9 08 3d 6a 4d c3 bc ae f2 17 3d 7f 44 7c 3c
       0.03341016 -0.023840625 0.03709667 0.01539719
0003a0 07 51 aa 3c 02 42 18 bc 33 ae 2b bc d7 18 9c 3c
       0.02079059 -0.009293081 -0.010478544 0.019054813
0003b0 8d 2b b3 3c 84 aa f0 bc 24 bc 14 3d d1 fa 0a 3c
       0.021871353 -0.029378183 0.036312237 0.008482651
0003c0 b2 90 53 3d ed ae b8 3c e1 96 42 bd fe 6d 12 bd
       0.051651664 0.022544349 -0.04750717 -0.035749428
0003d0 9f 3b 40 3d 02 cd 21 3d 21 0b 19 3d fd 90 ae bc
       0.04693186 0.03950215 0.03736413 -0.02130937
0003e0 71 87 38 3d 6e 34 d7 3c d9 23 83 bc 99 75 4a bd
       0.045051042 0.026270118 -0.016008304 -0.049428556
0003f0 4a b7 19 bb 17 1c 9b ba fa 8a 9f bc 9e 09 40 3d
       -0.0023455196 -0.0011833933 -0.019475449 0.04688417

bias f4 [24]
000000 34 65 35 bd e4 68 b8 bb 2e 08 1c 3d 06 a3 92 bc
       -0.044285968 -0.0056277383 0.03809374 -0.017900001
000010 5d 02 00 bd 82 e5 0a 3d 9e ce 48 3d 9c 81 58 bd
       -0.031252254 0.033910282 0.04902517 -0.05285798
000020 30 c8 55 3d 11 8c 4c 3d a3 49 56 bd dc 38 46 bd
       0.052192867 0.049938265 -0.05231632 -0.04839407
000030 26 a6 67 bd 4a 6b e9 3a 0d 76 00 3d d3 30 13 bd
       -0.056554936 0.0017808464 0.031362582 -0.035935234
000040 b6 08 b6 3a 4d aa e1 bc 65 6b 4f bd 31 14 20 3d
       0.0013888094 -0.027547026 -0.05063953 0.039081756
000050 84 26 5e 3d 42 52 2f 3d d7 ca d1 3c 17 bb 16 bb
       0.05423595 0.042803057 0.025609417 -0.0022999698

weight f4 [24]
000000 0c 00 80 3f b1 fd 7f 3f e5 fc 7f 3f ab fc 7f 3f
       1.0000014 0.9999648 0.9999526 0.99994916
000010 c6 fe 7f 3f 15 00 80 3f 12 00 80 3f 20 00 80 3f
       0.9999813 1.0000025 1.0000021 1.0000038
000020 b4 fd 7f 3f b8 fd 7f 3f 0d 00 80 3f 4f fd 7f 3f
       0.99996495 0.9999652 1.0000015 0.99995893
000030 56 ff 7f 3f c2 fc 7f 3f 07 00 80 3f 01 00 80 3f
       0.99998987 0.9999505 1.0000008 1.0000001
000040 86 fc 7f 3f d2 fe 7f 3f 81 ff 7f 3f 0c 00 80 3f
       0.99994695 0.999982 0.99999243 1.0000014
000050 1d ff 7f 3f 16 00 80 3f 12 00 80 3f 73 ff 7f 3f
       0.99998647 1.0000026 1.0000021 0.9999916

bias f4 [24]
000000 17 b7 be b6 d6 a7 ac 34 1a af 96 b8 cd 09 33 b7
       -5.6837557e-06 3.2159613e-07 -7.1851726e-05 -1.0671513e-05
000010 ef 2a 72 b8 ce f1 b5 38 8d f9 11 38 15 b2 09 39
       -5.773728e-05 8.675792e-05 3.4803106e-05 0.00013131679
000020 5f 51 86 b8 c7 c2 a1 b8 18 f3 97 38 e0 e0 0e b8
       -6.4047745e-05 -7.713358e-05 7.245521e-05 -3.406487e-05
000030 09 e7 79 b8 98 24 d2 b8 88 4b 39 38 7e 93 36 38
       -5.9581394e-05 -0.000100203964 4.417778e-05 4.3529544e-05
000040 60 fa 3a b8 67 69 04 38 a1 e2 c8 b7 73 47 76 38
       -4.4579036e-05 3.1569416e-05 -2.394739e-05 5.8717513e-05
000050 2b f3 f5 36 6e e1 be 38 b2 b4 4e 38 26 2b 1d b6
       7.3298775e-06 9.1018956e-05 4.9282513e-05 -2.3419939e-06

running_mean f4 [24]
000000 c6 c4 a3 3e c7 4d bb 3e f7 a8 31 bc 8a 7d fc be
       0.31986064 0.36582777 -0.010843507 -0.4931453
000010 cf 05 b1 be 2f ca ec 3e 65 24 47 be 2a 96 52 3e
       -0.34574744 0.46248004 -0.19447477 0.20565096
000020 36 b6 b1 be 2d 8e bd be a6 92 cf bd ed 24 c7 bd
       -0.34709328 -0.37022534 -0.10135393 -0.0972384
000030 30 e5 94 3d 1e 76 23 be a4 47 10 bf 07 27 4f 3e
       0.072702765 -0.15963027 -0.56359315 0.20229732
000040 37 39 b7 be 34 d3 9c be cb 7e 28 be fd ab c0 3e
       -0.3578584 -0.30629885 -0.16454618 0.37631217
000050 f5 b3 84 3c 05 9f c6 3b 4b 7e 19 3e 06 29 ca be
       0.016199091 0.006061437 0.14989583 -0.39484423

running_var f4 [24]
000000 46 65 37 3e f5 13 7a 3e cc 87 bb 3d 8e 4f 36 3e
       0.17909727 0.24421676 0.091567606 0.17803785
000010 3c c0 80 3e b5 da fc 3d 8c 20 08 3e d6 90 0b 3e
       0.25146663 0.123464026 0.13293666 0.1362947
000020 29 28 8c 3e 1c 82 83 3e 07 e8 6b 3e 35 21 d9 3d
       0.2737439 0.25685203 0.2303773 0.10602037
000030 f9 ef 6d 3e 8c 09 08 3e 6e ff 6f 3e d0 41 a4 3d
       0.23236074 0.13284892 0.23437282 0.08020365
000040 0e a4 63 3e 8b 28 d9 3d 99 65 09 3e d2 c4 67 3e
       0.2223055 0.10603436 0.13417663 0.22633675
000050 89 37 e8 3d 79 34 66 3e dd a1 1a 3e 22 89 24 3e
       0.113387175 0.22480954 0.15100808 0.16067937

weight f4 [24, 24, 5, 5]
000000 cd 88 77 bc 79 a3 05 3d 48 ba 9d 3c 44 7a c3 3c
       -0.015108299 0.032626603 0.019253865 0.023862012
000010 54 ec 0b bc ea 48 13 bd 15 73 0b bd eb a9 f9 bc
       -0.008540232 -0.03595821 -0.034045298 -0.030476531
000020 38 08 73 bc a9 e9 a0 3b 93 be 8c 3c 7a c1 39 3b
       -0.0148335025 0.004910667 0.017180717 0.002834408
000030 bb b7 8c bc d1 13 db 3c a8 35 44 bc da 57 02 bd
       -0.017177453 0.026742848 -0.011975683 -0.031822063
000040 2a 16 f4 bc eb ee 11 3d 30 7c 17 3d 4d 87 9e bc
       -0.029795725 0.03562824 0.03698367 -0.019351626
000050 82 f3 05 bc cf 0a 19 bd 29 da eb bb 1a d6 28 bb
       -0.008175733 -0.037363824 -0.0071976376 -0.002576238
000060 68 56 07 3d 3a bf b0 3c 38 02 9b bb 76 01 c4 3c
       0.033041388 0.021575559 -0.004730489 0.023926478
000070 6e 2e 82 3b 81 1b bc bc ca 10 05 bd 0e b8 c8 bb
       0.00397282 -0.022962334 -0.032486714 -0.0061254567
000080 0d 29 be 3c c5 9d e4 3c 34 09 d5 bc 1a 52 0f 3d
       0.023212934 0.027907262 -0.026005365 0.034990408
000090 ba c8 d7 ba e3 85 06 bd f8 cd 45 3b 32 16 b7 bb
       -0.001646302 -0.032842528 0.0030182581 -0.0055873627
0000a0 e5 cb 55 bc 1d f5 f8 bb 96 04 0e bd 2d 48 e8 bc
       -0.0130491005 -0.007597579 -0.034672342 -0.028354729
0000b0 cc f7 ff bb 65 5a 81 bc ce 6a 35 bc 8d 64 6a bc
       -0.007811522 -0.015790174 -0.0110728275 -0.0143062
0000c0 ce bb 9f 3c ca 7d d0 3c 7d b7 26 3d 4d 82 e2 bc
       0.019498732 0.025450606 0.04070233 -0.027650023
0000d0 2a 88 ae 3c e5 4e 05 3d ac e4 d7 bc 6f 0f 9a 3b
       0.021305162 0.032545943 -0.026354156 0.004701547
0000e0 c6 0e b1 3c fa 11 9f bc e2 0c de bc b4 d5 1e 3a
       0.02161349 -0.019417752 -0.027105752 0.0006059066
0000f0 e3 ea c8 bc 9e bc 82 ba 3b 38 c6 3c 8a 7a 3a bb
       -0.024526065 -0.0009974425 0.024196735 -0.0028454387
000100 ce 01 53 bb 7e c9 6c bc a9 6c 8a bc 73 57 e7 b9
       -0.003219712 -0.014452336 -0.016897516 -0.00044124908
000110 96 1b 02 3d 39 a2 14 3d 36 ca e3 bc a1 5b c0 3c
       0.03176459 0.03628752 -0.027806383 0.023481192
000120 f7 60 b8 bc cd 00 fa bc 24 45 12 3d c9 61 38 3b
       -0.022507174 -0.03051796 0.03571047 0.0028134456
000130 8f e2 75 3c 15 71 aa bc 03 19 83 bc da be 53 bc
       0.015007629 -0.020805875 -0.016003137 -0.0129239205
000140 92 23 00 bd b4 5a 0d 3d 11 2c 9e 3c b9 41 82 bc
       -0.031283922 0.03451033 0.019308122 -0.01590048
000150 bb 63 d2 3c 0c 83 5e bc 1e 97 12 3d a9 0d 1d 3c
       0.02568232 -0.013581049 0.035788648 0.009585776
000160 44 eb 05 bd 23 a6 90 3c 0a 26 3e 3c 42 43 d7 bc
       -0.03269507 0.017657345 0.011605749 -0.026277188
000170 62 6f 38 39 04 de 6e bc d5 e9 62 3c f0 33 4e 3c
       0.00017589101 -0.0145793 0.013849695 0.012585625
000180 d2 ab e2 bc d6 45 d4 bb ec 6f d5 3c c8 f6 9d 3c
       -0.027669821 -0.0064780517 0.026054345 0.019282714
000190 f5 bb a9 bb 8c f7 21 bd 62 87 33 3c 37 fc 26 3c
       -0.005179877 -0.03954272 0.010957571 0.010191969
0001a0 f6 30 cc bc ed 3c 0b 3d ac 05 fd bc 3d 3c 0e 3d
       -0.02492569 0.03399365 -0.030886494 0.034725416
0001b0 2b ae 7f bc fe 01 1a 3d 77 7b 2f 3c 15 8e e6 bb
       -0.01560549 0.037599556 0.010710589 -0.0070359805
0001c0 ce 64 b9 3c c3 d3 f2 bc 25 65 00 3d f8 2b c3 3c
       0.022631075 -0.029641991 0.03134646 0.023824677
0001d0 e2 7a cd bc d4 e2 f8 bb db 1c c1 bc 42 4c 83 bc
       -0.02508301 -0.0075953994 -0.02357333 -0.016027573
0001e0 88 2c aa 3c 6f ad d3 bb d5 c0 1d 3c 20 8c 82 bc
       0.020773187 -0.006459884 0.009628494 -0.015935957
0001f0 60 5b 51 bc 27 97 df 3b 60 ab c7 3c ad 01 25 3d
       -0.012778133 0.0068234387 0.02437371 0.0402848
000200 4f 8b b6 bc d8 be b2 bc 0b e6 66 3b 70 6f ec 3c
       -0.022283224 -0.021819517 0.003523233 0.028861731
000210 dc 9e d0 3c 35 f2 f5 3c 15 23 23 bd 72 79 80 3b
       0.025466375 0.03002272 -0.03982838 0.0039207274
000220 f1 97 91 ba 65 6c 1d 3d 1c c6 f6 bc 93 1a 20 bc
       -0.0011107904 0.03843345 -0.030123763 -0.009771961
000230 ac cc 08 bd 57 67 0e bd a3 0e 18 3d 63 3d c1 bc
       -0.033398315 -0.03476652 0.037123334 -0.023588842
000240 85 a9 ee 3c d0 43 20 3c df e2 04 3c c4 75 dc bc
       0.029133568 0.009781793 0.008110731 -0.026911624
000250 7c 3f bc bb e2 49 20 bd 98 cf 70 3c 07 54 5d 3c
       -0.0057448726 -0.03913296 0.014697932 0.013508803
000260 3b 29 2d 3c 6c c8 a1 3c c9 20 ff 3c 22 54 4b 3c
       0.010568912 0.019748889 0.031143563 0.012410196
000270 40 09 25 3d f9 53 21 bd 72 c4 df bc 73 30 8d bc
       0.040292025 -0.039386723 -0.027315352 -0.017235016
000280 02 03 fe ba d3 9e f9 bc a9 30 84 bc f5 be 58 3c
       -0.0019379559 -0.030471241 -0.016136484 0.013229121
000290 df 0c b2 bc 7c 84 0f 3d 8d 28 f1 bc a2 6c ac bc
       -0.021734653 0.035038456 -0.029438281 -0.021047894
0002a0 ed 25 10 3d 6a 67 ea bc 4b 52 f5 3c 98 d1 a1 bc
       0.03519242 -0.028613765 0.029946467 -0.019753262
0002b0 d2 14 b7 3c db 55 ef bc 83 1e 4e bc 8d 85 f3 bc
       0.022348795 -0.029215744 -0.012580517 -0.029726768
0002c0 f6 df a4 3c a1 0d bf 3b 5c 4f ad 3b ed 83 f7 3c
       0.020126324 0.005830482 0.0052890014 0.030214274
0002d0 a0 e8 fc 3c 1c 2d be 3b 86 7a bf 3c ba 08 05 3d
       0.030872643 0.0058037173 0.023373853 0.032479025
0002e0 03 56 0e bd f2 54 0f 3d 0d 83 af 3c 5b d3 ca 3c
       -0.034749996 0.03499312 0.021424795 0.024758985
0002f0 07 03 b1 3c c7 9c ce bc 1b b9 0c bd 4b 37 09 3d
       0.021607889 -0.025221242 -0.034356218 0.033499997
000300 96 cf 74 3c c9 f0 00 3c 9c 5f 3c bc 69 64 fb 3c
       0.0149420705 0.007869908 -0.011497404 0.030687528
000310 81 07 1f 3d 23 85 30 bc 55 49 1b bd 29 5e a0 bc
       0.038825516 -0.01077393 -0.03791173 -0.019576149
000320 d4 71 83 bc 37 a1 d9 39 8b 1e 80 3c 70 7d 5d bc
       -0.016045488 0.0004150958 0.015639564 -0.013518676
000330 85 a3 24 3d 9d cd 87 bc 02 ee 02 3d 43 6f 0c bd
       0.040195007 -0.016577536 0.031965263 -0.034285795
000340 e9 e4 0b 3d af 3f ae bc 55 6d 21 bd 5a 8c f1 bc
       0.034153853 -0.021270601 -0.039410908 -0.02948587
000350 5b 38 1d bd 60 c7 02 bd 9c 03 05 bc d8 5e 8e 3c
       -0.038383823 -0.03192842 -0.008118536 0.01737921
000360 a2 1d 06 3d e9 c0 b1 3c 8a ff c8 3c 7f 66 8d bb
       0.032743104 0.021698432 0.024535913 -0.004315197
000370 fd 42 90 3c 1d dc 08 bd 5c a9 12 bd 04 24 19 3d
       0.017610068 -0.03341304 -0.035806045 0.037387863
000380 b0 e1 85 3c e0 3b 0a bd 88 f0 95 3b 34 74 90 3c
       0.016342968 -0.033748507 0.0045757927 0.017633535
000390 f7 8f cf 3c b4 1a c0 bc 7f d8 f9 3c 79 98 dd 3c
       0.025337202 -0.023450233 0.030498741 0.027050244
0003a0 e9 94 b0 bc 0c e4 b2 3b 64 37 12 3d f9 60 51 bb
       -0.02155538 0.005459314 0.035697356 -0.003194867
0003b0 87 3d a0 bb e0 c0 e6 bb 25 0f 21 3d 92 b2 1f bd
       -0.004890147 -0.0070420355 0.039321084 -0.038988657
0003c0 90 1f 9a bc b2 b5 2d 3b 8c a0 ee 3c 21 71 bf 3b
       -0.018813878 0.0026506004 0.02912929 0.0058423434
0003d0 6a c9 cd 3c 6b 03 15 bd 44 9d a3 bc 10 46 0f bc
       0.025120456 -0.036380213 -0.019972451 -0.008744732
0003e0 81 97 d4 bc 16 d6 67 3c 4a 44 fc 3c 48 4a 97 bc
       -0.025951149 0.014150163 0.030794282 -0.018468037
0003f0 58 13 fd 3b 18 b7 aa 3c 03 76 a1 bc 38 57 53 bc
       0.007723253 0.020839259 -0.019709593 -0.012899213

bias f4 [24]
000000 30 87 d8 3c 6b 0b 1c 3d 18 ca 0a 3d 2f 92 0c bd
       0.02643165 0.038096827 0.033884138 -0.0343191
000010 f6 4b 8c 3c 1b 9e 80 bc d4 8e f5 bc 06 40 6f 3b
       0.017126065 -0.01570039 -0.029975332 0.0036506667
000020 c0 e6 ab bc 6b 9b 18 3d 53 89 31 bc e6 90 bf 3c
       -0.020984054 0.037257593 -0.010835963 0.023384523
000030 b1 c5 04 3b 98 4a bd 3c 0f 8f a8 3c 69 6a dd bc
       0.0020259435 0.023106858 0.020576028 -0.02702828
000040 1a ee 31 bc 09 37 bf 3c 16 15 66 3b 80 2c 2d bb
       -0.0108599905 0.023341672 0.0035107783 -0.002642423
000050 25 15 11 bc 04 58 d7 3c f5 44 d1 ba 15 e5 5f 3a
       -0.008855139 0.026287086 -0.0015965985 0.0008540911

weight f4 [24]
000000 0c 00 80 3f 55 f8 7f 3f 09 00 80 3f 07 00 80 3f
       1.0000014 0.999883 1.0000011 1.0000008
000010 1d 00 80 3f d9 fc 7f 3f 3f fe 7f 3f 86 fc 7f 3f
       1.0000035 0.9999519 0.99997324 0.99994695
000020 12 00 80 3f 12 00 80 3f 13 00 80 3f ea fe 7f 3f
       1.0000021 1.0000021 1.0000023 0.99998343
000030 c7 f8 7f 3f 0d 00 80 3f 01 00 80 3f 0a 00 80 3f
       0.9998898 1.0000015 1.0000001 1.0000012
000040 15 00 80 3f 2a 00 80 3f 73 fb 7f 3f 0a 00 80 3f
       1.0000025 1.000005 0.99993056 1.0000012
000050 ac fe 7f 3f 0d 00 80 3f 83 fd 7f 3f 15 00 80 3f
       0.99997973 1.0000015 0.99996203 1.0000025

bias f4 [24]
000000 0a 3a dd b7 fd 58 12 b9 a6 3a ac 38 03 a5 d8 36
       -2.637228e-05 -0.00013956796 8.212523e-05 6.4565115e-06
000010 d5 58 06 39 46 33 9b 36 bd d2 f5 36 c3 ff a8 b7
       0.00012812328 4.625329e-06 7.326102e-06 -2.0146259e-05
000020 d9 d5 f3 38 16 14 3d 39 20 fc 42 39 22 77 58 b7
       0.00011626975 0.00018031927 0.00018595206 -1.2902341e-05
000030 15 e2 26 b9 ab 29 5c 37 5e 3a f8 38 5b 1a 5a 38
       -0.00015915216 1.3122723e-05 0.00011836433 5.1999796e-05
000040 42 16 17 39 f0 6e 1a 39 dd 3c 91 b8 f8 4e 10 39
       0.00014408774 0.00014727912 -6.9254755e-05 0.00013762328
000050 73 59 0b b7 81 4d 17 39 a2 00 46 b6 0a 12 e1 38
       -8.305872e-06 0.00014429355 -2.9504668e-06 0.00010732196

running_mean f4 [24]
000000 02 da 6a bb 3c 6c 4e 3e 18 95 21 3e c3 7e 60 bb
       -0.003583551 0.20158476 0.15779531 -0.0034255243
000010 b4 46 f6 bd 5b 2d a6 be 92 c7 05 3e 79 1a a8 bd
       -0.12025204 -0.32456478 0.13064411 -0.08208174
000020 53 ee cf 3c 33 71 56 be e3 e7 ad 3c 90 70 bc 3c
       0.025382197 -0.2094162 0.021228736 0.023002893
000030 5d 24 f6 3d 64 b3 65 3e a8 3e 34 be d5 8d 0c be
       0.120186545 0.22431713 -0.17602026 -0.1372598
000040 9e a2 29 3e d2 cf 07 3d 78 c5 c9 bd 44 69 07 3e
       0.1656594 0.033157177 -0.09852117 0.1322375
000050 1c 22 9a 3d 84 b5 a9 3c c4 70 2b 3d 0e cf a5 bd
       0.07526037 0.020716436 0.04185559 -0.08096133

running_var f4 [24]
000000 8a cc 24 3e b1 98 3d 3e 9b 0b f7 3d e9 99 d9 3d
       0.1609365 0.18515278 0.120627604 0.10625059
000010 5b 65 ce 3d fe 43 63 3e 04 07 30 3e d5 78 cd 3d
       0.10077926 0.22193906 0.17190176 0.100328125
000020 72 02 b9 3d ca 64 f5 3d 11 20 b1 3d d4 e8 a8 3d
       0.090336695 0.119821146 0.08648694 0.082475334
000030 54 67 af 3d 73 1e c0 3d 07 16 39 3e 59 1c e3 3d
       0.0856463 0.09380808 0.18074809 0.11089391
000040 8c 81 ad 3d 57 7b 12 3e c0 24 11 3e 67 5e b0 3d
       0.08471975 0.14304863 0.14174175 0.08611756
000050 35 ad a2 3d 7e ae 30 3e 83 cf 33 3e 71 b3 db 3d
       0.07943193 0.17254063 0.17559628 0.10727585

weight f4 [10, 16224]
000000 09 81 9a 3b d7 e6 ab 3b cd 0d e9 3a 7a 26 a1 b9
       0.004715089 0.005246024 0.0017780602 -0.0003073698
000010 62 9d ea bb e4 ab 70 bb c5 40 ec 3b 51 fd 45 bb
       -0.007159875 -0.0036723549 0.0072098696 -0.0030210803
000020 8c 74 f7 bb 9a 32 57 bb 97 42 19 ba ee 9c 50 3b
       -0.0075517353 -0.0032836557 -0.00058464095 0.0031831819
000030 ee a6 d8 3b c2 8a 49 3b 67 30 70 bb 9a ad 87 3a
       0.0066116964 0.0030752872 -0.0036649944 0.001035142
000040 2c d6 f4 bb f4 df 5b ba 03 60 fa 3a 43 d3 92 3a
       -0.0074718203 -0.00083875586 0.00191021 0.0011201877
000050 ae 7d aa bb d9 9f 2b 3b d3 00 b8 bb 0b bb db bb
       -0.0052029705 0.0026187806 -0.0056153326 -0.006705647
000060 85 7c 90 bb c9 00 fc 3b ca 69 e8 bb d2 38 d7 3a
       -0.004409375 0.0076905233 -0.007092689 0.0016420132
000070 9f 28 91 bb c0 b4 10 ba ba a5 a8 3a f7 a1 e8 3b
       -0.0044298912 -0.0005520098 0.0012866773 0.007099386
000080 c9 06 a2 bb 5d b2 79 bb 95 10 81 ba 12 10 f0 bb
       -0.0049446565 -0.0038100698 -0.0009846861 -0.0073261345
000090 cc fa 85 bb c8 f4 81 38 1a 11 bb ba 85 9c b6 bb
       -0.004088735 6.1967934e-05 -0.0014272064 -0.005572858
0000a0 d1 7c bd bb 54 a6 ef 3b 6a cd a0 3b f5 87 b8 3b
       -0.0057827015 0.007313529 0.0049072998 0.0056314417
0000b0 c8 09 f6 3b d1 f8 89 3b 78 e4 a9 bb 5e 10 41 3b
       0.0075084902 0.0042105694 -0.0051847063 0.0029459218
0000c0 8a 9d b9 3b 32 52 bc 3b 6a c6 7d 3b 18 69 cd bb
       0.005664532 0.005747103 0.0038723 -0.0062686317
0000d0 65 27 27 bb 59 53 e2 ba b7 e9 8e 3b 28 87 b0 3b
       -0.0025505659 -0.0017267271 0.004361357 0.0053872056
0000e0 7d 2f aa 3b 68 29 b6 bb d6 63 e1 3b 19 0a 84 b9
       0.0051936493 -0.005559135 0.0068783564 -0.00025184525
0000f0 9b e0 ab bb 01 ec a7 39 f1 5a 98 ba 3b 0f cd 3b
       -0.005245281 0.0003202856 -0.0011623782 0.006257919
000100 62 02 3c 39 5a 2d c0 bb 83 99 3e bb 44 96 99 3b
       0.00017929965 -0.0058647813 -0.00290832 0.0046871025
000110 21 ef c3 3b 2e 9e d5 bb 0f c7 d5 bb 56 47 66 3b
       0.005979434 -0.0065191006 -0.006523974 0.0035137734
000120 da 19 d6 3b 81 58 57 bb bb 37 e9 bb e9 a0 cd 3b
       0.0065338435 -0.003285915 -0.0071172393 0.0062752855
000130 4a f3 74 3b da b0 93 ba 2b 54 a2 3b ea 2b 32 bb
       0.0037376457 -0.0011267916 0.0049538813 -0.002718682
000140 90 8f bc 3b 70 90 ed bb 4e 49 58 3b 35 42 00 bc
       0.0057544187 -0.0072498843 0.0033002677 -0.007828285
000150 b3 a7 da 3b 06 fb 9e b9 86 35 83 bb 56 9f eb 3b
       0.0066728233 -0.00030323135 -0.004004183 0.007190625
000160 4e e2 18 3b fa f2 e5 3a 34 26 9e b9 60 9f d2 bb
       0.0023328247 0.0017543726 -0.00030164572 -0.0064276904
000170 e9 9c e6 39 5b d0 ec bb e1 63 93 3b 3b 4e d6 3b
       0.00043985926 -0.0072269863 0.0044979905 0.0065400875
000180 71 aa a0 bb ce d6 e7 bb 35 e5 c0 bb 42 34 9f bb
       -0.0049031307 -0.0070751673 -0.0058866986 -0.0048585245
000190 18 4b 8a bb 1f b1 ae 3b 6a 93 cd ba c1 de 3c bb
       -0.0042203777 0.005331173 -0.0015684192 -0.0028819295
0001a0 cd be 86 ba 51 dd ee 3b 39 a2 61 bb 7d f6 12 bb
       -0.0010280252 0.0072895666 -0.0034428968 -0.002242475
0001b0 91 00 ab 3b e1 3a f1 3b 56 fe e5 bb d6 0c c2 3b
       0.0052185734 0.0073617552 -0.0070188446 0.0059219403
0001c0 5d fe 14 bb 70 cb 2b 3a 87 ee ea 3b 91 90 76 3b
       -0.002273462 0.0006553447 0.007169548 0.003762279
0001d0 d0 72 92 3b 62 9e 34 bb 96 8e d6 3b 07 9b bb bb
       0.004469253 -0.0027560224 0.0065477593 -0.005725268
0001e0 85 ae a5 bb c5 d8 eb bb ad 79 9b bb 27 4c fe 3b
       -0.0050562047 -0.007197472 -0.0047447295 0.007760543
0001f0 98 01 b6 3b 55 50 8f 3b 11 13 9c ba 67 b2 e4 ba
       0.005554389 0.00437359 -0.0011907538 -0.0017448188
000200 f3 c4 f5 bb 91 0a 15 bb 87 53 bc bb 86 bc e0 bb
       -0.007500285 -0.0022741894 -0.005747262 -0.0068584112
000210 9c 1b c1 3b ec f0 ee ba 3e 5a 36 3b 73 4a 28 bb
       0.005893184 -0.0018229759 0.0027824785 -0.002567914
000220 bc 72 85 bb 3a 51 e9 bb f5 d7 70 bb 87 b5 c8 bb
       -0.0040725153 -0.0071202787 -0.0036749814 -0.0061251554
000230 fb 7e 53 bb b8 07 fb bb 62 41 f0 bb b3 44 36 bb
       -0.0032271731 -0.0076608323 -0.007332013 -0.0027811944
000240 a5 d3 ef 3b b5 f3 93 bb a1 79 d0 b8 aa 45 a6 3b
       0.007318931 -0.004515136 -9.940868e-05 0.0050742226
000250 eb 1b 3b bb d8 06 9c ba f5 75 4e 3b 87 e9 be bb
       -0.0028550576 -0.0011903895 0.0031503413 -0.0058261785
000260 b1 28 f7 3a 7b d2 97 3b 04 7a 70 3b b7 30 39 bb
       0.0018856731 0.0046332455 0.003669382 -0.0028257796
000270 0f 5c b5 bb 18 a5 5c bb b1 26 88 bb 97 e5 09 bb
       -0.005534656 -0.003366774 -0.004155003 -0.0021041387
000280 f6 cc f1 bb a4 2b 33 3b 5b 5a 52 bb fe e3 f4 39
       -0.0073791696 0.0027339244 -0.0032097313 0.00046709174
000290 27 57 5c bb fa af a3 bb 03 8c 98 3b aa 2c 55 3b
       -0.0033621283 -0.0049953433 0.0046553626 0.0032527843
0002a0 65 cf af bb 34 60 3f 3a a8 a0 fc 3b ba 69 a7 3b
       -0.0053652995 0.0007300407 0.0077095814 0.005109039
0002b0 d2 fe 3d bb d6 42 0b 3b d7 9c a8 bb 82 49 7c bb
       -0.0028990996 0.0021249554 -0.00514565 -0.0038495963
0002c0 35 32 d2 3b f4 c0 de bb aa 9a a0 3b 85 94 a6 bb
       0.0064146766 -0.006797904 0.00490125 -0.005083623
0002d0 65 be eb 3b cf 2f c8 bb 0a 40 c5 bb 93 70 aa 3b
       0.0071943277 -0.006109215 -0.006019597 0.005201408
0002e0 a5 f2 a6 39 fe 38 81 bb 2b f4 4f bb 82 62 0e 3a
       0.00031842772 -0.0039435616 -0.0031731229 0.0005431549
0002f0 8b 49 5e bb 63 32 4c 3a 91 9f e8 bb 6a 86 a0 bb
       -0.0033918347 0.00077894906 -0.0070991 -0.004898836
000300 b0 b5 0a bb 80 96 e8 bb 8a da f3 3a a6 3e cc 3b
       -0.0021165423 -0.007098019 0.0018604558 0.006233054
000310 3f 5d ad 3b 49 4c b3 bb d6 41 b5 3b cf 93 af 3b
       0.005290657 -0.0054717404 0.00553153 0.0053581963
000320 8d ab 86 3b 86 b8 71 bb 8a 95 c9 3b ba 17 86 3b
       0.004109806 -0.0036883666 0.0061518596 0.004092184
000330 58 4b 7c 3b e4 ab b6 bb 69 64 81 bb 1a 47 d1 bb
       0.0038497057 -0.00557469 -0.0039487374 -0.00638665
000340 83 90 27 bb 99 c4 c6 bb c1 d6 c0 3b 54 c9 30 bb
       -0.0025568313 -0.0060659167 0.0058849757 -0.002697547
000350 31 d4 b4 3b aa ea d2 3b 07 ee a6 ba 66 49 fc ba
       0.0055184592 0.0064366655 -0.0012735733 -0.0019247949
000360 9b 37 cc 3b 92 83 f1 3b 69 94 91 3b d5 54 75 39
       0.0062322146 0.0073704207 0.0044427407 0.00023396623
000370 b3 98 95 bb 34 8f 8f 3b d8 11 f4 3b 22 3b a7 b9
       -0.0045653223 0.004381085 0.007448416 -0.0003189678
000380 d2 a6 cb 3b fa a4 90 bb 8c eb f5 bb 25 57 d5 3b
       0.006214955 -0.004414198 -0.007504886 0.0065106326
000390 cd 86 b3 bb 09 0e 8d 3b db 7a 21 bb c0 e9 a9 bb
       -0.005478716 0.0043046516 -0.0024639878 -0.005185336
0003a0 1f 40 fd 3b 0c 38 bb 3b 43 bf b9 3b 32 f8 9a 3b
       0.007728591 0.0057134684 0.005668552 0.004729294
0003b0 b3 98 ba ba 88 20 0e 3b c2 a6 62 3b b9 d3 ad bb
       -0.0014236182 0.002168687 0.0034584259 -0.0053047803
0003c0 5d 86 02 39 c2 c8 df bb a0 00 c5 3b 63 39 57 bb
       0.0001244782 -0.006829352 0.0060120374 -0.0032840602
0003d0 90 e5 df 3b d4 5d 1b 3a 66 3a 3d ba 28 8a f6 3b
       0.006832786 0.0005926762 -0.000721848 0.0075237937
0003e0 1b 3a 4d bb 95 0d 99 bb eb 2b 50 bb 9e 58 80 bb
       -0.003131515 -0.0046708086 -0.0031764458 -0.003916814
0003f0 fb de ee ba 43 71 da b9 39 f6 4b 3a 7e c8 49 39
       -0.0018224412 -0.00041664587 0.00077805255 0.00019243543

bias f4 [10]
000000 83 cf 09 3b 77 55 78 bb ae c0 27 bb fa 94 83 3b
       0.0021028228 -0.0037892738 -0.0025597024 0.004015562
000010 46 e3 41 39 75 ac bf bb a6 17 b8 3b 21 80 47 bb
       0.0001849058 -0.005849416 0.0056180535 -0.003044136
000020 0a 88 dd 36 53 81 99 bb
       6.6021503e-06 -0.004684606
