models/AdvaDemo_CleverHans_4.0.0/LOGS/models/nnet_epoch_10.pt (torch, 765963 bytes, 26 tensors)

weight f4 [12, 3, 5, 5]
00000000: dd81 a33d 55ae de3d d437 cc3b 9a5e ddbc
00000010: c881 f9bb a213 273a 7d69 5dbd d3c0 e13c
00000020: 971a a93d 02ae d73d 0f6b 96bd a139 f2bc
00000030: f0e8 573d f548 c83d 4b64 183d 61eb 2c3d
00000040: 105a 96bd fd31 213d 80c6 c23d 2bed 92bd
00000050: a81b 893b dd9a c03d b27e 9e3c f2d9 b9bd
00000060: ab3e 4c3d 7d4f 2cbb 0047 a73d 3bb6 d0bd
00000070: 8794 b93d d6b2 913d 1830 6d3d 675a e3bd
00000080: fd21 e9bd c1ee fcbc 9cbb de3d de20 34bd
00000090: 8972 6a3d 7cfe c83c 413b 233d 26c6 e3bd
000000a0: af75 8f3c a782 903d e2a4 4dbd 95d2 dbbd
000000b0: e56d 66bd ee19 91bd 385c 60bd bb72 eabd
000000c0: 4905 58bd 09c3 3ebd 3ca3 363d 60d8 0dbd
000000d0: a489 e1bd 69ae 91bd 54cf bf3c 1cb9 233d
000000e0: b2eb 52bd 536a 823c 82f4 9fbd 357e 2a3d
000000f0: 57ad b13d f741 963d aeea 12bb 37d7 01bb
00000100: f7e2 febb a539 2c3d 286b d0bd 5020 513d
00000110: e826 043d f00a e03d 7c19 58bd 2476 903d
00000120: 4bcc 99bc 7b00 c53d 3638 663d 4c63 8b3b
00000130: c7c0 f63c b439 c23d 2227 acbd 0256 e4bb
00000140: f045 62bc 3d94 c2bd e292 57bd b413 ac3b
00000150: 5723 9b3d 8c1c 8f3c 1b2a cb3c 620a c63d
00000160: 9159 05bd c462 d63d de74 03bd 5945 4abd
00000170: 38d0 6bbc e962 3ebd db0d 83bd f87f 89bd
00000180: 2c88 b43d da66 353d 15c6 bebd e51d dfbc
00000190: c79d 583d 72f2 b73b e6d8 a23d d5a7 8f3d
000001a0: ac29 84bc 3d3c e0bd 2487 e33d d788 e83b
000001b0: 87ee a0bd 07f8 4e3d e99d 513d cbd5 a63d
000001c0: a023 893d c27d d63d f399 2cba f2b1 ea3d
000001d0: 5f99 67bd 7875 e73d 6e1f f13c 281e e33d
000001e0: 4a0d 8cbd b392 a43d 29eb 553d 13e4 debd
000001f0: 18dc f0bb aae7 f4bc 6d40 943c 8316 a23d
00000200: 68d8 c2bd 0c7b cb3d 6094 043d ae7e 543d
00000210: aa6d e8bd 7e7b f43c b8b1 92bc 4fcf f3bc
00000220: 28fc 253c e0a5 613d 5622 5d3d c2cf 38bd
00000230: 5942 b5bd 4592 62bd 7717 ef3c a62b 883d
00000240: 4650 96bc 5186 c1bd 4fe0 313d aae0 ac3d
00000250: b125 78bc c46a afbd 097a e3bd 28cf f53b
00000260: 23f8 dd3c 78d6 2b3d 9a1d e1bb 4275 74bd
00000270: 1308 9a3d 8fb1 3abd fd3e 8b3d 9de1 823d
00000280: 4f6d 843d 558d 313d dc97 e93d 52e9 263d
00000290: 9d02 a53d 6f9f 153d 0ccc a4bd e634 37bd
000002a0: 3aa7 a93d 4d9c e7bd b65a b4bd 7d72 223c
000002b0: 4a58 bd3d 2ee2 103d 3008 a63d 3a7f c0bd
000002c0: 1834 6f3d 79fc 8dbc 0fcb 7d3d 669f 27bd
000002d0: c308 b7bc a86b 2e3d f349 92bd abe0 c1bd
000002e0: d9c2 8c3d afd8 8b3d f42e a63c 3111 e23d
000002f0: 4997 ecbc 5ab2 2a3b e7ee 68bd aa50 ae3d
00000300: 8c6c 86bc 9bb8 583d c9f2 8c3c cfdd 9d3d
00000310: cbc7 e73d 9177 b03c fbce a7bd f353 8c3d
00000320: a008 a73d 10b3 c8bd a7f7 c9bc 0d3b 1ebd
00000330: 090e 2e3d aed9 2a3d 3936 b6bd 11b6 98bc
00000340: 1b23 32bd e6f1 8f3c 7390 9f3d 0466 d0bd
00000350: e300 d63a 64a6 4e3d ecf1 55bd b76b 3abd
00000360: 8380 b53d db34 d0bd 07c1 2e3d b228 a23d
00000370: a1ee 803d faad 19bd 0242 aabd d6b8 1cbd
00000380: c37f b7bd 5982 b4bc 8f4c 393d d72a 783c
00000390: 1f95 5ebd 4867 d6bc cdf5 e13d 2f50 5a3d
000003a0: b7d7 5a3d b6e6 2ebd ed69 8ebd 5588 9dbc
000003b0: 5270 713d 1aac df3d af2c 56bd ddbe d63b
000003c0: 4a76 393b b4f2 5d3d 16d0 183d 9aa2 c83a
000003d0: a141 aabd 05f7 3bbc 20f6 943d 8565 4f3d
000003e0: 9d3a 8cbc 7962 c93d 8b84 973c 032b e73d
000003f0: ad27 22bd 8ada 883c 6cbd cbbc 9875 2dbd
0.07983754 0.10873095 0.006232241 -0.027022649 -0.007614348 0.000637347 -0.05405568 0.027557766
0.08257025 0.10531236 -0.073446386 -0.029568495 0.05271238 0.097795404 0.03720502 0.042216662
-0.07341397 0.039354313 0.09510517 -0.071741425 0.004184205 0.09404538 0.019347522 -0.09074773
0.049864452 -0.0026292496 0.08167839 -0.10191008 0.090615325 0.071141884 0.057907194 -0.11101227
-0.11383436 -0.030875565 0.108756274 -0.043976657 0.057238135 0.02453541 0.03985143 -0.11121778
0.01751217 0.0705617 -0.050206073 -0.10733525 -0.056257147 -0.07085024 -0.054775447 -0.11447664
-0.052739415 -0.04657272 0.044589266 -0.03463018 -0.11012581 -0.07113344 0.023414291 0.039971456
-0.051494308 0.01591984 -0.07810308 0.041624267 0.0867564 0.073368005 -0.0022417712 -0.0019812116
-0.007778521 0.04204716 -0.101766884 0.051056206 0.032263666 0.10939586 -0.05275868 0.070537835
-0.018774172 0.09619232 0.05620595 0.0042537805 0.03012122 0.09483662 -0.084059015 -0.0069682607
-0.01381062 -0.095009305 -0.052630313 0.0052513722 0.075751 0.017469667 0.02480035 0.09669949
-0.03255612 0.10468057 -0.032093875 -0.04938254 -0.014392905 -0.046481047 -0.06399127 -0.06713861
0.08815035 0.04428754 -0.09315125 -0.027235935 0.052884843 0.0056136185 0.07951526 0.07014433
-0.016133152 -0.109489895 0.111097604 0.0070963907 -0.078579955 0.050529506 0.051175985 0.081462465
0.06696248 0.10473205 -0.00065842195 0.114597216 -0.05654275 0.11301702 0.029433932 0.11089736
-0.06838472 0.08035793 0.05222622 -0.108833455 -0.007350456 -0.029895622 0.018097127 0.0791445
-0.095139325 0.09935579 0.032368064 0.051878624 -0.11349042 0.029844042 -0.017907009 -0.029761938
0.0101309195 0.05508983 0.053987823 -0.04512001 -0.088505454 -0.055315275 0.029185994 0.0664895
-0.018348824 -0.09449447 0.043426808 0.08441289 -0.015145705 -0.08565286 -0.11107261 0.0075015016
0.02709586 0.04195258 -0.006869984 -0.05968214 0.07521071 -0.04557949 0.067991234 0.063906886
0.064661615 0.043347675 0.11405918 0.040749855 0.08057139 0.036529 -0.08046731 -0.044728182
0.08283849 -0.11309109 -0.08806364 0.009914991 0.092453554 0.03537195 0.081070304 -0.093992665
0.05839929 -0.017332302 0.06196123 -0.0409235 -0.022343045 0.042583138 -0.07143011 -0.0946668
0.06873102 0.068284385 0.02028606 0.11038435 -0.028880732 0.0026046247 -0.05686846 0.08511479
-0.016409181 0.05291043 0.017205613 0.07708322 0.11317404 0.021541389 -0.08193775 0.068519495
0.08155942 -0.097997785 -0.024654223 -0.038630534 0.042493854 0.0417115 -0.08897061 -0.018641504
-0.04349051 0.0175714 0.077912234 -0.10175708 0.0016327169 0.05045165 -0.052232668 -0.04551288
0.08862402 -0.101663314 0.042664554 0.07917918 0.06295515 -0.037519433 -0.08313371 -0.03826221
-0.089599155 -0.02203481 0.045239028 0.015146933 -0.05434143 -0.026172295 0.11033211 0.053299125
0.053428378 -0.04270049 -0.069537975 -0.019230047 0.058945008 0.10921498 -0.052288707 0.0065535144
0.0028299266 0.054186538 0.03730782 0.0015307248 -0.08313299 -0.011472468 0.07273507 0.050633926
-0.017117793 0.09833235 0.018495819 0.11287501 -0.03958862 0.01670577 -0.024870597 -0.042348474

bias f4 [12]
00000000: a514 803c 96d5 88bd fac6 d23c 4fc8 11bd
00000010: 7a7d 9c3d f84d afbd 19fa 553d 6132 af3d
00000020: f242 3c3c 84bd a93d 4f43 8fbd 4ea8 183d
0.015634844 -0.06681363 0.025729645 -0.03559142 0.0764112 -0.08559793 0.052240465 0.08554531
0.01149057 0.082881 -0.0699526 0.037269883

weight f4 [12]
00000000: 0700 803f 3efd 7f3f f1fb 7f3f f6fe 7f3f
00000010: 90ff 7f3f 0000 803f 0d00 803f 0400 803f
00000020: 0200 803f 1600 803f 1500 803f 0800 803f
1.0000008 0.9999579 0.9999381 0.99998415 0.9999933 1.0 1.0000015 1.0000005
1.0000002 1.0000026 1.0000025 1.000001

bias f4 [12]
00000000: e112 5138 c212 b1b6 0d14 61b8 644d 6838
00000010: 55de d9b7 42f5 9ab6 5060 69b8 e442 b137
00000020: 25ea 1438 e246 e7b6 4888 c037 ca42 6cb8
4.9847065e-05 -5.2771948e-06 -5.3662854e-05 5.5385186e-05 -2.5971947e-05 -4.6181094e-06 -5.5641227e-05 2.1131193e-05
3.5504014e-05 -6.8925883e-06 2.2951644e-05 -5.6328987e-05

running_mean f4 [12]
00000000: b339 013e 69d7 173e 34de 493e 8ab4 4b3b
00000010: 6813 97bd 5237 87be 7169 dc3e 7d54 c93e
00000020: 4818 0fbe 66cf ec3d 7bb5 9dbc 79a2 093e
0.12619667 0.14828266 0.1971367 0.0031082951 -0.07376748 -0.26409394 0.43049195 0.39322272
-0.13974106 0.115629956 -0.019251576 0.13440885

running_var f4 [12]
00000000: 37a3 033c 45bb f43c 12fe 8f3c 6a9f a53b
00000010: 3bba 863c 5028 a13c dcdd b03d 326d 6d3d
00000020: 0fb8 903c ed4f 683b 0b24 cd3b 327f 313c
0.008034519 0.029874453 0.017577205 0.005054404 0.016446223 0.019672543 0.08636066 0.057965465
0.017665891 0.003544803 0.0062604 0.010833548

weight f4 [12, 12, 5, 5]
00000000: 4acf 49bd fda4 1b3d 3b72 643d 52d2 803c
00000010: 9636 523d fe88 43bd 3ec7 213c 8829 bc3c
00000020: f954 51bd 6fb8 64bd 816e 0bbd eb18 4b3d
00000030: 92e3 46bc 5947 293d 9938 93bb 749e df3b
00000040: f6b8 ad3c 76b9 35bd cb2a 3f3d 14b4 94bc
00000050: a5fd bebb dcce 70bc 37e4 753a ffe9 54bc
00000060: 2c1f 5cbc d2d9 583b 95f3 153d 4992 313c
00000070: d249 48bd 7e35 833c 319e 5abd 666c 263b
00000080: 4be2 a8bc 8a7c c93c 3e70 07bb 01fa 533d
00000090: 2180 e23c cba1 58bb 2b38 ef3b 5cd6 673d
000000a0: 9dd6 b63a 7e05 113d 034f f0bb ce94 573c
000000b0: 4562 5d3b 034a 15bd 8cd1 61bd 7726 53bd
000000c0: 9e91 603d 7692 65bd 8382 96bc 2f58 d2b8
000000d0: 9a25 6bbd c0bc f33b d207 9a3c 2039 5ebc
000000e0: 3161 00bd 9e5a 5f3d dad9 20bc 5f10 15bc
000000f0: d83d a2bc 5122 b3bc c945 2d3d 9423 abbc
00000100: dfdb 6e3b f5ce 513b 5d74 133d 50f6 483d
00000110: 7f3e 803b 89f6 d13c 8ec9 84bc 3b32 c4bc
00000120: 20a6 093d 4e8f 113d a130 a0bc c0bc 6bbd
00000130: 2395 fc3c bdc5 c83b a2ae 973c 48d3 a43b
00000140: c01e 7fbc 79b8 6abd 6a3d 7abb 4ade bcbb
00000150: b503 593d 1e37 67bd d23f 31bd fad3 2d3d
00000160: b02f 3a3d 8105 af3c f881 45bd 799d 12bd
00000170: 4a6f 463d ce46 20bc 448a 293d 159b cdbc
00000180: 1be2 c83c 5a77 ec3c 4100 38bd 549f bf3b
00000190: ed82 623d edd3 ca3c 27d7 413d 322c 26bd
000001a0: 134f 403c 7676 12bd 60fe 86bb 0139 7bbc
000001b0: a098 513d 2ab6 40bc a5e8 89bb ab20 6abb
000001c0: 6b97 033d b014 1a3d 2b52 153d d91c 2cbd
000001d0: 6873 213d 8fcf 15bd 85b2 003d b5f0 5c3d
000001e0: 0f83 2cbc c766 46bd 17ac 71bc e0fa 4a3d
000001f0: 7a18 dabc 4d4a 4dbc 3c1a b23c 0034 2bbc
00000200: a612 053d 5d06 f1bc 4ce9 143d 1632 ba3c
00000210: 3c70 2fbd 73e5 f83b 1906 413c f825 39bd
00000220: a49e 1b3d 5095 4dbc 15e5 e1bb 566a d83c
00000230: 7ff1 2b3d e2b7 fd3c c90f a83c 3e8f 34bd
00000240: 1f6f 92bb 47b9 8dbc 9a4e 543d 41bb 18bc
00000250: 6096 c33c 0b53 933c bb14 2a3d f9bb 49bb
00000260: 0657 90bc e1d1 b3bc a743 363d d0a1 4c3d
00000270: 1ed3 66bd 41a2 463d 5817 e93b d552 91bc
00000280: 3dc9 0e3c 4e55 a43b 1cdc d6bc 6361 6abd
00000290: 6eef 1dbd c7a0 eebc 887a c43c afdd 1c3d
000002a0: a390 193d cd50 993c 5472 2b3c 0008 68bc
000002b0: 95d9 38bd 7ce3 54bd 8563 5fbd 38f4 f23c
000002c0: 0257 fbbc 118c 983c 8c7f 13bc 0b47 10bc
000002d0: 1f5f 123d 9c04 6bbc 70ee c53c 4bc1 5dbd
000002e0: c6cf 19bd 36cb 2a3d d759 67bd ea73 35bd
000002f0: ad52 553c bcca babc 3eca 3c3d d00d b9bb
00000300: 08a6 30bd 8226 343d 517b 3d3d e2a7 683d
00000310: 9c60 bd3c 5a81 3c3d 2fbb 75bc fef0 323d
00000320: aad7 4a3d 17ad b03b 49cd 3e3d 0e18 303d
00000330: 4c59 9fbc 47d3 e83a a859 aabc 76ab 42bd
00000340: 2fc6 94bb 7dd8 48bd 364a dcbc 63b4 2b3d
00000350: b77f 223d fb1e dfbc 7c04 2c3d 2369 163d
00000360: 15dc 723c 84a5 1f3d 6017 5cbd daf1 a3bc
00000370: 2fe0 3fbd bb6c 5f3d 65b4 693d ba2d ddbc
00000380: 09bb 643c 1a2d 25bd c0d1 a63b 9517 26bc
00000390: 38eb 233c b6a3 5e3d d71c 203d 4edd 69bd
000003a0: ff2f eaba 6eb7 353d 4ced 403d 2358 303c
000003b0: d48c 83bc c72c f6bc e999 0dbd ed70 0f3d
000003c0: b6c6 453d e158 123d d085 25bd 1aa5 0f3d
000003d0: e36e 063d 9c8f 4fbd f1f9 1d3d 9e6a da3c
000003e0: 8b28 e7bc 87f9 9c3c 4921 333d 7477 71bc
000003f0: f664 5dbd c830 533d 354d 7cbb 823f 1bbd
-0.049269952 0.037999142 0.055773 0.015725289 0.05132159 -0.047738068 0.009874163 0.022969022
-0.051106427 -0.055839952 -0.03404093 0.04958431 -0.012139218 0.041327808 -0.004492831 0.006824309
0.02120636 -0.044366322 0.04667167 -0.018152274 -0.0058285766 -0.014697757 0.0009380015 -0.012995242
-0.013435166 0.0033088815 0.03660925 0.0108381 -0.048898526 0.016016718 -0.05337352 0.00253942
-0.020615717 0.024595518 -0.0020666267 0.051752094 0.027648987 -0.003305542 0.007300397 0.056600913
0.0013949458 0.03540563 -0.0073336377 0.013158036 0.0033780497 -0.036447536 -0.05513148 -0.051550355
0.05482637 -0.05604788 -0.01837278 -0.00010030006 -0.057408907 0.0074382722 0.018802557 -0.013563424
-0.03134269 0.05452978 -0.009817565 -0.009098141 -0.01980488 -0.02186695 0.04230288 -0.020890988
0.0036446971 0.0032014225 0.035999645 0.049063027 0.0039137 0.025630252 -0.01620939 -0.023949733
0.033605695 0.035537057 -0.019554438 -0.057553053 0.030832833 0.006127088 0.018515889 0.0050300695
-0.015571296 -0.057304833 -0.0038183578 -0.0057638036 0.05298205 -0.05644905 -0.043273754 0.042438485
0.045455635 0.02136493 -0.04821965 -0.03579471 0.048445977 -0.009782506 0.041391626 -0.025098363
0.024521878 0.028865505 -0.044922117 0.005847851 0.05530064 0.024759257 0.047324326 -0.04056949
0.011737603 -0.035757504 -0.0041196793 -0.015333415 0.051170945 -0.011762181 -0.0042086416 -0.0035725038
0.032126825 0.037617385 0.036455315 -0.0420197 0.0394167 -0.036574896 0.03142025 0.053940494
-0.010529294 -0.04843786 -0.014750502 0.04955566 -0.026623 -0.012529922 0.021741025 -0.0104494095
0.032488488 -0.02942198 0.0363553 0.022728961 -0.042831644 0.007595712 0.011781239 -0.045202225
0.03799309 -0.012547806 -0.006893764 0.026417892 0.041978355 0.030971471 0.02051534 -0.04408192
-0.004468813 -0.017300261 0.051832773 -0.009321989 0.023875415 0.017983934 0.041523676 -0.0030782206
-0.017619621 -0.021950664 0.044498112 0.049959004 -0.05635368 0.04849458 0.0071133785 -0.017739693
0.008714971 0.005015052 -0.026228003 -0.05722178 -0.038558416 -0.029129399 0.023984209 0.03829735
0.037491452 0.018715287 0.01046427 -0.014162064 -0.045129377 -0.05197476 -0.05453827 0.029657468
-0.030681137 0.018621476 -0.0090025775 -0.008806 0.035735246 -0.014344361 0.024161547 -0.054139417
-0.037551664 0.041697703 -0.056482162 -0.044299997 0.0130202 -0.02280175 0.04609131 -0.0056473985
-0.04312709 0.043982036 0.04626018 0.05680073 0.023117356 0.046021797 -0.014998241 0.04368686
0.04952208 0.0053917277 0.046582494 0.04299169 -0.01945176 0.0017763161 -0.020794705 -0.0475268
-0.004540227 -0.049034584 -0.026890855 0.041920077 0.03967258 -0.027236452 0.041996464 0.03672136
0.014822979 0.038976207 -0.05373323 -0.020012785 -0.046844658 0.054547053 0.057056803 -0.026999343
0.013960608 -0.040326215 0.005090922 -0.010137458 0.010004811 0.054355346 0.039090004 -0.05709582
-0.0017867087 0.044364385 0.047101304 0.010763201 -0.016058363 -0.030050648 -0.03457061 0.035019804
0.04828521 0.035729293 -0.040410817 0.035069562 0.032820594 -0.050674066 0.03856844 0.026662167
-0.028217575 0.019161953 0.043732915 -0.0147379525 -0.054051362 0.051560193 -0.0038498167 -0.037902363

bias f4 [12]
00000000: f218 50bd ebdd a0bc 36fb 84bc 0310 693c
00000010: 821e a03a 79f2 cc3c 3278 da3c fc2b 23bb
00000020: e594 42bd af03 d03c 4c22 3d3d 072e a53c
-0.05080504 -0.019637069 -0.016233068 0.014225009 0.0012216123 0.025017964 0.026668642 -0.0024898043
-0.04750528 0.025392381 0.046175286 0.02016355

weight f4 [12]
00000000: 2300 803f 22fd 7f3f 1200 803f 0c00 803f
00000010: 3000 803f 34fa 7f3f 49fc 7f3f 0900 803f
00000020: 3fff 7f3f 1500 803f 0f00 803f e3fe 7f3f
1.0000042 0.99995625 1.0000021 1.0000014 1.0000057 0.99991155 0.9999433 1.0000011
0.9999885 1.0000025 1.0000018 0.999983

bias f4 [12]
00000000: 8778 3839 0786 27b9 51a6 1637 4b93 06b7
00000010: 904c 1d39 e62f 3fb9 52ad 07b8 77ff 90b8
00000020: 6d8b b138 e04b d538 67bb 0539 630f 61b8
0.00017592507 -0.0001597629 8.97942e-06 -8.021317e-06 0.00015001209 -0.00018233023 -3.2347925e-05 -6.914039e-05
8.465988e-05 0.00010170764 0.00012753681 -5.365851e-05

running_mean f4 [12]
00000000: cf00 8b3e e146 07be 4e32 d33c 5985 53be
00000010: 9d39 e63d 6838 813e 3aa4 923e 299a 193e
00000020: ec01 24be 1b47 14bf 8f44 60bd e1d3 1d3e
0.27149054 -0.13210632 0.025780823 -0.20656337 0.112414576 0.25238347 0.2864092 0.15000214
-0.16016358 -0.57921 -0.054752883 0.15412857

running_var f4 [12]
00000000: d0e3 a43d bd04 e83d e2be c63d fac7 b03d
00000010: e93d 9b3d 4c10 953d 65b6 463d 34e6 053e
00000020: 35b6 f73c 9d27 b03e ad2b 1b3e 1f05 1b3e
0.08051264 0.11329029 0.09704377 0.086318925 0.07580168 0.07278499 0.04851379 0.13076097
0.03023825 0.34405223 0.1515338 0.15138672

weight f4 [24, 12, 5, 5]
00000000: d21b 59bc b7c3 003d fd04 8a3b d6fc 46bd
00000010: 68d9 69bc e526 88bc 84c7 13bd 9ef2 4cbd
00000020: 2559 513d 8144 7bbc 6175 c2bb e5d0 de3c
00000030: ca88 60bd dd98 64bc da6e 19bc b92a 3dbd
00000040: 7f84 54bd 3ef8 5bbd effe b5bc 23d6 393d
00000050: 0bb0 b9bb 77b9 00bb d7ab e2bb 0a19 283d
00000060: 8941 33bd 0714 a53c a7ba 89bc 799c ce3c
00000070: 5a86 7cbc 48dc 33bd b1ba edbc c2d2 f33c
00000080: 672c 61bc f0ae 3bbd 3821 0bbd 24d1 80bc
00000090: 79b1 d23b 1b47 df3c 7d0c 39bd e0dc 58bd
000000a0: d6f8 36bc 7323 3a3d bc5b 0abd a19d a6bc
000000b0: dbd3 cebb 2e41 363c c841 2f3d c4f4 6a3d
000000c0: 506a 53bd b351 fdba 9223 f23c 03ea be3c
000000d0: a26d 68bd 4bd7 253c 27a5 5bbd 4b7a bb39
000000e0: 8036 463d c564 2a3d 8299 fa3c edac e43c
000000f0: 542c 3abd fc2e 3c3d a15f dbbc b2ce c63c
00000100: ce53 2e3d 6071 0fbb 23d0 abbc f061 163d
00000110: 966e 023d 997b 67bd 1151 07bc 1f1a 56bd
00000120: 48dc ec3c 26eb 3f3d e906 f63c b4a6 413d
00000130: 68c9 2f3d 03c9 a03c 0570 f83c 32f2 403d
00000140: 29b4 b73b d5d6 3a3a 98cb ce3c d21c 213d
00000150: e6f7 e1bc b48e 093d 2efe 18bd a6a9 82bc
00000160: c623 5e3d 020a 853c 0213 d63c daba 453c
00000170: 1d2a ec3a 9b37 3abd 08aa a23c bbe7 d73c
00000180: dc3c 243d 1114 4c3d 6f10 37bd a44b 5d3c
00000190: 7f07 253d 8308 c23c d769 cebc bfa4 523c
000001a0: edc7 673d 2780 433c 8149 f2bc 3f49 173d
000001b0: aac1 cdbc 3168 c5bc 46b7 853c 05fc 8bbb
000001c0: 0b5b 0dbd a963 f43b 5946 40bd fd32 1c3d
000001d0: d18a 4a3c 48be 293d 4723 623c 159e 173c
000001e0: e01c ac3c 1341 233c b0d1 c7bc d939 eb3c
000001f0: abe8 79ba 7620 42bd 38d3 26bd baff 6dbc
00000200: 6cf4 f13c 2434 ab3c c236 43bb 2d93 873a
00000210: 427b 0f3d 90c5 f4bc 2d90 dbbc 50fa 67bd
00000220: 6340 153d acba 25bb 3c64 673d bfe0 11bd
00000230: 876c f4bc 75c7 54bd f959 0c3d 6570 6a3d
00000240: c7e5 c7bc 8231 083d 0a6c efba 9b66 65bd
00000250: c153 e23c 37ce c5bb 7fe0 2e3d eaa7 24bc
00000260: 4263 653d 7899 4dbd 5bfb 833c 9562 ebbc
00000270: dad1 0ebd 30c5 ac3c 099c 4a3d 884b f5bc
00000280: b734 f23b e960 443c 3714 113d 386a 183d
00000290: 6510 3a3c ce86 9abc 3a21 4cbd 39a9 89bc
000002a0: 1eef 253d e4da 89bc f3fe bb3b 6238 09bc
000002b0: 2cc9 033d 5d30 d6bc 4bf4 563d 6728 b7bc
000002c0: 503d 6abd 53f0 0ebb 4060 073d bc34 933b
000002d0: 05cb 543d e7a0 96bc 89d7 3ebc c755 c83c
000002e0: 9e0b e3bc d370 d43a d386 d93b a858 9e3c
000002f0: b53d 333d 43ed 6abc 6b8f f53b bb32 073c
00000300: d64d f73c 7f8c 22bd d4a0 643d a26c 313d
00000310: ca06 5dbd f2e2 90bc d4e8 c0bc 1856 69bd
00000320: 25fc 43bd 33f9 c83c e45f 4bbd d696 633d
00000330: d89a 67bd 430d c1bc 4db2 69bd 1ca2 aebc
00000340: c85f 9a3c e6d5 a63b ba34 d63c fa22 0a3d
00000350: b20c c83c 549c 30bd 481b 5abd e92b cebc
00000360: 3930 f43c 07cb e33c db40 573d 7772 d93c
00000370: d4cf ef3c 1d4f 3e3b 1843 293d b943 c33a
00000380: ef5a 643d caec 183d 16df 563d c286 3c3d
00000390: 01d7 083d ae3d c3bc 31f2 173d 794a 7c3c
000003a0: 4a48 aa3c 5062 18bc 27a0 2bbc e00e 9c3c
000003b0: 8528 b33c 60b7 f0bc 38b4 143d 9109 0b3c
000003c0: 5589 533d 0ea5 b83c 14a0 42bd 8077 12bd
000003d0: d73e 403d 32c4 213d a102 193d 5ba8 aebc
000003e0: 017f 383d 5a43 d73c 611a 83bc 0876 4abd
000003f0: eefd 19bb 6468 9cba fd96 9fbc 4510 403d
-0.013251262 0.03143665 0.0042120204 -0.048580967 -0.014273025 -0.016620109 -0.036078945 -0.050036065
0.051110405 -0.015336157 -0.005934403 0.027199218 -0.054817952 -0.013952461 -0.009364808 -0.04618332
-0.05188417 -0.05370354 -0.022216288 0.045370232 -0.005666738 -0.0019641796 -0.0069174576 0.041039504
-0.04376367 0.020151151 -0.016812636 0.025221096 -0.015412891 -0.04391125 -0.029019685 0.029763583
-0.0137434965 -0.04582113 -0.033967227 -0.015724726 0.006429848 0.027255585 -0.045177925 -0.052945018
-0.011167726 0.045443963 -0.03377889 -0.020338835 -0.0063118762 0.0111239385 0.042787343 0.057362333
-0.05161506 -0.0019326716 0.029557977 0.023304945 -0.05674518 0.010122131 -0.0536243 0.00035758535
0.04839182 0.041600008 0.030590776 0.027914489 -0.04545243 0.045943245 -0.026778998 0.024268482
0.04256039 -0.0021887645 -0.02097327 0.036714494 0.031843744 -0.056514356 -0.008259074 -0.052271005
0.028913632 0.046855114 0.030032592 0.04727812 0.042916685 0.0196271 0.030326853 0.047105975
0.0056061936 0.00071273494 0.025243565 0.039334126 -0.027584027 0.033583358 -0.03735178 -0.015950035
0.054233335 0.016240124 0.02613211 0.012068475 0.0018017922 -0.045463186 0.019856468 0.026355615
0.040097103 0.049823824 -0.044693407 0.013506804 0.040290352 0.0236857 -0.025196953 0.012856661
0.05658715 0.011932409 -0.029576065 0.036935087 -0.02511676 -0.024097534 0.016322743 -0.0042719864
-0.034510653 0.0074581695 -0.04694209 0.038134564 0.012362198 0.041441232 0.013802356 0.009253998
0.021009862 0.009964245 -0.024391979 0.028714107 -0.00095332664 -0.04739424 -0.040728778 -0.014526302
0.029535495 0.020898886 -0.0029787277 0.0010343544 0.035029657 -0.029879361 -0.026802147 -0.0566352
0.036438357 -0.0025288267 0.056492075 -0.035614725 -0.029836906 -0.05194803 0.034265492 0.057236094
-0.024401559 0.03325034 -0.0018266451 -0.056006055 0.027627828 -0.0060365456 0.042694565 -0.010049799
0.056002863 -0.050195187 0.016111067 -0.028733531 -0.0348681 0.02109012 0.049465213 -0.029943243
0.007391538 0.011985996 0.03541967 0.037210673 0.011356448 -0.018863108 -0.049836375 -0.016804324
0.040511243 -0.016828008 0.0057371794 -0.008375259 0.032174274 -0.026146108 0.05247907 -0.022358133
-0.05718738 -0.0021810725 0.033050776 0.0044923704 0.051951427 -0.018387271 -0.011648067 0.024454964
-0.0277155 0.0016207941 0.0066383868 0.019329384 0.04376002 -0.014338794 0.0074939034 0.008251841
0.030188482 -0.03968477 0.05581744 0.04331649 -0.053961553 -0.017686341 -0.023548521 -0.05696687
-0.047847886 0.02453289 -0.049651995 0.05556377 -0.056544155 -0.023565894 -0.057054807 -0.021317534
0.0188445 0.0050914166 0.026148189 0.033724762 0.024420116 -0.043117836 -0.053248674 -0.025167422
0.02980815 0.027806772 0.052552085 0.026543839 0.029273905 0.0029038854 0.04132375 0.0014897502
0.055750784 0.037335195 0.052458845 0.046026953 0.03340817 -0.023833122 0.037096206 0.015398615
0.020786423 -0.009300783 -0.010475195 0.019050062 0.021869907 -0.029384315 0.036304682 0.0084861675
0.051644642 0.022539642 -0.047515944 -0.035758495 0.04693493 0.039493747 0.037356023 -0.021320513
0.045042995 0.026277233 -0.01600379 -0.04942897 -0.00234973 -0.0011932966 -0.019481177 0.046890516

bias f4 [24]
00000000: 3465 35bd e468 b8bb 2e08 1c3d 06a3 92bc
00000010: 5d02 00bd 82e5 0a3d 9ece 483d 9c81 58bd
00000020: 30c8 553d 118c 4c3d a349 56bd dc38 46bd
00000030: 26a6 67bd 4a6b e93a 0d76 003d d330 13bd
00000040: b608 b63a 4daa e1bc 656b 4fbd 3114 203d
00000050: 8426 5e3d 4252 2f3d d7ca d13c 17bb 16bb
-0.044285968 -0.0056277383 0.03809374 -0.017900001 -0.031252254 0.033910282 0.04902517 -0.05285798
0.052192867 0.049938265 -0.05231632 -0.04839407 -0.056554936 0.0017808464 0.031362582 -0.035935234
0.0013888094 -0.027547026 -0.05063953 0.039081756 0.05423595 0.042803057 0.025609417 -0.0022999698

weight f4 [24]
00000000: 0c00 803f b1fd 7f3f e5fc 7f3f abfc 7f3f
00000010: c6fe 7f3f 1500 803f 1200 803f 2000 803f
00000020: b4fd 7f3f b8fd 7f3f 0d00 803f 4ffd 7f3f
00000030: 56ff 7f3f c2fc 7f3f 0700 803f 0100 803f
00000040: 86fc 7f3f d2fe 7f3f 81ff 7f3f 0c00 803f
00000050: 1dff 7f3f 1600 803f 1200 803f 73ff 7f3f
1.0000014 0.9999648 0.9999526 0.99994916 0.9999813 1.0000025 1.0000021 1.0000038
0.99996495 0.9999652 1.0000015 0.99995893 0.99998987 0.9999505 1.0000008 1.0000001
0.99994695 0.999982 0.99999243 1.0000014 0.99998647 1.0000026 1.0000021 0.9999916

bias f4 [24]
00000000: 14fd 97b6 bd3d c1b4 1f39 b1b8 1961 78b7
00000010: ee1f 8bb8 7b56 d638 2e11 3838 c9e2 1d39
00000020: 6387 91b8 fe95 b1b8 0a4e bc38 75d8 0db8
00000030: 7fd0 81b8 ce63 edb8 2a81 4e38 3800 6638
00000040: 50a5 58b8 c157 1e38 fefe d6b7 e933 9538
00000050: 253e 0737 0de2 e638 2fae 7538 1f6d 0737
-4.529613e-06 -3.5993972e-07 -8.450657e-05 -1.4804559e-05 -6.633984e-05 0.000102204234 4.388502e-05 0.00015057171
-6.9393565e-05 -8.467956e-05 8.9790745e-05 -3.381861e-05 -6.190035e-05 -0.00011319631 4.923452e-05 5.4836477e-05
-5.1652372e-05 3.7751863e-05 -2.5629528e-05 7.114543e-05 8.061096e-06 0.0001100936 5.8574773e-05 8.072034e-06

running_mean f4 [24]
00000000: 147f a23e 2952 b83e c10d 26bc 2c3b fbbe
00000010: 99ff b0be d355 eb3e fa2f 4abe 2bfd 523e
00000020: 8a5e aebe 4155 bdbe beea c7bd dd58 cdbd
00000030: e86c 923d bf7b 1dbe f215 10bf a29f 503e
00000040: d948 b8be 6cb3 9dbe c77a 24be 1b20 bf3e
00000050: 5ed4 793c a0b5 6c3b 8116 183e d2ec c9be
0.31737578 0.36000183 -0.010135115 -0.49068582 -0.34570006 0.45963916 -0.19744864 0.20604388
-0.34056503 -0.36979106 -0.097615704 -0.10026715 0.071496785 -0.15379237 -0.56283486 0.20373395
-0.35993078 -0.3080095 -0.16062461 0.37329182 0.015248386 0.0036119 0.14852335 -0.39438492

running_var f4 [24]
00000000: c84d 353e 79f1 693e fd97 b73d b747 313e
00000010: 0567 803e 4c20 f83d c935 033e 75fe 093e
00000020: c489 883e ed5a 803e da0a 683e dc83 da3d
00000030: 52a0 6b3e 7c42 0d3e 034c 633e c66e a33d
00000040: ee0d 523e eb95 d23d 5b85 033e e931 693e
00000050: 739d e83d 9234 633e 0379 193e 6b55 233e
0.17705452 0.22846021 0.08964536 0.17312513 0.25078598 0.12115535 0.12813486 0.13475974
0.26667607 0.2506937 0.2266039 0.106696814 0.23010376 0.13794893 0.22196965 0.07980113
0.20513126 0.10282501 0.1284384 0.22772945 0.11358156 0.22188023 0.14987569 0.15950553

weight f4 [24, 24, 5, 5]
00000000: bb63 77bc 77af 053d cbcd 9d3c a57d c33c
00000010: bb0d 0cbc d641 13bd a068 0bbd 3797 f9bc
00000020: 51f8 72bc 59a7 a03b 97c9 8c3c 1d21 3a3b
00000030: 3bb0 8cbc 1615 db3c 025c 44bc 764f 02bd
00000040: cd0a f4bc 80eb 113d 2f79 173d bc97 9ebc
00000050: 0ebc 05bc a601 19bd 52e5 ebbb 94dd 28bb
00000060: 2f52 073d 0ee2 b03c 3893 9abb 381c c43c
00000070: 00a1 823b 3606 bcbc 1bfa 04bd 7b0f c8bb
00000080: 324c be3c 89ba e43c 3bf8 d4bc b56b 0f3d
00000090: f889 d4ba 2f71 06bd 84a0 463b 5ee8 b6bb
000000a0: 4664 55bc eb2c f8bb 12f0 0dbd 702b e8bc
000000b0: cab9 ffbb 8122 81bc e1ff 34bc a105 6abc
000000c0: 88dc 9f3c 5088 d03c ccc3 263d 5a69 e2bc
000000d0: ce95 ae3c d854 053d 5ae3 d7bc 206f 9a3b
000000e0: 7426 b13c 41fc 9ebc b1f8 ddbc 5f41 1e3a
000000f0: 06cd c8bc 4861 81ba 694a c63c 85d3 39bb
00000100: 1fd2 52bb c68d 6cbc 3557 8abc 7f5d e3b9
00000110: 1521 023d 3da1 143d c1a7 e3bc 5b76 c03c
00000120: fe4a b8bc 92f0 f9bc 7348 123d f892 383b
00000130: 6ef6 753c ac5d aabc 7905 83bc d49e 53bc
00000140: c71f 00bd 5f5f 0d3d 8c3f 9e3c 5a2c 82bc
00000150: 0672 d23c 1b84 5ebc 6197 123d 7b22 1d3c
00000160: f6e0 05bd 11b6 903c 3a3f 3e3c ef31 d7bc
00000170: 6b50 4439 6ba8 6ebc f80c 633c f554 4e3c
00000180: 31a7 e2bc d127 d4bb ad7c d53c 99fc 9d3c
00000190: 7119 aabb 8406 22bd d43f 333c 70bb 263c
000001a0: 755a ccbc e42f 0b3d d329 fdbc 5026 0e3d
000001b0: a102 80bc 2eea 193d cd16 2f3c f07c e7bb
000001c0: 9c1d b93c d417 f3bc e344 003d 91e6 c23c
000001d0: 05c9 cdbc a432 fabb 0f6f c1bc c994 83bc
000001e0: effa a93c c293 d4bb 8c47 1d3c ffc9 82bc
000001f0: a6c5 51bc d841 e03b 78d5 c73c 3b17 253d
00000200: 6b6a b6bc 64ab b2bc ea76 683b b6a2 ec3c
00000210: f0d5 d03c 2317 f63c 1f18 23bd 9a3e 813b
00000220: f76c 8eba b384 1d3d 0aa0 f6bc 9ef4 1fbc
00000230: 23b5 08bd 4650 0ebd 8225 183d cb13 c1bc
00000240: 8bc1 ee3c fe9c 203c be36 053c ac46 dcbc
00000250: 19ac bbbb 7a40 20bd 1812 713c 3a89 5d3c
00000260: 0666 2d3c 64e9 a13c 7741 ff3c 009b 4b3c
00000270: 0517 253d 0942 21bd af9e dfbc cd0a 8dbc
00000280: d23f fcba d886 f9bc 5e0e 84bc e30a 593c
00000290: deee b1bc 688d 0f3d d10e f1bc b64f acbc
000002a0: ac3a 103d 9344 eabc 0662 f53c e5c2 a1bc
000002b0: 2e2f b73c aa2d efbc 5add 4dbc 8d67 f3bc
000002c0: aef7 a43c 925c bf3b 3dc9 ad3b 6699 f73c
000002d0: 350c fd3c 3295 be3b 4f91 bf3c 591b 053d
000002e0: 2346 0ebd 326a 0f3d 89a6 af3c 32f4 ca3c
000002f0: 132f b13c 4771 cebc 6ca1 0cbd 514c 093d
00000300: 8022 753c 934b 013c d3fd 3bbc 5d92 fb3c
00000310: 321c 1f3d 5928 30bc e233 1bbd 4b29 a0bc
00000320: 4d80 83bc b8a6 d239 ade3 7f3c 78eb 5dbc
00000330: 078c 243d c8ef 87bc 98db 023d 7987 0cbd
00000340: 41c6 0b3d 6e77 aebc 5682 21bd e8ba f1bc
00000350: 3f50 1dbd 37e5 02bd 0473 05bc f233 8e3c
00000360: 3608 063d 0892 b13c 10c4 c83c 1836 8ebb
00000370: 1d10 903c 49f5 08bd eec2 12bd e106 193d
00000380: 4ba6 853c b449 0abd 0562 953b 374b 903c
00000390: 7664 cf3c 864d c0bc 8da8 f93c 9c63 dd3c
000003a0: 34c7 b0bc dd10 b23b c818 123d c847 53bb
000003b0: b631 a1bb c3b2 e7bb 21f1 203d d6d1 1fbd
000003c0: c75c 9abc 139c 2b3b 9d5a ee3c ec58 be3b
000003d0: 6983 cd3c 6714 15bd 2bcb a3bc 71b1 0fbc
000003e0: 11cf d4bc 656b 673c d647 fc3c 593c 97bc
000003f0: d735 fd3b adb0 aa3c 8881 a1bc f13f 53bc
-0.015099461 0.03263804 0.019263169 0.023863623 -0.0085481955 -0.035951458 -0.034035325 -0.030467613
-0.014829711 0.004902762 0.01718597 0.0028401085 -0.017173877 0.026743453 -0.011984827 -0.03181406
-0.029790306 0.03562498 0.036980804 -0.019359462 -0.0081625115 -0.037355088 -0.007198968 -0.0025766836
0.03303736 0.021592166 -0.004717257 0.023939237 0.003986478 -0.02295218 -0.03246508 -0.006105361
0.023229692 0.027920978 -0.025997272 0.035014827 -0.0016215434 -0.032822784 0.0030308077 -0.0055818995
-0.013024395 -0.007573714 -0.034652777 -0.028341025 -0.00780413 -0.015763523 -0.011047334 -0.014283569
0.019514337 0.025455624 0.04071407 -0.027638126 0.021311667 0.032551616 -0.026353527 0.004712954
0.021624781 -0.019407393 -0.027096124 0.0006036963 -0.024511825 -0.0009870911 0.024205403 -0.0028354835
-0.00321687 -0.014438098 -0.016887287 -0.00043366474 0.03176983 0.03628658 -0.027789952 0.023493936
-0.022496697 -0.03051022 0.035713624 0.0028163772 0.015012367 -0.02079662 -0.01599382 -0.012916286
-0.031280305 0.03451478 0.01931741 -0.01589029 0.025689136 -0.013581301 0.035788897 0.00959074
-0.032685243 0.017664941 0.011611754 -0.026268927 0.00018721975 -0.014566521 0.013858072 0.0125934975
-0.027667614 -0.006474473 0.026060427 0.019285487 -0.005191021 -0.039556995 0.010940511 0.0101765245
-0.024945477 0.03398122 -0.030903732 0.034704506 -0.015626254 0.037576847 0.0106865885 -0.0070644543
0.022597127 -0.029674448 0.031315695 0.023791583 -0.025120268 -0.0076354314 -0.023612527 -0.016062157
0.020749537 -0.0064873407 0.009599578 -0.01596546 -0.012803471 0.0068437867 0.024393782 0.040305357
-0.02226754 -0.021810241 0.003547127 0.02888618 0.025492638 0.03004033 -0.039817926 0.0039442303
-0.0010866214 0.03845663 -0.03010561 -0.009762911 -0.03337587 -0.034744523 0.037145145 -0.023569008
0.029145023 0.009803055 0.008130727 -0.026889168 -0.0057273027 -0.03912399 0.014713787 0.013521487
0.010583406 0.01976461 0.031159146 0.012427092 0.040305156 -0.039369617 -0.027297346 -0.017217064
-0.0019245094 -0.030459806 -0.016120132 0.0132472245 -0.021720346 0.035046965 -0.02942601 -0.021034103
0.035212204 -0.028597152 0.029953968 -0.019746253 0.022361364 -0.029196579 -0.012564981 -0.029712463
0.020137634 0.0058398927 0.0053035305 0.030224513 0.03088961 0.0058161253 0.023384718 0.032496784
-0.034734856 0.035013385 0.021441715 0.024774645 0.021628892 -0.0252005 -0.03433363 0.033520047
0.014961839 0.007891553 -0.011474091 0.03070944 0.03884525 -0.010751807 -0.037891276 -0.01955094
-0.01605239 0.00040178536 0.015618247 -0.01354491 0.040172603 -0.016593829 0.031947702 -0.034308884
0.034124617 -0.021297183 -0.03943094 -0.02950807 -0.038406607 -0.031956878 -0.008145098 0.017358754
0.032722674 0.021676078 0.024507552 -0.0043399446 0.017585808 -0.033437047 -0.03583043 0.037360076
0.016314646 -0.033761695 0.004558804 0.01761399 0.025316458 -0.023474466 0.03047588 0.027025037
-0.021579362 0.005434139 0.035668164 -0.003223883 -0.004919256 -0.0070708706 0.03929246 -0.039018475
-0.018843068 0.0026185557 0.029095942 0.00580894 0.025087075 -0.03639641 -0.019994339 -0.008770333
-0.025977643 0.014124726 0.030795973 -0.018461393 0.0077273655 0.020836199 -0.019715086 -0.012893663

bias f4 [24]
00000000: 3087 d83c 6b0b 1c3d 18ca 0a3d 2f92 0cbd
00000010: f64b 8c3c 1b9e 80bc d48e f5bc 0640 6f3b
00000020: c0e6 abbc 6b9b 183d 5389 31bc e690 bf3c
00000030: b1c5 043b 984a bd3c 0f8f a83c 696a ddbc
00000040: 1aee 31bc 0937 bf3c 1615 663b 802c 2dbb
00000050: 2515 11bc 0458 d73c f544 d1ba 15e5 5f3a
0.02643165 0.038096827 0.033884138 -0.0343191 0.017126065 -0.01570039 -0.029975332 0.0036506667
-0.020984054 0.037257593 -0.010835963 0.023384523 0.0020259435 0.023106858 0.020576028 -0.02702828
-0.0108599905 0.023341672 0.0035107783 -0.002642423 -0.008855139 0.026287086 -0.0015965985 0.0008540911

weight f4 [24]
00000000: 0c00 803f 55f8 7f3f 0900 803f 0700 803f
00000010: 1d00 803f d9fc 7f3f 3ffe 7f3f 86fc 7f3f
00000020: 1200 803f 1200 803f 1300 803f eafe 7f3f
00000030: c7f8 7f3f 0d00 803f 0100 803f 0a00 803f
00000040: 1500 803f 2a00 803f 73fb 7f3f 0a00 803f
00000050: acfe 7f3f 0d00 803f 83fd 7f3f 1500 803f
1.0000014 0.999883 1.0000011 1.0000008 1.0000035 0.9999519 0.99997324 0.99994695
1.0000021 1.0000021 1.0000023 0.99998343 0.9998898 1.0000015 1.0000001 1.0000012
1.0000025 1.000005 0.99993056 1.0000012 0.99997973 1.0000015 0.99996203 1.0000025

bias f4 [24]
00000000: 504b 89b7 0e82 18b9 4929 d238 feb6 0d37
00000010: c20b 1939 3d46 c037 49d2 9937 f3f5 81b7
00000020: c8ba 1639 7799 6639 afb4 6739 1d62 c335
00000030: 96a2 2cb9 fb51 d537 d641 1b39 7f5f 8638
00000040: 5337 3639 c053 3739 b13f 83b8 4678 2939
00000050: e268 9136 a81f 3c39 3d36 de37 582a 0839
-1.6366743e-05 -0.00014544299 0.0001002127 8.446861e-06 0.00014595597 2.292089e-05 1.8336943e-05 -1.5492527e-05
0.00014374696 0.0002199168 0.00022097187 1.4557187e-06 -0.00016463766 2.5429754e-05 0.00014806478 6.4074055e-05
0.00017377482 0.0001748344 -6.25843e-05 0.00016161901 4.3335467e-06 0.0001794087 2.6489719e-05 0.00012985745

running_mean f4 [24]
00000000: 85a0 2bbb 2690 4b3e 44b6 1e3e afe6 22bb
00000010: 7452 f4bd 8526 a6be 4ce9 003e ade2 adbd
00000020: bdb1 c43c c705 55be a06a 9c3c 9b1b c23c
00000030: f15d f43d 0211 683e 1331 31be 965d 06be
00000040: 89f0 273e 73e5 f83c df41 bfbd d2fa 073e
00000050: 4cea 9d3d 3486 9d3c f338 2f3d 6c99 a4bd
-0.0026188206 0.19879207 0.15499216 -0.0024856736 -0.11929789 -0.32451263 0.12588996 -0.084905006
0.024010533 -0.20802985 0.019093812 0.023694804 0.119319804 0.22662738 -0.17303877 -0.13121638
0.1640035 0.030382847 -0.09338736 0.13279274 0.07710704 0.019229032 0.04277892 -0.080370754

running_var f4 [24]
00000000: 3975 233e bd79 403e c753 f63d aa9d dc3d
00000010: 11dd d13d 5eb9 633e 7c8f 2d3e 8e8d cc3d
00000020: 9bb1 bb3d 5ca1 fd3d 9dd9 af3d 6011 ac3d
00000030: 7347 b03d f67a bb3d 9064 353e 24ca e03d
00000040: 7d5e b53d a1a5 143e ef90 113e e8fb ad3d
00000050: f947 a03d b451 2e3e d689 323e a7a1 d93d
0.15962686 0.1879644 0.12027698 0.107722595 0.10247243 0.2223868 0.16949266 0.09987937
0.09164735 0.123842925 0.08586428 0.084017515 0.08607378 0.09154312 0.17714143 0.10976055
0.08855913 0.14516307 0.14215444 0.08495313 0.07826228 0.17023355 0.17435393 0.10626536

weight f4 [10, 16224]
00000000: 23da 9a3b 6a47 ac3b e4ce ea3a bf85 9cb9
00000010: d272 eabb 1b3a 70bb 3886 ec3b c05e 45bb
00000020: 5025 f7bb 418e 56bb 9097 16ba cd2b 513b
00000030: 23e1 d83b f0d7 493b 0a03 70bb 7e82 873a
00000040: 7ede f4bb fbce 5bba d83d fb3a 78e7 933a
00000050: f235 aabb ef38 2c3b 3db5 b7bb f98c dbbb
00000060: 8450 90bb 0732 fc3b df2a e8bb fece d73a
00000070: 8332 91bb f36b 14ba 4a71 a63a bc1e e83b
00000080: 7878 a2bb d87c 7abb d395 82ba ab67 f0bb
00000090: b754 86bb 8f90 4d38 353a bdba fb3d b7bb
000000a0: 9d25 bebb 5302 ef3b ba57 a03b d919 b83b
000000b0: 5aa0 f53b 48bb 893b 8215 aabb 85dc 403b
000000c0: df9f b93b 712d bc3b 08ad 7d3b 3a5a cdbb
000000d0: 4b7f 26bb 0071 e1ba 47e1 8e3b ba2f b03b
000000e0: 5ed6 a93b 126d b6bb fc3c e13b ea2a 86b9
000000f0: f7f0 abbb f082 a539 a251 99ba 4cbd cc3b
00000100: b32a 2d39 a5a6 c0bb 6386 3fbb fa12 993b
00000110: a371 c33b 8b08 d6bb 310c d6bb 2100 663b
00000120: 350b d63b 8c76 57bb 1a10 e9bb 5396 cd3b
00000130: 291b 753b f583 93ba c7b2 a23b 64fc 31bb
00000140: 996b bc3b c4e4 edbb deb1 573b 7960 00bc
00000150: 426a da3b 1d6b a3b9 1f88 83bb 304b eb3b
00000160: 5733 183b eda9 e43a 1f01 a4b9 320f d3bb
00000170: 28bb de39 d552 edbb 99e5 923b 56e0 d53b
00000180: 7511 a1bb dc34 e8bb f32b c1bb 2958 9fbb
00000190: 8734 8abb 2fb1 ae3b 23c8 cdba f51e 3dbb
000001a0: 2b3e 85ba f7de ee3b 4215 62bb c8ac 13bb
000001b0: adb7 aa3b 60f4 f03b 2151 e6bb 11ab c13b
000001c0: 6ec6 15bb 3da5 283a 6093 ea3b dbe6 753b
000001d0: 4915 923b a473 35bb 451d d63b 3509 bcbb
000001e0: 2817 a6bb d341 ecbb 62e5 9bbb eedf fd3b
000001f0: 67a2 b53b b813 8f3b 523b 9cba 6d7b e4ba
00000200: 2ad0 f5bb 0067 15bb cffb bbbb fef8 e0bb
00000210: 04d1 c03b ca2d f0ba 1bd1 353b cde0 28bb
00000220: 54cc 85bb 71b9 e9bb 60bd 71bb b829 c9bb
00000230: a93e 54bb 235c fbbb 6198 f0bb 54fb 36bb
00000240: d573 ef3b a158 94bb f11a e7b8 d5f0 a53b
00000250: 50e3 3bbb 62dd 9dba 6894 4d3b db36 bfbb
00000260: a05b f63a 2fed 973b 3961 703b 9311 39bb
00000270: 0b16 b5bb 7c2b 5dbb e972 88bb a37b 0abb
00000280: a211 f2bb 9f95 323b 1814 53bb e9f2 ed39
00000290: ea4b 5dbb 7223 a4bb 1736 983b 3dac 543b
000002a0: be16 b0bb 45df 3c3a 2e4b fc3b 1e0b a73b
000002b0: 2cad 3ebb 0aa1 0a3b cbfb a8bb 9b29 7dbb
000002c0: a8c7 d13b d90d dfbb 175a a03b 2387 a6bb
000002d0: a6bc eb3b df20 c8bb 7005 c5bb 5223 aa3b
000002e0: f2bd a239 537f 81bb 4d6b 50bb 8c55 0c3a
000002f0: 06d7 5ebb 497e 493a 3b0c e9bb b7f3 a0bb
00000300: 965f 0bbb 3dc7 e8bb 0f27 f33a 0415 cc3b
00000310: 7132 ad3b 2a84 b3bb 51fa b43b 2742 af3b
00000320: 3656 863b 5b99 72bb ec2d c93b d4cd 853b
00000330: 60eb 7b3b fed2 b6bb 785f 81bb 723a d1bb
00000340: f554 27bb 1d10 c7bb 7daa c03b 0433 31bb
00000350: 19a4 b43b 56b0 d23b dbc3 a7ba 6859 fdba
00000360: 19e2 cb3b 121a f13b f140 913b 830e 7039
00000370: aab5 95bb f474 8f3b 18fc f33b 78c0 a9b9
00000380: d862 cb3b 00f9 90bb 5248 f6bb f1f3 d43b
00000390: 2ee2 b3bb 21d3 8c3b 26bd 21bb 6c20 aabb
000003a0: 894b fd3b 4428 bb3b 3bcf b93b 07b9 9a3b
000003b0: dc3b bbba 5dcb 0d3b e54e 623b fd02 aebb
000003c0: 2ad1 fa38 c3f6 dfbb 01cb c43b 6ac6 57bb
000003d0: 3ba7 df3b 376e 1a3a 1eab 3dba 8f80 f63b
000003e0: 2743 4dbb 142f 99bb f6c8 50bb 22c1 80bb
000003f0: 8e79 f0ba 1d61 e0b9 4a9d 493a 6d5c 4439
0.004725711 0.0052575367 0.0017914441 -0.00029854287 -0.007154801 -0.0036655727 0.0072181486 -0.003011629
-0.00754229 -0.0032738599 -0.00057446305 0.0031916976 0.0066186353 0.0030798875 -0.0036622905 0.0010338572
-0.007472812 -0.00083850295 0.0019168211 0.0011284193 -0.005194419 0.0026279052 -0.005606322 -0.006700155
-0.0044041295 0.0076963934 -0.0070851888 0.0016464887 -0.0044310703 -0.00056618376 0.0012698558 0.007083742
-0.0049582087 -0.0038221385 -0.0009962864 -0.007336577 -0.0040994543 4.901044e-05 -0.0014436903 -0.0055921054
-0.0058028237 0.0072939782 0.0048932703 0.0056183157 0.007495922 0.004203234 -0.005190552 0.0029428315
0.00566481 0.0057427217 0.003870787 -0.0062668594 -0.0025405462 -0.0017199814 0.0043603512 0.005376783
0.0051830253 -0.0055672014 0.006873725 -0.00025590445 -0.005247231 0.00031568808 -0.0011697302 0.006248152
0.00016514472 -0.0058792406 -0.0029224388 0.0046714516 0.0059644743 -0.00653178 -0.006532215 0.0035095292
0.0065320977 -0.0032877056 -0.007112515 0.0062740236 0.0037400222 -0.0011254536 0.0049651596 -0.0027158493
0.0057501313 -0.007259937 0.0032912414 -0.007835501 0.006665499 -0.00031169588 -0.0040140296 0.007180594
0.002322396 0.0017445661 -0.00031281353 -0.0064410204 0.00042482582 -0.0072425404 0.0044829366 0.006526987
-0.004915411 -0.0070863795 -0.0058951317 -0.0048628044 -0.0042176875 0.0053311805 -0.0015699904 -0.0028857563
-0.0010165622 0.007289763 -0.0034497534 -0.0022533406 0.005209884 0.0073533505 -0.0070287143 0.0059102853
-0.002285387 0.0006433314 0.0071586818 0.0037521634 0.004458104 -0.0027687335 0.006534251 -0.0057384023
-0.0050686784 -0.0072099953 -0.004757569 0.0077476418 0.0055430415 0.0043663643 -0.0011919534 -0.0017431803
-0.0075016217 -0.0022796988 -0.005736805 -0.0068656197 0.0058842916 -0.0018324193 0.0027743045 -0.0025768757
-0.0040831957 -0.007132702 -0.0036886558 -0.0061390065 -0.0032385981 -0.0076708957 -0.0073423837 -0.00279208
0.0073075094 -0.004527167 -0.000110199566 0.00506411 -0.0028669424 -0.0012044127 0.0031368975 -0.0058353967
0.0018795617 0.004636429 0.0036679043 -0.0028239235 -0.0055263094 -0.0033747843 -0.004164089 -0.0021130822
-0.007387356 0.0027249826 -0.0032208022 0.00045385145 -0.0033767172 -0.005009108 0.00464512 0.0032451295
-0.005373805 0.00072049006 0.007699392 0.005097761 -0.0029094918 0.0021153116 -0.005156969 -0.0038629535
0.0064019747 -0.0068070707 0.004893552 -0.0050820275 0.0071941195 -0.006107434 -0.006012611 0.005192199
0.00031040568 -0.003951946 -0.0031802237 0.00053533236 -0.0034002676 0.00076863595 -0.0071120537 -0.0049118656
-0.002126669 -0.007103829 0.0018551069 0.006228091 0.005285554 -0.0054784017 0.005523004 0.005348462
0.0040996326 -0.0037017677 0.0061395075 0.0040833745 0.0038439855 -0.0055793514 -0.0039481483 -0.006385141
-0.0025532816 -0.006074919 0.005879699 -0.0027038464 0.005512726 0.0064297123 -0.0012799458 -0.0019329013
0.0062220213 0.007357844 0.0044327904 0.0002289359 -0.004568775 0.0043779556 0.0074458234 -0.00032377592
0.0062068515 -0.0044242144 -0.0075159455 0.0064988066 -0.005489609 0.0042976295 -0.0024679392 -0.0051918533
0.0077299518 0.005711587 0.0056704558 0.004721764 -0.0014284807 0.0021636107 0.0034531888 -0.005310415
0.00011959889 -0.006834836 0.0060056453 -0.003292466 0.0068253553 0.0005891057 -0.0007235276 0.0075226496
-0.0031320543 -0.0046748016 -0.0031858063 -0.003929273 -0.0018346773 -0.00042796964 0.00076909794 0.00018726448

bias f4 [10]
00000000: 908c 0a3b 7119 78bb daf7 27bb 36f7 833b
00000010: 0cba 4a39 6be7 bfbb 3b24 b23b 07c9 4fbb
00000020: 5cc6 1bb9 dedf 9dbb
0.002114091 -0.003785696 -0.0025629909 0.0040272726 0.00019333529 -0.0058564446 0.005436448 -0.0031705515
-0.00014855847 -0.004817947
