models/AdvaDemo_CleverHans_4.0.0/LOGS/models/nnet_epoch_1.pt (torch, 766091 bytes, 26 tensors)

weight f4 [12, 3, 5, 5]
0.0026179128 0.01393992 -0.07046913 -0.09131501 -0.09613711 0.0017587447 -0.0184826 -0.0447189
0.092242986 0.103430875 0.03421777 0.047486346 -0.08765683 -0.08936134 -0.11102875 -0.06960887
0.041648023 -0.11172344 0.026881667 0.08854848 0.037305802 -0.10311473 -0.05944963 0.08745174
0.056752592 0.06537541 0.020236254 -0.051322315 -0.09692039 0.06433584 0.0524778 -0.004242544
-0.0040989826 -0.1092307 0.09992509 0.1121776 -0.08601051 0.008002695 -0.005666037 0.10711328
0.05416282 -0.018336747 -0.009167756 -0.045137107 -0.038634017 -0.07723381 -0.110531844 -0.050647713
-0.05723442 0.085302144 -0.011406493 -0.078599244 -0.06329767 0.078718744 0.11246854 0.07605728
0.08428848 0.07456858 0.08510275 -0.082208194 0.06809566 -0.056243453 -0.046656746 0.08929898
-0.07873395 -0.02695923 -0.04732492 -0.06780386 -0.00071376417 0.030210493 -0.04463406 -0.08158273
0.06493844 0.10509254 0.05419445 -0.031711813 -0.012907796 0.069957666 -0.09514788 -0.079468876
0.05085306 -0.010024845 0.08431732 0.0461732 -0.0011511059 0.074849114 0.08620299 0.06624517
-0.09629539 0.07847246 0.052039832 -0.014245107 0.008630361 0.1120016 -0.0698085 0.023341708
-0.056183085 0.03633398 0.07839849 -0.037625138 -0.014536341 0.07344948 -0.09293096 0.100960866
0.09030783 0.07217183 -0.06345869 -0.044731557 -0.010054325 -0.10738779 -0.09938638 0.042947255
0.0083072195 -0.024368482 0.031741723 -0.08003729 0.044133544 -0.1104035 0.026327612 -0.014141656
0.010584279 0.051204108 -0.0111850165 0.060739238 -0.0465519 0.009832616 0.06766027 0.08595715
-0.106972575 0.014498955 0.08032485 0.113934994 -0.09768287 -0.061275516 0.00024354427 -0.10117
0.050591655 -0.09541339 -0.07209695 -0.10157247 0.051077202 0.046150878 0.037433505 0.08282925
-0.06897311 -0.06477243 -0.06905684 -0.110421136 0.006363186 -0.09000081 -0.00018999004 0.07930496
0.1088645 -0.046450812 0.029305954 -0.01061862 -0.08465997 -0.100180075 -0.018875092 -0.0780561
0.08068757 0.028006801 -0.07959417 0.095428206 -0.052099764 -0.113938905 0.038864788 -0.03938436
-0.09613212 0.09867357 -0.10258912 0.035678416 -0.0393787 0.06634453 -0.04686617 0.09934427
-0.028932758 0.103653625 -0.073415056 0.09561303 -0.102512814 0.058284845 0.042560343 0.09178677
-0.10817438 -0.08913672 -0.02975919 0.10272164 0.046113424 0.0008073285 0.021469103 0.102608524
-0.052181613 0.08903494 0.05316125 0.07441379 -0.045575358 0.010110731 -0.11016702 -0.08301955
0.096769884 -0.022541866 -0.0054090004 0.086551934 0.08702871 0.06226697 -0.010472869 0.07962953
0.10023567 -0.09693706 -0.07519621 -0.01434318 -0.037738137 0.07287858 -0.007846641 -0.014890106
-0.05786033 0.101917684 0.053563636 -0.0004326008 0.02874512 0.09374403 7.9031786e-05 0.039275307
-0.069156796 0.10066618 -0.011226144 0.08802029 0.07662259 0.01906146 0.05510604 0.060430415
0.1112549 -0.085769266 0.0043024495 0.08242285 -0.007490996 0.0063542817 0.054937184 -0.040147454
0.066444784 -0.030374812 -0.10233276 -0.012159015 -0.107841745 0.07662299 0.011502143 0.08855891
0.112505704 0.09741374 0.07206771 0.094599605 0.018804811 -0.10704421 0.06547575 -0.062839076
00000000: 4a91 2b3b 4364 643c 1f52 90bd 5d03 bbbd
00000010: 88e3 c4bd ae85 e63a d268 97bc 2a2b 37bd
00000020: e4e9 bc3d 91d3 d33d ef27 0c3d 0b81 423d
00000030: 6d85 b3bd 1403 b7bd 0b63 e3bd 188f 8ebd
00000040: 1e97 2a3d 42cf e4bd f136 dc3c e858 b53d
00000050: f8cd 183d d12d d3bd 7581 73bd e619 b33d
00000060: 6875 683d 8be3 853d 80c6 a53c 5937 52bd
00000070: 337e c6bd 82c2 833d f6f2 563d 0a05 8bbb
00000080: c250 86bb 58b4 dfbd 87a5 cc3d 5fbd e53d
00000090: 4726 b0bd bc1d 033c 2aaa b9bb 355e db3d
000000a0: d5d9 5d3d f236 96bc 5b34 16bc b0e1 38bd
000000b0: b43e 1ebd c32c 9ebd 855e e2bd fa73 4fbd
000000c0: a46e 6abd e4b2 ae3d 4de2 3abc a4f8 a0bd
000000d0: 35a2 81bd 4b37 a13d e855 e63d ebc3 9b3d
000000e0: 709f ac3d 69b7 983d 5a4a ae3d c55c a8bd
000000f0: bd75 8b3d 895f 66bd 251b 3fbd 62e2 b63d
00000100: 443f a1bd 9ad9 dcbc c6d7 41bd c0dc 8abd
00000110: e71b 3bba ff7b f73c 34d2 36bd d914 a7bd
00000120: 72fe 843d c23a d73d 00fb 5d3d 3fe4 01bd
00000130: 387b 53bc f745 8f3d e4dc c2bd 94c0 a2bd
00000140: 4c4b 503d 3f3f 24bc 8fae ac3d 1c20 3d3d
00000150: b4e0 96ba 7e4a 993d 318b b03d 8cab 873d
00000160: 8436 c5bd 2bb6 a03d b827 553d 4f64 69bc
00000170: 5c66 0d3c 1861 e53d c2f7 8ebd 1c37 bf3c
00000180: 3c20 66bd f0d2 143d 638f a03d d11c 1abd
00000190: d529 6ebc ae6c 963d 9652 bebd 92c4 ce3d
000001a0: 50f3 b83d d3ce 933d a1f6 81bd 7038 37bd
000001b0: e5ba 24bc 21ee dbbd 168b cbbd 76e9 2f3d
000001c0: 011b 083c 69a0 c7bc 9c03 023d 97ea a3bd
000001d0: 60c5 343d 3b1b e2bd 01ad d73c 68b2 67bc
000001e0: af69 2d3c 66bb 513d 5c41 37bc b5c9 783d
000001f0: 35ad 3ebd fb18 213c 7891 8a3d 4d0a b03d
00000200: 7014 dbbd 068d 6d3c 5b81 a43d c056 e93d
00000210: f50d c8bd 09fc 7abd eb5f 7f39 3832 cfbd
00000220: 3239 4f3d 1868 c3bd 91a7 93bd 3a05 d0bd
00000230: 5436 513d b408 3d3d e053 193d 62a2 a93d
00000240: c641 8dbd 68a7 84bd ac6d 8dbd 7a24 e2bd
00000250: 4682 d03b 5852 b8bd 1038 47b9 a46a a23d
00000260: 5af4 de3d 3543 3ebd 0a13 f03c b8f9 2dbc
00000270: 3562 adbd 362b cdbd f09f 9abc e0db 9fbd
00000280: 863f a53d 856e e53c 4502 a3bd dd6f c33d
00000290: 9066 55bd cd58 e9bd af30 1f3d 7f51 21bd
000002a0: ebe0 c4bd 5e15 ca3d 3f1a d2bd 8823 123d
000002b0: 8f4b 21bd a4df 873d bef6 3fbd 0275 cb3d
000002c0: 6404 edbc 5a48 d43d a25a 96bd c4d0 c33d
000002d0: 3df2 d1bd 17bc 6e3d c153 2e3d b4fa bb3d
000002e0: 888a ddbd 508d b6bd 8bc9 f3bc b95f d23d
000002f0: 6ee1 3c3d e6a2 533a f9df af3c 6b24 d23d
00000300: 63bc 55bd f357 b63d 9cbf 593d 4266 983d
00000310: 3aad 3abd 7ba7 253c 3f9f e1bd 2706 aabd
00000320: 4a2f c63d b8a9 b8bc fc3d b1bb 2442 b13d
00000330: 1c3c b23d a60b 7f3d 6596 2bbc cf14 a33d
00000340: 5c48 cd3d f086 c6bd 7800 9abd a8ff 6abc
00000350: 4e93 1abd 5d41 953d 338f 00bc a2f5 73bc
00000360: f4fe 6cbd 38ba d03d 8b65 5b3d b2ce e2b9
00000370: e37a eb3c dffc bf3d debd a538 25df 203d
00000380: 14a2 8dbd 122a ce3d dced 37bc fb43 b43d
00000390: 4eec 9c3d c726 9c3c dfb6 613d e285 773d
000003a0: 9cd9 e33d cca7 afbd 90fb 8c3b 50cd a83d
000003b0: 0777 f5bb 9437 d03b d005 613d a871 24bd
000003c0: 3414 883d 99d4 f8bc d793 d1bd 9b36 47bc
000003d0: 22dc dcbd 84ec 9c3d 7c73 3c3c 605e b53d
000003e0: 6469 e63d db80 c73d 3c98 933d 70bd c13d
000003f0: 8c0c 9a3c ff39 dbbd 2618 863d c6b1 80bd

bias f4 [12]
-0.11251218 -0.067855984 0.0037729442 -0.011903964 -0.05667002 -0.08004981 -0.08968825 -0.114566855
0.08279461 -0.03444238 -0.01060506 -0.007495515
00000000: c96c e6bd 14f8 8abd 8043 773b d808 43bc
00000010: d31e 68bd 28f1 a3bd 79ae b7bd 07a2 eabd
00000020: 3890 a93d 7413 0dbd d8c0 2dbc f09c f5bb

weight f4 [12]
1.0000017 0.99999297 1.0000033 1.0000007 1.0000021 1.0000017 0.99995923 0.9999959
0.99998325 0.9999965 1.0000015 0.9999737
00000000: 0e00 803f 8aff 7f3f 1c00 803f 0600 803f
00000010: 1200 803f 0e00 803f 54fd 7f3f bbff 7f3f
00000020: e7fe 7f3f c5ff 7f3f 0d00 803f 47fe 7f3f

bias f4 [12]
-7.4664863e-06 -6.0373975e-07 3.384943e-05 -6.7766186e-06 3.2918888e-05 -3.4676155e-05 -3.510289e-05 -6.390043e-06
-1.2495286e-05 -6.2515146e-06 1.6215172e-05 8.490273e-06
00000000: a188 fab6 ae10 22b5 8cf9 0d38 b662 e3b6
00000010: 6312 0a38 3d71 11b8 713b 13b8 0d6a d6b6
00000020: d8a2 51b7 1ac4 d1b6 d105 8837 7271 0e37

running_mean f4 [12]
-0.17964369 -0.11636584 0.18925622 0.24350722 -0.43433383 0.06305575 -0.09289571 -0.1460256
0.04622753 -0.030972399 -0.06855589 0.16567148
00000000: 84f4 37be 3751 eebd 62cc 413e f559 793e
00000010: 0161 debe 6023 813d 1b40 bebd bc87 15be
00000020: 1459 3d3d d4b9 fdbc 0867 8cbd c9a5 293e

running_var f4 [12]
0.0081099635 0.005249376 0.020819893 0.033614635 0.07809157 0.012871504 0.007191847 0.004144034
0.0046628937 0.0033595155 0.002576343 0.016717484
00000000: a7df 043c f502 ac3b 7b8e aa3c 80af 093d
00000010: 79ee 9f3d 00e3 523c 96a9 eb3b adca 873b
00000020: 30cb 983b 512b 5c3b ddd7 283b 1bf3 883c

weight f4 [12, 12, 5, 5]
-0.008832145 0.026696872 0.0004717697 0.056972355 -0.027077273 -0.029687889 -0.05022149 0.0031370486
0.015907954 -0.04411216 0.028436743 0.025193043 0.029989835 -0.05088795 0.01933035 -0.002660684
0.02161899 0.042118173 -0.0076794904 0.046623383 -0.05085213 0.00912192 -0.014670969 0.045797415
-0.05153637 0.017239342 -0.050009552 0.043297682 -0.028736684 -0.00578906 0.04732763 -0.0005640774
-0.03540251 -0.017244063 -0.001671508 -0.005520112 0.035239387 -0.052164167 -0.053235378 0.035876416
0.043359675 0.048869185 -0.0424784 -0.03696233 0.016384115 0.024535133 0.017680364 0.014570516
-0.034636274 0.032695245 -0.057264715 0.03281571 -0.041151065 -0.055424396 -0.008585058 0.048606858
0.011187663 -0.0043912283 0.051684543 -0.031986374 -0.0024654868 -0.033448823 -0.020409081 0.0018332261
0.003635236 -0.03573943 0.039502863 -0.045091372 -0.008669224 -0.045589805 0.015542731 -0.046162803
0.0450766 0.025450028 -0.03889065 -0.026060056 0.03162432 -0.057434402 -0.05556346 -0.007521212
0.02133008 0.024073265 0.016416835 0.009765451 -0.050092936 0.0092089195 0.011180195 0.016642397
-0.041218605 0.033517048 0.053695254 0.013401136 0.010099488 0.0022887764 0.04867 0.03712177
0.05195564 -0.04004066 0.007362234 -0.017287858 0.051198762 0.051718935 -0.016314063 -0.047046572
-0.028952641 -0.029888814 0.05412746 -0.022056721 0.055909127 -0.015300718 0.03724637 -0.0049843322
-0.051659394 0.025534727 0.034626443 -0.041833263 -0.035243824 0.051943917 -0.02130673 -0.035221115
-0.020233456 0.043763082 0.010905198 0.027408447 0.01515637 -0.031327207 -0.004778792 0.054434896
-0.034731932 -0.014108095 0.046438754 -0.0069506154 -0.015799806 0.022629272 0.014981712 0.04967517
-0.0173915 0.056024276 0.0059279287 0.00197073 0.034458354 -0.041783646 -0.02417002 -0.02638414
-0.05280343 0.0055550663 0.05519424 0.055936005 -0.033118397 0.002758978 -0.052182317 0.025749104
0.041207932 0.049519494 0.032282826 0.015259162 0.052940257 0.046935357 0.023356754 0.04049279
0.0010251757 0.03285932 0.03290951 -0.055306736 0.057723355 0.015409415 0.015313755 0.014431955
-0.055832725 0.025878875 0.053137682 -0.015774172 0.015349329 -0.005503324 0.048958946 -0.04936116
-0.04918295 -0.002839427 0.02478133 0.008156893 -0.036819737 -0.043500885 -0.037568532 -0.03962152
-0.052311603 -0.045805216 -0.045392316 -0.012690673 0.053718895 0.017921327 -0.04178027 -0.011585202
0.05481521 0.042759474 0.015793523 0.027094008 0.04039067 -0.03690337 0.026016789 -0.004680521
0.016308112 -0.019701064 -0.018097376 0.033567708 -0.02949618 0.008664927 0.030790161 0.034642898
-0.051227294 0.033089057 -0.023037221 0.035568573 0.03506259 -0.014119716 -0.0367785 0.024338143
0.028484706 0.02745151 -0.05681541 0.004992978 0.033152565 0.052939806 -0.034619138 0.0142664015
0.013550525 0.014794664 0.05323954 -0.027760599 0.019833347 0.031519618 -0.04656608 -0.028109713
-0.020921594 0.043492567 0.0014594478 0.00026327118 -0.04964304 -0.047937274 -0.02352979 -0.008648829
-0.039903805 0.036952168 -0.017215956 0.042720076 0.04945285 -0.013324521 -0.05443142 0.022541087
-0.0034740365 0.025502687 0.02320397 0.04812117 0.021552844 -0.032870278 0.042108517 -0.034534626
00000000: b3b4 10bc 66b3 da3c db57 f739 d85b 693d
00000010: 28d1 ddbc 0434 f3bc 0db5 4dbd f196 4d3b
00000020: 6651 823c f4ae 34bd 2cf4 e83c a461 ce3c
00000030: 3ead f53c e26f 50bd af5a 9e3c df5e 2ebb
00000040: 4f1a b13c 1b84 2c3d 3ca4 fbbb 29f8 3e3d
00000050: 534a 50bd 1b74 153c 815e 70bc 1296 3b3d
00000060: cd17 53bd 8539 8d3c d1d6 4cbd e958 313d
00000070: 3269 ebbc 28b2 bdbb 9eda 413d 98de 13ba
00000080: 3902 11bd 6c43 8dbc 8016 dbba 0ee2 b4bb
00000090: 2d57 103d 18aa 55bd 570d 5abd 26f3 123d
000000a0: ea99 313d 0e2b 483d d5fd 2dbd d065 17bd
000000b0: fb37 863c e7fd c83c 69d6 903c 2cb9 6e3c
000000c0: c4de 0dbd 73eb 053d 688e 6abd c469 063d
000000d0: 058e 28bd b104 63bd 58a8 0cbc fc17 473d
000000e0: 764c 373c 4be4 8fbb 2cb3 533d 2504 03bd
000000f0: 0194 21bb a201 09bd f230 a7bc dc48 f03a
00000100: 243d 6e3b 8263 12bd c1cd 213d bbb1 38bd
00000110: 5c09 0ebc 60bc 3abd f0a6 7e3c 3515 3dbd
00000120: 3ea2 383d 947c d03c cd4b 1fbd e67b d5bc
00000130: 8188 013d 5640 6bbd 8396 63bd 8074 f6bb
00000140: 6cbc ae3c 4c35 c53c 997c 863c 45ff 1f3c
00000150: 402e 4dbd 02e1 163c 232d 373c a355 883c
00000160: d7d4 28bd 2c49 093d 8eef 5b3d 7090 5b3c
00000170: 5378 253c 4cff 153b 325a 473d ff0c 183d
00000180: 70cf 543d ad01 24bd e53e f13b 449f 8dbc
00000190: cbb5 513d 3cd7 533d 12a5 85bc e8b3 40bd
000001a0: 172e edbc 63d9 f4bc c1b4 5d3d 4cb0 b4bc
000001b0: f800 653d ddaf 7abc a68f 183d 9c53 a3bb
000001c0: cd98 53bd 342e d13c 75d4 0d3d 5b59 2bbd
000001d0: d45b 10bd 25c3 543d 748b aebc 0444 10bd
000001e0: a2c0 a5bc eb40 333d b7ab 323c ae87 e03c
000001f0: 6c52 783c f550 00bd 6a97 9cbb 20f7 5e3d
00000200: 1243 0ebd a425 67bc 9036 3e3d fdc1 e3bb
00000210: 986e 81bc 0661 b93c db75 753c 3178 4b3d
00000220: 9e78 8ebc b679 653d 123f c23b 5d27 013b
00000230: 3424 0d3d 5425 2bbd 3500 c6bc 8d23 d8bc
00000240: 6948 58bd 4607 b63b 5b13 623d 271d 653d
00000250: 28a7 07bd f8cf 343b 20bd 55bd c9ef d23c
00000260: a6c9 283d f4d4 4a3d ff3a 043d 9001 7a3c
00000270: e2d7 583d 4a3f 403d aa56 bf3c c5db 253d
00000280: 305f 863a 7f97 063d 1fcc 063d 5189 62bd
00000290: 536f 6c3d c577 7c3c 8be6 7a3c 0274 6c3c
000002a0: dbb0 64bd efff d33c e6a6 593d d638 81bc
000002b0: c17b 7b3c 3a55 b4bb 2d89 483d ed2e 4abd
000002c0: 1074 49bd ae15 3abb 3702 cb3c 7da4 053c
000002d0: 4bd0 16bd fc2d 32bd 76e1 19bd 2d4a 22bd
000002e0: b144 56bd 409e 3bbd 4bed 39bd 8aec 4fbc
000002f0: 5808 5c3d bfcf 923c ca21 2bbd dccf 3dbc
00000300: ea85 603d 8f24 2f3d 6b61 813c 41f4 dd3c
00000310: b070 253d fd27 17bd 2921 d53c 0e5f 99bb
00000320: 9798 853c 2064 a1bc f340 94bc 4b7e 093d
00000330: f9a1 f1bc 57f7 0d3c a63b fc3c b6e5 0d3d
00000340: b6d3 51bd 6488 073d 8eb8 bcbc 5ab0 113d
00000350: ca9d 0f3d 6256 67bc 0da5 16bd c960 c73c
00000360: c258 e93c fde1 e03c 46b7 68bd 239c a33b
00000370: fcca 073d 69d7 583d cccc 0dbd a0bd 693c
00000380: 0503 5e3c 5265 723c b411 5a3d 326a e3bc
00000390: 8b79 a23c b71a 013d 13bc 3ebd 5746 e6bc
000003a0: c363 abbc 4325 323d f14a bf3a a907 8a39
000003b0: 8056 4bbd e059 44bd 8cc1 c0bc d1b3 0dbc
000003c0: 2c72 23bd 285b 173d 7a08 8dbc 3ffb 2e3d
000003d0: 128f 4a3d 174f 5abc 7bf3 5ebd 16a8 b83c
000003e0: a9ac 63bb 03eb d03c 4116 be3c b41a 453d
000003f0: 978f b03c fca2 06bd fb79 2c3d 2e74 0dbd

bias f4 [12]
-0.013589736 0.044948243 0.023761883 0.017074116 -0.022578508 0.031799078 0.03424666 -0.029312987
-0.042049333 0.0179357 -0.0010146461 0.053378172
00000000: 7ca7 5ebc a61b 383d 48a8 c23c 04df 8b3c
00000010: 90f6 b8bc c03f 023d 3a46 0c3d ca21 f0bc
00000020: ec3b 2cbd e4ed 923c e0fd 84ba 12a3 5a3d

weight f4 [12]
1.0000033 1.0000001 1.0000005 0.9999998 0.9999897 0.9999656 1.0000017 0.99997324
1.0000036 0.99994457 0.99996674 1.000002
00000000: 1c00 803f 0100 803f 0400 803f fdff 7f3f
00000010: 53ff 7f3f bffd 7f3f 0e00 803f 3ffe 7f3f
00000020: 1e00 803f 5efc 7f3f d2fd 7f3f 1100 803f

bias f4 [12]
3.170693e-05 3.2046173e-05 1.9982475e-05 3.6439712e-06 3.5704652e-05 -7.854218e-06 -4.523187e-06 -5.3697764e-05
5.2966363e-05 -5.300552e-05 -4.5966804e-05 7.901525e-06
00000000: 0ffd 0438 5169 0638 0aa0 a737 f38a 7436
00000010: 94c1 1538 9cc5 03b7 e1c5 97b6 8939 61b8
00000020: 3328 5e38 3e52 5eb8 7bcc 40b8 cb90 0437

running_mean f4 [12]
0.10505553 0.28027382 0.17968228 0.49766475 -0.14603536 -0.4150606 -0.017766902 0.045903116
0.14132565 0.015212619 -0.1407967 0.38029063
00000000: 5b27 d73d 0d80 8f3e a2fe 373e eacd fe3e
00000010: 4b8a 15be d382 d4be e58b 91bc e804 3c3d
00000020: acb7 103e 593e 793c 032d 10be 74b5 c23e

running_var f4 [12]
0.11318904 0.21583553 0.096836865 0.15288226 0.06657955 0.11278096 0.06255456 0.04815144
0.08066592 0.2209501 0.07236107 0.15912682
00000000: a8cf e73d fd03 5d3e 6852 c63d 2b8d 1c3e
00000010: dc5a 883d b4f9 e63d 9b1c 803d 723a 453d
00000020: 2d34 a53d be40 623e 0a32 943d 24f2 223e

weight f4 [24, 12, 5, 5]
0.003113796 0.023887444 -0.018346868 -0.030472996 -0.044682827 -0.011812158 0.053578667 0.037967026
-0.029221794 -0.0025268313 -0.012760742 -0.05214075 0.036995098 -0.005467131 0.005931726 -0.010822674
-0.0070617064 -0.05525769 0.023750653 -0.0016720191 0.006539078 0.034973525 -0.03113058 -0.049024273
0.053077806 -0.0359725 -0.017150294 0.037887473 -0.051210124 0.019221893 -0.039968435 -0.0435557
-0.02457937 0.034647875 0.047990702 -0.02634463 0.05266303 0.035913985 -0.028314263 -0.022910219
-0.043193966 0.017459808 0.050970875 0.017709602 0.033795852 -0.045717653 -0.026340501 -0.028380046
-0.0062438915 0.055953704 -0.053062703 0.008344389 -0.032975838 -0.026405342 -0.029782344 -0.043011148
-0.034822535 0.026875105 -0.0014020245 0.026422115 0.028741077 0.0077290284 0.03469254 0.037879243
-0.029633261 0.0064065065 -0.041656382 0.013374248 0.036816813 -0.0064776596 0.02410945 0.022140924
-0.02229945 0.04228848 -0.025366444 0.030044591 -0.032299854 0.01631094 -0.04028497 -0.010436491
-0.052597757 -0.034040984 -0.008674531 -0.0418253 -0.055618245 0.00055652135 -0.02446957 -0.038239975
-0.021382978 -0.017546358 0.042935308 -0.0007655141 0.032617033 0.036482785 0.041929226 -0.04701168
0.024381507 0.0014648943 -0.033135653 0.025678102 0.039243404 0.026286088 0.029022576 0.0039363815
-0.036353383 0.038998954 0.028976766 -0.05311379 0.04406466 0.034516893 -0.00023248782 0.0077430895
0.027742114 -0.0035589759 -0.0014683534 0.03181493 0.0032646232 -0.047293507 -0.046236712 -0.008981088
0.001323257 0.050055202 0.04875731 -0.022563731 0.044811476 -0.0017871489 0.013536016 -0.010390729
-0.0132254185 0.057298537 -0.03683829 0.0072939214 -0.04911855 0.018228196 0.030050088 -0.03643025
-0.0061439783 0.016864093 -0.03351044 -0.038326222 -0.009884784 0.044338074 0.054432787 -0.032575816
-0.03976404 0.017101724 0.0016200411 0.02446169 0.03466347 0.020650731 0.047726985 -0.009036511
0.039038844 0.044894427 -0.015333704 0.039308075 0.044168364 -0.042863425 0.027772723 0.011096409
0.047671065 -0.023301203 0.027444614 -0.04626318 0.013688491 0.02362779 0.036836077 -0.028396066
-0.032479238 -0.0006034953 -0.032623507 -0.024913596 0.018579239 0.043377288 0.033274207 -0.018444996
0.026189946 -0.0469558 -0.026840718 0.03385037 -0.049397614 0.020825945 -0.038490653 0.0020626588
-0.047599576 0.024338078 0.02192781 0.043421242 -0.0020955927 0.015194551 0.048334725 -0.0018232723
0.011807804 0.023728108 -0.019427042 -0.02187254 -0.013265495 0.047973905 -0.02188942 0.051519368
0.014177577 -0.017743474 0.04653979 -0.04824155 0.0022035763 0.02696452 0.03762909 0.010954032
-0.021115094 0.013572237 0.014386029 -0.01685507 0.014864726 -0.043083824 0.054882206 -0.05672217
0.0030798805 0.006244102 -0.039245635 -0.0026291984 -0.036189545 0.039883003 0.0538551 0.008778557
0.048650794 0.046735648 -0.051685758 0.051374488 0.013531158 0.029475177 -0.0008955728 -0.0060335267
-0.013994121 -0.04901077 0.027585402 -0.026991507 -0.016035229 -0.025699927 0.018406253 -0.0031604148
-0.052832715 -0.047425922 0.0029334507 0.012610627 -0.018107781 -0.011234782 0.018444603 0.04616415
0.023195952 -0.031404484 -0.03827647 -0.037287556 0.02516899 -0.0143944165 0.018377034 -0.023769638
00000000: d410 4c3b 9aaf c33c 2c4c 96bc 81a2 f9bc
00000010: 5705 37bd c887 41bc 4e75 5b3d 5083 1b3d
00000020: 8b62 efbc 3299 25bb 6e12 51bc 8a91 55bd
00000030: 2c88 173d 9e25 b3bb ed5e c23b 9651 31bc
00000040: e365 e7bb e355 62bd bb90 c23c a727 dbba
00000050: c345 d63b 6640 0f3d 8f05 ffbc adcd 48bd
00000060: 1d68 593d e657 13bd c67e 8cbc e52f 1b3d
00000070: b5c1 51bd 3b77 9d3c f1b5 23bd 7667 32bd
00000080: ad5a c9bc eeea 0d3d e691 443d b2d0 d7bc
00000090: 30b5 573d 8b1a 133d 50f3 e7bc 36ae bbbc
000000a0: 28ec 30bd df07 8f3c d6c6 503d ba13 913c
000000b0: 856d 0a3d 6f42 3bbd 09c8 d7bc 457d e8bc
000000c0: 8f99 ccbb b62f 653d 4758 59bd e7b6 083c
000000d0: ac11 07bd 0450 d8bc 1afa f3bc 752c 30bd
000000e0: 13a2 0ebd 2e29 dc3c 23c4 b7ba 3173 d83c
000000f0: 6872 eb3c ca43 fd3b c419 0e3d 4427 1b3d
00000100: 74c1 f2bc aced d13b e29f 2abd a91f 5b3c
00000110: 3acd 163d 8c42 d4bb 2e81 c53c e260 b53c
00000120: 56ad b6bc af36 2d3d 4acd cfbc 1320 f63c
00000130: da4c 04bd 859e 853c da01 25bd d1fd 2abc
00000140: bf70 57bd 8f6e 0bbd 9f1f 0ebc 0151 2bbd
00000150: f5cf 63bd 84e3 113a 6874 c8bc 85a1 1cbd
00000160: 5b2b afbc 61bd 8fbc efdc 2f3d c8ac 48ba
00000170: 7099 053d f96e 153d fbbd 2b3d 528f 40bd
00000180: babb c73c b201 c03a 40b9 07bd e25a d23c
00000190: b1bd 203d ec55 d73c c1c0 ed3c c3fc 803b
000001a0: 49e7 14bd 5ebd 1f3d af60 ed3c d88d 59bd
000001b0: 257d 343d 9661 0d3d f9c7 73b9 beb9 fd3b
000001c0: 6e43 e33c b53d 69bb c475 c0ba 5f50 023d
000001d0: 4af3 553b d6b6 41bd b562 3dbd 6a25 13bc
000001e0: 2371 ad3a af06 4d3d bfb5 473d 93d7 b8bc
000001f0: 3d8c 373d c43e eaba 2bc6 5d3c e03d 2abc
00000200: 6daf 58bc dfb1 6a3d bfe3 16bd d901 ef3b
00000210: 8830 49bd 4c53 953c 9a2b f63c e337 15bd
00000220: 6d53 c9bb 9126 8a3c 3e42 09bd f5fb 1cbd
00000230: caf3 21bc d79b 353d eaf4 5e3d 386e 05bd
00000240: 9edf 22bd ea18 8c3c 8f57 d43a e263 c83c
00000250: 48fb 0d3d b92b a93c 5f7d 433d e00d 14bc
00000260: 32e7 1f3d 38e3 373d 373a 7bbc 8101 213d
00000270: e3e9 343d 8f91 2fbd 9f83 e33c b6cd 353c
00000280: bc42 433d 2ae2 bebc 87d3 e03c 767e 3dbd
00000290: b145 603c 118f c13c 6de1 163d de9e e8bc
000002a0: f308 05bd e233 1eba 3aa0 05bd 9917 ccbc
000002b0: 7d33 983c 62ac 313d 894a 083d f619 97bc
000002c0: 4c8c d63c ba54 40bd 11e1 dbbc b0a6 0a3d
000002d0: 2755 4abd 2c9b aa3c 60a8 1dbd ac2d 073b
000002e0: c6f7 42bd a660 c73c f3a1 b33c 79da 313d
000002f0: 3656 09bb 91f2 783c a2fa 453d defa eeba
00000300: 8575 413c 7361 c23c 7625 9fbc 0a2e b3bc
00000310: 8557 59bc 4980 443d 7151 b3bc f905 533d
00000320: 1149 683c c35a 91bc 82a0 3e3d ee98 45bd
00000330: e069 103b b2e4 dc3c f620 1a3d 8a78 333c
00000340: 90f9 acbc 175e 5e3c 61b3 6b3c a513 8abc
00000350: 2e8b 733c aa78 30bd 2acc 603d 8255 68bd
00000360: d2d7 493b 539b cc3b 08c0 20bd a14e 2cbb
00000370: 7d3b 14bd 5c5c 233d 2a97 5c3d f0d3 0f3c
00000380: 0e46 473d e16d 3f3d 72b4 53bd 0e6e 523d
00000390: cab1 5d3c ed75 f13c e0c4 6aba e4b4 c5bb
000003a0: 9947 65bc 84bf 48bd c8fa e13c 4b1d ddbc
000003b0: 505c 83bc a788 d2bc b6c8 963c f61e 4fbb
000003c0: 1e67 58bd af41 42bd 233f 403b ce9c 4e3c
000003d0: c556 94bc 1712 38bc 2319 973c 9f16 3d3d
000003e0: 7005 be3c fda1 00bd cac7 1cbd d6ba 18bd
000003f0: 332f ce3c 8fd6 6bbc 6f8b 963c 8bb8 c2bc

bias f4 [24]
0.0045477413 0.00769604 -0.055392936 0.01901535 -0.053256083 -0.0016914345 0.055180043 0.057278574
-0.023031041 -0.043131523 0.038203917 -0.037899524 0.001601398 -0.013325494 -0.0041597523 -0.042706396
-0.01660971 0.011218466 0.012965813 0.039046444 0.0116475 -0.003777951 -0.03960351 0.026313923
00000000: 3805 953b 102f fc3b b4e3 62bd 14c6 9b3c
00000010: 0d23 5abd 20b3 ddba 7804 623d f09c 6a3d
00000020: 98ab bcbc aeaa 30bd b67b 1c3d 883c 1bbd
00000030: 00e6 d13a 2c53 5abc 884e 88bb e7ec 2ebd
00000040: 1611 88bc a8cd 373c 906e 543c 2aef 1f3d
00000050: 28d5 3e3c 8097 77bb 4a37 22bd 4c90 d73c

weight f4 [24]
1.0000019 1.0000018 0.99999356 0.9999833 0.9999704 0.99996966 0.9999792 1.0000002
0.9999883 0.9999577 0.9999874 0.99992675 1.0000043 1.0000007 0.99998045 1.0000032
0.9999996 1.0000015 1.0000014 1.0000018 0.99996746 1.0000019 0.99998486 1.000003
00000000: 1000 803f 0f00 803f 94ff 7f3f e8fe 7f3f
00000010: 0ffe 7f3f 03fe 7f3f a3fe 7f3f 0200 803f
00000020: 3cff 7f3f 3afd 7f3f 2dff 7f3f 33fb 7f3f
00000030: 2400 803f 0600 803f b8fe 7f3f 1b00 803f
00000040: f9ff 7f3f 0d00 803f 0c00 803f 0f00 803f
00000050: defd 7f3f 1000 803f 02ff 7f3f 1900 803f

bias f4 [24]
1.6836315e-05 6.258506e-06 4.745919e-05 -2.4145125e-05 -4.0808965e-05 -2.088546e-05 -2.0480855e-05 4.4359017e-06
8.466575e-06 -2.2746879e-05 -1.01262285e-05 -5.9148257e-05 3.8614806e-05 1.14393315e-05 -2.3173245e-06 3.729165e-05
-1.9099867e-05 1.6767044e-05 -6.9287858e-06 4.110132e-05 -2.2207192e-05 2.5505533e-05 -3.6668473e-06 4.3135533e-05
00000000: b63b 8d37 2800 d236 eb0e 4738 438b cab7
00000010: 4b2a 2bb8 2f33 afb7 4dce abb7 1bd8 9436
00000020: aa0b 0e37 8dd0 beb7 d2e3 29b7 f515 78b8
00000030: 55f6 2138 8eeb 3f37 5583 1bb6 9b69 1c38
00000040: a738 a0b7 f4a6 8c37 d17d e8b6 3564 2c38
00000050: 9549 bab7 b7f4 d537 f513 76b6 6dec 3438

running_mean f4 [24]
0.20595911 -0.17893842 -0.22430405 0.5807094 -0.13435079 0.11893838 -0.014253278 0.1387424
0.13925552 -0.43385473 0.3269387 -0.10101879 -0.64846194 0.066895016 -0.01857512 -0.1640514
0.010334978 0.060518272 -0.24224468 0.2189057 0.26316246 -0.24534833 -0.58232486 0.5692621
00000000: f2e6 523e a23b 37be f6af 65be 5fa9 143f
00000010: 4193 09be f795 f33d 9586 69bc 7d12 0e3e
00000020: 0099 0e3e 3522 debe 8264 a73e f0e2 cebd
00000030: 9a01 26bf 4100 893d da2a 98bc 17fd 27be
00000040: 0a54 293c 02e2 773d fd0e 78be d128 603e
00000050: 3bbd 863e 983c 7bbe 3e13 15bf 29bb 113f

running_var f4 [24]
0.11833663 0.1921424 0.21670733 0.26411018 0.18967122 0.119514056 0.14287718 0.13375068
0.1834104 0.18110226 0.2668874 0.19163008 0.40833908 0.1447669 0.27434868 0.23376596
0.21578826 0.14205818 0.15399076 0.1892564 0.14612201 0.22613576 0.17076717 0.26196504
00000000: 7a5a f23d fac0 443e 87e8 5d3e 7339 873e
00000010: 2c39 423e c9c3 f43d 654e 123e f0f5 083e
00000020: f0cf 3b3e df72 393e 77a5 883e ad3a 443e
00000030: d211 d13e c63d 143e 6e77 8c3e 5860 6f3e
00000040: 99f7 5c3e b377 113e c1af 1d3e 6ecc 413e
00000050: 02a1 153e 2290 673e 97dd 2e3e 4820 863e

weight f4 [24, 24, 5, 5]
0.009398966 -0.005829429 0.01355102 0.038020615 -0.03966642 -0.03936176 -0.030107915 6.39633e-05
-0.014403281 -0.008040792 0.0037293145 -0.023352511 0.031181084 -0.032194693 -0.014186092 -0.034057215
-0.024208253 -0.01606419 -0.009924961 -0.038123664 -0.013097072 -0.0011406429 -0.02528361 0.00058895786
-0.039060038 -0.017397732 -0.0034946187 -0.0065508313 0.030420242 -0.013304404 -0.038907412 -0.03287625
0.026275877 -0.02073827 -0.037542634 0.010904793 0.029121814 -0.016429797 0.007782956 -0.035169717
-0.0059420196 0.029731551 -0.0049157282 -0.003482739 0.0049736686 -0.039547984 -0.013492015 -0.027108481
-0.0076211584 0.020106282 0.023662148 0.018169174 -0.022626972 0.03010612 0.031116184 0.023810474
-0.020769652 0.017563198 -0.01959031 0.02893671 -0.034935806 0.0017462164 -0.03934757 -0.010953309
0.02704863 0.0033015595 -0.0022169198 0.040124916 -0.01885593 0.01817316 -0.03868613 -0.029137647
0.030360544 0.020661645 -0.024832055 -0.030449256 0.02269979 -0.024948979 0.0035893368 0.037624013
-0.0022556474 -0.007924448 0.024194114 0.02375422 -0.003645956 0.026578156 0.017321344 -0.020646228
0.012257616 0.0031621698 0.0028269563 -0.021497345 -0.016964264 0.0046605025 -0.034807395 -0.00868625
0.03185075 0.021525208 -0.038922925 0.013436136 0.016645335 -0.0374694 -0.0060251807 -0.026103439
-0.03653951 -0.0155127235 -0.004583671 -0.008932866 -0.034191433 0.029854938 0.033627205 0.023089085
-0.018680794 0.025530709 0.02402832 -0.038120627 -0.0072459118 0.021480976 -0.021488294 0.029194921
0.0139944395 0.03718059 0.004770745 0.03193235 0.012089158 -0.039185245 0.0012332537 -0.018780207
-0.03743628 -0.035519212 0.013258226 0.013279339 -0.023685293 0.024760077 0.010856072 -0.002393869
0.035755895 0.03279023 0.030051071 0.0029535533 -0.031060757 -0.03919032 -0.031346034 0.02647888
0.040788397 0.01815462 -0.04016983 0.031654865 0.0382266 -0.013318918 -0.026067002 -0.03853495
-0.019994438 0.0407129 -0.037212398 -0.03807546 -0.034337446 -0.016964465 -0.0148547385 0.019449469
0.005700953 0.019884318 0.029968452 -0.020051053 0.004782156 -0.040428154 0.033571057 -0.011964547
0.036306493 0.00025674593 -0.0267804 -0.009388587 0.03298072 0.0071117003 0.0048933523 -0.004493987
0.013819086 -0.007959341 -0.03564191 -0.014495253 0.016186234 -0.0025280274 -0.03663682 -0.019229537
0.023220291 -0.00927559 0.028399818 -0.03250189 -0.022294924 0.0009599526 0.009457582 -0.024320908
-0.020528313 0.008425231 0.028310748 -0.006991726 0.03062268 -0.03704012 0.005870119 -0.01855754
-0.009473036 -0.000993227 0.032299332 -0.0040714997 0.032959595 -0.008902676 0.033667218 0.010295907
-0.031665746 0.01332622 -0.014574785 0.0071017207 -0.0071925316 0.032306675 -0.014524519 0.02570686
0.031318825 0.009715014 -0.03691656 0.037028603 0.027430365 -0.022578815 -0.037469707 0.022678126
-0.028431233 0.040488094 0.019626569 -0.013347958 -0.017496 0.035652127 -0.024201946 0.0075386395
-0.02231424 -0.016520526 0.018139353 0.007056316 0.040649246 -0.023973979 0.019332878 0.0388315
-0.027126998 0.040155612 -0.029995013 -0.021639885 0.02140775 0.009204203 0.010483446 -0.038795542
-0.036753148 0.022374023 0.03191888 0.018453619 -0.021083444 -0.03158438 0.028718337 -0.03765424
00000000: 1ffe 193c cb04 bfbb 1905 5e3c 81bb 1b3d
00000010: 4279 22bd cc39 21bd e0a4 f6bc 0924 8638
00000020: bdfb 6bbc 87bd 03bc 8467 743b c44d bfbc
00000030: 796f ff3c 95de 03bd c86c 68bc 947f 0bbd
00000040: 6350 c6bc 0c99 83bc 4e9c 22bc 8f27 1cbd
00000050: 1a95 56bc a081 95ba 931f cfbc 4b64 1a3a
00000060: 6bfd 1fbd b085 8ebc f905 65bb 5ba8 d6bb
00000070: df33 f93c b7fa 59bc 615d 1fbd 3fa9 06bd
00000080: 8240 d73c 4ee3 a9bc 4ec6 19bd 04aa 323c
00000090: df90 ee3c c897 86bc 2b08 ff3b 1f0e 10bd
000000a0: 46b5 c2bb 958f f33c 1e14 a1bb aa3e 64bb
000000b0: 28fa a23b 11fd 21bd 9d0d 5dbc 9b12 debc
000000c0: e9ba f9bb eeb5 a43c 1fd7 c13c 85d7 943c
000000d0: 335c b9bc 1ca1 f63c 5ee7 fe3c 2f0e c33c
000000e0: 1e25 aabc b2e0 8f3c dc7b a0bc ae0c ed3c
000000f0: d918 0fbd 4de1 e43a eb2a 21bd 8275 33bc
00000100: 1795 dd3c fa5e 583b be49 11bb 065a 243d
00000110: c077 9abc e1df 943c 5975 1ebd 13b2 eebc
00000120: adb6 f83c 9c42 a93c 986c cbbc b870 f9bc
00000130: e9f4 b93c cd61 ccbc 143b 6b3b a31b 1a3d
00000140: 7cd3 13bb 8bd5 01bc bc32 c63c 3698 c23c
00000150: fef0 6ebb 6fba d93c 7ee5 8d3c 4722 a9bc
00000160: 2bd4 483c 683c 4f3b 7544 393b 331b b0bc
00000170: a4f8 8abc 21b7 983b 3392 0ebd c650 0ebc
00000180: ef75 023d a255 b03c a56d 1fbd 3d23 5c3c
00000190: cc5b 883c 8379 19bd e16e c5bb e1d6 d5bc
000001a0: 74aa 15bd 1429 7ebc 9f32 96bb 285b 12bc
000001b0: 510c 0cbd 5892 f43c aebc 093d 5225 bd3c
000001c0: 7708 99bc c725 d13c 0ad7 c43c 6024 1cbd
000001d0: 1d6f edbb dff8 af3c 3808 b0bc 302a ef3c
000001e0: ef48 653c ad4a 183d e953 9c3b 7fcb 023d
000001f0: 9b11 463c b580 20bd 21a5 a13a f3d8 99bc
00000200: c956 19bd 987c 11bd 0839 593c 9691 593c
00000210: a907 c2bc a5d5 ca3c abdd 313c 75e2 1cbb
00000220: c674 123d 0c4f 063d aa2d f63c 6790 413b
00000230: 2173 febc 0786 20bd b364 00bd 3cea d83c
00000240: bc11 273d ffb8 943c 1f89 24bd 88a8 013d
00000250: 7f93 1c3d 9737 5abc 778a d5bc d3d6 1dbd
00000260: 60cb a3bc 92c2 263d 076c 18bd 03f5 1bbd
00000270: 6ca5 0cbd 10f9 8abc 4a61 73bc 7e54 9f3c
00000280: 0fcf ba3b 70e4 a23c 6680 f53c 1b42 a4bc
00000290: a2b3 9c3b fe97 25bd ce81 093d f306 44bc
000002a0: 1eb6 143d db9b 8639 9262 dbbc 97d2 19bc
000002b0: cb16 073d 4409 e93b 6a58 a03b 4c42 93bb
000002c0: 7369 623c e567 02bc 40fd 11bd 7f7d 6dbc
000002d0: fe98 843c 43ad 25bb 7d10 16bd 4387 9dbc
000002e0: 7b38 be3c a5f8 17bc bca6 e83c b420 05bd
000002f0: d8a3 b6bc 54a5 7b3a f9f3 1a3c a43c c7bc
00000300: fe2a a8bc fb09 0a3c f1eb e73c d91a e5bb
00000310: 6adc fa3c 62b7 17bd 215a c03b fb05 98bc
00000320: cb34 1bbc 2b2f 82ba 4e4c 043d 376a 85bb
00000330: a400 073d 88dc 11bc a3e6 093d 2ab0 283c
00000340: f1b3 01bd 3856 5a3c 14cb 6ebc 8db5 e83b
00000350: 54af ebbb 0154 043d 40f8 6dbc 3197 d23c
00000360: 2b48 003d b92b 1f3c d235 17bd 4eab 173d
00000370: a5b5 e03c 35f7 b8bc d679 19bd 7ac7 b93c
00000380: 9ee8 e8bc d8d6 253d e6c7 a03c 65b1 5abc
00000390: c553 8fbc f707 123d 2943 c6bc b106 f73b
000003a0: 5acc b6bc 0e56 87bc fb98 943c ab38 e73b
000003b0: d37f 263d 1465 c4bc fc5f 9e3c c70d 1f3d
000003c0: 7039 debc 367a 243d 1ab8 f5bc 2146 b1bc
000003d0: 4e5f af3c 3acd 163c c2c2 2b3c 13e8 1ebd
000003e0: 788a 16bd ba49 b73c 5fbd 023d 0b2c 973c
000003f0: 30b7 acbc 9f5e 01bd b842 eb3c 553b 1abd

bias f4 [24]
0.0365631 0.008057829 0.003859818 -0.03629245 -0.023191437 -0.03584408 -0.01715545 0.016918745
-0.018031238 -0.013938621 -0.013212688 -0.004126493 0.015319463 -0.025414968 -0.011368828 0.0047389194
-0.0030496456 0.034070753 0.035333052 -0.028789587 -0.01561551 0.02475243 -0.013989259 -0.00019016117
00000000: 30c3 153d fc04 043c 00f5 7c3b 64a7 14bd
00000010: f8fb bdbc 3ed1 12bd 9689 8cbc 2e99 8a3c
00000020: 3fb6 93bc d05e 64bc 087a 58bc 8837 87bb
00000030: 7cfe 7a3c 0d33 d0bc 5244 3abc f048 9b3b
00000040: 90dc 47bb c68d 0b3d 64b9 103d 24d8 ebbc
00000050: 32d8 7fbc 9cc5 ca3c 3433 65bc 0066 47b9

weight f4 [24]
1.0000004 1.000002 1.0000076 1.0000032 1.0000026 0.9999793 1.0000019 1.0000042
1.0000027 1.0000014 1.0000023 0.9999632 1.0 0.999947 1.0000012 0.9999543
0.9999576 1.0000012 0.9999766 1.000005 0.99999124 1.0000002 1.0000039 0.9999969
00000000: 0300 803f 1100 803f 4000 803f 1b00 803f
00000010: 1600 803f a5fe 7f3f 1000 803f 2300 803f
00000020: 1700 803f 0c00 803f 1300 803f 97fd 7f3f
00000030: 0000 803f 87fc 7f3f 0a00 803f 01fd 7f3f
00000040: 39fd 7f3f 0a00 803f 77fe 7f3f 2a00 803f
00000050: 6dff 7f3f 0200 803f 2100 803f ccff 7f3f

bias f4 [24]
3.172777e-05 3.1906548e-05 3.945248e-05 3.2163658e-05 3.74216e-05 2.9337401e-05 4.6956757e-05 4.7311514e-05
3.1014308e-05 4.364374e-05 5.5577188e-05 -2.9658488e-05 2.0409077e-05 -2.6475363e-05 2.2172251e-05 -6.9571186e-05
-5.5158584e-05 1.8256478e-05 2.278168e-05 5.1980795e-05 -5.2580367e-06 8.268742e-06 4.4322212e-05 1.9078318e-05
00000000: 6f13 0538 65d3 0538 c779 2538 77e7 0638
00000010: 23f5 1c38 9719 f637 6ff3 4438 5a70 4638
00000020: 5c15 0238 1c0e 3738 8d1b 6938 1ecb f8b7
00000030: 2934 ab37 6917 deb7 8cfe b937 bfe6 91b8
00000040: 145a 67b8 7d25 9937 491b bf37 f405 5a38
00000050: 316e b0b6 fab9 0a37 9de6 3938 600a a037

running_mean f4 [24]
-0.24884038 0.0041407426 -0.03754367 0.27686527 -0.039372653 0.2854651 -0.46819738 -0.13471621
-0.032483645 -0.10662872 0.1019401 0.14668846 -0.061503015 -0.036577154 0.056151982 0.27161467
-0.41532576 0.11502639 0.2731784 0.24720076 0.17295717 0.15234339 -0.023969233 -0.19587117
00000000: 03d0 7ebe 11af 873b 64c7 19bd 49c1 8d3e
00000010: 3845 21bd 7b28 923e 91b7 efbe 0cf3 09be
00000020: 920d 05bd 2960 dabd f9c5 d03d 8035 163e
00000030: 96ea 7bbd edd1 15bd 9fff 653d 1411 8b3e
00000040: 94a5 d4be f592 eb3d 0ade 8b3e 3222 7d3e
00000050: af1b 313e e8ff 1b3e 205b c4bc 7492 48be

running_var f4 [24]
0.12245312 0.1285568 0.18278971 0.078679815 0.10513636 0.11589575 0.2370189 0.09141226
0.10276993 0.1015304 0.11360614 0.07730348 0.103946 0.13958886 0.14656083 0.15281926
0.11122278 0.08616121 0.11877522 0.1296203 0.13329518 0.118157074 0.09802201 0.12416902
00000000: b4c8 fa3d 65a4 033e 3a2d 3b3e e222 a13d
00000010: bb51 d73d c05a ed3d 15b5 723e 5a36 bb3d
00000020: 0b79 d23d 2cef cf3d 56aa e83d 4951 9e3d
00000030: a4e1 d43d 62f0 0e3e 0b14 163e a77c 1c3e
00000040: c5c8 e33d 4a75 b03d 6c40 f33d 2fbb 043e
00000050: 887e 083e 56fc f13d c3bf c83d 544c fe3d

weight f4 [10, 16224]
0.002485875 -0.0021995783 -8.9966175e-05 0.0068825 0.00013060933 0.0008300684 0.0059658764 0.0073378235
0.00034742267 -0.003464753 0.005096836 0.0014477366 0.007795403 -0.00059685035 0.006725616 0.0038400767
0.007498266 -0.0051748306 0.007005791 -0.0077985404 0.001407904 -0.0006928591 -0.0064923638 -0.0019155717
0.00025196443 -0.006486473 0.0023387764 0.0034945528 0.0041036042 0.0068324865 -0.0017819813 0.0012965817
0.006087321 0.00029623113 -0.0042768796 -0.0009599037 0.005072373 0.0024749006 -0.006396512 -0.001824925
0.0033849815 -0.0048440364 -0.003337492 0.0021686684 -0.00066851726 -0.0005798772 -0.006824884 0.005030252
0.003082701 -0.0046969457 0.0043208147 0.0076791965 0.0065624835 0.00708984 -0.00623163 0.0021746014
-0.0041574207 0.0044043725 0.0030362823 0.004197552 0.0014820991 -0.0003600599 0.0044924077 0.00020766436
-0.00451329 -0.0060454975 0.0006150909 -0.00296645 0.0030743869 0.0029563156 -0.0014031231 0.0054876856
-0.0020834645 0.0064730174 0.0048373337 0.005777603 0.001000265 0.0059988215 -0.00070749625 -0.0039569465
0.0073287524 0.001962468 0.0040561906 0.0074620605 -0.0018164209 0.00091119995 -0.0071333186 -0.0042568645
-0.004788531 0.00054161466 0.007457142 -0.0039214 0.0022565885 -0.0031923882 -0.0009487127 0.0025633648
-0.003737551 0.007061238 -0.004664842 -0.0006191809 0.0053470917 0.00289526 0.00039717052 -0.0010355227
-0.0052363384 0.0004699779 0.0056396225 -0.0014896857 0.006791278 -0.006663031 0.004943094 0.0063475175
-0.0067601856 0.007822535 -0.0017144524 -0.0041944175 0.0011332097 -0.007559037 0.004821021 -0.004951357
-0.0051743956 -0.00384452 0.0046388255 0.0014975062 0.004297484 0.0053484007 0.0060163317 0.0009946451
0.0022368694 -0.005771213 -0.0074397414 -0.0037073055 0.007366405 0.0010924631 -0.003234864 0.0072649373
0.0035857954 -0.001815794 -0.0027374297 -0.003171625 -0.0035683217 -0.0036155183 0.004816495 0.0030173152
0.0009387211 0.0077568567 0.00054831465 -0.0039167097 -0.0037470614 -0.0019944834 -0.0067404476 0.0067616594
-0.00029949337 -0.004589396 -0.0075315055 0.003983747 -0.002537145 -0.007875586 0.007546285 0.00639118
-0.0025529896 0.0036051783 -0.0049959845 0.006302017 -0.0062173847 0.0076605915 0.005459496 -0.0047136894
0.0032406365 0.0071335705 -0.007071881 0.0044308184 0.0025857817 0.004344442 -0.00231171 0.00017121382
0.007361555 -0.00049135863 -0.0024400814 0.0077016163 0.002147037 -0.0041935737 0.0001907744 0.001296118
0.004268593 0.0015419606 0.00021449947 -0.0018821014 -0.0014308307 0.00091839273 -0.0032219647 0.00253784
-0.0064869905 -0.000100433565 -0.005596613 0.0027343335 0.00731254 -0.00561899 -0.00020923757 0.0024791781
0.0033393698 -0.0010334046 -0.0031931903 -0.004990316 -0.00434848 0.0034533995 -0.002582534 0.007539345
0.00507672 -0.00093145017 0.0018181422 -0.0013780626 0.0074097095 0.00550658 0.0013247245 -0.0031081287
-0.004085134 0.0014172012 0.006341723 0.00026034817 -0.003932545 -0.004526431 0.00373418 -0.0009863548
0.0027556045 -0.0067829695 0.0038853036 -0.0024997124 -0.0072854296 0.0048133153 0.0076639056 -0.0022999593
-0.0059832493 0.002644455 -0.0030251688 -0.0041089715 0.0005576087 -0.0040517817 0.0043405006 0.0023673342
0.0039099013 0.0027328164 0.007376485 0.004736783 0.0016247688 -0.0034460665 -0.0034108362 -0.0024650372
0.0056278226 -0.0058975555 -0.0033913597 -0.0062000593 -0.0055030533 0.0008035493 0.0075737373 0.0040482623
00000000: 10ea 223b cd26 10bb 39ac bcb8 9886 e13b
00000010: 2df4 0839 f398 593a 667d c33b 2072 f03b
00000020: 4826 b639 e910 63bb 5c03 a73b fbc1 bd3a
00000030: 9470 ff3b f375 1cba 8e62 dc3b cca9 7b3b
00000040: 04b4 f53b a091 a9bb d690 e53b e68a ffbb
00000050: 6b89 b83a fda0 35ba e5bd d4bb ec13 fbba
00000060: 181a 8439 7b8c d4bb 2846 193b de04 653b
00000070: 8777 863b 0de3 df3b 5f91 e9ba 10f2 a93a
00000080: 2678 c73b 784f 9b39 1125 8cbb 0ca2 7bba
00000090: 2636 a63b f131 223b d599 d1bb 5232 efba
000000a0: 91d6 5d3b b9ba 9ebb d3b9 5abb 3820 0e3b
000000b0: 6f3f 2fba e602 18ba 47a3 dfbb d0d4 a43b
000000c0: 2407 4a3b d6e8 99bb 9f95 8d3b c5a1 fb3b
000000d0: 1a0a d73b e351 e83b b432 ccbb c283 0e3b
000000e0: f93a 88bb 8e52 903b 5dfc 463b 9e8b 893b
000000f0: fe42 c23a 6cc6 bcb9 0c35 933b 7ac0 5939
00000100: 38e4 93bb 4f19 c6bb 0d3e 213a c668 42bb
00000110: a77b 493b bfbe 413b 00e9 b7ba 0bd2 b33b
00000120: bc8a 08bb 9b1b d43b 7f82 9e3b 0c52 bd3b
00000130: 531b 833a c391 c43b 4577 39ba 46a9 81bb
00000140: 0826 f03b c09c 003b cbe9 843b 4d84 f43b
00000150: f914 eeba 98dd 6e3a 9dbe e9bb 2b7d 8bbb
00000160: 1ce9 9cbb 25fb 0d3a 0b5b f43b 167f 80bb
00000170: 46e3 133b 6337 51bb 08b3 78ba 20fe 273b
00000180: b3f1 74bb f561 e73b 88db 98bb 8750 22ba
00000190: a836 af3b 67be 3d3b 533b d039 60ba 87ba
000001a0: 9795 abbb 5e67 f639 95cc b83b 8f41 c3ba
000001b0: 5e89 de3b 8e55 dabb aef9 a13b d6fe cf3b
000001c0: 8c84 ddbb 172a 003c 7ab7 e0ba 5371 89bb
000001d0: 3588 943a ccb1 f7bb a8f9 9d3b fe3e a2bb
000001e0: fa8d a9bb 58f4 7bbb 4a01 983b f847 c43a
000001f0: e9d1 8c3b a341 af3b a624 c53b c05e 823a
00000200: 7198 123b 721c bdbb 13c9 f3bb 44f6 72bb
00000210: e261 f13b fb30 8f3a 0300 54bb b60e ee3b
00000220: aaff 6a3b f0ff edba 7366 33bb 0adb 4fbb
00000230: 81da 69bb 55f2 6cbb b0d3 9d3b 26be 453b
00000240: 8214 763a 3b2d fe3b c6bc 0f3a be57 80bb
00000250: 4291 75bb e1b5 02bb f9de dcbb e990 dd3b
00000260: 5205 9db9 a562 96bb d9ca f6bb 188a 823b
00000270: 3b46 26bb 9a08 01bc d446 f73b 1b6d d13b
00000280: 0f50 27bb db44 6c3b 5bb5 a3bb 2681 ce3b
00000290: 34bb cbbb b305 fb3b 92e5 b23b 4b75 9abb
000002a0: dc60 543b bac0 e93b 3dbb e7bb 6630 913b
000002b0: 3876 293b d25b 8e3b 0f80 17bb dc87 3339
000002c0: 3339 f13b 85ce 00ba c6e9 1fbb d75d fc3b
000002d0: 4eb5 0c3b 3f6a 89bb 9d0a 4839 81e2 a93a
000002e0: 8edf 8b3b 9d1b ca3a 43eb 6039 d8b0 f6ba
000002f0: b68a bbba 4bc0 703a 9927 53bb e451 263b
00000300: d290 d4bb dc9f d2b8 cb63 b7bb 8132 333b
00000310: 089e ef3b 811f b8bb c866 5bb9 b579 223b
00000320: 54d9 5a3b 4e73 87ba d844 51bb ce85 a3bb
00000330: b27d 8ebb 6e52 623b bb3f 29bb 9c0c f73b
00000340: 9d5a a63b 902c 74ba bb4e ee3a 1ca0 b4ba
00000350: 26cd f23b 8b70 b43b 61a2 ad3a bfb1 4bbb
00000360: 96dc 85bb 62c1 b93a 3ace cf3b 577f 8839
00000370: 94dc 80bb 7552 94bb 25b9 743b 9348 81ba
00000380: 5f97 343b ac43 debb 94a0 7e3b 37d2 23bb
00000390: 9dba eebb 04b9 9d3b 8021 fb3b eaba 16bb
000003a0: 220f c4bb 984e 2d3b e941 46bb 8da4 86bb
000003b0: 7d2c 123a cfc4 84bb c23a 8e3b 4725 1b3b
000003c0: a11e 803b 0d19 333b 71b6 f13b 0437 9b3b
000003d0: 32f6 d43a 67d7 61bb 5688 5fbb 768c 21bb
000003e0: 9969 b83b 4840 c1bb 9341 5ebb de29 cbbb
000003f0: f552 b4bb 48a5 523a 1d2d f83b 49a7 843b

bias f4 [10]
0.0047773146 -0.0029714475 -0.0056871916 0.0018317581 0.0011594929 0.0022581096 -0.00066112936 0.0051549417
0.0051346184 0.0051700035
00000000: 058b 9c3b 9ebc 42bb 9f5b babb 9a17 f03a
00000010: 20fa 973a cbfc 133b a44f 2dba c9ea a83b
00000020: 4d40 a83b 2269 a93b
