models/AdvaDemo_CleverHans_4.0.0/LOGS/models/nnet_epoch_3.pt (torch, 766091 bytes, 26 tensors)

weight f4 [12, 3, 5, 5]
00000000: 498a 2b3b a355 643c e554 90bd 7306 bbbd
00000010: 4fe7 c4bd c462 e63a ae73 97bc 7535 37bd
00000020: d7e1 bc3d 6cca d33d 4921 0c3d 3f77 423d
00000030: a78b b3bd 7c0a b7bd 5c6b e3bd 1090 8ebd
00000040: dc8c 2a3d 6dd8 e4bd be0c dc3c 174e b53d
00000050: 81bf 183d a838 d3bd c296 73bd 200f b33d
00000060: 585f 683d 74e3 853d 20bf a53c b83c 52bd
00000070: 4981 c6bd bbbe 833d dcf1 563d 3030 8bbb
00000080: c0a3 86bb 65bc dfbd 629c cc3d 01ba e53d
00000090: 382b b0bd 12ec 023c 611f babb e455 db3d
000000a0: 35d8 5d3d 6d4b 96bc 847d 16bc d4f6 38bd
000000b0: 4a54 1ebd 1734 9ebd 5c69 e2bd 4789 4fbd
000000c0: 5c84 6abd cea7 ae3d 0ae4 3abc 66fa a0bd
000000d0: fba4 81bd 3534 a13d 2152 e63d 3fc3 9b3d
000000e0: cc9c ac3d 44b2 983d 4d42 ae3d ea65 a8bd
000000f0: 5f72 8b3d 5569 66bd 7e27 3fbd fada b63d
00000100: 9547 a1bd 03dd dcbc 08e2 41bd ebe5 8abd
00000110: 3465 40ba 6050 f73c abe0 36bd b01f a7bd
00000120: b6f3 843d fc2f d73d f0e4 5d3d fce4 01bd
00000130: 1e77 53bc 1e47 8f3d efdb c2bd 83ba a2bd
00000140: 6346 503d 8e30 24bc adb1 ac3d 5f24 3d3d
00000150: 2186 95ba 9e45 993d b989 b03d 3aac 873d
00000160: 2036 c5bd 89b7 a03d 7118 553d e58c 69bc
00000170: 7552 0d3c da5d e53d cafb 8ebd f017 bf3c
00000180: 2e2c 66bd 44cb 143d a28c a03d 6a24 1abd
00000190: 4a2d 6ebc 3b6d 963d 6f51 bebd 87c5 ce3d
000001a0: 61f9 b83d 5bcc 933d d5f4 81bd 4032 37bd
000001b0: a1a9 24bc bde8 dbbd f68f cbbd 73e6 2f3d
000001c0: 4820 083c 079f c7bc 3506 023d 4ff2 a3bd
000001d0: 32bb 343d d21d e2bd 96a0 d73c dbd2 67bc
000001e0: 6a2b 2d3c 74af 513d 3860 37bc e6c3 783d
000001f0: ceb4 3ebd 8615 213c 0592 8a3d 740b b03d
00000200: 7b13 dbbd 78bd 6d3c e37e a43d 8c58 e93d
00000210: d70a c8bd c6f7 7abd 3b1a 8539 1837 cfbd
00000220: 2f36 4f3d 6a67 c3bd 2da7 93bd dc03 d0bd
00000230: 0d27 513d 86fe 3c3d f44e 193d 249f a93d
00000240: ce45 8dbd 2faf 84bd 8c73 8dbd 6028 e2bd
00000250: 4f54 d03b 1b56 b8bd 950d 65b9 9c5f a23d
00000260: 2ffa de3d 0206 3ebd 1aa5 f03c 944a 2ebc
00000270: 4d66 adbd f222 cdbd c249 9abc 04bf 9fbd
00000280: 3435 a53d 3560 e53c 91fd a2bd 6f7b c33d
00000290: 6f3f 55bd 1860 e9bd 6f2d 1f3d 8548 21bd
000002a0: 44d7 c4bd 9125 ca3d cd0e d2bd b546 123d
000002b0: 7028 21bd 19f4 873d 4ec7 3fbd 3e66 cb3d
000002c0: 2330 edbc 2f4e d43d 023c 96bd 42f5 c33d
000002d0: 59fc d1bd 89b3 6e3d 5a64 2e3d 5510 bc3d
000002e0: ac6d ddbd a297 b6bd dbd7 f3bc 6d64 d23d
000002f0: 9cf8 3c3d 5c6a 5d3a 2ec2 af3c c722 d23d
00000300: 69b3 55bd 9a61 b63d f8df 593d b471 983d
00000310: 0d8a 3abd 5934 263c ca8a e1bd 7fee a9bd
00000320: 8620 c63d 77d5 b8bc 85df b0bb c460 b13d
00000330: 9a60 b23d 7df7 7e3d 34b8 2bbc 131d a33d
00000340: fd5d cd3d 146a c6bd ca0a 9abd 341c 6bbc
00000350: 9989 1abd ef4c 953d b3e5 ffbb 6231 74bc
00000360: 3402 6dbd adbe d03d d878 5b3d 5f96 d2b9
00000370: 34a8 eb3c 5e0e c03d 4521 ec38 1808 213d
00000380: 6c8a 8dbd 5c07 ce3d 9468 38bc 124e b43d
00000390: 3b00 9d3d 5a90 9c3c f486 613d ba8b 773d
000003a0: f6f2 e33d 2387 afbd 0421 8f3b f2b9 a83d
000003b0: 6e4d f5bb 99a5 d13b 4742 613d 5e2c 24bd
000003c0: 4e06 883d b5e1 f8bc 1185 d1bd c166 46bc
000003d0: 6ebd dcbd a0f5 9c3d 18f1 3c3c ec78 b53d
000003e0: 1d88 e63d 37a3 c73d 8675 933d 30ae c13d
000003f0: 9d34 9a3c 1226 dbbd 8a32 863d a2c9 80bd
0.0026174954 0.013936433 -0.07047442 -0.091320895 -0.09614431 0.0017577042 -0.018487778 -0.044728715
0.09222763 0.10341343 0.03421143 0.047477003 -0.08766871 -0.089375466 -0.111044616 -0.069610715
0.04163824 -0.111740924 0.026861545 0.08852785 0.037292007 -0.10313541 -0.059469946 0.08743119
0.056731552 0.06537524 0.020232737 -0.051327437 -0.09692628 0.06432863 0.05247675 -0.0042476878
-0.004108876 -0.10924605 0.09990765 0.11217118 -0.08601993 0.007990854 -0.00568001 0.10709742
0.05416127 -0.018346513 -0.009185199 -0.04515727 -0.038654603 -0.07724779 -0.11055252 -0.050668027
-0.057255134 0.085281 -0.011406908 -0.0786026 -0.06330296 0.07871286 0.112461336 0.076055996
0.08428344 0.074558765 0.085087396 -0.082225636 0.06808924 -0.056252796 -0.046668522 0.08928485
-0.07874981 -0.026960855 -0.0473347 -0.067821346 -0.0007339299 0.030189693 -0.044647854 -0.08160341
0.06491797 0.10507199 0.05417341 -0.031712517 -0.012906818 0.069959864 -0.09514605 -0.079457305
0.050848376 -0.010021342 0.084323265 0.046177264 -0.0011407771 0.074839815 0.086200185 0.066246465
-0.09629464 0.078475066 0.052025262 -0.014254783 0.008625616 0.111995414 -0.06981619 0.023326844
-0.056194477 0.03632666 0.078393236 -0.037632383 -0.014537165 0.07345053 -0.09292876 0.10096269
0.0903194 0.07216712 -0.06345526 -0.044725657 -0.010050208 -0.10737751 -0.09939568 0.042944383
0.008308478 -0.024367822 0.0317442 -0.08005201 0.044123836 -0.11040844 0.02632169 -0.014149393
0.010569433 0.051192716 -0.011192374 0.0607337 -0.046559148 0.009831792 0.06766132 0.085959345
-0.10697075 0.014510505 0.08032014 0.11393842 -0.097676925 -0.06127145 0.0002538728 -0.1011793
0.050588783 -0.09541209 -0.072096206 -0.10156986 0.051062632 0.04614117 0.03742881 0.08282307
-0.0689808 -0.06478726 -0.069068044 -0.11042857 0.0063577066 -0.09000798 -0.00021844202 0.07928392
0.108875625 -0.04639245 0.029375602 -0.010637898 -0.08466778 -0.10016431 -0.018833999 -0.07800105
0.08066788 0.027999977 -0.0795852 0.095450275 -0.052062448 -0.113952816 0.03886169 -0.0393758
-0.09611371 0.098704465 -0.10256729 0.035711963 -0.039345205 0.06638355 -0.04682093 0.099316105
-0.028953617 0.10366475 -0.07335664 0.095682636 -0.102532096 0.058276687 0.04257617 0.091828026
-0.10811934 -0.089156404 -0.029766014 0.10273061 0.04613553 0.000844633 0.021454897 0.102605395
-0.052173052 0.08905335 0.05319211 0.07443562 -0.04554181 0.010144317 -0.110128 -0.08297443
0.09674172 -0.022562725 -0.0053977394 0.08661035 0.087098315 0.062247742 -0.010480929 0.0796453
0.100276925 -0.096882015 -0.07521589 -0.014349986 -0.03772888 0.072900645 -0.0078093647 -0.014904352
-0.05786343 0.101926185 0.053582042 -0.00040166356 0.028766729 0.0937774 0.00011259554 0.03931436
-0.069111675 0.100599974 -0.011255402 0.08803953 0.076660596 0.019111801 0.055060342 0.060435988
0.111303255 -0.08570697 0.0043679494 0.08238591 -0.007486037 0.0063979146 0.054994848 -0.040081374
0.066418275 -0.030381063 -0.102304585 -0.012109459 -0.10778318 0.07664037 0.011532091 0.08860955
0.1125643 0.09747928 0.0720015 0.09457052 0.018823916 -0.10700621 0.06552608 -0.062884584

bias f4 [12]
00000000: c96c e6bd 14f8 8abd 8043 773b d808 43bc
00000010: d31e 68bd 28f1 a3bd 79ae b7bd 07a2 eabd
00000020: 3890 a93d 7413 0dbd d8c0 2dbc f09c f5bb
-0.11251218 -0.067855984 0.0037729442 -0.011903964 -0.05667002 -0.08004981 -0.08968825 -0.114566855
0.08279461 -0.03444238 -0.01060506 -0.007495515

weight f4 [12]
00000000: 2700 803f 33ff 7f3f 4200 803f 2e00 803f
00000010: 4c00 803f 0300 803f 1ef7 7f3f 8dfe 7f3f
00000020: c1fb 7f3f 3dfe 7f3f 3900 803f 37fa 7f3f
1.0000046 0.9999878 1.0000079 1.0000055 1.0000091 1.0000004 0.99986446 0.9999779
0.9999352 0.9999731 1.0000068 0.9999117

bias f4 [12]
00000000: ac5d a9b7 a9fc eb36 f664 0639 dac1 0637
00000010: 47ae e938 d897 02b9 0978 d1b8 21e3 e7b7
00000020: a8a6 37b8 147b 16b8 5455 6438 9feb 7b36
-2.018999e-05 7.0329593e-06 0.00012816847 8.032157e-06 0.000111427675 -0.00012454332 -9.988255e-05 -2.7643111e-05
-4.378581e-05 -3.5877412e-05 5.4438904e-05 3.7539064e-06

running_mean f4 [12]
00000000: 57e0 36be c596 ecbd 363d 3e3e 8dc2 743e
00000010: e86b dabe 76f2 773d 6dc8 c1bd 3cce 14be
00000020: d9c0 3b3d 3fe6 02bd 3b38 8bbd c06b 263e
-0.17859016 -0.115521945 0.18578038 0.2390234 -0.4266045 0.060533963 -0.09462056 -0.14531797
0.04583821 -0.03195786 -0.067978345 0.16252041

running_var f4 [12]
00000000: 0fce 123c 6de7 bc3b ac52 bc3c d76e 183d
00000010: 7aa3 b03d b8bd 683c f507 ff3b 553a 923b
00000020: 111e a53b d1cc 6e3b 5bfe 383b d795 973c
0.008960261 0.005764893 0.02298864 0.03721508 0.08624931 0.014205389 0.007782931 0.00446252
0.0050389846 0.0036437998 0.002822778 0.018504066

weight f4 [12, 12, 5, 5]
00000000: 9e05 11bc 416c da3c 1071 f039 8c6a 693d
00000010: 12ac ddbc 0a82 f3bc fcdd 4dbd 0d14 4d3b
00000020: a36b 823c 28a1 34bd 3ab2 e83c 8130 ce3c
00000030: 44ad f53c 7961 50bd f17f 9e3c f4be 2fbb
00000040: a416 b13c 4f98 2c3d 2498 fabb 2510 3f3d
00000050: cb4d 50bd cebd 153c 16ee 6fbc 49b3 3b3d
00000060: bc16 53bd d061 8d3c 36c3 4cbd 2f68 313d
00000070: 184c ebbc 973f bcbb b5f3 413d 2a5d 0eba
00000080: cced 10bd 4e2e 8dbc 8430 d7ba 15fa b3bb
00000090: 2271 103d 7093 55bd 9e0b 5abd a1fd 123d
000000a0: 10b7 313d 0450 483d 10e8 2dbd 3567 17bd
000000b0: d531 863c 203f c93c aa37 913c d52c 6f3c
000000c0: 05e8 0dbd 30e4 053d 7eb1 6abd ca3b 063d
000000d0: 8ec8 28bd 9f4d 63bd cbc8 0dbc daf9 463d
000000e0: 29aa 363c 09c6 91bb 9165 533d f94e 03bd
000000f0: 88b2 23bb c834 09bd 8bb4 a7bc 854e e63a
00000100: d1d4 693b 2383 12bd b49b 213d 33f7 38bd
00000110: 2d3b 0fbc 6000 3bbd 683e 7e3c a444 3dbd
00000120: 0660 383d b9f6 cf3c d485 1fbd d9c2 d5bc
00000130: 8b5f 013d 9072 6bbd edd2 63bd 4b89 f8bb
00000140: 0778 ae3c 42e5 c43c 2a16 863c 6b0f 1f3c
00000150: d774 4dbd 0e48 163c 3c89 363c 5bf7 873c
00000160: 230d 29bd 7e04 093d 6cc3 5b3d 00e7 5a3c
00000170: d1d2 243c 5fce 123b d317 473d 68de 173d
00000180: 45a9 543d 0424 24bd d1e2 ef3b c60e 8ebc
00000190: 05ad 513d 72d5 533d 0299 85bc 1fa5 40bd
000001a0: b206 edbc 04f6 f4bc 17af 5d3d 5fae b4bc
000001b0: 5d0c 653d 5d8b 7abc d67f 183d 0e83 a3bb
000001c0: b699 53bd 0c43 d13c 2bdb 0d3d 4b6c 2bbd
000001d0: 0c64 10bd f6be 543d 4985 aebc 1f43 10bd
000001e0: 4de0 a5bc 213a 333d 09a3 323c 8c8b e03c
000001f0: 6755 783c dd60 00bd bd57 9dbb 9dd1 5e3d
00000200: 2f69 0ebd a1be 67bc 0528 3e3d 6ba6 e4bb
00000210: 6cc5 81bc 32f8 b83c a0af 743c d06c 4b3d
00000220: 24a6 8ebc 6751 653d 9ed2 c03b ebd5 fc3a
00000230: c516 0d3d 6335 2bbd bd3a c6bc b071 d8bc
00000240: 5b68 58bd 298a b53b 4304 623d 2205 653d
00000250: bcc9 07bd 613c 333b f3b8 55bd c2ce d23c
00000260: 84b2 283d 94e7 4a3d bd5e 043d e0e9 793c
00000270: 45b9 583d 0c25 403d 6377 bf3c 57f3 253d
00000280: 4f00 863a 6587 063d f7d3 063d e067 62bd
00000290: 4793 6c3d 6b44 7c3c c3d1 7a3c 2ecc 6c3c
000002a0: f38a 64bd 4459 d43c 7299 593d b62a 81bc
000002b0: 2209 7c3c ecfd b2bb e5b5 483d 0b1a 4abd
000002c0: 6a5a 49bd 0cd0 38bb 5634 cb3c ecc4 053c
000002d0: c2b4 16bd be11 32bd 25c7 19bd fd3b 22bd
000002e0: 944c 56bd 0c89 3bbd 9cd4 39bd 4d91 4fbc
000002f0: 5d09 5c3d b2b3 923c a31b 2bbd 7eaf 3dbc
00000300: bc87 603d d617 2f3d 194b 813c 7d12 de3c
00000310: 2e6b 253d a148 17bd 2ed3 d43c bbf5 99bb
00000320: 20ba 853c 6a51 a1bc 9f2c 94bc 5e97 093d
00000330: 357c f1bc fd3c 0e3c e349 fc3c 61e7 0d3d
00000340: d7c8 51bd 8f97 073d a2ae bcbc 21aa 113d
00000350: dc97 0f3d 9b2a 67bc 2a92 16bd 134f c73c
00000360: 9227 e93c 9dc4 e03c 38b0 68bd 3730 a43b
00000370: 4fbf 073d 1bbd 583d 53d5 0dbd ffbd 693c
00000380: 2e37 5e3c 35e8 723c 6e30 5a3d 5936 e3bc
00000390: 33a0 a23c a62c 013d ba9c 3ebd e10a e6bc
000003a0: 9d43 abbc 082d 323d 02f3 be3a fec6 9a39
000003b0: d92f 4bbd 7737 44bd 18a3 c0bc 06ad 0dbc
000003c0: ea52 23bd bb89 173d a6b7 8cbc beff 2e3d
000003d0: 7e87 4a3d 58d5 59bc f6cc 5ebd 4ed3 b83c
000003e0: 0a4b 64bb ffda d03c 2a16 be3c 2125 453d
000003f0: da9b b03c 93a2 06bd 1f75 2c3d 3c75 0dbd
-0.008851437 0.026662948 0.00045860605 0.056986377 -0.027059589 -0.029725093 -0.05026053 0.0031292469
0.015920466 -0.044099003 0.028405298 0.025169613 0.029989846 -0.050874207 0.019348117 -0.0026816698
0.021617241 0.04213744 -0.007647531 0.046646256 -0.05085544 0.009139491 -0.014644166 0.045825277
-0.051535353 0.017258555 -0.049990855 0.043312248 -0.028722808 -0.005744885 0.047351558 -0.00054307526
-0.03538303 -0.017233994 -0.0016417657 -0.0054924586 0.03526414 -0.05214256 -0.053233735 0.03588641
0.043387473 0.048904434 -0.04245764 -0.03696366 0.016381184 0.024566233 0.017726738 0.014598091
-0.0346451 0.03268832 -0.057298176 0.032771863 -0.04120689 -0.055493947 -0.00865383 0.04857812
0.011148968 -0.0044486565 0.051610533 -0.032057736 -0.002497824 -0.0334976 -0.020471832 0.0017571008
0.0035679827 -0.035769593 0.03945513 -0.045157623 -0.008742136 -0.045654655 0.0155178085 -0.04620804
0.04501345 0.025386201 -0.038945988 -0.026093887 0.031585258 -0.057482302 -0.055621076 -0.007584726
0.021297468 0.0240351 0.01636799 0.009708266 -0.050160255 0.009172453 0.011141118 0.01659744
-0.041272294 0.03345155 0.053653166 0.013360739 0.010060028 0.0022400839 0.048606705 0.037077338
0.05191924 -0.04007341 0.00732074 -0.017341029 0.051190395 0.05171723 -0.016308311 -0.04703247
-0.028933857 -0.029902466 0.054122057 -0.022055803 0.055919994 -0.015292016 0.03723129 -0.004989988
-0.051660262 0.025544666 0.034632843 -0.041851323 -0.035251662 0.051939927 -0.02130379 -0.03522026
-0.020248557 0.043756608 0.010903128 0.027410291 0.01515708 -0.031342376 -0.004801719 0.05439912
-0.03476828 -0.014144571 0.046424884 -0.0069778464 -0.015841208 0.022579286 0.01493445 0.04966432
-0.017413206 0.055985834 0.0058844825 0.0019289827 0.034445543 -0.04179896 -0.02419793 -0.026421398
-0.052833896 0.0055401516 0.055179846 0.0559131 -0.033151373 0.002734922 -0.052178334 0.025733355
0.04118587 0.049537256 0.032316912 0.015253514 0.05291106 0.04691033 0.023372358 0.04051527
0.0010223481 0.032843966 0.03291699 -0.055274844 0.057757642 0.0153971715 0.0153088 0.014452977
-0.055796575 0.025921471 0.053124852 -0.015767436 0.015383037 -0.0054623988 0.049001593 -0.049341243
-0.04915849 -0.0028200177 0.02480523 0.008164626 -0.036793478 -0.04347395 -0.037543435 -0.03960799
-0.052319124 -0.045784995 -0.045368776 -0.01266892 0.053719867 0.017907951 -0.041774403 -0.011577485
0.054816946 0.04274734 0.01578288 0.027108425 0.040385418 -0.0369345 0.025979605 -0.004698483
0.016324103 -0.019692142 -0.018087683 0.03359162 -0.029478172 0.008681533 0.03079695 0.03464449
-0.051216926 0.033103522 -0.02303249 0.03556264 0.035056934 -0.014109279 -0.036760487 0.024329698
0.028461251 0.027437503 -0.05680868 0.0050106305 0.03314143 0.05291472 -0.03462727 0.01426649
0.013562961 0.01482587 0.053268842 -0.027735876 0.01985178 0.03153672 -0.046536185 -0.02808136
-0.020906264 0.043499976 0.0014568272 0.0002952143 -0.049606178 -0.047904458 -0.02351527 -0.008647209
-0.039873995 0.036996584 -0.017177414 0.042724364 0.04944562 -0.013295494 -0.054394685 0.022561695
-0.0034834766 0.02549505 0.023203928 0.048131112 0.02155869 -0.032869887 0.042103883 -0.03453563

bias f4 [12]
00000000: 7ca7 5ebc a61b 383d 48a8 c23c 04df 8b3c
00000010: 90f6 b8bc c03f 023d 3a46 0c3d ca21 f0bc
00000020: ec3b 2cbd e4ed 923c e0fd 84ba 12a3 5a3d
-0.013589736 0.044948243 0.023761883 0.017074116 -0.022578508 0.031799078 0.03424666 -0.029312987
-0.042049333 0.0179357 -0.0010146461 0.053378172

weight f4 [12]
00000000: 2d00 803f 0500 803f e1fe 7f3f 1800 803f
00000010: 3bfe 7f3f 6bfa 7f3f 3b00 803f acfa 7f3f
00000020: 3c00 803f cbf5 7f3f ccf8 7f3f 3e00 803f
1.0000054 1.0000006 0.9999829 1.0000029 0.999973 0.9999148 1.000007 0.9999187
1.0000072 0.99984425 0.9998901 1.0000074

bias f4 [12]
00000000: 02ca bd38 81e5 d338 1d15 5138 e51f 1c38
00000010: 77c0 e638 273a 8eb6 3bed 31b6 00d0 1ab9
00000020: 2e06 3539 29a9 1bb9 8261 17b9 596b 3638
9.049849e-05 0.000101040125 4.9849146e-05 3.7223002e-05 0.00011003104 -4.2386996e-06 -2.6513142e-06 -0.0001476407
0.00017263807 -0.00014844969 -0.00014436807 4.3492157e-05

running_mean f4 [12]
00000000: 896e d33d d7a9 923e 98e4 3a3e dda0 023f
00000010: d6a3 1abe 5cbe d8be 8486 60bc 12bd 443d
00000020: 48cc 163e 78c5 503c 2bd6 11be 0c78 c73e
0.10323817 0.28645203 0.18251264 0.5102671 -0.15101561 -0.42332733 -0.013703946 0.048031874
0.14726365 0.012742393 -0.14241855 0.38958776

running_var f4 [12]
00000000: b9f6 e63d ad77 5b3e e2e8 c23d e349 113e
00000010: 9fa4 853d a4d0 d33d f632 7b3d b75e 423d
00000020: d5e7 a03d ad6e 663e 1b9d 963d b987 203e
0.11277527 0.21432371 0.09517075 0.14188342 0.065255396 0.103425294 0.061327897 0.04745361
0.078567185 0.22503157 0.07354184 0.15676774

weight f4 [24, 12, 5, 5]
00000000: d708 533b 5a9a c43c 8774 95bc ffe4 f8bc
00000010: a2ad 36bd ed14 40bc aad4 5b3d d4da 1b3d
00000020: 0cc3 eebc 5116 21bb f90a 50bc 9054 55bd
00000030: 56c4 173d 213d b1bb 903b c43b 5b8a 30bc
00000040: 4754 e6bb 0233 62bd fbed c23c 2b20 d4ba
00000050: 6123 d73b 7d4b 0f3d cae3 febc 22a3 48bd
00000060: 999a 593d 7e08 13bd bbe4 8bbc ab7f 1b3d
00000070: f468 51bd 3a1b 9e3c bc7a 23bd 1327 32bd
00000080: a7d6 c8bc 4637 0e3d d6e2 443d 206f d7bc
00000090: f5ed 573d 5855 133d 0f83 e7bc be27 bbbc
000000a0: b8c3 30bd 7e66 8f3c 9efa 503d f767 913c
000000b0: d9a2 0a3d 2b16 3bbd e56a d7bc fb26 e8bc
000000c0: baa3 cbbb 2259 653d 291a 59bd 4cda 093c
000000d0: bdc1 06bd fba9 d7bc 3163 f3bc 45f2 2fbd
000000e0: 1063 0ebd 86b0 dc3c bfca adba 2006 d93c
000000f0: e6ca eb3c d6ba fe3b f441 0e3d d06a 1b3d
00000100: 303d f2bc 7bf5 d23b 7d83 2abd b737 5b3c
00000110: e7f7 163d db71 d2bb 4b9f c53c 5772 b53c
00000120: 07c1 b6bc fe56 2d3d 9275 cfbc 3a8a f63c
00000130: 2e27 04bd bae3 853c 76d7 24bd 877b 2abc
00000140: 553f 57bd 9d49 0bbd 19c9 0dbc 2231 2bbd
00000150: 42b0 63bd 3b7c 1e3a ca27 c8bc 36a0 1cbd
00000160: 2414 afbc 798f 8fbc f70f 303d e9ee 3eba
00000170: 9699 053d 4b6f 153d 9ad6 2b3d f875 40bd
00000180: f6d0 c73c 1406 bc3a b7d2 07bd aa6a d23c
00000190: ce0f 213d b1f9 d73c 6a77 ee3c 61f2 833b
000001a0: c390 14bd 96f8 1f3d 2bcd ed3c a842 59bd
000001b0: a7cd 343d a5ad 0d3d 3b3b 54b9 436d fe3b
000001c0: 56a4 e33c 1c41 65bb f1a9 b8ba dc5b 023d
000001d0: 453c 563b b299 41bd 5e37 3dbd b774 12bc
000001e0: 9e1d ad3a 2bfc 4c3d 70b8 473d 5e9b b8bc
000001f0: a6aa 373d 78dc efba e619 5d3c d6a9 2abc
00000200: 35be 58bc b2b3 6a3d 72e4 16bd dae4 ee3b
00000210: 3e26 49bd ee8a 953c ad5e f63c ed2a 15bd
00000220: e2d4 c8bb 393c 8a3c 2d21 09bd 7dd4 1cbd
00000230: 13a2 21bc 60b1 353d 1e01 5f3d 9348 05bd
00000240: eab3 22bd 4f38 8c3c b538 d63a 7058 c83c
00000250: cf10 0e3d 884d a93c 15dc 433d 9289 12bc
00000260: 6a3b 203d 5436 383d bc04 7abc 1a4f 213d
00000270: 6c2f 353d fd55 2fbd 110b e43c 9bcb 363c
00000280: aa8b 433d 2e70 bebc df39 e13c cd37 3dbd
00000290: 8055 613c 2839 c23c c421 173d 6f25 e8bc
000002a0: 8dc0 04bd 7daf 0cba f264 05bd 17bb cbbc
000002b0: 01ab 983c 87f1 313d c88a 083d ddd4 96bc
000002c0: f7a5 d63c 9346 40bd 50ad dbbc 60b8 0a3d
000002d0: 1c49 4abd d499 aa3c 8d9c 1dbd 3f9d 083b
000002e0: d7ea 42bd 9973 c73c 049b b33c 63cf 313d
000002f0: 2257 09bb 0dc7 783c 4dfc 453d f6a3 efba
00000300: 5d56 413c ae58 c23c 782b 9fbc 8b5a b3bc
00000310: 83d2 59bc bc57 443d c1a7 b3bc 6eda 523d
00000320: 6bf2 693c 1793 90bc abfe 3e3d 2d33 45bd
00000330: 3d00 163b 4695 dd3c 757a 1a3d a1ce 343c
00000340: a849 acbc 5b93 5f3c 88c1 6c3c 4975 89bc
00000350: 9cc6 743c cc37 30bd 2a0d 613d 4713 68bd
00000360: 9951 4e3b 4d28 cf3b 748c 20bd 48f6 28bb
00000370: c500 14bd cc9b 233d 42da 5c3d f85f 103c
00000380: 826d 473d 5fe2 3f3d 5449 53bd bdce 523d
00000390: 442a 5f3c b844 f23c fbd3 56ba 8658 c3bb
000003a0: 814e 64bc b083 48bd b68b e23c 64aa dcbc
000003b0: 5df1 82bc a82f d2bc 561c 973c de4d 4bbb
000003c0: 502c 58bd 560a 42bd 5870 433b aa4c 4f3c
000003d0: 8ff4 93bc e10d 37bc 1c91 973c 1155 3d3d
000003e0: 9f76 be3c f870 00bd f166 1cbd 2062 18bd
000003f0: dcb7 ce3c 26be 6abc 1d1d 973c ee2a c2bc
0.0032201314 0.023999382 -0.018244041 -0.030382631 -0.044599183 -0.011723739 0.05366961 0.038050488
-0.02914574 -0.0024579952 -0.012697929 -0.0520826 0.037052475 -0.0054088985 0.0059885457 -0.010775174
-0.0070290896 -0.055224426 0.023795119 -0.0016183903 0.006565497 0.0349841 -0.031114478 -0.0489837
0.05312595 -0.03589677 -0.01707684 0.03796355 -0.05112548 0.019300092 -0.03991197 -0.043494295
-0.024516417 0.03472068 0.04806789 -0.026298106 0.052717168 0.035970062 -0.028260736 -0.022846099
-0.043155402 0.017504927 0.051020257 0.01774977 0.03384671 -0.045675438 -0.026296088 -0.0283389
-0.006214586 0.055993207 -0.053003464 0.008413862 -0.032899607 -0.02632617 -0.029710384 -0.042955656
-0.034762442 0.026939642 -0.0013259276 0.026492178 0.028783273 0.0077737374 0.034730867 0.03794366
-0.029570192 0.006437955 -0.041629303 0.013379983 0.03685751 -0.006422264 0.024123808 0.022149248
-0.02230884 0.04231929 -0.025324617 0.030095208 -0.032263927 0.01634394 -0.040244542 -0.010405428
-0.052550633 -0.03400575 -0.008653902 -0.041794904 -0.055588014 0.00060457335 -0.024433035 -0.038238727
-0.021371908 -0.017524468 0.042983975 -0.0007283525 0.032617174 0.03648309 0.041952707 -0.046987504
0.024391633 0.0014345073 -0.033159938 0.025685627 0.039321713 0.02636418 0.029109675 0.0040266966
-0.036270868 0.03905543 0.029028496 -0.053042084 0.044141438 0.03458943 -0.0002023996 0.00776449
0.027788322 -0.0034981435 -0.0014088732 0.031825885 0.0032689732 -0.047265716 -0.04619538 -0.00893896
0.0013207679 0.050045174 0.048759878 -0.022535022 0.044840477 -0.0018299958 0.013494944 -0.010416469
-0.013228943 0.057300277 -0.036838956 0.007290465 -0.049108736 0.018254723 0.030074442 -0.03641789
-0.0061288932 0.01687442 -0.033478905 -0.038288582 -0.009865302 0.04435861 0.054444425 -0.032539915
-0.03972236 0.017116694 0.0016343804 0.024456233 0.034684 0.020666853 0.04781731 -0.008943932
0.03911916 0.044973686 -0.015259918 0.039382078 0.04423468 -0.042806614 0.027837308 0.011156942
0.047740616 -0.02324685 0.027493415 -0.046195794 0.013753295 0.023708895 0.036897436 -0.028338162
-0.032410193 -0.0005366726 -0.032566972 -0.024869485 0.018636229 0.04344323 0.033335477 -0.018412048
0.026202185 -0.046942305 -0.02681604 0.03386724 -0.04938613 0.020825304 -0.038479377 0.002084568
-0.047587242 0.024347113 0.021924503 0.04341067 -0.0020956476 0.015184176 0.048336316 -0.0018283117
0.011800376 0.023723926 -0.019429907 -0.02189376 -0.013294819 0.047935233 -0.021930577 0.051477842
0.014278988 -0.017648263 0.04662959 -0.04814451 0.0022888326 0.027048718 0.03771444 0.011035592
-0.021031216 0.013645972 0.014450438 -0.016779559 0.01493993 -0.043021962 0.054944195 -0.05665901
0.0031481741 0.006321943 -0.039196447 -0.002578156 -0.036133546 0.0399435 0.053919084 0.008811943
0.04868842 0.046846744 -0.051583603 0.051466692 0.013620917 0.029573783 -0.00081950397 -0.0059614806
-0.013934732 -0.048953712 0.02765451 -0.026936717 -0.015984232 -0.02565749 0.018446129 -0.0031021754
-0.052776635 -0.04737314 0.00298216 0.0126525555 -0.01806095 -0.011172743 0.01850181 0.046223704
0.023249922 -0.031357735 -0.03818411 -0.037202954 0.025234155 -0.0143275615 0.0184465 -0.023702111

bias f4 [24]
00000000: 3805 953b 102f fc3b b4e3 62bd 14c6 9b3c
00000010: 0d23 5abd 20b3 ddba 7804 623d f09c 6a3d
00000020: 98ab bcbc aeaa 30bd b67b 1c3d 883c 1bbd
00000030: 00e6 d13a 2c53 5abc 884e 88bb e7ec 2ebd
00000040: 1611 88bc a8cd 373c 906e 543c 2aef 1f3d
00000050: 28d5 3e3c 8097 77bb 4a37 22bd 4c90 d73c
0.0045477413 0.00769604 -0.055392936 0.01901535 -0.053256083 -0.0016914345 0.055180043 0.057278574
-0.023031041 -0.043131523 0.038203917 -0.037899524 0.001601398 -0.013325494 -0.0041597523 -0.042706396
-0.01660971 0.011218466 0.012965813 0.039046444 0.0116475 -0.003777951 -0.03960351 0.026313923

weight f4 [24]
00000000: 3f00 803f 2300 803f e1ff 7f3f 7ffc 7f3f
00000010: 33fa 7f3f 74f9 7f3f 43fb 7f3f 1000 803f
00000020: 2dfe 7f3f cbf7 7f3f dcfd 7f3f c7f1 7f3f
00000030: 9100 803f 0300 803f 0bfc 7f3f 6600 803f
00000040: 8fff 7f3f 1c00 803f 1800 803f 3100 803f
00000050: 18f9 7f3f 3500 803f 13fd 7f3f 4d00 803f
1.0000075 1.0000042 0.99999815 0.99994653 0.9999115 0.9999001 0.9999277 1.0000019
0.99997216 0.9998748 0.99996734 0.999783 1.0000173 1.0000004 0.9999396 1.0000122
0.99999326 1.0000033 1.0000029 1.0000058 0.9998946 1.0000063 0.99995536 1.0000092

bias f4 [24]
00000000: 8ae9 6a38 6318 8137 7bb9 2539 f14c 8bb8
00000010: 0401 01b9 d68e 90b8 f010 6db8 5b06 db37
00000020: a7c6 2538 3eb9 82b8 1f91 89b7 2eba 2fb9
00000030: e563 0439 5bfe b537 d7e0 f1b6 8ca6 0b39
00000040: 1b94 66b8 f851 5f38 f07b 21b7 c6b5 2339
00000050: 16c9 89b8 1750 c738 e41a b0b7 51c0 0939
5.6007448e-05 1.5389354e-05 0.00015804723 -6.642368e-05 -0.00012302777 -6.89306e-05 -5.6520978e-05 2.6109794e-05
3.9524075e-05 -6.233387e-05 -1.639925e-05 -0.00016758658 0.00012625715 2.1695325e-05 -7.2085345e-06 0.00013318117
-5.4974207e-05 5.3243682e-05 -9.625204e-06 0.00015612607 -6.570124e-05 9.503977e-05 -2.0993357e-05 0.00013136982

running_mean f4 [24]
00000000: 26f4 5c3e d9c5 36be 2d9f 70be 7a87 153f
00000010: 586a 0abe 6eee f13d ff3a 59bc 6740 0d3e
00000020: c7f9 103e c2bb e0be 7698 a83e e3cf d8bd
00000030: 4f42 28bf 9cf6 893d fe42 e2bc 0383 25be
00000040: a768 323c 9e8d 733d 0f3c 78be 9642 623e
00000050: 5891 873e 1625 7abe e475 15bf 4847 123f
0.2157751 -0.1784891 -0.2349822 0.58409846 -0.1351713 0.11813055 -0.013258695 0.13794099
0.14157782 -0.43893248 0.32928818 -0.10586526 -0.6572618 0.0673649 -0.027619835 -0.16163258
0.010889209 0.05946123 -0.2424166 0.22095713 0.26478076 -0.2442821 -0.5838301 0.57140017

running_var f4 [24]
00000000: eb42 f43d cb05 453e c282 663e eef5 883e
00000010: a031 413e d5cd f83d a595 153e d972 083e
00000020: bad1 3b3e 4bf4 3c3e 9dce 893e 17b0 483e
00000030: 12b7 ce3e 4768 0d3e 2010 8a3e fd67 6c3e
00000040: b7a3 613e f418 123e 45a3 1f3e a2b4 433e
00000050: 4193 153e 43ed 663e c46c 2d3e 9df8 873e
0.11926826 0.19240491 0.22510818 0.2675013 0.18866587 0.12148634 0.14607866 0.13325061
0.18341723 0.18452565 0.26915446 0.19598423 0.40374047 0.1380931 0.26965427 0.23086543
0.22035109 0.14267331 0.15589626 0.19111875 0.14606954 0.22551446 0.16936022 0.26556864

weight f4 [24, 24, 5, 5]
00000000: ffab 193c ef6f c0bb f5cd 5d3c dda2 1b3d
00000010: e69b 22bd f786 21bd 3b64 f7bc 9828 97b7
00000020: 9d4b 6dbc 3bd7 04bc a090 6f3b 3709 c0bc
00000030: 5fa1 fe3c 3738 04bd a56d 69bc 78c2 0bbd
00000040: 1010 c7bc 8d5b 84bc 89e2 23bc aa5a 1cbd
00000050: 2f77 57bc 8de4 9eba 129d cfbc 3472 103a
00000060: 7217 20bd 27d7 8dbc b780 61bb 46d7 d4bb
00000070: 72bb f93c fbf6 58bc be2e 1fbd ada7 06bd
00000080: 0942 d73c f8c4 a9bc 30a2 19bd 1e43 343c
00000090: 7efb ee3c d652 86bc 73d2 ff3b f1f1 0fbd
000000a0: a9ac bfbb 2cf4 f33c c964 a0bb da5d 63bb
000000b0: 3164 a33b 7f86 21bd 6fca 5bbc 41a7 ddbc
000000c0: 856b f8bb baf3 a43c 3be9 c13c 9ed0 943c
000000d0: 3fa5 b9bc 1985 f63c cdf2 fe3c a040 c33c
000000e0: f4f8 a9bc 69c7 8f3c 928b a0bc 9223 ed3c
000000f0: 6ce6 0ebd 4cbf e93a 3d1c 21bd 3e1e 33bc
00000100: 82cc dd3c 3ae6 5b3b 29d0 0ebb 9568 243d
00000110: 022d 9abc d01e 953c a42b 1ebd 1f4c eebc
00000120: b2f6 f83c 89cb a93c 0102 cbbc 8289 f9bc
00000130: a6d3 b93c 9a37 ccbc f422 6d3b b911 1a3d
00000140: b23d 16bb 08b1 02bc d4df c53c 2d63 c23c
00000150: 3fe8 71bb ba7b d93c 9a8a 8d3c 3088 a9bc
00000160: 7936 483c 1632 4c3b f983 383b 5a5a b0bc
00000170: c36b 8bbc 4928 973b 85c7 0ebd 78a2 0ebc
00000180: 7e5a 023d 7cf3 af3c 83a3 1fbd f94b 5b3c
00000190: 126d 883c 674c 19bd 911a c3bb 70a8 d5bc
000001a0: 12c7 15bd ab88 7dbc 8142 94bb 04e4 10bc
000001b0: eccd 0bbd 13a4 f43c d1d0 093d 1b7b bd3c
000001c0: e97e 98bc 6929 d13c 6085 c43c c316 1cbd
000001d0: 6f73 ecbb 4f50 b03c a641 b0bc e4a8 ee3c
000001e0: 6308 653c a84b 183d f088 9c3b be9c 023d
000001f0: 840c 453c d698 20bd 6e50 9b3a b918 9abc
00000200: d33b 19bd dc7d 11bd 0763 583c 2889 583c
00000210: a98e c2bc 9294 ca3c e345 313c bc92 1fbb
00000220: b132 123d 3bed 053d 7d91 f53c 53ac 3d3b
00000230: 8ba8 febc 8ec8 20bd 6cbe 00bd 9160 d83c
00000240: 0af3 263d 9270 943c 5bcd 24bd c063 013d
00000250: f862 1c3d 3074 5abc 9884 d5bc 78cf 1dbd
00000260: 30f5 a3bc 8ac0 263d 6b9c 18bd b4fd 1bbd
00000270: 5cb3 0cbd 5048 8bbc f2d7 73bc 72e5 9e3c
00000280: ad7f b93b d085 a23c f00d f53c 7b91 a4bc
00000290: 0ae7 9a3b 0cad 25bd 6a5b 093d b892 44bc
000002a0: 7a9b 143d 5359 7b39 9898 dbbc 7338 1abc
000002b0: b405 073d f7b7 e83b a331 a03b 6837 93bb
000002c0: 2961 623c e8b7 02bc c405 12bd 44a9 6dbc
000002d0: 9ca8 843c c071 25bb 101e 16bd 63cd 9dbc
000002e0: 7903 be3c bc38 18bc 377d e83c 5a46 05bd
000002f0: 2107 b7bc 7ae0 753a 80af 1a3c 5261 c7bc
00000300: 66a1 a8bc 3aef 083c 9196 e73c ca16 e5bb
00000310: 6bd4 fa3c bfda 17bd 718f bf3b 4218 98bc
00000320: dc74 1bbc b22b 81ba b875 043d 4e9c 83bb
00000330: fb35 073d b905 13bc f0ab 093d be8a 283c
00000340: 50a3 01bd 0462 5a3c 87ff 6fbc 37df e63b
00000350: ba5b ecbb e836 043d e789 6ebc d61f d23c
00000360: 7a12 003d 10be 1e3c fa5b 17bd 3876 173d
00000370: 7144 e03c d04b b9bc 1885 19bd 2d90 b93c
00000380: 253f e9bc 1ddb 253d 7ceb a03c 829a 5abc
00000390: f985 8fbc db01 123d b34c c6bc 2e35 f73b
000003a0: 78e8 b6bc baaf 87bc 1362 943c b618 e83b
000003b0: 0395 263d 4d3d c4bc 3371 9e3c 1d17 1f3d
000003c0: f5c1 ddbc 65a1 243d 1c5b f5bc bce4 b0bc
000003d0: e6a7 af3c 4b13 173c 2700 2c3c 5ccd 1ebd
000003e0: ad5a 16bd e091 b73c d8d3 023d 1c50 973c
000003f0: cf70 acbc 3459 01bd 808e eb3c 8a39 1abd
0.009379386 -0.0058727185 0.0135378735 0.037997115 -0.039699458 -0.039435353 -0.03019916 -1.8019506e-05
-0.01448336 -0.008107956 0.003655471 -0.023441894 0.031082807 -0.032280173 -0.014247333 -0.034121007
-0.024299651 -0.016156936 -0.010002741 -0.0381724 -0.013150974 -0.0012122557 -0.025343452 0.00055101817
-0.03908486 -0.017314507 -0.0034408995 -0.006495389 0.030484889 -0.0132424785 -0.038862936 -0.03287475
0.026276605 -0.020723805 -0.03750819 0.01100233 0.029172655 -0.016396921 0.00780707 -0.035142843
-0.00584944 0.029779516 -0.004894827 -0.003469339 0.004986309 -0.039434906 -0.013414963 -0.027057292
-0.0075811767 0.02013575 0.023670783 0.018165883 -0.022661803 0.030092763 0.031121636 0.023834527
-0.020748593 0.01755114 -0.019597802 0.028947625 -0.034887716 0.00178335 -0.03933357 -0.010932503
0.027075056 0.0033553974 -0.0021791554 0.0401388 -0.01882029 0.01820317 -0.038615838 -0.029089032
0.030391071 0.020726936 -0.024781229 -0.030461077 0.02268393 -0.024928857 0.0036184164 0.037614558
-0.0022924957 -0.007976778 0.024154581 0.023728931 -0.003691211 0.026548255 0.017278004 -0.020694822
0.012220019 0.0031157783 0.0028154834 -0.021527458 -0.017019158 0.0046129567 -0.034858245 -0.008705728
0.03182458 0.021478407 -0.038974296 0.0133848125 0.016653571 -0.03742638 -0.0059540947 -0.026081294
-0.0365668 -0.015474479 -0.0045245294 -0.008843426 -0.03413193 0.029863393 0.03364641 0.02312999
-0.018615203 0.025532441 0.02398938 -0.038107645 -0.007215909 0.02152267 -0.021515679 0.029133268
0.01397905 0.037181526 0.0047770664 0.031887762 0.01202691 -0.039208256 0.0011849531 -0.018810617
-0.03741057 -0.03552042 0.013207204 0.013216294 -0.023749666 0.024729047 0.010819885 -0.0024348935
0.035692874 0.032696944 0.0299766 0.0028941825 -0.031086227 -0.039253764 -0.0314316 0.026413234
0.040759124 0.018120084 -0.040234905 0.03158927 0.03818032 -0.013333365 -0.026064202 -0.038527936
-0.020014375 0.040710963 -0.037258547 -0.038083747 -0.034350738 -0.017002255 -0.014883028 0.019396517
0.005660972 0.019839197 0.029913872 -0.020088902 0.004727249 -0.040448233 0.033534445 -0.011997871
0.036281087 0.00023970501 -0.02680616 -0.009412873 0.032964423 0.0071020084 0.0048887297 -0.004492689
0.01381711 -0.007978417 -0.03565003 -0.014505688 0.01619368 -0.0025244802 -0.036649764 -0.019262975
0.023195015 -0.00929087 0.02838002 -0.032537796 -0.022342267 0.0009379458 0.0094412565 -0.024338398
-0.020584773 0.008357817 0.028270038 -0.006991242 0.030618867 -0.037073847 0.005845957 -0.018566255
-0.009488311 -0.0009854941 0.032338828 -0.0040164357 0.033010464 -0.008973532 0.033611238 0.010286985
-0.031649888 0.013329033 -0.014648325 0.0070456523 -0.007213083 0.032278925 -0.014559246 0.025649946
0.03126762 0.009688869 -0.03695295 0.036977977 0.027376385 -0.022619158 -0.037480444 0.022651756
-0.028472492 0.040492166 0.019643538 -0.013342502 -0.017519938 0.0356463 -0.024206495 0.0075441813
-0.022327647 -0.016563285 0.018113172 0.007083024 0.040669452 -0.023955012 0.019341087 0.038840402
-0.027070025 0.04019298 -0.02995067 -0.021593444 0.021442365 0.009220908 0.010498083 -0.038770065
-0.03670757 0.022408426 0.03194031 0.018470816 -0.021049885 -0.03157921 0.028754473 -0.03765253

bias f4 [24]
00000000: 30c3 153d fc04 043c 00f5 7c3b 64a7 14bd
00000010: f8fb bdbc 3ed1 12bd 9689 8cbc 2e99 8a3c
00000020: 3fb6 93bc d05e 64bc 087a 58bc 8837 87bb
00000030: 7cfe 7a3c 0d33 d0bc 5244 3abc f048 9b3b
00000040: 90dc 47bb c68d 0b3d 64b9 103d 24d8 ebbc
00000050: 32d8 7fbc 9cc5 ca3c 3433 65bc 0066 47b9
0.0365631 0.008057829 0.003859818 -0.03629245 -0.023191437 -0.03584408 -0.01715545 0.016918745
-0.018031238 -0.013938621 -0.013212688 -0.004126493 0.015319463 -0.025414968 -0.011368828 0.0047389194
-0.0030496456 0.034070753 0.035333052 -0.028789587 -0.01561551 0.02475243 -0.013989259 -0.00019016117

weight f4 [24]
00000000: 2200 803f 4000 803f 6201 803f 7100 803f
00000010: 3b00 803f 3eff 7f3f ae00 803f cf00 803f
00000020: 5800 803f 2900 803f 5300 803f 54fc 7f3f
00000030: 1a00 803f 4bfb 7f3f 2d00 803f d3fc 7f3f
00000040: b5fd 7f3f 2300 803f 46ff 7f3f 9e00 803f
00000050: 0e00 803f 2300 803f 5000 803f 1900 803f
1.000004 1.0000076 1.0000422 1.0000135 1.000007 0.99998844 1.0000207 1.0000247
1.0000105 1.0000049 1.0000099 0.999944 1.0000031 0.9999282 1.0000054 0.99995154
0.999965 1.0000042 0.9999889 1.0000188 1.0000017 1.0000042 1.0000095 1.000003

bias f4 [24]
00000000: 6f3d 0039 9867 0239 07da 1f39 9d7a fe38
00000010: 8872 0a39 38c2 f638 0504 5739 b41e 3b39
00000020: 699f fa38 6144 0939 aaf8 4239 301b cab7
00000030: 3aa7 e338 572b a437 98aa e738 8fb5 05b9
00000040: dd81 98b8 f1c0 b838 b2a0 eb38 3400 2d39
00000050: 4d82 7037 f6c0 7238 6514 0a39 bc2f e338
0.00012229917 0.00012436358 0.00015244643 0.00012134502 0.00013203372 0.0001176637 0.00020505495 0.00017845148
0.000119506214 0.00013090811 0.00018593916 -2.4092937e-05 0.00010855352 1.9570505e-05 0.00011046714 -0.00012751504
-7.272114e-05 8.809742e-05 0.00011235605 0.00016498641 1.4335453e-05 5.7877005e-05 0.00013168303 0.00010833095

running_mean f4 [24]
00000000: 31e6 81be bb7e 9a3b a475 37bd c76d 913e
00000010: 2f4d 28bd ab1b 8f3e f51c f3be 56e9 0abe
00000020: 1a0c dfbc 2f4f dfbd d511 d43d 02da 153e
00000030: 2f19 7fbd b121 26bd 4f53 5c3d 8943 8d3e
00000040: 1144 d3be aeac f33d c220 8a3e f803 823e
00000050: 2468 343e cc9f 253e 72cb cabc 00b4 4bbe
-0.25370935 0.0047148145 -0.044789925 0.28404066 -0.041089233 0.27950796 -0.4748303 -0.13565573
-0.02722745 -0.10903775 0.10354964 0.14633945 -0.062279876 -0.040559474 0.053790387 0.27590588
-0.41262868 0.118981704 0.26978117 0.25393653 0.17617851 0.16174239 -0.024755213 -0.19892883

running_var f4 [24]
00000000: 7d24 003e ec32 013e 2f83 413e d70b a13d
00000010: 327e e13d 0d25 ea3d 0af1 793e 90e4 bd3d
00000020: 6743 d53d d671 d53d 6313 ea3d af6d 9e3d
00000030: a369 d43d 1478 143e 33aa 1e3e 594e 203e
00000040: 789b e73d 26d3 b03d 7164 fe3d c438 053e
00000050: bb1b 093e 70f6 f93d f86e cb3d 62de 043e
0.12513919 0.12617081 0.18897699 0.078635864 0.11010398 0.11432848 0.24408355 0.092721105
0.104132466 0.10422103 0.11429479 0.07735764 0.10371711 0.14498931 0.15494613 0.15654887
0.1130895 0.08634023 0.124215014 0.13009936 0.13389485 0.12205207 0.09933275 0.12975457

weight f4 [10, 16224]
00000000: e47b 1f3b a884 14bb 61c8 f7b8 d7f4 de3b
00000010: c25c a737 3fdf 3e3a f32f c03b dc86 ed3b
00000020: 5d10 9139 b203 68bb c78e a43b 6976 b23a
00000030: 88a7 fc3b 1cd9 33ba 7712 d93b 3a89 763b
00000040: 79ab f33b 3edd aabb 331e e43b 39df 00bc
00000050: 448e af3a 5fb5 45ba 520b d6bb ab10 fcba
00000060: bab8 8c39 4612 d4bb f3e9 173b 09a8 633b
00000070: b2c4 853b ee6d de3b e332 f2ba 86ce a03a
00000080: 8e71 c53b e143 5f39 87db 8ebb 8ad1 88ba
00000090: 58bf a33b 55b1 1c3b 8d4a d4bb 0042 f9ba
000000a0: 338e 583b 0b32 a1bb 05b0 5fbb 228a 093b
000000b0: 5e51 37ba 94c9 1cba e9b0 dfbb a67f a43b
000000c0: e548 4a3b 3446 99bb fad1 8e3b 920a fd3b
000000d0: 23dd d53b 5624 e63b 144a cdbb 7fd4 0a3b
000000e0: 2774 8abb 5257 8e3b f8f1 423b c3ae 873b
000000f0: b706 bc3a ac68 d2b9 5e14 923b 263d 5839
00000100: f078 93bb 77d3 c5bb 5634 203a da5e 44bb
00000110: b3ec 463b de70 3f3b 5b83 bcba e0c0 b23b
00000120: 4a64 0abb 36b0 d33b e6f7 9e3b 3818 be3b
00000130: 35c9 863a aee4 c53b c22c 3eba c70f 83bb
00000140: 3886 ee3b 6039 f63a 2c84 823b 7701 f23b
00000150: 2710 f8ba 897d 5c3a 49f1 ebbb 8c82 8dbb
00000160: 44c1 9ebb 5e10 fd39 905d f23b 59af 82bb
00000170: e4d4 0f3b a753 54bb 5bf4 7fba 5573 263b
00000180: 4450 77bb 57f3 e53b 506d 9abb 7118 30ba
00000190: 8cb6 ad3b 4057 3e3b 6bb3 dc39 fd15 82ba
000001a0: cb9d acbb d61c dc39 6901 b73b a770 cdba
000001b0: 0016 dc3b 53cb dcbb ed96 9f3b 3ac1 cd3b
000001c0: 1fdd dfbb 7a2b fe3b 9df6 e8ba 7b7a 8bbb
000001d0: 2241 8c3a 6fe5 f9bb d05e 9b3b c3d2 a4bb
000001e0: 51af abbb 3c59 7fbb 93ab 963b 328a c03a
000001f0: 0afb 8b3b 6338 ae3b 11bd c33b 18ef 823a
00000200: a7f3 133b 64e7 bbbb 4f0e f5bb 3683 76bb
00000210: 7ba4 ef3b f0ce 853a c79e 58bb a883 eb3b
00000220: d3b7 653b 0b91 f8ba e34f 38bb 5623 54bb
00000230: 3d6c 6dbb 5d00 70bb 5830 9c3b 167f 413b
00000240: c655 613a ac93 fb3b 42f5 fe39 6229 82bb
00000250: d827 79bb f138 06bb 2836 debb 9a8d dc3b
00000260: d912 abb9 f249 96bb c0fc f5bb c8dc 833b
00000270: 1953 29bb 2111 02bc 2f73 f53b c65a cf3b
00000280: d951 2cbb c88c 663b 6992 a6bb 3fdc cb3b
00000290: 1922 cebb 6b15 f93b a89e b13b dc83 9bbb
000002a0: b664 513b dfc3 e73b 3946 eabb a588 8e3b
000002b0: 5154 253b 108a 8c3b c34e 1bbb 9b36 f238
000002c0: dba3 ef3b 5c24 0aba b890 22bb 9063 fb3b
000002d0: e730 0e3b 1626 88bb 5ccc 1239 84a3 a13a
000002e0: e438 8a3b c23a c23a 60d9 0a39 601f 01bb
000002f0: 8290 c6ba 778d 5b3a bf68 57bb 9988 233b
00000300: be41 d5bb 9e06 f6b8 e06b b8bb 4585 2f3b
00000310: 9647 ed3b 1f7c babb 938e 8fb9 748f 1e3b
00000320: 08f0 563b fb3b 8fba ff83 54bb 4bbd a4bb
00000330: b79c 8fbb 11ad 5f3b b744 28bb e445 f83b
00000340: 2fd5 a43b 84a7 82ba 2c41 e83a 8bea bdba
00000350: 83e7 ef3b 07a3 b13b 365d a23a dc75 50bb
00000360: 2ac7 87bb 45b7 b53a 374a cf3b 68c3 8239
00000370: bcc1 81bb 11eb 95bb 78e3 6f3b 31eb 8bba
00000380: 47e9 2f3b b565 e0bb 16a5 7a3b 80e2 27bb
00000390: d86f f0bb e480 9c3b be1a fa3b 1dd1 18bb
000003a0: f90e c4bb 1f3c 2f3b d4d2 48bb b0b0 88bb
000003b0: 4f6f 063a de78 87bb 676f 8b3b baa3 153b
000003c0: d4d9 7a3b 443a 2e3b 4eba ef3b ef2e 9a3b
000003d0: e8c0 d23a 8852 63bb dee0 61bb cbb3 25bb
000003e0: a4a0 b53b 6d3b c4bb 5bda 63bb 6aa8 cdbb
000003f0: a29f b6bb e0bd 423a 9a69 f63b 9a37 833b
0.002433532 -0.0022662077 -0.00011815201 0.0068040895 1.9951145e-05 0.0007281191 0.005865091 0.0072487425
0.00027668747 -0.0035402593 0.005021903 0.0013615611 0.007710401 -0.000686066 0.0066245156 0.0037618414
0.0074362126 -0.0052143624 0.006961608 -0.00786572 0.0013393839 -0.000754198 -0.006532111 -0.0019231042
0.00026840513 -0.006471905 0.0023180216 0.0034737608 0.004082286 0.006788007 -0.00184783 0.001226858
0.0060254997 0.00021292224 -0.004359666 -0.0010438424 0.004997175 0.002390941 -0.0064786137 -0.0019016862
0.0033043742 -0.0049192957 -0.0034132015 0.0020986875 -0.00069930207 -0.0005980965 -0.0068265093 0.0050200997
0.0030866202 -0.0046775583 0.0043585273 0.0077222073 0.0065266057 0.0070233746 -0.0062649343 0.0021183786
-0.004225272 0.0043439055 0.0029746275 0.0041407063 0.0014345263 -0.00040132308 0.0044579944 0.00020622145
-0.004500501 -0.0060371715 0.0006111314 -0.0029963762 0.0030353486 0.0029211561 -0.0014382409 0.0054551214
-0.0021116906 0.006460215 0.004851329 0.005801227 0.0010283353 0.0060392236 -0.0007254594 -0.0039996835
0.0072791837 0.001878541 0.0039830413 0.0073854285 -0.0018925712 0.000841104 -0.0072003943 -0.004318541
-0.0048448164 0.00048268115 0.0073964074 -0.003988188 0.002194696 -0.0032398493 -0.000976389 0.0025398333
-0.003773705 0.0070175338 -0.004712738 -0.0006717509 0.0053013023 0.0029043704 0.00042095347 -0.0009924766
-0.005267834 0.00041983154 0.005584885 -0.0015673832 0.00671649 -0.0067381053 0.0048702867 0.006279138
-0.0068317796 0.0077566477 -0.0017773692 -0.004256544 0.0010700563 -0.0076262276 0.004741527 -0.0050300076
-0.005239405 -0.00389631 0.00459809 0.0014689623 0.0042718695 0.0053167804 0.005973466 0.0009989468
0.0022575648 -0.005734371 -0.0074785124 -0.003761483 0.007313309 0.0010208767 -0.0033053623 0.0071873255
0.0035052195 -0.0018964125 -0.0028123788 -0.0032369695 -0.0036227845 -0.003662131 0.004766505 0.0029525212
0.000859585 0.007677516 0.00048629387 -0.0039722184 -0.0038018133 -0.0020480717 -0.0067813583 0.0067307474
-0.00032629704 -0.0045864517 -0.007506937 0.004024122 -0.0025836884 -0.007938654 0.0074905376 0.0063279597
-0.0026293902 0.0035179127 -0.0050833714 0.0062213237 -0.006290686 0.00760143 0.0054205246 -0.0047459435
0.0031950898 0.00707291 -0.0071494845 0.0043497854 0.0025227258 0.0042889193 -0.0023698069 0.0001154963
0.0073132343 -0.00052697 -0.0024805497 0.007671781 0.0021696629 -0.004154931 0.00013999775 0.0012332057
0.0042182077 0.0014818537 0.00013241684 -0.001970254 -0.0015149268 0.0008375267 -0.003286883 0.0024953245
-0.006508081 -0.00011731427 -0.005628094 0.0026782316 0.0072411997 -0.005691066 -0.00027381312 0.0024194391
0.0032796878 -0.001092791 -0.0032427309 -0.0050274483 -0.0043826955 0.0034130255 -0.0025675723 0.007576691
0.0050302963 -0.0009968136 0.0017719618 -0.0014489455 0.0073212995 0.0054210457 0.0012387398 -0.003180853
-0.0041436153 0.0013863823 0.006325986 0.0002494112 -0.0039598625 -0.0045751412 0.0036604088 -0.0010674951
0.0026841925 -0.006848062 0.0038245372 -0.0025617182 -0.0073375516 0.004776107 0.0076325824 -0.0023318
-0.00598323 0.0026738716 -0.0030643241 -0.0041714534 0.00051282806 -0.0041342815 0.0042552236 0.0022833184
0.0038276808 0.0026585022 0.0073159104 0.004705302 0.0016079219 -0.0034686644 -0.0034466307 -0.0025284167
0.0055428315 -0.0059885294 -0.0034767601 -0.00627618 -0.005573229 0.0007428806 0.007519913 0.004004431

bias f4 [10]
00000000: d99e 9d3b f079 40bb 8756 b9bb ded5 f53a
00000010: face 9c3a 8169 143b 84b9 9eba 6b5b 973b
00000020: 5ec9 963b de6a 983b
0.004810196 -0.0029369555 -0.005656067 0.0018755754 0.0011963539 0.0022645893 -0.0012109731 0.004619052
0.0046016416 0.0046514114
