models/AdvaDemo_CleverHans_4.0.0/LOGS/models/nnet_epoch_1.pt (torch, 765515 bytes, 26 tensors)

weight f4 [12, 3, 5, 5]
00000000: 2bd5 9e3d 6f71 553d b080 443d 80ce 903d
00000010: 0449 503d 767e 5a3d 9dc0 31bc ddaa b23b
00000020: 2c33 84bd 12fb 403d 6d14 7bbd b9fe e4bd
00000030: b177 423c 6292 543d 7c08 1dbd fcb5 a93d
00000040: ff0c b13d 7a0d 353c bbd7 b13c 2ca7 913d
00000050: 4767 c8bd e4e4 763b ea97 d7bd 793d d53d
00000060: 03c3 a53c 100d a7bd a878 223c 8cbc c63d
00000070: 4a4d 2abd fb61 b43b 9f71 10bd 22eb b8bd
00000080: afe2 873c 167f 45bd ea63 7e3c 4323 e33d
00000090: ded8 81bd b4ef 02bd b103 e1bd f938 8e3c
000000a0: 993a 2c3d fc52 b7bd 45a0 f53c dc5c 8f3d
000000b0: 5236 8cbd 148c a63c 6444 e73d 5c07 d73d
000000c0: a8c8 7b3d fdc1 9c3d 42cb 8bbd 35be b1bc
000000d0: b1b2 c4bd 4601 343d b7df ddbb 9890 c7bd
000000e0: 112c 57bc 6039 1fbd 59d2 4dba 4001 323d
000000f0: c036 97bd 340f 943d ad47 603d d2fc cc3d
00000100: 8eb7 babd 4f2e 03bd 3792 c93d 86e9 973d
00000110: a9e6 ad3d fabb e53c 5576 ad3d 071e 923d
00000120: 1791 9a3d c404 c73d 820b 933d a401 bf3d
00000130: 1fc9 993d e2f0 9bbd 1c54 6d3d e6c7 dabd
00000140: 99bb 7cbb b078 473d 6471 c73d 5dd4 86bc
00000150: bdc2 dbbd 8751 39bd be2c 9f3d 82bd ebbc
00000160: 8b41 4cbd 5ade d43c b4c0 d23d 5701 90bc
00000170: c2e9 bbbb 4829 b93d 9915 f0bc e314 3bbd
00000180: 57aa e4bd bd5c 0b3c cbb9 933d 7426 e73d
00000190: f39f 463d 9060 cdbd a482 d53b 10c6 25bd
000001a0: d675 6ebd 93b5 8fbd 22f4 a43c efac bebd
000001b0: 1f1c 1f3c c907 cc3d abc5 cd3c d058 d53c
000001c0: 7306 be3d 14fe 92bd 7e7b 1d3c c97d 99bc
000001d0: 0c97 8b3d 7b1d f6bc 6253 dc3d 089c a9bd
000001e0: 537f 53bd 9d8d ad3c 9313 443d dd87 0e3d
000001f0: f22f c2bd fa36 aabd c64b b5bd 98d6 693d
00000200: fb36 643d de95 cb3d 7a6a 003d 7a0f c1bc
00000210: 0413 8d3d 4346 b43b 1a8c e4bd 01a0 e639
00000220: dea4 9fbc 367d 44bc ecd9 e33d 7b6b 853b
00000230: 317b 8bbd a31d b3bd b797 4fbd 20bf 81bd
00000240: 93fe 50bd 4dbc be3d 5aa1 debd 082c 103d
00000250: a6da 71bd 9c6f 5e3d 6712 b8bd eb9a c9bd
00000260: aa19 3f3c 24e8 98bd bb58 b33d c822 693c
00000270: 8326 83bd b4db 343c 03b2 17bd afac 80bb
00000280: d376 87bb 8723 e0bd 5fb9 073d 3ce6 b8bd
00000290: ab30 91bd 0a17 a33d 37fd 3b3d 0932 82bd
000002a0: 6f09 aabd 8cbf 3f3d a31c b2bd d09d 5bbd
000002b0: 8728 e8bd 2826 e9ba b162 87bd d32e 933d
000002c0: d90b 493d 5c53 b5bd e2b8 b9bd 1d3d 193d
000002d0: a3da f83c 893b db3d 3120 06bd 0ba7 7a3c
000002e0: c8c7 00bd 4700 9cbd 75fb e73d 0286 e73d
000002f0: 9c33 3e3d e185 b23c 67b6 633d 6ab2 13bd
00000300: e861 71bd 2e10 b83d 1481 25bd fef0 ac3d
00000310: 256e 963d a2ef ca3c a742 32bd 08e1 4f3d
00000320: 4cf1 963d 1737 ae3d 1bb5 0dbd 511c 8fbd
00000330: 596d a7bd a587 a73b 5b47 5a3d 4b1a d33d
00000340: 7b32 673d 05d5 b5bd 66da e7bd e2d5 ff3c
00000350: 85bb d9bd 905b 46bd e1a0 1b3d ddf3 16bd
00000360: 6816 da3c 44ae 4c3d fc5e aebd 3429 b23d
00000370: 6308 363c 988b 99bd f80a ec3b 25c2 b73d
00000380: 2bd7 953d 2072 b13d 466c 4bbd e7d5 eb3b
00000390: 8992 acbd d548 e0bd d5c7 8abd f5aa f83c
000003a0: bd1d d03c 19aa b13d 94e9 3bbb 0553 5fbd
000003b0: bf68 c3bd 5c89 df3c 46fc b13d 2352 b03d
000003c0: fd67 bcbd 1183 8c3d 5199 8e3d cbd1 563d
000003d0: 4b59 e0bb e628 e2bd 6554 653d 3aef ab3c
000003e0: 84fb a6bd 7e76 5ebd c40e 8ebc b7ab c8bc
000003f0: 0ba2 9dbd 3ad5 dd3d b96f 91bd 1109 89bb
0.07755502 0.05211013 0.04797429 0.07070637 0.050850883 0.05334326 -0.010849145 0.0054524974
-0.06455073 0.04711444 -0.061298776 -0.11181397 0.011869357 0.051897414 -0.03833817 0.08286664
0.08645057 0.011050576 0.021709314 0.07111964 -0.097853236 0.003767305 -0.10527022 0.104121156
0.02023459 -0.08156788 0.009916462 0.09703931 -0.041577615 0.0055048442 -0.035264608 -0.09029223
0.016587583 -0.0482169 0.015526751 0.1109071 -0.06340192 -0.03196688 -0.10987032 0.017361151
0.04204807 -0.08951375 0.029983649 0.070001334 -0.06846298 0.020330466 0.11292341 0.104994506
0.061470658 0.07654188 -0.06825878 -0.021697143 -0.09604395 0.043946527 -0.0067710537 -0.09744376
-0.013133065 -0.038873076 -0.00078514736 0.043458223 -0.073834896 0.07229462 0.054755855 0.10009159
-0.091170415 -0.032026585 0.098423414 0.07417588 0.084912606 0.028043736 0.08469836 0.071346335
0.07547205 0.09717706 0.07179929 0.09326485 0.07509064 -0.07614304 0.05794154 -0.10682659
-0.0038563965 0.04869908 0.097384244 -0.016458685 -0.10730503 -0.045243766 0.07772206 -0.028776888
-0.049867194 0.025984932 0.102906615 -0.017578764 -0.005734653 0.09041077 -0.029307174 -0.045674216
-0.11165302 0.008505997 0.072131716 0.11286631 0.048492383 -0.100281835 0.0065158177 -0.04047209
-0.058217846 -0.070170544 0.020135943 -0.09310328 0.009711294 0.099624224 0.02511867 0.026043326
0.09278574 -0.07177368 0.009611962 -0.018736737 0.06815919 -0.030043354 0.107580915 -0.08281714
-0.051635098 0.02118569 0.04787023 0.034797538 -0.09481801 -0.08311267 -0.08852343 0.05708942
0.055716496 0.09940694 0.031351544 -0.02356695 0.068883926 0.00550154 -0.11159535 0.0004398823
-0.019487794 -0.011992743 0.1112555 0.0040716506 -0.06810606 -0.08745887 -0.050681796 -0.06335282
-0.05102403 0.09313259 -0.10870619 0.03519824 -0.05904641 0.054305658 -0.08987885 -0.098440014
0.011663834 -0.07466152 0.08757158 0.014229484 -0.0640383 0.011038709 -0.037035 -0.0039268355
-0.004134038 -0.10944276 0.033135768 -0.09028289 -0.07089361 0.07963379 0.04589578 -0.063572
-0.083025806 0.046813533 -0.08696868 -0.0536173 -0.11335855 -0.0017787861 -0.06610621 0.071866654
0.049083564 -0.0885379 -0.09068467 0.037411798 0.030377692 0.10704715 -0.032745544 0.015298615
-0.031440526 -0.076172404 0.113272585 0.11304857 0.046435937 0.021792354 0.055593874 -0.03605882
-0.05893126 0.08987461 -0.0404063 0.08444403 0.07345227 0.024772469 -0.043520596 0.050751716
0.073702425 0.08506601 -0.034596544 -0.06987823 -0.08175153 0.0051126056 0.053290706 0.10307749
0.056444626 -0.08878521 -0.11320953 0.031229917 -0.1063147 -0.048427165 0.037995223 -0.03685366
0.026622012 0.04997088 -0.085142106 0.08699265 0.011110398 -0.074973285 0.007203456 0.08972577
0.07316431 0.08664346 -0.049663804 0.00719713 -0.08426387 -0.109513916 -0.06776396 0.030354956
0.025404805 0.08675022 -0.002867316 -0.054522533 -0.09541463 0.027287178 0.086906955 0.08609416
-0.09199522 0.068609364 0.069628365 0.052446168 -0.006846582 -0.11042957 0.055988688 0.020988096
-0.081534415 -0.05431222 -0.017341025 -0.024495943 -0.07696923 0.10831685 -0.071013875 -0.004181989

bias f4 [12]
00000000: 0d0d d33d 1be5 cf3b 396f cbbd f0b5 1abd
00000010: e435 cebd 3a7f cfbb 6dce 00bc b010 013d
00000020: 6676 32bd 2be2 2c3d 160f 883d 1a75 473d
0.103052236 0.00634445 -0.099333234 -0.037771165 -0.100688726 -0.0063323053 -0.007861716 0.031510055
-0.043569945 0.042207878 0.066435024 0.04869566

weight f4 [12]
00000000: 67ff 7f3f 0a00 803f 90fe 7f3f 38ff 7f3f
00000010: 0100 803f 0000 803f bcfd 7f3f c8ff 7f3f
00000020: 7dff 7f3f 0c00 803f 0a00 803f 1600 803f
0.9999909 1.0000012 0.99997807 0.9999881 1.0000001 1.0 0.9999654 0.99999666
0.9999922 1.0000014 1.0000012 1.0000026

bias f4 [12]
00000000: 1dab b6b7 5516 1bb4 024c 1ab7 1aff 05b8
00000010: cd01 aab6 8986 44b7 d275 e736 d589 cf37
00000020: 0b71 ff37 d841 1138 84c1 f037 0ebd 8db7
-2.1775772e-05 -1.4443624e-07 -9.196812e-06 -3.1947253e-05 -5.0666044e-06 -1.1713834e-05 6.8980526e-06 2.4740506e-05
3.0451009e-05 3.4632016e-05 2.8700342e-05 -1.6896545e-05

running_mean f4 [12]
00000000: d646 e43e 5914 bdbc 0cbb 3dbe 8dcc cf3c
00000010: 2dea 20be a919 a4be 1c61 343b d496 bf3d
00000020: 1170 c6bc d298 833e cd30 41be 3bf1 993e
0.44585294 -0.023080992 -0.18528384 0.025366092 -0.15714331 -0.32050827 0.0027523702 0.0935494
-0.02422336 0.2570253 -0.18866272 0.30066857

running_var f4 [12]
00000000: 5106 953d f0d7 913a d408 b73b d409 c33b
00000010: b097 423b 58ce 753d c789 613b 43f0 b33b
00000020: 2674 323b 3109 ed3c ab2b 193d 7d50 173d
0.072765954 0.0011126976 0.005585769 0.0059520993 0.0029692464 0.060011238 0.0034414397 0.005491288
0.0027229874 0.028935047 0.03739516 0.036941994

weight f4 [12, 12, 5, 5]
00000000: 30f9 e73c 232c 923c 6615 363c c026 6c3d
00000010: 2b47 e7bc 8c18 5b3d f3f7 0bbd 4e71 0f3d
00000020: 9955 3dbd fd04 d9bc deab 183d d521 6b3d
00000030: ca67 1abd a48b 623d 944d de3a 0ebd 2dbd
00000040: c931 123d ee8b b53c de53 113d 0716 63bd
00000050: 8809 f83b 5de8 52bd 336e 73bc 55f8 6a3d
00000060: 796a 0a3d 2c5f 5ebd 31ea 10bd 8a21 7dbc
00000070: 2288 6a3d a054 0abd b669 033b 976d 15bd
00000080: eabc 313c a858 f53c 97b1 9c3c 190e 323d
00000090: 721c afbb 6d74 223d 55bc eb3c 4f89 ce3c
000000a0: 72c5 0cbd a0a8 8b3c afde cd3c dd2a 6b3c
000000b0: 2337 5fbd 63c8 d73c 74d7 0f3c 39ba c5bc
000000c0: 04a4 dd3c f148 a8bb fa9d 473d 57a7 153c
000000d0: 0207 c83c 5038 263c 47a8 003d 204d 35bd
000000e0: f954 5cbc e0a5 43bd 6d78 613d 310d 5f3d
000000f0: 15fc 5f3d 3c90 c1bc 57ee 4bbd 4614 90bc
00000100: 462d 3bbd 8d09 1dbd 0b30 68bd 93dd a3bc
00000110: b7e1 67b9 34d2 0abd fea2 4f3d 2514 debb
00000120: c5ec c9bc a602 093c 1d0d 1abd 9a6a 313d
00000130: 4538 8fbc fcf5 b5bc 170e c23b 32f1 1e3d
00000140: e292 453d d166 3e3d a3f2 5c3d d694 0f3c
00000150: c9f1 5d3d a7da 2a3d c855 b939 51ed 073c
00000160: 7661 d03b c26f 383d 6403 673d 8702 d23c
00000170: 9671 983c 5c2b 71bc 7a14 a2bc 79f3 2b3d
00000180: 5c12 093d e33a 5ebd 9ab9 d5bc 06f8 fe3a
00000190: dc1b 043d 8b8b 143b 2d64 57bd a3ee 663d
000001a0: de7d 1f3d c405 38bd ed36 e4bc 9edd bf3b
000001b0: c308 95bc f503 90bc 0a29 2bbd 4758 3f3d
000001c0: b0e8 b33b 4265 0ebd 2700 5bbd 744a bfbc
000001d0: 823d afbc aa4d 3cbb 66b8 1c3d 93e0 48bd
000001e0: c16b 3e3d 84c0 393d 5bbe 0ab9 7b53 183d
000001f0: 3831 cc3c fc69 4c3d 8caa 183d 72ec 3cba
00000200: 0598 23bd 70d9 44bd 7c29 4cbd 1a34 4cbd
00000210: e7f7 1c3d b6ce 833c 131c d93c d5f1 65bd
00000220: 08ee 5c3c 004c 1b3d 0e3d b0bc 03ce 9cbc
00000230: c01d cdbc 88d9 073d 9211 13bd 50a6 7fbb
00000240: 33c9 d1bc 1405 0ebc 64cf 7a3c d161 1d3d
00000250: df32 633d 417e 1ebc 4c64 abbc 0ab1 043d
00000260: e305 82bb a577 20bd 0ad4 f5bc 2a40 11bd
00000270: 9ff7 373c 3667 01bd cd7e c4bc 8727 553d
00000280: 7a32 1bbd fd1d 6ebb c448 613d a89d 5fbd
00000290: c528 0e3d 2d82 fdbc 2343 56bd 4120 9d3c
000002a0: 24d9 c2bb 8f5b 1dbd 6bf5 9dbc a407 19bd
000002b0: 7315 b2bc 9811 633d 0c22 efbc d2a0 213d
000002c0: c0a6 1e3d d22c 24bc 44b9 833c 5193 cbbc
000002d0: 054a c6bc 5f90 64bd ff88 91bb efab 29bc
000002e0: 82ef 9b3c 2edd d1bb cd6d 623d 1e24 fe3b
000002f0: 87f9 46bd f881 59bd dd18 93bb 35d6 9abc
00000300: 03a5 2f3d a8ef 803c 46a3 e4bc 5640 15bd
00000310: 79e3 633d 9b59 f2bc 55a9 bfbc a29f eeba
00000320: 9dfc 73bc 90af 53bc 8066 6cbd 251e 093d
00000330: a2b8 663d 2e8f 023d 783b 3c3d ff79 dc3c
00000340: 8ff8 d1ba 8d35 fbbc 0c12 bb3c 48a1 a4bc
00000350: 3920 00bd 042d 2d3c 2eb1 a4bc 7b51 33bc
00000360: b01f 3f3d ce88 243d 35b4 d7bc 5217 353d
00000370: 1880 4c3d a09e 0abd c72e 513c 0938 52bd
00000380: 86f7 0dbc 1732 b3bc f2f1 35bd 162c 44bd
00000390: 49a3 d1bb bcc7 303d e836 45bd bc3c 663c
000003a0: 74b6 b03c 65dd 91bc 9d7a c03c 9444 093c
000003b0: 5273 aa39 cf35 013d 747c 0ebc d2e0 d73c
000003c0: 3d5e 0d3d 00dd 48bd e510 38bd d54c 5ebd
000003d0: c055 c33b 4680 6abc 3194 34bd 64aa a3bc
000003e0: 20ac 0d3d d966 fe3b bc75 24bc dd70 d0bc
000003f0: d811 403d 0094 b63c 036c 963c 7989 123c
0.028317064 0.017843312 0.0111135 0.057654142 -0.028232178 0.053490207 -0.03417201 0.035020165
-0.04622421 -0.026491636 0.03727328 0.05740531 -0.037696637 0.055308953 0.0016960376 -0.042416625
0.03569201 0.02216145 0.035480373 -0.05544093 0.0075694956 -0.05149113 -0.0148578165 0.057365734
0.033792946 -0.05428998 -0.035379592 -0.015449891 0.057258733 -0.03377211 0.0020052022 -0.036481466
0.010848263 0.029949501 0.01912765 0.043470476 -0.005343967 0.039661814 0.028776327 0.025211958
-0.034367986 0.01704818 0.025130598 0.014353481 -0.05449594 0.026340669 0.008779395 -0.02413665
0.027055748 -0.0051356484 0.048734643 0.009134135 0.024417404 0.010145262 0.03141048 -0.044263005
-0.013447993 -0.047765613 0.055046488 0.05445594 0.054683764 -0.023628347 -0.049787845 -0.017587792
-0.045697473 -0.038339186 -0.056686442 -0.020003116 -0.00022113962 -0.03389187 0.05069255 -0.0067773038
-0.024649033 0.008362448 -0.037610162 0.043314554 -0.017482886 -0.022212021 0.00592209 0.03880424
0.04823578 0.046484772 0.053942334 0.008763513 0.054185662 0.04171243 0.00035349862 0.008296327
0.0063592745 0.045028456 0.056399718 0.02563597 0.01860885 -0.01471981 -0.019785155 0.04198024
0.033464774 -0.054255378 -0.026089478 0.0019452579 0.03225313 0.0022666182 -0.05258577 0.056379925
0.038938396 -0.044927374 -0.027858222 0.0058552762 -0.018192654 -0.017580012 -0.041787185 0.046715047
0.005490385 -0.034764536 -0.053466942 -0.023350932 -0.021391634 -0.0028732815 0.038261794 -0.049042296
0.04648948 0.045349613 -0.00013231619 0.03718899 0.024925813 0.049905762 0.03727202 -0.0007206864
-0.0399399 -0.048058927 -0.04984425 -0.049854375 0.038322356 0.016089778 0.026502645 -0.056138832
0.013484485 0.037914276 -0.021513488 -0.019141203 -0.0250386 0.03316644 -0.03590543 -0.0039009042
-0.025608635 -0.008668203 0.015308235 0.038423363 0.055468436 -0.009673656 -0.020921849 0.0323954
-0.003967987 -0.039176602 -0.030008335 -0.035461582 0.011228471 -0.03159257 -0.023986245 0.05203965
-0.037889935 -0.0036333792 0.055001035 -0.054593712 0.03470685 -0.030945862 -0.05231012 0.019180419
-0.0059462953 -0.038417395 -0.019282063 -0.037360802 -0.021738743 0.0554367 -0.02919104 0.03946001
0.038733244 -0.010020452 0.016079552 -0.02485052 -0.024205217 -0.055801746 -0.00444138 -0.010355934
0.019035105 -0.0064045405 0.055280495 0.0077557703 -0.04857781 -0.053102463 -0.004489048 -0.01890097
0.042881977 0.015739277 -0.027909886 -0.03643831 0.055636857 -0.029583743 -0.023396173 -0.0018205533
-0.014891771 -0.012920275 -0.05771494 0.033476014 0.056328423 0.031874828 0.04595515 0.026913641
-0.0016019511 -0.030665183 0.022835754 -0.020096436 -0.03128073 0.010569815 -0.020104017 -0.010944719
0.04666108 0.04016953 -0.026331047 0.044211693 0.049926847 -0.033842683 0.0127675 -0.05132297
-0.008664971 -0.02187447 -0.04442019 -0.047893606 -0.006397639 0.04315923 -0.048148066 0.014052566
0.021571375 -0.017805764 0.023495967 0.008378167 0.00032510847 0.031545456 -0.008696664 0.02635232
0.0345137 -0.049038887 -0.044937987 -0.05427249 0.00596115 -0.014312809 -0.04408664 -0.01997871
0.03458798 0.0077637252 -0.010037836 -0.025444442 0.046892017 0.022287369 0.01836205 0.008943909

bias f4 [12]
00000000: 1b8c f33b 7938 ed3c de36 e9bc e602 1b3d
00000010: c56a e9bb ad94 f63c 80fe e43c cd6a b53b
00000020: c4ed 1bbb 00b3 3b3d 25a2 4b3d e1a4 353d
0.0074324734 0.028957592 -0.028468546 0.03784456 -0.0071233236 0.030100191 0.027953386 0.0055364133
-0.0023792842 0.045825005 0.04971518 0.044346694

weight f4 [12]
00000000: 0a00 803f 3afe 7f3f 5bff 7f3f 0e00 803f
00000010: 0300 803f 1cff 7f3f 1300 803f 1700 803f
00000020: 0f00 803f 1c00 803f 6bfe 7f3f 42fd 7f3f
1.0000012 0.99997294 0.99999017 1.0000017 1.0000004 0.9999864 1.0000023 1.0000027
1.0000018 1.0000033 0.99997586 0.99995816

bias f4 [12]
00000000: f667 f2b7 326e ee36 6c43 eb36 aecc 1bb7
00000010: 1fbf c737 c8ee 2db7 a0f1 8b37 b409 a037
00000020: 31c6 1a37 655e 8938 9be0 1fb8 b7f0 44b7
-2.8897059e-05 7.105781e-06 7.0113947e-06 -9.286376e-06 2.3811646e-05 -1.0367199e-05 1.6682607e-05 1.9078005e-05
9.22526e-06 6.5502514e-05 -3.8117734e-05 -1.1738556e-05

running_mean f4 [12]
00000000: 1796 083d 535a 6ebe db62 9c3d a507 c33e
00000010: 523f a2be 7ba4 ea3d 687a 73be bc40 943e
00000020: a600 25bd c9bc 00be 5bd3 69bd 3964 c2be
0.03334626 -0.23276643 0.07636043 0.3809177 -0.31688935 0.114571534 -0.23777163 0.28955638
-0.04028382 -0.12572016 -0.05708633 -0.3796709

running_var f4 [12]
00000000: db9f 3e3d 8860 903d c66c 643d b811 d33d
00000010: 2614 d53d 926a 723d 2e2b 933d 51c4 d73d
00000020: 04d9 f63d 1210 d83d d2c4 453f 5f55 013e
0.04653917 0.07049662 0.055767797 0.10306114 0.10404234 0.059183665 0.0718597 0.10535491
0.12053111 0.1054994 0.7725345 0.12630223

weight f4 [24, 12, 5, 5]
00000000: ddc2 43bd 2da0 29bd d14c 32bb 4f13 1a3d
00000010: 552f 4cbd 85c8 bebb 696a 1f3d 653f 0f3d
00000020: 8e27 62bd 86ae 84bc 51ef b73c 3b23 8b3c
00000030: 4b71 e7bc 5d64 a93c 71c0 de3c 24b9 21bc
00000040: 2fff f1bc 236c 61bd 4758 52bd 0d59 e7bc
00000050: cd3a 03bd 7456 383c f88c 1a3d 48d6 0a3c
00000060: 649d 9bbc d247 283c d9bd f33c 14c7 33bc
00000070: 2d0d 1fbd 0521 df3c 3e1b 143d 8551 3bbd
00000080: 7547 0e3d 3ff7 463c 423d b33c 5749 d73c
00000090: 4331 25bd f07a 573c 1f50 fabb 5eb9 713c
000000a0: 9771 363c d0fa 5ebd 877b 2ebd 05c9 453c
000000b0: f55f 143c e214 663d bc81 333d 6bdc 623d
000000c0: e3d5 18bc fc22 963c 576b e5bc 9d77 5c3d
000000d0: 0d9a ff3a e94d 62bd a259 c2bb d963 80bc
000000e0: 3c2d 79ba 05f7 943c 1786 d5bc f03f 613c
000000f0: 136c 9a3c 3af7 133d a7dd 23bb 4e24 e9bc
00000100: 0b1b 0ebd 09a6 da3c 61eb 483d 4bed 1c3d
00000110: 7513 f7bc 12b5 c6bc 322f 433b 9ce8 cf3c
00000120: 8bda 14bd 35c3 49bd 50c9 223d b134 1abd
00000130: bea3 86bc e615 1a3d 599a a03c ffab 673d
00000140: 29d0 613d eebb 87bc 983a 253d e1fa 85bc
00000150: 99af 1cbc 7c74 2abd d4dc a93c b421 6a3d
00000160: d8a0 bbbb e36e 4bbd daef 3e3d 29d6 54bd
00000170: 35c3 833c 1797 f83c 37a1 55bd 1e58 e4ba
00000180: a5ff d5bc 2a0e 3c3c 00db 3ebd d3f2 333d
00000190: fcd7 033d a49a 4e3d 400a e539 559b dd3c
000001a0: 5bd1 1b3d 39fc 363d 28e7 d03c 3704 c4bc
000001b0: 2d17 0cbd 5514 6abd 8400 2139 1ed3 05bd
000001c0: ea02 c3bc dad6 953c 7105 de3c 0ff9 c23c
000001d0: 001e f6bc 7e15 333c 86dc 953c 78dd 09bc
000001e0: 76a1 62bc cda3 dfbc 31d5 fb3c 4867 453c
000001f0: 1be9 86bc 93cd 403c 4c64 20bd 8a6d 0bbd
00000200: cd04 c23a 8c0a 993c a3b9 e739 d5d4 2ebd
00000210: ecbd 093c 2d17 90bb 3c30 1d3d a2a2 2fbd
00000220: dcfe 983c 9a7d 453c ac50 1c3d b49c 22bd
00000230: ec3b f4bb 9409 3dbd 0531 d8ba 3f6a bcbc
00000240: 7d91 47bd 7748 3abd fd47 2dbd cf2f cdbc
00000250: 0711 b13c f135 693d 7579 403d 098b d4bc
00000260: a24e 2a3d 3c02 9f3c 8160 06bd be1a dd3b
00000270: a5b2 dcbc 580c 53bc 4158 d7bc 1ff6 dd3c
00000280: 2551 123c a642 0bbd 0bcd 0ebd d248 353d
00000290: 2666 a4bb dc58 643d d1ea 913c 485c a3bc
000002a0: d9ba fabc 2185 06bd 1a58 053d 66a8 20bd
000002b0: d968 79bc 44ae dfbc ec20 ef3c 47e5 a0bc
000002c0: a821 e63b 5e22 06bd bedd c2bc 0aed b4bc
000002d0: 6f4e 3dbd a7c1 653d 8d75 ffbc 9117 ba3c
000002e0: 4fd9 543c 457b c1bb b1df 203d b19a 663d
000002f0: af14 133d fccb 28bc a236 3e3d 2af6 593d
00000300: d991 5f3d 2d81 6c3d 3853 99bc 463f e3bc
00000310: 6572 8f3c 1c95 13bd 3093 31bd 055f 9ebc
00000320: 30a5 703c 46dd 18bd c8ee 533d a257 063d
00000330: d175 31bd b823 043d 4fcc e93c 0a42 313d
00000340: 709c 6a3d 3cc6 62bd 46b3 183d 9e61 7abc
00000350: 584b 613d ec3d 9b3c f16f 4d3d b894 93bc
00000360: 29d0 94bc c2a0 bf3c 253e 8f3c 141a 203c
00000370: 6580 403b 1fc7 43bd 87a1 c43c 675a 183d
00000380: 22dc bb3c e298 233d 4ba1 bb3c 624f b93b
00000390: c2a8 d9bc 7213 5cbd 7233 19bd 3fda d73b
000003a0: 5d0b 2e3d 8b63 1b3d e9f5 8fbc b1a2 52bd
000003b0: b2db cb3c 346a 58bd d9e4 483a 152f b7bc
000003c0: 926c 593d fae9 22bd e9e2 fbbc 17f4 503d
000003d0: 4be5 1fbd 690d c53c fb46 8b3c 0a2d 0cbc
000003e0: 6321 99bc 7e2c b2bb c54e a5bc 66f5 603d
000003f0: d2e1 7b3c 616b 9f3c 6ee6 52bc c160 4ebd
-0.047793258 -0.04141252 -0.002720643 0.03761607 -0.049849827 -0.0058222436 0.03891984 0.034972567
-0.055213504 -0.0161965 0.022452982 0.016984573 -0.028252264 0.02067774 0.027191373 -0.009870801
-0.029540626 -0.055034768 -0.05135372 -0.028240705 -0.0320385 0.011251081 0.037732095 0.00847394
-0.018995948 0.01027103 0.029753612 -0.010972757 -0.038830925 0.027237425 0.036158793 -0.04573204
0.034736115 0.012143909 0.021879796 0.026280088 -0.040330183 0.013151869 -0.0076389457 0.014753668
0.01113548 -0.054438412 -0.042598274 0.012071853 0.009056081 0.05617226 0.043824896 0.05538599
-0.009328338 0.018327229 -0.028005285 0.05382501 0.0019500867 -0.055250082 -0.005931095 -0.015672611
-0.00095053366 0.018184194 -0.026064916 0.013748154 0.018850362 0.036124445 -0.0025003941 -0.028459694
-0.03469376 0.0266905 0.0490526 0.038312238 -0.030160645 -0.024256263 0.002978277 0.025379471
-0.03634123 -0.04925843 0.039742768 -0.037647907 -0.0164355 0.03761854 0.019604849 0.056560513
0.055130158 -0.016569104 0.040339082 -0.01635498 -0.00956335 -0.041614994 0.020735182 0.057161048
-0.005725961 -0.049666297 0.04661546 -0.05196205 0.016084293 0.030345483 -0.0521557 -0.001742128
-0.026122877 0.011477986 -0.046595573 0.043932747 0.0321884 0.050440446 0.0004368592 0.027051607
0.038041454 0.044674132 0.025500849 -0.023927791 -0.03420179 -0.057148296 0.00015354349 -0.03267204
-0.0238051 0.018290926 0.027102204 0.023800401 -0.030043602 0.010930417 0.01829363 -0.008414619
-0.013832441 -0.027299786 0.030741306 0.01204855 -0.016468575 0.011767763 -0.03915815 -0.03404001
0.0014802456 0.018681787 0.00044198064 -0.04268344 0.008407097 -0.004397294 0.038376078 -0.042879708
0.018676214 0.0120538715 0.038162872 -0.039700225 -0.0074534323 -0.046151713 -0.0016494101 -0.02299988
-0.048722733 -0.045479264 -0.04230498 -0.025047211 0.021614565 0.05693621 0.04699083 -0.025945203
0.041578896 0.019410245 -0.032806877 0.0067475727 -0.026940653 -0.012881361 -0.0262872 0.027094899
0.008930479 -0.033999108 -0.034863513 0.0442589 -0.00501706 0.055748805 0.017812165 -0.019941464
-0.030606674 -0.032841805 0.032554723 -0.039223097 -0.015222752 -0.027304776 0.029190503 -0.019640578
0.007023055 -0.03274762 -0.023787376 -0.022085685 -0.04621738 0.056092884 -0.031183982 0.022716315
0.0129912635 -0.0059045875 0.03927583 0.05629987 0.035908397 -0.01030254 0.04643882 0.053213276
0.05458245 0.05774038 -0.01871644 -0.027740132 0.017510602 -0.036030874 -0.04335326 -0.019332418
0.014687821 -0.037320398 0.05174139 0.032798417 -0.04332525 0.032260627 0.028539805 0.04327587
0.057278097 -0.055364832 0.037280343 -0.015282063 0.055003494 0.018950425 0.050155584 -0.01801525
-0.018165665 0.023392085 0.017485688 0.0097718425 0.0029373404 -0.04779732 0.024002803 0.03719559
0.022932116 0.039940722 0.022904059 0.005655215 -0.026569728 -0.053729482 -0.037402578 0.0065872963
0.042491306 0.03793673 -0.017573314 -0.051424686 0.024885032 -0.05283566 0.00076634955 -0.022361318
0.053082056 -0.03977392 -0.030747848 0.051014032 -0.03903703 0.024054246 0.01700162 -0.00855566
-0.018692678 -0.005437433 -0.020179162 0.05492153 0.015373664 0.019460382 -0.0128723215 -0.05038524

bias f4 [24]
00000000: 37f6 32bc bb31 4f3d 2e8c ebbc 8bbb 41bb
00000010: 4017 cdbc bbd2 61bd 1913 1a3d d26b 11bd
00000020: ee45 6b3d 9085 8e3c 5e53 523c 23fb 5fbc
00000030: 0a1a b33b bd14 1ebd ce42 31bd ac64 f6bc
00000040: a3ce c13c dfea 9e3a 5074 5e3d e9dc 5b3d
00000050: 3e38 a63c 26fb 1fbd 0f91 b9bc 5d44 28bd
-0.01092296 0.050584536 -0.028753366 -0.0029561247 -0.0250355 -0.05513261 0.03761587 -0.035503216
0.057439737 0.017397672 0.012837259 -0.0136707155 0.0054657506 -0.038593996 -0.0432766 -0.030077301
0.023658102 0.001212444 0.054310143 0.053677473 0.02029049 -0.039057873 -0.022652177 -0.04108082

weight f4 [24]
00000000: 1800 803f e2ff 7f3f 0100 803f 6efd 7f3f
00000010: 0b00 803f 0d00 803f 74fe 7f3f 2cfc 7f3f
00000020: 13ff 7f3f ccfe 7f3f 0e00 803f a2ff 7f3f
00000030: efff 7f3f a7fe 7f3f 0e00 803f 1400 803f
00000040: 83fd 7f3f 0c00 803f 1600 803f 0f00 803f
00000050: 0000 803f 26fd 7f3f 0600 803f 1300 803f
1.0000029 0.9999982 1.0000001 0.9999608 1.0000013 1.0000015 0.9999764 0.9999416
0.9999859 0.99998164 1.0000017 0.9999944 0.999999 0.99997944 1.0000017 1.0000024
0.99996203 1.0000014 1.0000026 1.0000018 1.0 0.9999565 1.0000007 1.0000023

bias f4 [24]
00000000: 6eb9 acb7 73f6 2b37 b8b8 0eb8 37fb 67b8
00000010: 587c 0938 9d77 df35 902a e6b7 528b 22b8
00000020: 22ae 06b8 a2c6 40b7 5ac1 ad37 ec7c 05b6
00000030: 4d2c 4337 8e02 28b7 e49a 2938 ff6a 9a37
00000040: 77eb 4db8 4147 ba37 b9b1 6438 ceec 2238
00000050: 1519 cc37 3e60 8eb8 2967 60b7 687a 1338
-2.0590345e-05 1.0249775e-05 -3.402747e-05 -5.5308654e-05 3.277915e-05 1.6649607e-06 -2.7437956e-05 -3.8753562e-05
-3.2110263e-05 -1.149034e-05 2.0713243e-05 -1.9891258e-06 1.163322e-05 -1.0014175e-05 4.0436993e-05 1.8408055e-05
-4.9095102e-05 2.2206108e-05 5.4524953e-05 3.884435e-05 2.4330375e-05 -6.789014e-05 -1.3375459e-05 3.516153e-05

running_mean f4 [24]
00000000: 8e3a aa3c bbe7 e83e a34e 21bf 8201 623d
00000010: 974e b7bd ed7a 223f 5fca 863e 6cf6 15bf
00000020: 0a93 60be 3cfa 44bf 9e8f d7bd 9d38 9fbd
00000030: 2cdc 0c3e 5bc0 ef3d 526f fbbd bd23 8a3e
00000040: 1b69 4abe a1db fd3b 9192 0abe ac20 5cbd
00000050: d5e0 093d 4bc3 8c3d 044b 1f3e 291a f63e
0.020779874 0.45489296 -0.63010615 0.05517722 -0.08950537 0.6346882 0.26326272 -0.58579135
-0.21931091 -0.7694433 -0.1052544 -0.0777447 0.13755864 0.11706611 -0.12277092 0.2698039
-0.19766657 0.007747129 -0.13532473 -0.053742096 0.033661682 0.06873187 0.1555596 0.48066834

running_var f4 [24]
00000000: 4834 893e 065a 153e f8d9 cf3e 3761 573e
00000010: 51af 003e 756a ac3e 550c d33d c967 7c3e
00000020: da3a 003e 76c1 823e 43b2 023e 9862 f13d
00000030: 653f 573e 01a2 0d3e 7a22 293e 9f83 0f3e
00000040: 1f8b 1f3e 5fc1 4c3e 42b6 6a3e c3af ef3d
00000050: af9f 3a3e 633f 033e 5cb7 243e e4da fa3e
0.267977 0.14585122 0.40595984 0.21033178 0.12566878 0.3367497 0.103050865 0.24648966
0.1252245 0.25538224 0.12763314 0.117863834 0.21020277 0.13831331 0.16517058 0.14015053
0.15580414 0.1999564 0.22921088 0.11703446 0.18224977 0.12817149 0.16085571 0.48995125

weight f4 [24, 24, 5, 5]
00000000: d57f 2bbc 82c3 f43c 7622 333c 9b47 0bbd
00000010: 885d 1e3d a9ab f13a 0fde 01bd 8007 b2bc
00000020: 5722 afb9 2f61 f33c 1e98 01bd 8d51 15bd
00000030: 6df8 00bc 7640 bd3c 5886 3dbc 9f29 223d
00000040: a24e 8dba 3c04 8bbc 5021 ea3b e56f 3bbc
00000050: b0d9 bbbb 8b20 08bd ec83 263d 9b86 483c
00000060: b65f 06bd b427 d83c eb93 13bd 2e16 27bd
00000070: cc1c 9b3a b08f eebc 248e d33c b53d c5bc
00000080: aa9d 8b3b b463 4b3c dad9 e43c b243 80bc
00000090: 4629 7f3c f33f 0f3d c056 da3c 96c6 dbbc
000000a0: 8856 df3c 254d 973c 89ad 153d 70b0 613c
000000b0: b046 263d c4de edbc a27a 15bd 85f2 b6bc
000000c0: b781 57bc 1972 37bc 83cd e03c 65e6 183c
000000d0: 2963 bb3c 2c27 e7bc 50e5 09bd be8a 03bd
000000e0: ce0f f73c ee6d c4bc 864e 01bc 821e b2bc
000000f0: f461 b7bb 11e2 9c3b 11b6 073d e889 60bc
00000100: 76b3 4d3c 230d 543c d809 d73c 94b3 573c
00000110: 1f4f 0ebd a0b6 893c 0bd7 a8bb c362 193d
00000120: 2509 fbbc 0618 ffba 17a4 43bb 9b00 cf3c
00000130: f0f8 dbbb d50c c2bc 23a0 4cbc 2cf0 fd3c
00000140: 50d2 ad3b 3a61 e23b 41f0 c8bc f1d1 113c
00000150: 7375 dbbc cfe6 acba b36e 76bc 96f4 8abc
00000160: 108d 8dbc fe8b adbb 5ebd afbc 6917 fa3c
00000170: 0846 a6bc b8da 053c a896 1dbd 5f21 06bb
00000180: a535 b73c 69fc babc 8d2d 1b3d 5d2f b03c
00000190: eb04 213d 77e1 cf3c 3f2c c7bc db48 e3bc
000001a0: 12f6 92bc 3de3 143c 766c fb3c 54a2 06bd
000001b0: 513d 9f39 56b5 893b 0c66 ad3a 86f6 ca3a
000001c0: 90dd db3c b4f6 573c 9c8a 903b 5e44 2f3c
000001d0: 86a8 d7bc a3be 043c 4521 1abd 88ff 8f39
000001e0: c142 df3b fd0d 6f3c 60d1 283c bbb6 403c
000001f0: d1fa 243c c115 ee3b 71cb c4bc 5b90 883c
00000200: c1bb 0d3d 8b86 d6bc 0f38 ed3c b912 d03c
00000210: 1997 0bbd d2b9 d7bc 2634 123c dc36 c9ba
00000220: ed7e 97ba f695 23bd beb8 0cbd 5514 1abd
00000230: b503 02bd ab6a 033d 7ecb 033d 87d5 a53a
00000240: 39b0 ec3c b910 eb3c ee7a 223c 988d 92bb
00000250: 5c05 9a39 f7d8 133d 6fea 81bc 5edc 153d
00000260: 475a 763b 9f41 14bd 1a18 1f3d 1d32 edbc
00000270: eada 983c d150 ea3c 7481 f9bc 0463 353c
00000280: 6d61 26bd 8c21 b3bc 9bc5 263c 1963 b73c
00000290: 36c2 e9bb e8c8 cdbc 28fe 15bd 01de a03b
000002a0: 9af8 7abc fc5c 14bd 9cf7 a1b9 b7ba a5bc
000002b0: 9f05 213d 1431 1bbd 701f 69bb dca9 d0b9
000002c0: b079 9c3b e73a d9bc be46 c53b 259c 05bd
000002d0: 9541 513c 4130 173d b806 e5bc fbb1 223d
000002e0: 4527 8d3c 6bed 9abc c9cc 003d 6f79 adbc
000002f0: b089 c5ba e2b7 c8bc 082d 003c 09d2 153d
00000300: 5f9e ce3c 68d9 01bd e00f 76bc 168a 18bc
00000310: adec 613b ec32 07bd c4bb 233c 91e6 26bd
00000320: c601 7d3c 2390 53bb 4350 203c 8af2 1ebd
00000330: aa73 a1bc 54c7 c3bb 853a 04bd 86bd 9ebc
00000340: 4f8d f23c dcab 98bc 30e2 fabc f7ce 18bd
00000350: aab3 50bb 5e2e 643a 688b d53c 25ad f53c
00000360: 8375 ab3c 8356 8cbc e09c 0a3d 344f e1bc
00000370: 211a 22bd 4310 f53c 6e85 edbc bc5d 0e3c
00000380: 86ad 023d 8117 4cbc 7ace 063b 6931 85bc
00000390: b74e f8bc 687a 10bd bbf5 eebc a900 f43c
000003a0: 5bae d6bb 14dd 15bd 1dcc 0c3d da00 663c
000003b0: 533d 79bc 56f0 56bc f45a 1cbd 6a2a 093d
000003c0: df76 8abc e080 a6bb a133 f9bc 933f 93bc
000003d0: a60c 713b 3e44 c53c 15ea b0bc c4c2 ebbb
000003e0: bbbe 953c eb1f 6abc e7a4 813c 5a19 9ebb
000003f0: 3715 a1bc e387 1dbd c1d1 163d d41f ed3c
-0.010467489 0.029878382 0.010933509 -0.034003835 0.038663417 0.0018438 -0.031705912 -0.021732092
-0.00033404186 0.029709427 -0.03163921 -0.036454726 -0.007871729 0.023102026 -0.011567675 0.039590474
-0.0010780881 -0.016969793 0.0071450844 -0.011440252 -0.0057327375 -0.03323416 0.040653154 0.012239124
-0.03280612 0.02638612 -0.036029737 -0.040792637 0.0011834144 -0.02912125 0.025824614 -0.024077276
0.0042607384 0.012413908 0.027935911 -0.01565728 0.015573805 0.034973096 0.026652694 -0.026828092
0.027262941 0.018469403 0.03654245 0.013774976 0.040594757 -0.029036887 -0.036493905 -0.02233244
-0.013153485 -0.011196637 0.027441746 0.009332274 0.022874432 -0.02821692 -0.033665955 -0.032114737
0.030158903 -0.0239782 -0.007892257 -0.021743063 -0.0055963937 0.0047876914 0.033132616 -0.013704754
0.012554994 0.012942585 0.026249811 0.013165373 -0.034743425 0.016810715 -0.0051525882 0.037447702
-0.030644009 -0.0019462116 -0.0029852444 0.025268843 -0.0067130253 -0.02368776 -0.012489351 0.030998312
0.005304612 0.006908563 -0.024528624 0.008900152 -0.026789403 -0.0013191345 -0.015041041 -0.01696233
-0.017279178 -0.0052962294 -0.021452602 0.030528741 -0.020297065 0.008169822 -0.038473755 -0.0020466668
0.022364447 -0.022825437 0.037885237 0.02150696 0.03931133 0.025376065 -0.02431309 -0.027744701
-0.017939601 0.009087381 0.030691367 -0.032869652 0.00030372528 0.004202525 0.0013229265 0.0015484847
0.026839048 0.013181377 0.004411055 0.010697452 -0.026325475 0.008102092 -0.037629385 0.0002746547
0.0068133776 0.014590737 0.010303825 0.011762316 0.010069565 0.007265777 -0.02402279 0.016670397
0.034602884 -0.026187202 0.028957395 0.025399553 -0.034079645 -0.026333723 0.008923566 -0.0015351432
-0.0011558213 -0.039937936 -0.03435587 -0.037617046 -0.031741817 0.03208415 0.032176487 0.0012652137
0.028892623 0.028694497 0.009917004 -0.0044724457 0.00029377162 0.036095586 -0.015858857 0.03658711
0.003759043 -0.036195394 0.038841344 -0.02895456 0.018659074 0.02860299 -0.030457236 0.01107097
-0.040620256 -0.021866582 0.010178949 0.02238612 -0.0071337475 -0.025120214 -0.036619335 0.0049092774
-0.01531806 -0.03622149 -0.00030892796 -0.020230634 0.039312 -0.0378886 -0.0035571717 -0.00039799407
0.0047752485 -0.026517345 0.006020396 -0.032619614 0.012771984 0.036911253 -0.027957305 0.039720517
0.01723064 -0.018912038 0.0314453 -0.021176068 -0.0015070941 -0.024501745 0.007823236 0.03657726
0.025222002 -0.031701475 -0.015018433 -0.009310266 0.0034473345 -0.033007547 0.009993497 -0.04074723
0.015442317 -0.0032281957 0.009784761 -0.038805522 -0.019708473 -0.0059746895 -0.03228237 -0.019377481
0.029608397 -0.018636636 -0.030625433 -0.037306752 -0.003184537 0.0008704419 0.02606745 0.029989788
0.020930057 -0.017131096 0.033841014 -0.027503587 -0.0395757 0.02991498 -0.028994288 0.00868934
0.031903766 -0.012456776 0.0020569847 -0.016258912 -0.030310972 -0.035272986 -0.029169908 0.029785471
-0.0065515465 -0.03658779 0.034374345 0.014038289 -0.015212375 -0.013118824 -0.038172677 0.033487715
-0.016902385 -0.005081281 -0.030420126 -0.01797465 0.003678122 0.024080392 -0.021595994 -0.0071948487
0.018279424 -0.014289836 0.015825702 -0.0048247995 -0.019663436 -0.03845967 0.03682113 0.02894584

bias f4 [24]
00000000: 10b3 db3a 51b7 d53b d984 14bd 8834 10bd
00000010: ee81 edbc 4591 c93c 3ecb d239 6954 22bd
00000020: 80a5 0a3d dbbe 023d 9d4b 723b 2b9a 1f3d
00000030: 9afd c1bc 448d d5bb 7165 f5bc eebd 5abc
00000040: 18d3 963c 16cb d5bc 4147 e03c 2c5d 23bd
00000050: f921 14b8 3129 07bd 329a acbc 1ac4 0ebb
0.0016761739 0.006522097 -0.036259506 -0.035206348 -0.02899262 0.024605403 0.00040205749 -0.03963128
0.03384924 0.031920295 0.0036971339 0.038965385 -0.023680497 -0.0065170843 -0.029955598 -0.013350947
0.018411204 -0.026097815 0.027377727 -0.039883777 -3.531759e-05 -0.032998268 -0.02106962 -0.0021784366

weight f4 [24]
00000000: 5300 803f c9fe 7f3f 1500 803f ccfe 7f3f
00000010: 0000 803f 0400 803f cd00 803f 0f00 803f
00000020: 55ff 7f3f 0700 803f 51ff 7f3f 1000 803f
00000030: 3d00 803f 3600 803f 0500 803f 0300 803f
00000040: 00fe 7f3f 54ff 7f3f 4ffc 7f3f dafc 7f3f
00000050: 0bfc 7f3f 2aff 7f3f 92fe 7f3f f6f9 7f3f
1.0000099 0.99998146 1.0000025 0.99998164 1.0 1.0000005 1.0000244 1.0000018
0.9999898 1.0000008 0.99998957 1.0000019 1.0000073 1.0000064 1.0000006 1.0000004
0.9999695 0.99998975 0.9999437 0.99995196 0.9999396 0.99998724 0.9999782 0.99990785

bias f4 [24]
00000000: b424 b138 674c ddb7 53ef 2838 ce47 f8b7
00000010: 8e8f 8e36 3bd8 8037 5644 cc38 607c 0738
00000020: 4957 0038 fdf9 a437 e0e5 b8b7 0387 3b38
00000030: d458 5c38 2bdb b738 4fb5 ce37 9187 24b6
00000040: caef 19b8 8106 63b7 f53c e2b7 079d 4ab8
00000050: 37f5 8bb8 d89d 15b6 4fa5 3cb8 3a0b bdb8
8.446854e-05 -2.638083e-05 4.027721e-05 -2.959734e-05 4.2486417e-06 1.535948e-05 9.7402066e-05 3.230234e-05
3.059887e-05 1.9666733e-05 -2.2041553e-05 4.4710014e-05 5.2534815e-05 8.766943e-05 2.4641542e-05 -2.4516814e-06
-3.6701364e-05 -1.3531769e-05 -2.6969685e-05 -4.8306796e-05 -6.673711e-05 -2.2294607e-06 -4.497665e-05 -9.0143134e-05

running_mean f4 [24]
00000000: 0e2c 14be 015b b33d 5092 a1bc e213 61be
00000010: 1af0 0bbe 3a88 8d3d ca4b 23be e529 113e
00000020: ad48 da3b fe63 2e3e faef 9cbe 2161 0f3d
00000030: e64f 3e3e 5465 e3be 9d57 23be 4aa3 f9be
00000040: aab0 6abc 82f5 173e 1c9d b6bc 1ec6 153d
00000050: a629 513c d94f 06be 4833 10be 9ba9 143f
-0.1446993 0.08757592 -0.019723088 -0.21980241 -0.1366581 0.06910749 -0.1594688 0.14176138
0.0066614957 0.17030331 -0.30651838 0.03500474 0.18585166 -0.44413245 -0.1595139 -0.48757392
-0.014324347 0.14839748 -0.022291712 0.036565892 0.012766277 -0.13116397 -0.14082062 0.580713

running_var f4 [24]
00000000: 5dd8 a83d 844b 683e 73cc f53d 7e93 433e
00000010: 39c0 033e b678 b03d 3430 053e 4e0a e93d
00000020: 4120 f93d 0b75 973d 8b67 b53d 2440 e13d
00000030: c041 c23d a882 f83d 0356 353e a1c0 0d3e
00000040: feea a93d 2f0d e13d f571 f53d 6002 193e
00000050: 285d b53d 792f 113e 8316 d83d adfa 523e
0.08244393 0.22685057 0.12001886 0.19099233 0.12866296 0.08616774 0.1300667 0.113789186
0.12164355 0.07395371 0.0885764 0.10998562 0.09485197 0.12134296 0.17708592 0.13843013
0.08296774 0.10988843 0.11984626 0.14942312 0.08855659 0.14178266 0.10551169 0.20603438

weight f4 [10, 16224]
00000000: 8d1f 61bb e620 a63b c9dc 5d3a da8d 1a3b
00000010: 78c5 82bb a00a 293b 3d2d 6bbb f9f8 373a
00000020: 9a48 8739 a62e 62ba 5297 b0b9 6859 813b
00000030: 86d2 4cbb fb44 1dbb 8863 913b b83e b2bb
00000040: eefd a5ba 818f 99bb 73ed 863b 1ac0 d43b
00000050: e921 b73b ecfd d43b 62b4 00bb 6eec 1cbb
00000060: fff0 7dba 5a92 e9bb 3849 6bbb b6fe 903b
00000070: 84eb 30bb 7c11 08ba be1e 8b3b 6e48 d8ba
00000080: 948b aa3b 7042 dabb 0674 d5ba 6949 783b
00000090: bc85 683b b079 bf3b 84a9 433b c6f8 a1bb
000000a0: c64d 6fbb 9e69 0abb 2fc9 243b 3bd8 ec3a
000000b0: 8815 c53b dd98 0d3b 25ad 2ab9 ff0f 893b
000000c0: 67cd 9b3b 2be2 363b 2c02 d63b 996d 4c3a
000000d0: 6d97 97bb 1a58 b43b 7542 a7bb c66f 45b8
000000e0: 0948 07bb a824 8abb a824 01bb 8892 cb3b
000000f0: d7f1 813b cb19 c7bb b362 c2bb fb7b b83b
00000100: 030b dbb9 c144 873a e2d6 973b 3e6b 57bb
00000110: 401c 30bb 256e 6b3b 42b1 60bb 8ee9 a0b9
00000120: afce c4bb 5b1d 213a 822b 523b 9fec a8bb
00000130: e297 a2bb 1365 dfba 98a0 763b 1271 f43b
00000140: 4678 66ba eba9 e23b 7112 dd3b 382f 33bb
00000150: a808 f33a b0c7 943b c2fe 9ebb aa14 bb3a
00000160: bf11 c33b 0051 db38 a05f 1cbb 6935 a03b
00000170: b7a9 0cbb fb84 c6bb 5b70 98bb 0937 e13b
00000180: b9b0 daba 3f65 ab3a e827 4abb de23 8ebb
00000190: e6c9 32bb eaeb d83b 3d32 e9ba c5aa bb39
000001a0: 5cd2 c9bb 6397 c3bb 9c8e 893b 755b 81ba
000001b0: 657c 2abb c87e 42ba 00ad eeba 39c8 af3b
000001c0: a37d 7dbb a6e6 133b 1ea0 c33a 630a a3bb
000001d0: 2b7d 803b f495 b63b 1cca 7fba 8569 c73b
000001e0: c602 8a3a ee89 8c3b efa6 663b 56bc ac3b
000001f0: 6418 a7ba 99c3 a3bb 2ce3 6abb 5efd 843b
00000200: 114b 51ba a3f6 c3bb 8abf 483a 6a5a 0839
00000210: fc95 9c3b 2788 883b 2a23 fd3b f07e c23b
00000220: ad63 a7ba a673 19bb 1699 a6bb ce09 1ebb
00000230: 353d bfbb 172e d63b cddb ce3a 05ee a8ba
00000240: 026d d53a d4cd dc3b 3195 833b edf9 d03b
00000250: 7171 e5bb 8a8a de3b cec9 063b d607 84bb
00000260: ba78 a1ba 407a b9bb 9941 0a3b 9712 8e3b
00000270: 8155 cebb 7863 ca3b 6a46 af3b b62d 5bbb
00000280: 3c13 fdbb 2f56 c0bb 6c1f a73b dafc d63a
00000290: ec8f 39ba 8dc9 683b ceb8 d53b 5447 e93b
000002a0: 750a f73b 8feb b13b 0b0e a7bb 4dde 84bb
000002b0: 0463 a2bb c498 fdbb 38f7 90bb f1f7 9dbb
000002c0: f91b d0b9 3afa edbb 337a 0cbb cc82 c7bb
000002d0: 2cf8 a33b d7c1 d8bb a697 2dbb 21da 5abb
000002e0: 07c2 4c3b 083e bebb 0959 f03b 1c9c a73b
000002f0: 5a04 a9bb ab5d b03b 6c7d 1cbb 5cac 7b3b
00000300: 8135 cabb b88e e3ba 3a76 14bb d43f b13b
00000310: 12d7 82bb d67c 8dbb 83db 3b3a 3c1a dcbb
00000320: 1ec0 ed3b 4a92 113b 1406 e13b d016 93bb
00000330: 5699 d13b 008e 98bb 6b50 d63b 7a18 5dbb
00000340: 414c 70bb beb5 fcbb bae7 d73b 832a 4aba
00000350: bdfb ae3a 1681 ed3b b033 4fbb 8526 e83b
00000360: 9ae4 dabb afb2 e5bb 821f e7bb e0c1 f4ba
00000370: 1565 79bb db6c 923b bcf8 fdbb dd2c 2d3b
00000380: c593 d6ba 642d cdbb 75b2 303b 2d59 103a
00000390: 3f38 9cbb 51ad eebb d0bc 8fbb 98b9 36bb
000003a0: b1a9 e6bb 0910 7cb9 6afa 983b 6d69 37bb
000003b0: 7d5e 823b f7ba eabb 60a7 acbb a39b b53b
000003c0: c23c b63b c371 f33b 3a01 7f3b d130 a73b
000003d0: da90 21bb 7729 4e3b 3a5e 60bb e363 cb3b
000003e0: 794b 8bbb 4dee a83b 6aab 86ba 5bd5 20bb
000003f0: 45a3 353a 0703 9abb 9d35 953b ef70 b1bb
-0.003435108 0.00506984 0.00084633805 0.0023583085 -0.0039908253 0.0025793687 -0.0035885118 0.0007017996
0.000258033 -0.0008628167 -0.00033682078 0.0039474256 -0.0031253411 -0.0023997414 0.004436914 -0.0054396056
-0.0012664178 -0.0046862965 0.0041176616 0.006492627 0.005588759 0.0064999964 -0.0019638767 -0.0023944634
-0.00096870953 -0.007128042 -0.0035901796 0.004424895 -0.0026995847 -0.00051905937 0.004245608 -0.0016501078
0.0052046273 -0.006660752 -0.0016285188 0.0037885553 0.0035480103 0.0058433637 0.0029855678 -0.004942986
-0.0036514862 -0.0021120082 0.0025144329 0.0018069813 0.0060145296 0.0021606006 -0.00016276965 0.004182815
0.0047547105 0.0027905803 0.0065310206 0.0007798314 -0.0046262057 0.0055036666 -0.005104358 -4.7072557e-05
-0.0020642302 -0.0042157955 -0.0019705687 0.0062125362 0.003965597 -0.006076073 -0.005932176 0.005630014
-0.0004177914 0.0010320173 0.0046337703 -0.0032870318 -0.0026872307 0.0035923806 -0.0034285341 -0.0003069159
-0.006006084 0.0006146037 0.003206939 -0.0051551606 -0.0049619535 -0.0017043672 0.0037632342 0.007459768
-0.0008791726 0.0069172285 0.006746583 -0.0027341377 0.0018542008 0.004540406 -0.004852147 0.0014273126
0.0059530432 0.00010457821 -0.0023860708 0.0048891795 -0.0021463463 -0.006058333 -0.0046520657 0.006873016
-0.0016684748 0.0013076438 -0.003084654 -0.004337772 -0.0027280985 0.00661992 -0.0017791461 0.00035794653
-0.00615911 -0.0059689744 0.0041979086 -0.0009869175 -0.0026014086 -0.00074194046 -0.0018209517 0.0053644446
-0.0038679622 0.0022567897 0.0014925038 -0.0049756034 0.003921171 0.005572075 -0.00097575947 0.006085577
0.0010529391 0.0042889034 0.0035194715 0.005271475 -0.0012748358 -0.0049976823 -0.0035840971 0.004058524
-0.0007983903 -0.005980329 0.0007657936 0.00013003653 0.0047786217 0.0041666212 0.007725139 0.0059355423
-0.0012770795 -0.002341488 -0.0050841672 -0.002411473 -0.005836154 0.006536256 0.0015782058 -0.0012888318
0.0016283097 0.006738404 0.0040155877 0.0063774497 -0.0070020487 0.0067914175 0.0020567062 -0.0040292544
-0.0012319305 -0.0056603253 0.0021096228 0.004335712 -0.006296814 0.0061764084 0.00534897 -0.0033443994
-0.00772324 -0.005869649 0.0051001813 0.001640226 -0.0007078636 0.0035520524 0.0065222746 0.0071190987
0.0075390884 0.005429692 -0.0050981096 -0.0040548206 -0.0049556512 -0.0077391583 -0.004424002 -0.0048208167
-0.00039693693 -0.0072624953 -0.002143514 -0.0060885902 0.0050039496 -0.0066149044 -0.0026488095 -0.0033394175
0.003124358 -0.0058057345 0.0073348326 0.0051150452 -0.0051579894 0.00538226 -0.0023878468 0.0038402295
-0.006170929 -0.0017361259 -0.0022653476 0.0054092202 -0.0039929235 -0.00431786 0.00071661937 -0.0067169946
0.007255568 0.002221244 0.0068671796 -0.0044888034 0.006396453 -0.0046555996 0.0065403483 -0.0033736513
-0.0036666545 -0.007712095 0.0065889033 -0.0007712023 0.001335017 0.0072480543 -0.0031616502 0.00708467
-0.0066800835 -0.007009826 -0.0070533166 -0.0018673502 -0.0038054634 0.004468543 -0.0077505987 0.0026424446
-0.0016370943 -0.0062615145 0.0026961837 0.0005506452 -0.0047674472 -0.0072838445 -0.004386522 -0.0027881619
-0.0070392718 -0.00024038566 0.0046685236 -0.0027986423 0.003978549 -0.007163401 -0.005268976 0.005542235
0.005561442 0.007429333 0.0038910643 0.005102255 -0.0024652989 0.003145782 -0.003423585 0.006206976
-0.0042509404 0.005155361 -0.0010274474 -0.0024541232 0.0006928931 -0.004700068 0.0045535103 -0.005415074

bias f4 [10]
00000000: 007e a03b 27a4 a93a 00b3 843a cda1 863b
00000010: 1b83 cbbb a50f e93a c491 88ba b740 c6ba
00000020: 7dcb ed39 7f47 c9bb
0.004897833 0.0012942598 0.0010124147 0.0041086436 -0.0062106973 0.0017781152 -0.0010419418 -0.0015125488
0.00045355773 -0.006142556
