models/AdvaDemo_CleverHans_4.0.0/LOGS/models/nnet_epoch_4.pt (torch, 766091 bytes, 26 tensors)

weight f4 [12, 3, 5, 5]
0.0026150711 0.01393231 -0.070479505 -0.09132773 -0.096152775 0.0017554136 -0.018491605 -0.04473535
0.09221711 0.10340037 0.03420639 0.047470033 -0.08767732 -0.08938549 -0.111056685 -0.069614306
0.04163051 -0.111752756 0.0268485 0.08851359 0.03728192 -0.103148915 -0.059483405 0.08741734
0.056716897 0.06537282 0.020228572 -0.051332574 -0.09693311 0.06432017 0.052474488 -0.0042514848
-0.0041155447 -0.10925657 0.09989459 0.11216634 -0.08602689 0.007982089 -0.005689893 0.10708535
0.05415776 -0.018354287 -0.009197026 -0.045170262 -0.03866891 -0.0772578 -0.11056603 -0.050681487
-0.05726916 0.08526666 -0.01140934 -0.078606606 -0.06330804 0.078706026 0.11245287 0.07605375
0.084279776 0.07455222 0.085076876 -0.0822387 0.0680844 -0.056259766 -0.046677347 0.08927483
-0.07876188 -0.026964393 -0.04734243 -0.06783318 -0.0007469666 0.03017532 -0.044657942 -0.081616916
0.06490466 0.10505814 0.054158755 -0.03171566 -0.012909348 0.069959514 -0.09514661 -0.07945564
0.050842836 -0.010022986 0.08432413 0.0461776 -0.0011398226 0.07483249 0.08619603 0.06624519
-0.096296534 0.07847184 0.05201534 -0.014261776 0.008621461 0.111990154 -0.069824316 0.02331685
-0.05620236 0.036321253 0.078387834 -0.03763991 -0.01454038 0.073448 -0.09292911 0.10096213
0.09032107 0.07216142 -0.06345694 -0.044724856 -0.010049909 -0.10737643 -0.099403 0.04294015
0.008307189 -0.024369547 0.031740937 -0.08006185 0.04411693 -0.11041252 0.026316343 -0.014157459
0.010559432 0.051184833 -0.011197808 0.06072843 -0.046566673 0.009828577 0.0676588 0.085958995
-0.10697131 0.01451217 0.08031444 0.113936745 -0.09767606 -0.061271116 0.0002548286 -0.101186626
0.05058455 -0.095413364 -0.0720981 -0.10157309 0.051052712 0.046134263 0.037424613 0.08281781
-0.06898893 -0.06479733 -0.069075786 -0.11043379 0.00635238 -0.09001518 -0.00022858629 0.07927579
0.10888011 -0.046363413 0.029411247 -0.0106436005 -0.084668584 -0.10015775 -0.018811846 -0.077969775
0.08066274 0.02800197 -0.0795756 0.09546664 -0.05203854 -0.11395484 0.038865678 -0.039365217
-0.096098706 0.09872512 -0.1025509 0.035733346 -0.03932361 0.06640691 -0.046794444 0.09930606
-0.028961698 0.10366923 -0.073327646 0.09571831 -0.10253772 0.058275867 0.042582817 0.0918501
-0.10808806 -0.089161545 -0.02976402 0.10274021 0.04615192 0.00086853444 0.021452932 0.10260925
-0.05216247 0.08906835 0.05321263 0.07445201 -0.04552043 0.0101659605 -0.110104635 -0.082948074
0.09673168 -0.022570806 -0.005393186 0.086639345 0.08713399 0.062242 -0.010481758 0.079651855
0.100299 -0.09685074 -0.07522103 -0.014348031 -0.03771938 0.072917014 -0.0077854684 -0.014906345
-0.05785944 0.10193689 0.053596817 -0.0003811582 0.02878309 0.09379871 0.0001342402 0.039337784
-0.06908532 0.10056891 -0.011268976 0.08804979 0.07668054 0.019137042 0.055038862 0.06043945
0.11132861 -0.08567629 0.004400642 0.08236666 -0.0074823345 0.006420849 0.05502402 -0.04004924
0.06640421 -0.0303834 -0.102290004 -0.012084705 -0.10775434 0.07664993 0.011547596 0.08863397
0.112593204 0.09751247 0.07197044 0.09455692 0.018834356 -0.10698626 0.0655515 -0.062906
00000000: 9d61 2b3b 5844 643c 8f57 90bd 080a bbbd
00000010: bfeb c4bd e815 e63a b57b 97bc 6a3c 37bd
00000020: 53dc bc3d 93c3 d33d 001c 0c3d f06f 423d
00000030: 2b90 b3bd bd0f b7bd b071 e3bd f291 8ebd
00000040: c184 2a3d a1de e4bd 63f1 db3c 9d46 b53d
00000050: edb4 183d bd3f d3bd dfa4 73bd dd07 b33d
00000060: fa4f 683d 2fe2 853d 64b6 a53c 1b42 52bd
00000070: de84 c6bd 4bba 833d 7def 563d 0a50 8bbb
00000080: b1db 86bb e9c1 dfbd 8995 cc3d 77b7 e53d
00000090: de2e b0bd 4fc7 023c 4872 babb 904f db3d
000000a0: 87d4 5d3d bb5b 96bc 1faf 16bc 7404 39bd
000000b0: 4a63 1ebd 5639 9ebd 7170 e2bd 6497 4fbd
000000c0: 1193 6abd 49a0 ae3d 3eee 3abc 80fc a0bd
000000d0: a5a7 81bd a030 a13d b14d e63d 12c2 9b3d
000000e0: e09a ac3d d6ae 983d c93c ae3d c36c a8bd
000000f0: d56f 8b3d a470 66bd bf30 3fbd b9d5 b63d
00000100: e94d a1bd 6ee4 dcbc 23ea 41bd 1fec 8abd
00000110: 14d0 43ba 3c32 f73c 3feb 36bd c526 a7bd
00000120: bcec 843d b928 d73d 92d5 5d3d 48e8 01bd
00000130: bb81 53bc ef46 8f3d 3adc c2bd a3b9 a2bd
00000140: 9440 503d 7337 24bc 21b2 ac3d b924 3d3d
00000150: 1a66 95ba c741 993d 8b87 b03d 8fab 873d
00000160: 1e37 c5bd d8b5 a03d 0a0e 553d 39aa 69bc
00000170: 0741 0d3c 185b e53d 0d00 8fbd fb02 bf3c
00000180: 7234 66bd 98c5 143d cd89 a03d 4e2c 1abd
00000190: c63a 6ebc e86b 963d 9e51 bebd 3cc5 ce3d
000001a0: 41fa b83d 5ec9 933d b6f5 81bd 6931 37bd
000001b0: 60a8 24bc 2ce8 dbbd cd93 cbbd 03e2 2f3d
000001c0: e01a 083c a5a2 c7bc c902 023d 78f7 a3bd
000001d0: f4b3 343d f61f e2bd 5f95 d73c b0f4 67bc
000001e0: 7801 2d3c 30a7 513d 0377 37bc 60be 783d
000001f0: b2bc 3ebd 0a08 213c b290 8a3d 450b b03d
00000200: c613 dbbd 74c4 6d3c e67b a43d ab57 e93d
00000210: 630a c8bd 6cf7 7abd 849a 8539 ef3a cfbd
00000220: bf31 4f3d 1568 c3bd 2ba8 93bd 8d05 d0bd
00000230: a61c 513d 48f7 3c3d 8d4a 193d 629c a93d
00000240: 114a 8dbd 76b4 84bd 9b77 8dbd 1c2b e2bd
00000250: a027 d03b e159 b8bd aab0 6fb9 585b a23d
00000260: 89fc de3d 90e7 3dbd dbef f03c 7f62 2ebc
00000270: b966 adbd 821f cdbd 4d1b 9abc 9eae 9fbd
00000280: 8232 a53d 6364 e53c 88f8 a2bd 0484 c33d
00000290: 5d26 55bd 2861 e9bd 9e31 1f3d 6c3d 21bd
000002a0: 66cf c4bd 6530 ca3d 3506 d2bd 215d 123d
000002b0: cb11 21bd 5900 883d 88ab 3fbd fa60 cb3d
000002c0: 1541 edbc 8950 d43d ce2c 96bd f607 c43d
000002d0: 4cff d1bd adb2 6e3d 526b 2e3d e81b bc3d
000002e0: 465d ddbd 549a b6bd add3 f3bc 7669 d23d
000002f0: cc09 3d3d 5cae 633a 0fbe af3c cc24 d23d
00000300: 50a8 55bd 7869 b63d 7df5 593d 4c7a 983d
00000310: a173 3abd 218f 263c 8a7e e1bd aee0 a9bd
00000320: 421b c63d 69e6 b8bc 53b9 b0bb f86f b13d
00000330: 4e73 b23d 78f1 7e3d aebb 2bbc 8320 a33d
00000340: 9069 cd3d ae59 c6bd 7c0d 9abd 0114 6bbc
00000350: a37f 1abd 8455 953d 3e1d ffbb be39 74bc
00000360: 05fe 6cbd 4ac4 d03d 5688 5b3d 30d6 c7b9
00000370: 84ca eb3c 8a19 c03d d4c2 0c39 a820 213d
00000380: 9b7c 8dbd 13f7 cd3d 83a1 38bc 7353 b43d
00000390: b00a 9d3d 49c5 9c3c 6e70 613d 5b8f 773d
000003a0: 4100 e43d 0d77 afbd 4333 903b daaf a83d
000003b0: 5f2e f5bb fc65 d23b de60 613d ac0a 24bd
000003c0: eefe 873d 9ce6 f8bc 6c7d d1bd edfe 45bc
000003d0: 4fae dcbd a3fa 9c3d 2132 3d3c ba85 b53d
000003e0: 4497 e63d 9eb4 c73d 3d65 933d 0fa7 c13d
000003f0: 824a 9a3c 9d1b dbbd dd3f 863d dcd4 80bd

bias f4 [12]
-0.11251218 -0.067855984 0.0037729442 -0.011903964 -0.05667002 -0.08004981 -0.08968825 -0.114566855
0.08279461 -0.03444238 -0.01060506 -0.007495515
00000000: c96c e6bd 14f8 8abd 8043 773b d808 43bc
00000010: d31e 68bd 28f1 a3bd 79ae b7bd 07a2 eabd
00000020: 3890 a93d 7413 0dbd d8c0 2dbc f09c f5bb

weight f4 [12]
1.0000055 0.99998915 1.0000101 1.0000085 1.000014 0.9999922 0.9998078 0.9999638
0.9999071 0.99995875 1.0000083 0.9998789
00000000: 2e00 803f 4aff 7f3f 5500 803f 4700 803f
00000010: 7500 803f 7dff 7f3f 67f3 7f3f a1fd 7f3f
00000020: e9f9 7f3f 4cfd 7f3f 4600 803f 10f8 7f3f

bias f4 [12]
-2.6356496e-05 1.4256603e-05 0.0001833811 2.4638146e-05 0.00015525332 -0.00017251998 -0.00013359604 -4.2677148e-05
-6.3403546e-05 -5.6701392e-05 7.3310046e-05 -4.7167723e-06
00000000: 2518 ddb7 a52f 6f37 fd49 4039 04ae ce37
00000010: 7fcb 2239 7be6 34b9 ea15 0cb9 3d00 33b8
00000020: 85f7 84b8 a8d2 6db8 08be 9938 c444 9eb6

running_mean f4 [12]
-0.1799289 -0.11652738 0.18962972 0.24379781 -0.43343738 0.06323281 -0.09594189 -0.1456781
0.044574652 -0.032559 -0.06952103 0.16583443
00000000: 483f 38be e8a5 eebd 4b2e 423e 22a6 793e
00000010: 81eb ddbe 3480 813d 2e7d c4bd a42c 15be
00000020: e993 363d 965c 05bd 0b61 8ebd 80d0 293e

running_var f4 [12]
0.0082714455 0.005349544 0.021988746 0.035746664 0.082467094 0.013548023 0.007174001 0.0040842774
0.0046162996 0.0033363972 0.0027018324 0.017639443
00000000: f584 073c 3a4b af3b be21 b43c 186b 123d
00000010: 82e4 a83d 87f8 5d3c e213 eb3b 67d5 853b
00000020: 5444 973b 75a7 5a3b 3a11 313b 9880 903c

weight f4 [12, 12, 5, 5]
-0.00885791 0.026645727 0.00045195574 0.056995507 -0.027047886 -0.02974495 -0.05028153 0.0031252392
0.015929706 -0.044089153 0.028389072 0.025156694 0.029988918 -0.050865944 0.019357778 -0.0026928831
0.02161511 0.04214549 -0.0076318365 0.046656977 -0.050858807 0.009146652 -0.01463093 0.045838047
-0.05153542 0.0172676 -0.049981818 0.043319035 -0.028716048 -0.00572318 0.04736197 -0.0005333362
-0.03537357 -0.017228713 -0.001627804 -0.0054810923 0.035275612 -0.052132145 -0.05323326 0.03589007
0.043399096 0.04892095 -0.042446133 -0.036964588 0.016377721 0.024581151 0.017749166 0.014611555
-0.034649882 0.03268313 -0.057315305 0.032750353 -0.041233424 -0.05552599 -0.008686075 0.048564527
0.011131848 -0.004476077 0.051575538 -0.032092407 -0.0025125586 -0.033520456 -0.020501796 0.0017206125
0.0035356274 -0.035782497 0.0394328 -0.045189805 -0.008777376 -0.045685455 0.015507272 -0.0462286
0.04498418 0.025356652 -0.038971476 -0.026110606 0.031566385 -0.05750568 -0.055649396 -0.0076154075
0.02128263 0.024016963 0.016344251 0.009681388 -0.05019128 0.009156224 0.0111228 0.0165773
-0.041295376 0.033421956 0.053633776 0.013342004 0.010043471 0.0022194742 0.04857875 0.03705729
0.051904295 -0.04008613 0.007303221 -0.017363558 0.051191878 0.05172147 -0.016300244 -0.04702066
-0.028921263 -0.029906608 0.054121822 -0.022052664 0.055928133 -0.015285399 0.03722556 -0.0049914434
-0.051659293 0.025550803 0.034637228 -0.04186059 -0.03525622 0.05193768 -0.021301659 -0.035219274
-0.02025807 0.043750867 0.010900234 0.027409906 0.015155877 -0.031347416 -0.0048100865 0.054383047
-0.034783427 -0.014158501 0.046420965 -0.006988307 -0.015860047 0.022556413 0.014915471 0.0496607
-0.017422471 0.055968687 0.005865395 0.0019117969 0.03444225 -0.041802503 -0.024207607 -0.026435584
-0.05284615 0.00553604 0.055176362 0.05590508 -0.03316487 0.0027256215 -0.05216637 0.02573166
0.04117919 0.049550697 0.032340623 0.015257902 0.052898508 0.04689712 0.023381948 0.040531855
0.0010256078 0.032837555 0.032921903 -0.05525518 0.05777862 0.015393436 0.015309377 0.014467816
-0.055774845 0.025943667 0.053121265 -0.015760005 0.015402754 -0.005440568 0.049023055 -0.049332824
-0.049148723 -0.002809512 0.024818068 0.008168544 -0.036781337 -0.04346052 -0.037530888 -0.039601713
-0.052322183 -0.045779217 -0.045357652 -0.012659603 0.053717393 0.017900227 -0.041774385 -0.011575373
0.054814357 0.04273751 0.01577674 0.02711459 0.040380433 -0.036952723 0.025957868 -0.004708626
0.016332304 -0.019683037 -0.018078469 0.03360433 -0.029466677 0.00869126 0.030802313 0.034646124
-0.051210992 0.0331096 -0.023031667 0.035557486 0.035052735 -0.014102483 -0.03675049 0.024323037
0.02844363 0.02742817 -0.05680594 0.005018389 0.03313334 0.0528986 -0.03463359 0.014266017
0.013569146 0.014842842 0.053284816 -0.027720792 0.01986411 0.03154976 -0.046521153 -0.028066691
-0.020896893 0.04350612 0.0014570185 0.00031012713 -0.04958596 -0.047886103 -0.023506222 -0.00864653
-0.03985786 0.037020978 -0.0171565 0.042726908 0.04944224 -0.013279261 -0.05437604 0.02257184
-0.003488081 0.02549282 0.023206675 0.04813914 0.021567902 -0.032866064 0.042105608 -0.034532607
00000000: c420 11bc 2448 da3c 79f4 ec39 1f74 693d
00000010: 8793 ddbc aeab f3bc 01f4 4dbd d0d0 4c3b
00000020: 047f 823c d496 34bd 3390 e83c 6915 ce3c
00000030: 52ab f53c cf58 50bd 3494 9e3c 157b 30bb
00000040: 2c12 b13c c0a0 2c3d 7c14 fabb 631b 3f3d
00000050: 5351 50bd d7db 153c 91b6 6fbc adc0 3b3d
00000060: ce16 53bd c874 8d3c bcb9 4cbd 4d6f 313d
00000070: eb3d ebbc 8389 bbbb a0fe 413d 96cf 0bba
00000080: e0e3 10bd 3b23 8dbc 0a5c d5ba bc9a b3bb
00000090: 297d 103d 8488 55bd 1e0b 5abd 7701 133d
000000a0: 40c3 313d 5661 483d ffdb 2dbd 2e68 17bd
000000b0: 922a 863c 695e c93c b366 913c 4e65 6f3c
000000c0: 09ed 0dbd bfde 053d 74c3 6abd 3c25 063d
000000d0: 61e4 28bd 386f 63bd 0a50 0ebc 99eb 463d
000000e0: 5b62 363c 0eac 92bb df40 533d 5473 03bd
000000f0: bda9 24bb bf4c 09bd 62f3 a7bc 2d86 e13a
00000100: fcb5 673b ab90 12bd 4a84 213d f218 39bd
00000110: fcce 0fbc ac20 3bbd 3712 7e3c 335a 3dbd
00000120: 5541 383d c1b8 cf3c 8ea0 1fbd e9e5 d5bc
00000130: c14b 013d 138b 6bbd 9ff0 63bd ab8a f9bb
00000140: e958 ae3c 39bf c43c 61e4 853c af9e 1e3c
00000150: 5f95 4dbd fd03 163c 683c 363c 1ecd 873c
00000160: 5725 29bd 76e5 083d 17af 5b3d 6c98 5a3c
00000170: 5f8d 243c 9974 113b 83fa 463d 63c9 173d
00000180: 9999 543d 5b31 24bd dc4f ef3b 053e 8ebc
00000190: 93ae 513d e4d9 533d 1788 85bc bc98 40bd
000001a0: 49ec ecbc b4fe f4bc d8ae 5d3d caa7 b4bc
000001b0: e614 653d 9c6f 7abc d479 183d 438f a3bb
000001c0: b298 53bd eb4f d13c c4df 0d3d 0376 2bbd
000001d0: d368 10bd 9bbc 543d d180 aebc 1642 10bd
000001e0: 41f4 a5bc 1c34 333d e596 323c bd8a e03c
000001f0: 5b50 783c 2666 00bd ee9d 9dbb c2c0 5e3d
00000200: 1179 0ebd 0ff9 67bc e923 3e3d 2bfe e4bb
00000210: eeec 81bc 3ac8 b83c 0560 743c 0569 4b3d
00000220: 92b9 8ebc 6c3f 653d 8032 c03b 4295 fa3a
00000230: 5113 0d3d 1a39 2bbd 084f c6bc 708f d8bc
00000240: 3475 58bd ab67 b53b 9c00 623d bafc 643d
00000250: e3d7 07bd 57a0 323b 67ac 55bd 34cb d23c
00000260: 83ab 283d acf5 4a3d 9a77 043d 48fc 793c
00000270: 1bac 583d 3217 403d 808b bf3c bb04 263d
00000280: b06d 863a ac80 063d 1ed9 063d 4153 62bd
00000290: 46a9 6c3d c034 7c3c 2ed4 7a3c 6b0a 6d3c
000002a0: 2a74 64bd d087 d43c af95 593d 201b 81bc
000002b0: d55b 7c3c cb46 b2bb 66cc 483d 3711 4abd
000002c0: 2c50 49bd ca1f 38bb 434f cb3c 5bd5 053c
000002d0: 07a8 16bd a903 32bd fdb9 19bd 6835 22bd
000002e0: c94f 56bd fd82 3bbd f2c8 39bd 396a 4fbc
000002f0: c506 5c3d 7fa3 923c 9e1b 2bbd a2a6 3dbc
00000300: 0585 603d 870d 2f3d 393e 813c 6b1f de3c
00000310: f465 253d bd5b 17bd 98a5 d43c d14a 9abb
00000320: 53cb 853c 523e a1bc 4c19 94bc b2a4 093d
00000330: 1a64 f1bc c965 0e3c 2255 fc3c 18e9 0d3d
00000340: 9ec2 51bd ef9d 073d e8ac bcbc baa4 113d
00000350: 7593 0f3d 1a0e 67bc af87 16bd 1b41 c73c
00000360: 9e02 e93c 0bb1 e03c 58ad 68bd 4c71 a43b
00000370: d3b6 073d 34ac 583d f4db 0dbd 03bc 693c
00000380: 2051 5e3c 642f 733c 2e41 5a3d b716 e3bc
00000390: 0fba a23c 523a 013d f78c 3ebd 1eec e5bc
000003a0: f62f abbc 7933 323d 6ef9 be3a 8f98 a239
000003b0: a61a 4bbd 3824 44bd 1f90 c0bc 2daa 0dbc
000003c0: ff41 23bd 4fa3 173d ca8b 8cbc 6902 2f3d
000003d0: f283 4a3d 4291 59bc 69b9 5ebd 94e8 b83c
000003e0: 4a98 64bb 52d6 d03c ed1b be3c 8c2d 453d
000003f0: 2baf b03c 919e 06bd ee76 2c3d 1072 0dbd

bias f4 [12]
-0.013589736 0.044948243 0.023761883 0.017074116 -0.022578508 0.031799078 0.03424666 -0.029312987
-0.042049333 0.0179357 -0.0010146461 0.053378172
00000000: 7ca7 5ebc a61b 383d 48a8 c23c 04df 8b3c
00000010: 90f6 b8bc c03f 023d 3a46 0c3d ca21 f0bc
00000020: ec3b 2cbd e4ed 923c e0fd 84ba 12a3 5a3d

weight f4 [12]
1.000006 1.0000007 0.9999711 1.0000051 0.99996525 0.9999011 1.0000097 0.99989045
1.0000086 0.9997976 0.9998481 1.0000094
00000000: 3200 803f 0600 803f 1bfe 7f3f 2b00 803f
00000010: b9fd 7f3f 85f9 7f3f 5100 803f d2f8 7f3f
00000020: 4800 803f bcf2 7f3f 0cf6 7f3f 4f00 803f

bias f4 [12]
0.000116304946 0.00013768197 6.574825e-05 6.424288e-05 0.00014825938 4.7737644e-06 2.6395828e-06 -0.00018999206
0.00023768791 -0.00019256031 -0.00019510923 6.4831474e-05
00000000: bee8 f338 b95e 1039 53e2 8938 22ba 8638
00000010: 1376 1b39 532e a036 b023 3136 9b38 47b9
00000020: dd3b 7939 04ea 49b9 3c96 4cb9 22f6 8738

running_mean f4 [12]
0.10240616 0.28000534 0.17823052 0.5003227 -0.14931263 -0.4148811 -0.008343108 0.046851866
0.14301525 0.009110443 -0.1395246 0.38505155
00000000: 52ba d13d dc5c 8f3e 1082 363e 2615 003f
00000010: 69e5 18be 4c6b d4be 88b1 08bc bee7 3f3d
00000020: 9772 123e f843 153c 89df 0ebe 7a25 c53e

running_var f4 [12]
0.11296231 0.22504306 0.0963094 0.15529835 0.06617023 0.114314266 0.061110433 0.04596436
0.08212731 0.22927749 0.07266144 0.16204378
00000000: c958 e73d b071 663e dd3d c53d 8806 1f3e
00000010: 4284 873d 991d ea3d ef4e 7a3d 2045 3c3d
00000020: 5d32 a83d b8c7 6a3e 85cf 943d ceee 253e

weight f4 [24, 12, 5, 5]
0.003270634 0.02405254 -0.01819509 -0.030338785 -0.04455882 -0.011680962 0.053712852 0.038087286
-0.02911267 -0.0024263822 -0.012669002 -0.05205694 0.03707545 -0.005385237 0.006015651 -0.0107539855
-0.007016285 -0.055213153 0.023813901 -0.001592961 0.0065761777 0.034987442 -0.03110836 -0.048964005
0.05315063 -0.03586484 -0.01704477 0.037996214 -0.051088415 0.019334754 -0.039889794 -0.043468844
-0.024491776 0.03475138 0.048100557 -0.02628045 0.052738186 0.035992205 -0.028239226 -0.022820357
-0.043141775 0.017521406 0.051039834 0.01776481 0.033867188 -0.045660898 -0.026279578 -0.02832211
-0.006202413 0.05601083 -0.052977394 0.008446573 -0.032863874 -0.026290234 -0.029676493 -0.042931266
-0.03473555 0.026967606 -0.0012922564 0.026523769 0.02880168 0.007793614 0.0347466 0.037970006
-0.029541189 0.0064503276 -0.041618507 0.013378872 0.036872495 -0.00639668 0.024126865 0.022150299
-0.02231788 0.04233024 -0.025303885 0.030114355 -0.032251086 0.016355997 -0.040230803 -0.010396181
-0.052532326 -0.03399501 -0.0086479485 -0.041787412 -0.055580158 0.00062530424 -0.024420075 -0.0382417
-0.021374274 -0.017519254 0.04300446 -0.0007148002 0.032613058 0.03647672 0.04196186 -0.046982944
0.024389617 0.0014148924 -0.03317787 0.025686009 0.039361093 0.026402839 0.029153148 0.00407092
-0.036229517 0.039083768 0.029055398 -0.0530077 0.044179194 0.034624856 -0.00018469772 0.00777926
0.027809918 -0.0034692325 -0.0013806835 0.031832986 0.0032736394 -0.04725152 -0.046174407 -0.008918149
0.0013221109 0.05004296 0.04876287 -0.022519587 0.04485442 -0.0018454782 0.013482012 -0.010419833
-0.013221846 0.057309862 -0.03683344 0.007296181 -0.04909597 0.018274818 0.03009264 -0.036405817
-0.006115947 0.016885888 -0.033457924 -0.03826476 -0.009850975 0.04437307 0.05445448 -0.032516964
-0.039697513 0.017126678 0.0016463621 0.02445983 0.03469807 0.020678824 0.04785908 -0.008899709
0.039158218 0.045013063 -0.015225729 0.03941522 0.044266447 -0.042782076 0.027868124 0.011185364
0.047770314 -0.023223223 0.027514862 -0.04616343 0.013785907 0.023746977 0.036926277 -0.028310636
-0.032376513 -0.0005025337 -0.032544635 -0.024849607 0.01866293 0.043473694 0.03336496 -0.01839679
0.02620882 -0.04693871 -0.026806653 0.03387342 -0.0493809 0.020823203 -0.038479075 0.002091137
-0.0475869 0.024351392 0.021921502 0.043402158 -0.0020969093 0.015174797 0.048337188 -0.0018294307
0.0117961215 0.023718458 -0.019435758 -0.021903075 -0.013309996 0.04791216 -0.021954745 0.051454823
0.014325221 -0.017604725 0.04667138 -0.04809952 0.0023289917 0.02708494 0.03775239 0.011071334
-0.02099376 0.013679676 0.014478626 -0.016745841 0.014973521 -0.04299634 0.05497034 -0.056629457
0.00317946 0.006356441 -0.03917384 -0.002555306 -0.036110073 0.039969303 0.053948507 0.008826122
0.04870423 0.04689953 -0.05153528 0.051510368 0.0136636635 0.029620795 -0.00078671885 -0.0059299897
-0.013910949 -0.048930194 0.027684346 -0.026916668 -0.015965119 -0.025641935 0.01846149 -0.00307709
-0.052755117 -0.047352325 0.0030014003 0.012670379 -0.018039593 -0.011146819 0.018526034 0.04625025
0.0232763 -0.031334143 -0.038140748 -0.037161563 0.025264597 -0.014295749 0.018480603 -0.023672342
00000000: 2258 563b d509 c53c df0d 95bc 0b89 f8bc
00000010: 4f83 36bd 8161 3fbc 0202 5c3d 6a01 1c3d
00000020: b27d eebc f003 1fbb a591 4fbc a839 55bd
00000030: 6ddc 173d a476 b0bb f01e c53b 7c31 30bc
00000040: dde8 e5bb 3027 62bd 5f15 c33c e7ca d0ba
00000050: fa7c d73b fe4e 0f3d f6d6 febc 7b8e 48bd
00000060: 7ab4 593d 03e7 12bd 79a1 8bbc eba1 1b3d
00000070: 1642 51bd eb63 9e3c 7b63 23bd 630c 32bd
00000080: faa2 c8bc 7757 0e3d 1705 453d 194a d7bc
00000090: ff03 583d 906c 133d f355 e7bc c2f1 babc
000000a0: 6eb5 30bd 0d89 8f3c 250f 513d 8287 913c
000000b0: 52b8 0a3d ec06 3bbd 4548 d7bc c503 e8bc
000000c0: 9c3d cbbb 9d6b 653d d3fe 58bd 7f63 0a3c
000000d0: 459c 06bd 9e5e d7bc 1e1c f3bc b2d8 2fbd
000000e0: dd46 0ebd 2beb dc3c ee60 a9ba 6048 d93c
000000f0: 80f1 eb3c 9361 ff3b 7352 0e3d 7086 1b3d
00000100: 5d00 f2bc 455d d33b 2b78 2abd 0e33 5b3c
00000110: 9d07 173d 3e9b d1bb b4a5 c53c 8b74 b53c
00000120: fdd3 b6bc 7962 2d3d 184a cfbc 61b2 f63c
00000130: b719 04bd 03fd 853c 0ec9 24bd be54 2abc
00000140: 232c 57bd 5a3e 0bbd 20b0 0dbc 4729 2bbd
00000150: 05a8 63bd 75eb 233a 9c0c c8bc 54a3 1cbd
00000160: 1a19 afbc 8a84 8fbc 7225 303d 6e61 3bba
00000170: 4595 053d 9d68 153d 33e0 2b3d 3071 40bd
00000180: bccc c73c e973 b93a 85e5 07bd 776b d23c
00000190: 1939 213d c44a d83c 95d2 ee3c 5a65 853b
000001a0: 6765 14bd 4d16 203d 9605 ee3c 9a1e 59bd
000001b0: 3ef5 343d cbd2 0d3d 6bab 41b9 2ae9 fe3b
000001c0: a0d1 e33c 105c 63bb 0df8 b4ba 4e63 023d
000001d0: 8e8a 563b cf8a 41bd 6021 3dbd 6e1d 12bc
000001e0: ae4a ad3a d9f9 4c3d 93bb 473d ff7a b8bc
000001f0: 45b9 373d f9e3 f1ba a8e3 5c3c f2b7 2abc
00000200: 71a0 58bc bfbd 6a3d a9de 16bd cd14 ef3b
00000210: db18 49bd 12b5 953c d784 f63c 441e 15bd
00000220: 4868 c8bb 4654 8a3c 2d0b 09bd 82bb 1cbd
00000230: fc65 21bc 89c0 353d a90b 5f3d 8230 05bd
00000240: dc99 22bd 3f4d 8c3c bfca d73a fb5f c83c
00000250: 901f 0e3d a366 a93c e207 443d 16d0 11bc
00000260: 5e64 203d 9e5f 383d 5675 79bc db71 213d
00000270: bc50 353d 423c 2fbd b14b e43c d142 373c
00000280: ceaa 433d a13e bebc d966 e13c dd15 3dbd
00000290: 49de 613c 0589 c23c 0240 173d b5eb e7bc
000002a0: 3c9d 04bd 77bc 03ba 864d 05bd 6791 cbbc
000002b0: 00e3 983c 7911 323d b2a9 083d ddb4 96bc
000002c0: e1b3 d63c ce42 40bd a099 dbbc dbbe 0a3d
000002d0: a043 4abd 6c95 aa3c 3c9c 1dbd 750b 093b
000002e0: 7bea 42bd 927c c73c b994 b33c 76c6 313d
000002f0: 4d6c 09bb b69f 783c 37fd 453d 82c9 efba
00000300: 8544 413c 364d c23c bd37 9fbc 146e b3bc
00000310: 2b12 5abc 8b3f 443d 70da b3bc 4bc2 523d
00000320: 55b4 6a3c c937 90bc 7d2a 3f3d 0104 45bd
00000330: ffa1 183b 3ce1 dd3c 40a2 1a3d 8a64 353c
00000340: 1bfb abbc b820 603c c237 6d3c 932e 89bc
00000350: 8053 753c ee1c 30bd 9428 613d 4af4 67bd
00000360: 7d5e 503b b149 d03b c074 20bd ec76 27bb
00000370: 28e8 13bd dab6 233d 1cf9 5c3d 709b 103c
00000380: 167e 473d b919 403d a816 53bd 89fc 523d
00000390: 8fdd 5f3c 4fa7 f23c cf3b 4eba 5c50 c2bb
000003a0: c0ea 63bc 076b 48bd 48ca e23c 5880 dcbc
000003b0: 48c9 82bc 090f d2bc 8d3c 973c 01a9 49bb
000003c0: c015 58bd 83f4 41bd 24b3 443b 6c97 4f3c
000003d0: c5c7 93bc 26a1 36bc e9c3 973c e770 3d3d
000003e0: f0ad be3c 3b58 00bd 7939 1cbd b936 18bd
000003f0: b3f7 ce3c b838 6abc a264 973c 80ec c1bc

bias f4 [24]
0.0045477413 0.00769604 -0.055392936 0.01901535 -0.053256083 -0.0016914345 0.055180043 0.057278574
-0.023031041 -0.043131523 0.038203917 -0.037899524 0.001601398 -0.013325494 -0.0041597523 -0.042706396
-0.01660971 0.011218466 0.012965813 0.039046444 0.0116475 -0.003777951 -0.03960351 0.026313923
00000000: 3805 953b 102f fc3b b4e3 62bd 14c6 9b3c
00000010: 0d23 5abd 20b3 ddba 7804 623d f09c 6a3d
00000020: 98ab bcbc aeaa 30bd b67b 1c3d 883c 1bbd
00000030: 00e6 d13a 2c53 5abc 884e 88bb e7ec 2ebd
00000040: 1611 88bc a8cd 373c 906e 543c 2aef 1f3d
00000050: 28d5 3e3c 8097 77bb 4a37 22bd 4c90 d73c

weight f4 [24]
1.0000097 1.0000063 1.0000006 0.99992853 0.99988073 0.9998623 0.99990034 1.0000036
0.99996585 0.9998363 0.9999597 0.99971515 1.0000235 0.9999956 0.9999169 1.0000167
0.9999854 1.0000042 1.0000048 1.0000077 0.9998556 1.0000082 0.99994206 1.0000107
00000000: 5100 803f 3500 803f 0500 803f 51fb 7f3f
00000010: 2ff8 7f3f faf6 7f3f 78f9 7f3f 1e00 803f
00000020: c3fd 7f3f 46f5 7f3f 5cfd 7f3f 55ed 7f3f
00000030: c500 803f b6ff 7f3f 8efa 7f3f 8c00 803f
00000040: 0bff 7f3f 2300 803f 2800 803f 4100 803f
00000050: 89f6 7f3f 4500 803f 34fc 7f3f 5a00 803f

bias f4 [24]
7.358593e-05 1.3978016e-05 0.00021910969 -8.564273e-05 -0.0001648861 -9.341981e-05 -6.975136e-05 4.1783976e-05
5.6495763e-05 -8.007655e-05 -1.50307715e-05 -0.00021864567 0.00017642476 2.1432817e-05 -1.0244086e-05 0.00018877974
-7.063928e-05 7.030911e-05 -3.95915e-06 0.00022275711 -8.973775e-05 0.00013301933 -3.128871e-05 0.00017021102
00000000: 2552 9a38 1f83 6a37 cfc0 6539 179b b3b8
00000010: 47e5 2cb9 61ea c3b8 7a47 92b8 3441 2f38
00000020: ddf5 6c38 c5ee a7b8 ac2c 7cb7 4044 65b9
00000030: a9fe 3839 a0ca b337 04de 2bb7 2df3 4539
00000040: 2d24 94b8 ea72 9338 d7d8 84b6 e893 6939
00000050: 9631 bcb8 1b7b 0b39 ff3b 03b8 ac7a 3239

running_mean f4 [24]
0.21176587 -0.17753215 -0.23888041 0.5727348 -0.13086686 0.11584813 -0.012701516 0.13648026
0.13693249 -0.43513587 0.32060096 -0.105422616 -0.6437058 0.06577997 -0.022330007 -0.16278781
0.0162246 0.061150547 -0.23983167 0.21678676 0.2601 -0.23967664 -0.5718509 0.5596055
00000000: 27d9 583e fdca 35be 119d 74be bf9e 123f
00000010: f601 06be c941 ed3d 051a 50bc 7bc1 0b3e
00000020: 0838 0c3e 21ca debe cf25 a43e d0e7 d7bd
00000030: e7c9 24bf a6b7 863d 6bed b6bc d9b1 26be
00000040: 74e9 843c ff78 7a3d 6f96 75be 59fd 5d3e
00000050: d42b 853e cb6d 75be d264 12bf 4e42 0f3f

running_var f4 [24]
0.11419664 0.18886517 0.22259998 0.26355526 0.19234198 0.11702494 0.14321971 0.13487172
0.18111654 0.17810643 0.26441774 0.1921854 0.41053402 0.14303304 0.27824336 0.23745178
0.2073801 0.13771637 0.1509803 0.19161184 0.14178874 0.22035043 0.16704245 0.25584176
00000000: eedf e93d df65 413e 40f1 633e b7f0 863e
00000010: 4cf5 443e c6aa ef3d 30a8 123e d01b 0a3e
00000020: 9d76 393e 8861 363e c361 873e 40cc 443e
00000030: 8431 d23e 4177 123e ea75 8e3e 8f26 733e
00000040: 735b 543e 8505 0d3e 949a 1a3e e535 443e
00000050: 1131 113e 8ba3 613e 2d0d 2b3e b1fd 823e

weight f4 [24, 24, 5, 5]
0.009373254 -0.005891182 0.013534049 0.03799147 -0.039708406 -0.03946904 -0.030240418 -5.554634e-05
-0.014520684 -0.008134897 0.0036213773 -0.023483915 0.031038975 -0.032319944 -0.014274148 -0.034150984
-0.024343016 -0.016202657 -0.010039531 -0.03819486 -0.0131752845 -0.0012462413 -0.025372976 0.00053201796
-0.03909694 -0.017280275 -0.0034164267 -0.006471288 0.030515661 -0.013212346 -0.03884841 -0.032875802
0.026273627 -0.020718107 -0.03749095 0.011041219 0.02919333 -0.016385151 0.007816329 -0.035130125
-0.005808713 0.02980292 -0.0048854346 -0.0034611612 0.0049958914 -0.03938597 -0.013380295 -0.027036875
-0.007564407 0.020149404 0.023672549 0.018162284 -0.022677235 0.03008768 0.031123266 0.02384367
-0.020741278 0.017544134 -0.019599935 0.028950587 -0.034865636 0.0017975525 -0.03932873 -0.010920374
0.027086638 0.0033775675 -0.002167218 0.04014299 -0.018802455 0.018215125 -0.038586136 -0.029072905
0.030402696 0.020758172 -0.024760624 -0.03045986 0.022683538 -0.024911895 0.0036384314 0.037617978
-0.0023037787 -0.0079973 0.02413997 0.02372133 -0.0037066347 0.026540231 0.017262612 -0.020714689
0.012204242 0.0030998562 0.0028159078 -0.021537507 -0.01704434 0.004589554 -0.034877516 -0.008711722
0.03181328 0.021455111 -0.039000094 0.013362885 0.016659461 -0.037398092 -0.0059193773 -0.026070539
-0.036570832 -0.0154556 -0.00449203 -0.008801254 -0.034106337 0.02987258 0.03365689 0.023153901
-0.018584529 0.02553326 0.023978548 -0.038101114 -0.0071981233 0.021541378 -0.02152979 0.029109214
0.013967712 0.03717987 0.0047730496 0.031864002 0.011999999 -0.039217167 0.0011665688 -0.018821916
-0.037395388 -0.035515826 0.01318432 0.013189916 -0.02377796 0.02471714 0.0108049745 -0.0024551353
0.03566596 0.032655448 0.02994089 0.002868483 -0.031101659 -0.039282806 -0.031472165 0.02638004
0.04074378 0.018100755 -0.040264368 0.031557806 0.038155153 -0.01334307 -0.026064552 -0.038523845
-0.02002416 0.040708292 -0.03727944 -0.03808875 -0.03435738 -0.017020466 -0.014897492 0.019369947
0.005642491 0.019817144 0.029885974 -0.020110171 0.0047001047 -0.04045711 0.033517443 -0.012013251
0.03626847 0.00023225987 -0.026818585 -0.009425897 0.032956764 0.0070963823 0.004885973 -0.004486624
0.013822135 -0.007978538 -0.03564605 -0.014505473 0.01619912 -0.0025200532 -0.036649503 -0.019277249
0.023183947 -0.009297318 0.028373789 -0.03254813 -0.022362307 0.00092829176 0.009434027 -0.024344085
-0.020607524 0.008325311 0.02825046 -0.0069906116 0.03061737 -0.037086543 0.005833778 -0.018570814
-0.009491185 -0.0009766669 0.03236128 -0.0039868113 0.033041675 -0.009003162 0.033589296 0.010287561
-0.0316393 0.013337467 -0.014680096 0.007022182 -0.0072200275 0.03227061 -0.01456955 0.0256257
0.031247439 0.0096818665 -0.03696491 0.036960788 0.027350781 -0.022638518 -0.03748842 0.02263898
-0.028490735 0.04049179 0.019653669 -0.013335365 -0.017525902 0.035653573 -0.024208793 0.0075487266
-0.02232859 -0.016580144 0.01810694 0.007097371 0.04068121 -0.02394112 0.019350799 0.038852848
-0.027043266 0.040213432 -0.029924002 -0.021565657 0.021466194 0.009226244 0.010505388 -0.038754977
-0.0366818 0.022431279 0.03195811 0.018488197 -0.021028113 -0.031570293 0.028778914 -0.037644114
00000000: 4792 193c d10a c1bb eabd 5d3c f29c 1b3d
00000010: 48a5 22bd 4aaa 21bd c1ba f7bc 6efa 68b8
00000020: 2ae8 6dbc 3b48 05bc a154 6d3b 5761 c0bc
00000030: 7345 fe3c eb61 04bd 1ede 69bc e7e1 0bbd
00000040: 016b c7bc 6fbb 84bc d87c 24bc 3772 1cbd
00000050: 26dd 57bc eb58 a3ba fdda cfbc 1f77 0b3a
00000060: 1d24 20bd 5d8f 8dbc 21e6 5fbb 190d d4bb
00000070: fbfb f93c 9878 58bc 831f 1fbd c7a8 06bd
00000080: ca3b d73c 05b9 a9bc 1c90 19bd 3be6 343c
00000090: da26 ef3c 273a 86bc 0f10 003c 9be4 0fbd
000000a0: 0457 bebb 4125 f43c ff15 a0bb a6d4 62bb
000000b0: 93b4 a33b 2f53 21bd 0639 5bbc 707c ddbc
000000c0: d8de f7bb 5d10 a53c efec c13c 12c9 943c
000000d0: 9cc5 b9bc 707a f63c 38f6 fe3c cd53 c33c
000000e0: 9de9 a9bc b7b8 8f3c 0b90 a0bc c829 ed3c
000000f0: 45cf 0ebd da9b eb3a 2a17 21bd 5eeb 32bc
00000100: cce4 dd3c 2e5a 5d3b e207 0ebb fa6c 243d
00000110: 9b07 9abc e337 953c 7f0c 1ebd 4d2a eebc
00000120: 130f f93c 0b0d aa3c cbd6 cabc f586 f9bc
00000130: d4d2 b93c 0814 ccbc c072 6e3b 4f15 1a3d
00000140: fefa 16bb 1b07 03bc 30c1 c53c 3c53 c23c
00000150: 03eb 72bb e66a d93c 526a 8d3c dab1 a9bc
00000160: 4df4 473c f526 4b3b 188b 383b 6d6f b0bc
00000170: 92a0 8bbc f863 963b badb 0ebd 9cbb 0ebc
00000180: a44e 023d a1c2 af3c 90be 1fbd 01f0 5a3c
00000190: 6c79 883c be2e 19bd 56f7 c1bb e291 d5bc
000001a0: 4ccb 15bd 7c39 7dbc e131 93bb 2333 10bc
000001b0: 16b3 0bbd 57b7 f43c cfdb 093d 40ad bd3c
000001c0: 953e 98bc 212b d13c a96e c43c ea0f 1cbd
000001d0: 3cde ebbb 8b77 b03c 3e5f b0bc 7276 ee3c
000001e0: d5d8 643c eb49 183d 3e67 9c3b d483 023d
000001f0: a59b 443c 2ea2 20bd 8ee7 983a 6b30 9abc
00000200: e82b 19bd 0b79 11bd 0c03 583c 841a 583c
00000210: ffc9 c2bc 997b ca3c 5907 313c 56e6 20bb
00000220: 7816 123d b8c1 053d 9946 f53c 29fd 3b3b
00000230: e8c8 febc 02e7 20bd f5e8 00bd f41a d83c
00000240: f3e2 263d 0948 943c 40ec 24bd c242 013d
00000250: 9448 1c3d e49c 5abc 5485 d5bc 2ecb 1dbd
00000260: b509 a4bc bdbd 263d 53b2 18bd f302 1cbd
00000270: 53ba 0cbd 816e 8bbc 9c14 74bc b9ad 9e3c
00000280: a5e4 b83b 9057 a23c 6ed3 f43c 16be a4bc
00000290: 5603 9a3b 5bb6 25bd 9649 093d 3ad3 44bc
000002a0: 3f8e 143d c98a 7339 a6b2 dbbc 146f 1abc
000002b0: acfd 063d c588 e83b 831a a03b 8804 93bb
000002c0: 3c76 623c 6ab8 02bc 9801 12bd 5da8 6dbc
000002d0: 04b4 843c 7a27 25bb ca1d 16bd 52eb 9dbc
000002e0: 43ec bd3c c753 18bc 2670 e83c 3051 05bd
000002f0: 2831 b7bc 9b58 733a 2d91 1a3c 3f6d c7bc
00000300: 1cd1 a8bc e366 083c 826d e73c 8011 e5bb
00000310: 47d1 fa3c 0fe8 17bd 4729 bf3b d221 98bc
00000320: ea80 1bbc 8103 80ba 438d 043d cca3 82bb
00000330: b556 073d 0082 13bc ee94 093d 298d 283c
00000340: 3698 01bd 6485 5a3c c984 70bc 551a e63b
00000350: fb95 ecbb 302e 043d 1fb5 6ebc fdec d13c
00000360: a1fa ff3c b1a0 1e3c 8468 17bd 3264 173d
00000370: bf0e e03c 6a74 b9bc 758d 19bd 6275 b93c
00000380: 6765 e9bc b8da 253d bb00 a13c 937c 5abc
00000390: 7b92 8fbc 7b09 123d 8551 c6bc 4f5b f73b
000003a0: 72ea b6bc 15d3 87bc 0155 943c 1091 e83b
000003b0: 57a1 263d 2b20 c4bc 9185 9e3c 2a24 1f3d
000003c0: d789 ddbc d7b6 243d 2e23 f5bc 76aa b0bc
000003d0: dfd9 af3c ac29 173c ca1e 2c3c 8abd 1ebd
000003e0: a83f 16bd cdc1 b73c 82e6 023d 8f74 973c
000003f0: 2643 acbc da4f 01bd c2c1 eb3c b730 1abd

bias f4 [24]
0.0365631 0.008057829 0.003859818 -0.03629245 -0.023191437 -0.03584408 -0.01715545 0.016918745
-0.018031238 -0.013938621 -0.013212688 -0.004126493 0.015319463 -0.025414968 -0.011368828 0.0047389194
-0.0030496456 0.034070753 0.035333052 -0.028789587 -0.01561551 0.02475243 -0.013989259 -0.00019016117
00000000: 30c3 153d fc04 043c 00f5 7c3b 64a7 14bd
00000010: f8fb bdbc 3ed1 12bd 9689 8cbc 2e99 8a3c
00000020: 3fb6 93bc d05e 64bc 087a 58bc 8837 87bb
00000030: 7cfe 7a3c 0d33 d0bc 5244 3abc f048 9b3b
00000040: 90dc 47bb c68d 0b3d 64b9 103d 24d8 ebbc
00000050: 32d8 7fbc 9cc5 ca3c 3433 65bc 0066 47b9

weight f4 [24]
1.0000061 1.0000107 1.0000601 1.0000196 1.00001 1.0000006 1.0000349 1.0000378
1.0000151 1.0000067 1.0000154 0.9999507 1.0000054 0.99994653 1.0000094 0.9999782
0.99999696 1.0000064 1.0000011 1.0000302 1.0000019 1.0000066 1.0000124 1.0000052
00000000: 3300 803f 5a00 803f f801 803f a400 803f
00000010: 5400 803f 0500 803f 2501 803f 3d01 803f
00000020: 7f00 803f 3800 803f 8100 803f c5fc 7f3f
00000030: 2d00 803f 7ffc 7f3f 4f00 803f 92fe 7f3f
00000040: cdff 7f3f 3600 803f 0900 803f fd00 803f
00000050: 1000 803f 3700 803f 6800 803f 2c00 803f

bias f4 [24]
0.00016857006 0.00017030184 0.00021034591 0.00016852647 0.00017850907 0.0001658144 0.0002874468 0.00024785136
0.00016395247 0.00016883033 0.00024888324 -9.062222e-06 0.00015666346 5.980639e-05 0.00016147844 -0.000129187
-5.7245903e-05 0.0001287049 0.00016560321 0.00022372417 2.6582045e-05 8.850043e-05 0.00016971766 0.00016038479
00000000: 2ec2 3039 0d93 3239 4d90 5c39 7bb6 3039
00000010: 2a2e 3b39 77de 2d39 75b4 9639 0cf2 8139
00000020: a8ea 2b39 0c08 3139 8b7c 8239 f209 18b7
00000030: 0746 2439 9fd8 7a38 8a52 2939 5f76 07b9
00000040: 521b 70b8 f5f4 0639 c6a5 2d39 8097 6a39
00000050: 82fc de37 4e99 b938 3df6 3139 f72c 2839

running_mean f4 [24]
-0.25422236 0.008733259 -0.03574306 0.2821339 -0.046708256 0.2748629 -0.46850708 -0.13101266
-0.025645351 -0.1124335 0.09647629 0.14578691 -0.05891222 -0.0413291 0.058595143 0.27178383
-0.40936452 0.11655506 0.26395032 0.25284562 0.17517217 0.15805689 -0.021827562 -0.19097123
00000000: 6f29 82be f115 0f3c 5167 12bd db73 903e
00000010: 2851 3fbd d4ba 8c3e 29e0 efbe 2f28 06be
00000020: 3316 d2bc 8943 e6bd 5c95 c53d 2a49 153e
00000030: f14d 71bd b448 29bd 7601 703d 4027 8b3e
00000040: 3a98 d1be 6bb4 ee3d 7f24 873e fb74 813e
00000050: 5560 333e aad9 213e b7cf b2bc f68d 43be

running_var f4 [24]
0.124712855 0.12915696 0.19256961 0.07957023 0.104911685 0.1123151 0.24580717 0.09209652
0.10322216 0.10254396 0.11093584 0.076481275 0.10346128 0.14350584 0.14959791 0.154739
0.110839255 0.08517505 0.11691669 0.13451494 0.13529357 0.12129071 0.095921144 0.12560293
00000000: 7469 ff3d b941 043e f830 453e b7f5 a23d
00000010: f0db d63d 7605 e63d e0b4 7b3e 1a9d bc3d
00000020: 2466 d33d 9102 d23d 5432 e33d 37a2 9c3d
00000030: 82e3 d33d 32f3 123e 3230 193e e773 1e3e
00000040: b1ff e23d 4270 ae3d 0472 ef3d 49be 093e
00000050: 668a 0a3e 4467 f83d 4e72 c43d 0e9e 003e

weight f4 [10, 16224]
0.0024024444 -0.0023017498 -0.00013579341 0.006762376 -3.6106365e-05 0.00067637104 0.0058147293 0.0072022486
0.00023989804 -0.0035794068 0.0049824957 0.001317102 0.007666324 -0.0007323991 0.006572078 0.0037197876
0.0074009597 -0.005238791 0.0069354856 -0.007903062 0.0013011321 -0.00078900706 -0.0065578553 -0.0019324686
0.0002701548 -0.006470182 0.0023035572 0.0034613071 0.004072046 0.0067641423 -0.0018802596 0.0011921553
0.0059951902 0.00017265539 -0.004398251 -0.0010844115 0.004957513 0.0023490835 -0.006519872 -0.0019402861
0.0032643024 -0.0049574417 -0.003450875 0.0020645726 -0.00071589864 -0.00060983753 -0.006830405 0.0050103758
0.0030856098 -0.004671891 0.0043727024 0.0077395965 0.006504656 0.006992787 -0.0062802844 0.002090323
-0.004258259 0.004315449 0.0029450106 0.0041130637 0.0014093907 -0.00042238605 0.00444211 0.00020370372
-0.0044976966 -0.0060367677 0.0006068844 -0.003012868 0.0030148253 0.0029029239 -0.0014564727 0.005436709
-0.0021291857 0.0064488286 0.0048538893 0.0058097066 0.0010363655 0.0060550515 -0.0007400766 -0.0040241983
0.007254015 0.0018370373 0.0039444226 0.007346071 -0.001929286 0.00080416864 -0.007235681 -0.0043507386
-0.00487403 0.00045301346 0.00736487 -0.0040232334 0.0021619431 -0.0032664067 -0.0009942341 0.0025256872
-0.0037942152 0.0069949515 -0.0047379187 -0.00070039096 0.00527442 0.002905672 0.0004271161 -0.00097528857
-0.0052867876 0.00039434223 0.005557511 -0.0016069864 0.0066795526 -0.0067757852 0.0048338524 0.0062442543
-0.006866871 0.007722391 -0.0018111349 -0.0042870515 0.0010360694 -0.007663161 0.0047004195 -0.005071142
-0.0052729393 -0.0039240518 0.004576567 0.0014533884 0.00425571 0.0052959444 0.005948083 0.0009987453
0.002261951 -0.0057203323 -0.0075020147 -0.0037915455 0.0072845574 0.0009859181 -0.0033406226 0.0071493215
0.0034635528 -0.0019377853 -0.0028492126 -0.0032707634 -0.003651281 -0.003687582 0.00474022 0.0029175705
0.0008182863 0.0076380596 0.00045371297 -0.003999856 -0.0038288329 -0.0020754405 -0.0068036234 0.0067115976
-0.00034226183 -0.0045877327 -0.0075003365 0.004038773 -0.002609646 -0.007970393 0.007461997 0.0062964936
-0.002666611 0.0034762307 -0.0051280074 0.006181127 -0.006328898 0.007571176 0.005399798 -0.004764233
0.0031697964 0.0070402185 -0.007188479 0.0043080687 0.0024901498 0.0042606033 -0.0023999095 8.657642e-05
0.007286648 -0.0005488473 -0.0025037897 0.0076550026 0.002176234 -0.0041418886 0.000111282265 0.0012002198
0.004192881 0.0014517176 9.2759336e-05 -0.0020126638 -0.0015576591 0.000795213 -0.0033225147 0.0024733525
-0.00652076 -0.00013059123 -0.0056462917 0.0026516689 0.007204361 -0.005729831 -0.0003080502 0.002390308
0.0032487658 -0.0011234578 -0.003268315 -0.005047296 -0.004403596 0.0033904293 -0.0025662712 0.0075887647
0.0050049904 -0.0010311095 0.0017479403 -0.0014857322 0.0072769895 0.005378849 0.001195963 -0.003218592
-0.0041746683 0.0013686531 0.0063157873 0.00024110482 -0.0039748517 -0.0046038926 0.0036223517 -0.0011091122
0.0026464197 -0.0068823798 0.0037938473 -0.0025946088 -0.007365113 0.004755338 0.0076153628 -0.0023495513
-0.0059900265 0.002681895 -0.0030856195 -0.004205681 0.00048784705 -0.00417602 0.0042097582 0.002239958
0.0037855709 0.002618066 0.0072826324 0.0046852017 0.0015962413 -0.003481062 -0.0034662401 -0.002562079
0.0054991166 -0.006034624 -0.0035212147 -0.006315657 -0.005608302 0.0007113448 0.0074905716 0.0039837
00000000: 5472 1d3b f4d8 16bb c463 0eb9 ec96 dd3b
00000010: ea70 17b8 7e4e 313a 7c89 be3b d700 ec3b
00000020: 248d 7b39 7b94 6abb 3444 a33b 9ca2 ac3a
00000030: c935 fb3b 79fe 3fba 965a d73b aec7 733b
00000040: c083 f23b 2aaa abbb 1243 e33b d87b 01bc
00000050: c08a aa3a 5ed5 4eba 47e3 d6bb e34a fdba
00000060: 90a3 8d39 d203 d4bb 47f7 163b 19d7 623b
00000070: cc6e 853b bda5 dd3b 0b73 f6ba 1842 9c3a
00000080: 4d73 c43b d40a 3539 341f 90bb d022 8eba
00000090: a272 a23b 15f3 193b a7a4 d5bb 3351 feba
000000a0: e8ed 553b 0972 a2bb 1328 62bb c84d 073b
000000b0: 25ab 3bba 81dd 1fba 97d1 dfbb 142e a43b
000000c0: f137 4a3b aa16 99bb e348 8f3b 719c fd3b
000000d0: 0225 d53b c023 e53b d8ca cdbb cdfd 083b
000000e0: de88 8bbb 9c68 8d3b 1401 413b e1c6 863b
000000f0: 4ebb b83a b273 ddb9 1f8f 913b 4d99 5539
00000100: 6a61 93bb 14d0 c5bb 5317 1f3a 8a73 45bb
00000110: 6094 453b fb3e 3e3b 1de7 beba 6c26 b23b
00000120: cf89 0bbb b250 d33b 600d 9f3b 5a5f be3b
00000130: a8d6 873a 7469 c63b b301 42ba 6cdd 83bb
00000140: 17b3 ed3b bec8 f03a 3740 813b 4fb7 f03b
00000150: 19e0 fcba d8ce 523a 4b19 edbb a490 8ebb
00000160: 54b6 9fbb 7082 ed39 0255 f13b 54d5 83bb
00000170: 63af 0d3b 3611 56bb f650 82ba 0086 253b
00000180: 5ea8 78bb e835 e53b 8b40 9bbb 719a 37ba
00000190: 0bd5 ac3b 166d 3e3b 8dee df39 82aa 7fba
000001a0: ca3c adbb b8bf ce39 c81b b63b 84a1 d2ba
000001b0: 26e0 da3b 6807 debb 4b65 9e3b 9a9c cc3b
000001c0: 7d03 e1bb 1c0c fd3b 9a63 edba 657a 8cbb
000001d0: b8cc 873a 411b fbbb fa05 9a3b d32b a6bb
000001e0: 9fc8 acbb 5595 80bb 07f7 953b 9f7f be3a
000001f0: 7c73 8b3b 9a89 ad3b 23e8 c23b 55e8 823a
00000200: 3e3d 143b a071 bbbb 76d3 f5bb 947b 78bb
00000210: 4cb3 ee3b ec39 813a 59ee 5abb db44 ea3b
00000220: c6fc 623b 49fd fdba dbb9 3abb 4e5a 56bb
00000230: 544a 6fbb 5cab 71bb d953 9b3b b634 3f3b
00000240: 4482 563a b048 fa3b 53e0 ed39 3911 83bb
00000250: 28ed 7abb 1d04 08bb eef0 debb f6ec db3b
00000260: 9b71 b3b9 b154 96bb 62c5 f5bb af57 843b
00000270: 9806 2bbb 4096 02bc c583 f43b d152 ce3b
00000280: 4fc2 2ebb 79d1 633b d808 a8bb 0d8b ca3b
00000290: a562 cfbb a117 f83b caf0 b03b 481d 9cbb
000002a0: 5cbc 4f3b a2b1 e63b 558d ebbb b32a 8d3b
000002b0: c831 233b 889c 8b3b cd47 1dbb 5d90 b538
000002c0: d5c4 ee3b 85e0 0fba 9f16 24bb d1d6 fa3b
000002d0: 269f 0e3b aeb8 87bb 3660 e938 b250 9d3a
000002e0: 6f64 893b 8f47 be3a ca87 c238 e5e6 03bb
000002f0: 5e2a ccba d775 503a 8cbe 59bb f817 223b
00000300: 19ac d5bb 51ef 08b9 8704 b9bb 9fc7 2d3b
00000310: 8f12 ec3b 4ec1 bbbb cc81 a1b9 b7a6 1c3b
00000320: 3fe9 543b fd40 93ba 3a31 56bb ca63 a5bb
00000330: 0a4c 90bb f731 5e3b e32e 28bb 2cab f83b
00000340: e700 a43b 4b26 87ba 251b e53a e6bc c2ba
00000350: d073 ee3b 0e41 b03b dcc1 9c3a 03ef 52bb
00000360: a8cb 88bb 6164 b33a aaf4 ce3b 15d1 7c39
00000370: 793f 82bb 40dc 96bb fa64 6d3b a15f 91ba
00000380: 8e6f 2d3b 9685 e1bb 32a2 783b 500a 2abb
00000390: 0c57 f1bb abd2 9b3b 4b8a f93b eefa 19bb
000003a0: fc47 c4bb bbc2 2f3b 1b38 4abb cfcf 89bb
000003b0: b9c5 ff39 ffd6 88bb 03f2 893b 42cc 123b
000003c0: 5717 783b dc93 2b3b 26a3 ee3b 5286 993b
000003d0: f838 d13a 8722 64bb dc29 63bb 8ee8 27bb
000003e0: ef31 b43b 18be c5bb 2ec4 66bb 92f3 cebb
000003f0: d9c5 b7bb 8b79 3a3a 7873 f53b b389 823b

bias f4 [10]
0.0048199375 -0.0029267767 -0.0056449855 0.0018936101 0.001204662 0.002254109 -0.0014759323 0.004366912
0.0043459116 0.004410405
00000000: 91f0 9d3b 2acf 3fbb 92f9 b8bb 0333 f83a
00000010: c0e5 9d3a acb9 133b 1274 c1ba 5018 8f3b
00000020: 2668 8e3b 2985 903b
