models/AdvaDemo_CleverHans_4.0.0/LOGS/models/nnet_epoch_4.pt (torch, 765965 bytes, 26 tensors)

weight f4 [12, 3, 5, 5]
0.079824015 0.10871464 0.006210716 -0.027040554 -0.0076302905 0.00061896275 -0.054077744 0.027535215
0.08255526 0.10530048 -0.07346086 -0.029591858 0.052689612 0.09777891 0.037188757 0.042195667
-0.07343452 0.039328277 0.09508505 -0.0717582 0.004163048 0.09402576 0.019318959 -0.09076987
0.04984388 -0.0026463664 0.08166208 -0.101927124 0.09060117 0.07112924 0.057889387 -0.111030415
-0.113852076 -0.030893948 0.10874439 -0.043994702 0.057215687 0.024511622 0.039832134 -0.111231595
0.017490499 0.07054115 -0.05023211 -0.10735537 -0.05627735 -0.07086662 -0.054799356 -0.1144992
-0.052766465 -0.04659329 0.04457291 -0.034649912 -0.11014286 -0.0711476 0.023398338 0.03995365
-0.051516373 0.015897289 -0.07811807 0.04161006 0.086741924 0.07334964 -0.002265558 -0.0020013854
-0.007795426 0.042026166 -0.10178743 0.05103017 0.032238554 0.10937908 -0.05277893 0.07051822
-0.018802736 0.09617018 0.05618538 0.004253475 0.03011704 0.094828114 -0.084070705 -0.0069824704
-0.013810115 -0.09500892 -0.052637912 0.0052406443 0.07574251 0.017477423 0.024812274 0.09670471
-0.03256057 0.104674175 -0.03208935 -0.049372155 -0.014380072 -0.046473484 -0.06399216 -0.0671333
0.08815651 0.044293504 -0.09314851 -0.027238334 0.052884478 0.0056094443 0.079506755 0.07013264
-0.016147299 -0.10948923 0.11109799 0.0070885313 -0.078588486 0.050519194 0.051183753 0.081472404
0.066967696 0.10472834 -0.0006665144 0.11460127 -0.056532364 0.11302729 0.029441671 0.110896476
-0.06837941 0.080364086 0.052232184 -0.10883071 -0.007352653 -0.02989592 0.018092947 0.07913599
-0.095151015 0.09934415 0.03236873 0.051878866 -0.11349677 0.029833319 -0.017917812 -0.029754182
0.010142784 0.055095956 0.053983375 -0.045127958 -0.0885014 -0.05530489 0.02919886 0.06649606
-0.018350216 -0.09448916 0.0434341 0.084417544 -0.015142265 -0.0856545 -0.11109151 0.0074802157
0.027076803 0.041938007 -0.006879894 -0.05970184 0.07519417 -0.0455986 0.06797737 0.06390145
0.064644516 0.04332651 0.11404459 0.040737763 0.08057076 0.036511637 -0.08048387 -0.044743344
0.08283673 -0.1130855 -0.088071056 0.009905207 0.092451304 0.03537593 0.08107599 -0.09401157
0.058378495 -0.01735136 0.061946657 -0.040933028 -0.02236324 0.042563763 -0.071445815 -0.09468067
0.06872558 0.068267286 0.020264016 0.110369764 -0.028893147 0.0026038485 -0.056885824 0.08509824
-0.016424978 0.05290804 0.017212313 0.07707581 0.11316567 0.02153793 -0.08193445 0.06852518
0.08154052 -0.09801489 -0.02467328 -0.038645107 0.042484324 0.0416918 -0.08898715 -0.018661039
-0.043507233 0.01756505 0.077895135 -0.10177503 0.0016144295 0.05043956 -0.052233446 -0.045530245
0.08860747 -0.10167559 0.042662166 0.07918477 0.062947735 -0.03752882 -0.08313596 -0.038258232
-0.08959347 -0.02205978 0.045212403 0.0151178045 -0.054367803 -0.026197968 0.11031545 0.053275082
0.053402673 -0.042724915 -0.06955836 -0.019250518 0.058922183 0.1091943 -0.05231147 0.0065300693
0.0028085392 0.054163005 0.037284233 0.001510185 -0.08314976 -0.0114950035 0.072715975 0.05061233
-0.01713647 0.09831771 0.01847085 0.112853155 -0.039616443 0.016678479 -0.02489627 -0.042368546
00000000: c67a a33d c8a5 de3d 4383 cb3b 2784 ddbc
00000010: 8407 fabb e341 223a a080 5dbd 8891 e13c
00000020: bb12 a93d c7a7 d73d a672 96bd a06a f2bc
00000030: 10d1 573d 4f40 c83d 3d53 183d 5dd5 2c3d
00000040: d664 96bd b016 213d f3bb c23d f7f5 92bd
00000050: 2e6a 883b 9490 c03d cb42 9e3c 8ee5 b9bd
00000060: 1929 4c3d a96e 2dbb 733e a73d 2bbf d0bd
00000070: 1b8d b93d 35ac 913d 6c1d 6d3d ea63 e3bd
00000080: 472b e9bd 4e15 fdbc 61b5 de3d ca33 34bd
00000090: ff5a 6a3d 99cc c83c 0527 233d 64cd e3bd
000000a0: 3c48 8f3c e177 903d 2fc0 4dbd 22dd dbbd
000000b0: 1483 66bd 8522 91bd 4a75 60bd 8e7e eabd
000000c0: a621 58bd 9bd8 3ebd 1592 363d 11ed 0dbd
000000d0: 9492 e1bd d5b5 91bd dfad bf3c 70a6 233d
000000e0: d502 53bd 083b 823c 5efc 9fbd 4f6f 2a3d
000000f0: c0a5 b13d 5638 963d c279 14bb ad29 03bb
00000100: c670 ffbb a123 2c3d ee75 d0bd 0305 513d
00000110: 930c 043d 2402 e03d b82e 58bd db6b 903d
00000120: 3208 9abc dff4 c43d a422 663d bc60 8b3b
00000130: 03b8 f63c 3e35 c23d 432d acbd 35cd e4bb
00000140: d243 62bc 0994 c2bd da9a 57bd b6b9 ab3b
00000150: e41e 9b3d d02c 8f3c 1c43 cb3c 1e0d c63d
00000160: 3b5e 05bd 6a5f d63d 1f70 03bd 753a 4abd
00000170: 659a 6bbc fb5a 3ebd 520e 83bd 2f7d 89bd
00000180: 668b b43d 1b6d 353d a5c4 bebd ed22 dfbc
00000190: 659d 583d 6ecf b73b 70d4 a23d b4a1 8f3d
000001a0: 5747 84bc e43b e0bd 5887 e33d e946 e83b
000001b0: 00f3 a0bd 37ed 4e3d 0ea6 513d 01db a63d
000001c0: 5c26 893d d07b d63d 06b9 2eba 12b4 ea3d
000001d0: 7b8e 67bd da7a e73d a92f f13c b11d e33d
000001e0: 810a 8cbd ed95 a43d 6af1 553d a3e2 debd
000001f0: 86ee f0bb 4ae8 f4bc a937 943c 0d12 a23d
00000200: 89de c2bd f274 cb3d 1395 043d ef7e 543d
00000210: ff70 e8bd 0165 f43c 60c8 92bc 0bbf f3bc
00000220: eb2d 263c 4cac 613d ac1d 5d3d 18d8 38bd
00000230: 3940 b5bd 6187 62bd 7332 ef3c 162f 883d
00000240: 3153 96bc 8883 c1bd f4e7 313d 1be3 ac3d
00000250: 4317 78bc a06b afbd f283 e3bd 991c f53b
00000260: 2cd0 dd3c 30c7 2b3d bc70 e1bb eb89 74bd
00000270: 67ff 993d 99c5 3abd b837 8b3d c3de 823d
00000280: 5864 843d 2377 313d 3690 e93d a4dc 263d
00000290: 4802 a53d 3a8d 153d bad4 a4bd cc44 37bd
000002a0: 4ea6 a93d 5f99 e7bd 995e b4bd 7349 223c
000002b0: 1c57 bd3d 5ae6 103d 2b0b a63d 2389 c0bd
000002c0: 4a1e 6f3d 7024 8ebc c7bb 7d3d 64a9 27bd
000002d0: 1d33 b7bc 5757 2e3d 2f52 92bd f0e7 c1bd
000002e0: ffbf 8c3d b8cf 8b3d b900 a63c 8b09 e23d
000002f0: 52b1 ecbc 54a5 2a3b 1c01 69bd fc47 ae3d
00000300: ad8d 86bc 1ab6 583d d600 8d3c ecd9 9d3d
00000310: 67c3 e73d 5070 b03c 40cd a7bd ee56 8c3d
00000320: b7fe a63d 08bc c8bd 9e1f cabc 554a 1ebd
00000330: 0b04 2e3d 05c5 2a3d e53e b6bd 09df 98bc
00000340: a434 32bd 94e4 8f3c 7c87 9f3d 6d6f d0bd
00000350: 449b d33a b699 4e3d bdf2 55bd ec7d 3abd
00000360: d577 b53d 4b3b d0bd 86be 2e3d a02b a23d
00000370: beea 803d d2b7 19bd 3043 aabd aab4 1cbd
00000380: c87c b7bd b6b6 b4bc a430 393d abb0 773c
00000390: c6b0 5ebd 1f9d d6bc 11ed e13d f936 5a3d
000003a0: c3bc 5a3d 5200 2fbd 9d74 8ebd 43b3 9dbc
000003b0: 6358 713d 43a1 df3d 8d44 56bd 31fa d53b
000003c0: 780f 383b 07da 5d3d 5ab7 183d 66f1 c53a
000003d0: 6c4a aabd 8a55 3cbc 1dec 943d e04e 4f3d
000003e0: c861 8cbc cc5a c93d 2e50 973c 8e1f e73d
000003f0: da44 22bd 4ea1 883c 43f3 cbbc a48a 2dbd

bias f4 [12]
0.015634844 -0.06681363 0.025729645 -0.03559142 0.0764112 -0.08559793 0.052240465 0.08554531
0.01149057 0.082881 -0.0699526 0.037269883
00000000: a514 803c 96d5 88bd fac6 d23c 4fc8 11bd
00000010: 7a7d 9c3d f84d afbd 19fa 553d 6132 af3d
00000020: f242 3c3c 84bd a93d 4f43 8fbd 4ea8 183d

weight f4 [12]
1.0000008 0.9999579 0.9999381 0.99998415 0.9999933 1.0 1.0000015 1.0000005
1.0000002 1.0000026 1.0000025 1.000001
00000000: 0700 803f 3efd 7f3f f1fb 7f3f f6fe 7f3f
00000010: 90ff 7f3f 0000 803f 0d00 803f 0400 803f
00000020: 0200 803f 1600 803f 1500 803f 0800 803f

bias f4 [12]
3.3375956e-05 -8.800707e-06 -4.090155e-05 4.502596e-05 -2.0955013e-05 -1.4615024e-06 -4.6102457e-05 1.8765315e-05
2.632927e-05 -3.5871972e-06 2.1148382e-05 -4.2161104e-05
00000000: 29fd 0b38 c0a6 13b7 b48d 2bb8 42da 3c38
00000010: 8cc8 afb7 d728 c4b5 235e 41b8 356a 9d37
00000020: addd dc37 94bb 70b6 ce67 b137 24d6 30b8

running_mean f4 [12]
0.12490587 0.1464395 0.19519275 0.0020162906 -0.07204308 -0.26239687 0.42732972 0.3904541
-0.1377834 0.11537605 -0.019525431 0.13363576
00000000: a6ce ff3d 3cf4 153e 9ce0 473e be23 043b
00000010: 538b 93bd e258 86be f6ca da3e 9ae9 c73e
00000020: 1717 0dbe 474a ec3d ccf3 9fbc d0d7 083e

running_var f4 [12]
0.0075711776 0.02833269 0.016548205 0.004894173 0.015574985 0.018585829 0.081848264 0.05494812
0.016675508 0.0034529823 0.006112548 0.010457502
00000000: a417 f83b f519 e83c 1a90 873c 4c5f a03b
00000010: 392e 7f3c 4f41 983c 10a0 a73d 4811 613d
00000020: 139b 883c 6e4b 623b c54b c83b f155 2b3c

weight f4 [12, 12, 5, 5]
-0.049264573 0.037999123 0.055767473 0.015720306 0.05132149 -0.047730133 0.009876793 0.022964334
-0.05110875 -0.05583859 -0.034034513 0.04958574 -0.012141959 0.04132864 -0.0044895434 0.00683512
0.021213893 -0.044363167 0.046676353 -0.01814534 -0.0058213943 -0.014691993 0.0009409303 -0.012992887
-0.013429589 0.0033128199 0.036616005 0.010844704 -0.048895855 0.016013911 -0.05336712 0.0025480355
-0.020608254 0.024599442 -0.0020672951 0.051756606 0.027656496 -0.003297418 0.007306605 0.056602966
0.0014018881 0.035416126 -0.0073204837 0.013169136 0.0033852705 -0.03644325 -0.055122692 -0.05153923
0.054838296 -0.056036394 -0.018363923 -9.290489e-05 -0.057405923 0.0074398075 0.018804437 -0.013555045
-0.031335436 0.054533098 -0.009815675 -0.0090954555 -0.019796882 -0.021857377 0.042311005 -0.020883124
0.003653649 0.003210051 0.03601061 0.049075253 0.003925318 0.025643356 -0.016197609 -0.023934375
0.03362113 0.0355524 -0.01953883 -0.057554167 0.03083885 0.006144029 0.01853951 0.005048526
-0.015577135 -0.057303045 -0.0038060672 -0.0057414975 0.053001493 -0.05646084 -0.04327514 0.042449713
0.045475632 0.021387884 -0.04823515 -0.035802554 0.048450217 -0.009766337 0.041412156 -0.025111457
0.02451358 0.028866822 -0.044910748 0.0058678733 0.055279966 0.024736727 0.047305983 -0.040585816
0.011723975 -0.035779696 -0.004145042 -0.015356512 0.051152114 -0.011778709 -0.0042297174 -0.0035979268
0.032102697 0.037594758 0.03643493 -0.042037115 0.03939474 -0.036598377 0.03139666 0.053917754
-0.01054282 -0.04845604 -0.014771989 0.049532864 -0.026646465 -0.012548311 0.021719048 -0.010471928
0.03246601 -0.029444713 0.036340706 0.022708677 -0.0428513 0.0075752693 0.011759627 -0.045212623
0.03797665 -0.012566566 -0.0069130133 0.026396105 0.04196943 0.03095867 0.020501252 -0.04409795
-0.004489215 -0.017312184 0.05181911 -0.009337165 0.023856979 0.017962532 0.04152767 -0.0030713265
-0.01761332 -0.02194885 0.04449532 0.049965434 -0.056344766 0.04850303 0.007118244 -0.017740116
0.008721563 0.005023951 -0.026218453 -0.05721516 -0.038557414 -0.02912234 0.023994174 0.03830791
0.037499763 0.01871857 0.01046881 -0.01415301 -0.04511768 -0.051963255 -0.054529887 0.029661534
-0.030671753 0.018633904 -0.008991642 -0.008801323 0.03573979 -0.014334679 0.024174983 -0.054127365
-0.037545864 0.041701574 -0.056473963 -0.044287093 0.013035102 -0.022791473 0.04609683 -0.0056373016
-0.043112498 0.043998882 0.04627432 0.05680319 0.02312435 0.046035066 -0.0149798095 0.043704696
0.04950484 0.00536976 0.04656106 0.042969543 -0.019475369 0.0017628949 -0.020813765 -0.047546066
-0.0045604226 -0.049055293 -0.02690071 0.041903816 0.03965445 -0.027255498 0.041976236 0.036715325
0.014810536 0.038961116 -0.053750027 -0.020032339 -0.046852637 0.054533847 0.057038795 -0.027020339
0.013936999 -0.04033347 0.005082235 -0.010136443 0.010017059 0.05437544 0.03907932 -0.05710802
-0.0017917211 0.044372022 0.047119267 0.010752619 -0.016073667 -0.030064337 -0.03457065 0.035033207
0.048270956 0.035712745 -0.040428393 0.035061218 0.032824837 -0.05068569 0.03855281 0.026643915
-0.028229905 0.019162307 0.043731987 -0.014732876 -0.054039467 0.05157859 -0.003831837 -0.03790356
00000000: a6c9 49bd f8a4 1b3d 6f6c 643d dfc7 803c
00000010: 7c36 523d ac80 43bd 46d2 213c b31f bc3c
00000020: 6957 51bd 01b7 64bd c667 0bbd 6b1a 4b3d
00000030: 11ef 46bc 3848 293d 051d 93bb 24f9 df3b
00000040: c2c8 ad3c 27b6 35bd b42f 3f3d 89a5 94bc
00000050: 65c1 bebb afb6 70bc c3a8 763a 1ee0 54bc
00000060: c707 5cbc e51b 593b aafa 153d fcad 313c
00000070: 0547 48bd 9b2f 833c 7b97 5abd f1fc 263b
00000080: a4d2 a8bc c584 c93c 757b 07bb bcfe 533d
00000090: e08f e23c 7e19 58bb 3f6c ef3b 83d8 673d
000000a0: 8fbf b73a 8010 113d abe0 efbb 5cc3 573c
000000b0: 6adb 5d3b 8445 15bd 55c8 61bd cd1a 53bd
000000c0: 1f9e 603d 6b86 65bd f06f 96bc efd5 c2b8
000000d0: 7922 6bbd a1c9 f33b c30b 9a3c fb15 5ebc
000000e0: 9659 00bd 195e 5f3d edd1 20bc 1b05 15bc
000000f0: 122d a2bc 3e0e b3bc 4e4e 2d3d 1613 abbc
00000100: 0f72 6f3b b85f 523b dd7f 133d 2203 493d
00000110: f49f 803b 0412 d23c d9b0 84bc 0612 c4bc
00000120: 4fb6 093d 659f 113d e50f a0bc ebbd 6bbd
00000130: c2a1 fc3c da53 c93b 2ce0 973c 1b6e a53b
00000140: 3d37 7fbc 99b6 6abd 366f 79bb 2c23 bcbb
00000150: 1818 593d 7b43 67bd 4641 31bd c0df 2d3d
00000160: a844 3a3d a535 af3c 3892 45bd b3a5 12bd
00000170: bc73 463d fd02 20bc cb9f 293d 8bb6 cdbc
00000180: b4d0 c83c 1d7a ec3c 55f4 37bd 4a47 c03b
00000190: 3f6d 623d ada4 ca3c ebc3 413d 503d 26bd
000001a0: ea15 403c bb8d 12bd 22d3 87bb e199 7bbc
000001b0: e184 513d 7cfb 40bc 7199 8abb 32cb 6bbb
000001c0: 1e7e 033d f6fc 193d cb3c 153d 1c2f 2cbd
000001d0: 615c 213d 2ee8 15bd c999 003d ddd8 5c3d
000001e0: cbbb 2cbc d779 46bd 3606 72bc f9e2 4a3d
000001f0: b049 dabc 6e97 4dbc 25ec b13c 7392 2bbc
00000200: 14fb 043d 0a36 f1bc fed9 143d 8c07 ba3c
00000210: d884 2fbd f739 f83b 73ab 403c df30 39bd
00000220: 678d 1b3d ffe3 4dbc 8f86 e2bb a53c d83c
00000230: 23e8 2b3d 099d fd3c 3ef2 a73c 0da0 34bd
00000240: 441a 93bb 48d2 8dbc 4640 543d e9fa 18bc
00000250: b66f c33c 2926 933c eb18 2a3d 4f48 49bb
00000260: cf49 90bc 13ce b3bc ba40 363d 8ea8 4c3d
00000270: c5c9 66bd 1dab 463d 2940 e93b b853 91bc
00000280: e3e4 0e3c f59f a43b 15c8 d6bc 725a 6abd
00000290: 61ee 1dbd f991 eebc 6e8f c43c c1e8 1c3d
000002a0: 5a99 193d b057 993c 5f85 2b3c 07e2 67bc
000002b0: 51cd 38bd 6cd7 54bd bb5a 5fbd bffc f23c
000002c0: 5443 fbbc 21a6 983c ae51 13bc 6d33 10bc
000002d0: e363 123d 00dc 6abc 9d0a c63c a8b4 5dbd
000002e0: b1c9 19bd 45cf 2a3d 3e51 67bd 6266 35bd
000002f0: 2e91 553c 2fb5 babc 08d0 3c3d 1db9 b8bb
00000300: bb96 30bd 2c38 343d 248a 3d3d 76aa 683d
00000310: 476f bd3c 448f 3c3d e06d 75bc b203 333d
00000320: 96c5 4a3d d0f4 af3b cfb6 3e3d d500 303d
00000330: cf8a 9fbc f010 e73a a181 aabc aabf 42bd
00000340: 996f 95bb 34ee 48bd e15e dcbc 56a3 2b3d
00000350: b46c 223d ec46 dfbc 46ef 2b3d cf62 163d
00000360: e4a7 723c b195 1f3d fd28 5cbd dc1a a4bc
00000370: 8de8 3fbd e25e 5f3d 83a1 693d c259 ddbc
00000380: 0358 643c b534 25bd e188 a63b 5313 26bc
00000390: 971e 243c c8b8 5e3d a311 203d 19ea 69bd
000003a0: 2fd8 eaba 70bf 353d 2200 413d c12b 303c
000003b0: ecac 83bc 7c49 f6bc f499 0dbd fb7e 0f3d
000003c0: c4b7 453d 8747 123d 3e98 25bd 5a9c 0f3d
000003d0: 5673 063d cc9b 4fbd 8de9 1d3d 5744 da3c
000003e0: 6742 e7bc 45fa 9c3c 5020 333d 2962 71bc
000003f0: 7d58 5dbd 1244 533d 8f1f 7bbb c340 1bbd

bias f4 [12]
-0.05080504 -0.019637069 -0.016233068 0.014225009 0.0012216123 0.025017964 0.026668642 -0.0024898043
-0.04750528 0.025392381 0.046175286 0.02016355
00000000: f218 50bd ebdd a0bc 36fb 84bc 0310 693c
00000010: 821e a03a 79f2 cc3c 3278 da3c fc2b 23bb
00000020: e594 42bd af03 d03c 4c22 3d3d 072e a53c

weight f4 [12]
1.0000042 0.99995625 1.0000021 1.0000014 1.0000057 0.99991155 0.9999433 1.0000011
0.9999885 1.0000025 1.0000018 0.999983
00000000: 2300 803f 22fd 7f3f 1200 803f 0c00 803f
00000010: 3000 803f 34fa 7f3f 49fc 7f3f 0900 803f
00000020: 3fff 7f3f 1500 803f 0f00 803f e3fe 7f3f

bias f4 [12]
0.00013180476 -0.00012440703 6.771744e-06 -6.577307e-06 0.000121637284 -0.00014321368 -2.9991132e-05 -5.340675e-05
6.9779715e-05 8.0349484e-05 9.305587e-05 -4.6917467e-05
00000000: 1235 0a39 4273 02b9 d738 e336 a3b2 dcb6
00000010: 8517 ff38 a12b 16b9 7795 fbb7 1001 60b8
00000020: b356 9238 4d81 a838 fd26 c338 3fc9 44b8

running_mean f4 [12]
0.26971117 -0.13317849 0.02588854 -0.20582433 0.11020353 0.2528545 0.2867392 0.15051474
-0.16106883 -0.5789062 -0.054417394 0.15310284
00000000: 9517 8a3e f15f 08be 3414 d43c 9dc3 52be
00000010: 63b2 e13d 2576 813e 7bcf 923e 8920 1a3e
00000020: 3aef 24be 3233 14bf c6e4 5ebd fec6 1c3e

running_var f4 [12]
0.08354425 0.11512748 0.10096368 0.08909926 0.07570885 0.07194712 0.04942444 0.13401555
0.030287538 0.33142844 0.15298355 0.15042105
00000000: 3f19 ab3d f5c7 eb3d 0cc6 ce3d ac79 b63d
00000010: 3e0d 9b3d 0359 933d 4871 4a3d 5f3b 093e
00000020: 921d f83c fdb0 a93e b8a7 1c3e fa07 1a3e

weight f4 [24, 12, 5, 5]
-0.013255059 0.031438075 0.0042215185 -0.048569877 -0.014259638 -0.016626516 -0.036078442 -0.050021496
0.05112096 -0.015328966 -0.0059434758 0.027195163 -0.05479991 -0.013939331 -0.009358908 -0.04619339
-0.05189286 -0.053686928 -0.022201683 0.04538287 -0.0056784293 -0.0019707165 -0.006898082 0.04105301
-0.043751128 0.020165982 -0.016796073 0.025230488 -0.015410268 -0.04391006 -0.029005766 0.029779583
-0.013736053 -0.045818377 -0.033964768 -0.015715253 0.0064398227 0.027250392 -0.045184504 -0.052948035
-0.0111683225 0.045443114 -0.033786707 -0.020346684 -0.0063162367 0.011112871 0.042776305 0.05735344
-0.051620588 -0.0019386349 0.029563714 0.02330293 -0.056746714 0.010124947 -0.053631682 0.00036752058
0.048389442 0.041595895 0.030596972 0.02791496 -0.045443647 0.045941364 -0.026783379 0.024274776
0.042564053 -0.002180059 -0.020964708 0.036720835 0.03185307 -0.056511335 -0.008255217 -0.052259244
0.028925428 0.046869338 0.030034017 0.047266357 0.04290723 0.019633982 0.030339455 0.047107723
0.0055957963 0.00069819577 0.025247633 0.039352253 -0.027582306 0.033573054 -0.03737017 -0.015953114
0.054247584 0.01624202 0.026124882 0.012051203 0.0017975777 -0.045453355 0.019858643 0.026353171
0.04007902 0.04981148 -0.044698797 0.013493042 0.04027811 0.023677045 -0.02519326 0.012868277
0.056595784 0.011920187 -0.02958995 0.036932025 -0.025105497 -0.024089986 0.016314153 -0.004287956
-0.0345206 0.0074609085 -0.04693547 0.038131334 0.012347001 0.04142752 0.013793374 0.009248681
0.02100391 0.009943385 -0.02441307 0.028697304 -0.00096289674 -0.047385298 -0.04072319 -0.014516445
0.029545829 0.020906774 -0.0029685039 0.0010410856 0.035037063 -0.02986689 -0.026791386 -0.05663065
0.036441762 -0.0025223459 0.056506604 -0.03560427 -0.029839035 -0.051946774 0.034269646 0.057252325
-0.024390195 0.033246808 -0.0018316408 -0.05601123 0.027640713 -0.006036897 0.042711314 -0.010038444
0.05600646 -0.050184056 0.016125591 -0.028711278 -0.034854278 0.021093993 0.049473032 -0.029931031
0.0074128313 0.012003292 0.035426702 0.03722631 0.011374558 -0.018845377 -0.049821757 -0.016800912
0.040525284 -0.016810006 0.0057523446 -0.008357249 0.032181557 -0.026136125 0.052492905 -0.022347933
-0.05717433 -0.0021729108 0.03306038 0.0045060227 0.051959917 -0.018372212 -0.011636711 0.024462245
-0.027706755 0.0016261996 0.0066526826 0.019344814 0.043774143 -0.01433103 0.0074930484 0.008262637
0.030204983 -0.039667316 0.055827793 0.04331096 -0.05396431 -0.017673904 -0.023535226 -0.056961935
-0.047856834 0.02452251 -0.049654875 0.05557578 -0.056542005 -0.02357035 -0.057066593 -0.021320296
0.018860318 0.0051050778 0.026150344 0.03371646 0.024413602 -0.043112848 -0.053239845 -0.025163515
0.029808199 0.027807763 0.052562337 0.026557235 0.029283445 0.0029100084 0.04132535 0.0014959787
0.055757504 0.03732425 0.052446865 0.046023346 0.033411738 -0.023844736 0.037097033 0.015395997
0.020792818 -0.0092887515 -0.010480602 0.019057445 0.021871913 -0.02937523 0.036316648 0.008480519
0.051655557 0.02254665 -0.04750257 -0.035744376 0.046929907 0.039507125 0.037368517 -0.02130332
0.045055594 0.02626672 -0.016010962 -0.04942803 -0.0023437098 -0.00117849 -0.019472664 0.04688067
00000000: bf2b 59bc 36c5 003d aa54 8a3b 35f1 46bd
00000010: 42a1 69bc 5534 88bc fdc6 13bd 57e3 4cbd
00000020: 3664 513d 5826 7bbc 7dc1 c2bb 64c8 de3c
00000030: df75 60bd cb61 64bc 1b56 19bc 4835 3dbd
00000040: 9c8d 54bd d3e6 5bbd 4ee0 b5bc 63e3 393d
00000050: 1e12 babb 2327 01bb 4e09 e2bb 3327 283d
00000060: 6234 33bd 2133 a53c eb97 89bc 2bb0 ce3c
00000070: 597b 7cbc 09db 33bd 809d edbc 50f4 f33c
00000080: 2f0d 61bc 0dac 3bbd a41e 0bbd 46bd 80bc
00000090: 2605 d33b 373c df3c 6313 39bd 0ae0 58bd
000000a0: 57fb 36bc 8f22 3a3d ee63 0abd 17ae a6bc
000000b0: 6ff8 cebb c212 363c 3536 2f3d 71eb 6a3d
000000c0: 1c70 53bd cb19 feba 9a2f f23c c9e5 be3c
000000d0: 3e6f 68bd 1be3 253c e5ac 5bbd c7af c039
000000e0: 0234 463d 7560 2a3d 80a6 fa3c eaad e43c
000000f0: 1e23 3abd 032d 3c3d d168 dbbc e5db c63c
00000100: a557 2e3d 52df 0ebb 2ebe abbc 9668 163d
00000110: 5d78 023d 6e78 67bd e440 07bc ca0d 56bd
00000120: 05f5 ec3c 10fa 3f3d e609 f63c 5e9a 413d
00000130: 7ebf 2f3d 72d7 a03c 738a f83c 07f4 403d
00000140: f15c b73b 2007 373a 20d4 ce3c d42f 213d
00000150: 4af4 e1bc e683 093d 7711 19bd 1bb0 82bc
00000160: b732 5e3d fc0d 853c d903 d63c 6972 453c
00000170: b39c eb3a 4c2d 3abd 98ae a23c 9be2 d73c
00000180: e629 243d 1f07 4c3d 1616 37bd ec11 5d3c
00000190: a9fa 243d 5df6 c13c 1862 cebc 77d5 523c
000001a0: fbd0 673d e34c 433c 9f66 f2bc 0946 173d
000001b0: 0baa cdbc 5d58 c5bc 42a5 853c fb81 8cbb
000001c0: 7965 0dbd a37a f43b 683f 40bd 9a2f 1c3d
000001d0: 134b 4a3c e7af 293d 9bfd 613c c887 173c
000001e0: 6410 ac3c 94e9 223c ebfd c7bc 9c16 eb3c
000001f0: e86a 7cba 1617 42bd 5ccd 26bd 62d6 6dbc
00000200: 180a f23c af44 ab3c 3b8b 42bb 0975 883a
00000210: 0683 0f3d 68ab f4bc 9c79 dbbc 8af5 67bd
00000220: f543 153d f14d 25bb 7873 673d c8d5 11bd
00000230: fe70 f4bc 24c6 54bd 545e 0c3d 6a81 6a3d
00000240: f2cd c7bc ce2d 083d ab13 f0ba 086c 65bd
00000250: c76e e23c 2ad1 c5bb 0ff2 2e3d 4978 24bc
00000260: 0867 653d cc8d 4dbd d119 843c ea33 ebbc
00000270: 5cc3 0ebd 4fcd ac3c 3ca4 4a3d ec31 f5bc
00000280: 56e7 f23b 75a9 443c 971b 113d 9e7a 183d
00000290: 5b5c 3a3c 9f61 9abc e611 4cbd 11a2 89bc
000002a0: d7fd 253d 23b5 89bc 2a7e bc3b d8ec 08bc
000002b0: cfd0 033d 6d1b d6bc cd02 573d 0313 b7bc
000002c0: a12f 6abd 6567 0ebb 526a 073d 42a7 933b
000002d0: ecd3 543d 5281 96bc e7a7 3ebc 0c65 c83c
000002e0: 47f9 e2bc 3426 d53a bffe d93b 0479 9e3c
000002f0: 844c 333d b2cc 6abc 3f88 f53b 0360 073c
00000300: 7170 f73c 327a 22bd afab 643d d566 313d
00000310: ae09 5dbd ddc8 90bc f2cc c0bc eb50 69bd
00000320: 8705 44bd 6ee3 c83c e962 4bbd 6ea3 633d
00000330: 9798 67bd 9b16 c1bc a9be 69bd e7a7 aebc
00000340: f480 9a3c 7f48 a73b 3f39 d63c 451a 0a3d
00000350: 09ff c73c 1997 30bd 0612 5abd b723 cebc
00000360: 5330 f43c 1bcd e33c 9b4b 573d 8f8e d93c
00000370: d6e3 ef3c d7b5 3e3b c544 293d b714 c43a
00000380: fb61 643d 50e1 183d 86d2 563d fa82 3c3d
00000390: bfda 083d 0956 c3bc 0ff3 173d 7e3f 7c3c
000003a0: b355 aa3c d92f 18bc d5b6 2bbc 5c1e 9c3c
000003b0: ba2c b33c 53a4 f0bc c4c0 143d e0f1 0a3c
000003c0: c794 533d c1b3 b83c 0e92 42bd b268 12bd
000003d0: 9339 403d 39d2 213d bb0f 193d 4d84 aebc
000003e0: 378c 383d 4e2d d73c 6c29 83bc 0c75 4abd
000003f0: ed98 19bb 9077 9aba 2385 9fbc f205 403d

bias f4 [24]
-0.044285968 -0.0056277383 0.03809374 -0.017900001 -0.031252254 0.033910282 0.04902517 -0.05285798
0.052192867 0.049938265 -0.05231632 -0.04839407 -0.056554936 0.0017808464 0.031362582 -0.035935234
0.0013888094 -0.027547026 -0.05063953 0.039081756 0.05423595 0.042803057 0.025609417 -0.0022999698
00000000: 3465 35bd e468 b8bb 2e08 1c3d 06a3 92bc
00000010: 5d02 00bd 82e5 0a3d 9ece 483d 9c81 58bd
00000020: 30c8 553d 118c 4c3d a349 56bd dc38 46bd
00000030: 26a6 67bd 4a6b e93a 0d76 003d d330 13bd
00000040: b608 b63a 4daa e1bc 656b 4fbd 3114 203d
00000050: 8426 5e3d 4252 2f3d d7ca d13c 17bb 16bb

weight f4 [24]
1.0000014 0.9999648 0.9999526 0.99994916 0.9999813 1.0000025 1.0000021 1.0000038
0.99996495 0.9999652 1.0000015 0.99995893 0.99998987 0.9999505 1.0000008 1.0000001
0.99994695 0.999982 0.99999243 1.0000014 0.99998647 1.0000026 1.0000021 0.9999916
00000000: 0c00 803f b1fd 7f3f e5fc 7f3f abfc 7f3f
00000010: c6fe 7f3f 1500 803f 1200 803f 2000 803f
00000020: b4fd 7f3f b8fd 7f3f 0d00 803f 4ffd 7f3f
00000030: 56ff 7f3f c2fc 7f3f 0700 803f 0100 803f
00000040: 86fc 7f3f d2fe 7f3f 81ff 7f3f 0c00 803f
00000050: 1dff 7f3f 1600 803f 1200 803f 73ff 7f3f

bias f4 [24]
-6.130688e-06 5.9278455e-07 -6.562244e-05 -8.695669e-06 -5.323065e-05 7.8781864e-05 3.0382515e-05 0.000121168116
-6.0890365e-05 -7.281312e-05 6.453266e-05 -3.3263892e-05 -5.8195594e-05 -9.308417e-05 4.112451e-05 3.7929254e-05
-4.1060863e-05 2.8722641e-05 -2.3433899e-05 5.2327465e-05 7.086704e-06 8.16838e-05 4.4830544e-05 -6.8592e-06
00000000: 35b6 cdb6 d81f 1f35 c79e 89b8 9de3 11b7
00000010: fa43 5fb8 b137 a538 f4dd fe37 a31b fe38
00000020: 8864 7fb8 3fb3 98b8 b555 8738 d584 0bb8
00000030: 0b17 74b8 2f36 c3b8 1b7d 2c38 3a16 1f38
00000040: c438 2cb8 67f1 f037 ea93 c4b7 307a 5b38
00000050: 53ca ed36 a84d ab38 6e08 3c38 1428 e6b6

running_mean f4 [24]
0.31541467 0.3693699 -0.014243793 -0.48945588 -0.35363233 0.46590382 -0.19888645 0.2087546
-0.3459952 -0.37669265 -0.09646994 -0.10356861 0.075753324 -0.15626602 -0.5680176 0.2058372
-0.3659584 -0.30663309 -0.16317749 0.37551636 0.017233659 0.004566846 0.15230224 -0.39856857
00000000: 087e a13e 0d1e bd3e cc5e 69bc f699 fabe
00000010: 4c0f b5be f28a ee3e e4a8 4bbe c4c3 553e
00000020: 4826 b1be dcdd c0be 0892 c5bd c81b d4bd
00000030: 8f24 9b3d 3304 20be 9a69 11bf fdc6 523e
00000040: e65e bbbe 03ff 9cbe 0018 27be ae43 c03e
00000050: 9a2d 8d3c 7ba5 953b 1ef5 1b3e 2e11 ccbe

running_var f4 [24]
0.17850126 0.23213096 0.09218453 0.17543483 0.2638994 0.12364746 0.13056955 0.13591132
0.27469805 0.25688413 0.22699541 0.110154815 0.22777161 0.13844313 0.22922175 0.08216017
0.2148032 0.10742596 0.12954062 0.24032171 0.116651595 0.21481821 0.15143426 0.16471346
00000000: 09c9 363e bdb3 6d3e 3ecb bc3d 30a5 333e
00000010: d21d 873e e13a fd3d 06b4 053e 562c 0b3e
00000020: 39a5 8c3e 5186 833e 7c71 683e d998 e13d
00000030: f63c 693e 09c4 0d3e 1bb9 6a3e 9743 a83d
00000040: 5ff5 5b3e 2402 dc3d 4ca6 043e e516 763e
00000050: 08e7 ee3d 4ef9 5b3e 9511 1b3e a5aa 283e

weight f4 [24, 24, 5, 5]
-0.015113012 0.032620143 0.019249 0.023861008 -0.008535635 -0.03596185 -0.03405103 -0.03048154
-0.014835989 0.004914491 0.017178187 0.0028311836 -0.017179737 0.026742274 -0.011971189 -0.031826437
-0.02979881 0.035629667 0.03698509 -0.019347964 -0.008182487 -0.037368946 -0.007196867 -0.0025762308
0.03304311 0.021566896 -0.0047373534 0.023920015 0.0039656674 -0.022967713 -0.032498714 -0.0061358507
0.023204256 0.027900267 -0.026009768 0.034976978 -0.0016591727 -0.032853544 0.0030118688 -0.005589741
-0.013061917 -0.0076098735 -0.0346838 -0.028361887 -0.007815273 -0.015803955 -0.0110860625 -0.014318043
0.019490384 0.025447546 0.04069584 -0.0276567 0.021301584 0.03254313 -0.02635421 0.004695225
0.02160765 -0.019423425 -0.027110426 0.0006068852 -0.02453365 -0.0010029384 0.024191683 -0.0028505726
-0.0032211447 -0.014459637 -0.01690292 -0.0004454151 0.03176132 0.036287524 -0.02781462 0.023474593
-0.022513198 -0.030522345 0.035708282 0.002811678 0.015004699 -0.020810964 -0.016008537 -0.012927854
-0.031286094 0.034507964 0.019303178 -0.015906008 0.025678331 -0.013580921 0.035788223 0.00958295
-0.032700945 0.017652962 0.011602209 -0.026281837 0.00016981177 -0.014586128 0.013845135 0.012581
-0.02767121 -0.0064798924 0.026051065 0.01928103 -0.005174672 -0.039534897 0.010966264 0.010200179
-0.0249157 0.033999942 -0.030877637 0.034737315 -0.015594548 0.03761192 0.010723012 -0.0070209405
0.022648735 -0.02962573 0.03136268 0.023842178 -0.025063235 -0.0075747413 -0.02355345 -0.01600989
0.02078593 -0.0064453124 0.009644008 -0.01592016 -0.01276428 0.0068127383 0.024363412 0.04027348
-0.022291685 -0.02182422 0.0035111888 0.02884896 0.02545263 0.030013632 -0.039833583 0.0039084507
-0.0011232151 0.038420506 -0.03013301 -0.009776212 -0.033410355 -0.03477798 0.037111863 -0.023599505
0.029127786 0.009770309 0.008100663 -0.026922826 -0.005754127 -0.03913775 0.014689858 0.013502638
0.010561257 0.019740827 0.031135738 0.01240183 0.040284645 -0.03939614 -0.027324753 -0.017243478
-0.0019446359 -0.030477088 -0.016144674 0.013219853 -0.021741658 0.035033867 -0.029444715 -0.021054752
0.035181295 -0.028622195 0.029942887 -0.019756472 0.02234304 -0.029225158 -0.012588092 -0.029734163
0.020120071 0.005825404 0.005281493 0.030208876 0.030863786 0.005797363 0.02336838 0.03246888
-0.034758214 0.0349817 0.021416152 0.024750974 0.021596756 -0.02523159 -0.034368537 0.033489197
0.014931955 0.007859181 -0.011508933 0.030676456 0.03881488 -0.0107851215 -0.037922632 -0.019588973
-0.016042706 0.0004215154 0.015650315 -0.013505419 0.040207542 -0.016569542 0.031974606 -0.03427351
0.034169756 -0.021256542 -0.03940048 -0.029474406 -0.038371008 -0.031913128 -0.008104732 0.017389327
0.032754026 0.021710187 0.02455069 -0.004302174 0.017622726 -0.03339949 -0.035792675 0.0374032
0.016357904 -0.033741925 0.004584539 0.017643731 0.02534768 -0.023437966 0.03051017 0.027062982
-0.021543251 0.0054720133 0.035712413 -0.0031804324 -0.0048753344 -0.007027012 0.0393362 -0.038972825
-0.018798655 0.0026674105 0.029146632 0.00585937 0.025137322 -0.036370788 -0.019960558 -0.0087309275
-0.025937194 0.014163587 0.030792687 -0.018472003 0.007720999 0.02084052 -0.019707195 -0.012902924
00000000: 919c 77bc b39c 053d 14b0 9d3c 2978 c33c
00000010: 0cd9 0bbc bc4c 13bd 1879 0bbd 6cb4 f9bc
00000020: a612 73bc bd09 a13b 45b9 8c3c 618b 393b
00000030: 85bc 8cbc 9d12 db3c ce22 44bc 705c 02bd
00000040: a21c f4bc 6af0 113d ad7d 173d 9f7f 9ebc
00000050: d70f 06bc 2e10 19bd b2d3 ebbb fbd5 28bb
00000060: 3658 073d 0fad b03c cd3b 9bbb e8f3 c33c
00000070: 6ef2 813b c926 bcbc 5f1d 05bd 3f0f c9bb
00000080: da16 be3c 1a8f e43c 7012 d5bc 0544 0f3d
00000090: 9978 d9ba 7091 06bd c662 453b 252a b7bb
000000a0: a701 56bc 3f5c f9bb 9a10 0ebd 3057 e8bc
000000b0: a10b 00bc 4c77 81bc 51a2 35bc 3a96 6abc
000000c0: 4caa 9f3c 5f77 d03c aeb0 263d 4e90 e2bc
000000d0: a980 ae3c f24b 053d c9e4 d7bc 67da 993b
000000e0: 8702 b13c e01d 9fbc af16 debc 6017 1f3a
000000f0: cbfa c8bc 0775 83ba a32d c63c acd0 3abb
00000100: d719 53bb 1de8 6cbc fe77 8abc 9a86 e9b9
00000110: 2818 023d 3aa2 143d 7cdb e3bc ca4d c03c
00000120: 996d b8bc ff09 fabc d942 123d 2144 383b
00000130: 45d6 753c c17b aabc 5624 83bc 5acf 53bc
00000140: d925 00bd 3958 0d3d b321 9e3c 514d 82bc
00000150: 5d5b d23c 8382 5ebc ac96 123d ce01 1d3c
00000160: 6df1 05bd f29c 903c 3117 3e3c 024d d7bc
00000170: 800f 3239 a8fa 6ebc b5d6 623c 8a20 4e3c
00000180: bcae e2bc 4755 d4bb 0b69 d53c 40f3 9d3c
00000190: 4c90 a9bb 58ef 21bd d8ab 333c a71e 273c
000001a0: 031c ccbc 8643 0b3d 19f3 fcbc b748 0e3d
000001b0: 4680 7fbc f50e 1a3d 92af 2f3c eb0f e6bb
000001c0: d789 b93c a9b1 f2bc 2776 003d ac50 c33c
000001d0: 6a51 cdbc 8935 f8bb 2af3 c0bc 2c27 83bc
000001e0: 4147 aa3c 3333 d3bb e701 1e3c ff6a 82bc
000001f0: 4521 51bc 643d df3b c795 c73c cef5 243d
00000200: 0d9d b6bc b5c8 b2bc f91b 663b a754 ec3c
00000210: 0982 d03c 26df f53c 8a28 23bd 7612 803b
00000220: d838 93ba d25e 1d3d 81d9 f6bc 682c 20bc
00000230: 4cd9 08bd 5b73 0ebd 9c02 183d c053 c1bc
00000240: 659d ee3c a513 203c a5b8 043c 428d dcbc
00000250: 1e8d bcbb e84e 20bd bbad 703c 2b3a 5d3c
00000260: 1f09 2d3c 84b7 a13c 6010 ff3c 0c31 4b3c
00000270: 8301 253d d95d 21bd 29d8 dfbc 3242 8dbc
00000280: 27e3 feba 16ab f9bc d641 84bc 1598 583c
00000290: 901b b2bc ac7f 0f3d 0b36 f1bc 047b acbc
000002a0: 431a 103d 1879 eabc c94a f53c 53d8 a1bc
000002b0: c008 b73c 9969 efbc 493e 4ebc 0f95 f3bc
000002c0: d9d2 a43c 08e3 be3b 6010 ad3b 9b78 f73c
000002d0: 0dd6 fc3c cef7 bd3b 0b6f bf3c 17fe 043d
000002e0: a15e 0ebd f948 0f3d ed70 af3c 8ec2 ca3c
000002f0: aeeb b03c 7bb2 cebc 06c6 0cbd f82b 093d
00000300: 29a5 743c cbc3 003c f78f 3cbc 314d fb3c
00000310: 5afc 1e3d 14b4 30bc c354 1bbd 0e79 a0bc
00000320: fe6b 83bc d7fe dc39 1735 803c d545 5dbc
00000330: aab0 243d d9bc 87bc cef7 023d 6162 0cbd
00000340: 96f5 0b3d 3322 aebc 6662 21bd 4f74 f1bc
00000350: eb2a 1dbd 57b7 02bd b6c9 04bc 1074 8e3c
00000360: 1629 063d 90d9 b13c 871e c93c 40f9 8cbb
00000370: 895d 903c e7cd 08bd 579b 12bd 1934 193d
00000380: 0301 863c f934 0abd e739 963b 9689 903c
00000390: f0a5 cf3c fa00 c0bc 77f0 f93c 30b3 dd3c
000003a0: 797b b0bc 934e b33b 2e47 123d cd6e 50bb
000003b0: 45c1 9fbb d942 e6bb ff1e 213d f8a1 1fbd
000003c0: a3ff 99bc b9cf 2e3b ebc4 ee3c f5ff bf3b
000003d0: c9ec cd3c 89f9 14bd 5384 a3bc 2a0c 0fbc
000003e0: 3d7a d4bc 640e 683c f240 fc3c 9952 97bc
000003f0: 6f00 fd3b bdb9 aa3c fc70 a1bc c966 53bc

bias f4 [24]
0.02643165 0.038096827 0.033884138 -0.0343191 0.017126065 -0.01570039 -0.029975332 0.0036506667
-0.020984054 0.037257593 -0.010835963 0.023384523 0.0020259435 0.023106858 0.020576028 -0.02702828
-0.0108599905 0.023341672 0.0035107783 -0.002642423 -0.008855139 0.026287086 -0.0015965985 0.0008540911
00000000: 3087 d83c 6b0b 1c3d 18ca 0a3d 2f92 0cbd
00000010: f64b 8c3c 1b9e 80bc d48e f5bc 0640 6f3b
00000020: c0e6 abbc 6b9b 183d 5389 31bc e690 bf3c
00000030: b1c5 043b 984a bd3c 0f8f a83c 696a ddbc
00000040: 1aee 31bc 0937 bf3c 1615 663b 802c 2dbb
00000050: 2515 11bc 0458 d73c f544 d1ba 15e5 5f3a

weight f4 [24]
1.0000014 0.999883 1.0000011 1.0000008 1.0000035 0.9999519 0.99997324 0.99994695
1.0000021 1.0000021 1.0000023 0.99998343 0.9998898 1.0000015 1.0000001 1.0000012
1.0000025 1.000005 0.99993056 1.0000012 0.99997973 1.0000015 0.99996203 1.0000025
00000000: 0c00 803f 55f8 7f3f 0900 803f 0700 803f
00000010: 1d00 803f d9fc 7f3f 3ffe 7f3f 86fc 7f3f
00000020: 1200 803f 1200 803f 1300 803f eafe 7f3f
00000030: c7f8 7f3f 0d00 803f 0100 803f 0a00 803f
00000040: 1500 803f 2a00 803f 73fb 7f3f 0a00 803f
00000050: acfe 7f3f 0d00 803f 83fd 7f3f 1500 803f

bias f4 [24]
-3.0792766e-05 -0.00013491057 7.2235904e-05 5.404771e-06 0.000118399126 -4.0275663e-06 2.3470354e-06 -2.2275017e-05
0.00010257064 0.00016050851 0.00016786324 -1.9433644e-05 -0.00015458306 7.1898917e-06 0.000103557475 4.5812558e-05
0.00012888956 0.00013304982 -7.150714e-05 0.0001254996 -1.5027003e-05 0.00012620565 -1.7217604e-05 9.589081e-05
00000000: 7b27 01b8 c876 0db9 5b7d 9738 a15a b536
00000010: 0c4d f838 8824 87b6 c381 1d36 3cdb bab7
00000020: 311b d738 2d4e 2839 7204 3039 6f05 a3b7
00000030: 9317 22b9 b340 f136 ff2c d938 dc26 4038
00000040: 8726 0739 4a83 0b39 1af6 95b8 8b98 0339
00000050: 7d1c 7cb7 1256 0439 866e 90b7 fd18 c938

running_mean f4 [24]
0.00071106653 0.20109732 0.1546825 -0.004855315 -0.120217614 -0.32149878 0.12558682 -0.082946636
0.023246836 -0.20282665 0.020612886 0.023157852 0.11568214 0.22057243 -0.17767875 -0.13165821
0.16559473 0.029839827 -0.09041645 0.13425007 0.07773555 0.02184879 0.03952081 -0.083552934
00000000: de66 3a3a 75ec 4d3e 1765 1e3e 5619 9fbb
00000010: a734 f6bd 7d9b a4be d599 003e eddf a9bd
00000020: 2670 be3c cab1 4fbe 5bdc a83c 89b5 bd3c
00000030: c2ea ec3d bddd 613e 6bf1 35be 69d1 06be
00000040: aa91 293e a772 f43c 422c b9bd da78 093e
00000050: d133 9f3d 3cfc b23c 93e0 213d cd1d abbd

running_var f4 [24]
0.15470202 0.19388528 0.12093898 0.108213834 0.10047333 0.22509679 0.17531483 0.09834887
0.090781204 0.1228762 0.08634046 0.08647731 0.08882355 0.090992555 0.17982365 0.10810564
0.09077086 0.14572436 0.14498243 0.086067274 0.07957508 0.17323904 0.1771654 0.10452295
00000000: 356a 1e3e dd89 463e dbae f73d 379f dd3d
00000010: f6c4 cd3d c67f 663e bb85 333e 226b c93d
00000020: 7feb b93d 84a6 fb3d 44d3 b03d 041b b13d
00000030: 1fe9 b53d 4e5a ba3d b123 383e 7d66 dd3d
00000040: 13e6 b93d c438 153e 4676 143e 0a44 b03d
00000050: 42f8 a23d 9365 313e d96a 353e 2110 d63d

weight f4 [10, 16224]
0.0047095297 0.005240082 0.0017708428 -0.00031206274 -0.007163093 -0.0036764643 0.007205247 -0.0030264426
-0.0075570717 -0.0032892108 -0.0005905006 0.0031780244 0.0066075614 0.0030726753 -0.003666678 0.0010352175
-0.0074717794 -0.0008396157 0.0019064976 0.0011155228 -0.005207463 0.0026137999 -0.00562053 -0.0067091575
-0.0044123507 0.0076871742 -0.0070970366 0.0016392692 -0.0044292775 -0.00054447877 0.0012957741 0.007107593
-0.0049375156 -0.0038042008 -0.0009790903 -0.007321537 -0.0040840413 6.79053e-05 -0.0014192791 -0.0055631115
-0.0057725054 0.007322955 0.0049140374 0.005637579 0.0075145974 0.0042136535 -0.0051822616 0.0029467773
0.0056637987 0.005748918 0.0038729254 -0.006270227 -0.002555964 -0.0017301079 0.0043619275 0.0053928234
0.0051987716 -0.005555374 0.0068803434 -0.00025019326 -0.005244853 0.00032200103 -0.0011594815 0.006262275
0.00018562547 -0.0058579515 -0.0029012344 0.004694891 0.005986455 -0.006513085 -0.0065199914 0.003515186
0.0065340856 -0.0032856874 -0.0071204114 0.006275495 0.0037357763 -0.0011280323 0.0049475743 -0.002720205
0.0057563595 -0.0072448845 0.0033047881 -0.007824968 0.006676117 -0.0002999797 -0.004000382 0.0071944566
0.0023370814 0.0017584949 -0.00029608558 -0.0064209825 0.00044703492 -0.007219347 0.0045049773 0.0065465746
-0.004896409 -0.0070694163 -0.005883074 -0.0048570386 -0.004222533 0.00533072 -0.001568124 -0.002880561
-0.0010344842 0.0072891656 -0.0034398327 -0.0022376403 0.005222444 0.007365524 -0.007014607 0.00592699
-0.0022679444 0.00066063553 0.007174411 0.0037668545 0.004474555 -0.0027499197 0.006553808 -0.0057188612
-0.00505037 -0.007191188 -0.0047381916 0.007767475 0.0055598067 0.004377316 -0.0011910403 -0.0017462121
-0.0074999626 -0.0022720401 -0.005753206 -0.0068552247 0.005897166 -0.0018186622 0.0027860645 -0.0025645785
-0.0040677735 -0.007114719 -0.003668576 -0.0061181136 -0.0032214953 -0.0076563833 -0.007327143 -0.0027761878
0.0073242816 -0.004509531 -9.435948e-05 0.005078927 -0.0028492766 -0.0011833207 0.0031569875 -0.0058216574
0.0018882271 0.004630998 0.003669845 -0.0028272844 -0.005539356 -0.0033632945 -0.00415116 -0.0020998258
-0.007375397 0.0027378658 -0.0032047748 0.00047347628 -0.0033553157 -0.0049888007 0.00466014 0.0032569598
-0.005361183 0.0007349811 0.007714522 0.005114734 -0.0028941971 0.0021290786 -0.005140392 -0.0038432316
0.006421607 -0.0067931884 0.0049045254 -0.00508518 0.0071940473 -0.0061108605 -0.0060234736 0.005205475
0.00032215682 -0.0039394274 -0.003170048 0.0005469007 -0.0033883029 0.0007843745 -0.007092866 -0.004892826
-0.0021120873 -0.007095319 0.0018627441 0.0062355557 0.0052930857 -0.0054689096 0.0055355695 0.0053627808
0.0041147224 -0.003681864 0.0061579463 0.004096612 0.0038522251 -0.00557321 -0.003949298 -0.0063881073
-0.0025591739 -0.0060619987 0.00588762 -0.0026943712 0.005521172 0.006439829 -0.0012707346 -0.0019205182
0.0062375674 0.007376472 0.0044469154 0.00023654263 -0.00456401 0.004381978 0.0074493904 -0.00031683486
0.006218325 -0.004409258 -0.0074997647 0.0065161614 -0.005473777 0.004307944 -0.002462403 -0.005182579
0.007727484 0.005713889 0.005666776 0.0047327783 -0.00142143 0.0021711942 0.0034608506 -0.005302152
0.00012695542 -0.0068263146 0.0060148826 -0.0032799335 0.0068360236 0.00059454696 -0.0007210026 0.0075239735
-0.0031315628 -0.0046690474 -0.0031724637 -0.0039112605 -0.0018164293 -0.0004113636 0.0007819792 0.00019465151
00000000: 6652 9a3b feb4 ab3b a01b e83a 5a9c a3b9
00000010: 61b8 eabb d6f0 70bb fe19 ec3b 4857 46bb
00000020: 50a1 f7bb cd8f 57bb d3cb 1aba 6746 503b
00000030: 3e84 d83b f05e 493b a64c 70bb 23b0 873a
00000040: d4d5 f4bb a819 5cba 72e3 f93a bc36 923a
00000050: 5ea3 aabb 494c 2b3b 6c2c b8bb 7ed8 dbbb
00000060: 7b95 90bb b1e4 fb3b 428e e8bb bfdc d63a
00000070: 7923 91bb 5abb 0eba f7d6 a93a d0e6 e83b
00000080: e2ca a1bb e64f 79bb d254 80ba 81e9 efbb
00000090: 6cd3 85bb 6168 8e38 1b07 baba c34a b6bb
000000a0: 4927 bdbb 66f5 ef3b ef05 a13b 71bb b83b
000000b0: 033d f63b b012 8a3b f6cf a9bb b81e 413b
000000c0: 6397 b93b 6b61 bc3b e8d0 7d3b 7a76 cdbb
000000d0: f681 27bb cac4 e2ba 80ee 8e3b 48b6 b03b
000000e0: 755a aa3b db09 b6bb 8174 e13b 5f2c 83b9
000000f0: 04dd abbb 3fd2 a839 bef9 97ba c533 cd3b
00000100: 75a4 4239 0ff4 bfbb a322 3ebb 9ad7 993b
00000110: 062a c43b b86b d5bb a7a5 d5bb 095f 663b
00000120: e21b d63b b054 57bb 5752 e9bb aba2 cd3b
00000130: edd3 743b 7cda 93ba 431f a23b 7845 32bb
00000140: d89f bc3b 7f66 edbb 2595 583b 4b34 00bc
00000150: 54c3 da3b 9846 9db9 a315 83bb 7abf eb3b
00000160: b829 193b 4c7d e63a ef3b 9bb9 1b67 d2bb
00000170: 0360 ea39 4690 ecbb 7d9e 933b a684 d63b
00000180: 0e72 a0bb 90a6 e7bb cdc6 c0bb cb27 9fbb
00000190: 2d5d 8abb 52ad ae3b 8389 cdba cbc7 3cbb
000001a0: 8897 87ba f4d9 ee3b d16e 61bb 60a5 12bb
000001b0: 0921 ab3b 7e5a f13b cada e5bb 3237 c23b
000001c0: cba1 14bb 802e 2d3a 5217 eb3b 55dd 763b
000001d0: 4a9f 923b ff37 34bb 54c1 d63b 4965 bbbb
000001e0: 937d a5bb 0fa4 ebbb d542 9bbb 4e86 fe3b
000001f0: 0a2f b63b 976f 8f3b ae1c 9cba 28e1 e4ba
00000200: 3fc2 f5bb 82e6 14bb 6485 bcbb cba1 e0bb
00000210: 043d c13b 2d60 eeba 6896 363b 7d12 28bb
00000220: f54a 85bb 9722 e9bb 7e6c 70bb 757a c8bb
00000230: b91f 53bb 66e2 fabb 8818 f0bb b4f0 35bb
00000240: 8700 f03b b0c4 93bb dce2 c5b8 216d a63b
00000250: eeba 3abb a719 9bba 76e5 4e3b 9ac3 bebb
00000260: 637e f73a a0bf 973b c881 703b f649 39bb
00000270: 7c83 b5bb b86a 5cbb 7406 88bb 3b9d 09bb
00000280: 50ad f1bb c46d 333b 3307 52bb e93c f839
00000290: dbe4 5bbb 1879 a3bb 16b4 983b b872 553b
000002a0: ddac afbb bfab 403a 1aca fc3b 8099 a73b
000002b0: 92ac 3dbb 0388 0b3b bc70 a8bb bade 7bbb
000002c0: 586c d23b 6599 debb 24b6 a03b 95a1 a6bb
000002d0: 0bbc eb3b 9d3d c8bb 8f60 c5bb b092 aa3b
000002e0: 28e7 a839 5016 81bb 94c0 4fbb e25d 0f3a
000002f0: 4a0e 5ebb 7b9e 4d3a 466b e8bb 0054 a0bb
00000300: f26a 0abb da7f e8bb 5227 f43a a253 cc3b
00000310: 9f71 ad3b 8a34 b3bb b963 b53b 44ba af3b
00000320: cbd4 863b 6d4b 71bb 99c8 c93b df3c 863b
00000330: 9d75 7c3b 799f b6bb 1d69 81bb 5453 d1bb
00000340: d0b7 27bb bba3 c6bb f0ec c03b 0c94 30bb
00000350: f3ea b43b 3305 d33b c78e a6ba e6b9 fbba
00000360: 8264 cc3b 55b6 f13b 6eb7 913b 6e08 7839
00000370: b18d 95bb b296 8f3b 041a f43b db1c a6b9
00000380: 17c3 cb3b 897b 90bb 96c0 f5bb 8685 d53b
00000390: 5f5d b3bb a729 8d3b 4460 21bb a0d2 a9bb
000003a0: d636 fd3b 933b bb3b 5db0 b93b 6c15 9b3b
000003b0: 474f baba 984a 0e3b 70cf 623b adbd adbb
000003c0: 561f 0539 47af dfbb 7e18 c53b 27f4 56bb
000003d0: b900 e03b 5fdb 1b3a aa01 3dba aa8b f63b
000003e0: e83a 4dbb cffe 98bb 1ce9 4fbb 082a 80bb
000003f0: 4115 eeba 4aac d7b9 bcfd 4c3a 5e1b 4c39

bias f4 [10]
0.0020964479 -0.003791516 -0.002558214 0.004009358 0.00017973018 -0.0058466843 0.005704649 -0.0029753216
8.557478e-05 -0.004612976
00000000: 8f64 093b 157b 78bb b5a7 27bb ef60 833b
00000010: f475 3c39 8b95 bfbb 10ee ba3b 9dfd 42bb
00000020: 9c76 b338 7328 97bb
