models/AdvaDemo_CleverHans_4.0.0/LOGS/models/nnet_epoch_5.pt (torch, 766091 bytes, 26 tensors)

weight f4 [12, 3, 5, 5]
000000 93 23 2b 3b 47 2f 64 3c a0 5a 90 bd c6 0d bb bd
       0.0026113733 0.013927287 -0.07048535 -0.091334864
000010 fb f0 c4 bd ec 8c e5 3a 0d 88 97 bc 67 44 37 bd
       -0.09616276 0.0017513311 -0.018497491 -0.044742968
000020 70 d6 bc 3d 62 bc d3 3d 0b 15 0c 3d 4b 66 42 3d
       0.09220588 0.103386655 0.034199756 0.047460835
000030 32 96 b3 bd 63 16 b7 bd 3e 79 e3 bd ff 94 8e bd
       -0.08768882 -0.08939817 -0.111071095 -0.069620125
000040 99 79 2a 3d 47 e6 e4 bd 1b d0 db 3c 50 3d b5 3d
       0.04161987 -0.111767344 0.02683263 0.08849585
000050 f5 a6 18 3d 1a 49 d3 bd b7 b6 73 bd ce fe b2 3d
       0.037268598 -0.103166774 -0.059500422 0.087400064
000060 c0 3c 68 3d 29 e0 85 3d df ab a5 3c 41 48 52 bd
       0.05669856 0.06536896 0.020223556 -0.051338438
000070 9c 88 c6 bd 0f b5 83 3d 20 eb 56 3d 9b 81 8b bb
       -0.09694025 0.064310186 0.052470326 -0.0042573935
000080 a6 1b 87 bb cc c7 df bd 58 8e cc 3d 05 b4 e5 3d
       -0.004123169 -0.1092678 0.099880874 0.112159766
000090 af 33 b0 bd 02 97 02 3c d3 dc ba bb 02 48 db 3d
       -0.08603608 0.007970573 -0.005702594 0.10707094
0000a0 6b ce 5d 3d fc 71 96 bc 5d ec 16 bc 29 15 39 bd
       0.054151934 -0.018364899 -0.009211627 -0.045186196
0000b0 16 76 1e bd 4d 40 9e bd ce 79 e2 bd 3c a9 4f bd
       -0.038686834 -0.07727108 -0.11058389 -0.050698504
0000c0 44 a5 6a bd b2 96 ae 3d bc fd 3a bc 24 ff a0 bd
       -0.057286516 0.085248366 -0.011413034 -0.07861164
0000d0 b6 aa 81 bd e2 2c a1 3d 75 48 e6 3d e0 bf 9b 3d
       -0.06331389 0.07869889 0.11244289 0.076049566
0000e0 ca 97 ac 3d d3 aa 98 3d e6 36 ae 3d f4 73 a8 bd
       0.08427389 0.07454457 0.08506565 -0.08225241
0000f0 63 6c 8b 3d 49 7a 66 bd c6 3c 3f bd 13 cf b6 3d
       0.068077825 -0.056268964 -0.046688817 0.08926215
000100 77 55 a1 bd 92 f0 dc bc 4b f5 41 bd c5 f3 8a bd
       -0.07877629 -0.026970182 -0.04735307 -0.067847766
000110 c5 f9 47 ba d0 0c f7 3c 37 f9 36 bd 22 30 a7 bd
       -0.0007628466 0.030157477 -0.044671264 -0.081634775
000120 dc e3 84 3d aa 1f d7 3d 58 c2 5d 3d 4f ec 01 bd
       0.06488773 0.10504086 0.05414042 -0.031719502
000130 2b 91 53 bc 02 46 8f 3d ef dc c2 bd 15 b9 a2 bd
       -0.012913029 0.06995775 -0.09514796 -0.07945458
000140 90 3a 50 3d 1c 41 24 bc 51 b2 ac 3d d9 24 3d 3d
       0.0508371 -0.010025289 0.08432449 0.04617772
000150 f8 62 95 ba b5 3d 99 3d 10 85 b0 3d f2 aa 87 3d
       -0.0011397293 0.07482473 0.0861913 0.06624402
000160 d9 37 c5 bd 96 b3 a0 3d 1c 04 55 3d c5 c9 69 bc
       -0.09629793 0.07846753 0.052005872 -0.014269297
000170 5c 2e 0d 3c 2b 58 e5 3d ef 04 8f bd 04 ef be 3c
       0.00861701 0.11198457 -0.06983363 0.02330733
000180 67 3c 66 bd c0 bf 14 3d e2 86 a0 3d c5 35 1a bd
       -0.056209948 0.03631568 0.07838227 -0.037648935
000190 a3 4a 6e bc ed 69 96 3d 8b 52 be bd 87 c4 ce 3d
       -0.014544162 0.073444225 -0.092930876 0.10096078
0001a0 cf fa b8 3d 63 c6 93 3d 0a f7 81 bd 3a 31 37 bd
       0.09032213 0.07215574 -0.06345947 -0.04472468
0001b0 86 a7 24 bc 2c e8 db bd df 97 cb bd 0c dd 2f 3d
       -0.010049706 -0.10737643 -0.099410765 0.042935416
0001c0 a3 15 08 3c 63 a5 c7 bc 56 fe 01 3d 75 fc a3 bd
       0.00830594 -0.024370855 0.031736694 -0.08007137
0001d0 10 ac 34 3d 69 22 e2 bd 7e 89 d7 3c 8f 1b 68 bc
       0.044109404 -0.110417195 0.026310679 -0.014166727
0001e0 90 d9 2c 3c 3b 9f 51 3d ad 8e 37 bc b6 b8 78 3d
       0.010549918 0.051177245 -0.01120345 0.06072303
0001f0 29 c6 3e bd 2d f8 20 3c b7 8e 8a 3d 58 0a b0 3d
       -0.0465757 0.009824795 0.06765502 0.08595723
000200 7b 14 db bd 28 c9 6d 3c eb 78 a4 3d 57 56 e9 3d
       -0.10697266 0.014513291 0.08030876 0.11393421
000210 33 0a c8 bd 4c f7 7a bd 7e a7 85 39 01 3f cf bd
       -0.0976757 -0.061270997 0.00025492528 -0.10119439
000220 c8 2c 4f 3d b2 68 c3 bd e6 a8 93 bd cf 07 d0 bd
       0.050579816 -0.095414534 -0.07209949 -0.10157739
000230 b8 12 51 3d 64 ef 3c 3d da 45 19 3d 75 99 a9 3d
       0.051043242 0.04612674 0.03742013 0.08281223
000240 f3 4e 8d bd 78 b9 84 bd ad 7b 8d bd 08 2e e2 bd
       -0.06899824 -0.06480688 -0.06908355 -0.11043936
000250 0b fa cf 3b 9b 5e b8 bd bd 20 75 b9 ea 58 a2 3d
       0.006346946 -0.090024196 -0.00023377217 0.07927115
000260 3e 00 df 3d a4 c7 3d bd 1b 3e f1 3c 19 63 2e bc
       0.10888718 -0.04633297 0.02944856 -0.010643744
000270 e3 64 ad bd 23 1a cd bd aa eb 99 bc 76 9d 9f bd
       -0.08466508 -0.10014751 -0.018789131 -0.07793705
000280 18 33 a5 3d 9a 73 e5 3c 95 f1 a2 bd 11 8d c3 3d
       0.08066386 0.028009225 -0.07956234 0.09548391
000290 ef 0a 55 bd 89 5e e9 bd 81 3b 1f 3d 5c 2e 21 bd
       -0.05201238 -0.11394984 0.038875107 -0.039350852
0002a0 50 c7 c4 bd 74 3c ca 3d 18 fb d1 bd a1 77 12 3d
       -0.09608328 0.09874812 -0.102529705 0.03575862
0002b0 f1 f7 20 bd 47 0d 88 3d 2e 8d 3f bd 3c 5e cb 3d
       -0.039298955 0.066431575 -0.0467655 0.09930083
0002c0 c2 4a ed bc 3e 54 d4 3d d3 1c 96 bd 8d 1b c4 3d
       -0.028966311 0.103676304 -0.073297165 0.095755674
0002d0 5f ff d1 bd 46 b6 6e 3d c6 75 2e 3d d9 27 bc 3d
       -0.10253786 0.0582793 0.042592786 0.09187288
0002e0 1e 4c dd bd be 99 b6 bd 76 c4 f3 bc 69 70 d2 3d
       -0.10805534 -0.08916043 -0.029756766 0.10275347
0002f0 01 1c 3d 3d 02 89 6a 3a 67 c8 af 3c a6 29 d2 3d
       0.046169285 0.00089468074 0.021457864 0.1026185
000300 40 99 55 bd 8e 71 b6 3d 9a 0d 5a 3d 69 85 98 3d
       -0.052148104 0.089083776 0.053235628 0.07447321
000310 21 59 3a bd 29 f6 26 3c 9c 71 e1 bd 87 d1 a9 bd
       -0.045495156 0.010190525 -0.110079974 -0.08291917
000320 84 18 c6 3d 16 f0 b8 bc b3 7d b0 bb f3 7f b1 3d
       0.09672645 -0.02257542 -0.0053860783 0.086669825
000330 e5 86 b2 3d 51 f1 7e 3d 6d ad 2b bc e2 25 a3 3d
       0.08717135 0.062241856 -0.01047836 0.0796621
000340 81 75 cd 3d 86 48 c6 bd e6 0c 9a bd b5 f5 6a bc
       0.10032178 -0.096818015 -0.075219914 -0.014340808
000350 a8 71 1a bd 91 5e 95 3d e9 41 fe bb 12 25 74 bc
       -0.037706047 0.07293428 -0.007759322 -0.014901416
000360 22 f4 6c bd de cb d0 3d 8f 98 5b 3d 9c d0 bb b9
       -0.05785001 0.101951346 0.053612288 -0.00035822846
000370 16 f7 eb 3c cb 26 c0 3d 37 7f 26 39 74 3a 21 3d
       0.028804343 0.09382399 0.00015878385 0.039362386
000380 74 6d 8d bd 5a e7 cd 3d df d8 38 bc 7e 58 b4 3d
       -0.06905642 0.100538924 -0.011282175 0.08805941
000390 0f 15 9d 3d 50 fb 9c 3c 9f 5a 61 3d d1 91 77 3d
       0.07670032 0.019162804 0.055018064 0.060441796
0003a0 1f 0c e4 3d 56 67 af bd eb 3e 91 3b df a7 a8 3d
       0.111351244 -0.08564632 0.0044325492 0.08235144
0003b0 9e 00 f5 bb b3 24 d3 3b 33 7e 61 3d 39 e9 23 bd
       -0.00747688 0.006443584 0.055051994 -0.04001734
0003c0 65 f9 87 3d 52 e7 f8 bc d8 74 d1 bd 01 93 45 bc
       0.06639365 -0.03038374 -0.10227364 -0.012058974
0003d0 c0 9e dc bd c7 00 9d 3d dd 73 3d 3c c6 92 b5 3d
       -0.10772467 0.07666164 0.0115632685 0.088658854
0003e0 d6 a6 e6 3d 59 c6 c7 3d 84 55 93 3d 2f a0 c1 3d
       0.1126229 0.09754629 0.07194045 0.09454381
0003f0 5e 5e 9a 3c 3e 11 db bd 66 4d 86 3d eb df 80 bd
       0.018843826 -0.10696648 0.06557731 -0.06292709

bias f4 [12]
000000 c9 6c e6 bd 14 f8 8a bd 80 43 77 3b d8 08 43 bc
       -0.11251218 -0.067855984 0.0037729442 -0.011903964
000010 d3 1e 68 bd 28 f1 a3 bd 79 ae b7 bd 07 a2 ea bd
       -0.05667002 -0.08004981 -0.08968825 -0.114566855
000020 38 90 a9 3d 74 13 0d bd d8 c0 2d bc f0 9c f5 bb
       0.08279461 -0.03444238 -0.01060506 -0.007495515

weight f4 [12]
000000 23 00 80 3f 8f ff 7f 3f 66 00 80 3f 65 00 80 3f
       1.0000042 0.99999326 1.0000122 1.000012
000010 a8 00 80 3f d5 fe 7f 3f e5 ef 7f 3f 72 fc 7f 3f
       1.00002 0.9999822 0.99975425 0.99994576
000020 d2 f7 7f 3f 4b fc 7f 3f 4d 00 80 3f a7 f5 7f 3f
       0.9998752 0.99994344 1.0000092 0.9998421

bias f4 [12]
000000 df d9 0a b8 3d 40 c0 37 c0 0e 7d 39 fc b5 37 38
       -3.3104672e-05 2.2918097e-05 0.00024133455 4.3800086e-05
000010 fc 22 51 39 a3 93 67 b9 7d 53 2b b9 e5 93 7c b8
       0.00019944826 -0.00022084876 -0.00016338933 -6.021922e-05
000020 9c 3b b3 b8 41 59 aa b8 8e a2 b9 38 a5 c4 8e b7
       -8.546488e-05 -8.1228565e-05 8.8517656e-05 -1.7019289e-05

running_mean f4 [12]
000000 08 b0 37 be c3 c4 ed bd 93 6a 40 3e 94 0d 77 3e
       -0.17938244 -0.11609795 0.18790655 0.24126273
000010 22 c1 db be b2 58 7d 3d 08 b1 c6 bd 7d ad 14 be
       -0.42920786 0.061852165 -0.09701735 -0.14519306
000020 61 ce 35 3d bd d6 07 bd e1 0b 8e bd c1 01 28 3e
       0.04438627 -0.033163775 -0.069358595 0.16406919

running_var f4 [12]
000000 89 ed 0f 3c 30 79 b8 3b 3b 4b b9 3c f0 c3 15 3d
       0.00878466 0.005629681 0.02261888 0.036563814
000010 55 d0 ac 3d cf 57 64 3c 17 1c 00 3c 74 67 90 3b
       0.08438174 0.013936951 0.007819197 0.004406864
000020 66 c2 a2 3b 4f 9b 68 3b cf 33 38 3b dd 36 94 3c
       0.0049670218 0.0035492962 0.0028107052 0.018092567

weight f4 [12, 12, 5, 5]
000000 eb 35 11 bc 3c 25 da 3c d1 ae e8 39 0a 7d 69 3d
       -0.008862953 0.026629083 0.00044380737 0.057004012
000010 2a 76 dd bc 3a d0 f3 bc 79 0a 4e bd 95 70 4c 3b
       -0.027033884 -0.029762376 -0.050302956 0.0031195034
000020 99 91 82 3c 81 8a 34 bd 8e 6e e8 3c 8b f6 cd 3c
       0.015938567 -0.0440774 0.02837303 0.025141975
000030 f7 a7 f5 3c 81 4f 50 bd d5 a9 9e 3c e5 2b 31 bb
       0.029987318 -0.05085707 0.019368092 -0.002703422
000040 7c 0b b1 3c 7e a9 2c 3d de 8a f9 bb e6 27 3f 3d
       0.021611921 0.042153828 -0.007615431 0.04666891
000050 94 54 50 bd e0 f7 15 3c a5 80 6f bc fd ce 3b 3d
       -0.05086191 0.009153336 -0.014618074 0.045851696
000060 7f 15 53 bd f3 88 8d 3c 60 b1 4c bd 88 75 31 3d
       -0.051534172 0.017277217 -0.049973845 0.043324977
000070 67 2f eb bc 04 d5 ba bb 5a 09 42 3d d2 64 09 ba
       -0.028709127 -0.005701663 0.0473722 -0.00052411587
000080 20 db 10 bd 0e 17 8d bc 55 66 d3 ba 33 3a b3 bb
       -0.035365224 -0.017222907 -0.001612852 -0.0054695844
000090 3a 89 10 3d 23 7e 55 bd 9b 08 5a bd 2e 08 13 3d
       0.03528712 -0.052122246 -0.053230863 0.035896473
0000a0 2b ce 31 3d b7 73 48 3d cb cf 2d bd 6f 66 17 bd
       0.043409508 0.04893848 -0.042434495 -0.036962923
0000b0 5a 2a 86 3c c1 7b c9 3c 52 98 91 3c e5 9d 6f 3c
       0.016377617 0.024595143 0.017772827 0.014625047
0000c0 52 ef 0d bd 11 de 05 3d 93 d6 6a bd 68 0e 06 3d
       -0.03465206 0.032682482 -0.05733354 0.032728583
0000d0 70 01 29 bd f5 90 63 bd 49 d6 0e bc 84 dc 46 3d
       -0.041261137 -0.055558164 -0.008718082 0.048550144
0000e0 e8 1a 36 3c ab 8f 93 bb d8 1b 53 3d 48 95 03 bd
       0.011114813 -0.0045032105 0.051540226 -0.032124788
0000f0 cb a7 25 bb a1 64 09 bd 0c 31 a8 bc 81 cc dc 3a
       -0.0025277014 -0.033543233 -0.0205312 0.0016845615
000100 c0 a5 65 3b 88 9d 12 bd 9c 6d 21 3d 7d 39 39 bd
       0.0035041422 -0.035794765 0.039411172 -0.04522084
000110 4c 5d 10 bc 04 41 3b bd ab ea 7d 3c 52 6e 3d bd
       -0.008811306 -0.0457163 0.015497844 -0.046247788
000120 49 22 38 3d 4c 7b cf 3c 61 bb 1f bd 2c 09 d6 bc
       0.044954572 0.025327347 -0.038997058 -0.02612742
000130 02 38 01 3d 65 a4 6b bd 07 0e 64 bd a9 80 fa bb
       0.031547554 -0.057529826 -0.05567744 -0.007644732
000140 1f 3a ae 3c 33 98 c4 3c 45 b2 85 3c 50 30 1e 3c
       0.021267949 0.023998355 0.016320357 0.009655073
000150 5a b4 4d bd 3e c6 15 3c 74 f6 35 3c be a4 87 3c
       -0.050220825 0.009141503 0.011106122 0.016558047
000160 a5 3c 29 bd 76 c7 08 3d 1c 9d 5b 3d 17 53 5a 3c
       -0.0413176 0.033393346 0.053616628 0.013325474
000170 be 4e 24 3c 8b 31 10 3b 42 dc 46 3d 59 b6 17 3d
       0.010028539 0.0022002186 0.048549898 0.037039135
000180 eb 8b 54 3d 44 3d 24 bd 62 c2 ee 3b 1e 6f 8e bc
       0.05189125 -0.04009749 0.007286356 -0.01738697
000190 4f b5 51 3d d6 e2 53 3d 77 6f 85 bc 5b 88 40 bd
       0.0511983 0.05173 -0.016288502 -0.04700504
0001a0 0b ca ec bc cd fe f4 bc f5 b1 5d 3d 6e 9c b4 bc
       -0.028904935 -0.029906655 0.05412479 -0.022047248
0001b0 29 20 65 3d df 45 7a bc ea 76 18 3d 78 89 a3 bb
       0.055938873 -0.015275448 0.03722278 -0.004990753
0001c0 81 95 53 bd 38 62 d1 3c 23 e8 0d 3d 09 7c 2b bd
       -0.05165625 0.02555953 0.03464521 -0.041866336
0001d0 d7 6a 10 bd a1 bc 54 3d eb 77 ae bc c9 3d 10 bd
       -0.03525814 0.051937703 -0.021297416 -0.035215173
0001e0 d8 00 a6 bc 65 31 33 3d 71 94 32 3c 25 8f e0 3c
       -0.020264074 0.04374828 0.010899649 0.027412007
0001f0 71 59 78 3c 44 6a 00 bd 66 d9 9d bb 50 b0 5e 3d
       0.015158043 -0.031351343 -0.0048171757 0.054367363
000200 ff 88 0e bd 8d 30 68 bc c8 1f 3e 3d 20 50 e5 bb
       -0.03479862 -0.014171732 0.046417028 -0.006998077
000210 ee 12 82 bc 62 9a b8 3c e4 19 74 3c 34 67 4b 3d
       -0.015878167 0.022534553 0.014898751 0.04965897
000220 94 c9 8e bc 5c 2f 65 3d c2 9d bf 3b ef 6f f8 3a
       -0.017430104 0.05595337 0.0058476636 0.0018954257
000230 d1 12 0d 3d 09 3a 2b bd 9d 60 c6 bc 46 aa d8 bc
       0.034441773 -0.041803394 -0.02421599 -0.02644838
000240 1c 81 58 bd f2 51 b5 3b 90 fe 61 3d fc f3 64 3d
       -0.052857503 0.0055334503 0.05517441 0.055896744
000250 7f e5 07 bd 0d 0c 32 3b 0a 9b 55 bd 84 cd d2 3c
       -0.03317785 0.0027167827 -0.05214981 0.025732763
000260 4a a3 28 3d 6c 02 4b 3d 97 8f 04 3d 69 11 7a 3c
       0.04117135 0.049562857 0.0323635 0.01526294
000270 b3 9e 58 3d 34 06 40 3d 78 9c bf 3c a3 15 26 3d
       0.052885722 0.046880916 0.02339004 0.040547978
000280 c4 bf 86 3a 29 78 06 3d 66 dd 06 3d 40 41 62 bd
       0.0010280539 0.032829437 0.032925986 -0.05523801
000290 4f bf 6c 3d bf 24 7c 3c 18 d0 7a 3c a5 43 6d 3c
       0.057799634 0.01538962 0.0153084025 0.01448146
0002a0 7e 5d 64 bd 50 ba d4 3c cc 91 59 3d ca 0d 81 bc
       -0.055753224 0.025967747 0.05311756 -0.015753645
0002b0 33 aa 7c 3c a5 87 b1 bb 09 e4 48 3d 80 09 4a bd
       0.015421438 -0.0054177814 0.049045596 -0.049325466
0002c0 0d 45 49 bd b4 64 37 bb ac 6a cb 3c ea ec 05 3c
       -0.049138118 -0.0027983608 0.024831139 0.0081741605
0002d0 27 9e 16 bd 4c f7 31 bd d6 ae 19 bd 63 2d 22 bd
       -0.03677192 -0.04344873 -0.037520252 -0.039594065
0002e0 49 4e 56 bd 87 7c 3b bd ad bc 39 bd d5 47 4f bc
       -0.052320752 -0.045773055 -0.04534595 -0.012651403
0002f0 37 03 5c 3d d2 99 92 3c ef 1a 2b bd 44 9b 3d bc
       0.053714003 0.017895613 -0.041773733 -0.011572663
000300 e1 82 60 3d fd 04 2f 3d 65 35 81 3c c9 2b de 3c
       0.054812316 0.042729367 0.01577253 0.027120488
000310 67 61 25 3d b9 6d 17 bd d5 7b d4 3c aa 95 9a bb
       0.040376093 -0.036969874 0.025937954 -0.0047175484
000320 b9 dd 85 3c 19 2b a1 bc 40 04 94 bc 49 b2 09 3d
       0.016341077 -0.01967387 -0.018068433 0.03361729
000330 ff 48 f1 bc 7b 8d 0e 3c 90 5d fc 3c 53 ea 0d 3d
       -0.029453753 0.008700724 0.030806333 0.034647297
000340 18 bc 51 bd 12 a4 07 3d 1f a7 bc bc 3e 9f 11 3d
       -0.05120477 0.033115454 -0.023028908 0.035552256
000350 54 8d 0f 3d ba f6 66 bc db 7d 16 bd 05 33 c7 3c
       0.03504689 -0.01409691 -0.03674112 0.02431632
000360 d4 dc e8 3c a3 9b e0 3c aa aa 68 bd 92 b6 a4 3b
       0.028425612 0.027417963 -0.056803383 0.005026647
000370 f9 ab 07 3d 03 9b 58 3d ae e3 0d bd f9 b4 69 3c
       0.03312299 0.052882206 -0.03464096 0.014264339
000380 ef 65 5e 3c e8 7d 73 3c 76 51 5a 3d cc f8 e2 bc
       0.013574108 0.014861561 0.053300343 -0.027706526
000390 ef d6 a2 3c 54 49 01 3d f6 7c 3e bd 32 cb e5 bc
       0.019877879 0.03156407 -0.04650589 -0.028050993
0003a0 95 1a ab bc 9e 3b 32 3d ba 4b bf 3a b2 20 ab 39
       -0.020886699 0.043513887 0.0014594712 0.00032640022
0003b0 4d 04 4b bd ce 10 44 bd 38 7e c0 bc 80 9e 0d bc
       -0.04956465 -0.04786759 -0.023497686 -0.008643746
0003c0 33 31 23 bd a3 ba 17 3d 6e 60 8c bc 94 05 2f 3d
       -0.039841842 0.037043225 -0.017135825 0.04272993
0003d0 99 82 4a 3d 40 51 59 bc 11 a6 5e bd a8 ff b8 3c
       0.049440954 -0.013264 -0.054357592 0.022582844
0003e0 9f b3 64 bb 75 d9 d0 3c 4a 2c be 3c 6e 38 45 3d
       -0.0034897102 0.025494317 0.023214478 0.04814952
0003f0 2f cd b0 3c 93 95 06 bd ee 7a 2c 3d 37 6c 0d bd
       0.021582214 -0.03285749 0.042109422 -0.03452703

bias f4 [12]
000000 7c a7 5e bc a6 1b 38 3d 48 a8 c2 3c 04 df 8b 3c
       -0.013589736 0.044948243 0.023761883 0.017074116
000010 90 f6 b8 bc c0 3f 02 3d 3a 46 0c 3d ca 21 f0 bc
       -0.022578508 0.031799078 0.03424666 -0.029312987
000020 ec 3b 2c bd e4 ed 92 3c e0 fd 84 ba 12 a3 5a 3d
       -0.042049333 0.0179357 -0.0010146461 0.053378172

weight f4 [12]
000000 33 00 80 3f 0a 00 80 3f 38 fd 7f 3f 3f 00 80 3f
       1.0000061 1.0000012 0.99995756 1.0000075
000010 44 fd 7f 3f ed f8 7f 3f 71 00 80 3f c9 f6 7f 3f
       0.9999583 0.99989206 1.0000135 0.9998594
000020 57 00 80 3f d4 ef 7f 3f 1e f3 7f 3f 65 00 80 3f
       1.0000104 0.99975324 0.9998034 1.000012

bias f4 [12]
000000 74 ba 13 39 32 3c 38 39 fa 60 a9 38 34 a8 c6 38
       0.00014088472 0.00017570032 8.076611e-05 9.472706e-05
000010 e5 31 46 39 29 04 89 37 6f ae 17 37 39 b0 73 b9
       0.00018901339 1.633361e-05 9.040915e-06 -0.00023239934
000020 10 58 9c 39 7d 10 77 b9 a6 ce 81 b9 b2 6d bb 38
       0.0002982025 -0.00023561898 -0.00024758762 8.937287e-05

running_mean f4 [12]
000000 f2 55 d2 3d 1e 78 91 3e ad a3 38 3e 40 e3 00 3f
       0.10270299 0.28411955 0.18031187 0.50346756
000010 84 59 18 be 82 88 d6 be 19 02 13 bc 20 0b 42 3d
       -0.14877898 -0.41901022 -0.008972668 0.04737389
000020 1f c1 14 3e 86 94 f0 3b e4 1d 0f be c3 ba c7 3e
       0.14526795 0.007341924 -0.13976246 0.39009675

running_var f4 [12]
000000 ea 80 e6 3d 29 c6 5f 3e 90 4d c4 3d 93 d4 14 3e
       0.11255057 0.21852936 0.095851064 0.14534216
000010 f9 94 87 3d 58 48 df 3d 3a 52 7d 3d 40 e5 42 3d
       0.06620211 0.1090247 0.061845995 0.04758191
000020 3b 9b a2 3d b4 81 6b 3e 56 5a 9a 3d 4c a2 27 3e
       0.07939764 0.22998697 0.075367615 0.16370505

weight f4 [24, 12, 5, 5]
000000 5b b3 59 3b 0a 7d c5 3c a5 a6 94 bc 7c 34 f8 bc
       0.0033218476 0.024107475 -0.018145869 -0.030298464
000010 77 5b 36 bd 2c b3 3e bc 72 2d 5c 3d 1c 26 1c 3d
       -0.04452082 -0.011639398 0.053754278 0.03812228
000020 bc 3f ee bc b0 06 1d bb 41 18 4f bc 0f 20 55 bd
       -0.029083125 -0.0023960285 -0.01264006 -0.052032527
000030 30 f2 17 3d a8 c7 af bb dd fb c5 3b ad d5 2f bc
       0.037096202 -0.005364377 0.0060419873 -0.010732097
000040 e8 7a e5 bb 19 1e 62 bd c1 38 c3 3c fc 37 cd ba
       -0.007003177 -0.055204485 0.023830773 -0.0015656943
000050 9a de d7 3b 4f 52 0f 3d 4b ce fe bc 3c 7b 48 bd
       0.0065878155 0.034990605 -0.031104228 -0.04894565
000060 ad ce 59 3d 32 c7 12 bd d8 65 8b bc 7e c1 1b 3d
       0.053175617 -0.0358345 -0.017016336 0.038026325
000070 97 1e 51 bd b9 a8 9e 3c 78 4e 23 bd 1a f5 31 bd
       -0.051054563 0.019367563 -0.039869756 -0.043446638
000080 93 73 c8 bc fa 74 0e 3d c8 24 45 3d 88 27 d7 bc
       -0.024469173 0.034779526 0.04813078 -0.026263967
000090 2e 19 58 3d 94 81 13 3d dd 2d e7 bc 87 c1 ba bc
       0.05275839 0.036012247 -0.028220112 -0.02279736
0000a0 fb a7 30 bd d3 ab 8f 3c dd 21 51 3d ac a3 91 3c
       -0.04312895 0.017537987 0.051057685 0.01777824
0000b0 59 ca 0a 3d 26 f8 3a bd d6 27 d7 bc 96 e4 e7 bc
       0.03388438 -0.04564681 -0.026264112 -0.02830724
0000c0 56 e2 ca bb 71 79 65 3d 39 e6 58 bd a9 ec 0a 3c
       -0.006191532 0.05602402 -0.052953932 0.008479276
0000d0 c1 76 06 bd 65 17 d7 bc ed da f2 bc 8e c0 2f bd
       -0.032828096 -0.026256273 -0.029645408 -0.042908244
0000e0 c8 28 0e bd d8 27 dd 3c 0a 60 a5 ba 25 88 d9 3c
       -0.03470686 0.026996538 -0.0012617123 0.026554177
0000f0 74 17 ec 3c c6 0c 00 3c cb 62 0e 3d 50 9f 1b 3d
       0.028819777 0.007815545 0.034762185 0.03799373
000100 9b c7 f1 bc 40 d8 d3 3b 05 6b 2a bd 2a 2a 5b 3c
       -0.029514125 0.006464988 -0.041605968 0.013376752
000110 5a 13 17 3d 69 d6 d0 bb bc ac c5 3c 2a 73 b5 3c
       0.03688369 -0.006373216 0.024130218 0.022149641
000120 bb e7 b6 bc 2c 6c 2d 3d d3 1e cf bc 81 d3 f6 3c
       -0.022327295 0.04233949 -0.025283253 0.03013015
000130 a0 0f 04 bd dd 0e 86 3c d2 be 24 bd 83 49 2a bc
       -0.032241464 0.01636451 -0.040221043 -0.010393503
000140 64 1b 57 bd 9c 35 0b bd f6 a9 0d bc f0 26 2b bd
       -0.052516356 -0.033986673 -0.008646479 -0.04178518
000150 ca a4 63 bd 36 0f 29 3a ae f5 c7 bc 10 aa 1c bd
       -0.055577077 0.0006449105 -0.024409141 -0.03824812
000160 17 27 af bc ae 82 8f bc 14 3a 30 3d 84 5e 38 ba
       -0.021380944 -0.017518368 0.043024138 -0.0007033127
000170 6a 8d 05 3d f9 5e 15 3d 35 e6 2b 3d 40 6f 40 bd
       0.032605566 0.036467526 0.04196759 -0.046981096
000180 86 be c7 3c ce 92 b6 3a 0e fa 07 bd 8a 6a d2 3c
       0.02438284 0.0013929249 -0.033197455 0.025685567
000190 3b 63 21 3d 27 9f d8 3c eb 2d ef 3c 1e eb 86 3b
       0.039401274 0.026443077 0.0291967 0.0041173836
0001a0 e0 37 14 bd 56 34 20 3d 53 40 ee 3c a7 f9 58 bd
       -0.0361861 0.03911241 0.029083407 -0.052972462
0001b0 76 1d 35 3d dc f8 0d 3d 16 cc 2c b9 5d 7c ff 3b
       0.04421755 0.03466116 -0.00016479226 0.0077968077
0001c0 0c 02 e4 3c 5f 5b 61 bb d6 1e b1 ba e1 6e 02 3d
       0.027833007 -0.0034386737 -0.0013513218 0.031844024
0001d0 eb 31 57 3b 35 79 41 bd 6e 0a 3d bd fb c2 11 bc
       0.003283615 -0.047234733 -0.046152525 -0.008896585
0001e0 26 0b ae 3a 1a fb 4c 3d 30 c2 47 3d 59 58 b8 bc
       0.0013278469 0.050044157 0.048769176 -0.022503065
0001f0 60 c7 37 3d 87 18 f3 ba 79 c7 5c 3c dd a4 2a bc
       0.044867873 -0.0018546738 0.013475292 -0.010415283
000200 78 5f 58 bc 23 cd 6a 3d b0 d2 16 bd d5 6c ef 3b
       -0.013206355 0.05732454 -0.03682202 0.007306675
000210 35 06 49 bd e2 ea 95 3c 90 b7 f6 3c bd 0c 15 bd
       -0.049078185 0.018300477 0.030116826 -0.0363891
000220 a6 ce c7 bb 51 79 8a 3c 97 ee 08 bd 48 9e 1c bd
       -0.0060976325 0.016903551 -0.033430662 -0.038236886
000230 fd 19 21 bc 56 d5 35 3d 0c 1d 5f 3d 61 14 05 bd
       -0.009832856 0.044392906 0.05447106 -0.032490138
000240 d7 7b 22 bd 90 6d 8c 3c 53 fd d9 3a 06 74 c8 3c
       -0.039668884 0.017142087 0.0016631283 0.024469387
000250 4f 33 0e 3d e8 8a a9 3c 9a 33 44 3d ef 15 11 bc
       0.0347169 0.020696118 0.047900774 -0.008855327
000260 e1 8e 20 3d 14 89 38 3d bc dc 78 bc ef 94 21 3d
       0.03919876 0.045052603 -0.015189346 0.039448675
000270 f1 6e 35 3d be 22 2f bd 9b 87 e4 3c 8a b9 37 3c
       0.044295255 -0.042757742 0.027896693 0.01121367
000280 9c c9 43 3d bf 11 be bc d5 8f e1 3c b4 f4 3c bd
       0.04779969 -0.023201821 0.027534405 -0.046131805
000290 6d 59 62 3c ed d6 c2 3c a0 5c 17 3d f7 b4 e7 bc
       0.013815266 0.023784125 0.03695357 -0.028284533
0002a0 49 7b 04 bd 79 cc f6 b9 f1 35 05 bd b8 6d cb bc
       -0.032344136 -0.0004707312 -0.032522146 -0.024832591
0002b0 c4 16 99 3c da 30 32 3d b3 c7 08 3d 78 97 96 bc
       0.018687613 0.04350362 0.033393573 -0.018382773
0002c0 46 bc d6 3c b9 41 40 bd 3e 8d db bc 47 c1 0a 3d
       0.026212823 -0.046937678 -0.026800748 0.03387573
0002d0 c7 3f 4a bd e3 8f aa 3c 4f 9d 1d bd 0c 33 09 3b
       -0.04937723 0.020820564 -0.0384801 0.0020934967
0002e0 73 ee 42 bd 3e 85 c7 3c 00 8d b3 3c 5e ba 31 3d
       -0.047590684 0.024355527 0.02191782 0.043390624
0002f0 73 df 09 bb 15 71 78 3c d0 fe 45 3d d7 0a f0 ba
       -0.0021037727 0.01516368 0.04833871 -0.0018313777
000300 eb 32 41 3c f6 3f c2 3c ed 48 9f bc 1f 87 b3 bc
       0.011791925 0.02371214 -0.019443953 -0.021915017
000310 19 59 5a bc b4 24 44 3d 9a 12 b4 bc 3f a6 52 3d
       -0.013326907 0.047886565 -0.021981526 0.051428076
000320 23 76 6b 3c ce e0 8f bc 4f 54 3f 3d c3 d5 44 bd
       0.014371428 -0.01756325 0.046711262 -0.04805542
000330 35 20 1b 3b c5 25 de 3c fb c5 1a 3d a9 f2 35 3c
       0.002367032 0.02711762 0.037786465 0.011105218
000340 ff ac ab bc 1b a4 60 3c 21 a5 6d 3c a7 ee 88 bc
       -0.020956514 0.013711001 0.014504702 -0.01671536
000350 ae da 75 3c 4c 03 30 bd 53 41 61 3d 67 d6 67 bd
       0.015005751 -0.042971894 0.05499394 -0.056600954
000360 9a 61 52 3b 91 67 d1 3b be 5f 20 bd 6a 04 26 bb
       0.0032101632 0.00639052 -0.039153807 -0.002533222
000370 87 cf 13 bd 30 d3 23 3d 7c 15 5d 3d 8f d2 10 3c
       -0.036086585 0.039996326 0.053975567 0.008839264
000380 bd 8a 47 3d 5b 4e 40 3d d0 e6 52 bd 3d 27 53 3d
       0.048716296 0.046949726 -0.05148965 0.051551092
000390 b1 87 60 3c fb 06 f3 3c b1 2c 46 ba 06 6a c1 bb
       0.013704226 0.029666414 -0.000755976 -0.0059025316
0003a0 10 97 63 bc 27 55 48 bd 89 07 e3 3c d0 59 dc bc
       -0.013890997 -0.048909333 0.027713554 -0.026898295
0003b0 5e a5 82 bc 94 f3 d1 bc 95 5d 97 3c ea 01 48 bb
       -0.015947994 -0.025628842 0.01847724 -0.003051872
0003c0 c8 01 58 bd 13 e1 41 bd 64 c7 45 3b 30 de 4f 3c
       -0.052736074 -0.047333788 0.003017866 0.012687251
0003d0 62 9e 93 bc 26 44 36 bc b8 f2 97 3c ce 8b 3d 3d
       -0.018019859 -0.011124646 0.018548355 0.046275906
0003e0 9f e6 be 3c 21 40 00 bd cc 0b 1c bd 3d 0a 18 bd
       0.023303328 -0.031311158 -0.038097188 -0.03711914
0003f0 6e 33 cf 3c b7 b7 69 bc 44 ae 97 3c 53 af c1 bc
       0.025293078 -0.014264992 0.018515714 -0.023643171

bias f4 [24]
000000 38 05 95 3b 10 2f fc 3b b4 e3 62 bd 14 c6 9b 3c
       0.0045477413 0.00769604 -0.055392936 0.01901535
000010 0d 23 5a bd 20 b3 dd ba 78 04 62 3d f0 9c 6a 3d
       -0.053256083 -0.0016914345 0.055180043 0.057278574
000020 98 ab bc bc ae aa 30 bd b6 7b 1c 3d 88 3c 1b bd
       -0.023031041 -0.043131523 0.038203917 -0.037899524
000030 00 e6 d1 3a 2c 53 5a bc 88 4e 88 bb e7 ec 2e bd
       0.001601398 -0.013325494 -0.0041597523 -0.042706396
000040 16 11 88 bc a8 cd 37 3c 90 6e 54 3c 2a ef 1f 3d
       -0.01660971 0.011218466 0.012965813 0.039046444
000050 28 d5 3e 3c 80 97 77 bb 4a 37 22 bd 4c 90 d7 3c
       0.0116475 -0.003777951 -0.03960351 0.026313923

weight f4 [24]
000000 62 00 80 3f 3f 00 80 3f 04 00 80 3f eb f9 7f 3f
       1.0000117 1.0000075 1.0000005 0.9999072
000010 58 f6 7f 3f 62 f4 7f 3f 95 f7 7f 3f 29 00 80 3f
       0.99985266 0.99982274 0.99987155 1.0000049
000020 27 fd 7f 3f cf f2 7f 3f 17 fd 7f 3f 27 e9 7f 3f
       0.99995655 0.9997987 0.9999556 0.9996514
000030 ff 00 80 3f 18 ff 7f 3f 2c f9 7f 3f b6 00 80 3f
       1.0000304 0.9999862 0.9998958 1.0000217
000040 66 fe 7f 3f 22 00 80 3f 37 00 80 3f 59 00 80 3f
       0.99997556 1.000004 1.0000066 1.0000106
000050 a9 f3 7f 3f 5c 00 80 3f 39 fb 7f 3f 68 00 80 3f
       0.9998117 1.000011 0.9999271 1.0000124

bias f4 [24]
000000 a3 c6 b2 38 5e f2 75 37 49 9b 93 39 d7 48 dc b8
       8.5247004e-05 1.46595685e-05 0.0002815372 -0.00010503985
000010 02 e1 57 b9 51 0a f9 b8 53 63 aa b8 5d 36 77 38
       -0.0002058782 -0.00011875167 -8.124732e-05 5.894002e-05
000020 99 01 99 38 ff 84 ca b8 24 6b 04 b7 60 88 8b b9
       7.295906e-05 -9.656883e-05 -7.892759e-06 -0.00026613753
000030 0e 27 6f 39 4b 42 a9 37 8a 94 3a b7 d8 0b 83 39
       0.00022807365 2.017724e-05 -1.1121048e-05 0.0002499509
000040 8f fc b4 b8 a9 af b3 38 84 af a4 36 b3 94 99 39
       -8.6301116e-05 8.5681044e-05 4.9080136e-06 0.00029293224
000050 b0 d4 eb b8 af 35 36 39 22 35 32 b8 66 92 5a 39
       -0.00011245289 0.00017376871 -4.248799e-05 0.00020844638

running_mean f4 [24]
000000 91 6e 61 3e bd 69 3a be e9 f1 7b be 03 bf 14 3f
       0.22014834 -0.18204398 -0.24604 0.5810396
000010 1d 46 06 be e9 ba f1 3d c1 d6 7a bc 27 69 10 3e
       -0.13112684 0.118032284 -0.01530999 0.14102612
000020 58 75 0e 3e 43 e9 e3 be 9e aa a5 3e ac 9d e4 bd
       0.1391195 -0.44513902 0.32356733 -0.11162886
000030 91 8e 27 bf 11 cc 89 3d 74 7c c5 bc 6f b1 21 be
       -0.65451914 0.06728376 -0.024107195 -0.15790342
000040 ec 82 8f 3c 23 ea 7c 3d 85 33 76 be 28 22 5e 3e
       0.017518483 0.061746728 -0.2404309 0.21692717
000050 15 02 84 3e 17 b0 77 be f5 36 14 bf 4c c6 11 3f
       0.25782838 -0.24188267 -0.5789636 0.569432

running_var f4 [24]
000000 fa 81 f1 3d d8 86 4a 3e d1 37 67 3e 02 f0 89 3e
       0.11792369 0.19778001 0.22579886 0.26940924
000010 c2 73 44 3e 4b 1d f5 3d e8 fa 13 3e 9f 82 0a 3e
       0.19184783 0.11968478 0.14451182 0.1352639
000020 d8 40 3c 3e 33 bd 39 3e b8 c1 89 3e f9 5b 4b 3e
       0.18384111 0.1813858 0.26905608 0.19859304
000030 86 bc cf 3e 1c 07 0f 3e a0 5b 8a 3e 8b e7 71 3e
       0.4057352 0.13967556 0.2702303 0.23623483
000040 98 67 5d 3e ab b1 10 3e 29 65 1d 3e c2 a8 44 3e
       0.21621549 0.14130275 0.15370621 0.19205001
000050 4d 50 17 3e 5c 21 62 3e a8 f2 2c 3e 21 5a 87 3e
       0.14776726 0.22083038 0.16889441 0.2643595

weight f4 [24, 24, 5, 5]
000000 44 8e 19 3c 8c 7c c1 bb 35 c5 5d 3c 09 9a 1b 3d
       0.009372298 -0.0059047397 0.013535787 0.037988696
000010 d3 a9 22 bd 4e c8 21 bd 39 08 f8 bc 91 40 ba b8
       -0.03971274 -0.039497666 -0.030277358 -8.8811976e-05
000020 6b 77 6e bc ed ab 05 bc 86 64 6b 3b 06 b2 c0 bc
       -0.014554839 -0.008158666 0.003591807 -0.023522388
000030 2d f2 fd 3c 6c 88 04 bd 4e 40 6a bc a4 00 0c bd
       0.030999267 -0.032356665 -0.014297558 -0.0341803
000040 a8 c4 c7 bc d5 16 85 bc 42 13 25 bc 7f 86 1c bd
       -0.024385765 -0.016246239 -0.010075392 -0.038214203
000050 a4 46 58 bc f0 a5 a7 ba 95 19 d0 bc 12 c0 06 3a
       -0.013200436 -0.0012790542 -0.025402823 0.0005140315
000060 da 2c 20 bd 38 4d 8d bc d5 72 5e bb 9b 4e d3 bb
       -0.039105274 -0.017248735 -0.0033942957 -0.0064485795
000070 aa 38 fa 3c e4 ff 57 bc 71 13 1f bd eb ab 06 bd
       0.030544598 -0.013183568 -0.0388369 -0.032878798
000080 93 35 d7 3c 6a b2 a9 bc ec 80 19 bd 0a 82 35 3c
       0.026270663 -0.020714957 -0.037476465 0.011078367
000090 c9 4c ef 3c 7a 22 86 bc b5 2a 00 3c f9 d8 0f bd
       0.029211419 -0.016373862 0.007822682 -0.03511903
0000a0 da 23 bd bb de 4f f4 3c c4 db 9f bb 33 76 62 bb
       -0.005772096 0.02982324 -0.004878493 -0.0034555316
0000b0 96 06 a4 3b 98 22 21 bd ce b9 5a bc 04 55 dd bc
       0.005005668 -0.03933963 -0.013349963 -0.027018078
0000c0 8c 67 f7 bb 31 2d a5 3c ed ec c1 3c 1a b7 94 3c
       -0.0075501855 0.02016315 0.023672545 0.018153716
0000d0 8c e9 b9 bc 83 73 f6 3c 9e fb fe 3c 45 5c c3 3c
       -0.022694372 0.030084377 0.03112584 0.023847708
0000e0 26 e3 a9 bc 50 a9 8f 3c be 91 a0 bc 41 2f ed 3c
       -0.020738196 0.01753679 -0.019600745 0.028953196
0000f0 d9 bd 0e bd 8b ce ec 3a f2 10 21 bd 3d b0 32 bc
       -0.03484902 0.0018066926 -0.0393228 -0.010906276
000100 1d fe dd 3c a3 85 5e 3b 99 95 0d bb 30 71 24 3d
       0.02709871 0.0033954165 -0.002160406 0.040147007
000110 ed e5 99 bc 8b 4b 95 3c c5 f1 1d bd 51 0f ee bc
       -0.018786395 0.018224498 -0.038560648 -0.029060038
000120 05 23 f9 3c 70 48 aa 3c 32 af ca bc 83 7d f9 bc
       0.030412206 0.020786494 -0.024741743 -0.030455356
000130 3c dc b9 3c b7 e7 cb bc e1 08 70 3b ab 1e 1a 3d
       0.022688024 -0.024890764 0.0036626386 0.037626904
000140 d4 7d 17 bb 61 47 03 bc 29 ad c5 3c 03 4d c2 3c
       -0.002311577 -0.0080126235 0.02413042 0.023718363
000150 cf 94 73 bb 61 62 d9 3c 95 55 8d 3c 00 d3 a9 bc
       -0.0037167554 0.026536169 0.017252723 -0.020730495
000160 ad ca 47 3c b4 7d 4a 3b d6 cd 38 3b 45 77 b0 bc
       0.012194318 0.0030897679 0.002819886 -0.021541247
000170 3b cc 8b bc f6 d0 95 3b b6 eb 0e bd 79 c4 0e bc
       -0.017065158 0.004572029 -0.03489276 -0.008713835
000180 51 47 02 3d fe 99 af 3c 0c d5 1f bd 8d a4 5a 3c
       0.031806294 0.021435734 -0.039021537 0.013344896
000190 be 8c 88 3c 00 10 19 bd fa c3 c0 bb 66 78 d5 bc
       0.016668674 -0.037368774 -0.005882737 -0.026058387
0001a0 44 cb 15 bd c9 e8 7c bc bd 1c 92 bb 73 7f 0f bc
       -0.036570802 -0.01543636 -0.0044589923 -0.008758414
0001b0 be 95 0b bd 53 d1 f4 3c b0 e7 09 3d c4 e6 bd 3c
       -0.034078352 0.02988497 0.03366822 0.023181327
0001c0 6f f4 97 bc d4 35 d1 3c 5b 62 c4 3c 6e 06 1c bd
       -0.018549172 0.025538363 0.02397268 -0.03809207
0001d0 7a 29 eb bb 8a a5 b0 3c 94 75 b0 bc ad 4f ee 3c
       -0.0071765753 0.02156331 -0.02154044 0.029090727
0001e0 72 b7 64 3c 22 4b 18 3d 62 68 9c 3b 5f 6d 02 3d
       0.013959752 0.037181027 0.0047731856 0.031842586
0001f0 af 3b 44 3c e6 a8 20 bd 99 df 96 3a a5 41 9a bc
       0.01197712 -0.039223574 0.0011510729 -0.01883013
000200 d5 18 19 bd a2 71 11 bd 86 b0 57 3c 81 b8 57 3c
       -0.037377197 -0.03550876 0.013164645 0.013166548
000210 9a 01 c3 bc 29 67 ca 3c d4 dc 30 3c 33 1d 22 bb
       -0.023804475 0.024707394 0.010794837 -0.0024736642
000220 a1 fa 11 3d d5 97 05 3d ac 02 f5 3c a0 94 3a 3b
       0.03563941 0.0326155 0.0299085 0.0028469935
000230 00 e6 fe bc d3 02 21 bd a5 13 01 bd 04 da d7 3c
       -0.031115532 -0.039309334 -0.031512875 0.026349075
000240 0f d7 26 3d f4 25 94 3c e8 09 25 bd 98 22 01 3d
       0.04073244 0.018084504 -0.04029265 0.03152713
000250 11 30 1c 3d 98 bf 5a bc 98 7c d5 bc 7d c4 1d bd
       0.038131777 -0.013351344 -0.026060387 -0.038517464
000260 e7 13 a4 bc 7a bd 26 3d 9f c2 18 bd c8 01 1c bd
       -0.020029021 0.040708043 -0.03729498 -0.038087636
000270 6e bd 0c bd 27 8d 8b bc 21 46 74 bc 57 82 9e 3c
       -0.03436034 -0.01703508 -0.014909298 0.01934926
000280 a3 68 b8 3b f7 2d a2 3c 01 9d f4 3c 7d e7 a4 bc
       0.005627708 0.019797308 0.029860022 -0.020129913
000290 f6 3e 99 3b ed bc 25 bd f7 39 09 3d 14 0f 45 bc
       0.004676695 -0.040463377 0.033502545 -0.012027521
0002a0 6c 82 14 3d 5a 4e 6e 39 a8 c8 db bc 18 a0 1a bc
       0.036257192 0.00022726637 -0.026829079 -0.009437583
0002b0 03 f7 06 3d 4a 75 e8 3b ef 1d a0 3b 1d d6 92 bb
       0.032950412 0.00709406 0.004886381 -0.0044810907
0002c0 b1 93 62 3c 00 a7 02 bc 10 fa 11 bd 2b a2 6d bc
       0.013829158 -0.007974386 -0.03563887 -0.014503996
0002d0 22 c0 84 3c 3b a8 24 bb de 1b 16 bd 28 02 9e bc
       0.016204897 -0.0025124687 -0.03664767 -0.019288138
0002e0 a4 da bd 3c 83 65 18 bc 9b 67 e8 3c 09 57 05 bd
       0.023175545 -0.009301546 0.028369715 -0.032553706
0002f0 7c 56 b7 bc 86 6c 71 3a 22 7b 1a 3c b8 72 c7 bc
       -0.022380106 0.00092095917 0.009428771 -0.024346694
000300 5f f7 a8 bc 11 e0 07 3c 45 48 e7 3c 77 03 e5 bb
       -0.020625768 0.008293168 0.028232703 -0.0069889384
000310 bf d4 fa 3c e7 f1 17 bd d0 d3 be 3b a9 25 98 bc
       0.030619023 -0.03709593 0.00582359 -0.018572645
000320 e4 76 1b bc f0 43 7c ba 09 a6 04 3d 41 86 81 bb
       -0.009488795 -0.00096231606 0.032384906 -0.003952772
000330 86 7c 07 3d fd e7 13 bc 2c 83 09 3d 9a 9d 28 3c
       0.03307774 -0.009027478 0.03357236 0.010291481
000340 c4 88 01 bd 66 c4 5a 3c c5 fd 70 bc 9a 6d e5 3b
       -0.03162457 0.013352489 -0.014708941 0.007001591
000350 e2 b8 ec bb 0e 2b 04 3d 8e c4 6e bc 80 c1 d1 3c
       -0.007224188 0.032267623 -0.0145732295 0.025604963
000360 1d d7 ff 3c 68 95 1e 3c df 6d 17 bd 58 59 17 3d
       0.031230504 0.009679176 -0.036970016 0.03695044
000370 db db df 3c 79 97 b9 bc e9 8f 19 bd 2a 68 b9 3c
       0.027326515 -0.022655236 -0.03749076 0.022632677
000380 ae 7c e9 bc 40 db 25 3d 8e 15 a1 3c 46 57 5a bc
       -0.028501835 0.040492296 0.019663598 -0.013326472
000390 f7 92 8f bc 8d 14 12 3d 64 55 c6 bc fa 8c f7 3b
       -0.017526133 0.03566413 -0.02421064 0.0075546475
0003a0 16 e7 b6 bc 5c ee 87 bc 85 54 94 3c 7a f8 e8 3b
       -0.022326987 -0.01659315 0.018106708 0.007109699
0003b0 7d ad 26 3d b2 fc c3 bc 1c a0 9e 3c 46 34 1f 3d
       0.040692795 -0.023924205 0.019363455 0.03886821
0003c0 05 51 dd bc 44 cd 24 3d ef e6 f4 bc da 6f b0 bc
       -0.027016172 0.04023482 -0.029895274 -0.02153771
0003d0 50 10 b0 3c 8a 45 17 3c e1 44 2c 3c c3 ab 1e bd
       0.021492153 0.009232888 0.010514469 -0.038738023
0003e0 02 22 16 bd 31 f6 b7 3c 14 fd 02 3d 44 a7 97 3c
       -0.036653526 0.02245626 0.031979635 0.018512376
0003f0 e4 0c ac bc 95 43 01 bd ef fa eb 3c c3 22 1a bd
       -0.02100224 -0.031558592 0.028806178 -0.037630808

bias f4 [24]
000000 30 c3 15 3d fc 04 04 3c 00 f5 7c 3b 64 a7 14 bd
       0.0365631 0.008057829 0.003859818 -0.03629245
000010 f8 fb bd bc 3e d1 12 bd 96 89 8c bc 2e 99 8a 3c
       -0.023191437 -0.03584408 -0.01715545 0.016918745
000020 3f b6 93 bc d0 5e 64 bc 08 7a 58 bc 88 37 87 bb
       -0.018031238 -0.013938621 -0.013212688 -0.004126493
000030 7c fe 7a 3c 0d 33 d0 bc 52 44 3a bc f0 48 9b 3b
       0.015319463 -0.025414968 -0.011368828 0.0047389194
000040 90 dc 47 bb c6 8d 0b 3d 64 b9 10 3d 24 d8 eb bc
       -0.0030496456 0.034070753 0.035333052 -0.028789587
000050 32 d8 7f bc 9c c5 ca 3c 34 33 65 bc 00 66 47 b9
       -0.01561551 0.02475243 -0.013989259 -0.00019016117

weight f4 [24]
000000 49 00 80 3f 6e 00 80 3f c9 02 80 3f de 00 80 3f
       1.0000087 1.0000131 1.000085 1.0000265
000010 6e 00 80 3f 13 00 80 3f b0 01 80 3f 96 01 80 3f
       1.0000131 1.0000023 1.0000515 1.0000484
000020 b3 00 80 3f 49 00 80 3f ae 00 80 3f 83 fd 7f 3f
       1.0000213 1.0000087 1.0000207 0.99996203
000030 4b 00 80 3f 27 fe 7f 3f 72 00 80 3f 08 00 80 3f
       1.000009 0.9999718 1.0000136 1.000001
000040 16 00 80 3f 53 00 80 3f 15 00 80 3f 74 01 80 3f
       1.0000026 1.0000099 1.0000025 1.0000443
000050 1f 00 80 3f 50 00 80 3f 85 00 80 3f 3f 00 80 3f
       1.0000037 1.0000095 1.0000159 1.0000075

bias f4 [24]
000000 87 e9 60 39 32 fc 5f 39 42 80 8d 39 50 16 63 39
       0.000214493 0.00021360887 0.00026989175 0.00021656719
000010 cb d6 6a 39 cf 2d 62 39 78 d3 c0 39 77 b1 a5 39
       0.00022395996 0.00021570105 0.0003677865 0.00031603474
000020 b5 6f 59 39 5b 36 55 39 49 cf a3 39 9b fc 2c 37
       0.00020736347 0.00020333512 0.00031244222 1.0310813e-05
000030 77 96 57 39 da 44 d6 38 91 e9 5e 39 7e 2a fc b8
       0.0002056005 0.0001021714 0.0002125858 -0.00012024211
000040 40 18 15 b8 8a 16 33 39 39 b5 66 39 9f 11 95 39
       -3.5546953e-05 0.00017079167 0.0002200202 0.00028432623
000050 54 46 2d 38 59 6c fa 38 1a ba 56 39 1e 1b 5d 39
       4.1311912e-05 0.0001194111 0.00020477959 0.00021086304

running_mean f4 [24]
000000 46 69 83 be ac 79 84 3b 1f db 27 bd 77 49 93 3e
       -0.25666255 0.0040428247 -0.040980455 0.28766987
000010 55 49 3f bd 33 84 8b 3e 52 99 f2 be aa 92 08 be
       -0.046700794 0.27249297 -0.473826 -0.13337198
000020 4b b0 cf bc 10 2f e8 bd 08 30 cb 3d 5f 8b 14 3e
       -0.025352618 -0.113371015 0.099212706 0.14506291
000030 8d c1 71 bd 2e de 3c bd ed 36 5f 3d 20 ea 8e 3e
       -0.059022475 -0.046110325 0.05449574 0.27912998
000040 3a 43 d2 be 3c b0 f1 3d f9 7b 87 3e b1 10 84 3e
       -0.41066915 0.11801192 0.2646177 0.25793985
000050 80 bf 37 3e 7f 82 27 3e 61 64 ae bc 54 c0 49 be
       0.17944145 0.16358374 -0.021288099 -0.19702274

running_var f4 [24]
000000 95 a5 00 3e e2 48 01 3e 3e 9b 45 3e 6b 8b a6 3d
       0.12563165 0.12625459 0.19297501 0.081320606
000010 f2 f2 d9 3d 7f 49 e8 3d 65 2e 7e 3e c2 bb be 3d
       0.10642041 0.11342143 0.24822386 0.09313156
000020 93 63 d6 3d 70 45 d2 3d 83 d1 e9 3d d0 c6 a0 3d
       0.10468211 0.102671504 0.11416914 0.078504205
000030 02 33 d5 3d 23 c1 19 3e be a9 1b 3e 49 a8 20 3e
       0.104101196 0.15015082 0.1520147 0.15689196
000040 aa 29 e4 3d 1b 06 af 3d 67 b1 f4 3d da d9 0a 3e
       0.11140759 0.085460864 0.11947899 0.13559666
000050 1e 7e 09 3e b7 8b fb 3d 87 44 c8 3d c6 4a 01 3e
       0.13427016 0.12282508 0.097786956 0.1262618

weight f4 [10, 16224]
000000 5b 52 1b 3b c1 35 19 bb 9c 92 21 b9 fb 47 dc 3b
       0.002370021 -0.0023377987 -0.00015408773 0.006722448
000010 a7 33 bb b8 dd 4a 24 3a 91 e8 bc 3b 84 84 ea 3b
       -8.926476e-05 0.0006267259 0.0057650288 0.0071569104
000020 ad da 54 39 66 23 6d bb d0 f3 a1 3b 78 35 a7 3a
       0.00020299359 -0.003618443 0.004942395 0.0012757024
000030 89 c4 f9 3b bb 15 4c ba 48 b6 d5 3b 6f 0c 71 3b
       0.007622306 -0.00077852205 0.0065219738 0.0036781093
000040 ac 65 f1 3b 82 85 ac bb 89 50 e2 3b 43 1a 02 bc
       0.0073668566 -0.005264939 0.006906573 -0.007940832
000050 47 35 a5 3a ca e9 58 ba f9 c9 d7 bb 47 b7 fe ba
       0.0012604379 -0.00082745834 -0.0065853563 -0.0019433283
000060 20 39 8d 39 6d 04 d4 bb cb f7 15 3b d0 df 61 3b
       0.00026936177 -0.006470254 0.0022883292 0.0034465678
000070 1b 08 85 3b ab da dc 3b e4 7a fa ba cc be 97 3a
       0.004059804 0.0067399344 -0.0019110111 0.0011577248
000080 a0 78 c3 3b e3 2d 0a 39 a4 6a 91 bb f9 c3 93 ba
       0.0059653074 0.000131778 -0.0044377614 -0.0011273614
000090 3d 1b a1 3b 49 3b 17 3b b1 f7 d6 bb 84 ab 01 bb
       0.004916577 0.0023076108 -0.006560289 -0.001978607
0000a0 b2 3b 53 3b a9 ba a3 bb e5 7d 64 bb 87 12 05 3b
       0.0032231626 -0.004996617 -0.0034865078 0.0020305233
0000b0 c5 36 40 ba 9d 35 23 ba 7d 07 e0 bb 1e cd a3 3b
       -0.000733238 -0.00062259455 -0.00683683 0.004998817
0000c0 46 fb 49 3b 07 ee 98 bb 1a af 8f 3b db 20 fe 3b
       0.0030819937 -0.004667047 0.0043848874 0.0077553815
0000d0 1b 60 d4 3b a7 1b e4 3b d6 4c ce bb 91 43 07 3b
       0.006481183 0.006961304 -0.0062957807 0.0020639638
0000e0 77 7c 8c bb 40 99 8c 3b b3 50 3f 3b 44 ff 85 3b
       -0.0042872983 0.0042907298 0.0029192388 0.004089268
0000f0 44 e4 b5 3a a3 26 e7 b9 5d 0a 91 3b 48 d0 52 39
       0.0013877233 -0.0004408854 0.004426284 0.00020104751
000100 71 4b 93 bb 7f cb c5 bb d9 55 1d 3a 48 87 46 bb
       -0.0044950773 -0.0060362215 0.0006001867 -0.0030293036
000110 9b 51 44 3b 9f f4 3c 3b 80 8b c1 ba 89 7b b1 3b
       0.0029955867 0.002883233 -0.0014766306 0.005416338
000120 0b c5 0c bb 8b d8 d2 3b 1a 11 9f 3b 80 92 be 3b
       -0.0021479751 0.0064345053 0.0048543336 0.005815804
000130 a4 ab 88 3a bf df c6 3b b5 a2 45 ba 73 a0 84 bb
       0.001042713 0.006069153 -0.0007539199 -0.0040474473
000140 dd e3 ec 3b 25 b2 eb 3a 51 20 80 3b 6b 92 ef 3b
       0.007229312 0.0017982168 0.0039101024 0.0073111556
000150 c1 a1 00 bb ea 0b 4a 3a 6f 24 ee bb 1c 97 8f bb
       -0.0019627663 0.0007707464 -0.007267527 -0.0043820273
000160 f5 ae a0 bb 8c 72 de 39 ab 55 f0 3b ed ec 84 bb
       -0.004903669 0.00042428484 0.007334431 -0.004056564
000170 79 95 0b 3b 29 a2 57 bb f7 6f 84 ba bd b9 24 3b
       0.002129881 -0.0032903051 -0.0010104169 0.0025135123
000180 cf ef 79 bb 9b 64 e4 3b db 24 9c bb 78 20 3f ba
       -0.0038137322 0.006970001 -0.0047651357 -0.000729091
000190 a5 ed ab 3b 79 64 3e 3b d4 13 e2 39 47 7b 7b ba
       0.0052468353 0.0029051586 0.00043120852 -0.000959326
0001a0 17 dd ad bb 50 c9 c1 39 50 3a b5 3b e3 b6 d7 ba
       -0.005305897 0.00036961818 0.005530633 -0.0016457703
0001b0 6a b8 d9 3b 1b 3f df bb 24 3e 9d 3b 64 87 cb 3b
       0.0066442983 -0.0068129427 0.0047986675 0.006211208
0001c0 a5 0e e2 bb 87 fd fb 3b 0b c6 f1 ba ba 83 8d bb
       -0.0068987184 0.007690135 -0.0018445862 -0.0043186815
0001d0 c2 62 83 3a 3b 47 fc bb 33 bb 98 3b 72 6d a7 bb
       0.0010023939 -0.007698921 0.0046609878 -0.0051094824
0001e0 8c cf ad bb 47 71 81 bb 84 41 95 3b b4 23 bc 3a
       -0.0053042825 -0.0039502713 0.004554929 0.0014353902
0001f0 9b eb 8a 3b dd d8 ac 3b 9a 16 c2 3b 9e 8f 82 3a
       0.004239512 0.0052748756 0.0059231045 0.0009961014
000200 cc 65 14 3b 14 0e bb bb d5 8f f6 bb 15 57 7a bb
       0.0022643683 -0.0057084654 -0.0075244703 -0.0038198878
000210 0c e1 ed 3b ab 9d 79 3a 2d 1b 5d bb ab 01 e9 3b
       0.0072594937 0.00095220905 -0.0033738122 0.0071107945
000220 43 51 60 3b 73 7e 01 bb ff 11 3d bb 52 99 58 bb
       0.0034228123 -0.0019759207 -0.0028849838 -0.003305037
000230 c6 1e 71 bb 26 65 73 bb 8a 65 9a 3b 4f ee 3c 3b
       -0.0036792024 -0.0037139147 0.0047118114 0.0028828566
000240 5f 6e 4b 3a b3 e9 f8 3b 2b 9a dc 39 98 fc 83 bb
       0.0007760282 0.0075962185 0.00042076534 -0.0040279143
000250 15 bb 7c bb 7b cf 09 bb 12 a7 df bb 3c 41 db 3b
       -0.0038563658 -0.002102821 -0.0068253363 0.006691126
000260 a2 68 bd b9 90 6c 96 bb a5 9c f5 bb f3 c3 84 3b
       -0.00036126847 -0.0045905784 -0.00749548 0.0040516793
000270 92 b7 2c bb cf 1d 03 bc d9 93 f3 3b d4 46 cd 3b
       -0.0026354534 -0.008002712 0.0074333963 0.006264547
000280 55 2f 31 bb 9f 10 61 3b 59 6a a9 bb 14 2f c9 3b
       -0.0027036269 0.0034342182 -0.0051701483 0.0061396454
000290 04 a3 d0 bb 51 17 f7 3b 75 3e b0 3b 19 c0 9c bb
       -0.006367089 0.0075406213 0.005378539 -0.004783642
0002a0 f6 20 4e 3b 7b 94 e5 3b 4d e2 ec bb 6d cb 8b 3b
       0.0031452752 0.0070062256 -0.0072291256 0.0042661936
0002b0 df 1c 21 3b 1f c0 8a 3b dc 32 1f bb 4d 7a 70 38
       0.002458386 0.0042343284 -0.002429179 5.733436e-05
0002c0 ac ea ed 3b d4 ad 15 ba a5 b6 25 bb 90 4f fa 3b
       0.007260641 -0.00057098013 -0.0025285867 0.007638879
0002d0 6a f5 0e 3b 8c 5d 87 bb 0f 49 b0 38 68 31 99 3a
       0.0021813759 -0.0041310247 8.405942e-05 0.0011687698
0002e0 55 96 88 3b 85 7d ba 3a 57 c4 5c 38 14 b4 06 bb
       0.0041683116 0.0014228082 5.2634943e-05 -0.0020554112
0002f0 87 82 d1 ba 45 bd 45 3a 1b 0e 5c bb 70 a8 20 3b
       -0.0015984335 0.0007543157 -0.0033577743 0.002451446
000300 02 17 d6 bb 20 8b 15 b9 39 9c b9 bb ef f0 2b 3b
       -0.0065335045 -0.00014261575 -0.005664375 0.0026236137
000310 11 c9 ea 3b c5 11 bd bb 98 b1 b3 b9 57 c9 1a 3b
       0.0071650823 -0.0057699406 -0.00034273858 0.0023618543
000320 89 f9 52 3b 9a 2f 97 ba 4c e5 57 bb d9 1a a6 bb
       0.0032192192 -0.0011534572 -0.0032943068 -0.0050691185
000330 4a ee 90 bb 95 bb 5c 3b 48 2e 28 bb 4c 01 f9 3b
       -0.0044229375 0.0033681144 -0.0025662351 0.0075990316
000340 9a 30 a3 3b bb 6e 8b ba f8 fe e1 3a a3 53 c7 ba
       0.004980159 -0.0010637859 0.0017242124 -0.0015207421
000350 84 03 ed 3b 29 d6 ae 3b c6 39 97 3a 16 64 55 bb
       0.007233085 0.0053355885 0.0011537604 -0.0032560877
000360 e1 d2 89 bb b1 f2 b0 3a fc a4 ce 3b 57 87 73 39
       -0.004206047 0.0013500062 0.0063062888 0.00023224704
000370 59 b6 82 bb ab c7 97 bb d5 ba 6a 3b a6 ea 96 ba
       -0.0039890227 -0.0046319566 0.0035816927 -0.0011514022
000380 ea 0a 2b 3b 04 94 e2 bb 9b ac 76 3b 0f 06 2c bb
       0.0026099035 -0.0069146175 0.0037639502 -0.0026248728
000390 bd 3b f2 bb be 23 9b 3b ad f5 f8 3b 49 38 1b bb
       -0.0073923753 0.0047344854 0.007597646 -0.0023684672
0003a0 5d 87 c4 bb 07 1a 30 3b 05 8a 4b bb 43 d9 8a bb
       -0.005997582 0.0026870982 -0.0031057608 -0.0042373254
0003b0 97 98 f3 39 18 25 8a bb 7e 79 88 3b 25 07 10 3b
       0.0004646226 -0.0042158477 0.0041648736 0.0021976915
0003c0 6f 74 75 3b 49 e8 28 3b 7c a0 ed 3b af e9 98 3b
       0.0037453433 0.0025773218 0.0072517972 0.004666529
0003d0 f9 b1 cf 3a 98 0d 65 bb f2 6f 64 bb 84 23 2a bb
       0.0015845887 -0.003495073 -0.0034856764 -0.002596111
0003e0 76 b0 b2 3b 21 53 c7 bb 52 ab 69 bb 1f 48 d0 bb
       0.0054531647 -0.006082908 -0.0035655093 -0.0063562538
0003f0 ba eb b8 bb bf 76 32 3a da 73 f4 3b 18 d7 81 3b
       -0.005643335 0.00068078557 0.0074600996 0.0039624088

bias f4 [10]
000000 2f 36 9e 3b a2 5a 3f bb 4b 9e b8 bb b3 2b fa 3a
       0.0048282365 -0.0029198308 -0.0056341044 0.001908651
000010 7a 5d 9e 3a e6 b5 12 3b e6 aa e0 ba bd e4 87 3b
       0.0012082302 0.0022386252 -0.0017140775 0.004147141
000020 89 02 87 3b 61 9a 89 3b
       0.0041201753 0.0041993116
