models/AdvaDemo_CleverHans_4.0.0/LOGS/models/nnet_epoch_2.pt (torch, 766091 bytes, 26 tensors)

weight f4 [12, 3, 5, 5]
00000000: b297 2b3b f75c 643c 5553 90bd ac04 bbbd
00000010: 2ee5 c4bd d978 e63a e06d 97bc f92f 37bd
00000020: 2be6 bc3d 46cf d33d 1525 0c3d e27c 423d
00000030: 3788 b3bd 9f06 b7bd df66 e3bd 108f 8ebd
00000040: 3b93 2a3d 4ed3 e4bd fa23 dc3c b953 b53d
00000050: 31c7 183d cd32 d3bd aa8a 73bd 5515 b33d
00000060: 5c6b 683d d3e3 853d c5c2 a53c d139 52bd
00000070: 827f c6bd dcc0 833d 83f2 563d ff18 8bbb
00000080: 7077 86bb 11b8 dfbd 3ca1 cc3d edbb e53d
00000090: 6028 b0bd 2007 033c 89e1 b9bb 615a db3d
000000a0: ebd9 5d3d cb3e 96bc b954 16bc 15eb 38bd
000000b0: 1149 1ebd 1e30 9ebd 8163 e2bd 2f7d 4fbd
000000c0: bb77 6abd d6ad ae3d 9ce0 3abc 78f9 a0bd
000000d0: 6ba3 81bd fc35 a13d 4254 e63d 9fc3 9b3d
000000e0: 249e ac3d 02b5 983d a146 ae3d 1061 a8bd
000000f0: 4b74 8b3d b263 66bd cb20 3fbd d7de b63d
00000100: 1843 a1bd 6fd9 dcbc a9db 41bd cce0 8abd
00000110: a87a 3dba 1767 f73c fbd8 36bd d519 a7bd
00000120: c5f9 843d 3136 d73d f4f0 5d3d a0e5 01bd
00000130: 5e7e 53bc d245 8f3d 47dd c2bd 59be a2bd
00000140: 8b47 503d 1d3b 24bc a7af ac3d de20 3d3d
00000150: 8357 96ba 6f47 993d 1b8a b03d 95ab 873d
00000160: e536 c5bd 4bb6 a03d ef1e 553d 617a 69bc
00000170: 915a 0d3c 145f e53d 21fa 8ebd db25 bf3c
00000180: c826 66bd abce 143d a48d a03d 3021 1abd
00000190: d22f 6ebc 4b6c 963d bb52 bebd 2fc4 ce3d
000001a0: 8bf5 b83d f7cc 933d 27f6 81bd 3b36 37bd
000001b0: d3b7 24bc fceb dbbd 258e cbbd 4ae7 2f3d
000001c0: 171b 083c dba1 c7bc fd03 023d fdee a3bd
000001d0: e8bf 343d b31c e2bd 4ca5 d73c 67c5 67bc
000001e0: 3b47 2d3c dab4 513d 5b52 37bc 1ec6 783d
000001f0: 94b1 3ebd fe12 213c 1591 8a3d 280a b03d
00000200: d314 dbbd ff9e 6d3c 7f7f a43d 3a57 e93d
00000210: dd0c c8bd 47fb 7abd dbd4 8139 4735 cfbd
00000220: 0637 4f3d 0f68 c3bd f2a7 93bd 1a05 d0bd
00000230: 8b2d 513d 3c03 3d3d 0151 193d 5ea0 a93d
00000240: 2544 8dbd baab 84bd e770 8dbd 9e26 e2bd
00000250: 9e65 d03b 8a54 b8bd 5b7d 56b9 2465 a23d
00000260: 51f7 de3d a926 3ebd 6557 f03c 8f28 2ebc
00000270: e764 adbd 6b28 cdbd 827b 9abc 1acf 9fbd
00000280: 0739 a53d dd61 e53c d201 a3bd 9d73 c33d
00000290: d856 55bd ff5d e9bd be2b 1f3d f950 21bd
000002a0: 0ede c4bd b01b ca3d cd15 d2bd e632 123d
000002b0: 5e3c 21bd 83e8 873d d4e1 3fbd 746d cb3d
000002c0: 491a edbc 514b d43d 634c 96bd d0e1 c33d
000002d0: 18f8 d1bd 78b6 6e3d 6a59 2e3d d103 bc3d
000002e0: c27d ddbd cf93 b6bd 33d6 f3bc 2c60 d23d
000002f0: f1e8 3c3d 0391 573a bbca af3c dc21 d23d
00000300: ddbb 55bd d05a b63d 30cc 593d b46a 983d
00000310: dc9d 3abd 82e4 253c 6096 e1bd bffb a9bd
00000320: bc27 c63d 9dbf b8bc 990e b1bb 6350 b13d
00000330: 284d b23d f7ff 7e3d baac 2bbc 9a17 a33d
00000340: 7951 cd3d 2a7a c6bd f706 9abd fd18 6bbc
00000350: 5e92 1abd 1d45 953d 5650 00bc 0f20 74bc
00000360: e503 6dbd 6fba d03d 316b 5b3d 5d78 dcb9
00000370: 888c eb3c 8304 c03d f53c c438 f1f0 203d
00000380: ac97 8dbd 0718 ce3d cd2a 38bc db48 b43d
00000390: 69f6 9c3d 605c 9c3c 9d9e 613d 9789 773d
000003a0: 2ce6 e33d 5697 afbd fb0e 8e3b 41c3 a83d
000003b0: 0b6c f5bb bde9 d03b f223 613d ad4e 24bd
000003c0: fd0c 883d 0fdd f8bc 9e8c d1bd a6cd 46bc
000003d0: b7cc dcbd 55f0 9c3d 86b0 3c3c f26b b53d
000003e0: fb78 e63d cd91 c73d 3186 933d eab5 c13d
000003f0: 0d20 9a3c e42f dbbd 8e25 863d d9bd 80bd
0.0026182947 0.01393818 -0.07047144 -0.091317505 -0.09614025 0.0017583623 -0.01848501 -0.044723485
0.092235886 0.10342269 0.03421505 0.04748238 -0.08766215 -0.0893681 -0.111036055 -0.06960881
0.041644316 -0.11173116 0.026872624 0.088538595 0.03729934 -0.10312424 -0.059458412 0.08744303
0.05674301 0.06537595 0.020234475 -0.05132467 -0.09692289 0.064332694 0.05247737 -0.004244923
-0.0041035935 -0.1092378 0.099916905 0.112174846 -0.08601451 0.007997304 -0.005672638 0.10710598
0.0541629 -0.018340489 -0.009175473 -0.045146067 -0.0386439 -0.077240214 -0.11054135 -0.050656494
-0.05724309 0.0852925 -0.01140609 -0.078600824 -0.06329998 0.07871625 0.1124654 0.07605671
0.084286004 0.074563995 0.08509565 -0.08221638 0.068092905 -0.05624742 -0.046662133 0.08929222
-0.07874125 -0.02695915 -0.047328625 -0.06781158 -0.0007228055 0.030200524 -0.044640522 -0.08159224
0.06492952 0.10508383 0.05418487 -0.031713128 -0.012908546 0.06995739 -0.095148616 -0.07946462
0.05084948 -0.010023859 0.084319405 0.046173923 -0.0011470172 0.07484328 0.086200915 0.066245236
-0.09629611 0.078472696 0.052031454 -0.014250369 0.00862755 0.11199775 -0.06981302 0.02333348
-0.05618933 0.036329906 0.07839516 -0.037629306 -0.014537768 0.07344874 -0.09293123 0.10096013
0.090312086 0.07216828 -0.06345778 -0.044729453 -0.010053593 -0.1073837 -0.09939221 0.042945184
0.00830724 -0.02436917 0.031742085 -0.08004568 0.04412833 -0.1104063 0.026323937 -0.0141461855
0.010576065 0.051197864 -0.011189069 0.060735814 -0.04655607 0.009831188 0.067659535 0.08595687
-0.10697331 0.01450324 0.080321305 0.1139359 -0.097680785 -0.061274793 0.00024763387 -0.10117584
0.050589584 -0.09541332 -0.072097674 -0.10157223 0.051068824 0.046145663 0.037430767 0.08282541
-0.06897763 -0.06478067 -0.069063 -0.11042522 0.00635977 -0.090004995 -0.00020455329 0.07929447
0.108870156 -0.046423588 0.029338548 -0.010629787 -0.08466511 -0.10017475 -0.018857721 -0.07803173
0.08067518 0.028000766 -0.079593316 0.09543536 -0.052084774 -0.113948815 0.038860075 -0.039383862
-0.09612666 0.09868562 -0.102580644 0.03569307 -0.03936421 0.06636145 -0.046846226 0.09932986
-0.028943198 0.10365928 -0.07338788 0.09564555 -0.10252398 0.058279485 0.04256574 0.091804154
-0.10815002 -0.08914911 -0.029765224 0.102722496 0.046120588 0.00082232076 0.021458974 0.102603644
-0.052181114 0.0890404 0.053173244 0.07442227 -0.045560703 0.010125281 -0.1101501 -0.0829997
0.096755475 -0.022552306 -0.0054033515 0.08657911 0.08706123 0.062255826 -0.010478193 0.07963486
0.10025305 -0.0969127 -0.0752086 -0.014349219 -0.037737243 0.07288573 -0.007831654 -0.0149002215
-0.057865042 0.101918094 0.053569023 -0.00042051348 0.028753534 0.093758605 9.3573624e-05 0.03929228
-0.06913695 0.100631766 -0.011240673 0.088029586 0.076641865 0.019087017 0.055082906 0.06043395
0.11127886 -0.08573787 0.004335282 0.08240367 -0.0074896864 0.00637552 0.05496592 -0.040114094
0.06643102 -0.030378846 -0.10231899 -0.012133991 -0.10781234 0.07663027 0.011516696 0.088584796
0.11253544 0.09744606 0.07203329 0.094585255 0.018814111 -0.10702494 0.06550132 -0.062862106

bias f4 [12]
00000000: c96c e6bd 14f8 8abd 8043 773b d808 43bc
00000010: d31e 68bd 28f1 a3bd 79ae b7bd 07a2 eabd
00000020: 3890 a93d 7413 0dbd d8c0 2dbc f09c f5bb
-0.11251218 -0.067855984 0.0037729442 -0.011903964 -0.05667002 -0.08004981 -0.08968825 -0.114566855
0.08279461 -0.03444238 -0.01060506 -0.007495515

weight f4 [12]
00000000: 1d00 803f 3fff 7f3f 2e00 803f 1e00 803f
00000010: 2500 803f 0700 803f 62fa 7f3f 36ff 7f3f
00000020: 7cfd 7f3f 16ff 7f3f 2500 803f 55fc 7f3f
1.0000035 0.9999885 1.0000055 1.0000036 1.0000044 1.0000008 0.9999143 0.99998796
0.9999616 0.99998605 1.0000044 0.99994403

bias f4 [12]
00000000: 175d 62b7 faa6 1536 576d a338 a879 55b6
00000010: 6e99 9238 6e73 a1b8 9369 8cb8 63cb 8cb7
00000020: 0a3f dab7 ff5d a1b7 be67 1338 7611 2737
-1.3492324e-05 2.2299923e-06 7.792812e-05 -3.1810287e-06 6.990401e-05 -7.698579e-05 -6.695385e-05 -1.678401e-05
-2.601698e-05 -1.9236466e-05 3.514415e-05 9.958041e-06

running_mean f4 [12]
00000000: f232 35be 9b43 ebbd e86e 3a3e 9488 6f3e
00000010: d0bc d6be 65cc 6b3d 004f bfbd 6065 14be
00000020: aa04 423d b405 02bd 3d74 88bd 0329 233e
-0.17695215 -0.11487504 0.1820637 0.23391944 -0.41940928 0.057567973 -0.0934124 -0.14491796
0.04736773 -0.03174372 -0.06662796 0.15933613

running_var f4 [12]
00000000: 4f21 123c 0afc bb3b 1739 c13c 9bbb 1d3d
00000010: d357 b63d ecf2 6d3c e7e7 fd3b a134 923b
00000020: c2bf a23b 7bef 683b 2875 3a3b 83bf 9b3c
0.008919074 0.0057368325 0.023586793 0.038508993 0.0890347 0.014523249 0.007748592 0.0044618403
0.004966707 0.0035543132 0.0028451178 0.019012218

weight f4 [12, 12, 5, 5]
00000000: ebdf 10bc 198f da3c cfda f339 d762 693d
00000010: 97bd ddbc 905a f3bc 5fc9 4dbd 0b55 4d3b
00000020: 5e5f 823c 47a8 34bd 76d3 e83c 704b ce3c
00000030: 43af f53c 5868 50bd 1e6e 9e3c 7715 2fbb
00000040: 4819 b13c c18e 2c3d 261e fbbb 5c04 3f3d
00000050: 8a4b 50bd ac9d 153c e821 70bc 5ca5 3b3d
00000060: 6d17 53bd ef4d 8d3c 17cd 4cbd 6661 313d
00000070: 3c5b ebbc eaf9 bcbb 9be7 413d bf1c 11ba
00000080: e8f7 10bd 8238 8dbc d427 d9ba ad6a b4bb
00000090: e763 103d e19e 55bd 590b 5abd 70f8 123d
000000a0: 79a8 313d 793d 483d 10f3 2dbd 5466 17bd
000000b0: 0f35 863c cd1d c93c 1f04 913c f4f1 6e3c
000000c0: 08e4 0dbd 39e7 053d e2a0 6abd 2652 063d
000000d0: 60ab 28bd d529 63bd e73c 0dbc f107 473d
000000e0: 07f7 363c 06d8 90bb 408b 533d 122b 03bd
000000f0: efb9 22bb 471c 09bd 2273 a7bc ba29 eb3a
00000100: 83f4 6b3b 7e74 12bd f6b3 213d f8d4 38bd
00000110: d8a5 0ebc f0df 3abd 446d 7e3c 082e 3dbd
00000120: 6e80 383d 0c37 d03c 276a 1fbd b7a0 d5bc
00000130: 6473 013d 0a5a 6bbd a0b5 63bd 0980 f7bb
00000140: ac98 ae3c 0c0c c53c e647 863c 6181 1f3c
00000150: 8b52 4dbd e18e 163c 5fd7 363c 9a23 883c
00000160: 73f2 28bd e025 093d 67d8 5b3d 9636 5b3c
00000170: 5b1e 253c 9150 143b 2d38 473d bff4 173d
00000180: d8ba 543d 7114 24bd 9185 f03b 59da 8dbc
00000190: 5caf 513d d8d4 533d f2a1 85bc f2ad 40bd
000001a0: 4b1d edbc e3e9 f4bc 40b1 5d3d 3db0 b4bc
000001b0: 1806 653d 22a1 7abc 4987 183d 2a6b a3bb
000001c0: 0299 53bd 0d39 d13c 7cd7 0d3d 8562 2bbd
000001d0: 645f 10bd cec1 543d 0e88 aebc 9f43 10bd
000001e0: 5fcf a5bc 6d3e 333d dbac 323c 778b e03c
000001f0: f855 783c e159 00bd 6903 9dbb d6e3 5e3d
00000200: ba57 0ebd f579 67bc 182e 3e3d 3040 e4bb
00000210: ab9c 81bc 6529 b93c 8809 753c d370 4b3d
00000220: 1e91 8ebc 6064 653d 1e7c c13b d556 ff3a
00000230: 291b 0d3d ae2f 2bbd 8721 c6bc 694e d8bc
00000240: dc59 58bd fcb3 b53b b109 623d 210f 653d
00000250: 2bba 07bd b4ee 333b 04be 55bd e8d9 d23c
00000260: 13bc 283d 15dd 4a3d 9b4b 043d fff1 793c
00000270: d6c8 583d 5632 403d dd67 bf3c aee7 253d
00000280: 8c07 863a f28f 063d 6ed0 063d e277 62bd
00000290: 5f81 6c3d e357 7c3c e8d5 7a3c ab9d 6c3c
000002a0: 059e 64bd 7f2b d43c f29e 593d ff33 81bc
000002b0: 32c4 7b3c 71a8 b3bb a99e 483d ca23 4abd
000002c0: 0b67 49bd 7a6d 39bb 301b cb3c 10b0 053c
000002d0: e9c1 16bd 291f 32bd 5dd3 19bd 6643 22bd
000002e0: de49 56bd 6392 3bbd 94e0 39bd 5ebd 4fbc
000002f0: ee09 5c3d adbf 923c 841d 2bbd 39be 3dbc
00000300: 2a88 603d f21d 2f3d 5b53 813c 1404 de3c
00000310: 276e 253d f937 17bd 30f7 d43c d5ae 99bb
00000320: d8a6 853c fc5c a1bc ca38 94bc a089 093d
00000330: 8092 f1bc d515 0e3c b441 fc3c bee6 0d3d
00000340: 9fcf 51bd 008f 073d aab2 bcbc e7ac 113d
00000350: 8a9b 0f3d 7641 67bc eb9b 16bd da58 c73c
00000360: 2743 e93c b6d2 e03c deb4 68bd 3de9 a33b
00000370: 4cc6 073d 56cc 583d f3d0 0dbd 00c0 693c
00000380: 6622 5e3c 27a3 723c 6220 5a3d 4a53 e3bc
00000390: 318a a23c 7722 013d e0ac 3ebd ac2a e6bc
000003a0: a155 abbc 5b28 323d fe11 bf3a d450 9239
000003b0: b843 4bbd 1249 44bd 40b4 c0bc 36b1 0dbc
000003c0: b963 23bd 5571 173d 60e3 8cbc e9fc 2e3d
000003d0: c78a 4a3d 8113 5abc 46e1 5ebd 01bc b83c
000003e0: 2609 64bb 0edf d03c a912 be3c 761e 453d
000003f0: 4d90 b03c 53a4 06bd 1176 2c3d 0b76 0dbd
-0.008842449 0.026679562 0.00046511597 0.056979027 -0.027067943 -0.02970627 -0.05024087 0.0031331207
0.015914615 -0.044105794 0.028421145 0.025182456 0.029990798 -0.05088076 0.019339617 -0.0026715675
0.0216185 0.04212833 -0.007663506 0.046635017 -0.05085329 0.00913183 -0.014656521 0.045811996
-0.051536012 0.017249076 -0.050000276 0.043305777 -0.028730027 -0.0057670968 0.047340017 -0.00055355945
-0.03539267 -0.01723886 -0.0016567656 -0.005505881 0.035251524 -0.05215347 -0.05323348 0.03588146
0.04337356 0.04888675 -0.04246813 -0.036962822 0.016382722 0.024550343 0.01770216 0.014584053
-0.034641296 0.032691214 -0.057282336 0.032793187 -0.04117906 -0.055459816 -0.008620477 0.048591558
0.011167294 -0.0044202833 0.05164647 -0.032023497 -0.0024830063 -0.033474233 -0.020440642 0.0017941513
0.0036003895 -0.035755627 0.039478265 -0.045124978 -0.008706532 -0.04562372 0.015528981 -0.046186477
0.045044355 0.025416873 -0.038919594 -0.026077611 0.031604186 -0.057458915 -0.055593133 -0.007553105
0.021313034 0.024053596 0.016391706 0.009735436 -0.050127547 0.009189338 0.011159747 0.016618539
-0.041246843 0.033483386 0.053673174 0.0133797135 0.010078038 0.002263103 0.048637558 0.037098642
0.051936 -0.040058557 0.007340141 -0.01731603 0.051192626 0.051716655 -0.016312573 -0.047040887
-0.028944632 -0.029896682 0.054124117 -0.022056693 0.055914015 -0.015297206 0.037238393 -0.00498714
-0.05165959 0.0255399 0.03462933 -0.041842002 -0.03524722 0.05194264 -0.02130511 -0.03522074
-0.020240484 0.043760706 0.01090547 0.027410252 0.015157215 -0.031335715 -0.0047916663 0.0544165
-0.03475163 -0.014128198 0.046430677 -0.0069656596 -0.015821775 0.022602746 0.014955886 0.049668144
-0.017403182 0.05600393 0.0059046885 0.0019480834 0.03444973 -0.041793518 -0.024185909 -0.026404576
-0.05282007 0.0055451375 0.055185024 0.05592263 -0.033136528 0.002745551 -0.052183166 0.025738671
0.041194987 0.049527247 0.032298665 0.01525545 0.052925907 0.046923004 0.023364956 0.04050415
0.0010225638 0.03285212 0.032913618 -0.05529011 0.057740565 0.015401813 0.015309788 0.014441888
-0.05581476 0.025899647 0.053130098 -0.015771864 0.015366601 -0.0054827263 0.048979435 -0.049350537
-0.049170535 -0.0028294013 0.024793237 0.008159652 -0.03680602 -0.043486748 -0.037555087 -0.039615057
-0.05231654 -0.045793902 -0.04538019 -0.012679426 0.053720407 0.017913664 -0.041776195 -0.011580997
0.054817356 0.042753167 0.015786817 0.027101554 0.040388253 -0.036918614 0.025996774 -0.004690031
0.016314909 -0.019697659 -0.018093485 0.033578515 -0.029488802 0.008672197 0.030793048 0.03464388
-0.051223394 0.03309536 -0.023034412 0.035565283 0.035060443 -0.014114728 -0.03676979 0.02433436
0.028474404 0.027444225 -0.056813113 0.0050021694 0.033148095 0.052929245 -0.034623098 0.014266968
0.013558006 0.014809406 0.05325354 -0.027749676 0.019841285 0.03152701 -0.046551585 -0.02809652
-0.020914854 0.043495517 0.0014577506 0.00027907512 -0.04962513 -0.047921248 -0.02352345 -0.008648207
-0.039890025 0.036973316 -0.017198265 0.042721663 0.049448755 -0.013310314 -0.054414056 0.022550585
-0.0034795492 0.025496986 0.023202257 0.048124753 0.021553183 -0.032871556 0.042104784 -0.034536403

bias f4 [12]
00000000: 7ca7 5ebc a61b 383d 48a8 c23c 04df 8b3c
00000010: 90f6 b8bc c03f 023d 3a46 0c3d ca21 f0bc
00000020: ec3b 2cbd e4ed 923c e0fd 84ba 12a3 5a3d
-0.013589736 0.044948243 0.023761883 0.017074116 -0.022578508 0.031799078 0.03424666 -0.029312987
-0.042049333 0.0179357 -0.0010146461 0.053378172

weight f4 [12]
00000000: 2300 803f fdff 7f3f acff 7f3f 0e00 803f
00000010: c5fe 7f3f e0fb 7f3f 1e00 803f 7bfc 7f3f
00000020: 3000 803f 0ef9 7f3f 55fb 7f3f 2900 803f
1.0000042 0.9999998 0.999995 1.0000017 0.9999812 0.99993706 1.0000036 0.9999463
1.0000057 0.999894 0.9999288 1.0000049

bias f4 [12]
00000000: 61f3 8238 31c3 8938 587f 1738 beb3 8e37
00000010: 32d5 9538 f1f4 fdb6 03f0 d4b6 1d7f d6b8
00000020: 2c85 e938 a6e5 d8b8 0e0b c6b8 420e bf37
6.244216e-05 6.569026e-05 3.6119804e-05 1.7011418e-05 7.1445844e-05 -7.5685025e-06 -6.3460334e-06 -0.00010227992
0.00011135111 -0.00010342458 -9.443435e-05 2.2775614e-05

running_mean f4 [12]
00000000: 6dec d03d d434 923e a1ce 393e 9578 023f
00000010: 367a 1bbe 924f d8be ba7f 77bc 8cb4 433d
00000020: 2d36 153e acd0 643c f121 13be 2e69 c63e
0.10201345 0.2855593 0.18145229 0.50965244 -0.15183339 -0.42248207 -0.015106136 0.047779605
0.14571448 0.013965767 -0.14368416 0.3875212

running_var f4 [12]
00000000: a854 e73d d2f7 5a3e 918b bf3d a07f 0c3e
00000010: cbee 833d e27c d63d fe4a 803d cd89 433d
00000020: 0d2e 9c3d db79 643e 0839 963d d8b3 273e
0.11295444 0.21383598 0.09352792 0.1372056 0.064420305 0.10473038 0.062643036 0.04773884
0.07625971 0.22312109 0.073350966 0.16377199

weight f4 [24, 12, 5, 5]
00000000: 62a2 4f3b bc26 c43c c6de 95bc 1442 f9bc
00000010: 36d9 36bd 57c6 40bc d0a6 5b3d 03b0 1b3d
00000020: b911 efbc a546 23bb 378c 50bc df72 55bd
00000030: 9fa7 173d bf2b b2bb 1c4f c33b f5f1 30bc
00000040: 05e0 e6bb 3943 62bd 8fbf c23c 80af d7ba
00000050: 60b1 d63b d246 0f3d 1ff3 febc 8bb9 48bd
00000060: fd80 593d 032f 13bd 042e 8cbc 2f59 1b3d
00000070: 4095 51bd a7c9 9d3c 1897 23bd 0346 32bd
00000080: 3815 c9bc 1d12 0e3d 69bb 443d bb9e d7bc
00000090: 50d2 573d 7039 133d 80b8 e7bc 6b6a bbbc
000000a0: 6cd7 30bd 0d3a 8f3c 9fe1 503d ba40 913c
000000b0: 0089 0a3d 252c 3bbd a798 d7bc 4253 e8bc
000000c0: 3f1e ccbb a645 653d b737 59bd e948 093c
000000d0: 93e9 06bd 6cfc d7bc 30ac f3bc 190e 30bd
000000e0: 8682 0ebd ef6d dc3c adb2 b2ba 4abd d83c
000000f0: 55a1 eb3c a401 fe3b f92e 0e3d fe49 1b3d
00000100: 337e f2bc 1b7b d23b f790 2abd 0432 5b3c
00000110: b9e2 163d 1859 d3bb 2391 c53c c86a b53c
00000120: fab4 b6bc 6947 2d3d f5a0 cfbc bc58 f63c
00000130: cd37 04bd fac2 853c 79eb 24bd acb4 2abc
00000140: 7656 57bd 285a 0bbd c3ec 0dbc c43e 2bbd
00000150: 5dbe 63bd 9767 183a 7c4c c8bc 109f 1cbd
00000160: 1d1b afbc 17a4 8fbc edf6 2f3d a1b3 43ba
00000170: c99b 053d c370 153d 0fcb 2b3d 0682 40bd
00000180: 47c9 c73c 0e48 be3a 25c4 07bd 3565 d23c
00000190: d9e5 203d c6a5 d73c fe19 ee3c 1772 823b
000001a0: 8fbc 14bd 43da 1f3d 5f97 ed3c 8a68 59bd
000001b0: 01a5 343d aa87 0d3d 0a95 65b9 8b08 fe3b
000001c0: a872 e33c 3440 67bb f991 bcba 6b54 023d
000001d0: 1806 563b e2a7 41bd 564d 3dbd e5ce 12bc
000001e0: 2d0d ad3a be00 4d3d a6b6 473d a7ba b8bc
000001f0: c59b 373d 6673 edba b262 5d3c 1284 2abc
00000200: f4c2 58bc 62b0 6a3d 37e6 16bd aad8 ee3b
00000210: c02d 49bd 7669 953c 6642 f63c d333 15bd
00000220: 772e c9bb 232c 8a3c 3034 09bd c0e8 1cbd
00000230: 07d6 21bc f1a2 353d 5ef9 5e3d bb5c 05bd
00000240: 9eca 22bd b022 8c3c 7af6 d43a 655b c83c
00000250: a904 0e3d 3b38 a93c 7cad 433d 5f4b 13bc
00000260: 7a10 203d c40c 383d d39b 7abc 5729 213d
00000270: 990c 353d 8073 2fbd 5ac7 e33c 4d54 363c
00000280: e667 433d 8ca8 bebc 0707 e13c 115c 3dbd
00000290: d5d0 603c d6e1 c13c 1c01 173d 3561 e8bc
000002a0: 93e4 04bd df4f 15ba 9981 05bd dae8 cbbc
000002b0: 3071 983c e7ce 313d be6a 083d 84f6 96bc
000002c0: 5a9a d63c 1f4c 40bd 4bc5 dbbc 25b0 0a3d
000002d0: 144e 4abd 359d aa3c d89f 1dbd 97fe 073b
000002e0: 5bef 42bd e569 c73c 459f b33c 85d6 313d
000002f0: 2e38 09bb 38e5 783c dbfb 453d 4f4e efba
00000300: f866 413c 925e c23c 4627 9fbc 7141 b3bc
00000310: 9991 59bc d16c 443d 5779 b3bc 97f2 523d
00000320: d521 693c 95f6 90bc 93d0 3e3d a464 45bd
00000330: ad39 133b 3840 dd3c 864e 1a3d a926 343c
00000340: dda1 acbc 7203 5f3c 763b 6c3c 12c4 89bc
00000350: 4b2f 743c e457 30bd eced 603d 5535 68bd
00000360: e403 4c3b c1e4 cd3b c9a5 20bd 14b2 2abb
00000370: 351e 14bd 407c 233d 14b8 5c3d 591e 103c
00000380: 9859 473d 0ca9 3f3d b17e 53bd 1e9f 523d
00000390: 6b6f 5e3c 71dd f13c 9665 60ba 527c c4bb
000003a0: bac4 64bc 96a0 48bd 0846 e23c 20e2 dcbc
000003b0: 9e24 83bc 3e5b d2bc 62f3 963c 4526 4dbb
000003c0: 3c48 58bd d924 42bd 7bcf 413b 57f4 4e3c
000003d0: 1223 94bc 648f 37bc 0a55 973c e234 3d3d
000003e0: c73b be3c 0b89 00bd 7996 1cbd c58d 18bd
000003f0: c774 ce3c 3348 6bbc efd1 963c 496f c2bc
0.003168248 0.023944251 -0.018294703 -0.030427016 -0.044640742 -0.011766038 0.05362588 0.038009655
-0.029183256 -0.0024913934 -0.012728742 -0.052111503 0.03702509 -0.005437344 0.0059603583 -0.010799875
-0.007045748 -0.05523989 0.023772983 -0.0016455501 0.0065519065 0.03497965 -0.031121789 -0.049005073
0.05310153 -0.035933506 -0.017111786 0.03792685 -0.051167727 0.019261194 -0.039939016 -0.0435238
-0.02454625 0.034685243 0.04803029 -0.026320806 0.052690804 0.03594345 -0.028286219 -0.022877892
-0.043174192 0.017483735 0.05099642 0.01773106 0.03382206 -0.045696396 -0.026317907 -0.028360013
-0.0062291916 0.055974625 -0.05303165 0.0083792 -0.032937597 -0.026365481 -0.029745191 -0.042982195
-0.034792446 0.02690789 -0.0013633572 0.026457448 0.028763453 0.0077516604 0.034712765 0.03791236
-0.029601192 0.0064233667 -0.041642155 0.013378624 0.036837313 -0.00644983 0.024117058 0.022145644
-0.022303093 0.04230443 -0.025345305 0.030071609 -0.03227978 0.016328324 -0.040263627 -0.010419052
-0.05257269 -0.034021527 -0.008662405 -0.041807905 -0.055601466 0.0005813776 -0.024450533 -0.03823763
-0.021375233 -0.017534299 0.042960096 -0.00074654265 0.03261927 0.03648449 0.0419417 -0.046999
0.024387969 0.0014517324 -0.033146042 0.025683025 0.0392817 0.026324164 0.029065128 0.0039808857
-0.036312636 0.03902651 0.029002843 -0.05307821 0.044102672 0.034553207 -0.00021894663 0.0077524832
0.027764633 -0.003528607 -0.0014386765 0.03181879 0.003265744 -0.047279246 -0.04621633 -0.00896046
0.0013202779 0.050049536 0.04875817 -0.02254994 0.044826288 -0.0018116056 0.0135123 -0.010407465
-0.013230074 0.057297118 -0.036840644 0.007289012 -0.049115896 0.018238764 0.030060958 -0.036426377
-0.0061395722 0.01686675 -0.033497036 -0.038307905 -0.009877688 0.044344846 0.054437034 -0.032559138
-0.039744012 0.017106384 0.0016247772 0.024457643 0.034672413 0.020656696 0.04777287 -0.008990138
0.039078213 0.04493405 -0.01529594 0.039346065 0.044201467 -0.04283476 0.02780502 0.011128497
0.047706507 -0.023273729 0.027469171 -0.04623038 0.013721664 0.023667257 0.036866292 -0.028366664
-0.032444548 -0.00056958006 -0.032594297 -0.024891306 0.01860866 0.043410208 0.033304922 -0.018428095
0.026196647 -0.046947595 -0.026827475 0.03385939 -0.049390867 0.020826915 -0.038482517 0.0020751113
-0.04759155 0.024342487 0.021926532 0.043417472 -0.0020938027 0.015191369 0.04833589 -0.0018257591
0.011804335 0.023726735 -0.019427907 -0.02188179 -0.013279342 0.047955338 -0.021908445 0.051500883
0.014229258 -0.017695704 0.04658563 -0.04819168 0.0022464797 0.027008161 0.037672542 0.010995545
-0.021073276 0.013611661 0.0144184735 -0.016817126 0.014903854 -0.04305257 0.0549144 -0.056691486
0.0031130249 0.006283373 -0.039220605 -0.0026046084 -0.03616162 0.039913416 0.053886488 0.008796298
0.048669428 0.046792075 -0.051634494 0.051421277 0.013576369 0.029524537 -0.00085600594 -0.0059962654
-0.013962919 -0.04898127 0.027621284 -0.026963294 -0.016008671 -0.025678273 0.0184266 -0.0031303328
-0.052803263 -0.047398422 0.002957313 0.012631497 -0.01808313 -0.011203621 0.018473167 0.04619301
0.023221863 -0.031380694 -0.03822944 -0.037244577 0.025202168 -0.014360475 0.018410651 -0.023734706

bias f4 [24]
00000000: 3805 953b 102f fc3b b4e3 62bd 14c6 9b3c
00000010: 0d23 5abd 20b3 ddba 7804 623d f09c 6a3d
00000020: 98ab bcbc aeaa 30bd b67b 1c3d 883c 1bbd
00000030: 00e6 d13a 2c53 5abc 884e 88bb e7ec 2ebd
00000040: 1611 88bc a8cd 373c 906e 543c 2aef 1f3d
00000050: 28d5 3e3c 8097 77bb 4a37 22bd 4c90 d73c
0.0045477413 0.00769604 -0.055392936 0.01901535 -0.053256083 -0.0016914345 0.055180043 0.057278574
-0.023031041 -0.043131523 0.038203917 -0.037899524 0.001601398 -0.013325494 -0.0041597523 -0.042706396
-0.01660971 0.011218466 0.012965813 0.039046444 0.0116475 -0.003777951 -0.03960351 0.026313923

weight f4 [24]
00000000: 2600 803f 1a00 803f 7aff 7f3f c3fd 7f3f
00000010: 22fc 7f3f c2fb 7f3f fbfc 7f3f 0800 803f
00000020: adfe 7f3f 72fa 7f3f 77fe 7f3f 65f6 7f3f
00000030: 5700 803f 0900 803f 68fd 7f3f 3900 803f
00000040: caff 7f3f 1700 803f 1300 803f 1f00 803f
00000050: 98fb 7f3f 2100 803f 06fe 7f3f 3500 803f
1.0000045 1.0000031 0.999992 0.99996585 0.999941 0.99993527 0.9999539 1.000001
0.9999798 0.99991524 0.9999766 0.99985343 1.0000104 1.0000011 0.9999604 1.0000068
0.9999968 1.0000027 1.0000023 1.0000037 0.99993277 1.0000039 0.99996984 1.0000063

bias f4 [24]
00000000: 7385 1838 ab62 6137 88d5 d138 b0b7 42b8
00000010: 2ae0 acb8 ef93 37b8 d3b0 2ab8 bade 5d37
00000020: 842b c437 ca49 3ab8 f0c7 89b7 db29 f3b8
00000030: c7f2 a838 ebfe 9b37 e234 8ab6 b232 ab38
00000040: c82e 1cb8 dc6c 1538 be6b 16b7 3f2a c638
00000050: 7631 34b8 f1dc 7538 4174 40b7 0f76 b738
3.636391e-05 1.3434018e-05 0.0001000567 -4.6424277e-05 -8.243353e-05 -4.3768374e-05 -4.069584e-05 1.3224484e-05
2.3385284e-05 -4.4414577e-05 -1.6424776e-05 -0.00011594939 8.056085e-05 1.8596145e-05 -4.118877e-06 8.163358e-05
-3.7236867e-05 3.562575e-05 -8.965782e-06 9.449245e-05 -4.296141e-05 5.861832e-05 -1.1471159e-05 8.74811e-05

running_mean f4 [24]
00000000: 9965 573e dcf9 36be ea48 6abe 8dd9 133f
00000010: c731 0abe 2228 ee3d a9f6 53bc 1dc8 103e
00000020: 88c4 0b3e 5fa1 dcbe 5309 a73e f35f d4bd
00000030: 8ee3 26bf d2f5 843d 633a e5bc f177 21be
00000040: 0903 193c 5cd4 673d ec0c 76be 7ee6 603e
00000050: 9612 873e bee7 78be e9e6 14bf 1cfc 103f
0.2103485 -0.17868751 -0.22879377 0.5775383 -0.13495551 0.116287485 -0.012937226 0.14138837
0.1364919 -0.43091866 0.326243 -0.10369863 -0.6519097 0.06492199 -0.027981943 -0.1576841
0.009339103 0.056599006 -0.24028367 0.21962926 0.26381367 -0.24307153 -0.5816484 0.5663469

running_var f4 [24]
00000000: e53c f53d fb31 493e ff42 663e 523a 8b3e
00000010: 87ba 463e cba5 f83d e1aa 123e d725 073e
00000020: e938 413e 22ba 3e3e e5af 8c3e d7ba 493e
00000030: 2782 d23e ddcc 0c3e 3bba 863e 41c0 6d3e
00000040: 591c 623e 8c19 0f3e b0b8 1d3e dbeb 473e
00000050: aed3 193e 4f12 6e3e 6241 333e aa8d 8a3e
0.11974505 0.19647972 0.22486494 0.27192932 0.19407092 0.121409975 0.14322998 0.13198029
0.18869366 0.18625692 0.27477947 0.1970018 0.41114923 0.13750024 0.26313958 0.2321787
0.22081126 0.13974589 0.15402484 0.19523565 0.15022156 0.23249172 0.1750541 0.27061206

weight f4 [24, 24, 5, 5]
00000000: 87d0 193c 96ca bfbb 94df 5d3c 49ad 1b3d
00000010: 2f8d 22bd 0762 21bd 4f08 f7bc c570 aa37
00000020: d3aa 6cbc 814c 04bc b1d3 713b 10af bfbc
00000030: 0806 ff3c bf0b 04bd b3f4 68bc 5ba1 0bbd
00000040: 44b1 c6bc b6fa 83bc 0240 23bc cb41 1cbd
00000050: ff07 57bc 805b 9aba 035f cfbc 8b96 153a
00000060: 670a 20bd 1429 8ebc 382e 63bb 4db3 d5bb
00000070: 827a f93c 5079 59bc 1b42 1fbd 27a6 06bd
00000080: f643 d73c 8bd2 a9bc 25b4 19bd 2487 333c
00000090: 11ca ee3c eb6e 86bc c47c ff3b 1700 10bd
000000a0: 2b15 c1bb 74c3 f33c 50b8 a0bb 17dc 63bb
000000b0: 542e a33b 8abd 21bd 0664 5cbc 30da ddbc
000000c0: 460a f9bb 97d9 a43c 79df c13c 7cd3 943c
000000d0: 6882 b9bc b890 f63c a0ed fe3c 2426 c33c
000000e0: 170e aabc 3ad2 8f3c c485 a0bc 381a ed3c
000000f0: 37fe 0ebd 8f8a e73a 8623 21bd ac4b 33bc
00000100: 2eb1 dd3c b638 5a3b cae0 0fbb 0363 243d
00000110: f052 9abc b203 953c 904e 1ebd 287b eebc
00000120: a1d7 f83c da87 a93c 3533 cbbc 8f84 f9bc
00000130: bfde b93c d850 ccbc 2a03 6c3b dc12 1a3d
00000140: d936 15bb a84a 02bc 1207 c63c ab79 c23c
00000150: 269b 70bb b295 d93c 1eb3 8d3c fb58 a9bc
00000160: 5181 483c 4994 4d3b 11b3 383b f33c b0bc
00000170: d532 8bbc 5df1 973b 7bae 0ebd 2084 0ebc
00000180: b267 023d c925 b03c 8388 1fbd 20b3 5b3c
00000190: ac64 883c 5166 19bd 4340 c4bb f5be d5bc
000001a0: 48bc 15bd a1db 7dbc 9846 95bb 2aa0 11bc
000001b0: 52ec 0bbd 0b96 f43c 1dc7 093d 054c bd3c
000001c0: 97c3 98bc f727 d13c 88a8 c43c 3a1c 1cbd
000001d0: aef9 ecbb 6229 b03c f922 b0bc 16e4 ee3c
000001e0: 1334 653c 514d 183d e786 9c3b e4b5 023d
000001f0: 8c8b 453c d28c 20bd e41b 9e3a e6fb 99bc
00000200: af4a 19bd 3180 11bd cacc 583c 2608 593c
00000210: 044e c2bc 5ab3 ca3c 108b 313c 1c45 1ebb
00000220: 8f51 123d f51c 063d f5dd f53c 7190 3f3b
00000230: 488b febc c8a6 20bd 8692 00bd 53a7 d83c
00000240: 5004 273d 2c96 943c ccab 24bd a684 013d
00000250: 4e7c 1c3d 974c 5abc 3f88 d5bc 62d3 1dbd
00000260: 54e0 a3bc 59c3 263d 8c84 18bd 3bfa 1bbd
00000270: caab 0cbd ba20 8bbc 689c 73bc fa1e 9f3c
00000280: 3927 ba3b d3b5 a23c 5148 f53c 9166 a4bc
00000290: 17d4 9b3b 44a3 25bd 376e 093d 0050 44bc
000002a0: c2a8 143d f421 8239 e17e dbbc 2504 1abc
000002b0: d10e 073d daec e83b 184d a03b 9251 93bb
000002c0: 395b 623c faa1 02bc 4905 12bd 949e 6dbc
000002d0: 14a0 843c f0a5 25bb a719 16bd d8ad 9dbc
000002e0: 041a be3c f41b 18bc 1c90 e83c b635 05bd
000002f0: e4d7 b6bc 4168 783a b6d2 1a3c a351 c7bc
00000300: 8469 a8bc 4679 093c 65c0 e73c f41a e5bb
00000310: 1cd8 fa3c 2acc 17bd 78e9 bf3b b510 98bc
00000320: 5f5a 1bbc 1507 82ba 785e 043d 1c8d 84bb
00000330: fe18 073d 5677 12bc a7c6 093d a292 283c
00000340: b5ad 01bd 154f 5a3c 656a 6fbc 7abe e73b
00000350: 1d12 ecbb fd42 043d 5e4a 6ebc 6856 d23c
00000360: ab2a 003d e8ea 1e3c f84b 17bd b78e 173d
00000370: 3b7b e03c 4722 b9bc 4a7f 19bd b5ab b93c
00000380: c213 e9bc 91d8 253d c7d5 a03c 2ab0 5abc
00000390: d875 8fbc ae01 123d f74a c6bc d114 f73b
000003a0: 54de b6bc ab88 87bc ba75 943c bca5 e73b
000003b0: a989 263d a955 c4bc 1f62 9e3c 040e 1f3d
000003c0: aefc ddbc 0f8d 243d 1a8f f5bc 351b b1bc
000003d0: a17e af3c 48f2 163c c5dc 2b3c 0ddd 1ebd
000003e0: 3574 16bd a868 b73c 77c4 023d 3435 973c
000003f0: 7299 acbc d75d 01bd f961 eb3c 923d 1abd
0.009388096 -0.0058530075 0.013542075 0.038007054 -0.039685424 -0.039400127 -0.030155329 2.0318092e-05
-0.014445025 -0.008074881 0.003689986 -0.023398906 0.031130806 -0.032237764 -0.014218497 -0.034089427
-0.024254449 -0.01611076 -0.009963991 -0.038148683 -0.013124465 -0.0011776537 -0.02531386 0.00057063316
-0.03907242 -0.017353572 -0.0034665 -0.0065216185 0.030453924 -0.013273552 -0.038881402 -0.0328733
0.026277523 -0.020730278 -0.037525315 0.010957513 0.029149087 -0.016410312 0.0077968556 -0.035156336
-0.005892416 0.029756285 -0.0049047843 -0.0034768635 0.004979888 -0.0394874 -0.013451582 -0.027081579
-0.0076001016 0.020123286 0.02366613 0.01816725 -0.02264519 0.030098304 0.031119168 0.023821898
-0.020758672 0.017556299 -0.019595034 0.028943166 -0.034910407 0.0017665195 -0.03934052 -0.010943335
0.027062025 0.0033297963 -0.0021954053 0.040133487 -0.018838376 0.018190239 -0.03864914 -0.02911146
0.030376257 0.020694662 -0.02480469 -0.030458717 0.022689221 -0.024940893 0.0036012628 0.037615642
-0.0022768287 -0.00795237 0.024173293 0.023739656 -0.003671357 0.026560638 0.017297324 -0.020672312
0.012237863 0.0031368902 0.0028182904 -0.021513438 -0.016992012 0.004636927 -0.034834366 -0.008698493
0.031837173 0.021502392 -0.038948547 0.013409406 0.016649567 -0.037451092 -0.005989106 -0.026092032
-0.036556512 -0.015494258 -0.0045555346 -0.008888284 -0.03416092 0.029856702 0.033637155 0.023107538
-0.018647952 0.025531752 0.024006143 -0.038112856 -0.0072319126 0.021504108 -0.021501051 0.029161494
0.013989466 0.03718311 0.004776824 0.031911746 0.012057196 -0.039196797 0.0012062755 -0.018796872
-0.03742474 -0.035522643 0.013232419 0.013246572 -0.023718841 0.024743725 0.010836378 -0.002415008
0.03572231 0.03274246 0.030013064 0.002923038 -0.031072274 -0.039221555 -0.031389736 0.026446974
0.040775597 0.018138014 -0.0402029 0.031620644 0.038204484 -0.0133239245 -0.026065944 -0.03853167
-0.020004429 0.04071364 -0.03723578 -0.038080435 -0.03434352 -0.016983379 -0.014868833 0.01942395
0.0056809452 0.019862091 0.02994171 -0.020068439 0.0047555077 -0.040438905 0.033552375 -0.011981964
0.036293752 0.0002482083 -0.026793899 -0.009400402 0.032973114 0.007108313 0.004892003 -0.004495808
0.0138156945 -0.007973189 -0.03564957 -0.01450314 0.016189612 -0.0025275908 -0.036645558 -0.019247934
0.023205765 -0.009284008 0.02838903 -0.032521926 -0.022319742 0.0009475984 0.009449651 -0.02433092
-0.020558126 0.00839073 0.028289983 -0.0069917385 0.030620627 -0.03705994 0.005856689 -0.018562654
-0.009481995 -0.0009920324 0.032316655 -0.004045142 0.03298282 -0.008939585 0.033636715 0.010288866
-0.0316598 0.013324519 -0.014612769 0.007072267 -0.0072043077 0.032290448 -0.014544098 0.025675967
0.03129069 0.009699561 -0.036937684 0.037001338 0.02740251 -0.022599353 -0.037474908 0.022664884
-0.028451804 0.040489737 0.019633187 -0.013347665 -0.017512247 0.035646133 -0.024205668 0.0075403233
-0.022322811 -0.01654466 0.018122543 0.0070693176 0.040658627 -0.023966627 0.019333897 0.038831726
-0.027098026 0.040173586 -0.029975463 -0.021619419 0.021422686 0.009213038 0.010489647 -0.03878503
-0.036731917 0.022388771 0.031925645 0.018457986 -0.021069262 -0.031583633 0.02873324 -0.037656374

bias f4 [24]
00000000: 30c3 153d fc04 043c 00f5 7c3b 64a7 14bd
00000010: f8fb bdbc 3ed1 12bd 9689 8cbc 2e99 8a3c
00000020: 3fb6 93bc d05e 64bc 087a 58bc 8837 87bb
00000030: 7cfe 7a3c 0d33 d0bc 5244 3abc f048 9b3b
00000040: 90dc 47bb c68d 0b3d 64b9 103d 24d8 ebbc
00000050: 32d8 7fbc 9cc5 ca3c 3433 65bc 0066 47b9
0.0365631 0.008057829 0.003859818 -0.03629245 -0.023191437 -0.03584408 -0.01715545 0.016918745
-0.018031238 -0.013938621 -0.013212688 -0.004126493 0.015319463 -0.025414968 -0.011368828 0.0047389194
-0.0030496456 0.034070753 0.035333052 -0.028789587 -0.01561551 0.02475243 -0.013989259 -0.00019016117

weight f4 [24]
00000000: 1000 803f 2700 803f c000 803f 3f00 803f
00000010: 2e00 803f a0fe 7f3f 4500 803f 6100 803f
00000020: 3000 803f 1900 803f 3200 803f 64fc 7f3f
00000030: 0800 803f 1efb 7f3f 1700 803f 0dfc 7f3f
00000040: 88fc 7f3f 1800 803f 68fe 7f3f 5f00 803f
00000050: f5ff 7f3f 1400 803f 3900 803f 0a00 803f
1.0000019 1.0000046 1.0000229 1.0000075 1.0000055 0.999979 1.0000082 1.0000116
1.0000057 1.000003 1.000006 0.9999449 1.000001 0.9999255 1.0000027 0.99993974
0.9999471 1.0000029 0.9999757 1.0000113 0.99999934 1.0000024 1.0000068 1.0000012

bias f4 [24]
00000000: 3845 9e38 528f a038 7692 c338 45f5 9c38
00000010: 2cde b038 fa98 9438 060d 0039 cf13 e638
00000020: f4f4 9b38 cff6 ba38 139c fb38 aa31 0db8
00000030: f70e 8038 c5ef 67b7 c1fc 8338 02c6 e6b8
00000040: 9213 a0b8 a662 5438 469f 8138 8c88 e038
00000050: 1e7a 2536 6b57 0438 1a78 ba38 5aea 7d38
7.54692e-05 7.65609e-05 9.325605e-05 7.484345e-05 8.433717e-05 7.085684e-05 0.00012211883 0.00010970944
7.436602e-05 8.915143e-05 0.00011997684 -3.3663273e-05 6.106303e-05 -1.3824499e-05 6.293646e-05 -0.000110041365
-7.63304e-05 5.0636612e-05 6.180866e-05 0.00010706586 2.4657998e-06 3.1552667e-05 8.891542e-05 6.0538157e-05

running_mean f4 [24]
00000000: 49e8 7dbe 7856 873a f2ea 2cbd 37c1 8f3e
00000010: 400c 27bd 230c 913e 26dd efbe 724d 0abe
00000020: 3de2 e8bc 5afb dcbd 6017 d23d a65d 163e
00000030: 67d6 82bd e4d0 10bd 96ec 603d b5c3 8a3e
00000040: d66b d1be 11c9 f13d c29e 8a3e 9ec3 7e3e
00000050: 8202 333e 38f7 213e ec7e c0bc 5d4a 4dbe
-0.24795641 0.0010325452 -0.04221625 0.280771 -0.040783167 0.28329572 -0.4684841 -0.13506106
-0.028428191 -0.10790129 0.10258365 0.14684162 -0.0638855 -0.035355464 0.054913126 0.27102438
-0.40902585 0.118059285 0.27074248 0.2487931 0.17481425 0.15816963 -0.023498021 -0.20047899

running_var f4 [24]
00000000: a354 fc3d 1be4 013e 312e 3e3e d80e a43d
00000010: cf98 d93d a20d ed3d 7395 7e3e b2c9 bb3d
00000020: e11e d63d c2e3 d13d 5f0e eb3d aa1b 9f3d
00000030: beea d13d 03b7 133e db07 1d3e ebec 203e
00000040: 7176 e43d fbb7 af3d 3816 003e 6b7d 063e
00000050: 3c19 083e 4a6a f83d 785e ca3d 50da 033e
0.12320831 0.12684672 0.18572308 0.08010644 0.10624849 0.11574866 0.24861698 0.0916933
0.104551084 0.102485195 0.114773504 0.077689484 0.10249852 0.14425282 0.15335028 0.15715377
0.111554034 0.08580013 0.12508476 0.1313378 0.13290876 0.12129648 0.098813 0.12876248

weight f4 [10, 16224]
00000000: 2e76 213b 5621 12bb 7a49 d5b8 3256 e03b
00000010: bb5c 9f38 35b8 4c3a bcdf c13b 1c06 ef3b
00000020: fa7f a439 6361 65bb 30dc a53b fe68 b83a
00000030: 551e fe3b 8c7b 27ba a5cc da3b 723e 793b
00000040: b7c0 f43b ec22 aabb 8ce5 e43b 3d4b 00bc
00000050: bd6c b43a f191 3cba 693f d5bb 4112 fbba
00000060: 300e 8a39 fa33 d4bb 5dd5 183b 3969 643b
00000070: 462e 863b 7334 df3b 99cf edba 4d6d a53a
00000080: 3379 c63b 6368 8539 6883 8dbb 1750 83ba
00000090: 0e00 a53b 9067 1f3b 63fb d2bb ed20 f4ba
000000a0: 6334 5b3b 9af3 9fbb f11d 5dbb 0cf2 0b3b
000000b0: 9c37 33ba 6b4e 1aba d9a3 dfbb 5eb2 a43b
000000c0: e64d 4a3b e687 99bb e041 8e3b a164 fc3b
000000d0: 328a d63b 913f e73b 32b7 ccbb 25c0 0c3b
000000e0: 0051 89bb 1851 8f3b 9cfd 443b 439b 883b
000000f0: 3217 bf3a e1a1 c7b9 5fab 923b a32f 5b39
00000100: 289e 93bb b5e9 c5bb 2944 213a 5a42 43bb
00000110: 0e57 483b b9b5 403b 2909 baba 945b b33b
00000120: 1f41 09bb 4efb d33b 76cf 9e3b c0c6 bd3b
00000130: 1640 853a 6e4b c53b 61fc 3aba 5d48 82bb
00000140: 426f ef3b 1ce0 fb3a 94bb 833b 0f48 f33b
00000150: 15ec f2ba 20ff 653a 56ce eabb eb79 8cbb
00000160: 21cb 9dbb 4f8d 063a 2871 f33b 0b90 81bb
00000170: 6afa 113b daaf 52bb 09e4 7bba e646 273b
00000180: f918 76bb 81bc e63b 8687 99bb c761 28ba
00000190: 1d98 ae3b cb43 3e3b a5a7 d739 f3ad 84ba
000001a0: 3b01 acbb 7e5a ea39 b7f7 b73b 1b1f c8ba
000001b0: e255 dd3b ed91 dbbb 73d3 a03b 88e9 ce3b
000001c0: 1eae debb 183e ff3b b2c0 e4ba 4667 8abb
000001d0: 458e 903a f2c5 f8bb b7b7 9c3b 9987 a3bb
000001e0: b98b aabb 2c91 7dbb 3266 973b 0693 c23a
000001f0: 297b 8c3b aacc ae3b 587e c43b c3fa 823a
00000200: ad76 133b f970 bcbb fb58 f4bb 0e95 74bb
00000210: 4499 f03b 187a 8a3a 1949 56bb dad7 ec3b
00000220: a275 683b 852a f3ba 71da 35bb 2fe8 51bb
00000230: 8e86 6bbb 3650 6ebb 290e 9d3b 6ab1 433b
00000240: 8b22 6c3a 29e2 fc3b e9e8 073a aa3f 81bb
00000250: 3452 77bb a554 04bb 577c ddbb 351f dd3b
00000260: 1f59 a3b9 5a45 96bb a04e f6bb 0448 833b
00000270: 83a6 27bb 5d8b 01bc 6760 f63b d268 d03b
00000280: e6ba 29bb b076 693b 1714 a5bb 4f39 cd3b
00000290: 1fd7 ccbb 1317 fa3b 9050 b23b bfed 9abb
000002a0: 56fc 523b 19c2 e83b aced e8bb d2e6 8f3b
000002b0: f377 273b b371 8d3b d14e 19bb 3712 1839
000002c0: 2880 f03b fce2 04ba d403 21bb bfe9 fb3b
000002d0: 809d 0d3b d0b3 88bb 57d4 2f39 180d a63a
000002e0: cd13 8b3b 484c c63a efd7 3539 7c7a fcba
000002f0: d9d2 c0ba f1a5 663a df4f 55bb 3901 253b
00000300: b2da d4bb 05bd e1b8 6ddd b7bb 477e 313b
00000310: ae92 ee3b a334 b9bb 7980 7bb9 6c8a 203b
00000320: 2909 593b 6d4d 8bba 2dba 52bb 0111 a4bb
00000330: c5f4 8ebb c91e 613b 209a 28bb f5b4 f73b
00000340: e3ae a53b f299 7cba 2f68 eb3a df28 b9ba
00000350: 3565 f13b 611a b33b e232 a83a e3f5 4dbb
00000360: 3cc2 86bb 10fe b73a 6491 cf3b 9151 8639
00000370: 5d41 81bb 0e13 95bb eb7e 723b e362 86ba
00000380: a955 323b ac55 dfbb d0c2 7c3b b8c7 25bb
00000390: dc84 efbb 072b 9d3b 7da4 fa3b 0597 17bb
000003a0: 90f7 c3bb fe68 2e3b 886a 47bb ea9a 87bb
000003b0: 8f7b 0c3a 5c0a 86bb 54d8 8c3b 9f71 183b
000003c0: aea2 7d3b 26c8 303b 9fc3 f03b b7bf 9a3b
000003d0: 2b17 d43a c180 62bb 1997 60bb 7294 23bb
000003e0: d213 b73b 31b9 c2bb 37ff 60bb d05e ccbb
000003f0: 7768 b5bb 2d1f 4b3a ce53 f73b 8af8 833b
0.002463709 -0.0022297702 -0.000101703175 0.006846213 7.598983e-05 0.00078094314 0.005916564 0.0072944295
0.00031375868 -0.0035000674 0.005061649 0.0014069376 0.0077550807 -0.00063889544 0.0066772276 0.0038031605
0.0074692625 -0.0051921513 0.006985372 -0.007830438 0.0013765317 -0.0007193378 -0.006507803 -0.001915522
0.00026331982 -0.0064759227 0.0023320534 0.0034852757 0.0040948717 0.0068116724 -0.0018143534 0.0012621075
0.0060569285 0.0002544551 -0.0043186434 -0.0010018375 0.005035407 0.0024323203 -0.006438659 -0.0018625535
0.0033447973 -0.0048813345 -0.003373977 0.0021353988 -0.00068365945 -0.0005886319 -0.006824952 0.005026146
0.0030869185 -0.00468539 0.004341349 0.0077024256 0.006547236 0.0070571383 -0.0062474245 0.0021476832
-0.004190564 0.004373681 0.003005839 0.0041688993 0.0014579056 -0.00038076847 0.0044759954 0.00020903214
-0.0045049377 -0.006039823 0.0006151819 -0.0029794187 0.0030569467 0.002940519 -0.0014193404 0.0054735634
-0.0020943356 0.006469167 0.0048465086 0.005791515 0.0010166194 0.006020955 -0.00071329443 -0.0039759115
0.007306964 0.001921657 0.004020164 0.0074243615 -0.0018533493 0.00087736733 -0.0071657104 -0.0042869947
-0.0048154746 0.0005132751 0.0074292608 -0.003953939 0.0022274503 -0.0032148273 -0.000960887 0.0025524436
-0.0037551506 0.0070415144 -0.004685345 -0.00064232614 0.005328192 0.0029032107 0.000411329 -0.0010122642
-0.00524917 0.0004469938 0.0056142467 -0.0015268059 0.006754623 -0.0067007453 0.004908019 0.00631446
-0.0067956587 0.0077893846 -0.0017452447 -0.004223737 0.0011028728 -0.0075919563 0.0047826427 -0.0049905297
-0.0052046445 -0.0038691266 0.004620337 0.0014844842 0.004287143 0.0053344565 0.0059965067 0.0009992946
0.0022501156 -0.005750772 -0.0074568964 -0.0037320289 0.0073424894 0.0010564951 -0.0032697378 0.00722788
0.0035470505 -0.00185521 -0.002774861 -0.0032029261 -0.0035938355 -0.0036363727 0.004792948 0.0029860386
0.0009007833 0.00771739 0.00051845476 -0.003944357 -0.0037738206 -0.0020192054 -0.006759207 0.006748105
-0.00031156183 -0.004585904 -0.007516697 0.0040063877 -0.0025581426 -0.007906762 0.0075188163 0.006360152
-0.0025898754 0.0035623722 -0.0050377953 0.006262935 -0.0062512304 0.007632145 0.0054417327 -0.0047280486
0.003219386 0.0071032164 -0.007108411 0.0043915296 0.0025553673 0.0043165325 -0.0023392926 0.00014502635
0.007339496 -0.00050692237 -0.0024568932 0.007687777 0.002160877 -0.004171826 0.00016768403 0.0012668697
0.004244304 0.0015128935 0.00017341947 -0.0019262577 -0.0014711275 0.0008798531 -0.0032548828 0.002517773
-0.006495797 -0.00010764044 -0.005611113 0.0027083324 0.007280669 -0.0056520267 -0.00023985085 0.0024496568
0.0033117032 -0.0010627933 -0.0032154426 -0.00500691 -0.004362675 0.0034350625 -0.0025726631 0.0075594136
0.0050562485 -0.0009635977 0.0017960126 -0.001412656 0.007366801 0.005465791 0.0012832547 -0.0031427077
-0.00411251 0.0014037509 0.0063344706 0.00025619243 -0.0039445595 -0.0045493906 0.0037001919 -0.0010252859
0.0027211702 -0.006815633 0.0038568266 -0.0025296044 -0.0073095392 0.004796389 0.007649003 -0.0023130786
-0.0059804395 0.0026612873 -0.0030428488 -0.0041383402 0.0005358988 -0.0040905904 0.0042982493 0.0023261083
0.00387017 0.0026974767 0.0073475386 0.004722561 0.0016181221 -0.0034561607 -0.0034269749 -0.0024960306
0.0055870796 -0.0059424867 -0.0034331807 -0.0062368885 -0.005536135 0.0007748481 0.007547832 0.004027431

bias f4 [10]
00000000: 4d2a 9d3b 406e 41bb d8c5 b9bb 9a28 f33a
00000010: eafa 9a3a 2d8f 143b 8a68 74ba 7a30 a03b
00000020: ce99 9f3b d0eb a03b
0.0047963024 -0.0029515177 -0.0056693368 0.0018551529 0.0011824046 0.0022668347 -0.0009323439 0.0048885914
0.00487063 0.0049109235
